log/segmentation/pn/bucket/full/pn_0.pth (torch, 337359 bytes, 8 tensors)

local_mlp.0.weight f4 [64, 3]
-0.06398858 -0.017371772 -0.058078162 -0.056855857 0.0057048113 -0.043964714 0.026376817 -0.043871522
0.06584251 0.083047636 -0.044148598 0.030356217 0.021728892 0.009013102 0.0628425 0.040704466
-0.10906554 0.08768341 0.003171486 -0.007320439 0.062435765 0.045652278 -0.015665524 0.0802444
-0.06462182 -0.04006645 -0.03376018 0.012208665 -0.0023362848 0.05565788 -0.04670496 0.016496524
-0.037240893 -0.048057713 -0.024269054 -0.0421262 -0.005750669 0.014788894 -0.057631776 -0.03616346
0.007810485 -0.04241544 0.028676523 -0.06305788 0.124874674 0.010007926 -0.036242824 0.057554007
0.0688586 -0.009038843 0.05778059 0.07805282 -0.013367291 0.051600568 0.059248082 0.0126692895
0.03945918 0.08079775 -0.006544822 0.04551375 -0.020142838 0.011219941 -0.056117523 -0.012530046
-0.006225231 -0.05141155 0.032329455 -0.03182511 0.050180145 0.05470464 -0.01601823 0.056886956
0.07944452 -0.042269792 0.04677326 -0.062106658 0.02126537 -0.07449638 -0.08261618 0.08363539
-0.058269225 0.0050084945 -0.011139796 0.05461804 0.012063452 -0.07845708 0.049759023 -0.045396145
0.03314428 -0.052939836 -0.046323046 0.024625508 -0.06086596 -0.032671474 0.021842415 -0.063251615
-0.051750038 0.02270237 -0.06852927 0.050354246 -0.028899075 0.08616845 -0.03932454 0.027107056
-0.052381687 -0.070654735 0.023609033 -0.05802369 0.0139364675 -0.0522689 0.04969141 -0.031225171
0.0603614 -0.04096352 -0.043816578 0.009678751 -0.06834011 -0.05659427 0.018206034 -0.04112413
-0.06183916 -0.00620231 -0.06556681 0.037711505 -0.014019194 0.045134973 -0.03065527 0.0027726367
-0.043108806 -0.055908725 0.0019765976 -0.04276307 0.0023265278 0.00129917 -0.047108874 0.04957557
0.004377907 0.070896834 0.033704214 -0.0179708 0.048532464 -0.017278107 0.039945107 -0.07823017
0.0683564 -0.038178068 0.03528583 -0.06802263 0.026294472 -0.079399824 -0.026007913 -0.032788265
-0.053325165 0.026188092 -0.011733483 0.059323963 -0.051156823 0.02236405 -0.07798762 -0.03655273
-0.0069319895 -0.041132394 -0.062007148 0.0070307986 -0.06652512 0.058965355 -0.03491513 0.06460346
0.02663045 -0.033689834 0.04856079 0.06157063 0.03142198 0.033164706 0.033798777 -0.07721584
0.05303549 -0.022470359 0.035971634 -0.04870057 0.023385394 -0.013747868 0.044059254 -0.051663682
0.023616372 -0.041869197 -0.004389878 0.08290541 -0.051805716 -0.005430142 0.0075199245 -0.04151062
00000000: 720c 83bd 3f4f 8ebc 5ee3 6dbd b0e1 68bd
00000010: 6def ba3b 5814 34bd 3214 d83c a0b2 33bd
00000020: 70d8 863d e114 aa3d 29d5 34bd 9aad f83c
00000030: ca00 b23c b1ab 133c 92b3 803d bab9 263d
00000040: c15d dfbd 5c93 b33d b5d8 4f3b 4be0 efbb
00000050: a5bc 7f3d e2fd 3a3d fc54 80bc 2d57 a43d
00000060: 7258 84bd b81c 24bd 1d48 0abd da06 483c
00000070: 5b1c 19bb 84f9 633d b34d 3fbd b823 873c
00000080: e889 18bd 2ad8 44bd e5cf c6bc 868c 2cbd
00000090: 1c70 bcbb 1e4d 723c 4c0f 6cbd 2320 14bd
000000a0: 19ef ff3b d0bb 2dbd 07eb ea3c 7d24 81bd
000000b0: 4bbe ff3d 49f8 233c 5b73 14bd c0bd 6b3d
000000c0: bd05 8d3d a817 14bc 57ab 6c3d 28da 9f3d
000000d0: 7b02 5bbc 1e5b 533d 1eae 723d da92 4f3c
000000e0: f39f 213d 4a79 a53d f275 d6bb a06c 3a3d
000000f0: 9802 a5bc d8d3 373c 7ddb 65bd d24a 4dbc
00000100: 06fd cbbb eb94 52bd e46b 043d 0c5b 02bd
00000110: b289 4d3d f911 603d aa38 83bc 4c02 693d
00000120: cfb3 a23d 1723 2dbd 5195 3f3d 8d63 7ebd
00000130: b734 ae3c 8f91 98bd ac32 a9bd 0849 ab3d
00000140: b6ab 6ebd 4c1e a43b b183 36bc 2ab7 5f3d
00000150: c9a5 453c 1bae a0bd 1ed0 4b3d 4ff1 39bd
00000160: 4cc2 073d 71d7 58bd 3cbd 3dbd 6fbb c93c
00000170: 964e 79bd 86d2 05bd ddee b23c 108a 81bd
00000180: d9f7 53bd 52fa b93c 1359 8cbd 4140 4e3d
00000190: c1bd ecbc 1679 b03d c512 21bd 9e0f de3c
000001a0: 2e8e 56bd 6eb3 90bd bb67 c13c 40aa 6dbd
000001b0: c855 643c ea17 56bd 3889 4b3d eecb ffbc
000001c0: 843d 773d 5dc9 27bd 0379 33bd a093 1e3c
000001d0: e6f5 8bbd 65cf 67bd d224 953c c771 28bd
000001e0: 0f4b 7dbd bf3c cbbb e447 86bd 6177 1a3d
000001f0: c3b0 65bc 73df 383d c320 fbbc 20b5 353b
00000200: dc92 30bd 8c00 65bd ce89 013b 5428 2fbd
00000210: a978 183b e948 aa3a 3cf5 40bd c10f 4b3d
00000220: 8c74 8f3b 5c32 913d 6e0d 0a3d 8037 93bc
00000230: fac9 463d d18a 8dbc 7b9d 233d 2437 a0bd
00000240: 71fe 8b3d 9b60 1cbd e087 103d 734f 8bbd
00000250: 8167 d73c 609c a2bd 8c0e d5bc fd4c 06bd
00000260: 7d6b 5abd 6988 d63c cb3d 40bc affd 723d
00000270: d189 51bd d034 b73c f9b7 9fbd 51b8 15bd
00000280: be25 e3bb 717a 28bd 35fb 7dbd 9d62 e63b
00000290: 523e 88bd a885 713d 2b03 0fbd d24e 843d
000002a0: 1a28 da3c 5afe 09bd aee7 463d 7c31 7c3d
000002b0: 56b4 003d b7d7 073d 9670 0a3d 5723 9ebd
000002c0: be3b 593d c213 b8bc fe56 133d 407a 47bd
000002d0: ba92 bf3c bd3e 61bc 7a77 343d 4c9d 53bd
000002e0: 1f77 c13c 097f 2bbd f7d8 8fbb 50ca a93d
000002f0: 3b32 54bd 55ef b1bb b369 f63b 0a07 2abd

local_mlp.0.bias f4 [64]
-0.040910285 -0.04017239 0.040735412 0.028800054 0.036672786 0.040757347 0.036273956 0.03775932
-0.03689881 0.040215448 -0.040205844 -0.0378212 -0.035036296 -0.037943773 0.0384784 0.04015519
0.04034338 0.04039285 0.036196288 0.040732354 -0.040077202 -0.034703925 0.03473872 0.037922457
0.040200025 -0.037924673 -0.03695645 0.040892858 0.040250216 -0.040727872 -0.04058361 -0.040113825
-0.036634803 0.038088482 -0.033414196 -0.04056715 0.037754245 -0.03708919 -0.040702518 -0.03427758
-0.040772732 0.03223379 -0.038083885 -0.040550753 -0.035932824 0.03792116 0.03486351 -0.040687144
0.034098398 -0.04045195 -0.034583554 0.040427633 -0.04027208 -0.037882324 -0.0404162 0.038188595
0.03986615 0.036587648 0.040207118 -0.04035703 0.040437322 -0.03610309 -0.03230259 -0.03801898
00000000: 8b91 27bd ce8b 24bd 2dda 263d 17ee eb3c
00000010: 3436 163d 2df1 263d 0094 143d 84a9 1a3d
00000020: 3523 17bd f4b8 243d e2ae 24bd 67ea 1abd
00000030: 3882 0fbd ee6a 1bbd 879b 1d3d c579 243d
00000040: 1a3f 253d f972 253d 8f42 143d f8d6 263d
00000050: fe27 24bd b425 0ebd 304a 0e3d 9454 1b3d
00000060: c8a8 243d e756 1bbd a65f 17bd 457f 273d
00000070: 69dd 243d 45d2 26bd 003b 26bd 654e 24bd
00000080: 600e 16bd ab02 1c3d 53dd 08bd bd29 26bd
00000090: 32a4 1a3d d6ea 17bd afb7 26bd a666 0cbd
000000a0: 4f01 27bd 9407 043d d9fd 1bbd 8c18 26bd
000000b0: 4c2e 13bd 3853 1b3d 0acd 0e3d 90a7 26bd
000000c0: c3aa 0b3d f2b0 25bd 7ca7 0dbd 7297 253d
000000d0: 56f4 24bd 7f2a 1bbd 758b 25bd a56b 1c3d
000000e0: b04a 233d eedc 153d 38b0 243d 6a4d 25bd
000000f0: 9ba1 253d d5e0 13bd b84f 04bd cab9 1bbd

local_mlp.2.weight f4 [256, 64]
-0.018166319 -0.056242533 0.07943221 0.03320049 0.058491696 0.053995915 0.03852527 0.06250401
-0.046817217 0.015004933 -0.017476968 -0.040903516 -0.012546523 -0.06386315 0.042893693 0.03822091
0.023379534 0.0677347 0.048720878 0.06005287 -0.01806451 -0.014876661 0.017787008 0.025590762
0.039431397 -0.043420043 -0.08887733 0.026062567 0.04965623 -0.04895826 -0.029945405 -0.046594013
-0.031186571 0.037098788 -0.05956289 -0.030681212 0.014315202 -0.042131785 -0.080970176 -0.062343318
-0.040518414 0.008519387 -0.042598605 -0.027038366 -0.026909359 0.013897741 0.018530464 -0.038074058
0.06055362 -0.06338401 -0.033201512 0.028735125 -0.043463044 -0.032364283 -0.032184646 0.061134163
0.06380241 0.034229767 0.057287518 -0.07168969 0.045009315 -0.050972003 -0.058094088 -0.044520695
-0.039496347 -0.01770218 -0.040378872 0.0044365646 0.005765 -0.06494964 -0.04623403 -0.059475277
-0.0021915198 -0.038291555 0.0040142895 0.018584916 0.054329213 0.023682958 -0.024681637 -0.029588072
-0.031014247 0.004653918 -0.023676185 -0.016799105 0.055807758 0.044873483 -0.023051307 -0.0002927317
-0.053763203 0.013670087 0.031217042 -0.057056554 -0.044397153 0.032351192 0.028892605 0.021787452
0.004606332 0.007892413 0.070979565 0.012921628 -0.039400257 0.03474182 0.075313635 0.044204332
0.045558393 -0.027030386 0.029018791 0.035657007 0.018732576 -0.024002573 -0.027627777 0.06311042
-0.003613433 0.004922195 0.032916546 -0.037740543 0.025543494 0.011381542 0.028619666 -0.011226311
-0.030275598 -0.009138331 -0.052584637 0.034949157 -0.011650929 0.017812025 0.06421334 0.044451997
-0.01776723 0.08305143 -0.07452425 -0.059523925 -0.05637087 -0.03377651 -0.03594287 -0.043161716
0.018467652 -0.022730803 0.020972349 0.031577993 0.03236995 0.011006506 -0.043139964 -0.04147892
-0.045270037 -0.029722672 -0.0667913 -0.028321752 0.0039669713 0.058501013 -0.005007802 -0.041296527
-0.023379201 0.067238845 0.026543694 -0.035280947 -0.007254942 0.059464864 0.0037177054 0.041930977
0.004205478 -0.05706382 0.0033826337 0.03183769 -0.04991367 0.044850823 0.04559854 0.05625365
0.02605067 -0.04741656 0.01844891 0.055571705 0.024560038 -0.028162906 0.0035487616 0.03241817
-0.027672384 0.027133511 0.025322167 -0.055129606 0.030498628 0.048728593 0.07223443 -0.034893107
-0.037819453 -0.019109935 -0.066706285 0.050198525 -0.03372149 0.043783315 0.036647577 0.04596033
0.014337721 0.017991148 -0.03948225 -0.08436194 -0.06024793 -0.056648765 -0.08388379 -0.033686433
0.07366053 -0.022140803 0.031923536 0.0475681 0.022551192 0.02130015 -0.04725737 -0.05144502
-0.058033418 -0.07943217 -0.01757677 -0.06056482 0.015124531 0.027188804 -0.03539121 -0.05447559
-0.041082084 0.03684594 0.033814464 -0.028573973 -0.027454784 0.05056407 0.022254681 0.0006225949
0.05654314 -0.026875744 0.021678196 0.05265582 -0.011980223 0.050164245 0.031821497 0.05228563
0.04345924 -0.027108425 0.024627253 0.014607837 0.04786594 -0.03388585 -0.03734517 0.022000538
-0.059275445 0.044735048 0.009738863 -0.05953843 0.029551337 0.0551212 0.038800914 -0.037428606
-0.04853452 -0.027230494 -0.057186175 0.014253137 -0.031049525 0.042654444 -0.016225843 0.02530665
00000000: 88d1 94bc 925e 66bd 5bad a23d 3dfd 073d
00000010: fd94 6f3d d22a 5d3d accc 1d3d 1a02 803d
00000020: 69c3 3fbd 40d7 753c dc2b 8fbc 728a 27bd
00000030: ee8f 4dbc afca 82bd 4cb1 2f3d 878d 1c3d
00000040: 7086 bf3c 7eb8 8a3d 8b8f 473d 00fa 753d
00000050: 06fc 93bc 3dbd 73bc 0fb6 913c b8a3 d13c
00000060: d182 213d 37d9 31bd 5105 b6bd 2a81 d53c
00000070: 5564 4b3d 7588 48bd 1150 f5bc 5dd9 3ebd
00000080: fb7a ffbc e6f4 173d 38f8 73bd 2a57 fbbc
00000090: 4f8a 6a3c 6192 2cbd b1d3 a5bd b55b 7fbd
000000a0: a3f6 25bd e694 0b3c e07b 2ebd 907f ddbc
000000b0: 0471 dcbc 5ab3 633c 33cd 973c 8bf3 1bbd
000000c0: 1307 783d 7acf 81bd 4ffe 07bd ed65 eb3c
000000d0: 4e06 32bd 6990 04bd 0cd4 03bd d167 7a3d
000000e0: d7aa 823d 8334 0c3d 51a6 6a3d 0bd2 92bd
000000f0: b05b 383d 05c8 50bd 11f4 6dbd 555b 36bd
00000100: ecc6 21bd 2a04 91bc 5164 25bd 9a60 913b
00000110: 53e8 bc3b 5104 85bd e55f 3dbd 599c 73bd
00000120: 9a9f 0fbb 9bd7 1cbd 4d8a 833b 653f 983c
00000130: 4f88 5e3d c302 c23c 2531 cabc af62 f2bc
00000140: 9711 febc e57f 983b 8ff4 c1bc 479e 89bc
00000150: ad96 643d 42cd 373d 18d6 bcbc c979 99b9
00000160: ce36 5cbd 80f8 5f3c e2ba ff3c 22b4 69bd
00000170: cad9 35bd af82 043d 2fb0 ec3c 997b b23c
00000180: b7f0 963b 2e4f 013c bc5d 913d 3cb5 533c
00000190: 2a62 21bd 704d 0e3d 093e 9a3d 9a0f 353d
000001a0: 709b 3a3d d46e ddbc d1b8 ed3c 150d 123d
000001b0: 0f75 993c 0ba1 c4bc a653 e2bc 0940 813d
000001c0: 59cf 6cbb 5d4a a13b 80d3 063d d495 1abd
000001d0: 9740 d13c a679 3a3c ca73 ea3c 90ee 37bc
000001e0: 8804 f8bc f0b8 15bc fd62 57bd d926 0f3d
000001f0: 8ae3 3ebc 86ea 913c 4982 833d 4c13 363d
00000200: 958c 91bc de16 aa3d 2ca0 98bd 5ccf 73bd
00000210: 24e5 66bd 3d59 0abd d538 13bd 57ca 30bd
00000220: 7949 973c f335 babc 34ce ab3c ed57 013d
00000230: 5a96 043d a254 343c 88b3 30bd cde5 29bd
00000240: 136d 39bd f67c f3bc e1c9 88bd 0503 e8bc
00000250: 5efd 813b c29e 6f3d 7d18 a4bb 8c26 29bd
00000260: bd85 bfbc 85b4 893d 2972 d93c c182 10bd
00000270: ddba edbb 6e91 733d bfa4 733b d1bf 2b3d
00000280: 1bce 893b c1bb 69bd 2daf 5d3b 3d68 023d
00000290: 4772 4cbd 7fb5 373d 89c5 3a3d 3a6a 663d
000002a0: 3768 d53c de37 42bd 2b22 973c 289f 633d
000002b0: 2232 c93c e5b5 e6bc 5792 683b eac8 043d
000002c0: 32b1 e2bc 1947 de3c 6f70 cf3c 95cf 61bd
000002d0: 42d8 f93c a297 473d a5ef 933d 13ec 0ebd
000002e0: 92e8 1abd 708c 9cbc 4e9d 88bd f89c 4d3d
000002f0: 8c1f 0abd 2256 333d c51b 163d e640 3c3d
00000300: c3e8 6a3c 2c62 933c 24b8 21bd f4c5 acbd
00000310: 89c6 76bd 8908 68bd 44cb abbd c9fa 09bd
00000320: 55db 963d a160 b5bc 41c2 023d c5d6 423d
00000330: 47bd b83c a77d ae3c f290 41bd 03b8 52bd
00000340: 73b4 6dbd 55ad a2bd 29fd 8fbc d112 78bd
00000350: e2cc 773c 0ebb de3c 60f6 10bd cc21 5fbd
00000360: b045 28bd c5eb 163d 0981 0a3d f713 eabc
00000370: dbe8 e0bc 451c 4f3d 734f b63c a335 233a
00000380: c899 673d 852a dcbc 7996 b13c a1ad 573d
00000390: b248 44bc 0679 4d3d 4257 023d 7529 563d
000003a0: 5102 323d 7d12 debc 18bf c93c b655 6f3c
000003b0: 130f 443d e4cb 0abd 40f7 18bd 793a b43c
000003c0: cfca 72bd 193c 373d c18f 1f3c 92de 73bd
000003d0: a515 f23c c4c6 613d b5ed 1e3d bd4e 19bd
000003e0: 22cc 46bd 7c12 dfbc 0d3c 6abd fd85 693c
000003f0: 935b febc 6db6 2e3d 0fec 84bc e44f cf3c

local_mlp.2.bias f4 [256]
0.04057014 -0.03238569 -0.032351315 -0.035997953 0.04032261 0.04033224 0.0374674 -0.03982628
0.04040305 0.039422374 -0.040183235 -0.039930876 0.034853105 -0.04029513 0.040387128 0.04040209
0.040343557 0.040545378 0.03581678 -0.04070362 0.03006929 0.03610507 -0.04032604 0.03979322
-0.037154213 0.03977112 -0.03979152 0.03971906 0.03965091 -0.036823004 -0.0367006 -0.037379187
0.039610833 0.039846558 -0.039937742 -0.040804427 0.040340282 -0.03647303 0.038309608 0.040478017
0.040566515 0.040142566 0.03996981 0.040183045 0.03943318 0.037662044 0.03172974 0.04016976
-0.0395086 -0.038503278 -0.03708285 -0.040140342 0.04045081 0.040725265 -0.037376914 -0.04053055
0.036586877 -0.040226497 -0.040075734 -0.040294185 -0.038675427 0.03724166 0.040544827 -0.040360108
-0.040253628 -0.03821155 -0.03066507 0.039896164 0.040445022 0.0375987 0.039787825 0.040459532
0.040150195 0.040628962 0.04044726 0.040019937 0.039495084 -0.04014834 -0.0397374 -0.039693486
0.035887945 0.03991218 -0.0360321 -0.040331826 -0.03741006 -0.037317783 0.03963282 0.040328078
0.040225565 -0.039726716 -0.03357751 0.040486984 0.040514424 0.040523145 0.0406191 0.036561362
-0.040518507 0.03742237 0.04021756 -0.040601093 -0.040475488 -0.041001875 0.03996243 0.039559618
-0.037518688 0.040324483 0.03579774 0.040588364 0.037059672 -0.040735155 0.04046425 0.040750913
0.031632382 -0.040288027 0.040185813 0.03934109 0.03462519 -0.040699147 -0.036828134 0.040203396
-0.040101424 0.034485992 0.040142205 0.040413994 -0.040165946 -0.027367156 0.040664252 0.03725573
0.04054695 0.039684553 0.040140413 -0.040199727 -0.03476448 0.039596625 0.04060975 -0.037108272
0.037134714 -0.03767402 -0.037483905 -0.0403888 -0.035431713 0.040133808 0.040495098 0.039855365
-0.036340553 0.0398844 -0.037582763 -0.03977061 -0.040248178 0.040842738 -0.035400946 0.037007958
-0.039824728 -0.040544566 0.04004644 0.037526235 -0.040142644 0.03749019 0.04047749 -0.037443243
-0.034379177 0.04045332 -0.040334214 -0.039253227 -0.040680222 0.03698782 -0.04048876 -0.04083434
-0.040748116 -0.031957965 -0.04021405 -0.03986111 -0.037588764 -0.039949406 -0.03541122 0.03343207
-0.04066704 0.033583857 0.036482345 0.040367812 0.040139567 0.039047256 0.03670572 0.040494226
0.03990567 -0.040091686 0.037768878 0.040338133 -0.040528245 -0.040064473 -0.038912434 0.040505957
0.03783414 0.040502492 0.04021579 0.03561282 -0.040165164 -0.04026059 0.040528104 0.038748007
-0.04056346 -0.035244368 -0.039185125 -0.04006933 -0.040335335 -0.040686365 0.040125985 0.03502765
0.036693957 0.040426083 -0.040348127 -0.034777418 -0.040551543 -0.040239505 -0.040761486 0.040233843
-0.040177196 -0.039701905 -0.03977349 -0.03592144 -0.03680512 0.040537335 -0.04042083 0.032897707
0.04062635 0.04025704 0.03961737 0.04047955 -0.040274344 -0.040539727 0.040131606 -0.03858403
0.040403966 -0.03762564 -0.036878135 -0.040446505 -0.03961773 0.040851537 0.040501278 -0.040477436
0.037155863 0.0391779 0.040410474 -0.040082015 0.033067707 -0.039888773 0.039326668 -0.039462235
-0.03867997 0.039693493 0.03763613 0.03469285 0.040218446 -0.040049747 0.040099736 -0.037565872
00000000: e02c 263d dba6 04bd d082 04bd 9772 13bd
00000010: 5229 253d 6b33 253d 6b77 193d e220 23bd
00000020: ab7d 253d 5b79 213d 2d97 24bd 8f8e 23bd
00000030: 21c2 0e3d 820c 25bd f96c 253d a97c 253d
00000040: 493f 253d e912 263d 9eb4 123d d7b8 26bd
00000050: df53 f63c e9e2 133d eb2c 25bd 37fe 223d
00000060: 042f 18bd 0be7 223d 6ffc 22bd 74b0 223d
00000070: fe68 223d b8d3 16bd 5e53 16bd eb1a 19bd
00000080: f83e 223d 2536 233d c295 23bd 8b22 27bd
00000090: da3b 253d be64 15bd 89ea 1c3d 47cc 253d
000000a0: 1329 263d 886c 243d 62b7 233d fa96 243d
000000b0: b084 213d 8443 1a3d 0bf7 013d 0c89 243d
000000c0: c5d3 21bd 9db5 1dbd 30e4 17bd 336a 24bd
000000d0: c0af 253d 89cf 263d 8918 19bd 5d03 26bd
000000e0: 1fdc 153d 8ac4 24bd 7426 24bd 840b 25bd
000000f0: 206a 1ebd b68a 183d 5512 263d a450 25bd
00000100: fde0 24bd b783 1cbd 5035 fbbc 296a 233d
00000110: aea9 253d 1801 1a3d 8ff8 223d e5b8 253d
00000120: 8874 243d 8e6a 263d 07ac 253d f2eb 233d
00000130: 99c5 213d 9672 24bd afc3 22bd a395 22bd
00000140: 3dff 123d f47a 233d 6596 13bd fc32 25bd
00000150: 4b3b 19bd 88da 18bd 0656 223d 0e2f 253d
00000160: 90c3 243d 7bb8 22bd 9288 09bd aed5 253d
00000170: 74f2 253d 99fb 253d 3760 263d 5ec1 153d
00000180: bcf6 25bd 3348 193d 2bbb 243d 554d 26bd
00000190: a0c9 25bd 95f1 27bd a5af 233d 4409 223d
000001a0: 32ad 19bd 492b 253d a7a0 123d fc3f 263d
000001b0: e2cb 173d e8d9 26bd d7bd 253d 6eea 263d
000001c0: f590 013d 0f05 25bd e199 243d 1f24 213d
000001d0: 25d3 0d3d 26b4 26bd 19d9 16bd 51ac 243d
000001e0: 6441 24bd 2f41 0d3d 276c 243d 2589 253d
000001f0: 0c85 24bd 1631 e0bc 8f8f 263d 7799 183d
00000200: 8f14 263d 458c 223d 466a 243d 78a8 24bd
00000210: 3365 0ebd 1230 223d 6956 263d d8fe 17bd
00000220: 921a 183d 1350 1abd b988 19bd ba6e 25bd
00000230: d820 11bd 5963 243d 30de 253d 613f 233d
00000240: d5d9 14bd d35d 233d 62f0 19bd 82e6 22bd
00000250: 46db 24bd b74a 273d 9500 11bd a895 173d
00000260: 411f 23bd 0f12 26bd bc07 243d 1cb5 193d
00000270: 9d6c 24bd 508f 193d b9cb 253d 165e 19bd
00000280: 2ed1 0cbd 61b2 253d 7d35 25bd fec7 20bd
00000290: 4ea0 26bd 8a80 173d 8bd7 25bd e941 27bd
000002a0: 7fe7 26bd 5be6 02bd 7db7 24bd 6745 23bd
000002b0: adf6 19bd fda1 23bd 5b0b 11bd 11f0 083d
000002c0: 7b92 26bd 3a8f 093d 836e 153d b858 253d
000002d0: 6369 243d 04f0 1f3d bd58 163d 46dd 253d
000002e0: 2174 233d 2e37 24bd 8ab3 1a3d 9939 253d
000002f0: f200 26bd a51a 24bd a562 1fbd 93e9 253d
00000300: f9f7 1a3d f1e5 253d 50b9 243d c0de 113d
00000310: 3a84 24bd 4ae8 24bd cc00 263d 3bb6 1e3d
00000320: df25 26bd 665c 10bd 9580 20bd bd1f 24bd
00000330: aa36 25bd bfa6 26bd 255b 243d 2779 0f3d
00000340: 674c 163d d295 253d 1444 25bd c472 0ebd
00000350: 6019 26bd 2ed2 24bd 84f5 26bd 3ecc 243d
00000360: d890 24bd 779e 22bd 87e9 22bd 5c22 13bd
00000370: f7c0 16bd 7a0a 263d 5090 25bd bfbf 063d
00000380: d167 263d 91e4 243d d345 223d e2cd 253d
00000390: b6f6 24bd fc0c 26bd 0a61 243d 4a0a 1ebd
000003a0: a17e 253d 581d 1abd 870d 17bd 3cab 25bd
000003b0: 3346 22bd f153 273d abe4 253d abcb 25bd
000003c0: bf30 183d 0179 203d 7485 253d 0a2d 24bd
000003d0: 0172 073d 6962 23bd 0015 213d 27a3 21bd
000003e0: e36e 1ebd a595 223d 5828 1a3d 171a 0e3d
000003f0: 19bc 243d 340b 24bd 9f3f 243d acde 19bd

output_mlp.0.weight f4 [128, 512]
-0.03480359 0.0361893 0.050341006 0.023969946 -0.051687405 -0.02082426 -0.036546726 -0.0018980623
-0.0177514 -0.030546602 0.024851328 0.075084694 -0.042438306 0.060218636 -0.017141676 -0.012265873
-0.014750469 -0.016869437 -0.054911464 0.032841835 -0.06082246 -0.008163615 0.018050138 -0.027158827
0.0354397 -0.016893579 -0.022091076 -0.03316586 -0.021093097 0.040916976 0.022711195 0.023503022
-0.024687864 0.0013609275 0.07833256 -0.0056011444 -0.03538952 0.057484277 -0.036634237 -0.030686202
-0.02193022 -0.035865128 -0.04200547 -0.041044515 -0.033619683 -0.03640612 -0.011744807 -0.043669794
0.029404258 0.055071697 0.014982652 0.06464085 0.008704725 -0.058696568 0.075805336 0.07887573
-0.02213975 0.019190533 0.057960313 0.054195322 0.060947627 -0.04541962 0.013530369 0.03486804
0.023142125 0.014476259 0.017817335 -0.010646366 -0.023603562 -0.06619353 -0.0055966815 -0.0207392
-0.020844797 0.013997286 -0.039024565 -0.041129418 -0.016223429 0.04763764 0.032442242 0.009214826
-0.030891871 -0.0660444 0.04129481 0.01638185 0.02334027 0.01749041 -0.052554313 -0.03938297
-0.048332136 0.01695639 0.017605878 0.009547096 -0.017598452 -0.036360793 -0.026017064 -0.03428086
0.009585352 -0.04126986 -0.014131769 0.02143407 0.038814016 0.018092249 -0.027203873 -0.03060253
0.03554655 -0.042143695 -0.044830758 -0.025371682 -0.05612491 0.04528959 -0.041771002 -0.03760655
-0.014332985 0.036483303 -0.054975744 -0.022648156 -0.0065941443 0.024147656 0.08184372 -0.022720555
0.028497126 -0.016147492 -0.044192333 -0.04058438 0.057618856 0.02022412 -0.036479022 -0.028940871
-0.05958782 -0.019402396 -0.053345945 0.03301136 0.017397737 -0.0063184407 -0.04622082 0.031458613
-0.04170799 0.03158206 0.016368452 0.031280413 0.049646832 -0.032890346 -0.002783216 -0.0017020499
0.026045159 -0.04471994 -0.0037108029 0.0104616545 0.03860971 -0.06713702 0.021285856 -0.021577585
0.059439536 0.008877997 -0.017990232 -0.055806648 0.009975032 -0.043391865 -0.024938855 0.01940123
0.043425903 -0.01868292 0.021394132 0.0419885 0.028994216 -0.04040946 0.07322082 0.04239221
0.044448905 0.010234207 0.07725782 0.030322017 0.04877861 0.04335395 0.01122844 0.006098139
0.022731872 -0.011117576 -0.028598646 -0.09931863 -0.028075183 -0.001269665 -0.03279564 -0.021919709
-0.048411146 0.032553438 -0.04761346 -0.044687063 0.005639014 0.02795883 0.045286246 -0.06457266
-0.035539158 -0.062107652 -0.034332186 -0.034042746 0.0075683673 0.024981387 -0.014915577 -0.040879283
0.037943702 0.03997721 0.042543564 0.0435468 0.039972898 0.05758736 -0.051197693 -0.018137865
-0.03182216 -0.0028348714 0.034166742 0.020554887 0.020077782 0.026150528 0.033693075 -0.035287257
0.017681416 0.0075741936 0.021451168 0.04194642 0.025510287 -0.04676556 0.038307503 -0.032030154
-0.0249858 -0.037137035 -0.04243215 -0.010785757 0.014576332 0.011799145 -0.03915438 0.003724805
-0.039191734 0.006885124 0.026994312 0.018191516 0.010765175 -0.023905754 -0.012921418 0.043869574
-0.043271925 -0.03698201 -0.016663786 0.020136239 -0.026065774 0.06730476 -0.008544064 0.03665987
0.026956832 -0.011249732 -0.030101005 -0.02842712 -0.07725697 0.06991756 -0.01728133 0.03026878
00000000: 368e 0ebd 3b3b 143d 5f32 4e3d 9f5c c43c
00000010: 2cb6 53bd a397 aabc 05b2 15bd 67c8 f8ba
00000020: 626b 91bc de3c fabc 0395 cb3c 01c6 993d
00000030: cad3 2dbd d1a7 763d b36c 8cbc cdf6 48bc
00000040: f3ab 71bc c631 8abc d8ea 60bd 2985 063d
00000050: f920 79bd afc0 05bc e2dd 933c 307c debc
00000060: 3829 113d 6764 8abc 58f8 b4bc edd8 07bd
00000070: 6ecb acbc 8f98 273d d40c ba3c 6989 c03c
00000080: 343e cabc 2661 b23a d26c a03d ce89 b7bb
00000090: 9af4 10bd a274 6b3d c80d 16bd a161 fbbc
000000a0: 01a7 b3bc 50e7 12bd ed0d 2cbd 4b1e 28bd
000000b0: cbb4 09bd 951e 15bd 4a6d 40bc 19df 32bd
000000c0: 33e1 f03c dc92 613d cc79 753c 6c62 843d
000000d0: 439e 0e3c d06b 70bd d43f 9b3d 9989 a13d
000000e0: 6c5e b5bc 7735 9d3c cb67 6d3d eafb 5d3d
000000f0: 38a4 793d ec09 3abd 7bae 5d3c cad1 0e3d
00000100: 8e94 bd3c d52d 6d3c a9f5 913c 186e 2ebc
00000110: 425c c1bc 7990 87bd 5e64 b7bb 41e5 a9bc
00000120: b5c2 aabc df54 653c 39d8 1fbd 5277 28bd
00000130: ffe6 84bc b01f 433d 28e2 043d c8f9 163c
00000140: f310 fdbc 4942 87bd bf24 293d 3b33 863c
00000150: 1834 bf3c 0c48 8f3c 3143 57bd 0a50 21bd
00000160: ebf7 45bd 21e8 8a3c 343a 903c 6c6b 1c3c
00000170: a12a 90bc 0eef 14bd bd21 d5bc 166a 0cbd
00000180: e10b 1d3c 960a 29bd ef88 67bc 8196 af3c
00000190: 72fb 1e3d 3236 943c a8da debc 28b2 fabc
000001a0: 4299 113d de9e 2cbd 75a0 37bd 46d8 cfbc
000001b0: 3ce3 65bd 9481 393d 1218 2bbd 5309 1abd
000001c0: e5d4 6abc 846f 153d 3f2e 61bd a088 b9bc
000001d0: b113 d8bb 4ed1 c53c ae9d a73d 7520 babc
000001e0: ce72 e93c bf47 84bc 0503 35bd cf3b 26bd
000001f0: c001 6c3d 0ead a53c 076b 15bd 6815 edbc
00000200: 5c12 74bd c6f1 9ebc 4781 5abd eb36 073d
00000210: b385 8e3c ec0a cfbb 0b52 3dbd bfda 003d
00000220: ffd5 2abd 315c 013d 2217 863c e41f 003d
00000230: 7a5a 4b3d 07b8 06bd 9e66 36bb 5117 dfba
00000240: a85c d53c 412c 37bd f130 73bb 5c67 2b3c
00000250: 3725 1e3d 227f 89bd ad5f ae3c 7ac3 b0bc
00000260: df76 733d 0575 113c 4060 93bc 8395 64bd
00000270: 516e 233c abbb 31bd 924c ccbc 54ef 9e3c
00000280: 5cdf 313d ec0c 99bc bf42 af3c 22fc 2b3d
00000290: 4785 ed3c 6484 25bd ccf4 953d 74a3 2d3d
000002a0: 0e10 363d 60ad 273c 5939 9e3d e165 f83c
000002b0: 14cc 473d e993 313d 7ef7 373c e6d2 c73b
000002c0: 3138 ba3c 7e26 36bc b547 eabc 9167 cbbd
000002d0: edfd e5bc e36a a6ba b954 06bd f690 b3bc
000002e0: c44a 46bd c156 053d 5506 43bd c809 37bd
000002f0: 7ac7 b83b eb09 e53c 127e 393d ac3e 84bd
00000300: 8291 11bd 9864 7ebd e89f 0cbd 6870 0bbd
00000310: 1100 f83b c4a5 cc3c 7760 74bc 0971 27bd
00000320: db6a 1b3d 25bf 233d 2942 2e3d 215e 323d
00000330: 9fba 233d b9e0 6b3d acb4 51bd dc95 94bc
00000340: f457 02bd 40c9 39bb 6df2 0b3d b962 a83c
00000350: 297a a43c a239 d63c c001 0a3d 5f89 10bd
00000360: 9ed8 903c f130 f83b 5cba af3c 02d0 2b3d
00000370: f3fa d03c 3e8d 3fbd 54e8 1c3d 0d32 03bd
00000380: 05af ccbc 011d 18bd 56cd 2dbd beb6 30bc
00000390: 91d1 6e3c 3351 413c 5860 20bd dc1b 743b
000003a0: 8387 20bd 9b9c e13b 2d23 dd3c 6006 953c
000003b0: 6b60 303c 00d6 c3bc 5bb4 53bc 95b0 333d
000003c0: e73d 31bd 737a 17bd 7e82 88bc c1f4 a43c
000003d0: e487 d5bc 14d7 893d 67fc 0bbc a928 163d
000003e0: 93d4 dc3c cc50 38bc 6296 f6bc fedf e8bc
000003f0: e738 9ebd f030 8f3d 9391 8dbc 3cf6 f73c

output_mlp.0.bias f4 [128]
-0.029264892 -0.026536979 -0.028042074 -0.02853125 0.04069364 0.041363664 0.040462133 0.039926015
-0.026686141 -0.028588858 -0.028764483 0.040620096 0.039969124 0.04102777 0.041531548 -0.027193913
0.037216287 -0.027157938 -0.028107515 0.04113491 -0.028261246 -0.026704255 0.034183472 -0.027849168
0.040973615 0.04004209 -0.027890448 -0.02763498 -0.029939508 -0.028893689 0.038979057 0.040320653
-0.028920125 -0.028608408 -0.026929142 -0.027325803 -0.028269801 -0.028335176 -0.028364668 -0.029107172
-0.026506823 0.029760674 0.039989587 -0.026729524 0.039635442 0.03846848 0.03971397 0.037792243
-0.02721707 -0.029033909 0.04048937 0.040061787 0.039467786 -0.027854208 -0.027822584 0.036360245
0.04194192 0.03901048 -0.02922519 0.04147702 0.041852806 -0.02755335 -0.027554156 -0.027754553
0.041174717 0.040017147 -0.02863441 -0.020649513 0.039484937 -0.028723367 0.038411513 0.037965726
0.03976701 -0.027294848 0.03390556 -0.02665147 0.04080133 0.03983555 -0.025730308 0.04100827
-0.02806576 -0.029673882 -0.029418848 0.04187823 -0.028441058 0.040534873 -0.02840264 -0.028722053
0.041422196 -0.026753804 0.042040788 0.04000413 -0.025023557 -0.030280031 0.041101873 -0.02822149
0.028811336 0.040850688 0.041265797 -0.027017578 0.039461814 0.039216142 -0.028669111 0.03678278
-0.027939895 -0.02865928 0.04204221 0.04108334 0.041265454 -0.02793831 0.038963016 -0.028935825
0.031974096 -0.02801809 -0.026171071 -0.0265425 0.029530821 -0.026504079 0.04174689 0.03089766
-0.028599849 -0.026840758 0.039666858 -0.027428947 -0.028997738 -0.028103936 0.041058175 0.040553596
00000000: edbc efbc 1464 d9bc 7eb8 e5bc 5eba e9bc
00000010: 60ae 263d f26c 293d 9fbb 253d 7689 233d
00000020: e59c dabc 2e33 eabc 7ea3 ebbc 4261 263d
00000030: aab6 233d bc0c 283d fc1c 2a3d c5c5 debc
00000040: 1b70 183d 537a debc bb41 e6bc 147d 283d
00000050: 2184 e7bc e2c2 dabc f803 0c3d f023 e4bc
00000060: f3d3 273d 2d03 243d 827a e4bc c162 e2bc
00000070: b343 f5bc 75b2 ecbc 81a8 1f3d 4527 253d
00000080: e6e9 ecbc 2e5c eabc 819a dcbc 5dda dfbc
00000090: 1296 e7bc 2c1f e8bc 055d e8bc 2a72 eebc
000000a0: d624 d9bc a8cc f33c 1fcc 233d e0f7 dabc
000000b0: c658 223d 2091 1d3d 1eab 223d 0acc 1a3d
000000c0: 55f6 debc 85d8 edbc 2ed8 253d d417 243d
000000d0: f9a8 213d 822e e4bc 30ec e3bc 7bee 143d
000000e0: 4acb 2b3d 74c9 1f3d aa69 efbc cfe3 293d
000000f0: d96d 2b3d 90b7 e1bc 41b9 e1bc 845d e3bc
00000100: d2a6 283d 05e9 233d b692 eabc 2b29 a9bc
00000110: f5ba 213d 444d ebbc 6455 1d3d f381 1b3d
00000120: bbe2 223d 7299 dfbc 8ee0 0a3d 2f54 dabc
00000130: 4c1f 273d 9a2a 233d 5ec8 d2bc 4af8 273d
00000140: 2aea e5bc a416 f3bc ccff f0bc 8288 2b3d
00000150: 39fd e8bc e507 263d a7ac e8bc 834a ebbc
00000160: 52aa 293d cb2a dbbc f632 2c3d 5fdb 233d
00000170: 34fe ccbc d40d f8bc 705a 283d c130 e7bc
00000180: c005 ec3c 0d53 273d 5306 293d f853 ddbc
00000190: b6a2 213d 1ba1 203d 7cdb eabc 8aa9 163d
000001a0: 35e2 e4bc dec6 eabc 7434 2c3d 0147 283d
000001b0: f705 293d e2de e4bc af97 1f3d d30a edbc
000001c0: 45f7 023d 3286 e5bc b764 d6bc a86f d9bc
000001d0: 9fea f13c 151f d9bc c9fe 2a3d 171d fd3c
000001e0: 3b4a eabc 26e1 dbbc b779 223d acb2 e0bc
000001f0: aa8c edbc 3a3a e6bc 9e2c 283d 871b 263d

output_mlp.2.weight f4 [9, 128]
0.00035880902 -0.034121033 -0.034594666 -0.03483099 -0.02693258 0.0021416072 0.0052992757 0.021486714
-0.016645525 -0.058431216 -0.036313605 -0.00085165404 0.005214781 -0.009339857 -0.009825501 0.009255008
0.026312504 0.0027301642 0.028161941 0.007938012 -0.008203215 0.016706701 0.003734088 -0.010820803
0.015478087 -0.0295335 -0.031170925 0.005128557 -0.044957664 0.0027126786 0.025545025 0.008001419
-0.016478842 -0.008291719 0.027418602 0.013145368 0.023675205 -0.007029349 -0.0445587 -0.0004103805
-0.007981159 0.00054801983 -0.0072608665 -0.0042725042 0.0070688813 0.005045324 -0.025112554 0.0033256249
0.03143759 -0.037682835 0.018302191 -0.031330157 0.020325037 0.011208748 -0.04355306 0.04417606
-0.0302625 -0.0010978316 0.0071479464 -0.024906985 -0.020320622 -0.037428427 -0.0126503445 -0.018851921
-0.00533124 0.021570405 -0.003024742 -0.047123134 0.00156324 -0.034541182 0.064146884 0.006947213
-0.023649322 0.0010951668 0.04248131 0.00022280209 -0.015542716 0.025042502 0.0009167028 -0.01576075
-0.03111371 -0.01696881 -0.048073497 -0.027391603 0.0005607917 -0.00040979573 -0.016444346 -0.03429804
-0.014882457 -0.020086845 -0.021321801 -0.010267674 0.01941364 -0.0266227 0.0036689157 0.029386006
0.01692829 0.005507469 -0.038778756 -0.014377362 0.0009678759 0.022277158 0.031361952 0.0013685012
-0.016223792 -0.010042054 -0.047366522 -0.013470948 -0.0059163016 0.0022129265 -0.0012593167 -0.020044733
-0.0017138019 -0.008038625 -0.028116463 0.030597696 0.00774504 -0.03125589 -0.015274453 0.02978856
-0.038600437 -0.012987884 0.0074672336 -0.016156392 -0.010926171 -0.011584699 0.00560236 0.0025186667
0.08918178 0.030941697 0.0031600157 0.031779625 -0.015145718 -0.04516416 -0.03146206 -0.049122915
0.035639174 0.034046467 0.04851284 -0.03964908 -0.06588557 -0.041664075 -0.04024614 0.038533483
-0.060035974 0.0069946474 0.01951967 -0.033856183 0.049386993 0.04617922 -0.047772296 0.017862378
-0.06897721 0.012868138 0.059488274 0.009237344 0.04839273 0.020357281 -0.041055378 -0.028542621
0.02846504 0.068691835 0.04284211 0.058373567 0.05696946 0.03147473 0.047302473 0.020139288
0.03857808 -0.04716906 -0.059016243 0.04222832 -0.053165972 -0.050620835 -0.057375975 -0.053218853
0.038586743 0.058454596 -0.035904888 -0.027243583 0.0077614407 0.05504747 0.014354939 -0.06893261
-0.021792967 -0.0403006 0.041973498 -0.038490545 -0.046676308 -0.0006369419 0.05427844 0.05870651
-0.04534765 -0.019898267 0.038762547 0.02985276 -0.046562538 0.011628254 -0.05032428 -0.015025327
-0.03623233 0.039634608 -0.064622134 0.010459243 -0.017373307 -0.07411798 0.05105269 -0.054566808
0.037947923 0.023931112 0.0061599254 -0.06676203 0.0150764985 -0.031514008 0.022325266 0.024815222
-0.040153503 0.017895767 -0.02782921 -0.036209714 0.012844066 0.031828586 -0.034607317 0.016846893
-0.07217817 -0.044597104 -0.12692872 0.044535056 -0.02010648 -0.07818367 0.050769165 -0.03937244
0.02688317 0.028534897 -0.039628673 -0.064984635 0.0021149563 0.005602143 -0.058131266 0.039691348
-0.032707114 0.035794515 0.025210008 0.016548553 -0.023022512 0.037457693 -0.014842269 -0.051555067
0.051433455 0.053594552 -0.059947625 0.026002066 0.01030412 0.040765986 -0.043162704 -0.036102373
00000000: 881e bc39 7fc2 0bbd 23b3 0dbd f1aa 0ebd
00000010: b7a1 dcbc 355a 0c3b 8ca5 ad3b e804 b03c
00000020: 325c 88bc 9255 6fbd 93bd 14bd 8941 5fba
00000030: c1e0 aa3b 3306 19bc 23fb 20bc 51a2 173c
00000040: 528d d73c 8eec 323b dfb3 e63c 6f0e 023c
00000050: c766 06bc 7edc 883c 9ab7 743b bd49 31bc
00000060: cd97 7d3c 3df0 f1bc 2b5a ffbc 740d a83b
00000070: 8725 38bd 32c7 313b cd43 d13c 6218 033c
00000080: a3fe 86bc fdd9 07bc fa9c e03c ab5f 573c
00000090: 81f2 c13c 7456 e6bb 2f83 36bd 5728 d7b9
000000a0: 68c3 02bc fda8 0f3a 90ec edbb 5d00 8cbb
000000b0: 13a2 e73b 3f53 a53b d8b8 cdbc baf2 593b
000000c0: b4c4 003d 5159 1abd 7aee 953c 0d54 00bd
000000d0: b180 a63c e6a4 373c b264 32bd f5f1 343d
000000e0: 10e9 f7bc 1ee5 8fba 5239 ea3b bc09 ccbc
000000f0: 6f77 a6bc 8d4e 19bd 6443 4fbc 586f 9abc
00000100: afb1 aebb 6bb4 b03c c03a 46bb 3004 41bd
00000110: a1e5 cc3a 0e7b 0dbd 715f 833d 72a5 e33b
00000120: 39bc c1bc b38b 8f3a e200 2e3d fb9f 6939
00000130: e0a6 7ebc ef25 cd3c e24e 703a b01c 81bc
00000140: 2ee2 febc 2d02 8bbc b7e8 44bd 5b64 e0bc
00000150: 1802 133a dad9 d6b9 4bb6 86bc 1a7c 0cbd
00000160: 8dd5 73bc 2b8d a4bc 0fab aebc bf39 28bc
00000170: 5b09 9f3c d917 dabc 3172 703b ecba f03c
00000180: 32ad 8a3c 0078 b43b 79d6 1ebd 078f 6bbc
00000190: 0db9 7d3a 967e b63c 6475 003d 485f b33a
000001a0: c2e7 84bc 6d87 24bc 6603 42bd 40b5 5cbc
000001b0: 89dd c1bb bf06 113b a80f a5ba da34 a4bc
000001c0: a6a1 e0ba 70b4 03bc 7f54 e6bc 05a8 fa3c
000001d0: 1bca fd3b 2d06 00bd b341 7abc 2307 f43c
000001e0: 7e1b 1ebd 22cb 54bc b2af f43b 695a 84bc
000001f0: af03 33bc c0cd 3dbc 0094 b73b 3710 253b
00000200: f0a4 b63d 7179 fd3c 4418 4f3b 5a2b 023d
00000210: bf25 78bc 0efe 38bd 5cde 00bd 1c35 49bd
00000220: 62fa 113d 4f74 0b3d 66b5 463d 1367 22bd
00000230: 04ef 86bd f3a7 2abd 23d9 24bd 49d5 1d3d
00000240: 48e8 75bd 5b33 e53b b7e7 9f3c c8ac 0abd
00000250: 044a 4a3d 6c26 3d3d e2ac 43bd 1f54 923c
00000260: ec43 8dbd e2d4 523c faa9 733d 3b58 173c
00000270: 7537 463d 50c4 a63c af29 28bd 37d2 e9bc
00000280: 842f e93c 4eae 8c3d 357b 2f3d 1f19 6f3d
00000290: cf58 693d a6eb 003d 3dc0 413d 26fb a43c
000002a0: 0c04 1e3d 5834 41bd 04bb 71bd 9af7 2c3d
000002b0: 90c4 59bd cb57 4fbd 1203 6bbd 03fc 59bd
000002c0: 220d 1e3d 166e 6f3d 0111 13bd ef2d dfbc
000002d0: af53 fe3b 7579 613d fa30 6b3c 8a2c 8dbd
000002e0: 2a87 b2bc 3e12 25bd 67ec 2b3d 43a8 1dbd
000002f0: a82f 3fbd 73f8 26ba 1253 5e3d 3d76 703d
00000300: 75be 39bd b101 a3bc 7ac5 1e3d c68d f43c
00000310: 5cb8 3ebd 6f84 3e3c d520 4ebd ca2c 76bc
00000320: 5a68 14bd e657 223d 9c58 84bd 3f5d 2b3c
00000330: 7752 8ebc 2bcb 97bd a01c 513d 7281 5fbd
00000340: 486f 1b3d 2e0b c43c 33d9 c93b 88ba 88bd
00000350: 6b03 773c d514 01bd 7ae3 b63c 4b49 cb3c
00000360: 0078 24bd 259a 923c 15fa e3bc a350 14bd
00000370: eb6f 523c b15e 023d 67c0 0dbd 7f02 8a3c
00000380: 26d2 93bd 74ab 36bd 9af9 01be 646a 363d
00000390: 58b6 a4bc c31e a0bd 54f3 4f3d ff44 21bd
000003a0: 183a dc3c 04c2 e93c ad51 22bd aa16 85bd
000003b0: 149b 0a3b 2e92 b73b 0d1b 6ebd 6593 223d
000003c0: e5f7 05bd 459d 123d 3885 ce3c d590 873c
000003d0: b599 bcbc 3d6d 193d fd2c 73bc 682b 53bd
000003e0: e3ab 523d f685 5b3d a48b 75bd 4902 d53c
000003f0: 9dd2 283c 3cfa 263d 60cb 30bd 15e0 13bd

output_mlp.2.bias f4 [9]
0.013870959 -0.032926455 -0.031659093 0.011078157 -0.001385458 -0.031397965 -0.03109166 -0.03245252
0.03898498
00000000: 0543 633c e4dd 06bd f7ac 01bd 2981 353c
00000010: 4298 b5ba 279b 00bd f0b3 febc efec 04bd
00000020: b7ae 1f3d
