log/segmentation/pn/bucket/full/pn_10.pth (torch, 337359 bytes, 8 tensors)

local_mlp.0.weight f4 [64, 3]
0	0x3ec79779	0.38982752
1	0xbe9ad467	-0.30240175
2	0xbe3d08fe	-0.18460461
3	0x3ef0a720	0.47002506
4	0x3d8f90f7	0.07010072
5	0x3e072819	0.1319889
6	0xbef64f66	-0.4810745
7	0xbe5a80a8	-0.21338141
8	0x3de9ba2f	0.11412465
9	0xbeec3758	-0.46135974
10	0xbf3311ad	-0.69948846
11	0xbe0b1977	-0.13583933
12	0xbeeaa33f	-0.45827672
13	0xbdbbb0a6	-0.091645524
14	0x3e16fb3b	0.14744274
15	0xbf05549d	-0.52082235
16	0xbe9f48c0	-0.3111019
17	0x3ddead58	0.108729064
18	0xbef75dd3	-0.4831377
19	0xbe16735e	-0.14692447
20	0x3e11335f	0.14179753
21	0xbee325b9	-0.44364718
22	0xbd6ebf7e	-0.05828809
23	0x3e314679	0.1731204
24	0x3efcd1a5	0.49378696
25	0xbe91e956	-0.28498334
26	0xbd257ead	-0.04040401
27	0xbef3e82f	-0.4763808
28	0xbe14c04c	-0.1452648
29	0x3e02ecb1	0.12785603
30	0x3ef8e39e	0.48611158
31	0x3e2102dc	0.15723747
32	0x3e7ae638	0.24501884
33	0x3ef668e7	0.4812691
34	0xbe6928e6	-0.22769508
35	0xbd0bc493	-0.034123015
36	0x3efabf68	0.48974156
37	0xbc078345	-0.008271043
38	0x3d7b0e0a	0.061292686
39	0x3ef56b7a	0.4793356
40	0xbc933912	-0.01797155
41	0x3d9132de	0.0708978
42	0xbef0de15	-0.47044435
43	0xbde37a8a	-0.11107357
44	0x3e623032	0.22088698
45	0xbeff1fb9	-0.4982889
46	0xbe6718e5	-0.2256809
47	0x3de4757b	0.1115522
48	0xbee2dd15	-0.44309297
49	0x3dd659d9	0.10466356
50	0x3e30d186	0.17267427
51	0xbeee0f64	-0.46496117
52	0x3eb50145	0.3535253
53	0x3e71347c	0.23555177
54	0xbed8b234	-0.42323458
55	0x3e210b6e	0.15727016
56	0x3e308f1c	0.17242092
57	0xbedaabb7	-0.42709133
58	0x3ee1283f	0.43976018
59	0x3eb160cd	0.34644166
60	0x3efbbeea	0.49169093
61	0xbc528b6d	-0.0128506245
62	0x3d633498	0.05547008
63	0x3f0467ed	0.5172108
64	0xbde419f5	-0.111377634
65	0x3d08926c	0.033342764
66	0xbefdd790	-0.49578524
67	0xbe84a25e	-0.25905126
68	0x3d9debcb	0.077109896
69	0xbee9c709	-0.45659664
70	0xbdce5950	-0.10075629
71	0x3def9093	0.11697497
72	0xbef324dc	-0.4748906
73	0xbf41a679	-0.7564464
74	0xbe0c4197	-0.13696896
75	0x3d2ddc66	0.042446516
76	0x3f186f6f	0.59545034
77	0xbe2b3a08	-0.16721356
78	0xbeace747	-0.337702
79	0x3f87176f	1.0554026
80	0xbe81de91	-0.25365117
81	0xbefb3299	-0.4906204
82	0xbe3fc0d8	-0.18725908
83	0x3df0f1ee	0.117648944
84	0xbf10d41f	-0.5657367
85	0xbef3cb99	-0.4761627
86	0x3d1fba13	0.038995814
87	0x3db3c53d	0.087778546
88	0x3efd36b8	0.4945581
89	0xbd19d807	-0.037559535
90	0x3e3de72d	0.18545218
91	0x3eca7124	0.39539444
92	0xbcb5c503	-0.02218867
93	0x3ed4902b	0.4151624
94	0x3e2a8727	0.16653119
95	0x3e1cdf20	0.1531949
96	0x3df7df9f	0.12103199
97	0x3f035b26	0.51310956
98	0xbde58409	-0.11206824
99	0xbee4d3df	-0.44692895
100	0xbda7a900	-0.08186531
101	0x3e2c5f07	0.16833125
102	0x3eb99489	0.36246136
103	0x3e731064	0.23736721
104	0x3e714c31	0.23564221
105	0xbd08067d	-0.033209313
106	0x3f2eaae3	0.682295
107	0xbe22b50a	-0.15889373
108	0xbf074c85	-0.52851135
109	0xbeb5df80	-0.3552208
110	0x3d881213	0.066440724
111	0x3c508e5e	0.0127292555
112	0x3f0a69be	0.540676
113	0x3d61a851	0.05509216
114	0x3eb48b8a	0.3526271
115	0x3e832884	0.25616848
116	0xbd8732f3	-0.06601515
117	0x3df26185	0.118350066
118	0x3edde0a5	0.43335453
119	0x3db94c43	0.09047749
120	0x3ef75601	0.48307803
121	0xbe27c952	-0.16385391
122	0xbe76f15a	-0.24115506
123	0xbef44565	-0.47709194
124	0xbe4d514b	-0.20050542
125	0x3dac349c	0.08408472
126	0x3ef6a014	0.48169005
127	0xbd3f741d	-0.046741594
128	0x3d5b479e	0.053535096
129	0x3ef5b12b	0.4798673
130	0x3bbc0c1b	0.005738748
131	0x3dbcfb53	0.09227624
132	0x3f0d678e	0.55236137
133	0xbdebb05b	-0.115082465
134	0x3d85b201	0.06528092
135	0xbedeeed0	-0.43541574
136	0xbc602c65	-0.0136824595
137	0x3e2e078b	0.16995065
138	0xbef3b5cc	-0.47599638
139	0xbe51222b	-0.2042319
140	0x3db61f49	0.08892686
141	0x3e67033f	0.22559832
142	0x3e8b607e	0.27222055
143	0x3ceffaf4	0.029294468
144	0xbeeb788b	-0.45990404
145	0xbf2a784f	-0.66589826
146	0xbe03d808	-0.12875378
147	0xbe207c50	-0.15672421
148	0x3f44ee05	0.7692569
149	0xbe88228c	-0.26588857
150	0x3f0e0d3d	0.5548895
151	0xbe8c07bc	-0.2734965
152	0xbc08c965	-0.008348797
153	0xbeedc420	-0.46438694
154	0xbe03f8bb	-0.12887852
155	0x3e036db8	0.12834823
156	0x3d7987a5	0.060920376
157	0x3f132739	0.57481724
158	0xbe2e0d83	-0.16997342
159	0x3efdd2dc	0.49574935
160	0xbe04d216	-0.12970766
161	0x3cd155ee	0.02555367
162	0x3e6e9b70	0.23301482
163	0x3ed4725f	0.41493508
164	0xbda7a667	-0.081860356
165	0xbef0f8e5	-0.4706489
166	0xbe2f21fe	-0.1710281
167	0x3ddc2961	0.1075008
168	0xbf014303	-0.50492877
169	0xbe9c5f1c	-0.30541313
170	0x3d899024	0.06716946
171	0xbecebc34	-0.40377963
172	0x3e32d83d	0.17465301
173	0x3e391da5	0.18077715
174	0xbf10e88a	-0.56604826
175	0xbf07170f	-0.5276956
176	0x3c29cb7a	0.010363454
177	0x3eae30b4	0.34021533
178	0x3e855c40	0.26046944
179	0x3e59303a	0.21209803
180	0xbef9a304	-0.48757184
181	0xbe6bae2a	-0.23015657
182	0x3da8ee96	0.08248632
183	0x3e699451	0.22810484
184	0x3eb5e342	0.35524946
185	0x3e8632f1	0.2621074
186	0xbc2a7a9c	-0.010405209
187	0x3f1912d2	0.5979434
188	0x38a64ad1	7.9294325e-05
189	0x3f06250f	0.52400297
190	0xbd5b01dd	-0.053468574
191	0x3dad7cfe	0.08471106

local_mlp.0.bias f4 [64]
0	0x3dfc4017	0.12316912
1	0xbd1f1a4b	-0.038843434
2	0x3d307fe6	0.043090723
3	0x3df13bb8	0.117789686
4	0x3d11179e	0.035422914
5	0x3d0df627	0.034658577
6	0x3d4b94df	0.04970252
7	0x3c6db689	0.014508852
8	0xbd3ae79d	-0.04563104
9	0x3d4a52b5	0.04939528
10	0xbd7c6b66	-0.06162586
11	0xbd55c394	-0.05218847
12	0xbd814892	-0.0631267
13	0xbd8deb28	-0.06929618
14	0x3cf79ef7	0.030227168
15	0x3d6493b0	0.05580491
16	0xbc98af12	-0.018638168
17	0xbcbb8f78	-0.02289556
18	0x3b1b8cad	0.0023734972
19	0xbd0b3b8a	-0.033992328
20	0xbd7c7468	-0.06163445
21	0xbd7b5885	-0.061363716
22	0x3d4458b1	0.047936145
23	0x3c2d3956	0.010572752
24	0x3e2b8909	0.16751494
25	0x3df061de	0.11737417
26	0x3d622286	0.055208705
27	0x3d6637fe	0.056205742
28	0x3db8f6d2	0.09031452
29	0x3db74167	0.089480214
30	0x3e0553e8	0.13020289
31	0xbd386544	-0.04501845
32	0x3e175058	0.14776742
33	0x3c1ee9c0	0.009699285
34	0xbd584ac4	-0.052805677
35	0x3db03ad0	0.086049676
36	0x3d942614	0.07233825
37	0xbcf42e0c	-0.029807113
38	0x3e783366	0.24238357
39	0x3d27939d	0.04091226
40	0x3ec238a7	0.37933847
41	0x3d27352b	0.04082219
42	0xbd910c4b	-0.07082423
43	0xbd3f2f9f	-0.046676274
44	0xbd82ae04	-0.06380847
45	0x3c266d54	0.010157902
46	0x3d305fa7	0.04305997
47	0x3cdf5c94	0.027265824
48	0x3e455eda	0.19274464
49	0x3d3b45b3	0.045720767
50	0xbd450bf3	-0.0481071
51	0x3d1e40cf	0.038636025
52	0x3dec7158	0.11545056
53	0xbd8c7190	-0.06857598
54	0x3e5bee4f	0.21477626
55	0x3bd07937	0.006362106
56	0x3d817533	0.06321182
57	0x3c2b1c77	0.010443798
58	0x3daf1d9a	0.08550568
59	0xbd78f791	-0.060782973
60	0x3d6b2f56	0.05741819
61	0xbcda8c87	-0.026678337
62	0xbd0cd797	-0.03438529
63	0xbd916e75	-0.07101146

local_mlp.2.weight f4 [256, 64]
0	0x3facf20e	1.3511369
1	0xbef589f1	-0.47956803
2	0x3e2225a2	0.15834668
3	0x3f36c6ba	0.7139698
4	0xbb201e0d	-0.0024431974
5	0x3e354a02	0.17704013
6	0x3d87f0f8	0.06637758
7	0xbdb8278d	-0.08991919
8	0xbd064f9d	-0.03279077
9	0x3d5addc8	0.053434163
10	0xbf2d5143	-0.6770212
11	0xbd70b017	-0.058761682
12	0xbedae1d6	-0.42750424
13	0xbee7b40e	-0.45254558
14	0xbdb759de	-0.08952688
15	0x3e299091	0.16559054
16	0xbeb26e6b	-0.34849867
17	0xbf52083f	-0.8204383
18	0xbedeec65	-0.4353973
19	0xbf6f0a4b	-0.9337508
20	0xbec9937a	-0.39370328
21	0xbeaceec0	-0.33775902
22	0x3e63f2a2	0.22260526
23	0xbd18fd37	-0.03735086
24	0x3f5d57f0	0.86462307
25	0xbe3db47b	-0.18525879
26	0xbf06b2bd	-0.5261648
27	0x3df9d040	0.12197924
28	0x3efc0d3e	0.49228853
29	0xbec5d7d7	-0.38641235
30	0xbea41343	-0.32045946
31	0xbf27556a	-0.65364707
32	0xbe4976eb	-0.1967427
33	0xbdcbb3b2	-0.099463835
34	0xbf487bc3	-0.78313845
35	0xbe8a00ed	-0.2695383
36	0x3eaae5fa	0.33378583
37	0xbf1b00ae	-0.6054791
38	0xbdd04347	-0.10169082
39	0xbf2ffdde	-0.68746746
40	0x3f74aa87	0.95572704
41	0x3e1b42bd	0.15162177
42	0xbecdf03c	-0.40222347
43	0xbeb8ca53	-0.3609186
44	0xbeddfc03	-0.43356332
45	0xbe430efb	-0.19048683
46	0x3e1bec84	0.15226942
47	0xbedde03e	-0.43335146
48	0x3f567516	0.8377241
49	0xbe94379d	-0.2894868
50	0xbe6485ad	-0.22316618
51	0x3cc61651	0.024180563
52	0xbe3549f2	-0.17703989
53	0xbe98eafa	-0.29866773
54	0xbdf27f1e	-0.11840652
55	0x3d9caaf8	0.07649797
56	0x3eac2e76	0.33629197
57	0xbeff9b01	-0.49922946
58	0x3f0e340c	0.5554817
59	0xbf5791a3	-0.842066
60	0x3e71001d	0.235352
61	0xbf6fd648	-0.9368634
62	0xbf0d0366	-0.5508331
63	0xbefebbb5	-0.49752584
64	0xbe0fb1d2	-0.14032677
65	0x3bf10c75	0.0073562213
66	0xbdc75654	-0.09733263
67	0xbea55f1a	-0.3229912
68	0xbc0d4a34	-0.008623648
69	0xbe13f390	-0.1444838
70	0xbdb4f8aa	-0.088364914
71	0xbd4fde3d	-0.050749052
72	0xbdcc44c8	-0.099740565
73	0xbda7593d	-0.08171318
74	0x3d8a5c21	0.067558534
75	0xbd5beeee	-0.053694658
76	0x3de3f8b4	0.11131421
77	0x3d3a6acc	0.045512006
78	0xbcd55899	-0.026043223
79	0xbde50d4c	-0.11184177
80	0x3d271444	0.04079081
81	0x3e06ad8d	0.13152142
82	0x3d6ab59b	0.0573021
83	0x3e1cfa6a	0.153299
84	0x3daf7306	0.08566861
85	0x3da47152	0.08029427
86	0xbe22156b	-0.15828483
87	0xbcbd2d1f	-0.023092804
88	0xbea55320	-0.32289982
89	0x3f0f4034	0.5595734
90	0x3f7d9ec5	0.9907039
91	0xbdf80230	-0.12109792
92	0xbe89f6d2	-0.2694612
93	0x3ed3c845	0.4136373
94	0x3ead7fcd	0.33886567
95	0x3ddcbff5	0.107788004
96	0x3ef54070	0.47900724
97	0x3c91df0d	0.017806554
98	0x3e388c8b	0.18022363
99	0x3f23b9b7	0.63955253
100	0xbe5c8996	-0.2153686
101	0x3ea821ad	0.32838193
102	0x3e5ffeeb	0.21874587
103	0x3e8ff800	0.28118896
104	0x3dd31cc2	0.103082195
105	0xbe0fc23e	-0.14038941
106	0x3d45795c	0.04821144
107	0x3d1fc60c	0.03900723
108	0x3da626cc	0.08112869
109	0x3a81ad17	0.0009893504
110	0xbe050773	-0.12991123
111	0x3e7a5e15	0.24449952
112	0xbe932a2c	-0.28743112
113	0x3f212f30	0.6296263
114	0x3d196075	0.037445504
115	0xbd800cdd	-0.062524535
116	0x3f135156	0.57545984
117	0x3c1abf72	0.009445058
118	0x3eba42cc	0.36379087
119	0xbd8da568	-0.06916314
120	0xbe3a1978	-0.18173778
121	0x3d46a525	0.048497338
122	0xbe8eb5e0	-0.27873135
123	0x3e1b0716	0.15139422
124	0xbe040e3e	-0.12896058
125	0x3e2c0e83	0.16802411
126	0x3ec4fa3e	0.3847217
127	0x3dddd050	0.10830748
128	0xbe7e3563	-0.24825053
129	0x3bb32140	0.00546661
130	0xbe1b351b	-0.15156977
131	0xbebb7720	-0.36614323
132	0xbdbe099b	-0.09279176
133	0xbe0fcd2b	-0.14043109
134	0xbdc68761	-0.0969379
135	0xbd81c671	-0.06336678
136	0xbe0d76fd	-0.13814922
137	0xbdadaaea	-0.08479865
138	0xbb31eb7e	-0.002714842
139	0xbddafb14	-0.106924206
140	0x3c9b128a	0.018929739
141	0xbd488ea7	-0.04896417
142	0xbd898084	-0.067139655
143	0xbe0e0779	-0.13870038
144	0xbcf2849c	-0.029604249
145	0x3d0573df	0.032581206
146	0xbd02d8a1	-0.031944875
147	0x3d295914	0.041344717
148	0xbd3347d4	-0.043769673
149	0x3cdbbcb9	0.026823388
150	0xbe0c2274	-0.13685018
151	0xbdb46368	-0.08808023
152	0xbe8ffa25	-0.28120533
153	0x3f0d382e	0.5516385
154	0x3f7ae100	0.9799957
155	0xbdedc64c	-0.11610088
156	0xbe6301cb	-0.22168653
157	0x3eb9b066	0.36267394
158	0x3e7aa0de	0.24475428
159	0x3d3c29e9	0.045938406
160	0x3ee093ed	0.43862858
161	0xbda33ccb	-0.0797058
162	0x3d27b175	0.04094072
163	0x3f1ccbc3	0.61248416
164	0xbe62f1d3	-0.22162561
165	0x3e856cf1	0.26059678
166	0x3e1fb988	0.15598118
167	0x3e68e66a	0.22744146
168	0x3ccf57d1	0.025310429
169	0xbe203d46	-0.15648374
170	0xbd21e37d	-0.03952359
171	0xbd29e29d	-0.04147588
172	0x3cba6a01	0.022755625
173	0xbd12edb5	-0.035871226
174	0xbdce8844	-0.10084584
175	0x3e1da80a	0.15396133
176	0xbe8d44ba	-0.27591497
177	0x3f1b75ac	0.6072643
178	0xbccb95d2	-0.024851713
179	0xbdd4d4ae	-0.10392128
180	0x3f07f895	0.5311368
181	0xbccd404d	-0.025055075
182	0x3ec1afe7	0.37829515
183	0xbde4d8de	-0.11174177
184	0xbe3bc04f	-0.18335079
185	0x3d4f32b1	0.050585452
186	0xbe8bca19	-0.27302626
187	0x3dcb8dc3	0.09939148
188	0xbe19b84c	-0.1501171
189	0x3e02ba5d	0.12766404
190	0x3e8cdb98	0.27511287
191	0x3d2e504a	0.04255704
192	0xbdd46d92	-0.103724614
193	0x3dddc042	0.10827686
194	0xbe00bfff	-0.1257324
195	0xbe8f5195	-0.2799193
196	0xbe048633	-0.12941818
197	0xbe035261	-0.12824394
198	0xbe37bb73	-0.179426
199	0xbd7d7495	-0.06187876
200	0x3e2b5d1d	0.16734739
201	0xbe00ab88	-0.12565434
202	0x3e0c9c7d	0.1373157
203	0x3e1f1866	0.15536651
204	0x3e18b403	0.14912419
205	0x3e0ed2cd	0.13947602
206	0xbd70f689	-0.058828864
207	0xbe3108df	-0.1728854
208	0xbd76ad12	-0.060223646
209	0xbd6c6450	-0.057712853
210	0xbd42d2bc	-0.047564253
211	0xbd40faff	-0.04711437
212	0x3e0957ee	0.13412449
213	0x3e2a6733	0.1664093
214	0xbe36f97b	-0.17868607
215	0xbde3d35e	-0.111242995
216	0xbe7c582f	-0.24643014
217	0x3e60825b	0.21924727
218	0x3f35c64e	0.71005714
219	0xbe175ccd	-0.14781494
220	0xbe70ed3c	-0.23527998
221	0x3da0110e	0.07815753
222	0xbd04d0f9	-0.032425854
223	0x3db66933	0.08906784
224	0x3df991e9	0.12186033
225	0xbd487d9b	-0.04894791
226	0x3dc22eca	0.094815806
227	0x3e88cd1a	0.2671898
228	0xbe444231	-0.19165875
229	0x3dae1bb2	0.08501376
230	0xbd6aa87e	-0.057289593
231	0xbbcba2aa	-0.0062144594
232	0xbd56ae9c	-0.052412614
233	0xbe2622a5	-0.16224153
234	0x3e157d5c	0.14598602
235	0x3df1089d	0.11769221
236	0x3e507f2f	0.20361017
237	0xbd7a1aed	-0.061060835
238	0xbe29983b	-0.16561978
239	0xbb48da91	-0.0030647854
240	0xbe92ab19	-0.28646162
241	0x3ec9db0a	0.39424926
242	0x3e26309e	0.16229483
243	0xbe0fb943	-0.14035515
244	0x3e53f200	0.20697784
245	0x3e38da56	0.18052039
246	0xbd2f90ca	-0.04286269
247	0xbdc1e184	-0.09466842
248	0xbe5619b4	-0.20908242
249	0xbc146093	-0.009056228
250	0xbe756863	-0.23965602
251	0x3da9a0e3	0.0828264
252	0xbe3d6c18	-0.18498266
253	0x3d2c7b71	0.04210991
254	0x3d0a0096	0.033691965
255	0x3e2e55d5	0.1702493

local_mlp.2.bias f4 [256]
0	0x3da6e4bb	0.081490956
1	0x3dde58d6	0.10856788
2	0x3dae0234	0.08496514
3	0xbcca2395	-0.02467517
4	0x3d9a8aac	0.07545981
5	0x3d09a8b5	0.033608157
6	0x3dd93b12	0.1060697
7	0xbd660f5e	-0.056167
8	0x3ddc4eac	0.10757193
9	0x3d910bc8	0.07082325
10	0xbe3c28d0	-0.18374944
11	0xbe5436d1	-0.20724036
12	0x3c09488d	0.008379114
13	0x3d267177	0.040635552
14	0x3d8975cd	0.06711922
15	0x3d6c62a7	0.05771127
16	0x3d0b1341	0.03395391
17	0x3d53e631	0.0517332
18	0x3d1da68d	0.038488913
19	0xbe584505	-0.21120079
20	0x3d6d276a	0.057898916
21	0x3d3d364b	0.046194356
22	0xbda53513	-0.08066764
23	0x3dc071b9	0.09396691
24	0x3cf73167	0.030174924
25	0x3dc5db72	0.096609965
26	0x3d1c9300	0.038226128
27	0x3ba5cb88	0.005059663
28	0x3d54a731	0.05191726
29	0xbcc5d521	-0.02414948
30	0xbd46ae2d	-0.04850595
31	0xbdf3b5f4	-0.11899939
32	0x3ddb6587	0.10712724
33	0x3ddfb07e	0.10922335
34	0xbc1991f3	-0.009373176
35	0xbe29d446	-0.16584882
36	0x3dadfb00	0.0849514
37	0x3d3218db	0.043480735
38	0x3dbb6e91	0.09151948
39	0x3d67f21c	0.056627378
40	0x3ddf5fe6	0.10906963
41	0x3dc34232	0.0953411
42	0x3df55ad6	0.11980216
43	0x3dd85ce7	0.10564595
44	0x3e16c1d6	0.1472238
45	0x39a3455b	0.00031141457
46	0x3d951029	0.07278473
47	0x3dd9aa48	0.10628182
48	0x3ca3c519	0.019991444
49	0xbe4f9776	-0.20272622
50	0xbd97ff0e	-0.07421695
51	0xbdd7e773	-0.10542192
52	0x3d6d02bc	0.057863936
53	0x3d115170	0.035478055
54	0xbe44b225	-0.19208582
55	0xbde8a4d7	-0.11359566
56	0x3dc79085	0.09744362
57	0x3c185af7	0.009299031
58	0xbd47c3fc	-0.04877089
59	0x3d25faf4	0.04052253
60	0xbd0bf143	-0.034165632
61	0x3dab2a13	0.083576344
62	0x3ce321e8	0.027726129
63	0xbe077775	-0.13229163
64	0x3c9fd74c	0.019511841
65	0x3d2824d9	0.041050766
66	0x3dcd377c	0.100203484
67	0x3dc3b13a	0.09555288
68	0x3cb7d563	0.022440618
69	0x3e1bcb2d	0.15214224
70	0x3d95dddf	0.07317709
71	0x3d9ea14c	0.07745609
72	0x3c430c87	0.011904842
73	0x3e01666f	0.12636732
74	0x3caacfa7	0.02085097
75	0x3dca2069	0.09869463
76	0x3de773d2	0.11301388
77	0xbde1de6b	-0.11028751
78	0xbddb3bb4	-0.10704747
79	0xbcd7d270	-0.026345462
80	0x3c567ce2	0.013091298
81	0x3d76b306	0.060229324
82	0x3d137e66	0.036009215
83	0xbe0b7871	-0.13620164
84	0xbdfd525f	-0.12369227
85	0xbda8b774	-0.08238116
86	0x3d1ff1f7	0.039049115
87	0x3debeb7c	0.115195245
88	0x3de55e3a	0.11199613
89	0xbe4ce307	-0.20008479
90	0xbc9d676e	-0.019214358
91	0x3dea3c7e	0.11437319
92	0x3b6ced5a	0.0036152215
93	0x3d01023c	0.03149627
94	0x3cee4faf	0.02909073
95	0x3ddaa2ba	0.10675569
96	0xbccb7f83	-0.024841076
97	0x3d84715d	0.06466935
98	0xbb75441a	-0.0037424625
99	0xbdd32661	-0.103100546
100	0xbdb5c2bd	-0.08875034
101	0xbce7ee5d	-0.028311903
102	0x3d0cc30d	0.034365702
103	0x3d84016d	0.064455844
104	0x3d8cb978	0.06871313
105	0x3d9a754a	0.07541902
106	0x3dfb2a4e	0.12263928
107	0x3d311ffa	0.043243386
108	0x3d2caaa2	0.042154916
109	0x3b8ad55c	0.00423686
110	0x3d9db3a9	0.07700283
111	0x3df28406	0.11841588
112	0x3d3688d2	0.044564076
113	0xbe215344	-0.1575442
114	0x3d0d337e	0.034472935
115	0x3e40df72	0.18835238
116	0x3dec6823	0.115433
117	0xbe6ec61d	-0.23317762
118	0xbdc16b1a	-0.09444256
119	0x3cede172	0.029038165
120	0xbe56834b	-0.20948522
121	0x3dbd9ac1	0.092580326
122	0x3de0f836	0.109848425
123	0xbc8cad71	-0.017172547
124	0xbe068a21	-0.1313863
125	0x3c80e027	0.015731884
126	0xbba126f7	-0.004917975
127	0x3d424569	0.047429476
128	0x3ded73c3	0.115943454
129	0x3cc6efdc	0.024284296
130	0x3d201dcd	0.03909092
131	0xbe1ceb98	-0.15324247
132	0xbe3fb14c	-0.18719977
133	0x3d43848b	0.047733825
134	0x3dce2946	0.10066466
135	0x3d86ecad	0.06588111
136	0x3e1623d4	0.14662105
137	0xbdb25389	-0.08707339
138	0xbd86ed70	-0.06588256
139	0x3d3401f2	0.043947168
140	0xbe5f5ae1	-0.21812011
141	0x3d91e1a0	0.07123113
142	0x3d9f5443	0.077797435
143	0x3dada9d4	0.08479658
144	0x3c35d2dd	0.011097637
145	0x3d186f3f	0.037215468
146	0x3cf1e41a	0.029527713
147	0x3db42115	0.087953724
148	0xbe0a2cf9	-0.13493718
149	0x3d9bbe16	0.076046154
150	0xbe0f45a5	-0.13991411
151	0x3de90eb3	0.11379757
152	0xbde561c6	-0.112002894
153	0x3d7f899a	0.062387086
154	0x3e26b068	0.16278231
155	0x3c8f8a23	0.017521923
156	0xbca0c695	-0.019625941
157	0x3cbe92c6	0.023263346
158	0x3dcd5253	0.10025468
159	0xbd996621	-0.07490183
160	0x3d3382a1	0.04382575
161	0x3c84d5ac	0.016215168
162	0x3b81ae14	0.0039575193
163	0xbd36b3bb	-0.044604998
164	0x3d945a93	0.07243838
165	0x3dffb7b3	0.1248621
166	0xbd09ddb6	-0.033658706
167	0xbe6121c7	-0.21985541
168	0xbe1135d6	-0.14180693
169	0x3d209707	0.03920653
170	0xbdf7feb3	-0.12109127
171	0xbc24d096	-0.010059496
172	0xbe30eff4	-0.17279035
173	0xbb5d5e51	-0.003377814
174	0x3cd2d00e	0.025733974
175	0x3e0385c9	0.12844004
176	0xbe1d04fa	-0.1533393
177	0xbca1c407	-0.019746793
178	0x3dec3d7c	0.11535165
179	0x3cc50d0f	0.024054078
180	0x3dc11cbf	0.09429311
181	0x3d153f55	0.03643735
182	0x3d2458da	0.040123798
183	0x3d0af4cd	0.033924866
184	0x3e287024	0.16449028
185	0xbe08bf70	-0.13354278
186	0x3df18f26	0.117948815
187	0x3d59f7bf	0.053214785
188	0xbe754fa1	-0.23956157
189	0xbdf11478	-0.11771482
190	0x3c95389e	0.018215474
191	0x3dea6aab	0.114461266
192	0x3d6ab72a	0.057303585
193	0x3dd0265e	0.10163568
194	0x3dba0d53	0.09084573
195	0x3ddca6aa	0.10773976
196	0x3c1547ff	0.0091114035
197	0xbcdd5fd1	-0.027023228
198	0x3d778ac3	0.060435068
199	0x3ddaacd6	0.10677497
200	0xbe6d2ad5	-0.2316087
201	0xbccaf22e	-0.024773683
202	0x3d564af1	0.052317563
203	0xbe5a95a8	-0.21346152
204	0xbc653afe	-0.013991116
205	0xbe87a599	-0.26493528
206	0x3e13b38a	0.14423957
207	0x3dbba13a	0.09161611
208	0x3d674cb3	0.05646963
209	0xbbb8705c	-0.0056286287
210	0x3ccdc57b	0.02511858
211	0x3c8a15dc	0.016856126
212	0xbe59e353	-0.21278124
213	0xbdf4a00c	-0.11944589
214	0x3db13557	0.08652752
215	0x3bc2f3f0	0.00594949
216	0xbde81ab0	-0.11333215
217	0xbdbe6bf4	-0.09297934
218	0xbd2d13e9	-0.042255316
219	0xba17c572	-0.00057896145
220	0xbe15f7f8	-0.14645374
221	0x3d378505	0.04480459
222	0xbe11372c	-0.14181203
223	0x3e1aca7f	0.15116309
224	0x3dc39136	0.09549181
225	0x3db5c615	0.08875672
226	0x3d0d2937	0.034463134
227	0x3d61f103	0.055161487
228	0xbd3257a3	-0.04354061
229	0xbd865f48	-0.06561142
230	0x3dd4c4c2	0.10389091
231	0xbe03ecdd	-0.12883325
232	0x3dab8cfb	0.08376499
233	0xbd1005f1	-0.035161916
234	0xbd5c3ffa	-0.05377195
235	0xbd5d2dbf	-0.053998705
236	0xba889b4a	-0.0010422256
237	0x3d3a411f	0.04547226
238	0x3da2f7d0	0.07957423
239	0xbd7b7e20	-0.06139958
240	0x3db8a23d	0.090153195
241	0x3ca3b8ac	0.01998552
242	0x3e09357a	0.13399306
243	0xbc2921ef	-0.010323032
244	0x3d854cbc	0.065087765
245	0xbe910372	-0.2832294
246	0x3dca98d5	0.09892432
247	0x3c9a0943	0.018803244
248	0xbdc2239a	-0.09479447
249	0x3ddc0b52	0.10744347
250	0x3d71bbd3	0.059017014
251	0x3d928b29	0.07155449
252	0x3d8cf63c	0.06882903
253	0xbe2ba357	-0.16761528
254	0x3d2408cd	0.040047456
255	0xbe35e01c	-0.17761272

output_mlp.0.weight f4 [128, 512]
0	0xbd0265c1	-0.03183532
1	0x3cd8c0b5	0.026459077
2	0x3d46d1b1	0.04853982
3	0x3cb3841a	0.021913577
4	0xbd45b27a	-0.04826591
5	0xbc9b132d	-0.018930042
6	0xbd0429d3	-0.03226645
7	0xbb2bd9a2	-0.0026222249
8	0xbc561ee7	-0.013068891
9	0xbcc1b73f	-0.023646949
10	0x3ce19cfb	0.027540674
11	0x3d99ebfb	0.07515713
12	0xbd13283b	-0.03592704
13	0x3d7141f8	0.058900803
14	0xbc88981a	-0.01667409
15	0xbc1a5933	-0.009420681
16	0xbc61e595	-0.013787647
17	0xbc690ef6	-0.014224758
18	0xbd33dc02	-0.043910988
19	0x3d0f5c48	0.035000116
20	0xbd3c203b	-0.045929175
21	0x3ae584ee	0.001751093
22	0x3c979811	0.018505128
23	0xbca6c35d	-0.020356828
24	0x3d055ef0	0.032561243
25	0xbc3f1277	-0.011662117
26	0xbcbe3698	-0.023219392
27	0xbcea0f61	-0.028571786
28	0xbc5d978a	-0.013524899
29	0x3d28fa46	0.041254304
30	0x3c9f2c55	0.019430319
31	0x3cb721b9	0.022354947
32	0xbc92bafd	-0.017911429
33	0x3bcb6753	0.0062073856
34	0x3d9fbea9	0.078000374
35	0xbbce9b64	-0.006305145
36	0xbd03db53	-0.032191586
37	0x3d59c874	0.053169683
38	0xbcfeb740	-0.03109324
39	0xbcbfd2d5	-0.023415962
40	0xbc8a37b8	-0.016872272
41	0xbd09170c	-0.033469245
42	0xbd24b269	-0.040209208
43	0xbd15f1dc	-0.03660761
44	0xbcfb6573	-0.030688023
45	0xbcf8441c	-0.030305915
46	0xbb3e5812	-0.0029044193
47	0xbd1e7743	-0.038687956
48	0x3ce482c9	0.027894394
49	0x3d5a4724	0.0532905
50	0x3c8bcf45	0.017066607
51	0x3d818e2b	0.063259445
52	0x3c48cbcd	0.012255621
53	0xbd6a48ef	-0.05719846
54	0x3d999b2a	0.07500298
55	0x3da23739	0.07920689
56	0xbc884ba1	-0.016637625
57	0x3ca33dbf	0.019926904
58	0x3d6cd09a	0.057816125
59	0x3d626baf	0.055278476
60	0x3d7036cd	0.058646012
61	0xbd22e20f	-0.039766368
62	0x3c8acf73	0.016944623
63	0x3d0fdbd9	0.035121772
64	0x3caff2de	0.021478113
65	0x3c5c66a0	0.013452202
66	0x3c473099	0.012157583
67	0xbbd5b604	-0.006521942
68	0xbca6ef47	-0.020377768
69	0xbd71c6bd	-0.059027422
70	0xbabac329	-0.0014248836
71	0xbc8e515f	-0.017372785
72	0xbc91fd52	-0.017820988
73	0x3c9806aa	0.018557865
74	0xbd16aa9d	-0.036783803
75	0xbd1ba2f9	-0.03799722
76	0xbc14bd15	-0.009078284
77	0x3d46d93b	0.04854701
78	0x3d0cab18	0.034342855
79	0x3c18191a	0.009283328
80	0xbcd46227	-0.025925709
81	0xbd68d5e7	-0.05684462
82	0x3d133dc8	0.03594759
83	0x3c9034e9	0.017603355
84	0x3cc87fb7	0.024474962
85	0x3c8609ae	0.016362038
86	0xbd3ebae4	-0.04656495
87	0xbd0ba79d	-0.034095395
88	0xbd377ade	-0.04479491
89	0x3c8cf5d6	0.017207067
90	0x3c26c7b1	0.010179446
91	0x3c43b173	0.011944163
92	0xbc6b6aa9	-0.0143686915
93	0xbd0678a4	-0.032829896
94	0xbcb8408b	-0.022491714
95	0xbcd4a099	-0.025955485
96	0x3c32bb25	0.010908877
97	0xbd1e64e7	-0.038670447
98	0xbc2f7c29	-0.010710754
99	0x3ccc1c7c	0.024915926
100	0x3d214680	0.039373875
101	0x3c867eb1	0.016417833
102	0xbcc081d8	-0.023499414
103	0xbcc71909	-0.02430393
104	0x3d12def9	0.035857175
105	0xbd1c7915	-0.03820141
106	0xbd2789b8	-0.040902823
107	0xbcc6be34	-0.024260618
108	0xbd49ec12	-0.0492974
109	0x3d3d2d20	0.046185613
110	0xbd251d85	-0.040311355
111	0xbd0a4f75	-0.033767182
112	0xbbcbe6cf	-0.006222583
113	0x3d17d172	0.037064977
114	0xbd591009	-0.052993808
115	0xbc70e0bc	-0.014702018
116	0x3b7ec3ea	0.0038874098
117	0x3cc9e065	0.024643132
118	0x3da5d60f	0.08097469
119	0xbc916f0b	-0.017753145
120	0x3cefe2df	0.029282985
121	0xbc52b1c2	-0.012859764
122	0xbd24fef2	-0.040282197
123	0xbd1d48ee	-0.03839963
124	0x3d73715d	0.059434284
125	0x3c6ce415	0.014458676
126	0xbd088d7e	-0.033338062
127	0xbcd3898b	-0.025822422
128	0xbd60419c	-0.05475007
129	0xbc8242da	-0.015901018
130	0xbd4aee58	-0.04954371
131	0x3d09e413	0.033664774
132	0x3c94b448	0.018152371
133	0xb9d072dc	-0.00039758428
134	0xbd2f53e2	-0.042804606
135	0x3ce40142	0.027832631
136	0xbd13dc4b	-0.03609876
137	0x3cf675ce	0.03008547
138	0x3c7c67c8	0.015405603
139	0x3d04c246	0.032411836
140	0x3d4663f6	0.048435174
141	0xbcf8acb5	-0.03035579
142	0xbb0fe05f	-0.0021953804
143	0x3b7415ad	0.0037244365
144	0x3cd6b519	0.026209401
145	0xbd14f9e5	-0.03637113
146	0xbbf86b60	-0.0075811595
147	0x3c3fd5d2	0.011708694
148	0x3d247a28	0.04015556
149	0xbd85fd81	-0.06542493
150	0x3c9f2e19	0.01943116
151	0xbc871be5	-0.016492793
152	0x3d73465d	0.059393276
153	0x3c24d94a	0.010061571
154	0xbc5ac13c	-0.013351735
155	0xbd4b691f	-0.0496608
156	0x3c5ffda8	0.013671316
157	0xbd1d98af	-0.03847569
158	0xbcb4057c	-0.021975271
159	0x3c8e84ed	0.017397368
160	0x3d3420b9	0.04397652
161	0xbc7ff38d	-0.015622032
162	0x3cbeb7ca	0.023280997
163	0x3d226a4f	0.039652165
164	0x3cec9544	0.02887977
165	0xbd1031c8	-0.035203725
166	0x3d9a67a7	0.07539301
167	0x3d37f666	0.04491272
168	0x3d394be0	0.045238376
169	0x3bea0d4d	0.007142699
170	0x3da4efaa	0.08053525
171	0x3ce811ef	0.028328864
172	0x3d511d3c	0.05105327
173	0x3d38095d	0.044930805
174	0x3c0d5e63	0.008628461
175	0x3c81f608	0.015864387
176	0x3cc52b5d	0.024068529
177	0xbb88d236	-0.0041754497
178	0xbcb2bf01	-0.021819593
179	0xbdc6120e	-0.096714124
180	0xbcca5121	-0.024696888
181	0x3b2b4e26	0.002613911
182	0xbcfa37c1	-0.030544164
183	0xbc9d48bc	-0.019199722
184	0xbd389790	-0.045066416
185	0x3d09c53b	0.03363536
186	0xbd0f7ddf	-0.03503215
187	0xbd25d9c4	-0.04049088
188	0x3bdc1c3c	0.006717233
189	0x3ce4bf2f	0.027923195
190	0x3d36a9c0	0.04459548
191	0xbd782de1	-0.06059063
192	0xbce1c443	-0.027559405
193	0xbd756aa0	-0.05991614
194	0xbd079b16	-0.033106886
195	0xbce81871	-0.028331967
196	0x3bf8aa33	0.0075886487
197	0x3cbfa8d8	0.02339594
198	0xbc4e7eb3	-0.01260345
199	0xbd12fcd9	-0.035885666
200	0x3d1f8162	0.03894175
201	0x3d25b173	0.040452432
202	0x3d21927f	0.03944635
203	0x3d31e9a6	0.043435715
204	0x3d23453d	0.039860953
205	0x3d6565a6	0.056005143
206	0xbd432b6b	-0.04764883
207	0xbbf76122	-0.007549421
208	0xbcb9417e	-0.022614237
209	0xba17742a	-0.00057775027
210	0x3d0e68fd	0.034768093
211	0x3c806342	0.01567233
212	0x3c9d2101	0.019180777
213	0x3cd7a8b0	0.026325554
214	0x3d16ee9c	0.03684865
215	0xbd069999	-0.032861326
216	0x3c8a8f75	0.016914109
217	0x3c032b2b	0.0080058975
218	0x3ca6bb6c	0.020353042
219	0x3d24c206	0.040224098
220	0x3cb65782	0.022258524
221	0xbd268321	-0.040652398
222	0x3d224bf4	0.039623216
223	0xbc97d404	-0.018533714
224	0xbca436d3	-0.020045673
225	0xbd0a995b	-0.033837657
226	0xbd19738b	-0.037463706
227	0xbc06d983	-0.00823057
228	0x3c3c9cf5	0.011512031
229	0x3c21580c	0.009847652
230	0xbd1222fc	-0.035677895
231	0x3aa6aecd	0.001271689
232	0xbd15ed1c	-0.03660308
233	0x3bb96092	0.005657264
234	0x3cd523c6	0.026018035
235	0x3ca8625f	0.02055472
236	0x3c1c30c2	0.009533109
237	0xbc9a0cd1	-0.01880494
238	0xbbd3e44b	-0.0064664236
239	0x3d3964d0	0.045262158
240	0xbd0f4c01	-0.034984592
241	0xbcf43c0c	-0.029813789
242	0xbc75af88	-0.014995463
243	0x3ca8d69d	0.020610148
244	0xbca31f55	-0.019912401
245	0x3d8d781f	0.06907677
246	0xbb99ac80	-0.004689753
247	0x3d134bc9	0.035960946
248	0x3cd3754b	0.025812766
249	0xbc01b352	-0.007916288
250	0xbcd57fed	-0.026061976
251	0xbc89a9b2	-0.01680455
252	0xbd9201fc	-0.07129285
253	0x3d90b7f3	0.070663355
254	0xbc4b049e	-0.012391238
255	0x3ceadde0	0.028670251

output_mlp.0.bias f4 [128]
0	0xbd5cafb0	-0.053878486
1	0xbd471aa2	-0.048609383
2	0xbd047f0a	-0.032347716
3	0xbd161d16	-0.036648832
4	0xbddc081a	-0.10743733
5	0xbdd85634	-0.10563317
6	0xbe017ac5	-0.12644489
7	0xbdc9112d	-0.09817729
8	0xbce4ea9a	-0.027943898
9	0xbd983fe2	-0.0743406
10	0xbd63a5ac	-0.05557792
11	0x3e107554	0.14107257
12	0xbdc9bd01	-0.09850503
13	0xbdc2852b	-0.09498056
14	0xbddc8a1a	-0.10768528
15	0xbd66a357	-0.056308117
16	0xbea1fc5f	-0.31637856
17	0xbd60a2d1	-0.054842774
18	0xbda0de00	-0.07854843
19	0xbd6515d1	-0.05592901
20	0xbd8f8563	-0.070078634
21	0xbdbbf5a8	-0.091777146
22	0xbe2f0c65	-0.17094572
23	0xbd0744f0	-0.03302473
24	0xbddff2f4	-0.109350115
25	0xbd5ccf22	-0.053908475
26	0xbd4b6e9e	-0.04966604
27	0xbd721bc1	-0.0591085
28	0xbd855039	-0.06509442
29	0xbd5aa2a6	-0.05337777
30	0x3e30bdd1	0.17259909
31	0xbdd21f8d	-0.10259924
32	0xbd6ea4cb	-0.058262628
33	0xbd8e0973	-0.06935396
34	0xbd998a49	-0.07497079
35	0xbd0fe148	-0.035126954
36	0x3dd47fb8	0.10375923
37	0xbd6d0c73	-0.0578732
38	0xbd637fa1	-0.05554164
39	0xbe76cc63	-0.24101405
40	0xbce2e34c	-0.027696274
41	0xbdb64bd0	-0.08901179
42	0x3dcfc233	0.101444624
43	0xbda6dc85	-0.081475295
44	0xbd41a8d4	-0.047280148
45	0xbe82258f	-0.2541928
46	0x3c90352b	0.017603477
47	0x3d7ea20b	0.062166255
48	0xbdd41d73	-0.103571795
49	0xbd71b1ca	-0.059007443
50	0xbced89dd	-0.028996402
51	0xbe2287e0	-0.15872145
52	0xbdc9c532	-0.09852065
53	0xbd670e58	-0.056410164
54	0xbd78ea8d	-0.06077056
55	0x3d7a8a10	0.061166823
56	0x3dccc187	0.0999785
57	0xbd458192	-0.04821927
58	0xbd66af9b	-0.056319814
59	0x3e6831f1	0.22675301
60	0xbe190302	-0.14942554
61	0xbca8f4ca	-0.020624537
62	0xbd0c700d	-0.034286547
63	0xbd75f7ca	-0.060050763
64	0xbe018b98	-0.12650907
65	0xbd12c917	-0.035836305
66	0xbe3ed61e	-0.18636367
67	0xbd8a5702	-0.06754877
68	0xbc52430c	-0.012833368
69	0xbdb4639a	-0.0880806
70	0xbd587d2d	-0.052853752
71	0xbe10c326	-0.14136943
72	0xbc805eba	-0.01567017
73	0x3e203640	0.15645695
74	0x3d0e6f50	0.034774125
75	0xbba4a990	-0.0050250962
76	0x3d150d33	0.03638954
77	0xbe04d226	-0.1297079
78	0xbd52d7fc	-0.05147551
79	0x3c678cfc	0.014132734
80	0xbcb17977	-0.021664364
81	0xbd202576	-0.039098226
82	0xbd929163	-0.071566366
83	0xbdccf1bf	-0.10007047
84	0xbc4ef125	-0.0126307355
85	0x3ec6f5a0	0.38859272
86	0xbd55dc14	-0.052211836
87	0xbda3bb11	-0.079946645
88	0xbdad4647	-0.0846067
89	0xbdaf353b	-0.08555075
90	0xbcc65047	-0.024208201
91	0x3d9deab9	0.077107854
92	0xbda47ffd	-0.08032224
93	0xbd62672b	-0.05527417
94	0xbdb86de8	-0.09005338
95	0xbd90d1b3	-0.07071247
96	0x3b2f377b	0.002673595
97	0x3d6869d7	0.05674156
98	0x3d5c8e79	0.05384681
99	0xbd9a9190	-0.07547295
100	0xbdbf5d3e	-0.093439564
101	0xbdd0b3b4	-0.10190526
102	0xbc6233c1	-0.013806284
103	0xbe8cabff	-0.27474973
104	0xbd85546c	-0.06510243
105	0xbd5cf683	-0.05394603
106	0x3cbe7441	0.023248794
107	0xbe08bf7e	-0.13354298
108	0x3e2a0dcb	0.16606824
109	0xbd830c76	-0.06398861
110	0x3d1f415d	0.038880695
111	0xbd287e6d	-0.041136194
112	0xbd91364b	-0.07090434
113	0xbd8f8058	-0.070069015
114	0xbdb1810e	-0.08667193
115	0xbd80fb3e	-0.06297921
116	0x3de705ac	0.11280379
117	0xbc260bfc	-0.010134693
118	0xbdc64df9	-0.09682841
119	0xbdfeff61	-0.124510534
120	0xbd69d473	-0.057087373
121	0xbd84b753	-0.06480279
122	0xbdc5e456	-0.09662692
123	0xbd8b8da5	-0.06814126
124	0xbc97f1c5	-0.018547902
125	0xbd4000a5	-0.046875615
126	0x3d648e85	0.05579998
127	0xbc272f15	-0.010204096

output_mlp.2.weight f4 [9, 128]
0	0x3ca3616d	0.019943917
1	0xbcfa9268	-0.03058739
2	0xbcef1958	-0.02918689
3	0xbcb269ee	-0.021779027
4	0xbd1b5314	-0.037921026
5	0xbc27c6db	-0.010240282
6	0xbccbbfbf	-0.024871705
7	0x3bf2e8a3	0.0074129864
8	0xbbdba2f5	-0.0067027756
9	0xbd57632a	-0.052584805
10	0xbd067203	-0.032823574
11	0xbdb4d290	-0.08829224
12	0xbc1efe01	-0.009704114
13	0xbce4a98d	-0.02791288
14	0xbcbf667d	-0.0233643
15	0x3c9c012f	0.019043533
16	0xbce1788f	-0.027523307
17	0x3b9d2dc7	0.004796717
18	0x3cfd323b	0.03090774
19	0xbc1ca2d4	-0.009560306
20	0xbb556614	-0.0032562064
21	0x3c95c6bb	0.018283239
22	0x3ae7b2b4	0.0017677159
23	0xbbf1c184	-0.007377805
24	0x3b4ff686	0.0031732633
25	0xbd3ac911	-0.045601908
26	0xbce53117	-0.02797751
27	0x3bff2ba9	0.007787187
28	0xbcf1ded9	-0.029525207
29	0x3c11dfc8	0.008903451
30	0xbd5ed2a1	-0.05440009
31	0xbb49fc2e	-0.0030820477
32	0xbc34c535	-0.011033346
33	0x3c01d986	0.007925397
34	0x3cf5a7dc	0.029987268
35	0x3cf3faf0	0.029782742
36	0xbe220b2a	-0.15824571
37	0xba781dc6	-0.0009464886
38	0xbd20ef1e	-0.03929054
39	0x3bc77be8	0.006087769
40	0xbaf0ce93	-0.0018372111
41	0xba8ad828	-0.0010592984
42	0xbdb52183	-0.088442825
43	0xbb1d50b9	-0.0024004413
44	0xbc91408f	-0.01773098
45	0xbd53798c	-0.051629588
46	0xbdbb1123	-0.09134128
47	0xbabbec7f	-0.0014337449
48	0x3d082634	0.03323956
49	0xbcb89168	-0.022530273
50	0x3ab377fb	0.0013692373
51	0xbdca2666	-0.09870605
52	0x3c298846	0.0103474315
53	0x3cde90d1	0.027168663
54	0xbd28ae10	-0.041181624
55	0x3cabf88b	0.020992538
56	0xbd7f6eb6	-0.06236144
57	0xbca522b0	-0.020158142
58	0x3c1fb17b	0.0097469045
59	0xbdd7bb41	-0.10533763
60	0xbd224dde	-0.03962504
61	0xbcbb13ca	-0.022836585
62	0x3ba18f63	0.004930423
63	0xbc7f9e57	-0.015601716
64	0xbc970c53	-0.018438494
65	0x3bfa8d75	0.0076462575
66	0x3b5eea50	0.0034014173
67	0xbd387ff0	-0.045043886
68	0xbda2e329	-0.079534836
69	0xbd05ee5d	-0.032698024
70	0x3d4ae7f2	0.049537607
71	0x3bb05d7d	0.0053822384
72	0xbdcd9b34	-0.10039368
73	0x3c8b7e99	0.01702814
74	0xbdab15d9	-0.083537765
75	0x3ba44ae1	0.005013809
76	0xbdad82ea	-0.084722355
77	0x3bf8322d	0.007574341
78	0x3bfc7904	0.007704856
79	0xbdeb6a14	-0.11494842
80	0xbccd031f	-0.025025902
81	0x3b3341a9	0.002735237
82	0xbd3d533c	-0.046221957
83	0xbdbe1c9f	-0.09282803
84	0x3c877516	0.016535323
85	0xbdf176e3	-0.11790254
86	0xbc2184be	-0.009858308
87	0xbc9da202	-0.01924229
88	0xbd0ec7d0	-0.034858525
89	0xbc9587b6	-0.018253189
90	0xbd284a1b	-0.041086297
91	0xbdf59caf	-0.11992776
92	0x3cb0142d	0.021493996
93	0xbbee7e97	-0.0072782743
94	0xbca48696	-0.020083707
95	0x3d026c31	0.03184146
96	0x3c801593	0.015635287
97	0xbcd4c8ea	-0.02597471
98	0xbd902f0c	-0.070402235
99	0xbc40045d	-0.01171979
100	0xbc4e5c9d	-0.012595323
101	0x3c1da121	0.009620936
102	0x3d3a14c6	0.045429967
103	0xbd6c6a66	-0.057718657
104	0xbc299c3d	-0.0103521915
105	0x3bcfe6a3	0.0063446327
106	0xbe0d4fa6	-0.13799915
107	0xbd95d1e5	-0.07315425
108	0xbd913145	-0.070894755
109	0x3b8d5fc2	0.0043143937
110	0xbc8c7aa3	-0.017148321
111	0xbbdd566b	-0.0067546866
112	0xbd95582b	-0.07292207
113	0xbbb47afc	-0.005507825
114	0xbcd3ef6e	-0.025871005
115	0x3d0747e8	0.03302756
116	0xbc5a649f	-0.013329654
117	0xbcd52723	-0.026019638
118	0xbcee676a	-0.029102046
119	0xbcf39ebd	-0.029738778
120	0xbd11b295	-0.0355707
121	0xbc2972bf	-0.010342299
122	0xbbb71233	-0.0055868863
123	0xbc645442	-0.013936104
124	0xbc0a9018	-0.008457206
125	0xbb0e5f85	-0.0021724415
126	0xbc909f32	-0.017654035
127	0xbd9ecac3	-0.077535175
128	0x3dbef6d5	0.09324423
129	0x3cfbc9c0	0.03073585
130	0x3b3df462	0.0028984775
131	0x3d13b80b	0.03606419
132	0xbc7f1c45	-0.015570705
133	0xbd3ab9f2	-0.045587488
134	0xbd53f5be	-0.05174803
135	0xbd4df61f	-0.050283547
136	0x3d1df48c	0.038563296
137	0x3d0d812e	0.034547023
138	0x3d479ab6	0.04873153
139	0xbdee1d9d	-0.11626742
140	0xbd8c2e0d	-0.06844721
141	0xbd4a54d6	-0.049397312
142	0xbd2816ee	-0.041037492
143	0x3d293f79	0.041320298
144	0xbdbe2157	-0.09283703
145	0x3bddd127	0.0067693177
146	0x3c9b2c81	0.01894212
147	0xbd15d7aa	-0.036582626
148	0x3d49bea5	0.04925408
149	0x3d392c06	0.045208
150	0xbd37c483	-0.044865143
151	0x3c93a7fc	0.018024437
152	0xbd8e62ce	-0.06952439
153	0x3c3b2494	0.011422295
154	0x3d73b52a	0.059498943
155	0x3c147be5	0.009062742
156	0x3d55799c	0.05211793
157	0x3ca7e97d	0.020497078
158	0xbddb0240	-0.106937885
159	0xbcea29cd	-0.028584385
160	0x3ce746a3	0.028231924
161	0x3d93b2b5	0.0721182
162	0x3d2ef3ad	0.042712856
163	0x3d80215a	0.06256361
164	0xbdcaee76	-0.09908764
165	0x3d00e538	0.0314686
166	0x3d432cbf	0.047650095
167	0x3ca9dd36	0.020735364
168	0x3d216d50	0.03941089
169	0xbd3a0a0b	-0.045419734
170	0xbdff2c6a	-0.12459643
171	0x3d2947a7	0.0413281
172	0xbd8453d5	-0.06461302
173	0xbdb1c0ef	-0.08679377
174	0xbddaef13	-0.10690131
175	0xbd507cfc	-0.050900444
176	0x3d1883a6	0.037234925
177	0x3d7a8bbf	0.06116843
178	0xbd1ce1f2	-0.038301416
179	0xbd9974fe	-0.074930176
180	0x3c06e943	0.008234325
181	0x3d6e4eaf	0.058180507
182	0x3c64dbc2	0.01396841
183	0xbd99d42d	-0.075111724
184	0xbd07ae7d	-0.03312539
185	0xbd33e88b	-0.043922942
186	0x3d2b8fa3	0.04188503
187	0xbdd40b08	-0.103536665
188	0xbd4cb67c	-0.04997872
189	0x3b716d29	0.0036838746
190	0x3d6e0804	0.058113113
191	0x3d70aec0	0.058760405
192	0xbd3d46ac	-0.046209976
193	0xbcad2b04	-0.021138676
194	0x3d20094a	0.03907136
195	0x3ceff5dc	0.02929204
196	0xbde8c2fa	-0.11365314
197	0x3c3b26a1	0.011422784
198	0xbd549b2b	-0.051905792
199	0xbc4d2bf0	-0.012522683
200	0xbdce5910	-0.10075581
201	0x3d32595d	0.043542255
202	0xbe3f1977	-0.18662058
203	0x3c2ea846	0.010660237
204	0xbd90177f	-0.070357315
205	0xbd9d329a	-0.07675667
206	0x3d568caa	0.05238024
207	0xbe183945	-0.14865597
208	0x3d1e28e0	0.0386132
209	0x3ceb22e1	0.028703155
210	0x3bb91971	0.005648785
211	0xbde9ee81	-0.11422444
212	0x3ca45401	0.020059587
213	0xbe0e8f44	-0.13921839
214	0x3cb9c5a5	0.022677252
215	0x3cf01f94	0.029311933
216	0xbd347e58	-0.044065803
217	0x3c8c5c0b	0.017133733
218	0xbd0118e6	-0.031517886
219	0xbe1193eb	-0.14216582
220	0x3c4bd893	0.012441772
221	0x3d14c9e5	0.036325354
222	0xbd4537e1	-0.048148993
223	0x3c855313	0.016274964
224	0xbd9067f0	-0.070510745
225	0xbd6514e5	-0.05592813
226	0xbe0d38f2	-0.13791254
227	0x3d35c8cf	0.04438096
228	0xbcace9c3	-0.02110756
229	0xbda16f8c	-0.07882604
230	0x3d62dc88	0.055386096
231	0xbd9f67ac	-0.07783446
232	0x3ce242a8	0.027619675
233	0x3d02d11d	0.031937707
234	0xbdfd1dbd	-0.12359188
235	0xbdf94c4f	-0.12172758
236	0xbd631eda	-0.055449344
237	0x3ba6050b	0.005066519
238	0xbd75fd16	-0.060055815
239	0x3d359cef	0.044339117
240	0xbdb3b7ae	-0.087752685
241	0x3d115cc5	0.035488863
242	0x3cca3ef1	0.024688216
243	0x3c8219d1	0.01588145
244	0xbd29556a	-0.041341223
245	0x3d1bd1b7	0.038041797
246	0xbc81a7f3	-0.015827155
247	0xbdb84bfa	-0.089988664
248	0x3d51bd7d	0.0512061
249	0x3d58aa31	0.052896682
250	0xbd7a52a3	-0.061113965
251	0x3cd028e9	0.025410132
252	0x3c20d1e6	0.009815669
253	0x3d305bf8	0.04305646
254	0xbd47d7ba	-0.048789717
255	0xbdcf6d2f	-0.10128247

output_mlp.2.bias f4 [9]
0	0xbc34313c	-0.0109980665
1	0xbd2494a7	-0.04018083
2	0xbd18644a	-0.037205018
3	0xbbf6dab4	-0.0075333957
4	0x3e1190a0	0.14215326
5	0xbd18f2e5	-0.037341017
6	0xbd12b77f	-0.035819527
7	0x3cebd3db	0.028787544
8	0x3dac14b0	0.08402383
