log/segmentation/pn/bucket/full/pn_30.pth (torch, 337359 bytes, 8 tensors)

local_mlp.0.weight f4 [64, 3]
0.18977985 -0.1253493 -0.25840077 0.69854033 0.03302439 0.101158254 -0.6581741 -0.4088562
0.19793867 -0.65578973 -0.61244303 -0.17783399 -0.63480836 -0.30124104 0.20809233 -0.81871206
-0.5330746 0.2219662 -0.5876962 -0.33967552 0.19421938 -0.6554883 -0.3675354 0.29587144
0.5715219 -0.3515973 -0.084095165 -0.5778637 -0.33036932 0.18530962 0.70592815 0.16736405
0.26859233 0.588628 -0.35216403 -0.07244186 0.6662217 -0.06713308 0.04824592 0.671725
-0.10304999 0.064770386 -0.6166512 -0.42001435 0.30201057 -0.6048003 -0.40358177 0.18219514
-0.64250576 -0.032808054 0.5706519 -1.1087441 0.7543499 0.589947 -1.1091636 0.30398777
0.35361153 -0.70584357 0.73524964 0.61477333 0.6763815 -0.078400366 0.03694293 0.6747564
-0.24544652 0.016685797 -0.7011108 -0.4473764 0.18417458 -0.7702403 -0.44940585 0.30787346
-0.6614362 -0.6552989 -0.13630922 0.13350943 0.68778664 -0.15697156 0.034461543 0.741816
-0.3705145 -0.5943641 -0.36415026 0.17635249 -0.6913145 -0.56735694 0.12952712 0.09724776
0.85962385 0.0070715584 0.13056651 0.5914324 -0.047954086 0.6374585 0.19944896 0.14265636
0.122358635 0.61949366 -0.087271966 -0.6989295 -0.4096813 0.3036954 0.56055707 0.30852148
0.2607805 0.06551754 0.824367 -0.17493208 -0.62111324 -0.48474422 0.1556555 0.09851847
1.4121801 0.26427627 0.28070843 0.32262048 -0.12314376 0.11584168 0.7951435 0.09633235
0.39995012 -0.04617759 -0.2855491 -0.68372446 -0.41315752 0.19657108 0.6693585 -0.16944939
0.048439465 0.69714487 -0.06935883 0.065243706 0.6892026 -0.18547928 0.042671196 -0.6826821
-0.31481668 0.3047069 -0.65187794 -0.40028593 0.19037488 0.2312765 0.49007007 -0.05482305
-0.46768013 -0.5531482 -0.07906753 0.19739343 0.5036057 -0.4682674 0.6530803 -0.38109818
-0.047661662 -0.6277137 -0.34867504 0.20838593 0.14861622 0.65162086 -0.16289741 0.6694854
-0.3203981 0.023453247 0.17612542 0.48163864 -0.09359342 -0.770637 -0.49491557 0.2972506
-0.6405855 -0.44775224 0.15635501 -0.9026721 0.32714486 0.25887614 -0.82776463 -0.62085074
0.10344106 0.5253727 0.36534086 0.24661727 -0.615883 -0.39416474 0.16450459 0.36065224
0.5005553 0.29766047 0.057615306 1.2198259 0.16457294 0.67454517 -0.11357544 0.07480973
00000000: a655 423e 915b 00be 1b4d 84be 8ad3 323f
00000010: 9544 073d 0f2c cf3d 197e 28bf 9a55 d1be
00000020: 6fb0 4a3e d6e1 27bf 11c9 1cbf 1d1a 36be
00000030: cd82 22bf 443c 9abe 2816 553e 1d97 51bf
00000040: 9477 08bf 1c4b 633e 4273 16bf f3e9 adbe
00000050: 72e1 463e 15ce 27bf 9a2d bcbe 767c 973e
00000060: 424f 123f 9004 b4be 163a acbd e0ee 13bf
00000070: 2b26 a9be cec1 3d3e b5b7 343f 7b61 2b3e
00000080: ef84 893e 53b0 163f d84e b4be 665c 94bd
00000090: 818d 2a3f 117d 89bd 849d 453d 2bf6 2b3f
000000a0: e00b d3bd 56a6 843d dadc 1dbf 1f0c d7be
000000b0: 21a1 9a3e 31d4 1abf 45a2 cebe 5d91 3a3e
000000c0: 427b 24bf bd61 06bd 3e16 123f 54eb 8dbf
000000d0: 131d 413f c406 173f 13f9 8dbf 49a4 9b3e
000000e0: 920c b53e 2ab2 34bf 5239 3c3f c961 1d3f
000000f0: 5727 2d3f 5f90 a0bd 7851 173d d6bc 2c3f
00000100: 5556 7bbe a7b0 883c ff7b 33bf 850e e5be
00000110: 4398 3c3e 782e 45bf 8618 e6be 97a1 9d3e
00000120: e253 29bf abc1 27bf a594 0bbe b2b6 083e
00000130: c912 303f 27bd 20be 8c27 0d3d a7e7 3d3f
00000140: 14b4 bdbe 3f28 18bf e771 babe bf95 343e
00000150: fdf9 30bf 4e3e 11bf c2a2 043e d529 c73d
00000160: 4f10 5c3f 88b8 e73b 3ab3 053e 1d68 173f
00000170: 816b 44bd 7b30 233f 593c 4c3e 8214 123e
00000180: 2a97 fa3d 2397 1e3f a5bb b2bd 0bed 32bf
00000190: bfc1 d1be f77d 9b3e ab80 0f3f 87f6 9d3e
000001a0: 0685 853e 0f2e 863d b709 533f 6521 33be
000001b0: 4701 1fbf 6530 f8be 2864 1f3e 0dc4 c93d
000001c0: 51c2 b43f 384f 873e 04b9 8f3e 832e a53e
000001d0: cc32 fcbd 673e ed3d 868e 4b3f e549 c53d
000001e0: 43c6 cc3e b624 3dbd 7e33 92be 9108 2fbf
000001f0: 6289 d3be ee49 493e 145b 2b3f 2484 2dbe
00000200: 7668 463d 1678 323f 010c 8ebd 7e9e 853d
00000210: 956f 303f 48ee 3dbe fec7 2e3d 41c4 2ebf
00000220: a72f a1be 8b02 9c3e 79e1 26bf 47f2 ccbe
00000230: a2f1 423e bfd3 6c3e 77ea fa3e 228e 60bd
00000240: c573 efbe 1f9b 0dbf 28ee a1bd 8121 4a3e
00000250: 4eec 003f bfc0 efbe 4530 273f 4d1f c3be
00000260: e038 43bd d8b1 20bf 8985 b2be 1f63 553e
00000270: da2e 183e a0d0 263f 94ce 26be 6563 2b3f
00000280: 380b a4be 0621 c03c 395a 343e 5799 f63e
00000290: e8ad bfbd 7748 45bf 9365 fdbe 3b31 983e
000002a0: 69fd 23bf c83f e5be 871b 203e 8515 67bf
000002b0: 887f a73e 6a8b 843e 62e8 53bf 13f0 1ebf
000002c0: e8d8 d33d d37e 063f f50d bb3e 3d89 7c3e
000002d0: 82aa 1dbf f6cf c9be e473 283e 69a7 b83e
000002e0: 6424 003f f466 983e 07fe 6b3d 4123 9c3f
000002f0: cf85 283e feae 2c3f 3e9a e8bd d835 993d

local_mlp.0.bias f4 [64]
0.43141618 -0.14735733 -0.13428202 0.1379572 -0.1325525 -0.16629754 -0.07999159 -0.23322314
-0.11469255 -0.08559448 -0.17897706 -0.11842095 -0.19437243 -0.19956139 -0.18382046 -0.08251672
-0.38007462 -0.2557178 -0.2189207 -0.22306962 -0.17949115 -0.18606718 -0.119633265 -0.2658079
0.16621709 0.14548203 -0.044040702 -0.071668535 -0.00910221 0.25290328 0.32897723 -0.14948848
0.35609323 -0.25577408 -0.16669904 0.033286966 -0.04484226 -0.018415848 0.4829478 0.07665601
0.86524475 -0.14099252 -0.20150234 -0.16727814 -0.19927965 -0.2505047 -0.13045326 0.13893706
0.2651193 -0.08321792 -0.151722 -0.13869925 0.14664404 -0.19702007 0.4584768 -0.26369697
-0.07645488 -0.15323566 -0.023707457 -0.17106578 -0.0823685 -0.10074041 -0.038152084 -0.21047997
00000000: 95e2 dc3e d7e4 16be 3a81 09be a744 0d3e
00000010: d8bb 07be e749 2abe a1d2 a3bd 0cd2 6ebe
00000020: ede3 eabd 294c afbd c345 37be af86 f2bd
00000030: 9109 47be d259 4cbe 6e3b 3cbe 87fe a8bd
00000040: 2499 c2be 72ed 82be bf2c 60be 5d6c 64be
00000050: 87cc 37be 6588 3ebe 4902 f5bd f917 88be
00000060: d034 2a3e 3ef9 143e 0664 34bd f4c6 92bd
00000070: 7021 15bc 8a7c 813e b46f a83e 8213 19be
00000080: da51 b63e d2f4 82be 27b3 2abe ea57 083d
00000090: 85ac 37bd d5dc 96bc ef44 f73e d3fd 9c3d
000000a0: ae80 5d3f 5860 10be a156 4ebe f64a 2bbe
000000b0: f70f 4cbe 2742 80be 8a95 05be 8445 0e3e
000000c0: b8bd 873e 286e aabd 035d 1bbe 2d07 0ebe
000000d0: db29 163e a1bf 49be 79bd ea3e 4a03 87be
000000e0: 6094 9cbd cfe9 1cbe 2436 c2bc de2b 2fbe
000000f0: d1b0 a8bd fd50 cebd 5c45 1cbd 1088 57be

local_mlp.2.weight f4 [256, 64]
1.384927 -0.6103435 0.023684857 0.7240282 -0.15476705 0.041616473 -0.062627636 -0.26022115
-0.69481575 -0.07684839 -0.78527695 -0.6775961 -0.66757053 -0.73881996 -0.23823449 0.04599176
-0.66776836 -1.7070588 -1.1475583 -1.4449674 -0.6429045 -0.79719174 0.0937466 -0.21915443
0.8340767 -0.18358709 -0.6356362 0.0014177479 0.4014552 -0.37791488 -0.09869218 -0.68157786
-0.06669802 -0.27344918 -0.84338236 -0.31829652 0.23011866 -0.8056362 0.1745205 -0.7167724
1.1150699 0.013425265 -0.75201094 -0.5949458 -0.8545413 -0.3770223 0.016345058 -0.2505022
0.79161984 -0.34597012 -0.90391546 -0.11871873 -0.16440585 -0.8110932 0.14712566 -0.10357062
0.2226322 -1.1956812 0.46822423 -0.8715077 0.115548566 -1.0091479 -0.7001883 -0.8218163
-0.22243497 -0.064336546 -0.04190633 -0.20955051 0.043363467 -0.10341113 -0.049660664 0.00277511
-0.20105562 -0.03086507 0.008983392 -0.17742765 0.008314767 -0.051270016 -0.0134803355 -0.060477965
0.15463017 0.27435532 0.19755773 0.2262462 -0.016142894 -0.03880378 -0.09011521 0.067269586
-0.2164136 0.6262803 1.1780808 -0.067840986 -0.22734027 0.50988686 0.3266451 0.050905332
0.5440316 0.07479199 0.13790855 0.78197664 -0.1672189 0.52451426 0.14137715 0.3041457
-0.019510573 -0.05552452 -0.058802027 -0.04796674 -0.027311027 0.07297796 -0.053788424 0.22043271
-0.20828608 0.79926044 -0.08040431 0.0022622433 0.63280934 -0.11600778 0.32077372 0.005537314
-0.11877673 0.15053056 -0.22635326 0.113882154 -0.05554896 0.14641649 0.5941406 0.009029108
-0.5440164 -0.0007826966 -0.17795017 -0.30842197 -0.0834959 -0.20590971 -0.10311281 -0.018905953
-0.37309682 -0.09255882 0.022566235 -0.34687704 -0.036962356 -0.09851937 -0.04415571 -0.16864921
0.118735336 0.20986348 0.067862466 0.18674041 -0.10363362 -0.090946324 -0.19048472 -0.07008476
-0.24690604 0.44442263 0.95621467 -0.1362775 -0.32811874 0.4503575 0.2530284 0.07216315
0.4369929 -0.041301325 0.09073432 0.5736451 -0.30083412 0.49620804 0.09467116 0.3202754
-0.12532826 -0.18596737 -0.11437431 -0.07728838 -0.06477506 0.025544057 -0.13253237 0.1633043
-0.30565175 0.6253484 -0.22476023 -0.09981324 0.4176888 -0.16221151 0.3460323 -0.12344825
-0.24943037 0.114342816 -0.36646298 0.15934679 -0.19169368 0.19897015 0.44431606 -0.0126659125
-0.119408354 0.13573495 -0.05987513 -0.14026827 -0.09688593 -0.013405172 -0.18705365 -0.055092853
0.2211007 -0.11447678 0.15062457 0.20140806 0.18360852 0.17220418 -0.106379025 -0.14548486
-0.057062287 -0.082336895 0.038521368 -0.05482036 0.17207786 0.1920117 -0.07306782 -0.02192965
-0.11696869 0.22544077 0.7694276 -0.1259568 -0.13772704 -0.093903996 -0.07481888 0.11839996
-0.13994825 -0.019866945 0.11402922 0.29688293 -0.1372359 -0.011616242 -0.11119094 0.014638671
-0.15817545 -0.056862585 0.17827423 0.14661402 0.22579962 -0.02733428 -0.07896297 0.085370585
-0.2915492 0.49628288 0.18528442 -0.09399879 0.2145403 0.20267309 -0.13430983 0.0066393376
-0.120056525 0.037735432 -0.07966305 0.10758303 -0.11209744 0.059409108 -0.020551598 0.19511831
00000000: 4a45 b13f 793f 1cbf bf06 c23c ea59 393f
00000010: 417b 1ebe 0976 2a3d eb42 80bd b53b 85be
00000020: 72df 31bf b062 9dbd e907 49bf f076 2dbf
00000030: e7e5 2abf 4e23 3dbf bef3 73be db61 3c3d
00000040: def2 2abf e780 dabf 31e3 92bf b1f4 b8bf
00000050: 6495 24bf c214 4cbf 38fe bf3d 056a 60be
00000060: 0d86 553f 41fe 3bbe 0eb9 22bf bad3 b93a
00000070: 898b cd3e 0f7e c1be 201f cabd e37b 2ebf
00000080: f998 88bd 8801 8cbe e8e7 57bf c3f7 a2be
00000090: 3aa4 6b3e 2d3e 4ebf 80b5 323e 657e 37bf
000000a0: 9cba 8e3f a5f5 5b3c ca83 40bf 5e4e 18bf
000000b0: 38c3 5abf 1109 c1be 12e6 853c d341 80be
000000c0: 99a7 4a3f ff22 b1be 0167 67bf ce22 f3bd
000000d0: 025a 28be cea3 4fbf 1ca8 163e d51c d4bd
000000e0: b2f9 633e 150c 99bf 16bb ef3e 211b 5fbf
000000f0: baa4 ec3d c22b 81bf 8a3f 33bf 8e62 52bf
00000100: fec5 63be e1c2 83bd f9a5 2bbd 6994 56be
00000110: e49d 313d 37c9 d3bd fb68 4bbd 9fde 353b
00000120: 86e1 4dbe bed8 fcbc 142f 133c 98af 35be
00000130: a93a 083c 8200 52bd a0dc 5cbc beb7 77bd
00000140: 5f57 1e3e 4d78 8c3e 934c 4a3e 15ad 673e
00000150: 1a3e 84bc b6f0 1ebd 538e b8bd a3c4 893d
00000160: 879b 5dbe e853 203f 5acb 963f 37f0 8abd
00000170: e3cb 68be f287 023f 073e a73e 1c82 503d
00000180: a845 0b3f 8b2c 993d e637 0d3e 9f2f 483f
00000190: 6e3b 2bbe 9146 063f 2cc5 103e fcb8 9b3e
000001a0: a3d4 9fbc ae6d 63bd 65da 70bd c678 44bd
000001b0: 60bb dfbc 7875 953d 4051 5cbd 1db9 613e
000001c0: f248 55be 559c 4c3f 04ab a4bd 2542 143b
000001d0: cbff 213f 7d95 edbd 743c a43e 5b72 b53b
000001e0: 3741 f3bd af24 1a3e 26c9 67be 0c3b e93d
000001f0: 4e87 63bd 34ee 153e 9919 183f d3ee 133c
00000200: a944 0bbf e12d 4dba 9238 36be 7ce9 9dbe
00000210: e6ff aabd ffd9 52be cf2c d3bd a8e0 9abc
00000220: 8c06 bfbe 7b8f bdbd d3dc b83c de99 b1be
00000230: d765 17bd 86c4 c9bd 9edc 34bd 61b2 2cbe
00000240: 832b f33d 74e6 563e 7afb 8a3d e138 3f3e
00000250: dd3d d4bd 1142 babd 6d0e 43be 9988 8fbd
00000260: f0d4 7cbe 5d8b e33e 7cca 743f 548c 0bbe
00000270: 2eff a7be 4295 e63e f08c 813e 46ca 933d
00000280: 89bd df3e 942b 29bd ead2 b93d 68da 123f
00000290: ee06 9abe fb0e fe3e f4e2 c13d 23fb a33e
000002a0: 0d56 00be 3b6e 3ebe 143d eabd 5f49 9ebd
000002b0: c9a8 84bd c541 d13c 91b6 07be 3e39 273e
000002c0: 637e 9cbe d516 203f 8c27 66be e26a ccbd
000002d0: 4edb d53e c61a 26be 252b b13e 70d2 fcbd
000002e0: ad6a 7fbe 912c ea3d 09a1 bbbe ce2b 233e
000002f0: 594b 44be d5be 4b3e 657d e33e b084 4fbc
00000300: 5e8c f4bd 1afe 0a3e a03f 75bd 7ca2 0fbe
00000310: 216c c6bd 5ea1 5bbc fe8a 3fbe 0ba9 61bd
00000320: 3968 623e cd72 eabd 543d 1a3e ea3d 4e3e
00000330: df03 3c3e 4b56 303e 3fdd d9bd fcf9 14be
00000340: 25ba 69bd 3fa0 a8bd 95c8 1d3d 508b 60bd
00000350: 2e35 303e b79e 443e 95a4 95bd cfa5 b3bc
00000360: 488d efbd f2d9 663e 35f9 443f d2fa 00be
00000370: 5108 0dbe bd50 c0bd a43a 99bd ae7b f23d
00000380: 984e 0fbe 01c0 a2bc 2788 e93d 0a01 983e
00000390: 9187 0cbe 0d52 3ebc 13b8 e3bd 09d7 6f3c
000003a0: bff8 21be bee8 68bd 858d 363e fc21 163e
000003b0: 0438 673e 24ec dfbc 56b7 a1bd c6d6 ae3d
000003c0: f045 95be ca18 fe3e 33bb 3d3e 7082 c0bd
000003d0: 74b0 5b3e 8989 4f3e 8488 09be cd8e d93b
000003e0: 32e0 f5bd 7890 1a3d 6226 a3bd 7e54 dc3d
000003f0: 5893 e5bd f756 733d d35b a8bc 18cd 473e

local_mlp.2.bias f4 [256]
0.07826579 0.00841041 0.022844499 -0.16479911 0.14213578 -0.083110675 0.19439577 -0.23177502
0.21038109 -0.0108577 -0.39930907 -0.5644761 -0.20705868 0.052322216 -0.08548645 -0.110360466
-0.09351467 -0.061612234 0.11078189 -0.43023452 0.13637482 0.1084764 -0.15911084 0.16825683
0.016795427 0.19163778 -0.07301646 -0.15942255 -0.02261775 -0.04213742 -0.11259859 -0.33556136
0.1349338 0.19050258 -0.052834768 -0.3579688 0.08240019 -0.0767759 0.19297023 -0.059455145
0.13348107 0.18677996 0.22808337 0.21775724 0.2529896 -0.19394301 0.14599411 0.20629613
-0.0973063 -0.44431663 -0.2709561 -0.3135548 0.13973168 -0.061228897 -0.49636704 -0.3175987
0.15027435 0.07800566 -0.15464315 0.031444874 -0.17884926 0.18097793 -0.15035856 -0.23898484
0.018929357 0.02772958 0.063817605 0.1941673 -0.16797434 0.26234442 -0.018361216 0.16095687
-0.1572753 0.23374984 -0.12565857 0.2127871 0.21498223 -0.28720486 -0.33234122 -0.15262325
-0.18747142 0.14591372 -0.065430164 -0.2604777 -0.3488945 -0.29870027 -0.090637125 0.23118228
0.21428482 -0.41469043 -0.15400712 0.16438372 -0.1718239 -0.05783251 -0.16960628 0.21685082
-0.027619198 -0.02689415 -0.13435249 -0.13369359 -0.2531695 -0.17181161 -0.060526386 0.14092311
0.06754121 0.14310181 0.22841619 -0.057749115 -0.14073057 -0.027565693 0.009426222 0.21082556
0.10146433 -0.2836631 -0.073850326 0.32355872 0.21025418 -0.5502526 -0.29653692 -0.11299113
-0.51179916 0.19427325 0.22087412 -0.23515709 -0.33313438 -0.071305245 -0.1866572 -0.08742197
0.14947616 -0.06420163 -0.06670621 -0.27503583 -0.33383322 -0.056831528 0.21335264 0.029950535
0.26489636 -0.27762592 -0.26454538 0.034965254 -0.46264896 0.15390395 0.16783288 0.17985004
-0.015699958 0.08457328 -0.073564894 0.04407154 -0.25836486 -0.08369715 -0.31902623 0.21900886
-0.28231114 0.04600071 0.2738197 -0.15709922 -0.10382577 -0.13032167 0.19736017 -0.26877022
0.031016178 -0.18026578 -0.09942716 -0.19416052 0.028704358 0.22889388 -0.09476829 -0.48716152
-0.26405427 -0.06541065 -0.21231274 -0.12555064 -0.32096788 -0.04926369 -0.08545101 0.19904004
-0.33201635 -0.20957737 0.20733848 -0.09159164 0.19353673 -0.08390633 -0.08229113 -0.073053494
0.28241903 -0.3286925 0.22149883 -0.011655972 -0.5022122 -0.33374843 0.0017292737 0.2236146
0.13905899 0.1982749 0.17777696 0.18798496 -0.091302246 -0.14026357 0.034558762 0.21977696
-0.5234853 -0.153715 -0.049005877 -0.5382528 -0.12279686 -0.55956143 0.24031185 0.1879415
0.14247291 -0.08288799 0.015884068 -0.09817769 -0.48352703 -0.33216906 0.030415114 -0.17906165
-0.35007787 -0.2984609 -0.21750529 -0.021777859 -0.38542348 -0.070994824 -0.26152387 0.21274632
0.20588507 0.18750133 -0.08916354 -0.13380079 -0.19954278 -0.25518355 0.21107867 -0.23761329
0.16221493 -0.2002977 -0.22680491 -0.19975203 -0.095296815 0.0006851296 0.18116221 -0.25742486
0.1682723 -0.16714947 0.23318888 -0.04222988 0.16249539 -0.61290246 0.19728804 -0.017946327
-0.30980578 0.21595383 -0.04267274 0.14883348 0.1606325 -0.31147534 -0.114962034 -0.44127068
00000000: d149 a03d d1cb 093c 6324 bb3c 19c1 28be
00000010: 0b8c 113e ee35 aabd af0f 473e 6e56 6dbe
00000020: 246e 573e 7fe4 31bc 3d72 ccbe 8181 10bf
00000030: 3107 54be d24f 563d 8513 afbd ab04 e2bd
00000040: 9f84 bfbd 1c5d 7cbd 9ee1 e23d b347 dcbe
00000050: d7a5 0b3e e028 de3d f4ed 22be 854b 2c3e
00000060: 9096 893c b23c 443e a789 95bd aa3f 23be
00000070: dc48 b9bc 4a98 2cbd 179a e6bd b3ce abbe
00000080: 162c 0a3e 1c13 433e 4569 58bd b047 b7be
00000090: 6ec1 a83d af3c 9dbd fd99 453e 3d87 73bd
000000a0: 43af 083e 3f43 3f3e b08e 693e c1fb 5e3e
000000b0: da87 813e ff98 46be 7b7f 153e 4b3f 533e
000000c0: 8748 c7bd 787d e3be c2ba 8abe 418a a0be
000000d0: d215 0f3e 27cb 7abd d223 febe 4c9c a2be
000000e0: 85e1 193e 6ec1 9f3d c65a 1ebe 57cc 003d
000000f0: 4324 37be 4752 393e 98f7 19be 71b8 74be
00000100: bd11 9b3c 2529 e33c ceb2 823d cbd3 463e
00000110: 7701 2cbe 0252 863e 436a 96bc e1d1 243e
00000120: c70c 21be 1e5c 6f3e a4ac 00be dde4 593e
00000130: 4d24 5c3e 840c 93be a128 aabe 4549 1cbe
00000140: 82f8 3fbe 686a 153e 4000 86bd 555d 85be
00000150: 4da2 b2be 3eef 98be f59f b9bd 0cbb 6c3e
00000160: 7b6d 5b3e 4e52 d4be 0bb4 1dbe 3554 283e
00000170: 9bf2 2fbe c8e1 6cbd 45ad 2dbe 240e 5e3e
00000180: a841 e2bc 1f51 dcbc b393 09be f9e6 08be
00000190: 6f9f 81be 62ef 2fbe 84ea 77bd 264e 103e
000001a0: 0c53 8a3d 4889 123e efe5 693e 568a 6cbd
000001b0: ad1b 10be 73d1 e1bc 7170 1a3c a8e2 573e
000001c0: 88cc cf3d 4a3c 91be d73e 97bd 7da9 a53e
000001d0: df4c 573e 5bdd 0cbf b0d3 97be e567 e7bd
000001e0: 4505 03bf 91ef 463e d32c 623e 05cd 70be
000001f0: 9790 aabe 7c08 92bd 1123 3fbe 4a0a b3bd
00000200: 4710 193e 257c 83bd 449d 88bd 7fd1 8cbe
00000210: 30ec aabe 2dc8 68bd 1d79 5a3e d35a f53c
00000220: 7fa0 873e fc24 8ebe 7e72 87be ba37 0f3d
00000230: 53e0 ecbe ff98 1d3e 62dc 2b3e 9c2a 383e
00000240: 339d 80bc c134 ad3d 31a9 96bd 5c84 343d
00000250: 6648 84be 6969 abbd 6857 a3be dc43 603e
00000260: 168b 90be 3e6b 3c3d 1932 8c3e 9ede 20be
00000270: 9ba2 d4bd 0b73 05be c918 4a3e 409c 89be
00000280: a415 fe3c 9897 38be 78a0 cbbd 04d2 46be
00000290: 6725 eb3c 2863 6a3e e115 c2bd 3c6d f9be
000002a0: 1f32 87be 05f6 85bd 8368 59be 5990 00be
000002b0: e755 a4be b9c8 49bd f000 afbd 27d1 4b3e
000002c0: 0cfe a9be 739b 56be 8a50 543e 6694 bbbd
000002d0: 7e2e 463e 15d7 abbd 4188 a8bd 129d 95bd
000002e0: 3a99 903e 624a a8be 97d0 623e b1f8 3ebc
000002f0: fb90 00bf 13e1 aabe cca8 e23a 3afb 643e
00000300: 7b65 0e3e 9308 4b3e 2a0b 363e 217f 403e
00000310: acfc babd 41a1 0fbe 7d8d 0d3d 360d 613e
00000320: 2203 06bf 7767 1dbe 63ba 48bd efca 09bf
00000330: ec7c fbbd 6b3f 0fbf 4f14 763e bd73 403e
00000340: 6be4 113e 2ec1 a9bd 4e1f 823c 6211 c9bd
00000350: db90 f7be 1012 aabe 1e29 f93c f05b 37be
00000360: 683d b3be decf 98be b5b9 5ebe 7b67 b2bc
00000370: 3a56 c5be bc65 91bd 75e6 85be 2cda 593e
00000380: 89d3 523e 5900 403e 609b b6bd 1303 09be
00000390: f154 4cbe 6ba7 82be 0225 583e e650 73be
000003a0: ac1b 263e d71a 4dbe 8c3f 68be cc8b 4cbe
000003b0: fa2a c3bd 459a 333a 9682 393e 31cd 83be
000003c0: 934f 2c3e 3b29 2bbe 11c9 6e3e 3df9 2cbd
000003d0: 3165 263e 2de7 1cbf e005 4a3e 2d04 93bc
000003e0: dd9e 9ebe 0023 5d3e 9cc9 2ebd ce67 183e
000003f0: d97c 243e b279 9fbe 3771 ebbd 3bee e1be

output_mlp.0.weight f4 [128, 512]
-0.03183532 0.026459077 0.04853982 0.021913577 -0.04826591 -0.018930042 -0.03226645 -0.0026222249
-0.013068891 -0.023646949 0.027540674 0.07515713 -0.03592704 0.058900803 -0.01667409 -0.009420681
-0.013787647 -0.014224758 -0.043910988 0.035000116 -0.045929175 0.001751093 0.018505128 -0.020356828
0.032561243 -0.011662117 -0.023219392 -0.028571786 -0.013524899 0.041254304 0.019430319 0.022354947
-0.017911429 0.0062073856 0.078000374 -0.006305145 -0.032191586 0.053169683 -0.03109324 -0.023415962
-0.016872272 -0.033469245 -0.040209208 -0.03660761 -0.030688023 -0.030305915 -0.0029044193 -0.038687956
0.027894394 0.0532905 0.017066607 0.063259445 0.012255621 -0.05719846 0.07500298 0.07920689
-0.016637625 0.019926904 0.057816125 0.055278476 0.058646012 -0.039766368 0.016944623 0.035121772
0.021478113 0.013452202 0.012157583 -0.006521942 -0.020377768 -0.059027422 -0.0014248836 -0.017372785
-0.017820988 0.018557865 -0.036783803 -0.03799722 -0.009078284 0.04854701 0.034342855 0.009283328
-0.025925709 -0.05684462 0.03594759 0.017603355 0.024474962 0.016362038 -0.04656495 -0.034095395
-0.04479491 0.017207067 0.010179446 0.011944163 -0.0143686915 -0.032829896 -0.022491714 -0.025955485
0.010908877 -0.038670447 -0.010710754 0.024915926 0.039373875 0.016417833 -0.023499414 -0.02430393
0.035857175 -0.03820141 -0.040902823 -0.024260618 -0.0492974 0.046185613 -0.040311355 -0.033767182
-0.006222583 0.037064977 -0.052993808 -0.014702018 0.0038874098 0.024643132 0.08097469 -0.017753145
0.029282985 -0.012859764 -0.040282197 -0.03839963 0.059434284 0.014458676 -0.033338062 -0.025822422
-0.05475007 -0.015901018 -0.04954371 0.033664774 0.018152371 -0.00039758428 -0.042804606 0.027832631
-0.03609876 0.03008547 0.015405603 0.032411836 0.048435174 -0.03035579 -0.0021953804 0.0037244365
0.026209401 -0.03637113 -0.0075811595 0.011708694 0.04015556 -0.06542493 0.01943116 -0.016492793
0.059393276 0.010061571 -0.013351735 -0.0496608 0.013671316 -0.03847569 -0.021975271 0.017397368
0.04397652 -0.015622032 0.023280997 0.039652165 0.02887977 -0.035203725 0.07539301 0.04491272
0.045238376 0.007142699 0.08053525 0.028328864 0.05105327 0.044930805 0.008628461 0.015864387
0.024068529 -0.0041754497 -0.021819593 -0.096714124 -0.024696888 0.002613911 -0.030544164 -0.019199722
-0.045066416 0.03363536 -0.03503215 -0.04049088 0.006717233 0.027923195 0.04459548 -0.06059063
-0.027559405 -0.05991614 -0.033106886 -0.028331967 0.0075886487 0.02339594 -0.01260345 -0.035885666
0.03894175 0.040452432 0.03944635 0.043435715 0.039860953 0.056005143 -0.04764883 -0.007549421
-0.022614237 -0.00057775027 0.034768093 0.01567233 0.019180777 0.026325554 0.03684865 -0.032861326
0.016914109 0.0080058975 0.020353042 0.040224098 0.022258524 -0.040652398 0.039623216 -0.018533714
-0.020045673 -0.033837657 -0.037463706 -0.00823057 0.011512031 0.009847652 -0.035677895 0.001271689
-0.03660308 0.005657264 0.026018035 0.02055472 0.009533109 -0.01880494 -0.0064664236 0.045262158
-0.034984592 -0.029813789 -0.014995463 0.020610148 -0.019912401 0.06907677 -0.004689753 0.035960946
0.025812766 -0.007916288 -0.026061976 -0.01680455 -0.07129285 0.070663355 -0.012391238 0.028670251
00000000: c165 02bd b5c0 d83c b1d1 463d 1a84 b33c
00000010: 7ab2 45bd 2d13 9bbc d329 04bd a2d9 2bbb
00000020: e71e 56bc 3fb7 c1bc fb9c e13c fbeb 993d
00000030: 3b28 13bd f841 713d 1a98 88bc 3359 1abc
00000040: 95e5 61bc f60e 69bc 02dc 33bd 485c 0f3d
00000050: 3b20 3cbd ee84 e53a 1198 973c 5dc3 a6bc
00000060: f05e 053d 7712 3fbc 9836 bebc 610f eabc
00000070: 8a97 5dbc 46fa 283d 552c 9f3c b921 b73c
00000080: fdba 92bc 5367 cb3b a9be 9f3d 649b cebb
00000090: 53db 03bd 74c8 593d 40b7 febc d5d2 bfbc
000000a0: b837 8abc 0c17 09bd 69b2 24bd dcf1 15bd
000000b0: 7365 fbbc 1c44 f8bc 1258 3ebb 4377 1ebd
000000c0: c982 e43c 2447 5a3d 45cf 8b3c 2b8e 813d
000000d0: cdcb 483c ef48 6abd 2a9b 993d 3937 a23d
000000e0: a14b 88bc bf3d a33c 9ad0 6c3d af6b 623d
000000f0: cd36 703d 0fe2 22bd 73cf 8a3c d9db 0f3d
00000100: def2 af3c a066 5c3c 9930 473c 04b6 d5bb
00000110: 47ef a6bc bdc6 71bd 29c3 baba 5f51 8ebc
00000120: 52fd 91bc aa06 983c 9daa 16bd f9a2 1bbd
00000130: 15bd 14bc 3bd9 463d 18ab 0c3d 1a19 183c
00000140: 2762 d4bc e7d5 68bd c83d 133d e934 903c
00000150: b77f c83c ae09 863c e4ba 3ebd 9da7 0bbd
00000160: de7a 37bd d6f5 8c3c b1c7 263c 73b1 433c
00000170: a96a 6bbc a478 06bd 8b40 b8bc 99a0 d4bc
00000180: 25bb 323c e764 1ebd 297c 2fbc 7c1c cc3c
00000190: 8046 213d b17e 863c d881 c0bc 0919 c7bc
000001a0: f9de 123d 1579 1cbd b889 27bd 34be c6bc
000001b0: 12ec 49bd 202d 3d3d 851d 25bd 754f 0abd
000001c0: cfe6 cbbb 72d1 173d 0910 59bd bce0 70bc
000001d0: eac3 7e3b 65e0 c93c 0fd6 a53d 0b6f 91bc
000001e0: dfe2 ef3c c2b1 52bc f2fe 24bd ee48 1dbd
000001f0: 5d71 733d 15e4 6c3c 7e8d 08bd 8b89 d3bc
00000200: 9c41 60bd da42 82bc 58ee 4abd 13e4 093d
00000210: 48b4 943c dc72 d0b9 e253 2fbd 4201 e43c
00000220: 4bdc 13bd ce75 f63c c867 7c3c 46c2 043d
00000230: f663 463d b5ac f8bc 5fe0 0fbb ad15 743b
00000240: 19b5 d63c e5f9 14bd 606b f8bb d2d5 3f3c
00000250: 287a 243d 81fd 85bd 192e 9f3c e51b 87bc
00000260: 5d46 733d 4ad9 243c 3cc1 5abc 1f69 4bbd
00000270: a8fd 5f3c af98 1dbd 7c05 b4bc ed84 8e3c
00000280: b920 343d 8df3 7fbc cab7 be3c 4f6a 223d
00000290: 4495 ec3c c831 10bd a767 9a3d 66f6 373d
000002a0: e04b 393d 4d0d ea3b aaef a43d ef11 e83c
000002b0: 3c1d 513d 5d09 383d 635e 0d3c 08f6 813c
000002c0: 5d2b c53c 36d2 88bb 01bf b2bc 0e12 c6bd
000002d0: 2151 cabc 264e 2b3b c137 fabc bc48 9dbc
000002e0: 9097 38bd 3bc5 093d df7d 0fbd c4d9 25bd
000002f0: 3c1c dc3b 2fbf e43c c0a9 363d e12d 78bd
00000300: 43c4 e1bc a06a 75bd 169b 07bd 7118 e8bc
00000310: 33aa f83b d8a8 bf3c b37e 4ebc d9fc 12bd
00000320: 6281 1f3d 73b1 253d 7f92 213d a6e9 313d
00000330: 3d45 233d a665 653d 6b2b 43bd 2261 f7bb
00000340: 7e41 b9bc 2a74 17ba fd68 0e3d 4263 803c
00000350: 0121 9d3c b0a8 d73c 9cee 163d 9999 06bd
00000360: 758f 8a3c 2b2b 033c 6cbb a63c 06c2 243d
00000370: 8257 b63c 2183 26bd f44b 223d 04d4 97bc
00000380: d336 a4bc 5b99 0abd 8b73 19bd 83d9 06bc
00000390: f59c 3c3c 0c58 213c fc22 12bd cdae a63a
000003a0: 1ced 15bd 9260 b93b c623 d53c 5f62 a83c
000003b0: c230 1c3c d10c 9abc 4be4 d3bb d064 393d
000003c0: 014c 0fbd 0c3c f4bc 88af 75bc 9dd6 a83c
000003d0: 551f a3bc 1f78 8d3d 80ac 99bb c94b 133d
000003e0: 4b75 d33c 52b3 01bc ed7f d5bc b2a9 89bc
000003f0: fc01 92bd f3b7 903d 9e04 4bbc e0dd ea3c

output_mlp.0.bias f4 [128]
-0.053878486 -0.048609383 -0.03900992 -0.036648832 -0.05165212 -0.06630709 -0.23899052 -0.24226911
-0.027943898 -0.08447598 -0.05557792 0.22866774 -0.1310931 -0.123692244 -0.15589496 -0.056308117
-0.43773016 -0.054842774 -0.07854843 -0.058843642 -0.07038965 -0.091777146 -0.23262842 -0.033099532
-0.13194902 -0.02280986 -0.04966604 -0.0591085 -0.06509442 -0.05337777 0.18843146 -0.15225871
-0.058262628 -0.06935396 -0.07497079 -0.03512697 0.062010214 -0.0578732 -0.05554164 -0.3824379
-0.027698833 -0.18088758 0.07575042 -0.081475295 -0.06956811 -0.21576963 -0.014200563 0.04270978
-0.103571795 -0.059007443 0.027189953 -0.088801175 -0.16563264 -0.056410164 -0.06077056 0.19752637
0.14703108 -0.14015114 -0.056319814 0.29913148 -0.17211726 -0.020624548 -0.034472823 -0.060050763
-0.34666076 0.03793446 -0.18636367 -0.06754877 -0.083400525 -0.0880806 0.0037237417 -0.36407194
-0.15643819 0.27632466 0.03759636 -0.0050546825 0.030379046 -0.101510964 -0.05147551 0.03877077
-0.023050385 -0.039098226 -0.071566366 -0.171448 -0.0126307355 0.478051 -0.052211836 -0.26080412
-0.00585707 -0.08555075 0.07623892 0.10153787 -0.08032224 -0.05527417 -0.31836697 -0.07071247
0.05461519 0.09236229 0.08634895 -0.07547295 -0.36373696 -0.17652057 -0.013822286 -0.27179977
-0.06510243 -0.05394603 -0.01188405 -0.18252027 0.15552217 -0.06398861 0.05035624 -0.041136194
-0.07361857 -0.070069015 -0.08667193 -0.06297921 0.15250899 -0.010177696 -0.08009011 -0.22079273
-0.057087373 -0.06480279 -0.2192941 -0.06814126 -0.018882275 -0.046875615 0.1729931 0.006732113
00000000: b0af 5cbd a21a 47bd dec8 1fbd 161d 16bd
00000010: 2c91 53bd 03cc 87bd eeb9 74be 6515 78be
00000020: 9aea e4bc be01 adbd aca5 63bd e027 6a3e
00000030: 453d 06be 5c52 fdbd eea2 1fbe 57a3 66bd
00000040: 2b1e e0be d1a2 60bd 00de a0bd 0806 71bd
00000050: 7328 90bd a8f5 bbbd 2536 6ebe 6093 07bd
00000060: a51d 07be bedb babc 9e6e 4bbd c11b 72bd
00000070: 3950 85bd a6a2 5abd 2df4 403e b5e9 1bbe
00000080: cba4 6ebd 7309 8ebd 498a 99bd 4ce1 0fbd
00000090: 6cfe 7d3d 730c 6dbd a17f 63bd e7ce c3be
000000a0: aae8 e2bc 983a 39be 0923 9b3d 85dc a6bd
000000b0: ba79 8ebd b7f2 5cbe 7aa9 68bc 73f0 2e3d
000000c0: 731d d4bd cab1 71bd 77bd de3c 64dd b5bd
000000d0: 9a9b 29be 580e 67bd 8dea 78bd 5a44 4a3e
000000e0: 518f 163e c883 0fbe 9baf 66bd c327 993e
000000f0: 823f 30be d0f4 a8bc 6033 0dbd caf7 75bd
00000100: 857d b1be 2a61 1b3d 1ed6 3ebe 0257 8abd
00000110: e5cd aabd 9a63 b4bd 050a 743b a367 babe
00000120: 5531 20be 6d7a 8d3e a4fe 193d c0a1 a5bb
00000130: 7add f83c fbe4 cfbd fcd7 52bd 19ce 1e3d
00000140: 29d4 bcbc 7625 20bd 6391 92bd 1190 2fbe
00000150: 25f1 4ebc 1ac3 f43e 14dc 55bd 1e88 85be
00000160: aaec bfbb 3b35 afbd 2723 9c3d 16f3 cf3d
00000170: fd7f a4bd 2b67 62bd ff00 a3be b3d1 90bd
00000180: 2db4 5f3d 7128 bd3d b8d7 b03d 9091 9abd
00000190: bb3b babe cfc1 34be df76 62bc 5729 8bbe
000001a0: 6c54 85bd 83f6 5cbd 52b5 42bc 98e6 3abe
000001b0: 3441 1f3e 760c 83bd 5842 4e3d 6d7e 28bd
000001c0: 55c5 96bd 5880 8fbd 0e81 b1bd 3efb 80bd
000001d0: 512b 1c3e 5ac0 26bc 4906 a4bd 7d17 62be
000001e0: 73d4 69bd 53b7 84bd a28e 60be a58d 8bbd
000001f0: 00af 9abc a500 40bd 1a25 313e 0f99 dc3b

output_mlp.2.weight f4 [9, 128]
0.019943917 -0.03058739 -0.02918689 -0.021779027 -0.037921026 -0.010240282 -0.024871705 0.0074129864
-0.0067027756 -0.052584805 -0.032823574 -0.08829224 -0.009704114 -0.02791288 -0.0233643 0.019043533
-0.027523307 0.004796717 0.03090774 -0.009560306 -0.0032562064 0.018283239 0.0017677159 -0.007377805
0.0031732633 -0.045601908 -0.02797751 0.007787187 -0.029525207 0.008903451 -0.05440009 -0.0030820477
-0.011033346 0.007925397 0.029987268 0.029782742 -0.15824571 -0.0009464886 -0.03929054 0.006087769
-0.0018372111 -0.0010592984 -0.088442825 -0.0024004413 -0.01773098 -0.051629588 -0.09134128 -0.0014337449
0.03323956 -0.022530273 0.0013692373 -0.09870605 0.0103474315 0.027168663 -0.041181624 0.020992538
-0.06236144 -0.020158142 0.0097469045 -0.10533763 -0.03962504 -0.022836585 0.004930423 -0.015601716
-0.018438494 0.0076462575 0.0034014173 -0.045043886 -0.079534836 -0.032698024 0.049537607 0.0053822384
-0.10039368 0.01702814 -0.083537765 0.005013809 -0.084722355 0.007574341 0.007704856 -0.11494842
-0.025025902 0.002735237 -0.046221957 -0.09282803 0.016535323 -0.11790254 -0.009858308 -0.01924229
-0.034858525 -0.018253189 -0.041086297 -0.11992776 0.021493996 -0.0072782743 -0.020083707 0.03184146
0.015635287 -0.02597471 -0.070402235 -0.01171979 -0.012595323 0.009620936 0.045429967 -0.057718657
-0.0103521915 0.0063446327 -0.13799915 -0.07315425 -0.070894755 0.0043143937 -0.017148321 -0.0067546866
-0.07292207 -0.005507825 -0.025871005 0.03302756 -0.013329654 -0.026019638 -0.029102046 -0.029738778
-0.0355707 -0.010342299 -0.0055868863 -0.013936104 -0.008457206 -0.0021724415 -0.017654035 -0.077535175
0.09324423 0.03073585 0.0028984775 0.03606419 -0.015570705 -0.045587488 -0.05174803 -0.050283547
0.038563296 0.034547023 0.04873153 -0.11626742 -0.06844721 -0.049397312 -0.041037492 0.041320298
-0.09283703 0.0067693177 0.01894212 -0.036582626 0.04925408 0.045208 -0.044865143 0.018024437
-0.06952439 0.011422295 0.059498943 0.009062742 0.05211793 0.020497078 -0.106937885 -0.028584385
0.028231924 0.0721182 0.042712856 0.06256361 -0.09908764 0.0314686 0.047650095 0.020735364
0.03941089 -0.045419734 -0.12459643 0.0413281 -0.06461302 -0.08679377 -0.10690131 -0.050900444
0.037234925 0.06116843 -0.038301416 -0.074930176 0.008234325 0.058180507 0.01396841 -0.075111724
-0.03312539 -0.043922942 0.04188503 -0.103536665 -0.04997872 0.0036838746 0.058113113 0.058760405
-0.046209976 -0.021138676 0.03907136 0.02929204 -0.11365314 0.011422784 -0.051905792 -0.012522683
-0.10075581 0.043542255 -0.18662058 0.010660237 -0.070357315 -0.07675667 0.05238024 -0.14865597
0.0386132 0.028703155 0.005648785 -0.11422444 0.020059587 -0.13921839 0.022677252 0.029311933
-0.044065803 0.017133733 -0.031517886 -0.14216582 0.012441772 0.036325354 -0.048148993 0.016274964
-0.070510745 -0.05592813 -0.13791254 0.04438096 -0.02110756 -0.07882604 0.055386096 -0.07783446
0.027619675 0.031937707 -0.12359188 -0.12172758 -0.055449344 0.005066519 -0.060055815 0.044339117
-0.087752685 0.035488863 0.024688216 0.01588145 -0.041341223 0.038041797 -0.015827155 -0.089988664
0.0512061 0.052896682 -0.061113965 0.025410132 0.009815669 0.04305646 -0.048789717 -0.10128247
00000000: 6d61 a33c 6892 fabc 5819 efbc ee69 b2bc
00000010: 1453 1bbd dbc6 27bc bfbf cbbc a3e8 f23b
00000020: f5a2 dbbb 2a63 57bd 0372 06bd 90d2 b4bd
00000030: 01fe 1ebc 8da9 e4bc 7d66 bfbc 2f01 9c3c
00000040: 8f78 e1bc c72d 9d3b 3b32 fd3c d4a2 1cbc
00000050: 1466 55bb bbc6 953c b4b2 e73a 84c1 f1bb
00000060: 86f6 4f3b 11c9 3abd 1731 e5bc a92b ff3b
00000070: d9de f1bc c8df 113c a1d2 5ebd 2efc 49bb
00000080: 35c5 34bc 86d9 013c dca7 f53c f0fa f33c
00000090: 2a0b 22be c61d 78ba 1eef 20bd e87b c73b
000000a0: 93ce f0ba 28d8 8aba 8321 b5bd b950 1dbb
000000b0: 8f40 91bc 8c79 53bd 2311 bbbd 7fec bbba
000000c0: 3426 083d 6891 b8bc fb77 b33a 6626 cabd
000000d0: 4688 293c d190 de3c 10ae 28bd 8bf8 ab3c
000000e0: b66e 7fbd b022 a5bc 7bb1 1f3c 41bb d7bd
000000f0: de4d 22bd ca13 bbbc 638f a13b 579e 7fbc
00000100: 530c 97bc 758d fa3b 50ea 5e3b f07f 38bd
00000110: 29e3 a2bd 5dee 05bd f2e7 4a3d 7d5d b03b
00000120: 349b cdbd 997e 8b3c d915 abbd e14a a43b
00000130: ea82 adbd 2d32 f83b 0479 fc3b 146a ebbd
00000140: 1f03 cdbc a941 333b 3c53 3dbd 9f1c bebd
00000150: 1675 873c e376 f1bd be84 21bc 02a2 9dbc
00000160: d0c7 0ebd b687 95bc 1b4a 28bd af9c f5bd
00000170: 2d14 b03c 977e eebb 9686 a4bc 316c 023d
00000180: 9315 803c eac8 d4bc 0c2f 90bd 5d04 40bc
00000190: 9d5c 4ebc 21a1 1d3c c614 3a3d 666a 6cbd
000001a0: 3d9c 29bc a3e6 cf3b a64f 0dbe e5d1 95bd
000001b0: 4531 91bd c25f 8d3b a37a 8cbc 6b56 ddbb
000001c0: 2b58 95bd fc7a b4bb 6eef d3bc e847 073d
000001d0: 9f64 5abc 2327 d5bc 6a67 eebc bd9e f3bc
000001e0: 95b2 11bd bf72 29bc 3312 b7bb 4254 64bc
000001f0: 1890 0abc 855f 0ebb 329f 90bc c3ca 9ebd
00000200: d5f6 be3d c0c9 fb3c 62f4 3d3b 0bb8 133d
00000210: 451c 7fbc f2b9 3abd bef5 53bd 1ff6 4dbd
00000220: 8cf4 1d3d 2e81 0d3d b69a 473d 9d1d eebd
00000230: 0d2e 8cbd d654 4abd ee16 28bd 793f 293d
00000240: 5721 bebd 27d1 dd3b 812c 9b3c aad7 15bd
00000250: a5be 493d 062c 393d 83c4 37bd fca7 933c
00000260: ce62 8ebd 9424 3b3c 2ab5 733d e57b 143c
00000270: 9c79 553d 7de9 a73c 4002 dbbd cd29 eabc
00000280: a346 e73c b5b2 933d adf3 2e3d 5a21 803d
00000290: 76ee cabd 38e5 003d bf2c 433d 36dd a93c
000002a0: 506d 213d 0b0a 3abd 6a2c ffbd a747 293d
000002b0: d553 84bd efc0 b1bd 13ef dabd fc7c 50bd
000002c0: a683 183d bf8b 7a3d f2e1 1cbd fe74 99bd
000002d0: 43e9 063c af4e 6e3d c2db 643c 2dd4 99bd
000002e0: 7dae 07bd 8be8 33bd a38f 2b3d 080b d4bd
000002f0: 7cb6 4cbd 296d 713b 0408 6e3d c0ae 703d
00000300: ac46 3dbd 042b adbc 4a09 203d dcf5 ef3c
00000310: fac2 e8bd a126 3b3c 2b9b 54bd f02b 4dbc
00000320: 1059 cebd 5d59 323d 7719 3fbe 46a8 2e3c
00000330: 7f17 90bd 9a32 9dbd aa8c 563d 4539 18be
00000340: e028 1e3d e122 eb3c 7119 b93b 81ee e9bd
00000350: 0154 a43c 448f 0ebe a5c5 b93c 941f f03c
00000360: 587e 34bd 0b5c 8c3c e618 01bd eb93 11be
00000370: 93d8 4b3c e5c9 143d e137 45bd 1353 853c
00000380: f067 90bd e514 65bd f238 0dbe cfc8 353d
00000390: c3e9 acbc 8c6f a1bd 88dc 623d ac67 9fbd
000003a0: a842 e23c 1dd1 023d bd1d fdbd 4f4c f9bd
000003b0: da1e 63bd 0b05 a63b 16fd 75bd ef9c 353d
000003c0: aeb7 b3bd c55c 113d f13e ca3c d119 823c
000003d0: 6a55 29bd b7d1 1b3d f3a7 81bc fa4b b8bd
000003e0: 7dbd 513d 31aa 583d a352 7abd e928 d03c
000003f0: e6d1 203c f85b 303d bad7 47bd 2f6d cfbd

output_mlp.2.bias f4 [9]
-0.0109980665 -0.04018083 -0.037205018 -0.03422592 0.2517033 -0.037341017 -0.035819527 -0.045907997
0.06676678
00000000: 3c31 34bc a794 24bd 4a64 18bd 7a30 0cbd
00000010: 41df 803e e5f2 18bd 7fb7 12bd 060a 3cbd
00000020: 06bd 883d
