log/segmentation/pn/bucket/full/pn_40.pth (torch, 337359 bytes, 8 tensors)

local_mlp.0.weight f4 [64, 3]
0	0x3e3d118d	0.18463726
1	0xbe064403	-0.13111882
2	0xbe8523d4	-0.26003897
3	0x3f38c9d4	0.72182965
4	0x3cdddff4	0.027084328
5	0x3dc2770e	0.09495364
6	0xbf2e23b1	-0.6802321
7	0xbed2f6c5	-0.41203895
8	0x3e56a9cc	0.2096321
9	0xbf3ab784	-0.7293627
10	0xbf281136	-0.6565126
11	0xbe3aa1db	-0.18225805
12	0xbf270822	-0.65246785
13	0xbe9aa0fc	-0.30200946
14	0x3e6116d1	0.2198136
15	0xbf610e88	-0.879128
16	0xbf0953b8	-0.5364337
17	0x3e6cea41	0.23136236
18	0xbf1629cd	-0.5865753
19	0xbeb02d68	-0.34409642
20	0x3e51c540	0.20485401
21	0xbf26d139	-0.65163
22	0xbebede0c	-0.37278783
23	0x3ea20254	0.316424
24	0x3f181d80	0.59420013
25	0xbebdeb8a	-0.37093765
26	0xbdb2451e	-0.08704589
27	0xbf1374f4	-0.5760033
28	0xbeab9272	-0.33510166
29	0x3e497cab	0.19676463
30	0x3f3878b8	0.720592
31	0x3e2a289e	0.16617057
32	0x3e889541	0.26676372
33	0x3f1dd96d	0.6165989
34	0xbebf81ad	-0.37403622
35	0xbd99f223	-0.07516887
36	0x3f30455f	0.6885585
37	0xbd935306	-0.0719357
38	0x3d44647c	0.047947392
39	0x3f31b706	0.69419897
40	0xbde4b9ee	-0.11168276
41	0x3d843417	0.06455248
42	0xbf191a5c	-0.59805846
43	0xbedc7885	-0.430607
44	0x3ea43402	0.3207093
45	0xbf1b5f69	-0.6069246
46	0xbed1471e	-0.4087457
47	0x3e463fd0	0.1936028
48	0xbf21c721	-0.6319447
49	0xbd152961	-0.036416415
50	0x3f1afaa1	0.6053868
51	0xbfa61e62	-1.2978022
52	0x3f4fa3f4	0.8110955
53	0x3f1beca3	0.60907954
54	0xbfa9381c	-1.3220248
55	0x3ebbb886	0.36664218
56	0x3ec4a9ad	0.38410702
57	0xbf46c51a	-0.77644503
58	0x3f432b40	0.7623787
59	0x3f2066ef	0.62657064
60	0x3f339c62	0.70160496
61	0xbdad6922	-0.08467318
62	0x3d101dfe	0.035184853
63	0x3f332770	0.6998205
64	0xbe854fff	-0.26037595
65	0x3c8d94e4	0.01728291
66	0xbf3d1703	-0.7386324
67	0xbee6d414	-0.45083678
68	0x3e46663f	0.19374941
69	0xbf4afbbe	-0.7929038
70	0xbee8c9b2	-0.4546638
71	0x3ea645f3	0.32475242
72	0xbf3b554f	-0.73177046
73	0xbf2e3fb5	-0.6806596
74	0xbe0d9f8c	-0.13830394
75	0x3e21f0ee	0.15814564
76	0x3f3057a8	0.6888375
77	0xbe1e2ca6	-0.1544672
78	0x3d727ed9	0.059203003
79	0x3f1afb42	0.6053964
80	0xbece7c77	-0.40329334
81	0xbf191516	-0.597978
82	0xbebc70c7	-0.36804792
83	0x3e3ee866	0.1864334
84	0xbf36e0ae	-0.71436584
85	0xbf12634f	-0.5718278
86	0x3e0c064a	0.13674274
87	0x3dd51c56	0.10405795
88	0x3f66dc7d	0.9018019
89	0x3c0d6f9c	0.008632567
90	0x3e0251f5	0.12726577
91	0x3f1def7d	0.61693555
92	0xbd56dd07	-0.05245688
93	0x3f288629	0.6582971
94	0x3e4d7ff8	0.20068347
95	0x3e0a73a9	0.13520683
96	0x3dff3913	0.12462058
97	0x3f254d66	0.64571226
98	0xbdb5851a	-0.08863278
99	0xbf34db45	-0.7064708
100	0xbed4b439	-0.4154375
101	0x3ea52fe4	0.322631
102	0x3f124f45	0.57152206
103	0x3e9f91c5	0.311659
104	0x3e836ca2	0.25668818
105	0x3db9792f	0.09056317
106	0x3f4f6536	0.8101381
107	0xbe3176df	-0.17330502
108	0xbf20237b	-0.6255414
109	0xbefb6e62	-0.49107653
110	0x3e29a73d	0.16567703
111	0x3e01c0ca	0.126712
112	0x3fbc6074	1.4716935
113	0x3e956740	0.29180336
114	0x3e8e1704	0.27751935
115	0x3ea81782	0.32830435
116	0xbe03c957	-0.12869774
117	0x3df031ae	0.11728226
118	0x3f5366e3	0.8257887
119	0x3dc00930	0.093767524
120	0x3ecb98bb	0.39764962
121	0xbd64c113	-0.055848192
122	0xbe933170	-0.28748655
123	0xbf374d6a	-0.716025
124	0xbed5495c	-0.4165753
125	0x3e54affc	0.20770258
126	0x3f319c5a	0.693792
127	0xbe3ba0e8	-0.183231
128	0x3d4bc0e9	0.04974452
129	0x3f39169c	0.72300124
130	0xbda15b09	-0.07878692
131	0x3d7eee1a	0.06223879
132	0x3f350118	0.70704794
133	0xbe44c9e5	-0.19217642
134	0x3d2da487	0.042393234
135	0xbf302354	-0.68803906
136	0xbea2af93	-0.31774577
137	0x3ea70b88	0.32625985
138	0xbf2d1744	-0.67613626
139	0xbece8caf	-0.40341708
140	0x3e4ea71d	0.20180936
141	0x3e924266	0.28566283
142	0x3f0548c7	0.52064174
143	0xbd8b648d	-0.06806288
144	0xbef370e1	-0.47547057
145	0xbf131d31	-0.5746642
146	0xbd995e40	-0.0748868
147	0x3e6b7b1a	0.22996178
148	0x3eb6bca6	0.35690802
149	0xbefca85b	-0.49347195
150	0x3f2d25c7	0.6763577
151	0xbeccad22	-0.3997584
152	0xbd493656	-0.049124084
153	0xbf2394c2	-0.6389886
154	0xbeb40d7c	-0.35166538
155	0x3e6355f8	0.22200763
156	0x3e32b6b9	0.17452516
157	0x3f2737d0	0.6531954
158	0xbe24ae78	-0.1608218
159	0x3f32874d	0.697377
160	0xbeaf0db7	-0.3419015
161	0x3cdd97c7	0.027049912
162	0x3e2c49c4	0.16825014
163	0x3efe7acd	0.49703065
164	0xbdc98e40	-0.09841585
165	0xbf4aae3a	-0.791721
166	0xbf001cbe	-0.5004386
167	0x3e9fd088	0.31213784
168	0xbf29a8d4	-0.66273236
169	0xbee74069	-0.4516633
170	0x3e293138	0.16522682
171	0xbf88360b	-1.0641493
172	0x3ec19cd3	0.3781496
173	0x3e8e0f1f	0.2774591
174	0xbf67bbe0	-0.9052105
175	0xbf2046e2	-0.6260816
176	0x3ddc860f	0.10767757
177	0x3f094861	0.53626066
178	0x3ebe7c74	0.37204325
179	0x3e78e403	0.2430573
180	0xbf219fa4	-0.6313422
181	0xbecbcd83	-0.3980523
182	0x3e32695c	0.17423004
183	0x3eb6966e	0.35661644
184	0x3f027a55	0.50967914
185	0x3e949d18	0.29026103
186	0x3db4bdde	0.08825277
187	0x3fa15ae0	1.2605858
188	0x3e451893	0.19247656
189	0x3f30e5f7	0.691009
190	0xbdf2e5dc	-0.118602484
191	0x3d9ae387	0.07562929

local_mlp.0.bias f4 [64]
0	0x3ee7d0ee	0.45276588
1	0xbe1ba062	-0.151979
2	0xbe139ebd	-0.14416023
3	0x3e14685b	0.14492933
4	0xbe14328e	-0.1447241
5	0xbe347b70	-0.17625213
6	0xbdb6ab30	-0.0891937
7	0xbe7ac67e	-0.24489781
8	0xbde6e614	-0.11274353
9	0xbdc20af1	-0.09474743
10	0xbe3c042a	-0.18360963
11	0xbdefb0d3	-0.117036484
12	0xbe4d0949	-0.20023073
13	0xbe518618	-0.20461309
14	0xbe473f83	-0.19457822
15	0xbdb94abc	-0.090474576
16	0xbec62841	-0.38702586
17	0xbe84a24e	-0.2590508
18	0xbe5ab693	-0.21358709
19	0xbe6d1ccb	-0.23155515
20	0xbe3c9e84	-0.18419844
21	0xbe42bcfe	-0.19017407
22	0xbe03b5f6	-0.12862381
23	0xbe8d745d	-0.2762784
24	0x3e2d126a	0.16901556
25	0x3e15e89e	0.14639518
26	0xbd83436a	-0.064093426
27	0xbda3dc97	-0.080010585
28	0xbc6aeba4	-0.014338408
29	0x3e875ba5	0.26437107
30	0x3eb06e73	0.34459266
31	0xbe1fedbc	-0.15618032
32	0x3ebcb42b	0.36856207
33	0xbe88bf4b	-0.26708445
34	0xbe32102f	-0.17388986
35	0x3cce5cad	0.025190676
36	0xbd4dfee7	-0.050291922
37	0xbc56626e	-0.013084991
38	0x3efee8b5	0.49786916
39	0x3dac1c41	0.084038265
40	0x3f6256f8	0.88413954
41	0xbe1a532d	-0.15070792
42	0xbe5364eb	-0.20643966
43	0xbe2f598e	-0.17124006
44	0xbe514f6a	-0.2044045
45	0xbe86a64e	-0.26298755
46	0xbe0f639a	-0.14002839
47	0x3e292650	0.16518521
48	0x3e8dde18	0.27708507
49	0xbda6f6ac	-0.08152518
50	0xbe1c6d95	-0.15276177
51	0xbe192ff6	-0.14959702
52	0x3e17e19c	0.14832157
53	0xbe4d81c8	-0.20069039
54	0x3ef12e87	0.4710581
55	0xbe8c3bec	-0.27389467
56	0xbdac0448	-0.08399254
57	0xbe1e4a13	-0.15457945
58	0xbcf7091a	-0.030155707
59	0xbe3708ae	-0.17874405
60	0xbdb8f91f	-0.09031891
61	0xbddb72a6	-0.10715227
62	0xbd1487bf	-0.03626227
63	0xbe5d68f0	-0.21622062

local_mlp.2.weight f4 [256, 64]
0	0x3fad9b22	1.3562968
1	0xbf1cb6d1	-0.61216456
2	0x3d03194f	0.032006558
3	0x3f3e79be	0.74404514
4	0xbe16a8cc	-0.14712828
5	0x3d50439c	0.050845727
6	0xbd6080de	-0.054810397
7	0xbe80133b	-0.25014672
8	0xbf53e4f8	-0.82771254
9	0xbd8d8dff	-0.06911849
10	0xbf428234	-0.75979924
11	0xbf4c0864	-0.79700303
12	0xbf3567b2	-0.7086135
13	0xbf474f9d	-0.77855855
14	0xbe69e4c7	-0.22841178
15	0x3d5bd602	0.05367089
16	0xbf28f169	-0.6599336
17	0xbff68c9e	-1.9261663
18	0xbfad1f82	-1.352524
19	0xbfbfd186	-1.4985816
20	0xbf315263	-0.6926634
21	0xbf5ef020	-0.8708515
22	0x3dd0bc53	0.1019217
23	0xbe56853d	-0.20949264
24	0x3f57c256	0.8428091
25	0xbe401bb4	-0.18760568
26	0xbf225014	-0.6340344
27	0x3c12e675	0.008966078
28	0x3ed1012b	0.40821204
29	0xbec795b3	-0.389814
30	0xbdda4d8f	-0.106593244
31	0xbf23bfad	-0.6396435
32	0xbda6001c	-0.081054896
33	0xbe86cd14	-0.26328337
34	0xbf4b5db3	-0.7943985
35	0xbea4a167	-0.3215439
36	0x3e72b912	0.23703411
37	0xbf53b81d	-0.8270281
38	0x3e2d51bb	0.16925709
39	0xbf37b7c9	-0.7176481
40	0x3f8d4d50	1.1039219
41	0x3cb2a19b	0.021805575
42	0xbf4e8563	-0.8067228
43	0xbf206bbb	-0.62664384
44	0xbf6a397f	-0.9149398
45	0xbebc4f6e	-0.3677935
46	0x3cc920a4	0.024551697
47	0xbe7cf5e2	-0.24703172
48	0x3f4a9ded	0.79147226
49	0xbeafeca8	-0.34360242
50	0xbf80ff4c	-1.007791
51	0xbde1de3a	-0.110287145
52	0xbe2c1eaf	-0.1680858
53	0xbf5f7fc3	-0.87304324
54	0x3e11b36c	0.142286
55	0xbdbf70b0	-0.09347665
56	0x3e6b9dfe	0.23009488
57	0xbfa9e24f	-1.3272189
58	0x3ef4632d	0.47731915
59	0xbf4d2530	-0.8013487
60	0x3dfbf4f7	0.12302583
61	0xbf758523	-0.95906276
62	0xbf370ed9	-0.7150703
63	0xbf5b7b67	-0.8573517
64	0xbe7bf30d	-0.24604435
65	0xbd52eef7	-0.051497426
66	0xbcdad2d5	-0.02671186
67	0xbe3f8f6b	-0.18707053
68	0x3d5f23de	0.054477565
69	0xbdab8739	-0.08375401
70	0xbd29175b	-0.04128204
71	0x3cd461d0	0.025925547
72	0xbe3f996d	-0.18710871
73	0xbcb223a3	-0.021745509
74	0x3cab6b67	0.020925237
75	0xbe286296	-0.16443858
76	0x3ccd3a9b	0.02505236
77	0xbd124c59	-0.035717342
78	0xb896e306	-7.194844e-05
79	0xbd4711ae	-0.048600845
80	0x3e2f2f98	0.17108
81	0x3e8bce6e	0.2730593
82	0x3e41ff3d	0.18945022
83	0x3e70448d	0.2346365
84	0xb9e10ac3	-0.00042923362
85	0xbccc3dd9	-0.024931835
86	0xbd995fca	-0.074889734
87	0x3dc087db	0.094009124
88	0xbe466d82	-0.19377711
89	0x3f1cf329	0.6130853
90	0x3f97d758	1.1862593
91	0xbd6eb7d2	-0.058280773
92	0xbe580940	-0.21097279
93	0x3f015d3b	0.50532883
94	0x3ea27ffb	0.31738266
95	0x3d856e05	0.06515125
96	0x3f07ff50	0.5312395
97	0x3dcf7c83	0.101311706
98	0x3e1adbb4	0.15122873
99	0x3f47f6be	0.78110874
100	0xbe1dfbc5	-0.15428074
101	0x3f08565b	0.5325677
102	0x3e055b8d	0.13023205
103	0x3e9dfefd	0.30858603
104	0xbd0a6f8e	-0.033797793
105	0xbd25114a	-0.04029969
106	0xbd32dd9f	-0.043668386
107	0xbd0d62ea	-0.03451816
108	0xbc4b9d66	-0.012427663
109	0x3dc6d9da	0.09709521
110	0xbd2056b2	-0.03914518
111	0x3e5de360	0.21668768
112	0xbe4e130f	-0.20124458
113	0x3f4fecb5	0.8122056
114	0xbd8c007e	-0.068360314
115	0x3c88abbb	0.01668345
116	0x3f1e846f	0.6192083
117	0xbdd35e47	-0.10320716
118	0x3e9e0d76	0.30869645
119	0x3d075efa	0.03304956
120	0xbdd70ff1	-0.105010875
121	0x3e11254e	0.14174387
122	0xbe53c1fc	-0.20679468
123	0x3e038460	0.12843466
124	0xbd32787f	-0.043571945
125	0x3e21b601	0.15792085
126	0x3f1a51a4	0.60280824
127	0x3ccbf2d7	0.024896068
128	0xbf1e56e7	-0.6185135
129	0x3c9ddd68	0.019270614
130	0xbe131888	-0.14364827
131	0xbe8e2a95	-0.27766863
132	0xbd482c77	-0.04887053
133	0xbe33b919	-0.17551078
134	0xbd8c4308	-0.06848723
135	0x3d0d3c8f	0.03448158
136	0xbec1e046	-0.3786642
137	0xbd6a1927	-0.057152893
138	0x3d464be1	0.048412208
139	0xbeb3680e	-0.35040325
140	0xbc8b310b	-0.016991159
141	0xbd9fc426	-0.07801084
142	0xbb2de64d	-0.0026534975
143	0xbe08c234	-0.13355333
144	0x3e2dc927	0.16971265
145	0x3e6f301b	0.23358195
146	0x3d705c42	0.058681734
147	0x3e62dd8e	0.22154829
148	0xbdb0a896	-0.08625905
149	0xbda13c62	-0.07872845
150	0xbe24aee7	-0.16082345
151	0xbcbb081e	-0.022831019
152	0xbe5c716a	-0.21527639
153	0x3ec83a8a	0.39107162
154	0x3f735330	0.9504881
155	0xbdd32eda	-0.103116706
156	0xbe982bea	-0.29721004
157	0x3ee08798	0.4385345
158	0x3e6d6082	0.23181346
159	0x3dc67024	0.09689358
160	0x3ecfed45	0.4061071
161	0x3c3d0dd5	0.011538942
162	0x3df48038	0.11938518
163	0x3f0acb72	0.5421668
164	0xbe895a19	-0.26826552
165	0x3f03db5b	0.51506585
166	0x3d8f0e8c	0.069851965
167	0x3ea782bd	0.32716933
168	0xbe1f13c8	-0.1553489
169	0xbe1e424a	-0.15454975
170	0xbdc56af0	-0.09639537
171	0xbd72e4a5	-0.059300084
172	0xbd44ceb6	-0.048048697
173	0x3da4265d	0.0801513
174	0xbdcc04b9	-0.09961838
175	0x3e1167a5	0.14199694
176	0xbe94a274	-0.29030192
177	0x3f2224e0	0.63337517
178	0xbe65eaf9	-0.22452916
179	0xbd7cd1b4	-0.061723426
180	0x3eb98745	0.36236015
181	0xbe19dfe4	-0.15026814
182	0x3ea3ff8f	0.32030913
183	0xbd9e20b3	-0.07721081
184	0xbe60505d	-0.21905656
185	0x3dd365eb	0.10322174
186	0xbeadc16e	-0.33936638
187	0x3e423c74	0.18968374
188	0xbe2458df	-0.16049527
189	0x3e67b839	0.22628869
190	0x3eebd316	0.46059483
191	0x3c1624f9	0.009164088
192	0xbdee54db	-0.11637279
193	0x3e118457	0.1421064
194	0xbd852c4b	-0.06502589
195	0xbdfcd8a6	-0.1234601
196	0xbdd15a2c	-0.10222277
197	0x3a76ae7a	0.00094101543
198	0xbe639b53	-0.2222722
199	0xbdab937f	-0.08377742
200	0x3e5c320c	0.21503466
201	0xbe1261e4	-0.14295155
202	0x3e1b6b79	0.15177716
203	0x3e4830ad	0.19549818
204	0x3e4479f0	0.1918714
205	0x3e358f2b	0.17730395
206	0xbe21ca38	-0.15799797
207	0xbe32abd5	-0.17448361
208	0xbda6ccd5	-0.08144537
209	0xbe053e04	-0.13011938
210	0x3d6331ce	0.05546742
211	0xbdaf2b02	-0.08553125
212	0x3e38aeeb	0.18035476
213	0x3e454984	0.19266325
214	0xbd8f8c92	-0.070092335
215	0xbca723d8	-0.020402834
216	0xbdd55073	-0.10415735
217	0x3e81454a	0.25248176
218	0x3f4632d7	0.77421325
219	0xbe1aba53	-0.1511014
220	0xbe1ae6da	-0.15127125
221	0xbdb4be3a	-0.08825345
222	0xbd8479fb	-0.064685784
223	0x3e01f4c6	0.1269103
224	0xbe019d78	-0.12657726
225	0xbd0fdec2	-0.035124548
226	0x3df0dadc	0.11760494
227	0x3e99812b	0.2998136
228	0xbe2dd163	-0.16974406
229	0xbcab3527	-0.020899368
230	0xbdd5f42e	-0.10446964
231	0x3ca88cab	0.020574888
232	0xbe24e24b	-0.16101949
233	0xbd62005c	-0.055176124
234	0x3e3996c6	0.18123922
235	0x3e1bfc97	0.15233074
236	0x3e6a2442	0.22865394
237	0xbd23e9d1	-0.040017907
238	0xbda8bc20	-0.08239007
239	0x3deecd9f	0.11660313
240	0xbeb15b8a	-0.3464015
241	0x3f01da3b	0.5072362
242	0x3e370df6	0.1787642
243	0xbdd668c1	-0.10469199
244	0x3e7d1aa5	0.24717195
245	0x3e4b15ea	0.19832578
246	0xbe01f654	-0.12691623
247	0x3c03b9ad	0.008039874
248	0xbe0319cf	-0.12802814
249	0x3d3f7da9	0.0467507
250	0xbd7ed7cd	-0.062217522
251	0x3de78918	0.113054454
252	0xbdfbb7cf	-0.12290918
253	0x3d7db93b	0.061944228
254	0xbd2c8750	-0.04212123
255	0x3e4c11c3	0.1992865

local_mlp.2.bias f4 [256]
0	0x3d9e864c	0.07740459
1	0xbb1910f3	-0.002335605
2	0x3c39d57e	0.011342404
3	0xbe35146b	-0.1768357
4	0x3e107c9d	0.14110036
5	0xbdb31e96	-0.08746068
6	0x3e4b2dc2	0.19841674
7	0xbe79444c	-0.2434246
8	0x3e58bc03	0.21165471
9	0xbc70c321	-0.01469496
10	0xbed03436	-0.40664834
11	0xbf14ce81	-0.581276
12	0xbe63d88e	-0.22250578
13	0x3d3ea8c0	0.04654765
14	0xbdbd1a26	-0.09233503
15	0xbdf8c004	-0.12145999
16	0xbdcb776e	-0.09934889
17	0xbd87fba0	-0.066397905
18	0x3de081a3	0.10962226
19	0xbedee2d1	-0.43532422
20	0x3e0be6de	0.13662288
21	0x3dd9ad8d	0.10628805
22	0xbe2adbe1	-0.1668544
23	0x3e2b6077	0.16736017
24	0x3c444159	0.011978471
25	0x3e474c72	0.19462755
26	0xbda6b064	-0.081391126
27	0xbe29402b	-0.16528384
28	0xbce58ae7	-0.028020335
29	0xbd2bf7c3	-0.04198433
30	0xbdf62669	-0.12019045
31	0xbeb2d7da	-0.34930307
32	0x3e0978fc	0.13425058
33	0x3e439336	0.19099125
34	0xbd6cc466	-0.057804488
35	0xbebc3da3	-0.36765775
36	0x3da00d75	0.07815067
37	0xbdc04ef1	-0.09390057
38	0x3e47c309	0.19507994
39	0xbd882201	-0.06647111
40	0x3e0710b9	0.13189973
41	0x3e42ecf6	0.19035706
42	0x3e6cdc24	0.23130852
43	0x3e607860	0.2192092
44	0x3e82abeb	0.25521788
45	0xbe53b983	-0.20676236
46	0x3e14119b	0.14459841
47	0x3e57cee0	0.2107501
48	0xbdd6d5cb	-0.104899965
49	0xbee89ecc	-0.45433652
50	0xbe90e395	-0.2829863
51	0xbea7508a	-0.32678634
52	0x3e11a2cd	0.1422226
53	0xbd84d99b	-0.064868174
54	0xbf05d3d2	-0.5227634
55	0xbea88588	-0.32914376
56	0x3e18bf09	0.14916624
57	0x3db29a61	0.08720852
58	0xbe227425	-0.15864618
59	0x3ce561a8	0.028000668
60	0xbe41c405	-0.18922432
61	0x3e3cb276	0.18427452
62	0xbe24c1a7	-0.16089498
63	0xbe803f35	-0.25048223
64	0x3caed406	0.021341335
65	0x3c9ca8c8	0.01912345
66	0x3d5f5332	0.0545227
67	0x3e48e682	0.19619182
68	0xbe39aced	-0.18132372
69	0x3e850165	0.25977626
70	0xbcbc28a8	-0.022968605
71	0x3e2797f5	0.16366561
72	0xbe2d8860	-0.16946554
73	0x3e7097a3	0.23495345
74	0xbe05d9a8	-0.1307131
75	0x3e5cd595	0.2156585
76	0x3e5c8572	0.2153528
77	0xbe95d967	-0.29267427
78	0xbeb49f4d	-0.35277787
79	0xbe25cde6	-0.16191825
80	0xbe4dcbb6	-0.20097241
81	0x3e174393	0.14771871
82	0xbd9fdc6e	-0.078057155
83	0xbe8bc2a2	-0.2729693
84	0xbeb9ae85	-0.3626596
85	0xbea14d4b	-0.31504282
86	0xbdc3eb73	-0.09566393
87	0x3e7017a6	0.23446521
88	0x3e5ec3de	0.21754405
89	0xbed6e0ac	-0.41968286
90	0xbe26f9a0	-0.16306162
91	0x3e298612	0.1655505
92	0xbe3d2604	-0.18471533
93	0xbd71c017	-0.05902108
94	0xbe381cd1	-0.17979743
95	0x3e5eb2ea	0.21747938
96	0xbcc0c5f7	-0.023531897
97	0xbcf8c6fa	-0.030368317
98	0xbe0f62a0	-0.14002466
99	0xbe00e639	-0.12587823
100	0xbe84fd84	-0.25974667
101	0xbe3bce67	-0.18340455
102	0xbd83b5e7	-0.064311795
103	0x3e10b7c5	0.14132603
104	0x3d74c37d	0.059756745
105	0x3e11f69b	0.14254229
106	0x3e6cb329	0.23115219
107	0xbd7fa27a	-0.06241081
108	0xbe18d0d5	-0.14923413
109	0xbd03fbb7	-0.032222476
110	0x3b9a3db4	0.0047070626
111	0x3e5991d7	0.2124704
112	0x3dc734ee	0.097268924
113	0xbe978b4c	-0.29598463
114	0xbda08442	-0.07837726
115	0x3ea545a7	0.32279703
116	0x3e5a1c76	0.2129992
117	0xbf107e90	-0.5644312
118	0xbea0cbf6	-0.3140561
119	0xbdf5c3c5	-0.12000231
120	0xbf07b6f4	-0.5301354
121	0x3e497c77	0.19676386
122	0x3e65543c	0.22395414
123	0xbe80acb5	-0.25131765
124	0xbeababa9	-0.33529404
125	0xbda5a5be	-0.080882534
126	0xbe46bddb	-0.19408362
127	0xbdbe18d0	-0.09282076
128	0x3e18d9af	0.1492679
129	0xbd81b051	-0.06332458
130	0xbd9330cb	-0.07187041
131	0xbe940e5c	-0.28917205
132	0xbeb21fb1	-0.34789804
133	0xbd7bdf68	-0.061492354
134	0x3e5dd777	0.21664225
135	0x3ca94d61	0.02066678
136	0x3e89896c	0.26862657
137	0xbe934b1d	-0.28768244
138	0xbe8ee703	-0.27910623
139	0x3cf695ad	0.030100668
140	0xbef14598	-0.47123408
141	0x3e1e36a6	0.15450534
142	0x3e2d2214	0.16907531
143	0x3e3ae5e0	0.18251753
144	0xbcb37b94	-0.021909513
145	0x3da376fb	0.07981678
146	0xbda94615	-0.0826532
147	0x3cf9d7c4	0.030498393
148	0xbe8a5d36	-0.2702424
149	0xbdbdf6ca	-0.09275587
150	0xbea918b1	-0.3302665
151	0x3e630e77	0.22173487
152	0xbe9441ce	-0.28956455
153	0x3d1bf52f	0.038075622
154	0x3e8e2d43	0.27768907
155	0xbe2aea9c	-0.16691059
156	0xbde7f485	-0.11325935
157	0xbe0bd367	-0.13654862
158	0x3e4b714b	0.19867437
159	0xbe9036a0	-0.28166676
160	0x3ce039bd	0.027371282
161	0xbe47d2d7	-0.19514023
162	0xbde2a9a9	-0.11067516
163	0xbe532e85	-0.20623215
164	0x3c94544d	0.018106604
165	0x3e6da36d	0.23206873
166	0xbdd09ff6	-0.1018676
167	0xbefe1f83	-0.49633417
168	0xbe8e5536	-0.27799386
169	0xbd98de09	-0.07464225
170	0xbe63657a	-0.22206679
171	0xbe0bccc1	-0.13652326
172	0xbeab4f3e	-0.33458894
173	0xbd6371e8	-0.05552855
174	0xbdc20193	-0.094729565
175	0x3e46c9de	0.19412944
176	0xbeaaaae6	-0.3333351
177	0xbe611339	-0.21979989
178	0x3e549602	0.20760348
179	0xbdc45e45	-0.09588293
180	0x3e4816b5	0.19539912
181	0xbdbc1248	-0.09183174
182	0xbdb28320	-0.08716416
183	0xbda06358	-0.07831448
184	0x3e92f093	0.2869917
185	0xbeaafcf8	-0.33396125
186	0x3e65dd6c	0.22447747
187	0xbc7211e2	-0.014774771
188	0xbf034131	-0.5127135
189	0xbeb3f306	-0.3514635
190	0xbb262edf	-0.0025357527
191	0x3e68f9fe	0.22751614
192	0x3e0bd9ce	0.13657305
193	0x3e4ee2e0	0.20203733
194	0x3e34ffab	0.17675655
195	0x3e4027f5	0.18765242
196	0xbdcc164d	-0.09965191
197	0xbe198d15	-0.14995225
198	0x3d0c2348	0.034213334
199	0x3e64e819	0.22354163
200	0xbf08ce59	-0.5343986
201	0xbe27f56d	-0.16402216
202	0xbd88f7e3	-0.06687906
203	0xbf0e3855	-0.55554706
204	0xbe09e034	-0.13464433
205	0xbf1443f7	-0.57916206
206	0x3e7750b0	0.24151874
207	0x3e427de8	0.18993342
208	0x3e1405ee	0.14455387
209	0xbda7c8e7	-0.08192616
210	0x3c822d6f	0.015890805
211	0xbddee11b	-0.10882779
212	0xbefbe28d	-0.49196282
213	0xbeb0cc91	-0.34531072
214	0x3c7ad966	0.015310621
215	0xbe428fbd	-0.19000144
216	0xbebe06b9	-0.37114504
217	0xbe9f2c5c	-0.3108853
218	0xbe6aa613	-0.22914915
219	0xbcb1ec34	-0.021719076
220	0xbed247a7	-0.4107029
221	0xbd9a7360	-0.07541537
222	0xbe8ba1e1	-0.2727194
223	0x3e549646	0.2076045
224	0x3e5a155f	0.21297215
225	0x3e432436	0.19056782
226	0xbdc2d12b	-0.09512552
227	0xbe123212	-0.14276913
228	0xbe56d07c	-0.20977968
229	0xbe89bfd2	-0.2690416
230	0x3e5b121f	0.21393631
231	0xbe7ea251	-0.24866606
232	0x3e22bd13	0.15892439
233	0xbe5a7ab6	-0.21335873
234	0xbe74be0d	-0.23900624
235	0xbe566af7	-0.20939241
236	0xbddab95a	-0.10679884
237	0xbb94d34a	-0.004541789
238	0x3e412ee3	0.18865542
239	0xbe8bc443	-0.27298173
240	0x3e2c524f	0.16828273
241	0xbe38e48e	-0.18055937
242	0x3e6e22b2	0.23255423
243	0xbd4436ab	-0.047903698
244	0x3e28e6ba	0.16494265
245	0xbf223a14	-0.6336987
246	0x3e4b43a9	0.19850029
247	0xbcbf3402	-0.023340229
248	0xbea6820d	-0.32521096
249	0x3e5f89fe	0.21829984
250	0xbd3d23e9	-0.046176825
251	0x3e19b15d	0.15009065
252	0x3e273e92	0.16332462
253	0xbea73e52	-0.32664734
254	0xbdf9bd9f	-0.121943705
255	0xbee5f307	-0.44911978

output_mlp.0.weight f4 [128, 512]
0	0xbd0265c1	-0.03183532
1	0x3cd8c0b5	0.026459077
2	0x3d46d1b1	0.04853982
3	0x3cb3841a	0.021913577
4	0xbd45b27a	-0.04826591
5	0xbc9b132d	-0.018930042
6	0xbd0429d3	-0.03226645
7	0xbb2bd9a2	-0.0026222249
8	0xbc561ee7	-0.013068891
9	0xbcc1b73f	-0.023646949
10	0x3ce19cfb	0.027540674
11	0x3d99ebfb	0.07515713
12	0xbd13283b	-0.03592704
13	0x3d7141f8	0.058900803
14	0xbc88981a	-0.01667409
15	0xbc1a5933	-0.009420681
16	0xbc61e595	-0.013787647
17	0xbc690ef6	-0.014224758
18	0xbd33dc02	-0.043910988
19	0x3d0f5c48	0.035000116
20	0xbd3c203b	-0.045929175
21	0x3ae584ee	0.001751093
22	0x3c979811	0.018505128
23	0xbca6c35d	-0.020356828
24	0x3d055ef0	0.032561243
25	0xbc3f1277	-0.011662117
26	0xbcbe3698	-0.023219392
27	0xbcea0f61	-0.028571786
28	0xbc5d978a	-0.013524899
29	0x3d28fa46	0.041254304
30	0x3c9f2c55	0.019430319
31	0x3cb721b9	0.022354947
32	0xbc92bafd	-0.017911429
33	0x3bcb6753	0.0062073856
34	0x3d9fbea9	0.078000374
35	0xbbce9b64	-0.006305145
36	0xbd03db53	-0.032191586
37	0x3d59c874	0.053169683
38	0xbcfeb740	-0.03109324
39	0xbcbfd2d5	-0.023415962
40	0xbc8a37b8	-0.016872272
41	0xbd09170c	-0.033469245
42	0xbd24b269	-0.040209208
43	0xbd15f1dc	-0.03660761
44	0xbcfb6573	-0.030688023
45	0xbcf8441c	-0.030305915
46	0xbb3e5812	-0.0029044193
47	0xbd1e7743	-0.038687956
48	0x3ce482c9	0.027894394
49	0x3d5a4724	0.0532905
50	0x3c8bcf45	0.017066607
51	0x3d818e2b	0.063259445
52	0x3c48cbcd	0.012255621
53	0xbd6a48ef	-0.05719846
54	0x3d999b2a	0.07500298
55	0x3da23739	0.07920689
56	0xbc884ba1	-0.016637625
57	0x3ca33dbf	0.019926904
58	0x3d6cd09a	0.057816125
59	0x3d626baf	0.055278476
60	0x3d7036cd	0.058646012
61	0xbd22e20f	-0.039766368
62	0x3c8acf73	0.016944623
63	0x3d0fdbd9	0.035121772
64	0x3caff2de	0.021478113
65	0x3c5c66a0	0.013452202
66	0x3c473099	0.012157583
67	0xbbd5b604	-0.006521942
68	0xbca6ef47	-0.020377768
69	0xbd71c6bd	-0.059027422
70	0xbabac329	-0.0014248836
71	0xbc8e515f	-0.017372785
72	0xbc91fd52	-0.017820988
73	0x3c9806aa	0.018557865
74	0xbd16aa9d	-0.036783803
75	0xbd1ba2f9	-0.03799722
76	0xbc14bd15	-0.009078284
77	0x3d46d93b	0.04854701
78	0x3d0cab18	0.034342855
79	0x3c18191a	0.009283328
80	0xbcd46227	-0.025925709
81	0xbd68d5e7	-0.05684462
82	0x3d133dc8	0.03594759
83	0x3c9034e9	0.017603355
84	0x3cc87fb7	0.024474962
85	0x3c8609ae	0.016362038
86	0xbd3ebae4	-0.04656495
87	0xbd0ba79d	-0.034095395
88	0xbd377ade	-0.04479491
89	0x3c8cf5d6	0.017207067
90	0x3c26c7b1	0.010179446
91	0x3c43b173	0.011944163
92	0xbc6b6aa9	-0.0143686915
93	0xbd0678a4	-0.032829896
94	0xbcb8408b	-0.022491714
95	0xbcd4a099	-0.025955485
96	0x3c32bb25	0.010908877
97	0xbd1e64e7	-0.038670447
98	0xbc2f7c29	-0.010710754
99	0x3ccc1c7c	0.024915926
100	0x3d214680	0.039373875
101	0x3c867eb1	0.016417833
102	0xbcc081d8	-0.023499414
103	0xbcc71909	-0.02430393
104	0x3d12def9	0.035857175
105	0xbd1c7915	-0.03820141
106	0xbd2789b8	-0.040902823
107	0xbcc6be34	-0.024260618
108	0xbd49ec12	-0.0492974
109	0x3d3d2d20	0.046185613
110	0xbd251d85	-0.040311355
111	0xbd0a4f75	-0.033767182
112	0xbbcbe6cf	-0.006222583
113	0x3d17d172	0.037064977
114	0xbd591009	-0.052993808
115	0xbc70e0bc	-0.014702018
116	0x3b7ec3ea	0.0038874098
117	0x3cc9e065	0.024643132
118	0x3da5d60f	0.08097469
119	0xbc916f0b	-0.017753145
120	0x3cefe2df	0.029282985
121	0xbc52b1c2	-0.012859764
122	0xbd24fef2	-0.040282197
123	0xbd1d48ee	-0.03839963
124	0x3d73715d	0.059434284
125	0x3c6ce415	0.014458676
126	0xbd088d7e	-0.033338062
127	0xbcd3898b	-0.025822422
128	0xbd60419c	-0.05475007
129	0xbc8242da	-0.015901018
130	0xbd4aee58	-0.04954371
131	0x3d09e413	0.033664774
132	0x3c94b448	0.018152371
133	0xb9d072dc	-0.00039758428
134	0xbd2f53e2	-0.042804606
135	0x3ce40142	0.027832631
136	0xbd13dc4b	-0.03609876
137	0x3cf675ce	0.03008547
138	0x3c7c67c8	0.015405603
139	0x3d04c246	0.032411836
140	0x3d4663f6	0.048435174
141	0xbcf8acb5	-0.03035579
142	0xbb0fe05f	-0.0021953804
143	0x3b7415ad	0.0037244365
144	0x3cd6b519	0.026209401
145	0xbd14f9e5	-0.03637113
146	0xbbf86b60	-0.0075811595
147	0x3c3fd5d2	0.011708694
148	0x3d247a28	0.04015556
149	0xbd85fd81	-0.06542493
150	0x3c9f2e19	0.01943116
151	0xbc871be5	-0.016492793
152	0x3d73465d	0.059393276
153	0x3c24d94a	0.010061571
154	0xbc5ac13c	-0.013351735
155	0xbd4b691f	-0.0496608
156	0x3c5ffda8	0.013671316
157	0xbd1d98af	-0.03847569
158	0xbcb4057c	-0.021975271
159	0x3c8e84ed	0.017397368
160	0x3d3420b9	0.04397652
161	0xbc7ff38d	-0.015622032
162	0x3cbeb7ca	0.023280997
163	0x3d226a4f	0.039652165
164	0x3cec9544	0.02887977
165	0xbd1031c8	-0.035203725
166	0x3d9a67a7	0.07539301
167	0x3d37f666	0.04491272
168	0x3d394be0	0.045238376
169	0x3bea0d4d	0.007142699
170	0x3da4efaa	0.08053525
171	0x3ce811ef	0.028328864
172	0x3d511d3c	0.05105327
173	0x3d38095d	0.044930805
174	0x3c0d5e63	0.008628461
175	0x3c81f608	0.015864387
176	0x3cc52b5d	0.024068529
177	0xbb88d236	-0.0041754497
178	0xbcb2bf01	-0.021819593
179	0xbdc6120e	-0.096714124
180	0xbcca5121	-0.024696888
181	0x3b2b4e26	0.002613911
182	0xbcfa37c1	-0.030544164
183	0xbc9d48bc	-0.019199722
184	0xbd389790	-0.045066416
185	0x3d09c53b	0.03363536
186	0xbd0f7ddf	-0.03503215
187	0xbd25d9c4	-0.04049088
188	0x3bdc1c3c	0.006717233
189	0x3ce4bf2f	0.027923195
190	0x3d36a9c0	0.04459548
191	0xbd782de1	-0.06059063
192	0xbce1c443	-0.027559405
193	0xbd756aa0	-0.05991614
194	0xbd079b16	-0.033106886
195	0xbce81871	-0.028331967
196	0x3bf8aa33	0.0075886487
197	0x3cbfa8d8	0.02339594
198	0xbc4e7eb3	-0.01260345
199	0xbd12fcd9	-0.035885666
200	0x3d1f8162	0.03894175
201	0x3d25b173	0.040452432
202	0x3d21927f	0.03944635
203	0x3d31e9a6	0.043435715
204	0x3d23453d	0.039860953
205	0x3d6565a6	0.056005143
206	0xbd432b6b	-0.04764883
207	0xbbf76122	-0.007549421
208	0xbcb9417e	-0.022614237
209	0xba17742a	-0.00057775027
210	0x3d0e68fd	0.034768093
211	0x3c806342	0.01567233
212	0x3c9d2101	0.019180777
213	0x3cd7a8b0	0.026325554
214	0x3d16ee9c	0.03684865
215	0xbd069999	-0.032861326
216	0x3c8a8f75	0.016914109
217	0x3c032b2b	0.0080058975
218	0x3ca6bb6c	0.020353042
219	0x3d24c206	0.040224098
220	0x3cb65782	0.022258524
221	0xbd268321	-0.040652398
222	0x3d224bf4	0.039623216
223	0xbc97d404	-0.018533714
224	0xbca436d3	-0.020045673
225	0xbd0a995b	-0.033837657
226	0xbd19738b	-0.037463706
227	0xbc06d983	-0.00823057
228	0x3c3c9cf5	0.011512031
229	0x3c21580c	0.009847652
230	0xbd1222fc	-0.035677895
231	0x3aa6aecd	0.001271689
232	0xbd15ed1c	-0.03660308
233	0x3bb96092	0.005657264
234	0x3cd523c6	0.026018035
235	0x3ca8625f	0.02055472
236	0x3c1c30c2	0.009533109
237	0xbc9a0cd1	-0.01880494
238	0xbbd3e44b	-0.0064664236
239	0x3d3964d0	0.045262158
240	0xbd0f4c01	-0.034984592
241	0xbcf43c0c	-0.029813789
242	0xbc75af88	-0.014995463
243	0x3ca8d69d	0.020610148
244	0xbca31f55	-0.019912401
245	0x3d8d781f	0.06907677
246	0xbb99ac80	-0.004689753
247	0x3d134bc9	0.035960946
248	0x3cd3754b	0.025812766
249	0xbc01b352	-0.007916288
250	0xbcd57fed	-0.026061976
251	0xbc89a9b2	-0.01680455
252	0xbd9201fc	-0.07129285
253	0x3d90b7f3	0.070663355
254	0xbc4b049e	-0.012391238
255	0x3ceadde0	0.028670251

output_mlp.0.bias f4 [128]
0	0xbd5cafb0	-0.053878486
1	0xbd471aa2	-0.048609383
2	0xbd1fc8e7	-0.039009955
3	0xbd161d16	-0.036648832
4	0xbd5eb3eb	-0.054370802
5	0xbd3a729b	-0.045519453
6	0xbe7fc4c3	-0.24977402
7	0xbe7cccc9	-0.24687494
8	0xbce4ea9a	-0.027943898
9	0xbdad01be	-0.08447598
10	0xbd63a5ac	-0.05557792
11	0x3e6ef5e8	0.23335993
12	0xbe00ec3d	-0.12590118
13	0xbe0386a3	-0.12844329
14	0xbe156f60	-0.14593267
15	0xbd66a357	-0.056308117
16	0xbee4bc4e	-0.44674915
17	0xbd60a2d1	-0.054842774
18	0xbda0de00	-0.07854843
19	0xbd882291	-0.06647218
20	0xbd902873	-0.07038965
21	0xbdbbf5a8	-0.091777146
22	0xbe720e9e	-0.23638389
23	0xbd079360	-0.033099532
24	0xbe01a302	-0.12659839
25	0xbcc86e7f	-0.024466751
26	0xbd4b6e9e	-0.04966604
27	0xbd721bc1	-0.0591085
28	0xbd855039	-0.06509442
29	0xbd5aa2a6	-0.05337777
30	0x3e34a96a	0.17642751
31	0xbe18f672	-0.14937761
32	0xbd6ea4cb	-0.058262628
33	0xbd8e0973	-0.06935396
34	0xbd998a49	-0.07497079
35	0xbd0fe14c	-0.03512697
36	0x3d60123a	0.054704882
37	0xbd6d0c73	-0.0578732
38	0xbd637fa1	-0.05554164
39	0xbec3f0b4	-0.3826958
40	0xbce2e8aa	-0.027698833
41	0xbe3de00b	-0.18542497
42	0x3d965dd2	0.073421136
43	0xbda6dc85	-0.081475295
44	0xbda399be	-0.07988308
45	0xbe6069fc	-0.2191543
46	0xbc6e0736	-0.014528086
47	0x3d3fe9e1	0.046853904
48	0xbdd41d73	-0.103571795
49	0xbd71b1ca	-0.059007443
50	0x3c536a36	0.012903741
51	0xbdb5102a	-0.08840974
52	0xbe220a4f	-0.15824245
53	0xbd670e58	-0.056410164
54	0xbd78ea8d	-0.06077056
55	0x3e489eb0	0.19591784
56	0x3e11eb09	0.14249815
57	0xbe1521e4	-0.1456371
58	0xbd66af9b	-0.056319814
59	0x3e9ca948	0.305979
60	0xbe2a7de6	-0.16649589
61	0xbca8f4d0	-0.020624548
62	0xbd0d32be	-0.03447222
63	0xbd75f7ca	-0.060050763
64	0xbeb3a78a	-0.3508876
65	0x3d038b37	0.032115187
66	0xbe3ed61e	-0.18636367
67	0xbd8a5702	-0.06754877
68	0xbdad456a	-0.08460505
69	0xbdb4639a	-0.0880806
70	0x3ca6d784	0.020366438
71	0xbebcf8bf	-0.36908528
72	0xbe1f081c	-0.15530437
73	0x3e8f65f0	0.2800746
74	0x3cf8729f	0.030328093
75	0xbba5a1c0	-0.0050546825
76	0x3d025fed	0.031829763
77	0xbdf479df	-0.119373076
78	0xbd52d7fc	-0.05147551
79	0x3d741077	0.059586015
80	0xbcbcd429	-0.023050385
81	0xbd202576	-0.039098226
82	0xbd929163	-0.071566366
83	0xbe3420ee	-0.17590687
84	0xbc4ef125	-0.0126307355
85	0x3ef9c45e	0.4878263
86	0xbd55dc14	-0.052211836
87	0xbe8ac083	-0.271
88	0x3bcd974e	0.0062741404
89	0xbdaf353b	-0.08555075
90	0x3da17e2f	0.07885396
91	0x3dbed363	0.093176626
92	0xbda47ffd	-0.08032224
93	0xbd62672b	-0.05527417
94	0xbe9bf7a6	-0.30462378
95	0xbd90d1b3	-0.07071247
96	0x3d670e81	0.056410316
97	0x3dd17b4f	0.102285974
98	0x3d9c6e40	0.07638216
99	0xbd9a9190	-0.07547295
100	0xbec2fc18	-0.38082957
101	0xbe313d44	-0.17308527
102	0xbc6276ac	-0.013822239
103	0xbe871c7d	-0.26388922
104	0xbd85546c	-0.06510243
105	0xbd5cf683	-0.05394603
106	0xbc09dd56	-0.008414587
107	0xbe354dc1	-0.17705442
108	0x3e264d2a	0.16240373
109	0xbd830c76	-0.06398861
110	0x3d4079e1	0.046991233
111	0xbd287e6d	-0.041136194
112	0xbd4cc2af	-0.049990352
113	0xbd8f8058	-0.070069015
114	0xbdb1810e	-0.08667193
115	0xbd80fb3e	-0.06297921
116	0x3e18e796	0.14932093
117	0xbc26c05a	-0.010177696
118	0xbd8f9242	-0.07010318
119	0xbe66273b	-0.22475903
120	0xbd69d473	-0.057087373
121	0xbd84b753	-0.06480279
122	0xbe69fe0f	-0.22850822
123	0xbd8b8da5	-0.06814126
124	0xbc9aaf00	-0.018882275
125	0xbd4000a5	-0.046875615
126	0x3e46160b	0.19344346
127	0x3bc1d1fd	0.005914925

output_mlp.2.weight f4 [9, 128]
0	0x3ca3616d	0.019943917
1	0xbcfa9268	-0.03058739
2	0xbcef1958	-0.02918689
3	0xbcb269ee	-0.021779027
4	0xbd1b5314	-0.037921026
5	0xbc27c6db	-0.010240282
6	0xbccbbfbf	-0.024871705
7	0x3bf2e8a3	0.0074129864
8	0xbbdba2f5	-0.0067027756
9	0xbd57632a	-0.052584805
10	0xbd067203	-0.032823574
11	0xbdb4d290	-0.08829224
12	0xbc1efe01	-0.009704114
13	0xbce4a98d	-0.02791288
14	0xbcbf667d	-0.0233643
15	0x3c9c012f	0.019043533
16	0xbce1788f	-0.027523307
17	0x3b9d2dc7	0.004796717
18	0x3cfd323b	0.03090774
19	0xbc1ca2d4	-0.009560306
20	0xbb556614	-0.0032562064
21	0x3c95c6bb	0.018283239
22	0x3ae7b2b4	0.0017677159
23	0xbbf1c184	-0.007377805
24	0x3b4ff686	0.0031732633
25	0xbd3ac911	-0.045601908
26	0xbce53117	-0.02797751
27	0x3bff2ba9	0.007787187
28	0xbcf1ded9	-0.029525207
29	0x3c11dfc8	0.008903451
30	0xbd5ed2a1	-0.05440009
31	0xbb49fc2e	-0.0030820477
32	0xbc34c535	-0.011033346
33	0x3c01d986	0.007925397
34	0x3cf5a7dc	0.029987268
35	0x3cf3faf0	0.029782742
36	0xbe220b2a	-0.15824571
37	0xba781dc6	-0.0009464886
38	0xbd20ef1e	-0.03929054
39	0x3bc77be8	0.006087769
40	0xbaf0ce93	-0.0018372111
41	0xba8ad828	-0.0010592984
42	0xbdb52183	-0.088442825
43	0xbb1d50b9	-0.0024004413
44	0xbc91408f	-0.01773098
45	0xbd53798c	-0.051629588
46	0xbdbb1123	-0.09134128
47	0xbabbec7f	-0.0014337449
48	0x3d082634	0.03323956
49	0xbcb89168	-0.022530273
50	0x3ab377fb	0.0013692373
51	0xbdca2666	-0.09870605
52	0x3c298846	0.0103474315
53	0x3cde90d1	0.027168663
54	0xbd28ae10	-0.041181624
55	0x3cabf88b	0.020992538
56	0xbd7f6eb6	-0.06236144
57	0xbca522b0	-0.020158142
58	0x3c1fb17b	0.0097469045
59	0xbdd7bb41	-0.10533763
60	0xbd224dde	-0.03962504
61	0xbcbb13ca	-0.022836585
62	0x3ba18f63	0.004930423
63	0xbc7f9e57	-0.015601716
64	0xbc970c53	-0.018438494
65	0x3bfa8d75	0.0076462575
66	0x3b5eea50	0.0034014173
67	0xbd387ff0	-0.045043886
68	0xbda2e329	-0.079534836
69	0xbd05ee5d	-0.032698024
70	0x3d4ae7f2	0.049537607
71	0x3bb05d7d	0.0053822384
72	0xbdcd9b34	-0.10039368
73	0x3c8b7e99	0.01702814
74	0xbdab15d9	-0.083537765
75	0x3ba44ae1	0.005013809
76	0xbdad82ea	-0.084722355
77	0x3bf8322d	0.007574341
78	0x3bfc7904	0.007704856
79	0xbdeb6a14	-0.11494842
80	0xbccd031f	-0.025025902
81	0x3b3341a9	0.002735237
82	0xbd3d533c	-0.046221957
83	0xbdbe1c9f	-0.09282803
84	0x3c877516	0.016535323
85	0xbdf176e3	-0.11790254
86	0xbc2184be	-0.009858308
87	0xbc9da202	-0.01924229
88	0xbd0ec7d0	-0.034858525
89	0xbc9587b6	-0.018253189
90	0xbd284a1b	-0.041086297
91	0xbdf59caf	-0.11992776
92	0x3cb0142d	0.021493996
93	0xbbee7e97	-0.0072782743
94	0xbca48696	-0.020083707
95	0x3d026c31	0.03184146
96	0x3c801593	0.015635287
97	0xbcd4c8ea	-0.02597471
98	0xbd902f0c	-0.070402235
99	0xbc40045d	-0.01171979
100	0xbc4e5c9d	-0.012595323
101	0x3c1da121	0.009620936
102	0x3d3a14c6	0.045429967
103	0xbd6c6a66	-0.057718657
104	0xbc299c3d	-0.0103521915
105	0x3bcfe6a3	0.0063446327
106	0xbe0d4fa6	-0.13799915
107	0xbd95d1e5	-0.07315425
108	0xbd913145	-0.070894755
109	0x3b8d5fc2	0.0043143937
110	0xbc8c7aa3	-0.017148321
111	0xbbdd566b	-0.0067546866
112	0xbd95582b	-0.07292207
113	0xbbb47afc	-0.005507825
114	0xbcd3ef6e	-0.025871005
115	0x3d0747e8	0.03302756
116	0xbc5a649f	-0.013329654
117	0xbcd52723	-0.026019638
118	0xbcee676a	-0.029102046
119	0xbcf39ebd	-0.029738778
120	0xbd11b295	-0.0355707
121	0xbc2972bf	-0.010342299
122	0xbbb71233	-0.0055868863
123	0xbc645442	-0.013936104
124	0xbc0a9018	-0.008457206
125	0xbb0e5f85	-0.0021724415
126	0xbc909f32	-0.017654035
127	0xbd9ecac3	-0.077535175
128	0x3dbef6d5	0.09324423
129	0x3cfbc9c0	0.03073585
130	0x3b3df462	0.0028984775
131	0x3d13b80b	0.03606419
132	0xbc7f1c45	-0.015570705
133	0xbd3ab9f2	-0.045587488
134	0xbd53f5be	-0.05174803
135	0xbd4df61f	-0.050283547
136	0x3d1df48c	0.038563296
137	0x3d0d812e	0.034547023
138	0x3d479ab6	0.04873153
139	0xbdee1d9d	-0.11626742
140	0xbd8c2e0d	-0.06844721
141	0xbd4a54d6	-0.049397312
142	0xbd2816ee	-0.041037492
143	0x3d293f79	0.041320298
144	0xbdbe2157	-0.09283703
145	0x3bddd127	0.0067693177
146	0x3c9b2c81	0.01894212
147	0xbd15d7aa	-0.036582626
148	0x3d49bea5	0.04925408
149	0x3d392c06	0.045208
150	0xbd37c483	-0.044865143
151	0x3c93a7fc	0.018024437
152	0xbd8e62ce	-0.06952439
153	0x3c3b2494	0.011422295
154	0x3d73b52a	0.059498943
155	0x3c147be5	0.009062742
156	0x3d55799c	0.05211793
157	0x3ca7e97d	0.020497078
158	0xbddb0240	-0.106937885
159	0xbcea29cd	-0.028584385
160	0x3ce746a3	0.028231924
161	0x3d93b2b5	0.0721182
162	0x3d2ef3ad	0.042712856
163	0x3d80215a	0.06256361
164	0xbdcaee76	-0.09908764
165	0x3d00e538	0.0314686
166	0x3d432cbf	0.047650095
167	0x3ca9dd36	0.020735364
168	0x3d216d50	0.03941089
169	0xbd3a0a0b	-0.045419734
170	0xbdff2c6a	-0.12459643
171	0x3d2947a7	0.0413281
172	0xbd8453d5	-0.06461302
173	0xbdb1c0ef	-0.08679377
174	0xbddaef13	-0.10690131
175	0xbd507cfc	-0.050900444
176	0x3d1883a6	0.037234925
177	0x3d7a8bbf	0.06116843
178	0xbd1ce1f2	-0.038301416
179	0xbd9974fe	-0.074930176
180	0x3c06e943	0.008234325
181	0x3d6e4eaf	0.058180507
182	0x3c64dbc2	0.01396841
183	0xbd99d42d	-0.075111724
184	0xbd07ae7d	-0.03312539
185	0xbd33e88b	-0.043922942
186	0x3d2b8fa3	0.04188503
187	0xbdd40b08	-0.103536665
188	0xbd4cb67c	-0.04997872
189	0x3b716d29	0.0036838746
190	0x3d6e0804	0.058113113
191	0x3d70aec0	0.058760405
192	0xbd3d46ac	-0.046209976
193	0xbcad2b04	-0.021138676
194	0x3d20094a	0.03907136
195	0x3ceff5dc	0.02929204
196	0xbde8c2fa	-0.11365314
197	0x3c3b26a1	0.011422784
198	0xbd549b2b	-0.051905792
199	0xbc4d2bf0	-0.012522683
200	0xbdce5910	-0.10075581
201	0x3d32595d	0.043542255
202	0xbe3f1977	-0.18662058
203	0x3c2ea846	0.010660237
204	0xbd90177f	-0.070357315
205	0xbd9d329a	-0.07675667
206	0x3d568caa	0.05238024
207	0xbe183945	-0.14865597
208	0x3d1e28e0	0.0386132
209	0x3ceb22e1	0.028703155
210	0x3bb91971	0.005648785
211	0xbde9ee81	-0.11422444
212	0x3ca45401	0.020059587
213	0xbe0e8f44	-0.13921839
214	0x3cb9c5a5	0.022677252
215	0x3cf01f94	0.029311933
216	0xbd347e58	-0.044065803
217	0x3c8c5c0b	0.017133733
218	0xbd0118e6	-0.031517886
219	0xbe1193eb	-0.14216582
220	0x3c4bd893	0.012441772
221	0x3d14c9e5	0.036325354
222	0xbd4537e1	-0.048148993
223	0x3c855313	0.016274964
224	0xbd9067f0	-0.070510745
225	0xbd6514e5	-0.05592813
226	0xbe0d38f2	-0.13791254
227	0x3d35c8cf	0.04438096
228	0xbcace9c3	-0.02110756
229	0xbda16f8c	-0.07882604
230	0x3d62dc88	0.055386096
231	0xbd9f67ac	-0.07783446
232	0x3ce242a8	0.027619675
233	0x3d02d11d	0.031937707
234	0xbdfd1dbd	-0.12359188
235	0xbdf94c4f	-0.12172758
236	0xbd631eda	-0.055449344
237	0x3ba6050b	0.005066519
238	0xbd75fd16	-0.060055815
239	0x3d359cef	0.044339117
240	0xbdb3b7ae	-0.087752685
241	0x3d115cc5	0.035488863
242	0x3cca3ef1	0.024688216
243	0x3c8219d1	0.01588145
244	0xbd29556a	-0.041341223
245	0x3d1bd1b7	0.038041797
246	0xbc81a7f3	-0.015827155
247	0xbdb84bfa	-0.089988664
248	0x3d51bd7d	0.0512061
249	0x3d58aa31	0.052896682
250	0xbd7a52a3	-0.061113965
251	0x3cd028e9	0.025410132
252	0x3c20d1e6	0.009815669
253	0x3d305bf8	0.04305646
254	0xbd47d7ba	-0.048789717
255	0xbdcf6d2f	-0.10128247

output_mlp.2.bias f4 [9]
0	0xbc34313c	-0.0109980665
1	0xbd2494a7	-0.04018083
2	0xbd18644a	-0.037205018
3	0xbcfc8a2a	-0.0308276
4	0x3e7db7a3	0.24777083
5	0xbd18f2e5	-0.037341017
6	0xbd12b77f	-0.035819527
7	0xbd3c955c	-0.046040878
8	0x3dadf780	0.084944725
