log/segmentation/pn/bucket/full/pn_50.pth (torch, 337359 bytes, 8 tensors)

local_mlp.0.weight f4 [64, 3]
0.18415496 -0.13252674 -0.26013634 0.726887 0.025449883 0.094115295 -0.68234867 -0.41257203
0.2115823 -0.74404883 -0.6647226 -0.18304569 -0.6535602 -0.30207562 0.2219032 -0.8894728
-0.5364581 0.23246118 -0.58393365 -0.34543955 0.20744109 -0.6482095 -0.37336144 0.32008806
0.5994471 -0.37510246 -0.088191636 -0.5732741 -0.33650377 0.19942138 0.72354424 0.16562288
0.2667312 0.62254894 -0.37856215 -0.07627919 0.6933085 -0.07334089 0.04769223 0.698743
-0.11373166 0.06432668 -0.5912238 -0.43259877 0.3247133 -0.6049958 -0.41024545 0.19612283
-0.6286126 -0.036956914 0.6112035 -1.3304566 0.8210095 0.61186606 -1.3604501 0.37816447
0.38829556 -0.7871488 0.7667184 0.62870187 0.7068294 -0.08631296 0.03459857 0.7048507
-0.26337382 0.016956937 -0.7441596 -0.4514768 0.19522943 -0.79517156 -0.45473278 0.32724613
-0.7452328 -0.68609095 -0.13848568 0.16324648 0.6895982 -0.15342532 0.064687066 0.57747865
-0.40689808 -0.5964214 -0.36931387 0.18881907 -0.71725976 -0.5733719 0.13823 0.10623044
0.9093827 0.009749863 0.12749074 0.6215319 -0.052409556 0.66307765 0.20048375 0.13444611
0.1258775 0.6508062 -0.08815445 -0.70554876 -0.41584018 0.3257226 0.5742279 0.3117669
0.2566749 0.09595767 0.80736756 -0.17188622 -0.62442315 -0.49302232 0.16794316 0.13228537
1.4818826 0.29727355 0.27761024 0.32912463 -0.12896393 0.11889809 0.83057296 0.0944029
0.39758325 -0.058243357 -0.28718457 -0.7203505 -0.41712502 0.20944855 0.69871336 -0.18613626
0.049682055 0.7282977 -0.08108876 0.061714854 0.71081525 -0.19373813 0.042056195 -0.6864861
-0.31775016 0.3299063 -0.67872155 -0.40403017 0.20373075 0.29788142 0.52607393 -0.06983362
-0.476667 -0.5806637 -0.073106654 0.23625235 0.32650024 -0.49613088 0.68141496 -0.40353158
-0.049953353 -0.6387049 -0.35224167 0.22452271 0.17989318 0.654136 -0.1598942 0.702712
-0.34614173 0.027228707 0.1674823 0.49998954 -0.09848737 -0.79414815 -0.5005483 0.31430912
-0.6651978 -0.4528505 0.16688685 -1.0938668 0.38717154 0.2800318 -0.9192356 -0.62721956
0.10828204 0.5389842 0.3727115 0.2432091 -0.63238347 -0.39919576 0.1761889 0.3570729
0.5106698 0.28984097 0.09452945 1.2686844 0.19812123 0.69443494 -0.11982138 0.07567332
00000000: 1e93 3c3e 17b5 07be 9730 85be 4415 3a3f
00000010: 467c d03c 85bf c03d 67ae 2ebf a43c d3be
00000020: 08a9 583e fc79 3ebf 432b 2abf 5470 3bbe
00000030: b94f 27bf a8a9 9abe 983a 633e 7db4 63bf
00000040: 5155 09bf 4e0a 6e3e ad7c 15bf 74dd b0be
00000050: 706b 543e 0ff1 25bf 3b29 bfbe 95e2 a33e
00000060: 5d75 193f 6e0d c0be d19d b4bd 17c2 12bf
00000070: 394a acbe 1e35 4c3e 323a 393f 0b99 293e
00000080: fe90 883e 5e5f 1f3f e6d2 c1be 4438 9cbd
00000090: aa7c 313f c033 96bd ee58 433d d2e0 323f
000000a0: 25ec e8bd b5bd 833d 715a 17bf 967d ddbe
000000b0: d240 a63e 01e1 1abf b10b d2be 6cd4 483e
000000c0: c1ec 20bf 2260 17bd d577 1c3f 674c aabf
000000d0: ae2d 523f 41a3 1c3f 3b23 aebf c69e c13e
000000e0: adce c63e 9582 49bf a847 443f 9bf2 203f
000000f0: c6f2 343f d9c4 b0bd 3bb7 0d3d 1871 343f
00000100: efd8 86be 46e9 8a3c 3e81 3ebf f827 e7be
00000110: 39ea 473e 5d90 4bbf bcd2 e8be ce8c a73e
00000120: 94c7 3ebf a8a3 2fbf 31cf 0dbe 162a 273e
00000130: 8289 303f 871b 1dbe a77a 843d a4d5 133f
00000140: f254 d0be 13af 18bf b516 bdbe c959 413e
00000150: 569e 37bf 80c8 12bf 2a8c 0d3e 588f d93d
00000160: 4ecd 683f e4bd 1f3c ef8c 023e b71c 1f3f
00000170: 67ab 56bd 75bf 293f 9d4b 4d3e 3eac 093e
00000180: 08e6 003e 3c9b 263f 528a b4bd d89e 34bf
00000190: 01e9 d4be 1dc5 a63e 9a00 133f e99f 9f3e
000001a0: e46a 833e 7485 c43d a4af 4e3f f102 30be
000001b0: 32da 1fbf 6c6d fcbe 4bf9 2b3e d175 073e
000001c0: 54ae bd3f 3d34 983e ee22 8e3e 0683 a83e
000001d0: 1f0f 04be d880 f33d 6ea0 543f 4f56 c13d
000001e0: 0890 cb3e 9690 6ebd db09 93be e468 38bf
000001f0: 6991 d5be ae79 563e e1de 323f 819a 3ebe
00000200: 697f 4b3d b871 3a3f dd11 a6bd b7c8 7c3d
00000210: fdf7 353f 4a63 46be 1e43 2c3d 8ebd 2fbf
00000220: 26b0 a2be 7be9 a83e b2c0 2dbf 0bdd cebe
00000230: cb9e 503e ea83 983e c8ac 063f ee04 8fbd
00000240: b20d f4be 60a6 14bf f1b8 95bd 23ec 713e
00000250: 0a2b a73e de04 febe 3671 2e3f b19b cebe
00000260: e39b 4cbd 2a82 23bf 0559 b4be 48e9 653e
00000270: eb35 383e 7575 273f 4ebb 23be efe4 333f
00000280: 7d39 b1be bd0e df3c 7b80 2b3e a1fe ff3e
00000290: bfb3 c9bd 4b4d 4bbf ef23 00bf 20ed a03e
000002a0: 674a 2abf 05dc e7be 63e4 2a3e d403 8cbf
000002b0: 593b c63e 5460 8f3e 0653 6bbf 7691 20bf
000002c0: f9c2 dd3d defa 093f 0bd4 be3e ce0b 793e
000002d0: e2e3 21bf 6363 ccbe dd6a 343e 42d2 b63e
000002e0: 42bb 023f 0966 943e a898 c13d 4064 a23f
000002f0: 4be0 4a3e 7dc6 313f e964 f5bd 9dfa 9a3d

local_mlp.0.bias f4 [64]
0.45562544 -0.15185122 -0.14517461 0.14538427 -0.14586218 -0.1776992 -0.089412354 -0.24563308
-0.11163732 -0.09503146 -0.18360244 -0.11590105 -0.20013247 -0.20445916 -0.19465964 -0.090757035
-0.38683513 -0.25860107 -0.21175377 -0.23190977 -0.18400235 -0.18974963 -0.1296656 -0.27746642
0.16917522 0.14730917 -0.06454183 -0.08026768 -0.014675767 0.26653087 0.34716424 -0.15626638
0.37071812 -0.2680662 -0.17402634 0.025104066 -0.05035463 -0.011355295 0.5002483 0.08596827
0.8869207 -0.15180473 -0.20616889 -0.17098066 -0.20429538 -0.2639334 -0.1410177 0.16967027
0.2792543 -0.07861156 -0.15200867 -0.15046163 0.14934629 -0.2001224 0.47315443 -0.27517298
-0.084659405 -0.15389986 -0.031019662 -0.17891821 -0.09087309 -0.107173085 -0.035031535 -0.21618438
00000000: bd47 e93e e37e 1bbe a7a8 14be 9ddf 143e
00000010: e55c 15be c7f6 35be d31d b7bd 3d87 7bbe
00000020: 1ba2 e4bd db9f c2bd 4702 3cbe 885d edbd
00000030: 87ef 4cbe be5d 51be db54 47be d3de b9bd
00000040: 410f c6be 5c67 84be fbd5 58be c179 6dbe
00000050: 1d6b 3cbe ba4d 42be 0fc7 04be 1410 8ebe
00000060: 453c 2d3e 37d8 163e 822e 84bd 6263 a4bd
00000070: a172 70bc bc76 883e 83bf b13e 4b04 20be
00000080: c4ce bd3e f93f 89be f633 32be 0ba7 cd3c
00000090: a840 4ebd 8f0b 3abc 4610 003f 2210 b03d
000000a0: 3c0d 633f b372 1bbe f01d 53be 8e15 2fbe
000000b0: cf32 51be 4722 87be f266 10be 0bbe 2d3e
000000c0: 6bfa 8e3e 19ff a0bd 29a8 1bbe 9d12 1abe
000000d0: 3cee 183e e3ec 4cbe 4c41 f23e 79e3 8cbe
000000e0: e961 adbd ed97 1dbe f21c febc 5636 37be
000000f0: ac1b babd 907d dbbd 3a7d 0fbd 705f 5dbe

local_mlp.2.weight f4 [256, 64]
1.3500419 -0.6107655 0.03303628 0.7435292 -0.14610866 0.051772784 -0.05379139 -0.24845587
-0.85126805 -0.06809722 -0.7537781 -0.8175964 -0.71401566 -0.78348476 -0.22683154 0.05460535
-0.6574259 -1.9669476 -1.3895146 -1.5059942 -0.69987214 -0.8823979 0.10277901 -0.20803769
0.8421221 -0.18793395 -0.633442 0.009868357 0.40868792 -0.39063096 -0.10706016 -0.62902963
-0.08296095 -0.26163867 -0.78316885 -0.3218144 0.23771898 -0.8289368 0.16783397 -0.7165134
1.1013346 0.022779549 -0.8144962 -0.6304256 -0.9238531 -0.36617285 0.025548501 -0.24596402
0.79042983 -0.34298155 -1.0253229 -0.10913558 -0.16838059 -0.88245887 0.14123954 -0.09199845
0.23084877 -1.3494787 0.47781953 -0.78465843 0.12385633 -0.9470375 -0.71632344 -0.8613815
-0.2512035 -0.0496109 -0.02454452 -0.1830273 0.056178804 -0.080902494 -0.04042489 0.029105375
-0.18702336 -0.020678295 0.022816721 -0.16434439 0.02740747 -0.03363399 0.0014528355 -0.047243692
0.17364575 0.27243418 0.18728964 0.23624258 0.001678738 -0.023594595 -0.07274604 0.097811095
-0.18980265 0.61299235 1.1878514 -0.057247445 -0.20884126 0.50539106 0.3163305 0.067516
0.529848 0.10510607 0.15349594 0.7820283 -0.15289843 0.5347859 0.12842758 0.3099802
-0.036457065 -0.038143523 -0.041841604 -0.03271873 -0.010663542 0.100666314 -0.037074365 0.21686004
-0.20107865 0.81454414 -0.06809159 0.01876837 0.61903363 -0.10216532 0.3069999 0.03694335
-0.10317475 0.14003278 -0.20366976 0.13097921 -0.04202129 0.16000304 0.6054875 0.027042868
-0.6317333 0.022941882 -0.13625707 -0.27251416 -0.04068362 -0.16981786 -0.059922833 0.0459656
-0.38024053 -0.04843279 0.053248625 -0.35147455 -0.013331952 -0.074243344 0.0063081016 -0.12532397
0.17980517 0.23870847 0.05818035 0.22855332 -0.08311938 -0.07646743 -0.15481022 -0.013185876
-0.20993659 0.3812819 0.94917744 -0.09504882 -0.29073995 0.43663165 0.22820382 0.10136149
0.40102375 0.02268522 0.12467437 0.53540695 -0.2609329 0.5184393 0.06567749 0.328204
-0.16024785 -0.14806584 -0.09306535 -0.055992953 -0.044944573 0.09210278 -0.09260398 0.13819404
-0.28683984 0.63440526 -0.22466034 -0.052983806 0.35213396 -0.14800707 0.31602287 -0.06809526
-0.21257848 0.102134265 -0.33452186 0.19520666 -0.15344954 0.23134896 0.4636506 0.013208408
-0.11609514 0.14237936 -0.065911375 -0.12047697 -0.103020065 0.0036737148 -0.22969109 -0.090709575
0.21273233 -0.14900653 0.15119946 0.19331914 0.19242169 0.17729953 -0.16838694 -0.18061365
-0.08625072 -0.13863344 0.05913284 -0.09191823 0.18090531 0.19184303 -0.06937245 -0.020653838
-0.101775855 0.2586901 0.77529925 -0.15624489 -0.1537592 -0.08829719 -0.06363208 0.12756123
-0.12495558 -0.038951673 0.11741739 0.30044985 -0.1764959 -0.023182815 -0.103718355 0.020330992
-0.16169351 -0.05473787 0.18083271 0.15245414 0.22827826 -0.04333501 -0.08292622 0.12064375
-0.35762683 0.5093566 0.17657125 -0.10684983 0.25472945 0.19662279 -0.12601915 0.007766257
-0.12939543 0.04890065 -0.058885004 0.113163635 -0.124906845 0.061551455 -0.04611778 0.19913997
00000000: 2cce ac3f 215b 1cbf 0d51 073d ee57 3e3f
00000010: 829d 15be b30f 543d 5c54 5cbd 376b 7ebe
00000020: b4ec 59bf 8e76 8bbd 9af7 40bf ff4d 51bf
00000030: bbc9 36bf 7592 48bf 8746 68be dca9 5f3d
00000040: 104d 28bf f0c4 fbbf 9ddb b1bf 6bc4 c0bf
00000050: d22a 33bf d4e4 61bf cd7d d23d d507 55be
00000060: 5095 573f c271 40be 4129 22bf e4ae 213c
00000070: 8b3f d13e c800 c8be 5b42 dbbd 1608 21bf
00000080: 6ee7 a9bd 81f5 85be c17d 48bf dbc4 a4be
00000090: 9b6c 733e 3435 54bf abdc 2b3e 6c6d 37bf
000000a0: 88f8 8c3f 2d9c ba3c d382 50bf 9263 21bf
000000b0: a381 6cbf 027b bbbe 174b d13c fedd 7bbe
000000c0: 9c59 4a3f 479b afbe c83d 83bf 7a82 dfbd
000000d0: f66b 2cbe d3e8 61bf 19a1 103e af69 bcbd
000000e0: 9f63 6c3e b8bb acbf c3a4 f43e 60df 48bf
000000f0: 63a8 fd3d 0d71 72bf f960 37bf 7f83 5cbf
00000100: bf9d 80be cd34 4bbd 9711 c9bc 826b 3bbe
00000110: bf1b 663d 35b0 a5bd 9294 25bd 656e ee3c
00000120: 0d83 3fbe 8765 a9bc 22ea ba3c e549 28be
00000130: a185 e03c cbc3 09bd 126d be3a 9a82 41bd
00000140: 31d0 313e 7e7c 8b3e dbc8 3f3e 93e9 713e
00000150: 1a09 dc3a 7449 c1bc e0fb 94bd 2f51 c83d
00000160: a05b 42be 11ed 1c3f 840b 983f 4c7c 6abd
00000170: 7cda 55be 4f61 013f 12f6 a13e d445 8a3d
00000180: 1ea4 073f da41 d73d 0a2e 1d3e 0233 483f
00000190: 6891 1cbe bbe7 083f 8582 033e bab5 9e3e
000001a0: 0154 15bd 623c 1cbd 1a62 2bbd 1304 06bd
000001b0: 23b6 2ebc 242a ce3d 4adb 17bd 8f10 5e3e
000001c0: 90e7 4dbe f785 503f 9b73 8bbd 20c0 993c
000001d0: fd78 1e3f 0d3c d1bd 172f 9d3e e951 173d
000001e0: 494d d3bd c164 0f3e ce8e 50be 6a1f 063e
000001f0: 841e 2cbd d6d7 233e 3b01 1b3f 0189 dd3c
00000200: 46b9 21bf 9df0 bb3c f986 0bbe fa86 8bbe
00000210: dea3 26bd bce4 2dbe a571 75bd 6d46 3c3d
00000220: e3ae c2be 7661 46bd 3b1b 5a3d 79f4 b3be
00000230: 426e 5abc e50c 98bd 31b4 ce3b ed54 00be
00000240: d91e 383e fe6f 743e 854e 6e3d e209 6a3e
00000250: 7e3a aabd f59a 9cbd 9286 1ebe 9309 58bc
00000260: 9ef9 56be 6237 c33e 4bfd 723f f5a8 c2bd
00000270: dedb 94be 2f8e df3e 43ae 693e 9d96 cf3d
00000280: fc52 cd3e 5bd6 b93c 4755 ff3d 6e10 093f
00000290: ff98 85be 70b8 043f eb81 863d 5b0a a83e
000002a0: 0318 24be 929e 17be 0c99 bebd de58 65bd
000002b0: cd17 38bd 62a0 bc3d 28a7 bdbd bd82 0d3e
000002c0: acdc 92be 6268 223f 5c0d 66be 8c05 59bd
000002d0: e74a b43e 2a8f 17be c0cd a13e 8775 8bbd
000002e0: 2cae 59be c52b d13d 7346 abbe 41e4 473e
000002f0: e021 1dbe bee6 6c3e 9d63 ed3e 1468 583c
00000300: 4ac3 edbd e5cb 113e 8bfc 86bd a1bc f6bd
00000310: 2ffc d2bd b5c2 703b 2434 6bbe f1c5 b9bd
00000320: 81d6 593e 2b95 18be 08d4 1a3e 74f5 453e
00000330: 310a 453e 028e 353e a06d 2cbe c9f2 38be
00000340: 38a4 b0bd edf5 0dbe 4735 723d a03f bcbd
00000350: 3e3f 393e 8072 443e 2513 8ebd 3d32 a9bc
00000360: dc6f d0bd 0773 843e 037a 463f a9fe 1fbe
00000370: 0d73 1dbe 28d5 b4bd 8951 82bd 699f 023e
00000380: b6e8 ffbd ca8b 1fbd 8778 f03d 90d4 993e
00000390: 57bb 34be e3e9 bdbc 4a6a d4bd 2e8d a63c
000003a0: fc92 25be d134 60bd 362c 393e f01c 1c3e
000003b0: c7c1 693e 0d80 31bd 39d5 a9bd 1214 f73d
000003c0: dd1a b7be 3265 023f 18cf 343e 15d4 dabd
000003d0: e66b 823e 7c57 493e 2a0b 01be 167c fe3b
000003e0: 3c80 04be 0c4c 483d 6731 71bd 56c2 e73d
000003f0: 29cf ffbd 611d 7c3d ffe5 3cbd 59eb 4b3e

local_mlp.2.bias f4 [256]
0.07705461 -0.004155274 0.010007799 -0.17894536 0.14091958 -0.08847327 0.19995807 -0.2452688
0.21304998 -0.01570828 -0.40808147 -0.5813527 -0.22391231 0.046622116 -0.093342856 -0.12201342
-0.09924074 -0.06736969 0.10931171 -0.43612853 0.13657627 0.10591914 -0.16807461 0.16719374
0.0119650345 0.19473957 -0.082991555 -0.16536437 -0.02855538 -0.04211278 -0.12194682 -0.35144117
0.13373922 0.19152953 -0.05802183 -0.36987755 0.076921165 -0.09658072 0.19516657 -0.06748463
0.1315222 0.19042696 0.2319721 0.21940248 0.25568804 -0.20768137 0.14422125 0.21259388
-0.106026165 -0.45615628 -0.28518668 -0.32939562 0.14225361 -0.06582832 -0.52480716 -0.33133638
0.14836898 0.08661593 -0.15919417 0.028264279 -0.19087228 0.18445447 -0.16173665 -0.25221726
0.021352211 0.018751845 0.053364813 0.19773087 -0.1822867 0.25977555 -0.02387546 0.1635998
-0.17006156 0.23553729 -0.1307031 0.215832 0.2162521 -0.29324558 -0.35631204 -0.16370483
-0.201994 0.14778534 -0.07978657 -0.27484417 -0.3649 -0.31825808 -0.09668696 0.23486595
0.21793735 -0.42094627 -0.16459838 0.1647616 -0.18557407 -0.058400095 -0.18078984 0.21741772
-0.022308562 -0.031256773 -0.14098579 -0.12435877 -0.26066 -0.18540539 -0.06532181 0.14123149
0.05925853 0.14301138 0.2317835 -0.06327692 -0.15031072 -0.03341088 0.0038864505 0.21272759
0.096206374 -0.2972174 -0.07930434 0.32243782 0.2146969 -0.565439 -0.31748083 -0.121059634
-0.5327644 0.19695489 0.22436811 -0.25270453 -0.33437398 -0.082263276 -0.19509721 -0.093968615
0.14830549 -0.06273741 -0.07275714 -0.29119992 -0.3494297 -0.0625454 0.21695885 0.01984601
0.26914927 -0.2893903 -0.28220993 0.03002862 -0.47185355 0.154578 0.16895787 0.18272762
-0.022188615 0.07837339 -0.08420243 0.028926292 -0.2721566 -0.093462825 -0.33301866 0.22207174
-0.29034686 0.03758082 0.2795194 -0.16797777 -0.11455417 -0.1374567 0.19895448 -0.28424665
0.027460337 -0.19657208 -0.11238409 -0.20826674 0.01691173 0.23257461 -0.103566855 -0.49702686
-0.28007436 -0.076003805 -0.22349517 -0.13849704 -0.33594215 -0.055739596 -0.096798554 0.19395098
-0.33331668 -0.22087099 0.20772803 -0.09554666 0.19563141 -0.09190445 -0.088219814 -0.079247765
0.28775948 -0.33512145 0.22496592 -0.015697783 -0.5141224 -0.35467324 -0.0022225264 0.22783273
0.13601571 0.20383076 0.17646274 0.18761554 -0.10110959 -0.15178868 0.033787064 0.22389624
-0.5358749 -0.16574043 -0.06968958 -0.55730623 -0.13650656 -0.5808432 0.24185838 0.19018573
0.14438976 -0.08189981 0.015834562 -0.110468104 -0.49358237 -0.3478948 0.013484256 -0.19112971
-0.3746918 -0.31340212 -0.23106074 -0.021561516 -0.41343182 -0.07625348 -0.27426055 0.2067881
0.21486871 0.19098094 -0.096099004 -0.14366442 -0.21144354 -0.2717555 0.21408412 -0.25014976
0.15823303 -0.21560544 -0.2412576 -0.21148905 -0.10831418 -0.0052501676 0.19073777 -0.2762608
0.1683382 -0.18151847 0.23255864 -0.0481619 0.16500373 -0.6353353 0.19844458 -0.023310175
-0.32828018 0.21838574 -0.04703833 0.15038604 0.16332084 -0.32843015 -0.123154394 -0.4498477
00000000: cfce 9d3d f728 88bb c0f7 233c 743d 37be
00000010: 394d 103e 7931 b5bd cfc1 4c3e bf27 7bbe
00000020: c629 5a3e a7ae 80bc 0ef0 d0be 88d3 14bf
00000030: 4549 65be d5f6 3e3d 8a2a bfbd 2ce2 f9bd
00000040: bb3e cbbd 1ff9 89bd d1de df3d 3d4c dfbe
00000050: a6da 0b3e 22ec d83d c01b 2cbe d634 2b3e
00000060: fe08 443c cf69 473e 7af7 a9bd 4755 29be
00000070: f9ec e9bc 737e 2cbd 41bf f9bd 19f0 b3be
00000080: eff2 083e 5120 443e 4ca8 6dbd 9760 bdbe
00000090: d888 9d3d 1dcc c5bd bfd9 473e 6235 8abd
000000a0: c1ad 063e 49ff 423e 188a 6d3e 0bab 603e
000000b0: 8be9 823e 6daa 54be bcae 133e 36b2 593e
000000c0: 3f24 d9bd 518d e9be fd03 92be 8ba6 a8be
000000d0: eeaa 113e 00d1 86bd c359 06bf eca4 a9be
000000e0: 0aee 173e b163 b13d cc03 23be 7d8a e73c
000000f0: 0674 43be a2e1 3c3e 4b9e 25be 9f22 81be
00000100: d5ea ae3c 789d 993c 1095 5a3d f679 4a3e
00000110: 5da9 3abe 4d01 853e 7896 c3bc b586 273e
00000120: 9e24 2ebe b030 713e 09d7 05be 1003 5d3e
00000130: 3171 5d3e 4924 96be 886e b6be 3da2 27be
00000140: 84d7 4ebe 0a55 173e 2467 a3bd 60b8 8cbe
00000150: 2cd4 babe b9f2 a2be d003 c6bd b380 703e
00000160: f82a 5f3e 4586 d7be 7a8c 28be 44b7 283e
00000170: 2107 3ebe f034 6fbd f920 39be c0a2 5e3e
00000180: 72c0 b6bc 1a07 00bd 945e 10be d0af febd
00000190: 3a75 85be e9da 3dbe 71c7 85bd fd9e 103e
000001a0: 13b9 723d 9371 123e a758 6d3e 5497 81bd
000001b0: 0eeb 19be d9d9 08bd d2b3 7e3b 43d5 593e
000001c0: d907 c53d e12c 98be 506a a2bd 9216 a53e
000001d0: 81d9 5b3e 9cc0 10bf d98c a2be 1dee f7bd
000001e0: 3f63 08bf 8bae 493e c1c0 653e 7d62 81be
000001f0: 1133 abbe a679 a8bd 90c7 47be 9e72 c0bd
00000200: 65dd 173e 797c 80bd b201 95bd 2818 95be
00000210: 73e8 b2be cd17 80bd 762a 5e3e 1994 a23c
00000220: efcd 893e f72a 94be d27d 90be 95fe f53c
00000230: ca96 f1be b249 1e3e 4b03 2d3e f31c 3b3e
00000240: e6c4 b5bc 3a82 a03d 5372 acbd d5f6 ec3c
00000250: 1c58 8bbe 7069 bfbd 6c81 aabe c666 633e
00000260: 58a8 94be 59ee 193d 2b1d 8f3e 5d02 2cbe
00000270: 609b eabd 73c1 0cbe b9ba 4b3e c788 91be
00000280: 80f4 e03c 314a 49be a129 e6bd e043 55be
00000290: 788a 8a3c 0a28 6e3e dc1a d4bd 4e7a febe
000002a0: e865 8fbe e2a7 9bbd ebdb 64be 2bd2 0dbe
000002b0: 9c00 acbe 344f 64bd 523e c6bd 169b 463e
000002c0: 7ca8 aabe 012c 62be a8b6 543e f8ad c3bd
000002d0: 9a53 483e 6638 bcbd 97ac b4bd a74c a2bd
000002e0: 3655 933e 0a95 abbe 775d 663e a398 80bc
000002f0: 879d 03bf bb97 b5be cea7 11bb fc4c 693e
00000300: b447 0b3e 03b9 503e a6b2 343e 4a1e 403e
00000310: 8b12 cfbd 7e6e 1bbe 4e64 0a3d 0e45 653e
00000320: 192f 09bf dcb7 29be 69b9 8ebd 9fab 0ebf
00000330: 60c8 0bbe 24b2 14bf b9a9 773e 0cc0 423e
00000340: e9da 133e 16bb a7bd 7cb7 813c 1a3d e2bd
00000350: d4b6 fcbe 441f b2be 12ed 5c3c 82b7 43be
00000360: 9bd7 bfbe 3e76 a0be 309b 6cbe c7a1 b0bc
00000370: 56ad d3be c92a 9cbd e16b 8cbe 42c0 533e
00000380: 8b06 5c3e 8290 433e 8ecf c4bd c41c 13be
00000390: a884 58be 8923 8bbe de38 5b3e a113 80be
000003a0: d707 223e acc7 5cbe 3b0c 77be 9690 58be
000003b0: d3d3 ddbd 9909 acbb c350 433e 0e72 8dbe
000003c0: d960 2c3e fadf 39be da23 6e3e 6a45 45bd
000003d0: bdf6 283e 56a5 22bf 0e35 4b3e fbf4 bebc
000003e0: 5714 a8be 83a0 5f3e 44ab 40bd ccfe 193e
000003f0: 943d 273e ff27 a8be 5f38 fcbd 7052 e6be

output_mlp.0.weight f4 [128, 512]
-0.03183532 0.026459077 0.04853982 0.021913577 -0.04826591 -0.018930042 -0.03226645 -0.0026222249
-0.013068891 -0.023646949 0.027540674 0.07515713 -0.03592704 0.058900803 -0.01667409 -0.009420681
-0.013787647 -0.014224758 -0.043910988 0.035000116 -0.045929175 0.001751093 0.018505128 -0.020356828
0.032561243 -0.011662117 -0.023219392 -0.028571786 -0.013524899 0.041254304 0.019430319 0.022354947
-0.017911429 0.0062073856 0.078000374 -0.006305145 -0.032191586 0.053169683 -0.03109324 -0.023415962
-0.016872272 -0.033469245 -0.040209208 -0.03660761 -0.030688023 -0.030305915 -0.0029044193 -0.038687956
0.027894394 0.0532905 0.017066607 0.063259445 0.012255621 -0.05719846 0.07500298 0.07920689
-0.016637625 0.019926904 0.057816125 0.055278476 0.058646012 -0.039766368 0.016944623 0.035121772
0.021478113 0.013452202 0.012157583 -0.006521942 -0.020377768 -0.059027422 -0.0014248836 -0.017372785
-0.017820988 0.018557865 -0.036783803 -0.03799722 -0.009078284 0.04854701 0.034342855 0.009283328
-0.025925709 -0.05684462 0.03594759 0.017603355 0.024474962 0.016362038 -0.04656495 -0.034095395
-0.04479491 0.017207067 0.010179446 0.011944163 -0.0143686915 -0.032829896 -0.022491714 -0.025955485
0.010908877 -0.038670447 -0.010710754 0.024915926 0.039373875 0.016417833 -0.023499414 -0.02430393
0.035857175 -0.03820141 -0.040902823 -0.024260618 -0.0492974 0.046185613 -0.040311355 -0.033767182
-0.006222583 0.037064977 -0.052993808 -0.014702018 0.0038874098 0.024643132 0.08097469 -0.017753145
0.029282985 -0.012859764 -0.040282197 -0.03839963 0.059434284 0.014458676 -0.033338062 -0.025822422
-0.05475007 -0.015901018 -0.04954371 0.033664774 0.018152371 -0.00039758428 -0.042804606 0.027832631
-0.03609876 0.03008547 0.015405603 0.032411836 0.048435174 -0.03035579 -0.0021953804 0.0037244365
0.026209401 -0.03637113 -0.0075811595 0.011708694 0.04015556 -0.06542493 0.01943116 -0.016492793
0.059393276 0.010061571 -0.013351735 -0.0496608 0.013671316 -0.03847569 -0.021975271 0.017397368
0.04397652 -0.015622032 0.023280997 0.039652165 0.02887977 -0.035203725 0.07539301 0.04491272
0.045238376 0.007142699 0.08053525 0.028328864 0.05105327 0.044930805 0.008628461 0.015864387
0.024068529 -0.0041754497 -0.021819593 -0.096714124 -0.024696888 0.002613911 -0.030544164 -0.019199722
-0.045066416 0.03363536 -0.03503215 -0.04049088 0.006717233 0.027923195 0.04459548 -0.06059063
-0.027559405 -0.05991614 -0.033106886 -0.028331967 0.0075886487 0.02339594 -0.01260345 -0.035885666
0.03894175 0.040452432 0.03944635 0.043435715 0.039860953 0.056005143 -0.04764883 -0.007549421
-0.022614237 -0.00057775027 0.034768093 0.01567233 0.019180777 0.026325554 0.03684865 -0.032861326
0.016914109 0.0080058975 0.020353042 0.040224098 0.022258524 -0.040652398 0.039623216 -0.018533714
-0.020045673 -0.033837657 -0.037463706 -0.00823057 0.011512031 0.009847652 -0.035677895 0.001271689
-0.03660308 0.005657264 0.026018035 0.02055472 0.009533109 -0.01880494 -0.0064664236 0.045262158
-0.034984592 -0.029813789 -0.014995463 0.020610148 -0.019912401 0.06907677 -0.004689753 0.035960946
0.025812766 -0.007916288 -0.026061976 -0.01680455 -0.07129285 0.070663355 -0.012391238 0.028670251
00000000: c165 02bd b5c0 d83c b1d1 463d 1a84 b33c
00000010: 7ab2 45bd 2d13 9bbc d329 04bd a2d9 2bbb
00000020: e71e 56bc 3fb7 c1bc fb9c e13c fbeb 993d
00000030: 3b28 13bd f841 713d 1a98 88bc 3359 1abc
00000040: 95e5 61bc f60e 69bc 02dc 33bd 485c 0f3d
00000050: 3b20 3cbd ee84 e53a 1198 973c 5dc3 a6bc
00000060: f05e 053d 7712 3fbc 9836 bebc 610f eabc
00000070: 8a97 5dbc 46fa 283d 552c 9f3c b921 b73c
00000080: fdba 92bc 5367 cb3b a9be 9f3d 649b cebb
00000090: 53db 03bd 74c8 593d 40b7 febc d5d2 bfbc
000000a0: b837 8abc 0c17 09bd 69b2 24bd dcf1 15bd
000000b0: 7365 fbbc 1c44 f8bc 1258 3ebb 4377 1ebd
000000c0: c982 e43c 2447 5a3d 45cf 8b3c 2b8e 813d
000000d0: cdcb 483c ef48 6abd 2a9b 993d 3937 a23d
000000e0: a14b 88bc bf3d a33c 9ad0 6c3d af6b 623d
000000f0: cd36 703d 0fe2 22bd 73cf 8a3c d9db 0f3d
00000100: def2 af3c a066 5c3c 9930 473c 04b6 d5bb
00000110: 47ef a6bc bdc6 71bd 29c3 baba 5f51 8ebc
00000120: 52fd 91bc aa06 983c 9daa 16bd f9a2 1bbd
00000130: 15bd 14bc 3bd9 463d 18ab 0c3d 1a19 183c
00000140: 2762 d4bc e7d5 68bd c83d 133d e934 903c
00000150: b77f c83c ae09 863c e4ba 3ebd 9da7 0bbd
00000160: de7a 37bd d6f5 8c3c b1c7 263c 73b1 433c
00000170: a96a 6bbc a478 06bd 8b40 b8bc 99a0 d4bc
00000180: 25bb 323c e764 1ebd 297c 2fbc 7c1c cc3c
00000190: 8046 213d b17e 863c d881 c0bc 0919 c7bc
000001a0: f9de 123d 1579 1cbd b889 27bd 34be c6bc
000001b0: 12ec 49bd 202d 3d3d 851d 25bd 754f 0abd
000001c0: cfe6 cbbb 72d1 173d 0910 59bd bce0 70bc
000001d0: eac3 7e3b 65e0 c93c 0fd6 a53d 0b6f 91bc
000001e0: dfe2 ef3c c2b1 52bc f2fe 24bd ee48 1dbd
000001f0: 5d71 733d 15e4 6c3c 7e8d 08bd 8b89 d3bc
00000200: 9c41 60bd da42 82bc 58ee 4abd 13e4 093d
00000210: 48b4 943c dc72 d0b9 e253 2fbd 4201 e43c
00000220: 4bdc 13bd ce75 f63c c867 7c3c 46c2 043d
00000230: f663 463d b5ac f8bc 5fe0 0fbb ad15 743b
00000240: 19b5 d63c e5f9 14bd 606b f8bb d2d5 3f3c
00000250: 287a 243d 81fd 85bd 192e 9f3c e51b 87bc
00000260: 5d46 733d 4ad9 243c 3cc1 5abc 1f69 4bbd
00000270: a8fd 5f3c af98 1dbd 7c05 b4bc ed84 8e3c
00000280: b920 343d 8df3 7fbc cab7 be3c 4f6a 223d
00000290: 4495 ec3c c831 10bd a767 9a3d 66f6 373d
000002a0: e04b 393d 4d0d ea3b aaef a43d ef11 e83c
000002b0: 3c1d 513d 5d09 383d 635e 0d3c 08f6 813c
000002c0: 5d2b c53c 36d2 88bb 01bf b2bc 0e12 c6bd
000002d0: 2151 cabc 264e 2b3b c137 fabc bc48 9dbc
000002e0: 9097 38bd 3bc5 093d df7d 0fbd c4d9 25bd
000002f0: 3c1c dc3b 2fbf e43c c0a9 363d e12d 78bd
00000300: 43c4 e1bc a06a 75bd 169b 07bd 7118 e8bc
00000310: 33aa f83b d8a8 bf3c b37e 4ebc d9fc 12bd
00000320: 6281 1f3d 73b1 253d 7f92 213d a6e9 313d
00000330: 3d45 233d a665 653d 6b2b 43bd 2261 f7bb
00000340: 7e41 b9bc 2a74 17ba fd68 0e3d 4263 803c
00000350: 0121 9d3c b0a8 d73c 9cee 163d 9999 06bd
00000360: 758f 8a3c 2b2b 033c 6cbb a63c 06c2 243d
00000370: 8257 b63c 2183 26bd f44b 223d 04d4 97bc
00000380: d336 a4bc 5b99 0abd 8b73 19bd 83d9 06bc
00000390: f59c 3c3c 0c58 213c fc22 12bd cdae a63a
000003a0: 1ced 15bd 9260 b93b c623 d53c 5f62 a83c
000003b0: c230 1c3c d10c 9abc 4be4 d3bb d064 393d
000003c0: 014c 0fbd 0c3c f4bc 88af 75bc 9dd6 a83c
000003d0: 551f a3bc 1f78 8d3d 80ac 99bb c94b 133d
000003e0: 4b75 d33c 52b3 01bc ed7f d5bc b2a9 89bc
000003f0: fc01 92bd f3b7 903d 9e04 4bbc e0dd ea3c

output_mlp.0.bias f4 [128]
-0.053878486 -0.048609383 -0.039009955 -0.036648832 -0.054611675 -0.04449433 -0.25141284 -0.2472881
-0.027943898 -0.08447598 -0.05557792 0.23402254 -0.12621394 -0.12887642 -0.14246102 -0.056308117
-0.44891682 -0.054842774 -0.07854843 -0.06869213 -0.07038965 -0.091777146 -0.23541977 -0.033099532
-0.12437876 -0.025073977 -0.04966604 -0.0591085 -0.06509442 -0.05337777 0.17427525 -0.14808002
-0.058262628 -0.06935396 -0.07497079 -0.03512697 0.05165162 -0.0578732 -0.05554164 -0.38300863
-0.027698833 -0.18470708 0.07346565 -0.081475295 -0.0809128 -0.21855499 -0.014855696 0.047225278
-0.103571795 -0.059007443 0.010617127 -0.08799352 -0.15765814 -0.056410164 -0.06077056 0.19555266
0.14123848 -0.1464204 -0.056319814 0.30642858 -0.16557094 -0.020624548 -0.03447222 -0.060050763
-0.3515793 0.02983063 -0.18636367 -0.06754877 -0.08483431 -0.0880806 0.02376904 -0.3711594
-0.15436712 0.2807487 0.031567156 -0.0050546825 0.03210649 -0.12294484 -0.05147551 0.064115554
-0.023050385 -0.039098226 -0.071566366 -0.17692797 -0.0126307355 0.48829034 -0.052211836 -0.2714884
0.006849146 -0.08555075 0.07818922 0.09287637 -0.08032224 -0.05527417 -0.30944413 -0.07071247
0.056149725 0.105327554 0.07465106 -0.07547295 -0.3838338 -0.17187428 -0.013822211 -0.26211584
-0.06510243 -0.05394603 -0.0074815177 -0.1779381 0.16301988 -0.06398861 0.04696231 -0.041136194
-0.041696206 -0.070069015 -0.08667193 -0.06297921 0.14900403 -0.010177696 -0.0691762 -0.22535443
-0.057087373 -0.06480279 -0.22832987 -0.06814126 -0.018882275 -0.046875615 0.19697115 0.0049077356
00000000: b0af 5cbd a21a 47bd e7c8 1fbd 161d 16bd
00000010: 7eb0 5fbd b03f 36bd 2fb9 80be 1739 7dbe
00000020: 9aea e4bc be01 adbd aca5 63bd 9ba3 6f3e
00000030: 3a3e 01be 2ef8 03be 4de1 11be 57a3 66bd
00000040: 6dd8 e5be d1a2 60bd 00de a0bd 76ae 8cbd
00000050: 7328 90bd a8f5 bbbd e111 71be 6093 07bd
00000060: 4bba febd f167 cdbc 9e6e 4bbd c11b 72bd
00000070: 3950 85bd a6a2 5abd 3675 323e 4aa2 17be
00000080: cba4 6ebd 7309 8ebd 498a 99bd 4ce1 0fbd
00000090: a690 533d 730c 6dbd a17f 63bd b519 c4be
000000a0: aae8 e2bc da23 3dbe 2975 963d 85dc a6bd
000000b0: 9cb5 a5bd e1cc 5fbe 4e65 73bc 4b6f 413d
000000c0: 731d d4bd cab1 71bd 75f3 2d3c f235 b4bd
000000d0: 2371 21be 580e 67bd 8dea 78bd f53e 483e
000000e0: d2a0 103e 3bef 15be 9baf 66bd 35e4 9c3e
000000f0: 6e8b 29be d0f4 a8bc be32 0dbd caf7 75bd
00000100: 3402 b4be 5e5f f43c 1ed6 3ebe 0257 8abd
00000110: 9cbd adbd 9a63 b4bd 4ab7 c23c 9b08 bebe
00000120: 6a12 1ebe 4bbe 8f3e 904c 013d c0a1 a5bb
00000130: 1882 033d 81ca fbbd fcd7 52bd 044f 833d
00000140: 29d4 bcbc 7625 20bd 6391 92bd 9b2c 35be
00000150: 25f1 4ebc 3101 fa3e 14dc 55bd 8700 8bbe
00000160: cd6e e03b 3b35 afbd ab21 a03d f735 be3d
00000170: fd7f a4bd 2b67 62bd 766f 9ebe b3d1 90bd
00000180: 41fd 653d f9b5 d73d a8e2 983d 9091 9abd
00000190: dd85 c4be d0ff 2fbe 8e76 62bc 0c34 86be
000001a0: 6c54 85bd 83f6 5cbd 8527 f5bb 6835 36be
000001b0: afee 263e 760c 83bd 8d5b 403d 6d7e 28bd
000001c0: a4c9 2abd 5880 8fbd 0e81 b1bd 3efb 80bd
000001d0: 8394 183e 5ac0 26bc 40ac 8dbd 50c3 66be
000001e0: 73d4 69bd 53b7 84bd 4ecf 69be a58d 8bbd
000001f0: 00af 9abc a500 40bd ceb2 493e 12d1 a03b

output_mlp.2.weight f4 [9, 128]
0.019943917 -0.03058739 -0.02918689 -0.021779027 -0.037921026 -0.010240282 -0.024871705 0.0074129864
-0.0067027756 -0.052584805 -0.032823574 -0.08829224 -0.009704114 -0.02791288 -0.0233643 0.019043533
-0.027523307 0.004796717 0.03090774 -0.009560306 -0.0032562064 0.018283239 0.0017677159 -0.007377805
0.0031732633 -0.045601908 -0.02797751 0.007787187 -0.029525207 0.008903451 -0.05440009 -0.0030820477
-0.011033346 0.007925397 0.029987268 0.029782742 -0.15824571 -0.0009464886 -0.03929054 0.006087769
-0.0018372111 -0.0010592984 -0.088442825 -0.0024004413 -0.01773098 -0.051629588 -0.09134128 -0.0014337449
0.03323956 -0.022530273 0.0013692373 -0.09870605 0.0103474315 0.027168663 -0.041181624 0.020992538
-0.06236144 -0.020158142 0.0097469045 -0.10533763 -0.03962504 -0.022836585 0.004930423 -0.015601716
-0.018438494 0.0076462575 0.0034014173 -0.045043886 -0.079534836 -0.032698024 0.049537607 0.0053822384
-0.10039368 0.01702814 -0.083537765 0.005013809 -0.084722355 0.007574341 0.007704856 -0.11494842
-0.025025902 0.002735237 -0.046221957 -0.09282803 0.016535323 -0.11790254 -0.009858308 -0.01924229
-0.034858525 -0.018253189 -0.041086297 -0.11992776 0.021493996 -0.0072782743 -0.020083707 0.03184146
0.015635287 -0.02597471 -0.070402235 -0.01171979 -0.012595323 0.009620936 0.045429967 -0.057718657
-0.0103521915 0.0063446327 -0.13799915 -0.07315425 -0.070894755 0.0043143937 -0.017148321 -0.0067546866
-0.07292207 -0.005507825 -0.025871005 0.03302756 -0.013329654 -0.026019638 -0.029102046 -0.029738778
-0.0355707 -0.010342299 -0.0055868863 -0.013936104 -0.008457206 -0.0021724415 -0.017654035 -0.077535175
0.09324423 0.03073585 0.0028984775 0.03606419 -0.015570705 -0.045587488 -0.05174803 -0.050283547
0.038563296 0.034547023 0.04873153 -0.11626742 -0.06844721 -0.049397312 -0.041037492 0.041320298
-0.09283703 0.0067693177 0.01894212 -0.036582626 0.04925408 0.045208 -0.044865143 0.018024437
-0.06952439 0.011422295 0.059498943 0.009062742 0.05211793 0.020497078 -0.106937885 -0.028584385
0.028231924 0.0721182 0.042712856 0.06256361 -0.09908764 0.0314686 0.047650095 0.020735364
0.03941089 -0.045419734 -0.12459643 0.0413281 -0.06461302 -0.08679377 -0.10690131 -0.050900444
0.037234925 0.06116843 -0.038301416 -0.074930176 0.008234325 0.058180507 0.01396841 -0.075111724
-0.03312539 -0.043922942 0.04188503 -0.103536665 -0.04997872 0.0036838746 0.058113113 0.058760405
-0.046209976 -0.021138676 0.03907136 0.02929204 -0.11365314 0.011422784 -0.051905792 -0.012522683
-0.10075581 0.043542255 -0.18662058 0.010660237 -0.070357315 -0.07675667 0.05238024 -0.14865597
0.0386132 0.028703155 0.005648785 -0.11422444 0.020059587 -0.13921839 0.022677252 0.029311933
-0.044065803 0.017133733 -0.031517886 -0.14216582 0.012441772 0.036325354 -0.048148993 0.016274964
-0.070510745 -0.05592813 -0.13791254 0.04438096 -0.02110756 -0.07882604 0.055386096 -0.07783446
0.027619675 0.031937707 -0.12359188 -0.12172758 -0.055449344 0.005066519 -0.060055815 0.044339117
-0.087752685 0.035488863 0.024688216 0.01588145 -0.041341223 0.038041797 -0.015827155 -0.089988664
0.0512061 0.052896682 -0.061113965 0.025410132 0.009815669 0.04305646 -0.048789717 -0.10128247
00000000: 6d61 a33c 6892 fabc 5819 efbc ee69 b2bc
00000010: 1453 1bbd dbc6 27bc bfbf cbbc a3e8 f23b
00000020: f5a2 dbbb 2a63 57bd 0372 06bd 90d2 b4bd
00000030: 01fe 1ebc 8da9 e4bc 7d66 bfbc 2f01 9c3c
00000040: 8f78 e1bc c72d 9d3b 3b32 fd3c d4a2 1cbc
00000050: 1466 55bb bbc6 953c b4b2 e73a 84c1 f1bb
00000060: 86f6 4f3b 11c9 3abd 1731 e5bc a92b ff3b
00000070: d9de f1bc c8df 113c a1d2 5ebd 2efc 49bb
00000080: 35c5 34bc 86d9 013c dca7 f53c f0fa f33c
00000090: 2a0b 22be c61d 78ba 1eef 20bd e87b c73b
000000a0: 93ce f0ba 28d8 8aba 8321 b5bd b950 1dbb
000000b0: 8f40 91bc 8c79 53bd 2311 bbbd 7fec bbba
000000c0: 3426 083d 6891 b8bc fb77 b33a 6626 cabd
000000d0: 4688 293c d190 de3c 10ae 28bd 8bf8 ab3c
000000e0: b66e 7fbd b022 a5bc 7bb1 1f3c 41bb d7bd
000000f0: de4d 22bd ca13 bbbc 638f a13b 579e 7fbc
00000100: 530c 97bc 758d fa3b 50ea 5e3b f07f 38bd
00000110: 29e3 a2bd 5dee 05bd f2e7 4a3d 7d5d b03b
00000120: 349b cdbd 997e 8b3c d915 abbd e14a a43b
00000130: ea82 adbd 2d32 f83b 0479 fc3b 146a ebbd
00000140: 1f03 cdbc a941 333b 3c53 3dbd 9f1c bebd
00000150: 1675 873c e376 f1bd be84 21bc 02a2 9dbc
00000160: d0c7 0ebd b687 95bc 1b4a 28bd af9c f5bd
00000170: 2d14 b03c 977e eebb 9686 a4bc 316c 023d
00000180: 9315 803c eac8 d4bc 0c2f 90bd 5d04 40bc
00000190: 9d5c 4ebc 21a1 1d3c c614 3a3d 666a 6cbd
000001a0: 3d9c 29bc a3e6 cf3b a64f 0dbe e5d1 95bd
000001b0: 4531 91bd c25f 8d3b a37a 8cbc 6b56 ddbb
000001c0: 2b58 95bd fc7a b4bb 6eef d3bc e847 073d
000001d0: 9f64 5abc 2327 d5bc 6a67 eebc bd9e f3bc
000001e0: 95b2 11bd bf72 29bc 3312 b7bb 4254 64bc
000001f0: 1890 0abc 855f 0ebb 329f 90bc c3ca 9ebd
00000200: d5f6 be3d c0c9 fb3c 62f4 3d3b 0bb8 133d
00000210: 451c 7fbc f2b9 3abd bef5 53bd 1ff6 4dbd
00000220: 8cf4 1d3d 2e81 0d3d b69a 473d 9d1d eebd
00000230: 0d2e 8cbd d654 4abd ee16 28bd 793f 293d
00000240: 5721 bebd 27d1 dd3b 812c 9b3c aad7 15bd
00000250: a5be 493d 062c 393d 83c4 37bd fca7 933c
00000260: ce62 8ebd 9424 3b3c 2ab5 733d e57b 143c
00000270: 9c79 553d 7de9 a73c 4002 dbbd cd29 eabc
00000280: a346 e73c b5b2 933d adf3 2e3d 5a21 803d
00000290: 76ee cabd 38e5 003d bf2c 433d 36dd a93c
000002a0: 506d 213d 0b0a 3abd 6a2c ffbd a747 293d
000002b0: d553 84bd efc0 b1bd 13ef dabd fc7c 50bd
000002c0: a683 183d bf8b 7a3d f2e1 1cbd fe74 99bd
000002d0: 43e9 063c af4e 6e3d c2db 643c 2dd4 99bd
000002e0: 7dae 07bd 8be8 33bd a38f 2b3d 080b d4bd
000002f0: 7cb6 4cbd 296d 713b 0408 6e3d c0ae 703d
00000300: ac46 3dbd 042b adbc 4a09 203d dcf5 ef3c
00000310: fac2 e8bd a126 3b3c 2b9b 54bd f02b 4dbc
00000320: 1059 cebd 5d59 323d 7719 3fbe 46a8 2e3c
00000330: 7f17 90bd 9a32 9dbd aa8c 563d 4539 18be
00000340: e028 1e3d e122 eb3c 7119 b93b 81ee e9bd
00000350: 0154 a43c 448f 0ebe a5c5 b93c 941f f03c
00000360: 587e 34bd 0b5c 8c3c e618 01bd eb93 11be
00000370: 93d8 4b3c e5c9 143d e137 45bd 1353 853c
00000380: f067 90bd e514 65bd f238 0dbe cfc8 353d
00000390: c3e9 acbc 8c6f a1bd 88dc 623d ac67 9fbd
000003a0: a842 e23c 1dd1 023d bd1d fdbd 4f4c f9bd
000003b0: da1e 63bd 0b05 a63b 16fd 75bd ef9c 353d
000003c0: aeb7 b3bd c55c 113d f13e ca3c d119 823c
000003d0: 6a55 29bd b7d1 1b3d f3a7 81bc fa4b b8bd
000003e0: 7dbd 513d 31aa 583d a352 7abd e928 d03c
000003f0: e6d1 203c f85b 303d bad7 47bd 2f6d cfbd

output_mlp.2.bias f4 [9]
-0.0109980665 -0.04018083 -0.037205018 -0.030243555 0.24703243 -0.037341017 -0.035819527 -0.045947388
0.08745225
00000000: 3c31 34bc a794 24bd 4a64 18bd 55c1 f7bc
00000010: 12f6 7c3e e5f2 18bd 7fb7 12bd 5433 3cbd
00000020: 2a1a b33d
