log/segmentation/pn/bucket/weighted/pn_10.pth (torch, 337359 bytes, 8 tensors)

local_mlp.0.weight f4 [64, 3]
00000000: 6612 e13e b689 9e3e 4dd6 7d3e 9d52 f6be
00000010: a9d8 a7be b627 5f3d df3b 32bd 7e12 5e3f
00000020: 0a34 08be db44 1f3f 187e 70be 34b4 533d
00000030: 45ae bdbe f086 8a3c 1aa1 7c3e baa3 153f
00000040: 814a 88be c168 df3c f359 e43e b19a 853e
00000050: e83d 153e 94af 4d3e 9d9c 0b3f 0edd d23b
00000060: 8fe1 44be a6c5 633f 5888 7abe aa5f dabd
00000070: 0b06 603f 67ef 40be 9b08 bd3e 2594 3dbc
00000080: d187 1fbe 170a 98be 5d19 773e 6d4c e43e
00000090: 0e82 013f a531 04bd 5f9c 38bb 59a2 eebe
000000a0: 1980 6ebe 5fe1 143e b607 ec3e 5601 643e
000000b0: e444 133e 9cb4 a63e 92f1 ca3e 2ba3 273e
000000c0: 9dd2 dbbe ac96 3cbe 3779 213e 19d4 fa3e
000000d0: 37c2 3d3e 2de0 0d3e aa7e dfbe bf96 6bbe
000000e0: a6b7 313e 1e85 9f3e 23a4 d43e b013 cb3d
000000f0: 7b35 dfbe 8052 59be e5a2 403e 86c3 023f
00000100: ecb8 833d 8df3 ab3d 99c4 2a3e bebf 1d3f
00000110: b104 a5bc 7490 923e 22c7 e73e 0415 0c3d
00000120: c370 e53e 07c1 813e a9ea 553e 66d6 073f
00000130: c28b cfbd 0832 8a3a 2f1b e5be ae9b 78be
00000140: b46f 1d3e 38fe 573e bc0a 053f 5598 963d
00000150: 25a9 dcbe 31e9 2abf 2ab6 c1bd 5cb2 ecbe
00000160: 86af 66be 5bb7 133e 244e f0be 24a7 63be
00000170: 7c7e 173e 7f75 f3be 170b 7dbe 9555 023e
00000180: 4a23 eabe 8e66 5cbe c123 003e 8162 00bf
00000190: 158e 86be a1a8 f63d 6b93 02bf 2ce4 8cbe
000001a0: 89fb e23d 4d25 973e 76c1 7bbe 3d13 32be
000001b0: 196a dfbe 16d8 44be 9751 133e 7dd2 823e
000001c0: 884f 0f3f fb03 01bd a475 b4bd fbf0 643f
000001d0: d515 65be f572 0e3f 76ba 88bd 8c6b 463d
000001e0: b08d c8bd 08e2 613f ed7d 33be f28e f4be
000001f0: 2a86 70be e504 e73d 9ab6 e0be 3b7e 59be
00000200: dd07 2a3e 5f22 733e 036c 163f 3842 d3bc
00000210: 934a f0be a0de 72be 1a9a 053e 3703 56be
00000220: de2d 673f 7a69 70be 1862 8a3e 1b2a db3e
00000230: 33c6 ae3d 58d7 c53e de79 a13e e649 e33d
00000240: 1cc4 d0be e9f2 1abe bdb6 393e 398c b03e
00000250: b7c7 51be 5626 27be 02f0 a63e f58d 033f
00000260: 682a 92bd 6267 073f 9528 673d 078e cb3d
00000270: 41aa dbbe d22f 5dbe 1be3 353e 4eb8 e13e
00000280: c756 203d 4e14 4cbc 205b f73e f535 5bbe
00000290: 8312 5dbd 5763 8bbd fd15 613f fc5f 40be
000002a0: f3b2 fa3e c72a d83d f9e8 023e bbd1 333c
000002b0: fd43 5b3f 2c54 b3bd 0bc0 ef3e d190 53bd
000002c0: 6759 14bd 1a0c febe c1a5 60be 363d 363e
000002d0: c0d8 e5be 42ec 38be 00bb 2e3e 8408 0e3f
000002e0: d63f 17be 460b 60bb d0e8 023e e920 3e3f
000002f0: 7e8e 14bd cb24 ddbe 456f 58be 54f3 303e
0.4395935 0.3096444 0.2478878 -0.48109904 -0.32782486 0.05448123 -0.04351413 0.86746967
-0.13301101 0.6221444 -0.23485601 0.051685527 -0.3704702 0.016910046 0.2467083 0.5845295
-0.26619342 0.02727163 0.44599876 0.26094583 0.14574397 0.20086509 0.5453585 0.006435043
-0.19226669 0.8897346 -0.24466074 -0.10662778 0.8750922 -0.18841325 0.36920628 -0.011570965
-0.15579154 -0.29695198 0.24130769 0.44589558 0.5058907 -0.032273907 -0.0028169376 -0.46608236
-0.23291053 0.14539097 0.46099633 0.22266135 0.14381748 0.3255967 0.3963743 0.16370837
-0.42934123 -0.18416852 0.15768896 0.48989943 0.18531118 0.13855048 -0.43651325 -0.23006724
0.17355213 0.31156248 0.41531476 0.099158645 -0.4359549 -0.21222878 0.1881214 0.51079595
0.064317554 0.08396063 0.16676559 0.616207 -0.020143839 0.28625834 0.45269114 0.03419973
0.44812593 0.2534258 0.20890297 0.5306152 -0.101340786 0.0010543475 -0.44747302 -0.24278137
0.15374643 0.2109307 0.51969504 0.07353274 -0.43097797 -0.6676207 -0.09458573 -0.46229827
-0.22527894 0.14425413 -0.46934617 -0.22231728 0.14794344 -0.4755058 -0.24711262 0.1272796
-0.45730048 -0.21523497 0.12513639 -0.50150305 -0.26280275 0.12043882 -0.5100619 -0.2751783
0.11083133 0.29520646 -0.24585518 -0.17390151 -0.43635634 -0.19223055 0.14386593 0.25551215
0.5598073 -0.031497937 -0.08811501 0.89430207 -0.2237161 0.5564416 -0.066761896 0.04844241
-0.0979265 0.8823552 -0.17528506 -0.4776531 -0.2348868 0.112802304 -0.43889314 -0.2123956
0.16604562 0.2374358 0.5875856 -0.025788411 -0.46931896 -0.23717737 0.13047066 -0.20899664
0.9030436 -0.23477736 0.27027965 0.4280556 0.08533897 0.38640857 0.3153829 0.110980794
-0.4077462 -0.15131725 0.18136115 0.3448198 -0.20486341 -0.16323218 0.32604986 0.51388484
-0.071369946 0.52892125 0.056435186 0.09939199 -0.4290333 -0.21600273 0.17762415 0.44085926
0.039145257 -0.012456013 0.4831171 -0.21407302 -0.053972732 -0.06806057 0.87924176 -0.18786615
0.48964652 0.10555034 0.12784185 0.010975297 0.85650617 -0.08756289 0.46826205 -0.05165178
-0.036218073 -0.49618608 -0.2193823 0.17796788 -0.4489193 -0.18058875 0.17063522 0.55481744
-0.14770445 -0.0034186407 0.12784123 0.74268967 -0.036268704 -0.43192133 -0.21136196 0.17280322

local_mlp.0.bias f4 [64]
00000000: 6f56 bb3c 568a 243d 73dc d3bc 2e3a 8dbd
00000010: e6ad 85bd 2a39 88bd e8a2 71bc ba9d 643d
00000020: 2ae6 cabc 3284 28bd dd89 283e 4b3a 89bd
00000030: ae4e 1ebd 02e3 10bc 5361 31bc 8751 a13c
00000040: c2df bfbc 153f d2bc 1ffb 2bbd c2fa 3e3d
00000050: 3c41 94bc 37e7 31bd fe87 ea3c 5284 113d
00000060: 4f0d d4bb 5715 4abd a64f 7fbd 5b80 c93d
00000070: d04c 1f3e a53a 1fbc 9cac 923b feab 52bd
00000080: 732c 51bc a1a3 b93c 725b 1c3d f386 2a3e
00000090: df95 96bc 6055 ee3d 8771 f0bc e33d 71bd
000000a0: ab65 0abd 5eaf 743c 6f37 c1bc db1f 353e
000000b0: f6c8 99bb d98c d8bc 24db db3b 6145 eabc
000000c0: 31b8 25bd bc58 e93d 0752 5a3e 7457 6ebd
000000d0: f3c0 e6bc 6e3c 70bc d5cc 2ebd 1366 0cbd
000000e0: 6af4 25bd 7fd2 49bb b0ad 05bd 8091 a73c
000000f0: 7a85 d93a 3f48 4dbd 7741 293e 2a05 ffbc
0.022868363 0.04017099 -0.025861954 -0.068958625 -0.06527309 -0.06651528 -0.0147483125 0.055814482
-0.024767954 -0.041141696 0.1645884 -0.067005716 -0.038649254 -0.008843185 -0.010826427 0.019692196
-0.023422126 -0.025664845 -0.041987535 0.04662586 -0.018097512 -0.043433394 0.0286293 0.03552658
-0.006471313 -0.049336758 -0.062331818 0.09838935 0.15556645 -0.009718572 0.004476143 -0.051433556
-0.012766945 0.022661032 0.038173147 0.16653042 -0.018382011 0.11637378 -0.029351009 -0.05889691
-0.033788364 0.014934389 -0.023586003 0.17687933 -0.004693146 -0.026434349 0.006709473 -0.028597536
-0.04045886 0.11393878 0.21320353 -0.05818887 -0.028168177 -0.014662845 -0.04267581 -0.034277033
-0.040516295 -0.0030795631 -0.032636344 0.020455122 0.0016595565 -0.050117727 0.16528879 -0.031130392

local_mlp.2.weight f4 [256, 64]
00000000: f4b2 893d 019e 0abe cf90 80be 91ac d73e
00000010: 9db4 293e 6ea2 dd3e e56c c13d 4c81 0dbe
00000020: 303a 83be 742e 80be 5c1a cbbd ec7b 343e
00000030: 4a7f 863e 1e3d 5a3d 8b1e 173e 8110 a33b
00000040: f790 b83d 798f 3c3e 68c8 303e a711 95bd
00000050: 42ea ca3d a197 813e efa4 f4bd a13f 9bbd
00000060: 3fd5 f43d 499e 953e e349 d83d 6434 2cbe
00000070: d4f7 e5bd 9504 b23d d554 7d3d d716 023d
00000080: 9178 193d a650 0fbd 2671 0abd a60e 8fbe
00000090: 94bc 6b3d 10b7 5dbe 7fd7 8dbe 2ba7 9e3e
000000a0: ed83 96be 5b74 e6bc 3a5d aa3d a9d1 8bbe
000000b0: f927 4f3d 55e8 82be 0190 1bbd 63c0 e63d
000000c0: 45ca e33d 0ef1 cdbd d26e 98be f813 7c3e
000000d0: bcf7 163e 056b 1c3e ddf8 9a3e c644 5fbe
000000e0: 0bf8 5e3e e4c1 93be dd79 543e c046 963d
000000f0: a91a 943d c35a b13e b2a8 b1be 2d4e ba3d
00000100: 4bd3 e23d 5841 16be 7bbd 9fbe 2fed 023f
00000110: c866 3fbc 9e46 023f 14b3 253e 2de9 18be
00000120: dc78 40be 1aac 3cbe 2c50 12be a63f f43b
00000130: 0b84 a53e de29 6dbd a8a4 183e fe7c 0a3d
00000140: d20b 3ebd 4b0f 6a3e 3ec6 83bc 976c d7bc
00000150: 1088 d8bc a82f a63e b947 fabd 6966 6cbd
00000160: 9723 343e 8442 d33e 3134 a33c a928 2dbe
00000170: 2235 ddbd bde2 95bd 7294 34bd 6bfc 573d
00000180: fcbc 95bd 83b1 f1bd 0fca 2ebe ed75 23be
00000190: 9c45 bebc cb08 80be d24a 75be eef7 e43e
000001a0: b202 a3be f016 fcbd 8eac 02bd 5777 c4be
000001b0: 7ced 87bd 5ed4 50be d1a6 71bc f8f0 183e
000001c0: 2af5 a8bc 710b 36bd cb70 cebe d959 b33e
000001d0: 6f01 33bd 9eb7 7d3e 4a63 c73e a5ef 75be
000001e0: 076c 983e c4c8 8dbe 5487 9a3e c91d a4bd
000001f0: b2fc 48bd d0fc e23e af73 cfbe 374d 0f3c
00000200: 0a3d d83d d7fa a93c ea45 693d b07d 6abe
00000210: 3e97 1b3e ed3d 93be c395 5d3d b2ca 653d
00000220: 744e 16bd fb4d debc 6b06 dcbd 3fc0 c53d
00000230: df19 c1bd 2ad1 363e 20c0 443d fefd be3d
00000240: 0c41 3f3e 2e61 553d 6ab9 3a3e 2fbc e63d
00000250: 7588 1c3e a04f a1bc 2974 59bc 563f cf3d
00000260: c6fa 9b3d 845a 2fbe 73ef 053e 23e7 0b3e
00000270: 5ac8 3ebe 6b3e 2f3e c9f3 513e 61e6 c53d
00000280: ac99 223e 7043 483e 7cb9 573e a216 81be
00000290: 69ca 243e 9731 413d c2ec 88ba 749d 05be
000002a0: 0f99 633d 62a3 443e a236 183e a80a db3d
000002b0: 61be 2d3e fd51 07bd 4245 cc3d 28d4 083d
000002c0: 1332 413e 9ce4 8cbe 4477 133d 8476 abbd
000002d0: 1af4 163e 4eae 65bd e839 92be 79ca 223b
000002e0: 3585 153b 9a9f 043d 2696 0cbe 9d03 643e
000002f0: 134d 5d3e 91ce 69be 04fe a83d cc78 663e
00000300: ee5e 273d a750 5ebd 3b24 34be 189e 083f
00000310: 3974 3d3e cb9e 113f bc67 093e 4408 9fbe
00000320: 78c1 7abc 5455 4cbd c337 e4bd e78f 303e
00000330: 7d9c ad3e 147f 093e 258c 1d3e 7bc6 87bd
00000340: 1512 323e d1cd 823e 4881 4b3e 97be e6bd
00000350: 812f 113e 93df ad3e 9adf 5bbe a667 57be
00000360: 1971 093e f897 cf3e 82d9 893e d386 85be
00000370: aadc b0be d575 e03d 1253 173e 7fa3 803e
00000380: d926 143e d362 cf3d 81ad c13c 085c 89be
00000390: 3fd8 e73d 7940 fdbe 1d04 c9bd c47a d03e
000003a0: 618a c8bd 8581 8d3d f2b2 273e 8c43 10bf
000003b0: 805a 0b3e 0abc 6b3d f03e c8bd 5e44 b93d
000003c0: c8a6 3c3e b246 00be 95bf 25bf b555 af3e
000003d0: 1572 1c3e 75b4 6e3e 60a9 e03e 590a c6bd
000003e0: fb7c 913e 5031 04be 241b a73e c700 1c3e
000003f0: 2ce9 153e 87ed f73e 55c8 0ebf 9b90 4f3e
0.06723586 -0.13536836 -0.2511048 0.42123845 0.16572805 0.43287987 0.09444598 -0.13818854
-0.2563033 -0.2503544 -0.09917137 0.17625397 0.2626899 0.053280942 0.14757745 0.0049763327
0.09012025 0.18414105 0.17263949 -0.072787575 0.099079624 0.25310996 -0.11945521 -0.075804956
0.11954736 0.29222324 0.10560968 -0.1681686 -0.1122891 0.0869228 0.06184848 0.031760063
0.037468497 -0.03498902 -0.033799313 -0.27940863 0.05755289 -0.21651864 -0.27703473 0.30986914
-0.29397526 -0.028131654 0.08318563 -0.27308396 0.05057523 -0.2556788 -0.03797913 0.112671636
0.11122564 -0.10055743 -0.2977205 0.24616992 0.1474294 0.152752 0.30267993 -0.21803579
0.21774308 -0.28858864 0.20749612 0.07337713 0.072316475 0.34639558 -0.34699017 0.09096942
0.11075457 -0.14673364 -0.3119925 0.51143163 -0.01168222 0.50889003 0.16181594 -0.149327
-0.18796104 -0.18425027 -0.14288396 0.0074538765 0.32327303 -0.057901256 0.14906561 0.033810608
-0.04639799 0.22857396 -0.01608574 -0.026296897 -0.026432067 0.32458234 -0.12220711 -0.057714853
0.17591701 0.41261685 0.019922348 -0.16910042 -0.1080115 -0.073186375 -0.04408688 0.05273096
-0.073114365 -0.11801436 -0.17069267 -0.15962954 -0.023226552 -0.25006709 -0.23954323 0.44720405
-0.31837994 -0.123090625 -0.031902842 -0.383723 -0.066370934 -0.20393512 -0.014749245 0.14935672
-0.020624716 -0.044444505 -0.4032043 0.35029486 -0.04370254 0.24777076 0.3894294 -0.24017198
0.29769918 -0.27692235 0.30181372 -0.080134936 -0.049069114 0.44333506 -0.40517947 0.008746437
0.10558517 0.020749493 0.05695144 -0.22899508 0.15194413 -0.28758183 0.054097902 0.05610151
-0.036695912 -0.027136793 -0.10743412 0.09655809 -0.09428763 0.17853227 0.048034787 0.09325789
0.18677157 0.05209463 0.18234792 0.11266362 0.15286429 -0.019691288 -0.013272324 0.10119502
0.076161906 -0.17124373 0.13079624 0.1366239 -0.18631116 0.17113654 0.20503153 0.09663082
0.15878934 0.19556975 0.2106685 -0.2521258 0.16092838 0.047166433 -0.0010446536 -0.13048345
0.05556589 0.1920295 0.14864591 0.10695392 0.16967155 -0.033037174 0.099741474 0.033405453
0.18866758 -0.27518165 0.036002412 -0.083722144 0.14741555 -0.056074433 -0.28559804 0.0024839921
0.0022814993 0.03237877 -0.13729152 0.22267003 0.21611433 -0.22832705 0.08251575 0.22507018
0.040862016 -0.054276135 -0.17591946 0.5336623 0.18501367 0.56882924 0.13418478 -0.31060994
-0.015304916 -0.049886063 -0.11143448 0.17242394 0.33908454 0.13427383 0.15385492 -0.06629654
0.1738971 0.2554765 0.19873536 -0.11266821 0.14178278 0.33959636 -0.21472016 -0.21035632
0.1342205 0.4054563 0.26923758 -0.26079425 -0.34543353 0.10959975 0.14777783 0.25124738
0.14467944 0.10126271 0.023642303 -0.26828027 0.113205425 -0.4946325 -0.09815238 0.40718663
-0.09792019 0.069094695 0.16376856 -0.5635307 0.13608742 0.057552375 -0.097776294 0.09046243
0.18422997 -0.12526968 -0.64745456 0.34245077 0.15277894 0.23311026 0.43879223 -0.096699424
0.28415665 -0.12909436 0.32637894 0.15234672 0.1463973 0.48423406 -0.5577443 0.20270006

local_mlp.2.bias f4 [256]
00000000: 0e2b dfbd b02c 05be f577 683d 11a4 1cbe
00000010: 402d 2bbe 3722 03be fd26 41bb 16d8 863d
00000020: d774 f93c 3f9a 1ebe 0f04 13be e09e 66bc
00000030: 49b2 21be 41dc 0cbe 83ed 7fbc f61c fc3c
00000040: b668 e2bd afd3 123d 37d1 103e 0005 e53c
00000050: b0c4 52be 87d5 19be 261e abbd ed9e 42bd
00000060: 8b15 96bd 1d52 0bbe fb5b 06be eae9 fe3d
00000070: 14aa 10be 5af9 99bd f3cd 143e 6b7a 01be
00000080: 6649 0abe f125 efbd 5b4e d93d cac6 0bbe
00000090: 7d93 c83d 61dd 32be 5ca6 08be 9986 123e
000000a0: ebbc 1ebe 76bc 20be c980 6ebd 4690 b23d
000000b0: 8af7 fdbd 8641 1cbe 1cf0 c5bd 009f febd
000000c0: 3ac3 c13d 30a9 193e c28b 2dbd 2f05 14be
000000d0: 85ae f6bd d870 bc3d 9b43 edbd 867a a8bd
000000e0: be79 a7bd 9ae9 6bbd ab6a d03d 5799 3fbe
000000f0: a45c f33d 7066 9dbb b831 66be 7bd6 aabd
00000100: 6ef7 eabd bd7e adbd ad63 8cbd a0e4 edbd
00000110: 40d0 d13d cc6f a4bb 6664 273e 6c1e b33d
00000120: d17a 1abe 7123 9c3d 5b64 c83d 02d1 6b3d
00000130: e3bb 42bd d2b2 163e c9c4 5d3d 9e79 ac3d
00000140: 6bc6 863d 7fb6 81bb 7e32 2e3c 2322 01be
00000150: 4234 f0bd 9a0d febc 3475 043d 02c9 a43d
00000160: 8f89 d03d eae2 d73d a170 a3bd 23bf 123e
00000170: 89a8 143e 191f 48be ffd9 07be d382 92bd
00000180: f57c d2bd bcaa 9dbd 6485 07bd 8eba 003e
00000190: 056a b93d ffbb 06be fc58 c53d b4c4 dabc
000001a0: dacd 953d 33ef 3bbe a184 09be 4b76 d73d
000001b0: 11bf 16be e0f2 24bd 2a90 033e 2e47 693d
000001c0: c2fa 14bd e09e 903d fe0d 14be d630 2abd
000001d0: 3b27 023e 719e 01be cf6b 16be d4d5 d73d
000001e0: 6969 0dbe 8afe 22bb 3210 73bd 316d f63d
000001f0: 948c f7bd be21 9ebd 6363 9cbc 7898 bebd
00000200: 5611 0bbe 07c5 cc3d 6cd1 0abe e56b 3abe
00000210: fc8b df3d e07e 853d 8196 e43d e8a6 03be
00000220: 1db1 65bd 7641 4dbe 5e58 07be ec6a 0dbe
00000230: a33f eb3d 43c5 debd 94ac d8bd 49d2 14be
00000240: bb35 bc3d a96b cebd b344 05be 412a 413c
00000250: 157b e6bd 9be7 8abc d72e 07be 7f5b b3bd
00000260: 49a3 973d 6625 d7bd 5fbc 433d 987e 1bbe
00000270: b71c 1abe 3ba4 093e 8bd8 06be a3cf 503d
00000280: e522 fabc 6f6d 62be db4a ca3d 7d43 b5bd
00000290: 81dd c3bc f5a7 c1bd 6c01 95bd 5648 f7bb
000002a0: adfb 3fbe 9668 363d eefd d23d 77d7 1bbe
000002b0: 776b 04be 11ee c63d eb13 e8bd bf4b 83ba
000002c0: 4ad3 20be c7d1 563d 69f2 25bd d86b 723d
000002d0: e23f 0abe 0a9e ccbd eef9 d2bd 7ac1 e63d
000002e0: fa27 ee3d 7576 0cbe 538d 033e d19d f53d
000002f0: 323c 863d 4e1b 023e 4982 6f3d b3a1 bebd
00000300: 2f1c 3dbe c5e0 723d 8358 e2bd eed7 40bd
00000310: 7d7d 11be 57df 9d3c 4002 47be 2f9e e33d
00000320: 938e 86bd 6eec d03b c9d6 2dbd 00ed c63d
00000330: aae0 93bd 3999 04be 958d 8a3d af07 1fbe
00000340: e94d dabd 2008 25be 016b b0bd b676 5cbd
00000350: 0ced 0e3e a944 bb3d 8a36 8c3d e53f 91bc
00000360: ff3b cdbd 8aa4 00be 8f35 f5bd 0011 fb3d
00000370: e23b 5c3d 0333 53bd 8269 283d 3d81 30be
00000380: eb1a 17be 139f e43d 8832 e83c 30b7 883d
00000390: 53f7 34be 725a cbbd e853 883d 6d69 7bbe
000003a0: 8299 00bd 75f9 02be 493e 16be 3292 aa3c
000003b0: 88ee 553d a93e e6bd 4473 bebd 1d2e d83d
000003c0: ef77 b4bd 3e68 d2bd c865 64bd a11b ffbd
000003d0: 18f3 a13d b862 1a3e c302 5a3d 3485 71bd
000003e0: 2997 0abe 13dc 1abe b455 033e a070 a23d
000003f0: 5c30 5c3d 97ee 2b3d 4bf9 f2bd 1035 febd
-0.10896884 -0.13005328 0.056755025 -0.15296961 -0.1671648 -0.1280602 -0.0029472702 0.06584184
0.030451221 -0.15488528 -0.14357017 -0.014075965 -0.15790667 -0.13755895 -0.015620592 0.030775528
-0.11055128 0.03584641 0.14142309 0.027956486 -0.20582843 -0.1502286 -0.0835536 -0.047514845
-0.07328328 -0.13605542 -0.13121025 0.12446959 -0.1412738 -0.07518263 0.14531688 -0.12644355
-0.13504562 -0.116771586 0.10610648 -0.13650051 0.09793756 -0.17467262 -0.13344711 0.14309157
-0.15501754 -0.15696892 -0.058228288 0.08718924 -0.1240073 -0.1525937 -0.09664938 -0.124326706
0.09461065 0.15005946 -0.04236961 -0.14455102 -0.12045006 0.09201211 -0.1158516 -0.082264945
-0.08177517 -0.057595827 0.10176595 -0.18710838 0.11882904 -0.0048034713 -0.22479904 -0.0834169
-0.11472975 -0.08471439 -0.06854949 -0.116158724 0.10244799 -0.00501821 0.16346893 0.08746037
-0.15085913 0.076239474 0.09784766 0.057572372 -0.047542464 0.14716652 0.054142747 0.08421634
0.06580814 -0.003958523 0.010632155 -0.12610678 -0.117287174 -0.031012345 0.032338336 0.08046152
0.10182487 0.10541327 -0.07980467 0.14330725 0.14517416 -0.19543113 -0.13266753 -0.07153859
-0.1027774 -0.076985806 -0.033086196 0.12571165 0.09053425 -0.13157652 0.09636113 -0.026705123
0.07314654 -0.18352966 -0.134295 0.105206095 -0.14721324 -0.040270686 0.12847963 0.056952648
-0.036371954 0.07061553 -0.14458463 -0.04155048 0.12710278 -0.12658097 -0.14689563 0.10538831
-0.13809742 -0.0024870955 -0.059341617 0.12032545 -0.1208736 -0.077212796 -0.01909036 -0.09306425
-0.13580832 0.099985175 -0.1355645 -0.18205221 0.10915372 0.0651834 0.11161519 -0.12856638
-0.05607711 -0.20044503 -0.13217303 -0.13810319 0.11486747 -0.108774684 -0.10579792 -0.14533342
0.09189936 -0.10079128 -0.13014488 0.011789859 -0.11253945 -0.016956141 -0.13201462 -0.08757686
0.07404191 -0.1050518 0.047787067 -0.1518501 -0.15050016 0.13441555 -0.13168542 0.050979268
-0.030534217 -0.22112058 0.09877559 -0.08850763 -0.023909332 -0.094558634 -0.07275662 -0.007546465
-0.1874835 0.044533335 0.103023395 -0.15218912 -0.1293162 0.09713376 -0.11331924 -0.0010017081
-0.157056 0.052446153 -0.040514383 0.05918488 -0.13500932 -0.09991081 -0.103015766 0.112673715
0.11628719 -0.13717063 0.1284688 0.11992992 0.0655445 0.12705728 0.05847386 -0.093081854
-0.18467782 0.05929639 -0.110520385 -0.047080927 -0.14208026 0.019271536 -0.19434452 0.111141555
-0.065701626 0.006375841 -0.042441163 0.09713173 -0.07220586 -0.12949075 0.06765286 -0.15530275
-0.106593914 -0.1611638 -0.086141594 -0.05382415 0.13957614 0.09143955 0.0684634 -0.017730663
-0.10021209 -0.12562767 -0.11973106 0.12259102 0.053768046 -0.05156232 0.041116245 -0.172368
-0.14756362 0.111631535 0.028344408 0.06675565 -0.17672472 -0.099293604 0.06656629 -0.24551935
-0.031396396 -0.12790473 -0.14672197 0.020821664 0.052229434 -0.1124242 -0.09299329 0.105556704
-0.08811938 -0.10273789 -0.05576113 -0.12456442 0.079076946 0.1507672 0.05322529 -0.058964923
-0.13534226 -0.15123014 0.12825662 0.07931638 0.053757057 0.041975584 -0.11863955 -0.124124646

output_mlp.0.weight f4 [128, 512]
00000000: 25aa b0bc f0fb 0ebc 57f6 a2bc a6a0 2abd
00000010: 685e 5ebb 5856 9c3c 8694 a43c bfaa 1d3d
00000020: 7c29 0d3d b117 01bc cc4a 1f3d d085 1d3c
00000030: ed0c bdbb 969d 1a3c 8cba 43bc 830c 0e3d
00000040: 437b e8bb 1eee b8bc cd7d 293c b698 19bc
00000050: 0b19 45bc 2226 093d 2bf3 8b3c 6e7d 5a3c
00000060: 989b 60bc 9cb2 4cbb dd83 463d 0ea5 6c3b
00000070: 8c5c 5b3d 0f49 963c f24a 0f3d 629c 4e3d
00000080: 40bd 183d ec4d 1a3d 34d0 85ba 02f8 c43c
00000090: b732 cbb9 1e01 aa3c dcb4 733c ac1a bb3c
000000a0: b2c4 60bb 72d6 2dbb 4544 41ba d9c1 2b3b
000000b0: c8de 643b 96c6 a93c c9f5 be3c f13d ce3c
000000c0: ac9d b73c ff90 a43c 1ddf 19bd 58b8 813c
000000d0: 9e86 9abc 0be2 05bc 039c 843d c1ce f53c
000000e0: 9d12 2f3a 7920 323c d3d0 c63b 01c8 fa3c
000000f0: d151 31bc bc97 debc 04cf ca3c d0f0 a4bb
00000100: 1cb6 e93c 67ea 1fbc 6def 0ebc 4daa 9fbb
00000110: b483 a63c 0bb8 29bc 262c 02bd a3a6 e13c
00000120: cf3b 3c3d 115d 47bd e43e dbbb 0a22 06bd
00000130: ab6f 2c3d 3d68 443b 1ea2 13ba a914 6fbb
00000140: c864 063c 4b0f 17bb e140 cabc 6a95 b93c
00000150: 7c90 103d 334c 093c d78a 7abb 2287 683c
00000160: 1d5f a0bc d2b3 033d 7463 5dbc c009 663b
00000170: ef47 12bd fcdb 3cbb 0a17 4c3d 496d 6abb
00000180: 8b18 bf3c 1c78 dbba a4e2 a9bb 3a95 c8bc
00000190: 2d57 953c ef9f c83b 378b cbbc 854a ccbc
000001a0: 8370 f43b 1990 843c cb4b 45bc 03b0 ce3b
000001b0: d9a2 133d 5677 c8bc 0bd4 92bc 9d72 003d
000001c0: bfc1 93b9 8601 c3bb ef2b a13c 176d 813c
000001d0: 6fb0 213c 6cfd 1b3d 0c9e b63d 2e69 febc
000001e0: 58a6 333c 37d7 37bc e45b 8a3b e5c7 2bbc
000001f0: b60c 093c 0fa1 ce3c 38a0 813d 4990 3c3a
00000200: b26e 27bd 0653 e9bc dd18 cb3c 1bbf 463d
00000210: 045f 1cbd 00ff fe3b 06ff e0bc ea65 863c
00000220: 3fc9 1b3b e444 13bd 8322 0d3d 023b dc3c
00000230: 951b 753b ad25 873c cca1 c73c d776 cc3c
00000240: f3bd 713c 3b7b 973c f5aa 0c3d 1364 a4bc
00000250: 07ee 303c 2e25 2e3d 3658 b338 4b2f 4b3c
00000260: b0b7 3abc 5aec fdbb 8233 52bc 6281 f43c
00000270: 3c27 56bb 89c2 2bbd c260 743c 1bea 60bc
00000280: d88e 6f3c 9710 773c ad92 963c 01e2 c4b8
00000290: 846b 8cbb b8ed 953c 7b9c ca3c ae3d 603c
000002a0: 18a3 463d 7ebc a93c c6ca 40bc f8d0 443d
000002b0: 2f11 283d 65ac 613c a4e4 8f3d 8683 e23c
000002c0: d0c1 94bb 976c 0b3d 8e75 c2bb 3e94 8a3c
000002d0: 1f1c 2c3d 62b5 f43c 44ec a33c 2ad1 133a
000002e0: c0b0 10bc 0b72 023d 52d2 44bd 0988 a4bd
000002f0: 4f0d bdbc 2fcc 08bd b1a4 4fbc ae7e 593c
00000300: cd1c ffbb c697 6a3c 3c0a e8bc cfed 0c3d
00000310: 9d57 8a3c 3a48 313c 30af b03b 416e 2cbc
00000320: 8c74 3d3c 75f7 a9bb 1b97 133d fde5 c2bc
00000330: eae8 183b 6cfa 0fbd cd07 12bc 5bc4 c23b
00000340: d231 21bc b822 013c 25f0 c73b a3f0 9bbc
00000350: a30d ab3c ca15 633c c022 0dbb 1842 3abd
00000360: 7ead 2b3c d806 8c3d a92c 4e3c 9075 11bb
00000370: ed65 173c 55db cabb 6e04 47bc 7455 68bc
00000380: 61ec 823c 12e4 ed3c 24e1 263c 950e f0bb
00000390: 3561 a63b 4a3a ebbb 4f87 6ebc 904b c83c
000003a0: 5122 5ebc ff1d eabc 40df bc3c f0db b33c
000003b0: a720 cdbb fff0 413d 0b94 0cbd f707 8c3c
000003c0: 13bb 7ebc ff2a e73c 1a49 373c d459 353d
000003d0: 27b2 8e3c 94be db3c b43c cb3c 842e 633d
000003e0: 26ec 143d be99 273d 5c26 8bbb 9f0c c43c
000003f0: 43f9 b73a e202 3bbc ddae 6d3c 64b5 4d3d
-0.021565506 -0.008727059 -0.019892855 -0.041657113 -0.0033930782 0.01908414 0.020090353 0.038492914
0.03446339 -0.007879184 0.03888969 0.009614423 -0.005769363 0.0094369855 -0.011946332 0.0346799
-0.007094772 -0.02257448 0.010344935 -0.009374788 -0.0120298965 0.033483632 0.017083725 0.013335569
-0.013708971 -0.003123439 0.0484656 0.0036109122 0.053555056 0.018345384 0.034983583 0.050442107
0.037289858 0.03767197 -0.0010209144 0.02404404 -0.00038756963 0.020752486 0.014874663 0.022839867
-0.0034296927 -0.0026525524 -0.00073725387 0.0026208072 0.0034922827 0.020724576 0.023310559 0.02517602
0.022414051 0.02008867 -0.037566293 0.015834972 -0.018863019 -0.008171569 0.064750694 0.030005815
0.0006678494 0.010872 0.0060673743 0.030612947 -0.010822729 -0.027171962 0.024756916 -0.00503359
0.02852922 -0.009760476 -0.008724076 -0.0048725964 0.020326473 -0.010358821 -0.031780384 0.027545279
0.045955475 -0.04867274 -0.0066908468 -0.032747306 0.042098682 0.0029969357 -0.00056317623 -0.003648082
0.008202739 -0.0023049887 -0.02468914 0.022654254 0.03529404 0.008379984 -0.0038229728 0.014192374
-0.019576604 0.032153912 -0.013512481 0.0035101026 -0.035713132 -0.0028817644 0.04982666 -0.0035770705
0.023327133 -0.0016744169 -0.0051844884 -0.02448522 0.018230045 0.006122581 -0.024846656 -0.024937877
0.0074597015 0.016181992 -0.012041996 0.0063076033 0.036043976 -0.024470966 -0.017923376 0.031359304
-0.00028182377 -0.0059511093 0.01967427 0.015799088 0.009868725 0.03808348 0.08916864 -0.031056013
0.010964952 -0.011220745 0.00422238 -0.01048467 0.008364847 0.025223283 0.063293874 0.0007193131
-0.04087705 -0.028481971 0.02479213 0.048522096 -0.03817655 0.007781863 -0.027465355 0.016406018
0.0023771075 -0.03595437 0.03445674 0.026883606 0.0037400473 0.016497457 0.024369143 0.024959011
0.01475476 0.018491378 0.034342725 -0.02006725 0.010798938 0.042515926 8.551816e-05 0.012401412
-0.011396334 -0.0077491226 -0.012829663 0.02984685 -0.0032677194 -0.04193357 0.014915647 -0.01372769
0.014621459 0.015079639 0.018380487 -9.388105e-05 -0.004285278 0.01830183 0.024732819 0.013686581
0.048495382 0.020719763 -0.011767095 0.04805085 0.041032013 0.013774012 0.070260316 0.027650606
-0.004539706 0.034039106 -0.0059344238 0.01691639 0.042019006 0.029871646 0.020010121 0.0005638773
-0.008831203 0.03184704 -0.04805214 -0.08033759 -0.023077635 -0.03339785 -0.012673543 0.013274832
-0.0077854157 0.014318412 -0.028325193 0.03440648 0.01688748 0.010820443 0.0053919777 -0.010524333
0.0115634315 -0.00518697 0.036032777 -0.023791308 0.0023332187 -0.03515093 -0.008912993 0.0059438176
-0.009838538 0.007881813 0.0061016255 -0.019035643 0.020880526 0.013860175 -0.0021535605 -0.04547319
0.0104783755 0.06837243 0.01258389 -0.0022195317 0.00924061 -0.006190697 -0.012147052 -0.01418053
0.015981855 0.029039416 0.010185514 -0.007325957 0.005077506 -0.0071785795 -0.014558627 0.024450094
-0.013557986 -0.028578756 0.023055673 0.02195546 -0.006259996 0.047348972 -0.034320872 0.017093642
-0.015547532 0.028218744 0.011186862 0.04427512 0.017418934 0.026824273 0.024809219 0.055464283
0.03635802 0.040918104 -0.004246516 0.0239318 0.0014036078 -0.011414262 0.014507023 0.050221816

output_mlp.0.bias f4 [128]
00000000: 9bab 3cbd 467b 51be 35a2 efbd f6d9 0dbe
00000010: 3efe d8bd bd30 adbd 16d6 54bd bfc5 0b3e
00000020: 0281 90bd 5d5f 9b3c edc2 f6bd 873f a1bd
00000030: f37f 13bc 4fba babc 69b0 83bd 8101 6abd
00000040: 5aaa 47bc 2602 193d 5908 56bd 26f3 f1bd
00000050: 57eb afbd d4fb db3d 69ef 1b3c b089 09bd
00000060: c4ec 11bd ec9e a2bd 92bd 46bd d4f8 93bd
00000070: 2900 90bd f744 dd3d cc21 14bd 7633 fdbd
00000080: 5c30 dabd c73f edbd f072 aa3e 1fa7 67bd
00000090: 74ed b1bd fd8f 3dbe b1d1 973d c845 3d3d
000000a0: adb1 93bd 2107 bebd f888 93bd 74c2 ee3d
000000b0: 37eb 99bd aac2 6e3e 7f6d 05be 38fa 1dbe
000000c0: c4d3 a1bd 7ad9 acbc 4b0a 5e3d bf3a 8ebc
000000d0: 9fcd a7bd e4e5 9dbb cd7c e7bd 5e15 953d
000000e0: 315b eabd 15bd 8ebc e26c ed3d f69a d2bc
000000f0: 4015 aabd 58bc d63d bae0 b9bd f7d6 1d3e
00000100: 1dcd 86bd 757a 023e 8143 7fbd db70 11be
00000110: 78cd 233d 427d 90bd 5fa4 663e 36ea 143e
00000120: 5a8a a83d 750c 953d 0eee 13bd 17d8 9fbc
00000130: 9294 f6bd 4e8f 36be 25d0 70be 5491 c2bd
00000140: b781 fab9 ea69 303e 5474 8ebd d70c a2bd
00000150: cec0 9c3c 3608 a8bd 5ee9 2b3d 25ee 06bd
00000160: 7587 9fbd 852a 72bd 34f3 ef3d 2f82 5abc
00000170: d745 a93c 8e01 01be 5d5a 53bd c1f9 663d
00000180: 6ddb c33c 0a83 80bd a38d 94bd b66d 98bd
00000190: 682b 39bd 397b f1bd 6deb 8bbd 2e9b 483e
000001a0: 9025 243e e9fb a2bd 998b b63c 6249 b33d
000001b0: 4bee b4bd e88a c4be 7336 283e b447 efbd
000001c0: 45f9 1e3e 8209 1ebe d3ee b8bd 4c7b acbd
000001d0: 5236 d03d fb5a 9bbd 8127 293c 8049 653d
000001e0: 16a4 8e3c 27f0 0a3d d4ba a5bd 5ade bdbe
000001f0: 926b 0c3e c930 43bd 8fb4 463e 970d c5bc
-0.046062093 -0.20457181 -0.117008604 -0.13852677 -0.10595368 -0.08456562 -0.05196198 0.13649653
-0.07055856 0.018966371 -0.12048898 -0.07873445 -0.009002673 -0.022793917 -0.06430132 -0.05713034
-0.012186611 0.037355565 -0.052254055 -0.11813955 -0.085898094 0.10741392 0.009517529 -0.033578575
-0.035626188 -0.07940468 -0.048520632 -0.072251946 -0.070312805 0.108041696 -0.036165044 -0.12363331
-0.10653755 -0.1158443 0.33290815 -0.056555863 -0.08687869 -0.18511958 0.07413042 0.046209127
-0.07211623 -0.092787035 -0.07203859 0.11658183 -0.07515567 0.23316446 -0.1303005 -0.15427482
-0.07901719 -0.021099795 0.054209035 -0.017361997 -0.08193516 -0.004818665 -0.11303101 0.07279466
-0.11443175 -0.017424146 0.115930334 -0.025708657 -0.08304834 0.104851425 -0.09076066 0.15414034
-0.06582091 0.12742026 -0.062320236 -0.14203207 0.039990872 -0.07055141 0.2252364 0.1454247
0.082295135 0.072777666 -0.0361157 -0.01951222 -0.12040056 -0.17828104 -0.23516901 -0.095003754
-0.0004778036 0.17227903 -0.069557816 -0.07912605 0.019134905 -0.08204691 0.041970603 -0.032941956
-0.07789508 -0.05912258 0.11716309 -0.013336702 0.020663185 -0.1259825 -0.05159985 0.056390528
0.023908341 -0.06274994 -0.072535776 -0.07442801 -0.04520741 -0.11791081 -0.06832013 0.19590446
0.16029954 -0.07958204 0.022283362 0.08754231 -0.08834513 -0.38387227 0.1642702 -0.11683598
0.15524776 -0.15433314 -0.09029927 -0.084219545 0.10166611 -0.075857125 0.01032436 0.0559783
0.017412227 0.033920433 -0.08092275 -0.37083703 0.1371291 -0.047653947 0.19404815 -0.024054332

output_mlp.2.weight f4 [9, 128]
00000000: 0d0c cc3c 069c 8bbd 5a70 acbc c7b5 8ebc
00000010: 0584 ed39 8fb1 b4bc 36a3 713b b54b 5dbd
00000020: 8318 f8bb bdce f2bc 8907 81bb 9d64 843d
00000030: 70d2 0ebd 7c92 6fbc 3f04 003d 9452 be3b
00000040: c119 383c 2c01 23bd 94f7 8abb 94a9 893c
00000050: 1657 963c 5194 dfbd 043d 273c 7aae a1bb
00000060: a058 263d ef24 12ba b08d 2bbb 9f93 34bc
00000070: cfa2 493c b104 e7bc 9aee 143d 755a ebbb
00000080: ef31 c2bc 7852 ab3a 2478 3cbd 5db7 94bc
00000090: 30c4 01bb e966 f13c bd5d 9cbd 6f1f c53c
000000a0: 050a 8a3b 4b44 6cbd 5d18 36bc 5146 c5bc
000000b0: bbb4 593c ff19 5fbd 04db eebb 9b46 6c3c
000000c0: 6e66 2d3c d8ff c7bc 5eb6 17bc adf8 0cbb
000000d0: 8625 7f3d 73b1 5cbd 18ae 50bc 64d0 49bd
000000e0: 40da 76bc ca0e e83c 523e b4bb ae34 e63c
000000f0: 0210 79bc 59f5 4dbd 45dc 293d 4627 cabc
00000100: b93a 223b 1e0a c8bd a7d7 503d 1f35 76bd
00000110: b40e 99bc 1a24 d73c 72a8 76bd c4b1 f9bc
00000120: 31c3 9ebc cbfa 5ebd 4985 143d b812 44bc
00000130: 95ff 8f3b 6f08 823d 276b 23bd d954 c2bb
00000140: 5444 353a a312 22bd c47a 09bc d645 aebb
00000150: f21c 07bd 3f04 91bc 0aa0 b73c f740 253d
00000160: 6a6a a33b 139d 613c bfc5 54bd 7565 f53c
00000170: c0d8 6bbc 2853 0abc 27fa a4bc cde6 85bd
00000180: 981f c6bd 6f36 493b 1e9f 9f3c 3a7d c43c
00000190: 0237 8b3c 0766 083d 6729 41bc c9e7 39bb
000001a0: ad75 9dbd f048 063b 1e32 51bd 28da 50bd
000001b0: 683b 98ba 910c 2abd 960b a3bd 8b1a cebc
000001c0: 3cd4 94bd 5d2e fd39 8643 553c 21e7 c13b
000001d0: e899 8bbd 7ed3 f83c 7a50 93bc e525 663c
000001e0: 062f e73b b86c d9bc a9dc f1bb bac7 70bd
000001f0: 0ab9 1cbc bc1a 37bc bccd 86bd d675 98bc
00000200: 9a48 443d b695 79bd 708f 93bd 206d 783b
00000210: 274d d63c 62fe ef3c 712a c73c 4f23 b0bd
00000220: 640d b73c 6380 9abd c4d6 063d 3914 613d
00000230: 37bd 01bd 86d6 d1bc 2756 233d 6a41 143d
00000240: ec6d f53c 9a82 52bd 76ef 5a3c 6105 173d
00000250: 705b fa3c 087e 52bd 07bb 673d 406d 543d
00000260: 2e88 b43c 9663 c03c 776f e03c 151d 7f3d
00000270: b79f 083d 4408 dbbd c3f2 1b3d bd6a 803c
00000280: 6449 2fbc 6c68 003c 505f 1fbd ff09 873d
00000290: 7d18 84bd 00ac 833d 3eb6 9cbd f444 7bbd
000002a0: 965e 893d dd25 41bd 73a6 bfbc a2c6 21bd
000002b0: 128d 423d d193 8dbd acb6 3e3d 1af5 22bd
000002c0: 1a23 d53c 4790 87bd fb08 69bd 7604 5ebc
000002d0: 8267 a73c 746c 7dbd ffc0 c63c a983 40bd
000002e0: 2d4d 41bd 2a03 263d 52ce 71bd 36fd 063d
000002f0: 9d8a c13c 5566 88bd f5ed 2d3d 7b04 1fbd
00000300: 6822 263d a782 94bd 0b67 543d 26b6 51bc
00000310: 14bf 45bd e1ef 313b b4a4 aabd b069 08bd
00000320: 72d0 0fbc 86c4 51bc 3cc5 443d 44e2 27bd
00000330: 3707 04bd e3cf 093c 6987 bbbd 3290 5c3d
00000340: ce64 a9bc 4502 b0bd 2e23 7c3d ecab 2c3d
00000350: 03d2 d6bd 308d 2c3d f5f0 1dbd ba6c 4e3d
00000360: cccb 45bd ae76 4f3d b65f 4fbd 5768 453d
00000370: 4dd3 3bbd bc8c a2bd 5b6d 2d3d ae0e 29bd
00000380: ce99 b7bd d255 9a3d 5504 c83c 67fd ce3c
00000390: 6430 f23c 68c4 103d 23f6 c53c 22e4 bcbd
000003a0: b25b 24be 871b 0b3d b709 45bd 676e 05bd
000003b0: f703 393c 73db 8dbd c1f1 c3bd cfa7 103c
000003c0: 0777 83bd 038f 2fbd 15ea 993c 6ba7 edbc
000003d0: 8004 94bd 64f1 973d fa16 f8bc aa7e f0bb
000003e0: 31bd 3abd 05c0 5bbd 5218 563c b185 7dbd
000003f0: a86f 7bbd 3f86 253d 8bf9 94bd 956a 5c3d
0.02490809 -0.068168685 -0.021049667 -0.017420663 0.00045302525 -0.022057323 0.0036870963 -0.054027278
-0.0075712814 -0.029639596 -0.003937666 0.06464503 -0.034868658 -0.014622327 0.03125405 0.005808184
0.011236609 -0.03979604 -0.0042409394 0.016804494 0.018352073 -0.10916961 0.010207418 -0.0049341293
0.040611863 -0.00055749615 -0.0026176982 -0.011021524 0.012306883 -0.02820048 0.03636036 -0.007182414
-0.02370545 0.0013070842 -0.046013013 -0.01815384 -0.0019800775 0.029468017 -0.07635067 0.02406284
0.00421262 -0.057682317 -0.011114207 -0.024081381 0.013287718 -0.05446815 -0.0072892923 0.0144211305
0.010583503 -0.024413988 -0.009259788 -0.0021510527 0.062291645 -0.053880166 -0.01273682 -0.049271002
-0.015066683 0.028327364 -0.005500593 0.028101292 -0.0152015705 -0.05028281 0.04146983 -0.02467693
0.002475424 -0.09767555 0.050986912 -0.060109254 -0.018683769 0.026262332 -0.060219236 -0.030480273
-0.019380184 -0.054438394 0.036259923 -0.0119673535 0.0043944814 0.06349265 -0.03989711 -0.005930525
0.0006914784 -0.039568555 -0.008391086 -0.0053183837 -0.03298659 -0.01770222 0.02241518 0.04034516
0.004987051 0.01377036 -0.051946398 0.029955605 -0.014394939 -0.008442678 -0.020138813 -0.065381624
-0.09673995 0.003070261 0.019485053 0.023985494 0.016994003 0.033300426 -0.011789656 -0.0028366914
-0.076884605 0.0020490251 -0.051073186 -0.0509893 -0.0011614384 -0.04151589 -0.07961194 -0.025159141
-0.07267043 0.00048290464 0.013016587 0.0059174453 -0.06816465 0.030374285 -0.01798271 0.014047121
0.007055166 -0.026541099 -0.007381041 -0.058784224 -0.009565601 -0.011175808 -0.065822095 -0.018610876
0.0479208 -0.06093379 -0.07205093 0.003790684 0.026159836 0.029296104 0.02431223 -0.086004846
0.022345252 -0.07544019 0.03291966 0.054950926 -0.03167459 -0.025614988 0.039877083 0.036195196
0.029959641 -0.051394083 0.013362756 0.036870364 0.030561179 -0.051389724 0.056574848 0.051862
0.022037592 0.023484986 0.0273969 0.062283594 0.03335544 -0.10694936 0.038073312 0.015675897
-0.01069865 0.007837396 -0.038909256 0.065937035 -0.06449983 0.06429291 -0.076519474 -0.061345056
0.06707494 -0.04715525 -0.023394799 -0.03949607 0.047497816 -0.06912959 0.04656093 -0.03978453
0.026017714 -0.066193156 -0.05689333 -0.013550868 0.020435099 -0.061871007 0.02426195 -0.04700056
-0.04719274 0.04053036 -0.059034653 0.032956325 0.023625666 -0.06660143 0.04246326 -0.038822632
0.040560156 -0.072514825 0.051856082 -0.012799775 -0.04827793 0.0027151036 -0.08332196 -0.033303916
-0.008777725 -0.0128032025 0.04803966 -0.040987268 -0.032233443 0.00841138 -0.09156687 0.053848453
-0.02067795 -0.08594183 0.061556987 0.042156145 -0.10489275 0.042126834 -0.038559873 0.05039666
-0.04829006 0.05065029 -0.050628386 0.04819521 -0.04585581 -0.07936999 0.042340618 -0.041273765
-0.08964883 0.075359 0.024416128 0.025267316 0.02956409 0.035343558 0.024165219 -0.092232004
-0.16050604 0.0339618 -0.048104968 -0.03257599 0.011292449 -0.06926622 -0.09567595 0.008829071
-0.06419187 -0.042860996 0.018788377 -0.029010495 -0.07227421 0.074190885 -0.030284394 -0.0073393183
-0.045590583 -0.05364992 0.013067322 -0.061895076 -0.06138578 0.04041123 -0.07274159 0.053812582

output_mlp.2.bias f4 [9]
00000000: f43b 96bc 9faf 1dbd 979c 0abd 6761 bb3d
00000010: 1746 f53d c28e 11bd 69b0 0dbd db9f 8dbb
00000020: 1895 973c
-0.018339135 -0.038497563 -0.033840742 0.091494374 0.11976259 -0.035536535 -0.034592066 -0.004322035
0.01850371
