log/segmentation/pn/bucket/weighted/pn_20.pth (torch, 337359 bytes, 8 tensors)

local_mlp.0.weight f4 [64, 3]
0.52578306 0.40051696 0.24190363 -0.68380576 -0.4215007 0.13843343 -0.07817079 1.1320472
-0.11685281 0.6879848 -0.23713352 0.039387934 -0.58238524 0.095771566 0.3882117 0.6379952
-0.2626394 0.015692038 0.5646026 0.3337979 0.13693994 0.24639961 0.77356833 -0.015284467
-0.273156 0.8390784 -0.29630426 -0.18714836 0.96447045 -0.20904066 0.24017219 -0.06321321
-0.25108293 -0.41927752 0.38167432 0.61809766 0.54406685 -0.06799916 -0.04352659 -0.76002693
-0.38504776 0.2424093 0.58171475 0.27864137 0.1315479 0.36908346 0.542309 0.14262715
-0.7177043 -0.3535705 0.2659966 0.619802 0.22809874 0.13640477 -0.6746067 -0.44531977
0.31132457 0.32632825 0.5681198 0.0500129 -0.67493093 -0.39995342 0.2949501 0.6280748
0.044995878 0.07558953 0.20829171 0.9287579 0.008761564 0.3649696 0.63663876 -0.030912843
0.56446373 0.32223067 0.21306714 0.5792871 -0.14158005 -0.01919625 -0.7001575 -0.43218258
0.3012403 0.15391955 0.69422156 0.052601114 -0.4496259 -0.69362026 -0.038032643 -0.75091887
-0.37503037 0.24169816 -0.73362684 -0.37448257 0.22947486 -0.7438824 -0.38196135 0.2590495
-0.7640802 -0.36035204 0.22610146 -0.75173485 -0.3862569 0.19585422 -0.68293303 -0.38894516
0.17559847 0.18735027 -0.20252591 -0.21978815 -0.74721324 -0.36627242 0.24941267 0.32405004
0.7474578 -0.07193658 -0.067891136 0.9624108 -0.28777924 0.6411968 -0.107399344 0.037682716
-0.15847044 1.0372505 -0.1845085 -0.700507 -0.35138494 0.18846314 -0.6996739 -0.40003997
0.27949762 0.24015757 0.72935903 -0.05140974 -0.756472 -0.38354957 0.22854684 -0.31697577
0.8534704 -0.27040482 0.31638795 0.6135767 0.048374325 0.47944605 0.4305723 0.100384295
-0.6709258 -0.28885192 0.31147593 0.19434157 -0.16530147 -0.23128887 0.32607365 0.5954166
-0.11448976 0.64672863 0.054414283 0.09799208 -0.69146615 -0.41533688 0.3021068 0.43673727
0.0035013934 -0.08717357 0.45562372 -0.1766437 -0.08520586 -0.09994035 1.015712 -0.21244268
0.6218046 0.104731664 0.13279215 0.010811408 1.2247615 -0.0397369 0.45267224 -0.07379344
-0.092272215 -0.68527174 -0.3528001 0.24032803 -0.6551946 -0.31590602 0.24466269 0.5956712
-0.16136077 -0.024635715 0.1395078 1.0237205 -0.011648827 -0.67735475 -0.4111065 0.2929244
00000000: b899 063f 8f10 cd3e 96b5 773e e50d 2fbf
00000010: f1ce d7be 7ec1 0d3e 0218 a0bd ece6 903f
00000020: 8750 efbd c61f 303f 21d3 72be 3e55 213d
00000030: 3317 15bf e223 c43d afc3 c63e a753 233f
00000040: ac78 86be 978c 803c cc89 103f 8fe7 aa3e
00000050: fc39 0c3e 2e50 7c3e 9308 463f b36b 7abc
00000060: 1adb 8bbe d8cd 563f 31b5 97be d2a3 3fbe
00000070: 89e7 763f c10e 56be b3ef 753e ed75 81bd
00000080: f18d 80be 8bab d6be d16a c33e a63b 1e3f
00000090: f747 0b3f 2543 8bbd f048 32bd 2091 42bf
000000a0: fb24 c5be 253a 783e 42eb 143f 15aa 8e3e
000000b0: 7eb4 063e 82f8 bc3e c3d4 0a3f da0c 123e
000000c0: 78bb 37bf 3107 b5be b530 883e 58ab 1e3f
000000d0: b792 693e b1ad 0b3e 06b3 2cbf f400 e4be
000000e0: ef65 9f3e 7f14 a73e 4d70 113f 54da 4c3d
000000f0: 46c8 2cbf b2c6 ccbe b303 973e 83c9 203f
00000100: 994d 383d afce 9a3d 6c4a 553e 14c3 6d3f
00000110: aa8c 0f3c 4cdd ba3e c2fa 223f ee3c fdbc
00000120: b280 103f 6bfb a43e 462e 5a3e 294c 143f
00000130: 5cfa 10be 7441 9dbc 863d 33bf 0947 ddbe
00000140: 2b3c 9a3e 169d 1d3e 81b8 313f 4474 573d
00000150: 5e35 e6be 1991 31bf 1ec8 1bbd 383c 40bf
00000160: fb03 c0be b97f 773e f8ce 3bbf 2ebc bfbe
00000170: 75fb 6a3e 146f 3ebf 7090 c3be 23a2 843e
00000180: c39a 43bf 1080 b8be 2487 673e b271 40bf
00000190: 77c3 c5be 028e 483e b3d4 2ebf d223 c7be
000001a0: 16d0 333e c0d8 3f3e f462 4fbe 2510 61be
000001b0: 5e49 3fbf 0f88 bbbe 0966 7f3e e3e9 a53e
000001c0: 6559 3f3f 7c53 93bd 820a 8bbd 8e60 763f
000001d0: cd57 93be 7925 243f 30f4 dbbd 3159 1a3d
000001e0: 1346 22be a0c4 843f ccef 3cbe 6d54 33bf
000001f0: bae8 b3be 7bfc 403e d41d 33bf 0ad2 ccbe
00000200: 501a 8f3e deeb 753e 46b7 3a3f 0593 52bd
00000210: 26a8 41bf 9c60 c4be 2f08 6a3e a64a a2be
00000220: 097d 5a3f 8072 8abe 9afd a13e 5d13 1d3f
00000230: 2824 463d f479 f53e f973 dc3e 4896 cd3d
00000240: cbc1 2bbf 66e4 93be c679 9f3e 7a01 473e
00000250: ca44 29be fdd6 6cbe 20f3 a63e 396d 183f
00000260: 9b79 eabd 0290 253f 83e1 5e3d 12b0 c83d
00000270: ed03 31bf 09a7 d4be bead 9a3e 079c df3e
00000280: a277 653b 0f88 b2bd 8347 e93e 16e2 34be
00000290: 6980 aebd 87ad ccbd da02 823f 938a 59be
000002a0: 962e 1f3f 8e7d d63d aafa 073e 5522 313c
000002b0: fcc4 9c3f 29c3 22bd a8c4 e73e 0421 97bd
000002c0: 37f9 bcbd f86d 2fbf 37a2 b4be 8d18 763e
000002d0: d5ba 27bf 6fbe a1be db88 7a3e e87d 183f
000002e0: c23b 25be d7d0 c9bc 22db 0e3e 4609 833f
000002f0: b9da 3ebc 1f67 2dbf 8d7c d2be 30fa 953e

local_mlp.0.bias f4 [64]
-0.02224153 -0.06395937 -0.03453396 -0.14273897 -0.2346515 -0.13210632 -0.06694563 0.17820658
-0.041718572 -0.07147927 0.511228 -0.21883191 -0.070436716 -0.16246693 -0.0689827 -0.004697284
-0.1923195 -0.0796001 -0.23091072 0.066118665 -0.19553542 -0.1020984 0.17931348 0.106489554
-0.065058425 -0.09236128 -0.24317153 0.16935784 0.14684449 -0.16344018 -0.1378503 -0.20920824
-0.15844484 -0.09767002 -0.069499426 0.43201324 -0.17998298 0.26740736 -0.07397536 -0.1257829
-0.059988845 -0.10216601 -0.19812426 0.3219516 -0.15201478 -0.04016084 0.02007744 -0.07395316
-0.22822446 0.39669767 0.37543815 -0.12778653 -0.21394488 -0.0012923109 -0.047000628 -0.06850559
-0.108286195 0.026623499 -0.016551541 -0.1062976 -0.14319463 -0.093532525 0.32678422 -0.20836493
00000000: de33 b6bc 21fd 82bd 7b73 0dbd 2a2a 12be
00000010: 7c48 70be e146 07be ca1a 89bd c97b 363e
00000020: 18e1 2abd b963 92bd d7df 023f 7915 60be
00000030: 2041 90bd bb5d 26be cd46 8dbd adeb 99bb
00000040: 67ef 44be 6105 a3bd dc73 6cbe 3969 873d
00000050: 703a 48be f718 d1bd f49d 373e 3217 da3d
00000060: 5a3d 85bd e927 bdbd f501 79be 246c 2d3e
00000070: 675e 163e dd5c 27be a128 0dbe af3a 56be
00000080: 5d3f 22be 3807 c8bd b755 8ebd d730 dd3e
00000090: 754d 38be 9ee9 883e 6580 97bd 3ccd 00be
000000a0: ddb6 75bd 6a3c d1bd 16e1 4abe d7d6 a43e
000000b0: c3a9 1bbe b17f 24bd 7279 a43c c174 97bd
000000c0: acb3 69be f51b cb3e 6e39 c03e 79da 02be
000000d0: 5e14 5bbe c262 a9ba bb83 40bd a94c 8cbd
000000e0: 27c5 ddbd 8619 da3c 1997 87bc 8eb2 d9bd
000000f0: 9da1 12be fb8d bfbd 4350 a73e 9e5d 55be

local_mlp.2.weight f4 [256, 64]
0.23370652 -0.19134618 -0.33610883 0.61446905 0.45262665 0.6097663 0.2376507 -0.34247878
-0.18713845 -0.24891411 -1.0173855 0.44252807 0.2815663 0.14925249 0.28981316 0.11885254
0.25138056 0.33999074 0.38339025 -0.06425588 0.2797698 0.40190098 -0.35000074 -0.23936138
0.29328704 0.3800649 0.31890145 -0.22236969 -0.423801 0.18943973 0.1519216 0.16829492
0.11901647 -0.014618203 -0.02156762 -1.1701468 0.18602894 -0.5301833 -0.25658187 0.47490343
-0.3133203 0.017604547 0.25275642 -0.5298441 0.12837948 -0.19469842 -0.031297445 0.23071411
0.3424265 -1.0627468 -0.6542259 0.42813113 0.3378698 -0.0188491 0.22523162 -0.2370744
0.3925647 -0.48291957 0.06255758 0.17794387 0.21372512 0.43602636 -0.6149383 0.28560954
0.12154476 -0.16223419 -0.37024137 0.42605698 0.02475451 0.3927665 0.17784335 -0.09718608
-0.16490866 -0.1897963 -0.42858973 0.01920558 0.27180576 -0.02389965 0.15996128 0.059951145
-0.011680992 0.23503715 -0.012680606 0.0038045153 -0.021436263 0.31405202 -0.067295484 0.0008706096
0.18639843 0.3352104 0.028664317 -0.15231712 -0.3795368 -0.037466444 -0.015663084 0.07906822
-0.02051293 -0.08919287 -0.15678704 -0.59153926 0.018877616 -0.20450415 -0.23574045 0.40369195
-0.33990517 -0.08440705 -0.015158513 -0.3739253 -0.028173117 -0.18673374 0.028858684 0.17758022
0.011443878 -0.43036288 -0.40221703 0.34394714 -0.03486888 0.20959422 0.25211695 -0.2538448
0.2947585 -0.39466572 0.2240345 -0.071093135 -0.026645212 0.35153973 -0.3947831 0.018488703
0.08563717 -0.16829836 0.06480376 -0.13704348 0.10960518 -0.17381486 0.053025074 -0.011709132
-0.0065680817 -0.00023043415 -0.15883328 0.06303376 0.032038994 0.03622451 0.04691126 0.06589776
0.073314056 0.060048595 0.08496856 0.07336918 0.049217895 0.01790387 -0.05980438 0.052100345
0.06459898 -0.038528383 0.04003134 0.07613202 -0.26134333 0.030999567 0.05710477 0.0020366916
0.007311647 0.012982301 0.015207623 -0.25944492 0.0313797 -0.036840506 0.020506632 -0.045594886
0.077164315 0.0065274327 0.03597828 0.024735037 0.016100354 -0.001447418 0.0692132 0.041372664
0.11051971 -0.26091462 -0.045205496 -0.04155099 0.04626974 0.02292572 -0.08162871 0.023385268
0.018475266 0.013740515 0.019344537 0.09328043 0.09298981 -0.08579747 -0.01364206 0.121469855
0.1182367 -0.040462345 -0.078843884 0.6320626 0.36935538 0.67051274 0.20774585 -0.35123652
0.15008207 0.082270674 -0.47265902 0.31244922 0.39558437 0.19511664 0.22467625 0.002145456
0.27727202 0.331527 0.3298308 -0.07664212 0.23524447 0.41725776 -0.26974848 -0.21758525
0.21565452 0.48560828 0.43624726 -0.25650975 -0.47578236 0.17539172 0.19100729 0.4095042
0.22057743 0.11143368 0.017310537 -0.5698578 0.2027404 -0.60167634 0.044677313 0.49503464
0.026616115 0.09747359 0.26309606 -0.6653046 0.19450901 0.21964328 -0.050120328 0.15906987
0.33826587 -0.44720748 -0.8046918 0.42922544 0.26407966 0.22682343 0.50795704 0.026475644
0.36629972 -0.068714805 0.343191 0.1862341 0.20914395 0.56852114 -0.6555405 0.31527403
00000000: c350 6f3e 41f0 43be 7516 acbe d84d 1d3f
00000010: aebe e73e a519 1c3f b55a 733e 6159 afbe
00000020: 39a1 3fbe 57e3 7ebe b039 82bf 0a93 e23e
00000030: 7529 903e a5d5 183e 6462 943e f668 f33d
00000040: f4b4 803e 4413 ae3e ba4b c43e 9698 83bd
00000050: fd3d 8f3e f7c5 cd3e 4c33 b3be 261b 75be
00000060: b829 963e de97 c23e 0d47 a33e e1b4 63be
00000070: 72fc d8be 7dfc 413e 5691 1b3e 8155 2c3e
00000080: e8be f33d 3081 6fbc 94ae b0bc 5fc7 95bf
00000090: 5f7e 3e3e 18ba 07bf b35e 83be 8b26 f33e
000000a0: 856b a0be 6937 903c 4a69 813e dda3 07bf
000000b0: e975 033e 065f 47be c031 00bd 5240 6c3e
000000c0: 8752 af3e 1608 88bf 597b 27bf 0134 db3e
000000d0: 45fd ac3e 6e69 9abc 1ea3 663e a2c3 72be
000000e0: 3efe c83e 3c41 f7be 301e 803d eb36 363e
000000f0: c2da 5a3e d93e df3e 996c 1dbf 6a3b 923e
00000100: 76ec f83d b820 26be 4790 bdbe 2424 da3e
00000110: f8c9 ca3c b118 c93e 911c 363e 7f09 c7bd
00000120: d1dd 28be f659 42be 1d70 dbbe 0555 9d3c
00000130: 202a 8b3e 33c9 c3bc e4cc 233e 558f 753d
00000140: a261 3fbc 94ad 703e 51c2 4fbc 2d55 793b
00000150: 1a9b afbc 6dcb a03e 37d2 89bd 9f39 643a
00000160: 3bdf 3e3e b3a0 ab3e 6ed1 ea3c 05f9 1bbe
00000170: a652 c2be 6a76 19bd de4f 80bc 85ee a13d
00000180: bb0a a8bc c0aa b6bd c88c 20be 1e6f 17bf
00000190: 3ba5 9a3c 8969 51be f265 71be b6b0 ce3e
000001a0: 0d08 aebe 9add acbd 695b 78bc 2373 bfbe
000001b0: 4fcb e6bc 2137 3fbe 0c69 ec3c 97d7 353e
000001c0: 1a7f 3b3c 8658 dcbe 64ef cdbe d719 b03e
000001d0: acd2 0ebd de9f 563e 7915 813e f2f7 81be
000001e0: 96ea 963e a011 cabe 4d69 653e 4799 91bd
000001f0: 0f47 dabc 04fd b33e 0321 cabe 9f75 973c
00000200: 8a62 af3d 6856 2cbe d5b7 843d 2055 0cbe
00000210: ae78 e03d 86fc 31be d230 593d a9d7 3fbc
00000220: 1039 d7bb b2a0 71b9 31a5 22be d817 813d
00000230: 523b 033d 2760 143d 0526 403d 68f5 863d
00000240: ae25 963d 84f5 753d ff03 ae3d 9542 963d
00000250: b498 493d 23ab 923c 70f5 74bd 2c67 553d
00000260: 784c 843d f0cf 1dbd e7f7 233d 1beb 9b3d
00000270: cbce 85be cef2 fd3c b1e6 693d 047a 053b
00000280: 8a96 ef3b b8b3 543c 6529 793c f7d5 84be
00000290: 0088 003d 12e6 16bd 86fd a73c b4c1 3abd
000002a0: 5308 9e3d 13e4 d53b f65d 133d 22a1 ca3c
000002b0: e4e4 833c 4ab7 bdba a6bf 8d3d 6276 293d
000002c0: 2858 e23d 9a96 85be 6629 39bd 5f31 2abd
000002d0: 5785 3d3d b8ce bb3c f42c a7bd 7692 bf3c
000002e0: 7159 973c e61f 613c 6f78 9e3c cf09 bf3d
000002f0: 7171 be3d 95b6 afbd f282 5fbc 30c5 f83d
00000300: 1526 f23d d8bb 25bd e778 a1bd dbce 213f
00000310: 261c bd3e b9a6 2b3f 54bb 543e 46d5 b3be
00000320: 1daf 193e 877d a83d 5d00 f2be 58f9 9f3e
00000330: 098a ca3e a8cc 473e 8811 663e c79a 0c3b
00000340: 99f6 8d3e e8bd a93e 95df a83e 8bf6 9cbd
00000350: ede3 703e cfa2 d53e 791c 8abe abce 5ebe
00000360: 8ad4 5c3e a6a1 f83e cd5b df3e 3f55 83be
00000370: bf99 f3be e399 333e 6a97 433e 89aa d13e
00000380: 0ddf 613e 5737 e43d d4ce 8d3c 33e2 11bf
00000390: 2e9b 4f3e 7607 1abf 8fff 363d 2e75 fd3e
000003a0: 0a0a da3c 3ca0 c73d 87b4 863e 6751 2abf
000003b0: 5f2d 473e 2bea 603e f94a 4dbd 36e3 223e
000003c0: 2f31 ad3e 61f8 e4be 4800 4ebf 70c3 db3e
000003d0: 7335 873e 6744 683e 7909 023f 73e3 d83c
000003e0: a38b bb3e 59ba 8cbd bbb6 af3e 27b4 3e3e
000003f0: d529 563e 9a8a 113f 81d1 27bf 996b a13e

local_mlp.2.bias f4 [256]
-0.21130493 -0.23674591 0.009870422 -0.29644114 -0.30373353 -0.22046001 -0.071795024 -0.036387753
-0.014315096 -0.22577271 -0.24933022 -0.13807671 -0.24141952 -0.23929577 -0.02055199 -0.047540653
-0.18099567 0.002081566 0.14921463 -0.045802146 -0.33623374 -0.20734613 -0.24128912 -0.07967269
-0.19472751 -0.2596016 -0.2933132 0.13091213 -0.2734206 -0.17687222 0.16304357 -0.19686145
-0.24267247 -0.21166548 0.10141252 -0.22957787 0.09468726 -0.2729815 -0.24132335 0.17434986
-0.27529523 -0.2676309 -0.2174775 -0.04389396 -0.21952587 -0.25258276 -0.21415615 -0.21257526
0.080343224 0.1810668 -0.10391377 -0.2235571 -0.16542059 0.16315942 -0.22689892 -0.2163079
-0.22532892 -0.23547107 0.10684726 -0.25537428 0.19975868 -0.052261278 -0.37592143 -0.25340122
-0.19268188 -0.10947485 -0.19256447 -0.18452826 0.098190695 -0.01795806 0.16931927 0.07043713
-0.22247694 0.1184926 0.008444791 0.029926645 -0.11800881 0.16977529 0.015629249 0.064342536
0.03469044 -0.15353906 -0.007125497 -0.22259702 -0.22912997 -0.11340465 -0.0003426516 0.069978304
0.094026655 0.09759641 -0.20083863 0.173892 0.23563589 -0.2716514 -0.24387835 -0.14683554
-0.1908387 -0.16967678 -0.03521423 0.14042585 0.08610627 -0.22961295 0.08579611 -0.0409899
-0.04468022 -0.2899873 -0.26393217 0.10366707 -0.20052806 -0.2448611 0.15217698 -0.0415232
-0.15199488 0.05144776 -0.23007359 -0.1723308 0.1563691 -0.21530592 -0.21763808 0.094520986
-0.260283 -0.087959714 -0.20187117 0.13878861 -0.22856419 -0.26541245 -0.095098644 -0.17678866
-0.2486848 0.08314278 -0.21967535 -0.30213448 0.106623664 0.04284054 0.11188322 -0.20968692
-0.2367974 -0.35189444 -0.19540283 -0.21849115 0.11750593 -0.19058405 -0.17608505 -0.26919082
0.08228453 -0.17652526 -0.18791108 -0.053369198 -0.1838341 -0.2190083 -0.28165388 -0.108335756
0.052667685 -0.23053029 0.0149629675 -0.23159169 -0.28461114 0.17385389 -0.23291548 -0.05310584
-0.074533835 -0.3518613 0.0946864 -0.25869626 -0.22724824 -0.17314759 -0.25151774 -0.08316315
-0.24935557 -0.031914677 0.09531264 -0.25922102 -0.20301008 0.09226829 -0.21790627 -0.033996485
-0.24020168 0.022591783 -0.15773939 0.03287928 -0.22711967 -0.22405265 -0.17435479 0.030545397
0.116823606 -0.24504966 0.1636181 0.20794457 0.044829473 0.1410047 -0.051001534 -0.17101862
-0.36511192 0.03153618 -0.30028412 -0.11125852 -0.25691926 -0.025771983 -0.34179154 0.110366955
-0.20754409 0.030844055 -0.090018846 0.015338898 -0.26429564 -0.18373765 -0.0074247993 -0.25728273
-0.20290944 -0.29255843 -0.2007535 -0.1457721 0.1531689 0.1732401 0.048577134 0.0020588487
-0.17978439 -0.19273792 -0.22064286 0.14004298 0.018961707 -0.26957837 0.0009536391 -0.2886039
-0.24997748 0.11215277 0.026544949 0.036240976 -0.28075817 -0.18800245 0.04548376 -0.3738073
-0.1883362 -0.2623219 -0.2547992 -0.0076517686 -0.023114908 -0.1866697 -0.2156514 0.11375799
-0.3062625 -0.17871527 -0.12032766 -0.20993248 0.0661847 0.18606363 0.0287174 -0.1874798
-0.19258592 -0.2573276 0.23054172 0.064138405 0.029148623 -0.040635552 -0.21003056 -0.18908328
00000000: 5260 58be 856d 72be 8db7 213c 22c7 97be
00000010: f682 9bbe 45c0 61be 4509 93bd 530b 15bd
00000020: dd89 6abc f630 67be 6c50 7fbe fb63 0dbe
00000030: ae36 77be f309 75be a65c a8bc fdb9 42bd
00000040: ee56 39be e26a 083b b8cb 183e 089b 3bbd
00000050: d426 acbe 8b52 54be 7f14 77be 6f2b a3bd
00000060: a666 47be 80ea 84be 262d 96be d40d 063e
00000070: c9fd 8bbe fe1d 35be e5f4 263e 0c96 49be
00000080: 227f 78be d6be 58be 5eb1 cf3d 7616 6bbe
00000090: 65eb c13d 3bc4 8bbe 781d 77be c588 323e
000000a0: 7ff3 8cbe eb06 89be 6cb2 5ebe 27ca 33bd
000000b0: 64cb 60be 8752 81be c04b 5bbe 54ad 59be
000000c0: fd8a a43d 9369 393e bed0 d4bd 27ec 64be
000000d0: 0464 29be 4313 273e 3158 68be d17f 5dbe
000000e0: a0bc 66be 541f 71be bcd2 da3d 6bc0 82be
000000f0: 8a8d 4c3e ec0f 56bd c678 c0be cebd 81be
00000100: 664e 45be 5a34 e0bd 9f2f 45be faf4 3cbe
00000110: 3418 c93d c81c 93bc 0862 2d3e 5841 903d
00000120: ffd0 63be 40ac f23d 055c 0a3c b928 f53c
00000130: 9aae f1bd 93d9 2d3e e908 803c 05c6 833d
00000140: 9017 0e3d 5839 1dbe 007d e9bb 79f0 63be
00000150: 0ca1 6abe b240 e8bd eba5 b3b9 c950 8f3d
00000160: 0c91 c03d a0e0 c73d a4a8 4dbe bf10 323e
00000170: 894a 713e e415 8bbe 3fbb 79be 0e5c 16be
00000180: 386b 43be c0bf 2dbe cc3c 10bd cbcb 0f3e
00000190: 7c58 b03d a81f 6bbe dfb5 af3d 06e5 27bd
000001a0: 9b02 37bd 3779 94be 1e22 87be 674f d43d
000001b0: 3a57 4dbe debc 7abe 48d4 1b3e 3b14 2abd
000001c0: 8ca4 1bbe e3ba 523d 6998 6bbe 7c77 30be
000001d0: 391f 203e 2879 5cbe 84dc 5ebe 3894 c13d
000001e0: d043 85be 3924 b4bd 51b7 4ebe 9a1e 0e3e
000001f0: bb0c 6abe 24e4 87be 14c3 c2bd 1608 35be
00000200: 3aa7 7ebe c346 aa3d 93f2 60be 5fb1 9abe
00000210: 825d da3d 9079 2f3d 0823 e53d 2bb8 56be
00000220: 057b 72be 822b b4be ae17 48be 25bc 5fbe
00000230: f3a6 f03d 7728 43be a44f 34be 61d3 89be
00000240: cb84 a83d 0ac3 34be c36b 40be a999 5abd
00000250: 023f 3cbe b643 60be f034 90be 23df ddbd
00000260: 12ba 573d 2210 6cbe 3c27 753c 5f26 6dbe
00000270: 8db8 91be c106 323e 6581 6ebe 8285 59bd
00000280: 32a5 98bd 2a27 b4be f1ea c13d d673 84be
00000290: c3b3 68be 9a4d 31be efc6 80be 7151 aabd
000002a0: 1157 7fbe f7b8 02bd 4633 c33d 9eb8 84be
000002b0: e0e1 4fbe 28f7 bc3d d222 5fbe e63f 0bbd
000002c0: 6ef7 75be 6712 b93c 6f86 21be 6dac 063d
000002d0: 0f92 68be 0f6e 65be 108a 32be 573a fa3c
000002e0: 3741 ef3d 4cee 7abe 818b 273e 6cef 543e
000002f0: 1c9f 373d 8963 103e fce6 50bd 811f 2fbe
00000300: f3ef babe 152c 013d d7be 99be 82db e3bd
00000310: ec8a 83be c41f d3bc 4dff aebe 1208 e23d
00000320: 7086 54be acac fc3c cd5b b8bd 0050 7b3c
00000330: c251 87be b925 3cbe bb4b f3bb 90ba 83be
00000340: 7ec7 4fbe 38ca 95be 5392 4dbe 4845 15be
00000350: 4fd8 1c3e da65 313e d1f8 463d c0ed 063b
00000360: 6619 38be 175d 45be 34f0 61be 6d67 0f3e
00000370: 9555 9b3c 2d06 8abe a3fd 793a e4c3 93be
00000380: 19fa 7fbe 5ab0 e53d cb74 d93c 6b71 143d
00000390: 89bf 8fbe b783 40be 2e4d 3a3d ac63 bfbe
000003a0: 34db 40be 0e4f 86be 0a75 82be b0bb fabb
000003b0: 7a5b bdbc 5826 3fbe b8d3 5cbe f3f9 e83d
000003c0: 70ce 9cbe 2301 37be 596e f6bd 8af8 56be
000003d0: d88b 873d 7787 3e3e c140 eb3c b4fa 3fbe
000003e0: 3e35 45be 71c0 83be 2113 6c3e ff5a 833d
000003f0: 18c9 ee3c 7771 26bd 4012 57be 0c9f 41be

output_mlp.0.weight f4 [128, 512]
-0.021584041 -0.008700201 -0.019939054 -0.0415725 -0.003340813 0.019126063 0.0200036 0.038451046
0.03433555 -0.00764113 0.03897591 0.010004723 -0.0056795413 0.009478122 -0.011479526 0.034653135
-0.0067067826 -0.022664923 0.010304184 -0.00926961 -0.01188041 0.03360327 0.017332617 0.013839266
-0.013731326 -0.0031365438 0.048621397 0.0035681487 0.053744547 0.018375726 0.034888465 0.050371747
0.03729315 0.037793905 -0.0010744244 0.02409978 -0.00044950633 0.020940246 0.0149781825 0.02280559
-0.0034605775 -0.0025367343 -0.0002827732 0.0026065188 0.0035522787 0.020766534 0.023324687 0.025239062
0.022336377 0.020037925 -0.037111565 0.01592045 -0.01865782 -0.0077933506 0.06480563 0.030009381
0.00096835155 0.011251533 0.006031133 0.030571241 -0.010414852 -0.026658596 0.024899807 -0.0048448946
0.028603364 -0.009640742 -0.008445147 -0.004503025 0.020190854 -0.009957204 -0.031768557 0.027498515
0.04611568 -0.04822712 -0.006744463 -0.03284497 0.04219266 0.002877906 -0.0006372865 -0.0037420385
0.008132951 -0.0021669741 -0.024191368 0.02269467 0.035364747 0.008398744 -0.003159931 0.014131302
-0.019661263 0.03205111 -0.013266154 0.003402537 -0.035347052 -0.002978413 0.049877074 -0.0032501563
0.023390826 -0.0016022754 -0.004696708 -0.024574272 0.018120348 0.0061654365 -0.024907026 -0.024501737
0.0074279727 0.01633777 -0.011948898 0.00620053 0.036298934 -0.024060192 -0.017979834 0.031333726
-0.00017817183 -0.0060128574 0.019751381 0.016314954 0.00981749 0.038126815 0.08934553 -0.03113039
0.01095797 -0.011222573 0.004661477 -0.010510214 0.0083837295 0.02560197 0.06319733 0.00083492557
-0.040824436 -0.028558644 0.024838084 0.048476864 -0.03824235 0.007706895 -0.027545916 0.01647502
0.002844526 -0.035817306 0.034681022 0.026958525 0.003661174 0.016535439 0.024338415 0.024987075
0.014672693 0.018567413 0.03454261 -0.020152185 0.010769295 0.042789366 0.00032584614 0.0125313345
-0.0114557175 -0.0077345697 -0.0129082315 0.030026529 -0.003253857 -0.041398358 0.0149752265 -0.013751453
0.015075471 0.015246572 0.018303817 7.9687576e-05 -0.0039355415 0.018385587 0.025148215 0.013599221
0.048650414 0.020693516 -0.01183742 0.048154235 0.041142307 0.013726394 0.07027087 0.028029408
-0.004504519 0.03394946 -0.005862828 0.016817937 0.042126022 0.029930469 0.02015075 0.0005053096
-0.008904657 0.03195331 -0.048067156 -0.07994923 -0.023140427 -0.03347058 -0.0127063515 0.013368138
-0.007720771 0.0142062595 -0.027751407 0.034663923 0.017011141 0.010701416 0.005527976 -0.010589048
0.0117030805 -0.004720856 0.03652488 -0.023856493 0.002874282 -0.0349617 -0.008967181 0.006207494
-0.00979467 0.008068003 0.0061899554 -0.018971195 0.0207772 0.014251136 -0.0022588065 -0.04502058
0.010530932 0.0682968 0.012761393 -0.0023225436 0.009166155 -0.0058201454 -0.012202734 -0.01400785
0.016033478 0.029005183 0.010771454 -0.007421241 0.005139643 -0.0071287854 -0.014668555 0.024627125
-0.013138593 -0.028548675 0.023094852 0.022574764 -0.006302507 0.04734165 -0.03384378 0.017032452
-0.015009451 0.02818889 0.011290082 0.044310603 0.017335588 0.026775893 0.024699235 0.055892486
0.036542956 0.04104903 -0.0038614408 0.023869785 0.0013182916 -0.011450548 0.014641648 0.05014978
00000000: 04d1 b0bc 4a8b 0ebc 3a57 a3bc ed47 2abd
00000010: 8bf1 5abb 43ae 9c3c 97de a33c d87e 1d3d
00000020: 6fa3 0c3d 7262 fabb 34a5 1f3d daea 233c
00000030: 721b babb 204a 1b3c 9f14 3cbc 72f0 0d3d
00000040: 92c4 dbbb caab b9bc e1d2 283c 90df 17bc
00000050: 0da6 42bc 95a3 093d 22fd 8d3c 17be 623c
00000060: 5bf9 60bc 798e 4dbb 3b27 473d 9ad7 693b
00000070: 3e23 5c3d b188 963c 35e7 0e3d 9b52 4e3d
00000080: b4c0 183d c8cd 1a3d b3d3 8cba e76c c53c
00000090: b8ab ebb9 e18a ab3c 0d67 753c cad2 ba3c
000000a0: dbca 62bb 573f 26bb 2d41 94b9 21d2 2a3b
000000b0: 59cd 683b 941e aa3c 6a13 bf3c 26c2 ce3c
000000c0: c7fa b63c 9326 a43c 4c02 18bd 9b6b 823c
000000d0: 49d8 98bc 5d5f ffbb d0b8 843d 3cd6 f53c
000000e0: f9d8 7d3a 5a58 383c cfa0 c53b 8a70 fa3c
000000f0: 0ea3 2abc 2163 dabc aefa cb3c ecc1 9ebb
00000100: 9a51 ea3c 34f4 1dbc 845d 0abc 1d8e 93bb
00000110: 4a67 a53c 8a23 23bc bf1f 02bd 9144 e13c
00000120: cce3 3c3d cd89 45bd a800 ddbb 7288 06bd
00000130: 36d2 2c3d 409b 3c3b 930f 27ba fd3c 75bb
00000140: 1240 053c cb03 0ebb fa2c c6bc 2cea b93c
00000150: a0da 103d e39a 093c d816 4fbb fa86 673c
00000160: a810 a1bc 0648 033d 485a 59bc 19fd 5e3b
00000170: 12c8 10bd 7a31 43bb e74b 4c3d 9300 55bb
00000180: 1e9e bf3c 7103 d2ba d8e6 99bb fc4f c9bc
00000190: 2071 943c 6e07 ca3b d209 ccbc deb7 c8bc
000001a0: 5a66 f33b c9d6 853c 50c5 43bc d12d cb3b
000001b0: 31ae 143d e119 c5bc 724a 93bc cb57 003d
000001c0: a3d3 3ab9 8107 c5bb a6cd a13c f0a6 853c
000001d0: 8ad9 203c dd2a 1c3d cafa b63d 2905 ffbc
000001e0: 0f89 333c e2de 37bc 4ebf 983b 0833 2cbc
000001f0: e95b 093c 39bb d13c 9a6d 813d e8de 5a3a
00000200: 8637 27bd d1f3 e9bc 3d79 cb3c ad8f 463d
00000210: 03a4 1cbd 1f8a fc3b f9a7 e1bc 9ff6 863c
00000220: 3a6b 3a3b 2bb5 12bd b00d 0e3d 20d8 dc3c
00000230: 4ff0 6f3b 5475 873c 5b61 c73c b2b1 cc3c
00000240: bc65 703c b01a 983c 8d7c 0d3d 3216 a5bc
00000250: b271 303c e743 2f3d 54d6 aa39 3a50 4d3c
00000260: c3b0 3bbc 4672 fdbb 0c7d 53bc 32fa f53c
00000270: a93e 55bb 5391 29bd a75a 753c c64d 61bc
00000280: 1cff 763c c2cc 793c e3f1 953c f11d a738
00000290: b7f5 80bb 5f9d 963c a103 ce3c 44cf 5e3c
000002a0: a845 473d 7385 a93c bdf1 41bc 603d 453d
000002b0: d684 283d abe4 603c 2dea 8f3d ee9d e53c
000002c0: a59a 93bb 970e 0b3d f71c c0bb c5c5 893c
000002d0: 568c 2c3d be30 f53c 3013 a53c c176 043a
000002e0: d7e4 11bc 79e1 023d 11e2 44bd 6cbc a3bd
000002f0: fe90 bdbc 7218 09bd 4d2e 50bc 0906 5b3c
00000300: 85fe fcbb 5fc1 683c eb56 e3bc c2fb 0d3d
00000310: f35a 8b3c fe54 2f3c 0624 b53b b07d 2dbc
00000320: 47be 3f3c 69b1 9abb 1d9b 153d b16e c3bc
00000330: 735e 3c3b 0034 0fbd 15eb 12bc 3c68 cb3b
00000340: d379 20bc a82f 043c 1cd5 ca3b 7b69 9bbc
00000350: f234 aa3c 997d 693c 7c08 14bb 8067 38bd
00000360: ee89 2c3c 31df 8b3d 2915 513c d135 18bb
00000370: a42d 163c ebb6 bebb faed 47bc 2e81 65bc
00000380: a458 833c 479c ed3c c17a 303c e22d f3bb
00000390: 736a a83b 9698 e9bb 6154 70bc d3be c93c
000003a0: 4143 57bc e9de e9bc 6a31 bd3c b6ee b83c
000003b0: 4385 cebb 51e9 413d c79f 0abd a487 8b3c
000003c0: 33ea 75bc 63ec e63c 09fa 383c 097f 353d
000003d0: 5d03 8e3c 1e59 db3c 0d56 ca3c 85ef 643d
000003e0: 11ae 153d 0723 283d 3a10 7dbb 918a c33c
000003f0: 87ca ac3a 149b 3bbc 86e3 6f3c db69 4d3d

output_mlp.0.bias f4 [128]
-0.046227925 -0.19706343 -0.101873495 -0.1464336 -0.14118819 -0.08497474 -0.058835674 0.19328009
-0.080223404 -0.0073374975 -0.12048898 -0.07873445 -0.0107071195 -0.08377498 -0.06461059 -0.05784832
-0.012034152 -0.07031216 -0.052541 -0.11813955 -0.085898094 0.11547494 0.03605531 -0.034626983
-0.035626188 -0.07945452 -0.04901014 -0.07247688 -0.070312805 0.038677275 -0.036165044 -0.1515831
-0.10653701 -0.1158443 0.39498615 -0.05656549 -0.25830364 -0.2895515 0.0705602 0.06640245
-0.07238089 -0.12101116 -0.058991622 0.09576062 -0.0754696 0.2748402 -0.13029295 -0.2119415
-0.07868249 -0.02025695 0.11910994 0.041684244 -0.08193516 -0.1466523 -0.11303101 0.12766662
-0.16389444 -0.017451053 0.0362642 -0.026337378 -0.084080786 0.015961885 -0.11294842 0.17364836
-0.06582084 0.060147714 -0.062320236 -0.15361519 0.12481335 -0.071162544 0.2553452 0.21735826
0.11591242 0.118048586 -0.036731362 -0.034235325 -0.18053174 -0.23002133 -0.32364616 -0.10138575
-0.055359617 0.16376427 -0.06949253 -0.07917362 8.190913e-05 -0.082561985 -0.08163809 -0.033561494
-0.021486795 -0.05912258 0.12908673 -0.023034047 0.0222193 -0.15942211 -0.052746423 0.1018494
0.0057688965 -0.065703735 -0.072727844 -0.07455792 -0.04660025 -0.1452579 -0.06933069 0.24480034
0.15186927 -0.07998971 0.08279964 0.10245816 -0.088738866 -0.48001766 0.1313481 -0.11683592
0.12169444 -0.17518272 -0.09080133 -0.054631315 0.034194183 -0.0769948 0.024740228 -0.045863878
-0.041150358 0.080455154 -0.083688445 -0.4728725 0.12758207 -0.047668487 0.23619594 -0.028703716
00000000: 7e59 3dbd ffca 49be 0da3 d0bd b1f2 15be
00000010: a393 10be 3d07 aebd adfd 70bd 37eb 453e
00000020: 2b4c a4bd 646f f0bb edc2 f6bd 873f a1bd
00000030: ea6c 2fbc 3792 abbd 8f52 84bd 5cf2 6cbd
00000040: e42a 45bc d2ff 8fbd 3b35 57bd 26f3 f1bd
00000050: 57eb afbd 207e ec3d bcae 133d 06d5 0dbd
00000060: c4ec 11bd 0db9 a2bd dbbe 48bd c26e 94bd
00000070: 2900 90bd 106c 1e3d cc21 14bd 9a38 1bbe
00000080: 1330 dabd c73f edbd a03b ca3e 37b1 67bd
00000090: 6040 84be 1840 94be de81 903d 02fe 873d
000000a0: 6f3c 94bd b3d4 f7bd 33a1 71bd 251e c43d
000000b0: ce8f 9abd dbb7 8c3e 846b 05be 3107 59be
000000c0: 4924 a1bd e7f1 a5bc eaef f33d 19bd 2a3d
000000d0: 9fcd a7bd 052c 16be cd7c e7bd 0abb 023e
000000e0: f2d3 27be 83f5 8ebc c589 143d 7cc1 d7bc
000000f0: 8c32 acbd 80c2 823c 8051 e7bd e0d0 313e
00000100: 14cd 86bd 735d 763d 8143 7fbd 4d4d 1dbe
00000110: 249e ff3d abbd 91bd 9bbc 823e 2a93 5e3e
00000120: 7e63 ed3d 75c3 f13d a073 16bd 573a 0cbd
00000130: 50dd 38be b68a 6bbe f3b4 a5be 55a3 cfbd
00000140: c4c0 62bd d2b1 273e 1952 8ebd c725 a2bd
00000150: a1c6 ab38 4216 a9bd df31 a7bd c777 09bd
00000160: 1305 b0bc 852a 72bd 502f 043e e6b1 bcbc
00000170: 4005 b63c 8d3f 23be a20c 58bd 6b96 d03d
00000180: 0309 bd3b ae8f 86bd 56f2 94bd d3b1 98bd
00000190: e7df 3ebd 7dbe 14be 40fd 8dbd f1ac 7a3e
000001a0: 9e83 1b3e a5d1 a3bd dc92 a93d 95d5 d13d
000001b0: b9bc b5bd e0c4 f5be 1e80 063e ac47 efbd
000001c0: ef3a f93d 1963 33be 0cf6 b9bd 16c5 5fbd
000001d0: 330f 0c3d 73af 9dbd 05ac ca3c c3db 3bbd
000001e0: 478d 28bd acc5 a43d d964 abbd 581c f2be
000001f0: e0a4 023e 0840 43bd 59dd 713e 0e24 ebbc

output_mlp.2.weight f4 [9, 128]
0.02490809 -0.06817587 -0.021049697 -0.017420663 0.000453026 -0.022057323 0.0036870963 -0.055739984
-0.0075712814 -0.029695967 -0.003937666 0.06464503 -0.034868658 -0.014623756 0.03125405 0.005808184
0.011236609 -0.03979604 -0.0042409394 0.016804494 0.018352073 -0.1182512 0.009839616 -0.0049341293
0.040611863 -0.00055749615 -0.0026176982 -0.011021524 0.012306883 -0.028414086 0.03636036 -0.007182414
-0.02370545 0.0013070842 -0.048826136 -0.01815384 -0.0019785087 0.029468017 -0.076385714 0.02406284
0.00421262 -0.057682317 -0.011419327 -0.024081862 0.013287718 -0.055397257 -0.0072892923 0.0144211175
0.010583503 -0.024413988 -0.010299285 -0.003259729 0.062291645 -0.053906996 -0.01273682 -0.05252583
-0.015077872 0.028327364 -0.0055266614 0.028101292 -0.0152015705 -0.050618958 0.04146983 -0.024750564
0.002475424 -0.09793428 0.050986912 -0.060109254 -0.021421183 0.026262332 -0.061829012 -0.030481366
-0.019476712 -0.059794158 0.036259923 -0.0119673535 0.0043944814 0.06349265 -0.03989711 -0.005930525
0.0006914784 -0.039982677 -0.008391086 -0.0053183837 -0.03305656 -0.01770222 0.022413692 0.04034516
0.004982508 0.01377036 -0.05538012 0.029955605 -0.014394923 -0.008442678 -0.020138813 -0.065407254
-0.09695247 0.003070261 0.019485053 0.023985494 0.016994003 0.033300426 -0.011789656 -0.007990215
-0.078866296 0.0020490251 -0.054897998 -0.059641138 -0.0011614384 -0.04151589 -0.08169151 -0.025159141
-0.07493256 0.00048290464 0.013016587 0.0059176125 -0.06816611 0.030374285 -0.018696867 0.014046381
0.007032037 -0.026729897 -0.007381041 -0.058784224 -0.014141012 -0.011175808 -0.06639468 -0.018610876
0.0479208 -0.06093927 -0.07205093 0.003790684 0.026159836 0.029296104 0.02431223 -0.087020956
0.022345252 -0.07545263 0.03291966 0.054950926 -0.03167459 -0.025615565 0.039877083 0.036195196
0.029959641 -0.051394083 0.013362756 0.036870364 0.030561179 -0.05765155 0.05625121 0.051862
0.022037592 0.023484986 0.0273969 0.062283594 0.03335544 -0.10704835 0.038073312 0.015675897
-0.01069865 0.007837396 -0.040689297 0.065937035 -0.06449983 0.06429291 -0.076537885 -0.061345056
0.06707494 -0.04715525 -0.023579946 -0.03949624 0.047497816 -0.069807276 0.04656093 -0.03978453
0.026017714 -0.066193156 -0.057504613 -0.014358633 0.020435099 -0.061885078 0.02426195 -0.049191806
-0.047195226 0.04053036 -0.05904075 0.032956325 0.023625666 -0.06673823 0.04246326 -0.038878944
0.040560156 -0.07263828 0.051856082 -0.012799775 -0.05001368 0.0027151036 -0.084342755 -0.03330437
-0.008826624 -0.016468646 0.04803966 -0.040987268 -0.032233443 0.00841138 -0.09156687 0.053848453
-0.02067795 -0.08614296 0.061556987 0.042156145 -0.10491003 0.042126834 -0.038560577 0.05039666
-0.048291832 0.05065029 -0.052976254 0.04819521 -0.04585581 -0.07936999 0.042340618 -0.041299563
-0.089765646 0.075359 0.024416128 0.025267316 0.02956409 0.035343558 0.024165219 -0.09540441
-0.16186555 0.0339618 -0.050846834 -0.038580183 0.011292449 -0.06926622 -0.097037695 0.008829071
-0.065720335 -0.042860996 0.018788377 -0.029010696 -0.07227485 0.074190885 -0.030757157 -0.00733981
-0.045596182 -0.053730085 0.013067322 -0.061895076 -0.064484105 0.04041123 -0.07317474 0.053812582
00000000: 0d0c cc3c ca9f 8bbd 6a70 acbc c7b5 8ebc
00000010: 1f84 ed39 8fb1 b4bc 36a3 713b 9c4f 64bd
00000020: 8318 f8bb f544 f3bc 8907 81bb 9d64 843d
00000030: 70d2 0ebd 7a98 6fbc 3f04 003d 9452 be3b
00000040: c119 383c 2c01 23bd 94f7 8abb 94a9 893c
00000050: 1657 963c af2d f2bd 5736 213c 7aae a1bb
00000060: a058 263d ef24 12ba b08d 2bbb 9f93 34bc
00000070: cfa2 493c a8c4 e8bc 9aee 143d 755a ebbb
00000080: ef31 c2bc 7852 ab3a eafd 47bd 5db7 94bc
00000090: dea9 01bb e966 f13c 1d70 9cbd 6f1f c53c
000000a0: 050a 8a3b 4b44 6cbd 2118 3bbc 5347 c5bc
000000b0: bbb4 593c 3ce8 62bd 04db eebb 8d46 6c3c
000000c0: 6e66 2d3c d8ff c7bc 55be 28bc 2da1 55bb
000000d0: 8625 7f3d 95cd 5cbd 18ae 50bc 5325 57bd
000000e0: 2e09 77bc ca0e e83c ff18 b5bb ae34 e63c
000000f0: 0210 79bc d355 4fbd 45dc 293d b2c1 cabc
00000100: b93a 223b c591 c8bd a7d7 503d 1f35 76bd
00000110: 7a7b afbc 1a24 d73c 6b40 7dbd 0fb4 f9bc
00000120: a08d 9fbc b8ea 74bd 4985 143d b812 44bc
00000130: 95ff 8f3b 6f08 823d 276b 23bd d954 c2bb
00000140: 5444 353a e0c4 23bd c47a 09bc d645 aebb
00000150: 5166 07bd 3f04 91bc eb9c b73c f740 253d
00000160: 4e44 a33b 139d 613c 44d6 62bd 7565 f53c
00000170: afd8 6bbc 2853 0abc 27fa a4bc 3df4 85bd
00000180: 048f c6bd 6f36 493b 1e9f 9f3c 3a7d c43c
00000190: 0237 8b3c 0766 083d 6729 41bc 64e9 02bc
000001a0: a784 a1bd f048 063b b9dc 60bd 444a 74bd
000001b0: 683b 98ba 910c 2abd e14d a7bd 8b1a cebc
000001c0: 3e76 99bd 5d2e fd39 8643 553c 88e8 c13b
000001d0: ac9a 8bbd 7ed3 f83c 2c2a 99bc cb22 663c
000001e0: 006d e63b a8f8 dabc a9dc f1bb bac7 70bd
000001f0: b4af 67bc bc1a 37bc eff9 87bd d675 98bc
00000200: 9a48 443d 759b 79bd 708f 93bd 206d 783b
00000210: 274d d63c 62fe ef3c 712a c73c 0b38 b2bd
00000220: 640d b73c e986 9abd c4d6 063d 3914 613d
00000230: 37bd 01bd bcd7 d1bc 2756 233d 6a41 143d
00000240: ec6d f53c 9a82 52bd 76ef 5a3c 6105 173d
00000250: 705b fa3c 0824 6cbd ab67 663d 406d 543d
00000260: 2e88 b43c 9663 c03c 776f e03c 151d 7f3d
00000270: b79f 083d 2a3c dbbd c3f2 1b3d bd6a 803c
00000280: 6449 2fbc 6c68 003c d2a9 26bd ff09 873d
00000290: 7d18 84bd 00ac 833d e5bf 9cbd f444 7bbd
000002a0: 965e 893d dd25 41bd bb2a c1bc cfc6 21bd
000002b0: 128d 423d 1ef7 8ebd acb6 3e3d 1af5 22bd
000002c0: 1a23 d53c 4790 87bd f589 6bbd 7940 6bbc
000002d0: 8267 a73c 357b 7dbd ffc0 c63c 597d 49bd
000002e0: c84f 41bd 2a03 263d b7d4 71bd 36fd 063d
000002f0: 9d8a c13c 0eae 88bd f5ed 2d3d 873f 1fbd
00000300: 6822 263d 61c3 94bd 0b67 543d 26b6 51bc
00000310: 25db 4cbd e1ef 313b e5bb acbd 2a6a 08bd
00000320: 8b9d 10bc 41e9 86bc 3cc5 443d 44e2 27bd
00000330: 3707 04bd e3cf 093c 6987 bbbd 3290 5c3d
00000340: ce64 a9bc b86b b0bd 2e23 7c3d ecab 2c3d
00000350: 12db d6bd 308d 2c3d b2f1 1dbd ba6c 4e3d
00000360: a8cd 45bd ae76 4f3d a1fd 58bd 5768 453d
00000370: 4dd3 3bbd bc8c a2bd 5b6d 2d3d bb29 29bd
00000380: 0dd7 b7bd d255 9a3d 5504 c83c 67fd ce3c
00000390: 6430 f23c 68c4 103d 23f6 c53c 6363 c3bd
000003a0: 15c0 25be 871b 0b3d c544 50bd 4106 1ebd
000003b0: f703 393c 73db 8dbd b3bb c6bd cfa7 103c
000003c0: 6298 86bd 038f 2fbd 15ea 993c d7a7 edbc
000003d0: d604 94bd 64f1 973d 6ff6 fbbc ca82 f0bb
000003e0: 10c3 3abd 1414 5cbd 5218 563c b185 7dbd
000003f0: 3e10 84bd 3f86 253d a3dc 95bd 956a 5c3d

output_mlp.2.bias f4 [9]
-0.018607669 -0.03867567 -0.034177035 0.043680333 0.18761288 -0.035968218 0.052699786 -0.02506217
-0.11515813
00000000: 1c6f 98bc 616a 1ebd 38fd 0bbd 26ea 323d
00000010: 971d 403e 6953 13bd bbdb 573d 2e4f cdbc
00000020: 07d8 ebbd
