log/segmentation/pn/bucket/weighted/pn_30.pth (torch, 337359 bytes, 8 tensors)

local_mlp.0.weight f4 [64, 3]
00000000: 2be0 013f bb3e cc3e b1c8 843e b5be 64bf
00000010: dd5a fcbe 74ca 0c3e 430e 91bd 6df3 a53f
00000020: e586 a8bd b3ad 3b3f 8daa a0be d019 5e3d
00000030: 96d7 2cbf 7bc0 4f3e 1d09 ee3e d766 2e3f
00000040: 3ecf aabe a0ca 053d 000a 153f 6625 a23e
00000050: 8e70 0f3e a27c 873e f190 5f3f 31bf aebc
00000060: 3b66 8cbe b04b 4e3f 082c 9dbe b2e7 39be
00000070: 42e6 803f 0005 42be fbab 5d3e 57f6 a2bd
00000080: c43b 88be c98a 05bf ae44 e83e a20f 353f
00000090: e165 1b3f bb8a 0cbe 00e2 44bd 4628 61bf
000000a0: 18ed d1be baf6 883e 2b12 1b3f 7625 813e
000000b0: 33af 0c3e 1c40 9b3e 2127 173f 8a4c 0b3e
000000c0: 405a 4abf 3c64 bcbe 5b6f 9a3e 86d8 273f
000000d0: 3408 453e ddfe 163e b42b 28bf 4f84 ffbe
000000e0: 03ed b73e 20a1 8b3e aa04 223f f3d4 e33c
000000f0: bfa4 2ebf 49a8 dfbe 6143 af3e b37a 303f
00000100: dde9 c1bc fc8c bb3d c740 593e 13a2 8a3f
00000110: 2191 b43c e3f5 db3e b54e 363f b615 82bd
00000120: 5b84 123f f062 9a3e d106 703e 2e29 243f
00000130: 9ede 54be 9143 fcbb 0864 35bf a815 f1be
00000140: b375 ac3e 3642 173d 0fce 463f ded5 623d
00000150: c223 11bf a40d 4dbf 472c 7dbd f1ee 5dbf
00000160: 4bb1 cbbe 640c 893e fec1 5cbf d65d cebe
00000170: f693 823e 3010 4ebf c8b0 d0be 5150 8f3e
00000180: 0a3e 68bf 1f99 c4be 4e41 7d3e 3f87 70bf
00000190: 6609 dbbe fb89 573e 9d46 52bf 7235 e1be
000001a0: 7913 413e b4b4 0c3e f350 55be 7dea 70be
000001b0: 272d 5bbf f9ab c4be 6483 8e3e 5b9a d33e
000001c0: 865f 523f 96c0 b1bd 611a 463c cda5 7b3f
000001d0: d6b0 92be 1903 343f 7748 4abe 8587 653d
000001e0: ee3f 14be ba67 903f 3188 1ebe 1dcf 5abf
000001f0: 873a c7be f36d 513e cadc 3abf 5acc ddbe
00000200: 7399 a33e 6fc8 833e 2bcf 493f 133c 67bd
00000210: fdbf 63bf 631e d4be 6d10 803e b9b7 a8be
00000220: 0efe 523f 2749 8cbe a228 953e 8801 323f
00000230: e14b d73c d2a2 f63e bfe9 e43e 0822 b03d
00000240: 7378 34bf 348e 95be 95b4 b83e 24ba 083e
00000250: 65b5 3bbe c82e 81be 1b49 be3e 3ac9 213f
00000260: 36f0 00be 3d66 343f 5bbb 93bc c895 ed3d
00000270: 3750 33bf 2389 e9be 3957 b23e af24 013f
00000280: fc73 92bc a2e5 febd d831 f73e ba98 5dbe
00000290: d279 bbbd 8c3a 7ebd 514c 8b3f c727 46be
000002a0: bb27 2c3f f5ce 213d 3b21 1f3e 9885 613c
000002b0: 4514 bb3f a9f2 11bb 49ae ff3e cfc0 e3bd
000002c0: 7cef f1bd 0287 41bf 1b6b c1be e685 893e
000002d0: 75a4 35bf d8b2 a8be bc37 903e 2387 263f
000002e0: e598 63be 92ea 6fbc 7411 fc3d 446c 923f
000002f0: 9de8 393b e78f 2fbf 1b72 e8be 436a ac3e
0.5073268 0.3989161 0.25934365 -0.89353496 -0.49288073 0.13749105 -0.07082798 1.2964913
-0.08228854 0.7331192 -0.3138012 0.054223835 -0.6751646 0.20288269 0.46491328 0.6812567
-0.33361238 0.03266394 0.58218384 0.31669158 0.1400778 0.26462275 0.8733054 -0.021331402
-0.27421746 0.8058424 -0.30697656 -0.18154791 1.0070269 -0.1894722 0.21647637 -0.07957142
-0.26608098 -0.52164894 0.45364898 0.7072698 0.6070233 -0.13724796 -0.048067093 -0.8795208
-0.410012 0.26750737 0.605746 0.25223893 0.13738708 0.3032235 0.5904408 0.13603416
-0.7904396 -0.36795223 0.30163082 0.65564764 0.1924141 0.1474566 -0.65691686 -0.4990563
0.35923013 0.27271366 0.63288367 0.027811503 -0.6822013 -0.4368308 0.34231094 0.68937224
-0.023671085 0.0915775 0.21216117 1.0830711 0.02204186 0.42961034 0.7121385 -0.06351797
0.5723321 0.30153608 0.234401 0.64125335 -0.20788047 -0.007698484 -0.7085576 -0.47086835
0.33683547 0.036928378 0.7765817 0.05537974 -0.5669519 -0.8009894 -0.061809804 -0.8669272
-0.397837 0.26767266 -0.8623351 -0.40305966 0.2550351 -0.8049345 -0.40759873 0.27990964
-0.90719664 -0.38398072 0.24731943 -0.9395637 -0.42780608 0.21048729 -0.82139 -0.43986088
0.18855084 0.13740808 -0.20831661 -0.2352695 -0.8561577 -0.38412455 0.27834618 0.413287
0.8217701 -0.08679311 0.01209125 0.98299867 -0.2865054 0.70317227 -0.19754206 0.056037445
-0.14477512 1.1281655 -0.1548164 -0.8547228 -0.3891184 0.20452099 -0.7299315 -0.4331997
0.3195301 0.25738856 0.7883174 -0.056453776 -0.88964826 -0.41429433 0.25012532 -0.3295267
0.82418907 -0.2739956 0.29132563 0.69533587 0.0262813 0.48171097 0.44709584 0.08600241
-0.7049629 -0.29210055 0.36075273 0.13352257 -0.18330915 -0.25231004 0.3716515 0.6319767
-0.12591633 0.70468503 -0.018033674 0.11600834 -0.70044273 -0.4561244 0.3483217 0.504466
-0.017877571 -0.12446143 0.48280215 -0.21640292 -0.09154095 -0.062067553 1.0882665 -0.19351111
0.67248124 0.03950401 0.1554002 0.013764761 1.4615561 -0.002226988 0.49937657 -0.1112076
-0.11813256 -0.7559663 -0.37777027 0.2685997 -0.70954067 -0.32948947 0.28167522 0.6504995
-0.22226293 -0.014643328 0.123080164 1.143929 0.0028367408 -0.6857895 -0.45399556 0.3367482

local_mlp.0.bias f4 [64]
00000000: 6426 05bd 2b2d a6bd 91db 51bd f1d7 36be
00000010: e949 8cbe a224 2abe 0f04 b9bd 2914 623e
00000020: 4fa0 b5bd ee9a f4bd 8c43 153f e070 85be
00000030: e13f c2bd d2e7 4cbe 0dad c1bd 0fd4 8abc
00000040: e1b6 70be c48d d1bd 85a7 8dbe 3f75 993d
00000050: cf5c 7abe 3391 08be a29d 5c3e 2797 0e3e
00000060: fc46 a6bd de5f f7bd 91e4 91be c16e 4f3e
00000070: 9be1 363e a66e 4ebe 1045 32be f694 7ebe
00000080: e8c5 46be d604 ffbd cb10 bfbd b358 013f
00000090: 246f 61be 8039 a53e 415e fcbd 7170 25be
000000a0: fbcc c4bd 2e2e 05be 37fc 78be be16 c13e
000000b0: f114 40be 14ba b9bd b955 c53c 0088 cabd
000000c0: 2933 8dbe 8807 f53e 7b9c df3e fb0b 24be
000000d0: 6dd8 85be 8900 8e3b c458 70bd 21c3 e8bd
000000e0: 876e 0cbe e35b c53c eb16 85bc 32cb 14be
000000f0: 2a9c 3fbe 9f6e f4bd 96c4 c33e 0949 82be
-0.032507315 -0.08114084 -0.051234785 -0.17855813 -0.2740014 -0.16615537 -0.09033977 0.22078003
-0.08868467 -0.11943613 0.58306193 -0.2606268 -0.0948484 -0.20010307 -0.09456835 -0.01694682
-0.23507263 -0.10232118 -0.2766687 0.07493066 -0.24449466 -0.13336639 0.21544507 0.13924848
-0.08119008 -0.12078832 -0.28494695 0.20257093 0.17859499 -0.20159397 -0.17409158 -0.24861512
-0.19411433 -0.12452094 -0.09329375 0.5052597 -0.22015053 0.32270432 -0.12322665 -0.16156174
-0.096094094 -0.13005897 -0.24314962 0.37712663 -0.18757989 -0.09068695 0.024088727 -0.09889221
-0.27578095 0.47857308 0.43674073 -0.16020195 -0.26141682 0.00433356 -0.058678403 -0.11365343
-0.13714038 0.024091667 -0.01624628 -0.14530638 -0.18711916 -0.11935162 0.3823592 -0.25446346

local_mlp.2.weight f4 [256, 64]
00000000: 018e 983e a27c b8be e283 9cbe e619 253f
00000010: 7b74 143f a583 213f 2e16 923e 111a aebe
00000020: 32e4 1fbe f817 68be f2ac a0bf ef06 0f3f
00000030: 6be3 5c3e 4ba7 d93d 251e ab3e 7a1c 3e3e
00000040: 6629 863e 3d1c c53e af83 dd3e c1fc 22bd
00000050: 0739 a53e 9f68 dc3e 81cb 95be 9f68 a2be
00000060: 711b b63e 93e8 b83e e331 b53e 6d9c 32be
00000070: 29a4 3bbf 02e6 1b3e ce41 e73d ff87 183e
00000080: 63c8 493d 02ba ebbd 9c8f c2bd 1349 b4bf
00000090: 1a96 233e 0130 1abf c50c 73be 8ade fe3e
000000a0: de92 94be 4ac1 60bd 3fd2 8e3e 5888 10bf
000000b0: e1bf 8b3d 3f3f 29be 9969 633c 2f30 8e3e
000000c0: 791c d03e f27d b9bf 455f 40bf 9579 f03e
000000d0: 37da c13e 3b4f 47be 3b79 de3d bd74 60be
000000e0: 5b68 e13e b53a d2be c18e c2bd 3022 3b3e
000000f0: de77 763e f140 d43e 3ca1 13bf f243 a73e
00000100: ab57 063e ff3b 53be 1cda 09bf 0088 dc3e
00000110: e0b7 b6bc f591 c93e 64a2 4f3e 5623 c8bd
00000120: 290d 14be 2ff3 59be 1d55 f0be c744 edbc
00000130: b354 9c3e b00d 89bd 49a9 3c3e 7055 953d
00000140: b2ee 84bd d0a6 833e b32d eebd 312e bc3c
00000150: eb80 e1bd b59a ac3e 6f5d c1bd 78d9 063d
00000160: 6875 4c3e 847e b53e 2839 6dbd 7fcb 29be
00000170: 9e10 19bf a45c a4bd 5e53 80bd d966 fe3c
00000180: 6b9c 44bd 7380 00be f85b 5cbe 61d0 2dbf
00000190: e107 b6bc f456 3cbe 432c 81be 0e4f d73e
000001a0: 0d6e cbbe dea1 fdbd 100b bdbd 243c bbbe
000001b0: 4c70 8abd 8600 2cbe eb70 353d c458 553e
000001c0: 8f15 52bd 7596 04bf fdff c1be 3d38 bb3e
000001d0: 3536 fdbd a14f 853e d328 893e ddd6 99be
000001e0: 44dc 9f3e 5f54 39bf 89df 853e e82b 0dbe
000001f0: da41 b4bd 8149 bd3e 85a9 d7be 7603 92bd
00000200: 001d c63d ff03 9ebe c961 edbc 7020 c1bd
00000210: b8e7 063e f173 07be 347f 8f3d f8d6 92bd
00000220: c3dd 343b b0b2 afbc 75f1 92be 2b32 a03d
00000230: 8726 8c3d d3cf f5bc 508c 893d d762 5b3d
00000240: 4181 3a3d 1c68 ae3d e6e5 913d 2e0c 0e3d
00000250: 0452 fe3c 8a02 653d 3406 eebd 6ac1 4abc
00000260: 6c72 a83d d6d3 163b 178c b43c 1108 f93c
00000270: afef f3be 6104 f5bc f5d4 82bc dcb9 11bd
00000280: 0170 6dbd 89f2 c9bd 0ab8 e7bd 1997 c6be
00000290: 0ad5 8cbc feda d7bd 559c 7b3b aaf4 3d39
000002a0: e595 f83c 020d b1bd b6e6 ef3b c17f 14bd
000002b0: a788 72bd 0c33 b43b 3744 ee3c 4018 493d
000002c0: d0b7 f93d 05e9 cfbe a085 ecbd e97b a03a
000002d0: d5a3 e93c 9c3a ea3c 138d 6ebd 670b 7abc
000002e0: 9ca0 553d 8708 b4bd d249 023d c128 1b3d
000002f0: d972 813d 9017 39bd 482b 9abd 054a d13d
00000300: eb15 053e 531a 20be ecb6 08bc 07f2 2d3f
00000310: 33ef de3e 3e49 393f 37ae 493e a688 e5be
00000320: 8bc4 703e 300e 243e a686 11bf b7d5 c33e
00000330: 7347 c33e 386f ee3d 571c 5f3e c098 acbc
00000340: 6ebb 823e 3042 aa3e d351 d03e a394 15be
00000350: e4b2 933e f857 da3e e659 b0be 578b b6be
00000360: 1b96 693e b7ed 013f ffdd f83e 184e 9ebe
00000370: e942 f2be a605 ce3d 6f9a ed3d 9ee5 ba3e
00000380: ac0d ed3d 7b0f 46bc 40be 87bd 80b8 20bf
00000390: 99e0 0c3e 5166 3abf a848 053e 66fa 053f
000003a0: 1db2 d83d b48e 2ebb 642d 933e e1c4 43bf
000003b0: 1c36 d33d 2b5f 9a3e 3205 08be de2d e93d
000003c0: 45a2 c53e 2816 08bf 27ca 6dbf bc2d e33e
000003d0: 0294 a23e da97 e93d 70b5 043f e81a d73d
000003e0: ad0d c43e 7e33 d1bc 9d05 903e 9cfb 293e
000003f0: df19 543e 3fa0 173f 1672 39bf 582e bd3e
0.2979584 -0.36032587 -0.3056937 0.6449264 0.57990235 0.630915 0.28532547 -0.34004262
-0.15614393 -0.22665393 -1.2552779 0.55869955 0.21571128 0.10627612 0.33421436 0.1856555
0.2620346 0.38498107 0.4326453 -0.039791826 0.3227007 0.4304857 -0.29256824 -0.31720445
0.3556781 0.3611494 0.35389623 -0.17442484 -0.73297364 0.1522446 0.11291848 0.14895628
0.04926337 -0.115100875 -0.095000476 -1.40848 0.15975228 -0.602295 -0.2373534 0.4977916
-0.290183 -0.054871835 0.2789478 -0.56458044 0.06823707 -0.16528033 0.013880157 0.27771136
0.40646723 -1.449156 -0.7514537 0.4696776 0.37861797 -0.19463818 0.108629666 -0.21919532
0.4402493 -0.41060415 -0.094998844 0.1827476 0.24069163 0.41455796 -0.576679 0.32669026
0.1311938 -0.20628355 -0.53848433 0.4307251 -0.022304475 0.3936917 0.20276791 -0.09772365
-0.14458145 -0.21284173 -0.46939936 -0.02896346 0.3053337 -0.06692064 0.18423952 0.072916865
-0.0649084 0.25713205 -0.1162981 0.022971245 -0.11010917 0.33711782 -0.09441649 0.032922238
0.19966662 0.35448086 -0.057915837 -0.16581534 -0.5979098 -0.08025482 -0.06265901 0.031054901
-0.048000734 -0.12549 -0.21519458 -0.67896086 -0.022220554 -0.18392545 -0.25229082 0.420525
-0.397324 -0.12384389 -0.09230626 -0.3656932 -0.067597 -0.16797075 0.04429714 0.20834643
-0.05129009 -0.5179208 -0.37890616 0.36566344 -0.12363855 0.26037315 0.2678896 -0.3004674
0.31222737 -0.72394365 0.26147106 -0.1378628 -0.08801623 0.36970142 -0.4212152 -0.07129566
0.096735 -0.30862424 -0.028977292 -0.09430015 0.13174331 -0.13227822 0.07006684 -0.07169908
0.0027598 -0.02144751 -0.28699842 0.07822069 0.06843286 -0.030006325 0.067162156 0.053561058
0.045533422 0.08515951 0.07123928 0.034679584 0.031044967 0.055910625 -0.11622277 -0.012375215
0.08224949 0.0023014448 0.022039456 0.030399354 -0.47643802 -0.029909315 -0.015970686 -0.03557764
-0.057968143 -0.09860713 -0.113143995 -0.38787153 -0.017191429 -0.10539816 0.0038392742 0.00018115589
0.030344913 -0.08645059 0.007321204 -0.036254648 -0.059212353 0.0054992493 0.029085262 0.049095392
0.121932626 -0.40607467 -0.115489244 0.0012243959 0.028520504 0.0285924 -0.058240008 -0.015261508
0.052155122 -0.08790689 0.03180868 0.037880663 0.063207336 -0.045188487 -0.075277865 0.10219196
0.12996642 -0.15635042 -0.008344393 0.6794743 0.4354187 0.72377384 0.19695364 -0.44830817
0.23512475 0.16021037 -0.5684608 0.3824899 0.3814045 0.11642307 0.21788155 -0.02106893
0.25533623 0.33253622 0.40687427 -0.14607482 0.2884742 0.4264524 -0.34443587 -0.35653183
0.22811167 0.5075335 0.4860687 -0.30918956 -0.47316673 0.10059671 0.116017215 0.3650331
0.11574873 -0.012088652 -0.06628084 -0.62781525 0.13757552 -0.7281237 0.13015997 0.523352
0.105808474 -0.002663535 0.28745568 -0.7647229 0.10313055 0.30150732 -0.13283232 0.113857016
0.38600364 -0.5315881 -0.92886585 0.4437083 0.31753546 0.114059165 0.5183935 0.10503179
0.38291684 -0.025537249 0.28129283 0.16599888 0.20712994 0.5922889 -0.72439706 0.3694942

local_mlp.2.bias f4 [256]
00000000: 7eea 5cbe 0877 94be ab0e e5bc f8df a7be
00000010: 8f10 a6be be8d 7ebe d37d 94bd 052c 5abd
00000020: 637e 2dbc 5982 73be 1da6 8fbe 6812 30be
00000030: c54f 85be e737 86be 7a9a 103a a17a 71bd
00000040: 404d 4ebe db5a 393c ef95 0e3e 0239 aebd
00000050: 8fb1 b3be 2de6 5dbe a954 99be 834b a9bd
00000060: 3958 96be 29a4 a9be 7646 abbe cb26 e93d
00000070: 631d b1be 085a 55be 55ef 163e dbdb 68be
00000080: b1bb 8bbe e3e0 7abe cb77 d43d f541 81be
00000090: 8b93 a73d 93a7 9abe 6554 8abe 2310 2d3e
000000a0: 2f4f 9ebe 924a 9cbe 223b 89be 45f7 99bd
000000b0: d7fe 7abe eb53 8fbe c4f1 81be 2c51 6fbe
000000c0: 5a1b 923d 51cc 3d3e 8a11 ffbd 2015 77be
000000d0: f2dc 34be 3a92 583e 7cf9 82be 46f9 7fbe
000000e0: 0d1b 8bbe ebbe a1be c95f 003e 9268 8bbe
000000f0: 9de3 573e 8f72 85bd 53fb cdbe e6dd 9bbe
00000100: 03c4 5ebe 9dd9 f0bd 1bd5 6fbe 963b 52be
00000110: 8038 c73d 9cb2 24bc eb48 253e 73fd 883d
00000120: b747 7bbe 73dc da3d 1eaf 21bc a90e 623d
00000130: 1640 18be 1673 1e3e 2b0c 2a3c 2481 813d
00000140: 2808 d73c a324 4bbe f140 0abd e280 82be
00000150: fd6c 88be a368 3ebe f91c 0ebc 6d0c ba3d
00000160: cdb9 8d3d ce8e c63d 00de 70be 44cf 253e
00000170: 0ded 833e 20dc 8bbe b41e 8cbe f0c5 2abe
00000180: d621 5ebe 59a0 8abe 9094 9ebc 21e5 163e
00000190: c5f4 c23d 7cc7 87be 9443 b63d 9cf4 25bd
000001a0: 4a65 8abd e1bd b0be 4ee4 a8be 7274 bf3d
000001b0: b218 58be d697 a2be c553 0a3e efd2 76bd
000001c0: 5292 33be 9d58 a63d 18f4 81be 9217 62be
000001d0: 28d2 293e 32b6 80be db1c 7abe e26a b23d
000001e0: 1fb1 95be eeb5 d0bd 97e1 89be 4c1e 133e
000001f0: 22a4 82be 71f4 aebe 78e7 b7bd 3c28 55be
00000200: 80d2 8ebe a93e 7b3d 8415 74be 028f abbe
00000210: 9cb8 003e e669 8d3d 9a57 e73d 632e 68be
00000220: 8ef8 8ebe 0f2c c8be 89b6 56be edd3 72be
00000230: 1fd4 e83d 06cf 65be 3b28 52be 0317 a3be
00000240: 6cd4 a63d 6096 4cbe 3b70 4ebe 4e61 4bbd
00000250: 0f99 52be f95b 94be 6fe7 b1be 7bf9 e7bd
00000260: be32 533d e97f 89be e3ea db3c 4b31 85be
00000270: ed62 a2be c3dc 4e3e e9ee 8fbe 8cdc a2bd
00000280: 968e aebd d004 bdbe a5cb b63d fb8e 9dbe
00000290: bff8 9cbe 825f 4cbe f1d9 a7be f300 b6bd
000002a0: 76ef 86be 56f4 27bd b53c b33d 422d 98be
000002b0: 4694 8bbe d129 c93d 0ce9 78be a710 25bd
000002c0: f8d7 87be 5047 3d3d 1a4f 3bbe b41d 643d
000002d0: 54f3 83be 8872 86be b758 52be 3160 323c
000002e0: 3a82 cf3d 073a 8fbe 3f5b 2f3e 87be 7a3e
000002f0: a891 873d fcd5 0e3e 489a 8dbd 7a80 48be
00000300: 7074 d0be 996c 4b3d 00bf b9be c354 07be
00000310: 94f4 94be 7033 afbc fb0d bcbe 635b ef3d
00000320: 4d05 75be 5265 7c3d c053 d1bd 9692 31bb
00000330: 4712 a2be e5f7 4fbe 7884 92bc 2afa 95be
00000340: 1204 6cbe 6ca4 aebe 42bb 6bbe 879e 2fbe
00000350: f3da 1f3e 8e46 6c3e 7c70 953d 2172 063d
00000360: 6d6b 51be 5f3c 63be efdd 9bbe 671d ec3d
00000370: 8c57 1e3d 7275 b6be a4da bbbc c031 a6be
00000380: 1532 8dbe 5ac2 b83d bbdf 1b3d 8158 143d
00000390: 6ab4 9dbe 94e5 5fbe 5299 693d ac9a cbbe
000003a0: b9a1 65be 4686 96be f8ce 93be 94eb a7bc
000003b0: 1bda 06bd d504 63be a6d5 7bbe b24f 013e
000003c0: 900c c7be 7115 68be fc02 21be fb75 68be
000003d0: 56af ca3d cac8 403e d485 543d 65bb 58be
000003e0: 5d0f 51be 8cde 99be ef44 9e3e a696 b63d
000003f0: 4d0d 583d 45eb 67bd 3d1b 6ebe 5249 5dbe
-0.21573827 -0.28997064 -0.027961096 -0.32788062 -0.32434508 -0.24858758 -0.072505616 -0.053264637
-0.010589215 -0.23780192 -0.28056422 -0.17194521 -0.26037422 -0.26214525 0.0005516183 -0.05895484
-0.20146656 0.011313166 0.13924383 -0.08506967 -0.35096404 -0.21669836 -0.29947403 -0.08266356
-0.29364184 -0.33133057 -0.33452195 0.11384352 -0.34592733 -0.20835125 0.14739735 -0.22740118
-0.27291635 -0.2449985 0.10374411 -0.25245634 0.081824385 -0.30205974 -0.27017513 0.16900687
-0.30919787 -0.30525643 -0.26802927 -0.07517866 -0.24511276 -0.27993712 -0.25379765 -0.23370808
0.07134123 0.18534972 -0.12454517 -0.24129152 -0.17662409 0.21149531 -0.25580966 -0.24997434
-0.27169076 -0.3159097 0.12536539 -0.27228218 0.21082921 -0.06515991 -0.40230808 -0.30442733
-0.2175446 -0.117602564 -0.23421137 -0.20530543 0.097275734 -0.010052349 0.16141097 0.066889666
-0.24539076 0.106865786 -0.009868411 0.055189762 -0.14868197 0.1547359 0.010378878 0.0632346
0.026249006 -0.19838195 -0.03375334 -0.25488955 -0.2664565 -0.18594603 -0.0086739 0.09084401
0.06920204 0.096952066 -0.23522186 0.16192347 0.25766793 -0.2731638 -0.27367175 -0.1667707
-0.21692595 -0.2707546 -0.01935795 0.14735843 0.09519342 -0.26519382 0.08899608 -0.04051648
-0.067576006 -0.34519866 -0.32986683 0.09348382 -0.2110317 -0.31756467 0.13508518 -0.060259756
-0.17536286 0.081223704 -0.2538154 -0.22079304 0.16584074 -0.25139004 -0.2442507 0.087117925
-0.29236695 -0.1019095 -0.26929924 0.14367026 -0.25515848 -0.3417087 -0.08979696 -0.2081613
-0.27894974 0.061339054 -0.23836333 -0.33507544 0.12570423 0.06904964 0.112960055 -0.22673945
-0.27924007 -0.39096114 -0.20968069 -0.23713656 0.11368584 -0.22442254 -0.20523159 -0.31853494
0.08145985 -0.19979239 -0.2016 -0.049653344 -0.205662 -0.2897642 -0.34746882 -0.113268815
0.051562063 -0.268554 0.026845401 -0.2601417 -0.317161 0.20201401 -0.2811196 -0.07952222
-0.0852329 -0.36917734 0.08925561 -0.30773148 -0.30658528 -0.19958308 -0.32783464 -0.088869
-0.2635457 -0.0410045 0.08751813 -0.2972203 -0.2726156 0.09822429 -0.2430765 -0.040299084
-0.2653196 0.046210587 -0.18291894 0.05569239 -0.25771582 -0.26259255 -0.20541655 0.010887192
0.101322606 -0.2797396 0.17124651 0.24486743 0.066195786 0.13948816 -0.069141924 -0.1958026
-0.40713835 0.049664114 -0.36278534 -0.13215928 -0.29092848 -0.021386832 -0.36729416 0.116873525
-0.23927803 0.061620064 -0.10221052 -0.0027095429 -0.3165457 -0.20309408 -0.017885432 -0.29292423
-0.23048428 -0.3410982 -0.23020652 -0.17150317 0.15610866 0.2307379 0.07296845 0.032823686
-0.20451136 -0.22190998 -0.3044276 0.115290456 0.03865771 -0.3563648 -0.022931404 -0.3245983
-0.27577272 0.090214446 0.038055163 0.036217216 -0.30801708 -0.21864921 0.057030983 -0.39766443
-0.22424974 -0.29399318 -0.28868842 -0.020498075 -0.032922845 -0.22169812 -0.24593219 0.12628058
-0.38876772 -0.22664429 -0.15723795 -0.22701256 0.09896724 0.18826595 0.05188544 -0.21165235
-0.20416017 -0.30052602 0.30911967 0.08915453 0.05274706 -0.056620855 -0.23252578 -0.2161

output_mlp.0.weight f4 [128, 512]
00000000: 1ca9 b0bc dd33 0cbc 69a3 a3bc 769d 29bd
00000010: 6d99 57bb 61ac 9d3c 92ed a23c 95c3 1c3d
00000020: f6f4 0b3d 60db edbb 6ef3 1f3d 1c5d 293c
00000030: 3cfe b5bb ca39 1b3c f333 36bc 6f6d 0d3d
00000040: dea4 d2bb 00ba babc 9d4f 273c 6c20 14bc
00000050: 63ed 3ebc ad6c 0a3d 4936 903c 0a2a 6b3c
00000060: 0e48 5fbc c8a4 46bb 5c3e 483d 5ad5 633b
00000070: 3305 5d3d 73a8 973c 844f 0e3d 1d41 4d3d
00000080: 8be9 183d 5b57 1b3d 2be5 92ba ec9b c53c
00000090: cfb7 06ba 2f2e ae3c 4e74 743c ea58 ba3c
000000a0: dad3 66bb 4c6b 1ebb e148 1639 5d39 203b
000000b0: 6412 703b f73b aa3c 6d3a bf3c b000 cf3c
000000c0: 3341 b63c e980 a33c 35e3 15bd b372 833c
000000d0: 1ef3 95bc 9887 f3bb c9ce 843d ff2e f63c
000000e0: 2577 9f3a 1cd2 3e3c f44d c43b fdfd f83c
000000f0: 21df 23bc da7f d5bc 709c cd3c 0644 98bb
00000100: 3d5c eb3c 8800 1abc 18fb 06bc cbe5 8bbb
00000110: 4bbb a33c e5c0 1cbc a839 02bd bceb e03c
00000120: 2c0e 3d3d c784 43bd 8741 e3bb 512d 07bd
00000130: 29a8 2d3d 5e4e 323b e1bd 42ba d27c 7ebb
00000140: 76a2 033c 604d 09bb 0d67 c1bc ec10 bb3c
00000150: 238c 103d 6776 0b3c ec2a 1fbb 32f8 653c
00000160: 9d03 a2bc f7ac 023d 0f23 56bc 5539 553b
00000170: cc43 0fbd 71a9 43bb 406d 4c3d 846d 41bb
00000180: e561 c03c ffe9 bcba 0b27 89bb da72 cabc
00000190: f836 933c 8384 cd3b f99d ccbc d736 c5bc
000001a0: 3f0f ee3b 39df 873c d779 41bc cc62 c63b
000001b0: b835 153d fcd2 c2bc 00da 93bc 4847 ff3c
000001c0: 2403 0db9 8756 c8bb b4fc a23c 5b9b 8b3c
000001d0: 63cc 1f3c b8b7 1b3d ee0b b73d d2dc ffbc
000001e0: 73fd 323c 8d13 39bc ff7b ae3b e108 2dbc
000001f0: a02b 093c f3ff d33c 6524 813d bbf4 853a
00000200: cec8 26bd 9ab0 eabc fe19 cc3c e833 463d
00000210: 200a 1dbd 2d04 f93b d7ad e2bc b6d9 873c
00000220: 4a16 553b d9e5 11bd 20a0 0f3d a7c9 dd3c
00000230: c9c2 683b e7a8 863c 6cb8 c53c 0179 cd3c
00000240: f639 6e3c cd3b 993c 13e5 0d3d c322 a6bc
00000250: 621a 2f3c c09c 2f3d 883d 183a 7b74 513c
00000260: 6edd 3cbc 8701 fbbb 3656 55bc 468a f83c
00000270: 70d7 51bb 989f 27bd 21f0 723c a53c 64bc
00000280: e4ce 7e3c 9e7f 7e3c 151d 953c 8d5a 9539
00000290: c9b1 73bb 72e7 973c a15c d13c 1215 5d3c
000002a0: f951 473d 51a6 a83c 3641 43bc 27b3 453d
000002b0: b854 293d ed1b 603c 08da 8f3d 6617 e93c
000002c0: aa46 91bb 6d7a 0a3d d6bc c0bb d587 883c
000002d0: 72fc 2c3d 769b f53c 1cc7 a63c 13c7 a239
000002e0: e541 13bc a24e 033d 17c7 44bd 4b10 a3bd
000002f0: 4062 bebc 0484 09bd 8e96 52bc f5c5 5d3c
00000300: ffb4 f7bb 2e0d 663c 230b dfbc 6cad 0e3d
00000310: 8bc6 8c3c c2a4 2c3c c341 bc3b 33be 2ebc
00000320: d03e 423c 52dc 8bbb edc0 173d f91d c5bc
00000330: ac63 5a3b 00e1 0dbd e689 15bc e672 d83b
00000340: a5b9 1ebc f506 093c fac9 cc3b f986 9abc
00000350: 4ff5 a83c 388f 6f3c 5f23 1ebb 0bb8 36bd
00000360: fb24 2d3c 3651 8b3d e20a 563c 7051 21bb
00000370: 033a 143c b708 b8bb fde1 48bc dc69 61bc
00000380: a688 833c c455 ed3c dff0 393c 4534 f7bb
00000390: f242 a93b f4c3 e4bb 34c6 72bc b34b cc3c
000003a0: b078 51bc 2d68 e9bc da25 be3c e8d5 be3c
000003b0: 0413 d3bb f206 413d a4eb 08bd 46ec 8a3c
000003c0: 17b3 6ebc 9384 e73c dea9 3b3c c8b5 353d
000003d0: 95ee 8c3c 53d8 da3c a6fc c83c 0c7c 663d
000003e0: 0ae2 153d 7fbe 283d dc79 66bb 08d1 c23c
000003f0: ebcd 9a3a 4892 3ebc 1002 723c 2a5b 4c3d
-0.021565013 -0.008557287 -0.019975381 -0.041409932 -0.0032897845 0.019247236 0.019888673 0.03827246
0.03416916 -0.0072588176 0.039050512 0.01033714 -0.0055539887 0.009474227 -0.011120784 0.034528192
-0.006428345 -0.02279377 0.010211852 -0.009040933 -0.011653277 0.033795048 0.01760401 0.014353285
-0.013628019 -0.003031062 0.048887596 0.0034764619 0.053960036 0.01851294 0.0347438 0.050110925
0.0373321 0.037925106 -0.0011207213 0.0241222 -0.0005139084 0.021262256 0.014920307 0.022747476
-0.0035221488 -0.002417284 0.00014332264 0.0024448254 0.0036632055 0.020780547 0.02334329 0.025268883
0.022247886 0.01995893 -0.036593635 0.016045904 -0.018304404 -0.0074319355 0.06484754 0.030051706
0.0012166245 0.011646774 0.005990738 0.030394549 -0.010001929 -0.026061941 0.02509901 -0.004646781
0.028730506 -0.009399541 -0.008238576 -0.004269337 0.01998677 -0.009567474 -0.031793267 0.027456157
0.046156093 -0.04773405 -0.0069353017 -0.0330022 0.0423967 0.0027207355 -0.0007428807 -0.0038831723
0.008034339 -0.002095066 -0.023608709 0.022835217 0.035289895 0.008512116 -0.0024287058 0.014036225
-0.019777114 0.031903233 -0.013069882 0.0032535393 -0.034976766 -0.0029855634 0.049908876 -0.002951474
0.02348418 -0.0014412998 -0.0041855625 -0.024712969 0.017970547 0.0062719 -0.024977671 -0.024074001
0.007265001 0.016585933 -0.011808834 0.006054258 0.036428183 -0.023782246 -0.018048286 0.03116192
-0.00013447978 -0.0061138305 0.019895889 0.017041853 0.009753319 0.038017005 0.08937822 -0.031233225
0.010924685 -0.011296165 0.00532484 -0.010561199 0.008372217 0.025878882 0.0630577 0.001022003
-0.040718846 -0.028648663 0.024914738 0.048389345 -0.038339734 0.0075993747 -0.027670784 0.016583305
0.0032514506 -0.03561959 0.035064816 0.027073694 0.0035516492 0.01643796 0.02413579 0.025082113
0.014540186 0.018705273 0.03464229 -0.020280248 0.0106874425 0.042874098 0.0005807509 0.012784119
-0.011527402 -0.007660094 -0.013021043 0.030339371 -0.003201928 -0.040923685 0.014827759 -0.013930474
0.015552256 0.015533356 0.018202344 0.0002848696 -0.0037184826 0.018542979 0.025556864 0.013493793
0.04866216 0.020587118 -0.011917403 0.048266556 0.04134056 0.013678533 0.07024008 0.02845354
-0.0044334726 0.03380816 -0.005881886 0.016666332 0.042232938 0.029981356 0.020358615 0.0003104737
-0.008987878 0.032057412 -0.04804143 -0.07962092 -0.023240209 -0.033573166 -0.012853278 0.013535966
-0.007559418 0.014041228 -0.02722699 0.034833357 0.017184516 0.010537328 0.005745144 -0.010665464
0.011855796 -0.0042682076 0.037049223 -0.024062144 0.003332357 -0.034638405 -0.009127116 0.006605494
-0.009687816 0.008363475 0.0062496634 -0.018863188 0.020624785 0.014621548 -0.002412997 -0.04460911
0.010567899 0.06802599 0.013064118 -0.002461519 0.009047034 -0.0056162733 -0.012260911 -0.013758149
0.01605637 0.02897156 0.011348932 -0.007544073 0.005165451 -0.0069813672 -0.014817763 0.02493844
-0.012785122 -0.028492058 0.023211408 0.023295358 -0.006441476 0.047125764 -0.03342785 0.016958367
-0.0145690655 0.028261459 0.011454074 0.044362813 0.017203609 0.02671448 0.024534535 0.056270644
0.03659252 0.041197296 -0.0035167849 0.023781314 0.0011810636 -0.011631556 0.014771 0.04989163

output_mlp.0.bias f4 [128]
00000000: 67ea 3dbd 0ac0 2ebe 8886 e6bd a0ee 15be
00000010: 4ab7 10be 1f6a b0bd 2ede 73bd da51 5e3e
00000020: cda2 a4bd d59f 05bc edc2 f6bd 873f a1bd
00000030: 55d3 2fbc ba2f 15be 4d57 82bd 7046 6ebd
00000040: f913 99bc f3e7 7bbd 3cd5 64bd 21f3 f1bd
00000050: 57eb afbd c76a e23d 6e04 853d ccb6 1ebd
00000060: c4ec 11bd 54b4 a4bd be4b 4abd 099e 96bd
00000070: 2900 90bd 1238 7a3c cc21 14bd 00de 49be
00000080: 3e1c dabd c73f edbd d7a4 da3e 422c 68bd
00000090: e990 62be 7100 97be 60c9 6a3d 8dd0 713d
000000a0: b887 95bd 7c1a 00be cd21 20be 3fa7 963d
000000b0: ee74 9cbd 2726 943e 3a26 0cbe ad20 80be
000000c0: 5203 adbd cab3 e8ba 6f4d e73d 5032 733d
000000d0: 75cd a7bd af4b 42be 7d7b e7bd 329c 0f3e
000000e0: 6079 29be fc8b 8bbc 5dba d23c 7ae6 d9bc
000000f0: 1a25 aebd 108f 5ebb bb79 0ebe ea22 273e
00000100: dac8 86bd c304 3e3d 8143 7fbd a558 21be
00000110: a8d1 f33d 954b a3bd ceb9 8c3e 61ae 6f3e
00000120: bd25 053e b571 e83d 796a 3dbd 573a 0cbd
00000130: f355 5abe b638 75be 7fa4 acbe 3ba3 cfbd
00000140: e267 41bd 400d 2f3e 899b 99bd e3ee a4bd
00000150: 1205 e1bb 08ce aabd 5033 efbd 77ba 1dbd
00000160: 0f7f 4ebc 852a 72bd cd8e 083e d503 c0bc
00000170: d38d 073d 4109 22be 5233 87bd f5fa bb3d
00000180: 3005 9f3b 7606 9fbd 801b 97bd 57c0 99bd
00000190: 8cae 3fbd 39fd 28be 8a2e 90bd 2ba5 8e3e
000001a0: f084 193e 537e a5bd ca6b e43d fa2a c83d
000001b0: 8c1d c9bd 3117 fabe 3212 c13d c940 efbd
000001c0: 5be7 e03d 2031 33be a4c0 d0bd 9af3 39bd
000001d0: d59b 453c f578 a5bd ac0b 2e3d c8f2 e4bd
000001e0: d1cd 64bd 01e6 cb3d 7ec7 aabd 1314 02bf
000001f0: 0a3d 1f3e d987 43bd 839a 803e 0d81 efbc
-0.04636612 -0.17065445 -0.112561285 -0.1464181 -0.14132419 -0.08613991 -0.05953806 0.21710911
-0.08038864 -0.008155783 -0.12048898 -0.07873445 -0.010731538 -0.14568987 -0.063643076 -0.058172643
-0.018686282 -0.0615005 -0.05586742 -0.11813951 -0.085898094 0.110555224 0.064949855 -0.038748547
-0.035626188 -0.08042207 -0.04938864 -0.073543616 -0.070312805 0.015272157 -0.036165044 -0.19713593
-0.10649918 -0.1158443 0.42703888 -0.056682833 -0.22125591 -0.29492524 0.057320952 0.05903678
-0.07301277 -0.12510103 -0.15637894 0.073561184 -0.0763949 0.28935358 -0.13686457 -0.2502493
-0.08447899 -0.0017753777 0.11294066 0.059374154 -0.08193485 -0.18974183 -0.113028504 0.14024428
-0.16550207 -0.017034523 0.02572363 -0.026599158 -0.0850317 -0.0033959784 -0.13913624 0.16321912
-0.06581278 0.04639126 -0.062320236 -0.15756471 0.11905223 -0.079734005 0.27485508 0.23406364
0.13002677 0.11349813 -0.04624412 -0.034235325 -0.2132185 -0.23947415 -0.3371925 -0.101385556
-0.04721821 0.17094898 -0.07500369 -0.080533765 -0.0068670595 -0.083400786 -0.11679709 -0.038507905
-0.012603535 -0.05912258 0.13335724 -0.023439327 0.03309424 -0.15823843 -0.066015854 0.09178726
0.0048529133 -0.07764904 -0.07378292 -0.07507389 -0.04679732 -0.16502847 -0.070401266 0.27860388
0.14992118 -0.08080735 0.11153372 0.09773822 -0.09820089 -0.4884582 0.094272986 -0.11682279
0.109816276 -0.17499208 -0.10192993 -0.045398332 0.012061079 -0.08079711 0.0424916 -0.11179119
-0.055860344 0.09955979 -0.08338831 -0.5081188 0.15550628 -0.047736976 0.25117883 -0.02923634

output_mlp.2.weight f4 [9, 128]
00000000: 0d0c cc3c bea0 8bbd 6a70 acbc c7b5 8ebc
00000010: 1f84 ed39 8fb1 b4bc 36a3 713b 10b1 64bd
00000020: 8318 f8bb 9151 f3bc 8907 81bb 9d64 843d
00000030: 70d2 0ebd 7a98 6fbc 3f04 003d 9452 be3b
00000040: c119 383c 2c01 23bd 92f7 8abb 94a9 893c
00000050: 1657 963c fa42 f5bd b459 1d3c 7aae a1bb
00000060: a058 263d ef24 12ba b08d 2bbb 9f93 34bc
00000070: cfa2 493c a8c4 e8bc 9aee 143d 755a ebbb
00000080: ef31 c2bc 7852 ab3a 3f68 4abd 5db7 94bc
00000090: dea9 01bb e966 f13c 1d70 9cbd 6f1f c53c
000000a0: 050a 8a3b 4b44 6cbd fd24 3bbc 5347 c5bc
000000b0: bbb4 593c 3741 64bd 04db eebb 8d46 6c3c
000000c0: 6e66 2d3c d8ff c7bc 950e 2bbc 1445 62bb
000000d0: 8625 7f3d 6ecf 5cbd 18ae 50bc 2061 59bd
000000e0: 641f 77bc ca0e e83c 941e b5bb ae34 e63c
000000f0: 0210 79bc fd8a 4fbd 45dc 293d 66cf cabc
00000100: b93a 223b c591 c8bd a7d7 503d 1f35 76bd
00000110: 83b9 b1bc 1a24 d73c 9088 7ebd 81b5 f9bc
00000120: 16b5 9fbc 0041 7abd 4985 143d b812 44bc
00000130: 95ff 8f3b 6f08 823d 276b 23bd d954 c2bb
00000140: 5444 353a e0c4 23bd c47a 09bc d645 aebb
00000150: 1c69 07bd 3f04 91bc eb9c b73c f740 253d
00000160: 40a3 a23b 139d 613c ed3e 66bd 7565 f53c
00000170: afd8 6bbc 2853 0abc 27fa a4bc 57f5 85bd
00000180: c7b2 c6bd 6f36 493b 1e9f 9f3c 3a7d c43c
00000190: 0237 8b3c 0766 083d 6729 41bc 4f68 16bc
000001a0: 1ff7 a1bd f048 063b 1963 64bd 685d 7abd
000001b0: 683b 98ba 910c 2abd bf77 a7bd 8b1a cebc
000001c0: a2f3 99bd 5d2e fd39 8643 553c 4db5 c13b
000001d0: ac9a 8bbd 7ed3 f83c 0a91 9dbc cb22 663c
000001e0: 006d e63b 9e2a dbbc a9dc f1bb bac7 70bd
000001f0: 06c6 76bc bc1a 37bc 1359 88bd d675 98bc
00000200: 9a48 443d 359d 79bd 708f 93bd 206d 783b
00000210: 274d d63c 62fe ef3c 712a c73c 715a b2bd
00000220: 640d b73c b388 9abd c4d6 063d 3914 613d
00000230: 37bd 01bd bcd7 d1bc 2756 233d 6a41 143d
00000240: ec6d f53c 9a82 52bd 76ef 5a3c 6105 173d
00000250: 705b fa3c 8602 72bd eb80 653d 406d 543d
00000260: 2e88 b43c 9663 c03c 776f e03c 151d 7f3d
00000270: b79f 083d 2a3c dbbd c3f2 1b3d bd6a 803c
00000280: 6449 2fbc 6c68 003c ded3 28bd ff09 873d
00000290: 7d18 84bd 00ac 833d e5bf 9cbd f444 7bbd
000002a0: 965e 893d dd25 41bd b32f c1bc cfc6 21bd
000002b0: 128d 423d 5399 8fbd acb6 3e3d 1af5 22bd
000002c0: 1a23 d53c 4790 87bd e3eb 6bbd 7618 6ebc
000002d0: 8267 a73c b57b 7dbd ffc0 c63c 818a 4bbd
000002e0: 2252 41bd 2a03 263d f0d4 71bd 36fd 063d
000002f0: 9d8a c13c 36bc 88bd f5ed 2d3d a247 1fbd
00000300: 6822 263d 91c3 94bd 0b67 543d 26b6 51bc
00000310: 1fd3 4dbd e1ef 313b 7051 adbd 7a6a 08bd
00000320: 7dd9 10bc 9da8 90bc 3cc5 443d 44e2 27bd
00000330: 3707 04bd e3cf 093c 6987 bbbd 3290 5c3d
00000340: ce64 a9bc b86b b0bd 2e23 7c3d ecab 2c3d
00000350: e7db d6bd 308d 2c3d b2f1 1dbd ba6c 4e3d
00000360: 50d5 45bd ae76 4f3d 0ffa 5bbd 5768 453d
00000370: 4dd3 3bbd bc8c a2bd 5b6d 2d3d 872e 29bd
00000380: c7f3 b7bd d255 9a3d 5504 c83c 67fd ce3c
00000390: 6430 f23c 68c4 103d 23f6 c53c e96e c5bd
000003a0: 83f4 25be 871b 0b3d 1985 53bd 8fcc 23bd
000003b0: f703 393c 73db 8dbd e8e4 c6bd cfa7 103c
000003c0: f51b 87bd 038f 2fbd 15ea 993c a4af edbc
000003d0: d604 94bd 64f1 973d 2f8a ffbc ca82 f0bb
000003e0: 10c3 3abd cc20 5cbd 5218 563c b185 7dbd
000003f0: b5cf 85bd 3f86 253d e135 96bd 956a 5c3d
0.02490809 -0.068177685 -0.021049697 -0.017420663 0.000453026 -0.022057323 0.0036870963 -0.055832922
-0.0075712814 -0.02970198 -0.003937666 0.06464503 -0.034868658 -0.014623756 0.03125405 0.005808184
0.011236609 -0.03979604 -0.0042409385 0.016804494 0.018352073 -0.119756654 0.009603906 -0.0049341293
0.040611863 -0.00055749615 -0.0026176982 -0.011021524 0.012306883 -0.028414086 0.03636036 -0.007182414
-0.02370545 0.0013070842 -0.049415823 -0.01815384 -0.0019785087 0.029468017 -0.076385714 0.02406284
0.00421262 -0.057682317 -0.011422393 -0.024081862 0.013287718 -0.055726256 -0.0072892923 0.0144211175
0.010583503 -0.024413988 -0.010440488 -0.0034526037 0.062291645 -0.053908758 -0.01273682 -0.05307114
-0.015083168 0.028327364 -0.005527327 0.028101292 -0.0152015705 -0.05066966 0.04146983 -0.024757098
0.002475424 -0.09793428 0.050986912 -0.060109254 -0.021694904 0.026262332 -0.062141955 -0.030482056
-0.019495528 -0.061097145 0.036259923 -0.0119673535 0.0043944814 0.06349265 -0.03989711 -0.005930525
0.0006914784 -0.039982677 -0.008391086 -0.0053183837 -0.033059224 -0.01770222 0.022413692 0.04034516
0.0049633086 0.01377036 -0.056212354 0.029955605 -0.014394923 -0.008442678 -0.020138813 -0.065409355
-0.09702068 0.003070261 0.019485053 0.023985494 0.016994003 0.033300426 -0.011789656 -0.009180143
-0.07908463 0.0020490251 -0.05575857 -0.061124235 -0.0011614384 -0.04151589 -0.08177137 -0.025159141
-0.075171724 0.00048290464 0.013016587 0.0059115053 -0.06816611 0.030374285 -0.0192342 0.014046381
0.007032037 -0.02675372 -0.007381041 -0.058784224 -0.015061861 -0.011175808 -0.066576146 -0.018610876
0.0479208 -0.06094094 -0.07205093 0.003790684 0.026159836 0.029296104 0.02431223 -0.087086566
0.022345252 -0.075456046 0.03291966 0.054950926 -0.03167459 -0.025615565 0.039877083 0.036195196
0.029959641 -0.051394083 0.013362756 0.036870364 0.030561179 -0.059084438 0.05603115 0.051862
0.022037592 0.023484986 0.0273969 0.062283594 0.03335544 -0.10704835 0.038073312 0.015675897
-0.01069865 0.007837396 -0.041217677 0.065937035 -0.06449983 0.06429291 -0.076537885 -0.061345056
0.06707494 -0.04715525 -0.023582315 -0.03949624 0.047497816 -0.07011666 0.04656093 -0.03978453
0.026017714 -0.066193156 -0.057598006 -0.014532199 0.020435099 -0.061885554 0.02426195 -0.049692634
-0.04719747 0.04053036 -0.059040964 0.032956325 0.023625666 -0.066765234 0.04246326 -0.038886674
0.040560156 -0.07263864 0.051856082 -0.012799775 -0.05025017 0.0027151036 -0.084627986 -0.03330467
-0.008840916 -0.017658526 0.04803966 -0.040987268 -0.032233443 0.00841138 -0.09156687 0.053848453
-0.02067795 -0.08614296 0.061556987 0.042156145 -0.10491162 0.042126834 -0.038560577 0.05039666
-0.048299134 0.05065029 -0.05370527 0.04819521 -0.04585581 -0.07936999 0.042340618 -0.041304138
-0.08982044 0.075359 0.024416128 0.025267316 0.02956409 0.035343558 0.024165219 -0.09640295
-0.16206555 0.0339618 -0.051640604 -0.039990004 0.011292449 -0.06926622 -0.09711629 0.008829071
-0.06597129 -0.042860996 0.018788377 -0.029014416 -0.07227485 0.074190885 -0.03119382 -0.00733981
-0.045596182 -0.053742215 0.013067322 -0.061895076 -0.065337576 0.04041123 -0.07334495 0.053812582

output_mlp.2.bias f4 [9]
00000000: efbd 98bc 8f88 1ebd 0639 0cbd 7a6e e73c
00000010: c594 4f3e 3883 13bd 8354 843d 930d 06bd
00000020: 068b 24be
-0.018645255 -0.03870445 -0.03423407 0.028250922 0.20271595 -0.03601381 0.06461432 -0.03272779
-0.16068658
