log/segmentation/pn/bucket/weighted/pn_40.pth (torch, 337359 bytes, 8 tensors)

local_mlp.0.weight f4 [64, 3]
0	0x3f00fe0b	0.5038764
1	0x3ec9ee19	0.39439467
2	0x3e86101f	0.26184174
3	0xbf7f4b7c	-0.99724555
4	0xbf06d9fa	-0.52676356
5	0x3e0d1ea8	0.13781226
6	0xbd407905	-0.046990413
7	0x3faefa90	1.3670216
8	0xbd8b8cb2	-0.06813945
9	0x3f407055	0.75171405
10	0xbeb06c3f	-0.34457585
11	0x3d728a4d	0.059213925
12	0xbf3939dd	-0.7235392
13	0x3e811668	0.25212407
14	0x3efe3f37	0.49657604
15	0x3f32d19a	0.69851077
16	0xbeb8c7d9	-0.36089972
17	0x3d206d71	0.03916687
18	0x3f196d26	0.5993217
19	0x3e9cd5bc	0.30631816
20	0x3e0cff77	0.13769327
21	0x3e8f5f3d	0.2800235
22	0x3f69ab54	0.9127705
23	0xbcc0dd15	-0.02354292
24	0xbe899598	-0.26871943
25	0x3f4ada0b	0.7923896
26	0xbea07fc2	-0.3134747
27	0xbe1d5ce3	-0.15367465
28	0x3f837ef3	1.0273117
29	0xbe3b970f	-0.18319343
30	0x3e5c5251	0.21515776
31	0xbdc2aadf	-0.09505247
32	0xbe8917a6	-0.26775855
33	0xbf1341c5	-0.5752223
34	0x3efbde33	0.49192962
35	0x3f3af2f3	0.7302696
36	0x3f25e6f5	0.6480554
37	0xbe2abd2d	-0.16673727
38	0xbd50af2d	-0.05094831
39	0xbf709d8b	-0.9399039
40	0xbeda19bf	-0.42597768
41	0x3e8d674c	0.27617872
42	0x3f205e03	0.6264345
43	0x3e7340c0	0.23755169
44	0x3e0be202	0.13660434
45	0x3e8fb692	0.28068978
46	0x3f1cdcba	0.612743
47	0x3e066497	0.1312431
48	0xbf523525	-0.8211234
49	0xbec35297	-0.3814895
50	0x3ea10c0e	0.3145451
51	0x3f2db2ab	0.6785075
52	0x3e31d39a	0.17365876
53	0x3e18c86e	0.14920208
54	0xbf2346d6	-0.6377996
55	0xbf09e50e	-0.53865135
56	0x3ec26c81	0.37973407
57	0x3e88c7cb	0.2671493
58	0x3f28caec	0.65934634
59	0x3cac8e03	0.02106381
60	0xbf2b7558	-0.6697593
61	0xbeefc506	-0.46830004
62	0x3eba1820	0.3634653
63	0x3f38f11f	0.7224292
64	0xbd56f6fb	-0.052481633
65	0x3dc794f8	0.097452104
66	0x3e5c6200	0.21521759
67	0x3f941446	1.1568687
68	0x3cd5f720	0.026118815
69	0x3ef6a92e	0.4817595
70	0x3f3da126	0.7407402
71	0xbd9d6b05	-0.07686428
72	0x3f14cf55	0.58128864
73	0x3e93fabd	0.28902236
74	0x3e745600	0.23860931
75	0x3f2bf635	0.6717256
76	0xbe6f5ed7	-0.23376022
77	0xbb5d7005	-0.0033788693
78	0xbf34ab1b	-0.70573586
79	0xbeff61d7	-0.49879333
80	0x3eb3b371	0.3509784
81	0xbc626932	-0.013819026
82	0x3f4f8438	0.81061125
83	0x3d74ab8a	0.059733905
84	0xbf1f6323	-0.62260646
85	0xbf5ee1e9	-0.8706346
86	0xbd77aa7a	-0.060465313
87	0xbf6d06f0	-0.9258871
88	0xbed378fb	-0.41303238
89	0x3e8da6e4	0.2766639
90	0xbf6e0fa7	-0.92992634
91	0xbed764dd	-0.4206914
92	0x3e872e88	0.26402688
93	0xbf54d6f5	-0.831405
94	0xbed87708	-0.42278314
95	0x3e92e8b7	0.28693172
96	0xbf7b913a	-0.98268473
97	0xbecc0ed3	-0.3985506
98	0x3e82576d	0.25457326
99	0xbf856e74	-1.0424333
100	0xbee56f5c	-0.44811523
101	0x3e5d02c4	0.21583086
102	0xbf652f18	-0.89524984
103	0xbeedeaec	-0.46468294
104	0x3e4631ca	0.1935493
105	0x3dfc44d6	0.12317817
106	0xbe63e34a	-0.22254673
107	0xbe712555	-0.23549397
108	0xbf68cb08	-0.909348
109	0xbecbf97c	-0.3983878
110	0x3e93ab77	0.28841755
111	0x3eeb51ee	0.45960945
112	0x3f585cbd	0.8451651
113	0xbdbde9c2	-0.092731014
114	0x3da9ebf8	0.082969606
115	0x3f7f65e1	0.9976483
116	0xbe90eddf	-0.2830648
117	0x3f3b6316	0.7319807
118	0xbe6e59ef	-0.23276494
119	0x3d7f665e	0.062353484
120	0xbde9a4ed	-0.1140841
121	0x3f956993	1.1672844
122	0xbe13c254	-0.14429599
123	0xbf706535	-0.9390443
124	0xbed02244	-0.40651143
125	0x3e5733bd	0.2101583
126	0xbf3c1cc1	-0.73481375
127	0xbeeb6770	-0.45977354
128	0x3eabcf89	0.33556774
129	0x3e889e10	0.26683092
130	0x3f4e2a3c	0.80533195
131	0xbd68c4e2	-0.056828387
132	0xbf75b69f	-0.9598178
133	0xbedd5aa7	-0.43233225
134	0x3e83da7a	0.25752622
135	0xbea8cc49	-0.32968357
136	0x3f4ff161	0.8122769
137	0xbe8f64e9	-0.28006676
138	0x3e9861ee	0.29762214
139	0x3f3bba0e	0.7333077
140	0x3c961476	0.018320303
141	0x3efd8361	0.49514297
142	0x3ee914b9	0.45523623
143	0x3d9ac665	0.07557372
144	0xbf365c09	-0.71234185
145	0xbe9ac897	-0.30231163
146	0x3ec3322c	0.38124216
147	0x3df026ca	0.117261484
148	0xbe4f5bc7	-0.20249854
149	0xbe82b517	-0.25528786
150	0x3ecb2c17	0.39682075
151	0x3f2337bf	0.63756937
152	0xbe028b8b	-0.12748544
153	0x3f3bb9d8	0.7333045
154	0xbd45d331	-0.04829711
155	0x3df7e1d5	0.12103621
156	0xbf313937	-0.6922793
157	0xbefa6c7c	-0.48910892
158	0x3ebc6248	0.36793733
159	0x3f104da4	0.5636847
160	0xbcde5841	-0.027141692
161	0xbe13e5d4	-0.14443141
162	0x3f00eaf1	0.5035849
163	0xbe762a22	-0.2403951
164	0xbdc5f663	-0.09666135
165	0xbc76b8e5	-0.015058731
166	0x3f8fa8f4	1.1223435
167	0xbe3d198f	-0.18466781
168	0x3f336b5b	0.70085686
169	0x3c24f102	0.010067226
170	0x3e26fa99	0.16306533
171	0x3d07028a	0.032961406
172	0x3fca0fc3	1.578606
173	0x3c7d5712	0.015462654
174	0x3f0a63da	0.5405861
175	0xbe07f28c	-0.13276118
176	0xbe07bad8	-0.13254869
177	0xbf479e36	-0.77975786
178	0xbeca9b7e	-0.39571756
179	0x3e903cdc	0.28171432
180	0xbf3a32ab	-0.72733563
181	0xbeafc798	-0.34331965
182	0x3e9886e8	0.29790425
183	0x3f2ccd9f	0.6750125
184	0xbe7aed3b	-0.24504559
185	0xbc40ae4b	-0.011760305
186	0x3dda4b6b	0.10658916
187	0x3f990947	1.1955956
188	0x3bd998e5	0.006640541
189	0xbf2d64ca	-0.67731917
190	0xbef999c8	-0.48750138
191	0x3eb5ebd4	0.35531485

local_mlp.0.bias f4 [64]
0	0xbd0618f9	-0.03273866
1	0xbdaa9a5b	-0.08330222
2	0xbd60cca5	-0.054882664
3	0xbe4156ee	-0.18880817
4	0xbe91af1f	-0.2845392
5	0xbe342953	-0.17593889
6	0xbdc3169c	-0.09525797
7	0x3e6eb801	0.2331238
8	0xbdd4e555	-0.10395304
9	0xbe0a44b1	-0.13502766
10	0x3f1c0ff0	0.6096182
11	0xbe8d2207	-0.27565023
12	0xbdcd0390	-0.10010445
13	0xbe5819d3	-0.21103601
14	0xbdcb954c	-0.099405855
15	0xbc98ed53	-0.018667853
16	0xbe7dfa8f	-0.24802612
17	0xbdd9f5c0	-0.10642576
18	0xbe933607	-0.28752157
19	0x3da5b2c4	0.080907375
20	0xbe82efe5	-0.2557365
21	0xbe0f7416	-0.14009127
22	0x3e64ed20	0.22356081
23	0x3e1a461c	0.15065807
24	0xbda99fc6	-0.082824275
25	0xbe028cd2	-0.12749031
26	0xbe97fea9	-0.29686478
27	0x3e5ce7e7	0.21572839
28	0x3e4c0984	0.19925505
29	0xbe59f765	-0.2128578
30	0xbe3c80c6	-0.18408498
31	0xbe85e05f	-0.26147744
32	0xbe51718c	-0.20453471
33	0xbe05b265	-0.13056333
34	0xbdc89b60	-0.097952604
35	0x3f090d2b	0.5353572
36	0xbe6df9d0	-0.23239827
37	0x3eadc0d0	0.33936167
38	0xbe098c92	-0.1343253
39	0xbe2ec54d	-0.17067452
40	0xbddaa60e	-0.10676204
41	0xbe0c481a	-0.1369938
42	0xbe82a0c4	-0.2551328
43	0x3eca7dca	0.39549094
44	0xbe4a788d	-0.19772549
45	0xbddfe84a	-0.109329775
46	0x3cd7e275	0.0263531
47	0xbdd8dd3e	-0.105890736
48	0xbe93f949	-0.28901127
49	0x3f02e263	0.5112669
50	0x3eeacd31	0.45859674
51	0xbe2bf514	-0.16792709
52	0xbe8bc9cc	-0.27302396
53	0x3c55dada	0.013052667
54	0xbd7d4ddb	-0.061841827
55	0xbdffe369	-0.12494547
56	0xbe11fc90	-0.14256501
57	0x3ccd4d8b	0.02506139
58	0xbc44fa91	-0.01202263
59	0xbe1de917	-0.15420948
60	0xbe4b1312	-0.19831493
61	0xbe00eb9e	-0.12589881
62	0x3ecafca7	0.39645883
63	0xbe882b11	-0.26595357

local_mlp.2.weight f4 [256, 64]
0	0x3ea40588	0.3203547
1	0xbef28d87	-0.47373602
2	0xbe907f97	-0.28222343
3	0x3f224058	0.6337943
4	0x3f23d301	0.6399384
5	0x3f1db4ff	0.61604303
6	0x3e95faad	0.29292813
7	0xbea764bb	-0.3269404
8	0xbe181dc0	-0.14855099
9	0xbe6024cb	-0.21889035
10	0xbfaa5fa4	-1.3310437
11	0x3f1cb87b	0.61218995
12	0x3e25076b	0.16116111
13	0x3d8812f6	0.066442415
14	0x3eae2066	0.34009093
15	0x3e5d834c	0.21632117
16	0x3e84d6cc	0.25945127
17	0x3ec820d1	0.39087537
18	0x3ee8fbab	0.45504507
19	0xbccf0942	-0.02527297
20	0x3eaf8ffa	0.34289533
21	0x3ed9bfc0	0.42529106
22	0xbe7b922e	-0.24567482
23	0xbebc156d	-0.36735097
24	0x3ebfb51b	0.3744286
25	0x3ea939c2	0.33051878
26	0x3ebc3799	0.36761168
27	0xbe011146	-0.12604246
28	0xbf614ea7	-0.8801064
29	0x3dedb257	0.11606281
30	0x3d9929e3	0.074786924
31	0x3e0222ce	0.1270859
32	0xbc342327	-0.010994709
33	0xbe4b110d	-0.19830723
34	0xbe1db6c5	-0.15401752
35	0xbfbe2589	-1.4855205
36	0x3e05bf01	0.13061143
37	0xbf20c57e	-0.6280135
38	0xbe6ff065	-0.23431547
39	0x3ef8afda	0.48571664
40	0xbe8eebe1	-0.27914336
41	0xbdf2070e	-0.11817752
42	0x3e93f3ef	0.28897044
43	0xbf10bbdc	-0.5653665
44	0x3c75515c	0.014973011
45	0xbe220d06	-0.1582528
46	0x3d03d001	0.03218079
47	0x3e8e6920	0.2781458
48	0x3ede77bf	0.43450734
49	0xbfc9592b	-1.5730337
50	0xbf47be71	-0.78024966
51	0x3ef005fc	0.46879566
52	0x3ecb3eea	0.39696437
53	0xbe95b0ed	-0.29236546
54	0x3d069ade	0.032862537
55	0xbe59ca27	-0.21268521
56	0x3ee4b17d	0.44666663
57	0xbeb0a6da	-0.34502298
58	0xbe3eb3c0	-0.18623257
59	0x3e39c068	0.18139803
60	0x3e807cd5	0.2509524
61	0x3ec34e2a	0.38145572
62	0xbf0926ed	-0.5357502
63	0x3eb0837d	0.34475318
64	0x3e0e8255	0.13916905
65	0xbe6070eb	-0.21918075
66	0xbf2698fd	-0.6507719
67	0x3edbe555	0.42948404
68	0xbd2628e9	-0.04056636
69	0x3ec8174e	0.3908028
70	0x3e5c667d	0.21523471
71	0xbdb34d5a	-0.08754988
72	0xbe197afa	-0.14988318
73	0xbe74c28a	-0.23902336
74	0xbef06418	-0.46951365
75	0xbd451c43	-0.048122656
76	0x3ea117f9	0.31463602
77	0xbda6cc05	-0.081443824
78	0x3e488f09	0.19585814
79	0x3daaaf27	0.08334189
80	0xbdb02002	-0.08599855
81	0x3e88d458	0.26724505
82	0xbe2d742f	-0.16938852
83	0x3d1ab42c	0.03776948
84	0xbe1d47df	-0.15359448
85	0x3eb08ed2	0.34483963
86	0xbdc78a84	-0.09743217
87	0x3d5a00c8	0.0532234
88	0x3e54c089	0.20776571
89	0x3eb7abbf	0.3587322
90	0xbdc8c70f	-0.098035924
91	0xbe27f778	-0.16402996
92	0xbf306c4d	-0.68915254
93	0xbdc23032	-0.09481849
94	0xbda09638	-0.07841152
95	0x3c4189cb	0.011812638
96	0xbd64ef98	-0.055892557
97	0xbe0986e5	-0.13430364
98	0xbe717eeb	-0.23583572
99	0xbf330c11	-0.69940287
100	0xbd1648a2	-0.03669036
101	0xbe287656	-0.16451392
102	0xbe8d7a37	-0.27632305
103	0x3ed900a6	0.42383307
104	0xbee33a9b	-0.4438065
105	0xbe0b43d0	-0.13600087
106	0xbe027c0a	-0.1274263
107	0xbeb30461	-0.34964278
108	0xbda445de	-0.080211386
109	0xbe31c6a5	-0.17360933
110	0x3d66028f	0.056154784
111	0x3e662dcf	0.22478412
112	0xbda13023	-0.078705095
113	0xbf0a2023	-0.53955287
114	0xbeb74a99	-0.357991
115	0x3ebedf9c	0.37279975
116	0xbe2ab73a	-0.16671458
117	0x3e8f3bf4	0.27975428
118	0x3e8a2693	0.26982555
119	0xbeaeb1a6	-0.3411991
120	0x3ea33f4c	0.3188423
121	0xbf648052	-0.892583
122	0x3e8c4318	0.27394938
123	0xbe295298	-0.16535413
124	0xbde99a75	-0.114064135
125	0x3ebf4cc8	0.37363267
126	0xbed7f277	-0.42177173
127	0xbdeb5311	-0.11490453
128	0x3df38abe	0.11891697
129	0xbee2358d	-0.4418148
130	0xbe24f7a9	-0.161101
131	0xbdd7982c	-0.10527071
132	0x3e2ac43d	0.16676421
133	0xbe1974ca	-0.14985958
134	0x3da2d07c	0.079499215
135	0xbe01ef43	-0.12688927
136	0x3c2a8def	0.010409816
137	0xbd64f90e	-0.05590158
138	0xbeda6334	-0.4265381
139	0x3e00fb04	0.12595755
140	0x3c4b22c2	0.012398424
141	0xbdf7130f	-0.12064182
142	0x3d9eaecc	0.077481836
143	0x3d5dbfcc	0.05413799
144	0x3c976594	0.018481053
145	0x3dc85be9	0.097831555
146	0x3e089676	0.13338646
147	0x3a5ca71c	0.0008417235
148	0x3d9eb220	0.077488184
149	0x3d766e82	0.060163982
150	0xbe2b5190	-0.16730332
151	0xbdb41c70	-0.087944865
152	0x3dd7a77d	0.10529993
153	0xbcf2127a	-0.029549826
154	0x3d6f7847	0.058464315
155	0xbb48aa5c	-0.003061912
156	0xbf1e6ba1	-0.6188298
157	0xbdec5ce4	-0.11541155
158	0xbddd287c	-0.107987374
159	0xbdb00099	-0.08593864
160	0xbe2b41bb	-0.16724293
161	0xbe73c998	-0.2380737
162	0xbe67d455	-0.22639592
163	0xbf091d12	-0.5355998
164	0xbdbbeb5d	-0.09175751
165	0xbe2f52d2	-0.17121437
166	0xbc2032a4	-0.009777699
167	0xbbe13d2a	-0.0068737464
168	0xbd0faeda	-0.03507886
169	0xbe4c4cf7	-0.19951235
170	0x3cc8b210	0.02449897
171	0xbdb5db2e	-0.08879696
172	0xbe26c87d	-0.16287418
173	0x3bb694db	0.005571944
174	0xbc449bd1	-0.01200004
175	0x3d2df358	0.0424684
176	0x3e27f748	0.16402924
177	0xbf1899ac	-0.59609485
178	0xbe3a07c1	-0.1816702
179	0x3c395cbb	0.011313613
180	0x3d94e9ba	0.07271142
181	0xbdacde5c	-0.08440849
182	0xbe10bcab	-0.14134471
183	0xbd80ac70	-0.0628289
184	0x3d8f36da	0.06992884
185	0xbe5ce199	-0.21570434
186	0xbd929f7f	-0.07159328
187	0x3c2c2368	0.010506488
188	0x3d805e2c	0.06267962
189	0xbda691a5	-0.08133248
190	0xbe01f410	-0.12690759
191	0x3e15ca8c	0.14628047
192	0x3e0e69d4	0.13907558
193	0xbe45073d	-0.19241042
194	0x3c63124e	0.013859345
195	0x3f301b99	0.6879211
196	0x3eed0397	0.462918
197	0x3f3b59fb	0.73184174
198	0x3e4e69ce	0.20157549
199	0xbeeb934e	-0.46010822
200	0x3e8701a8	0.2636845
201	0x3e3ca8c1	0.1842375
202	0xbf1b9e09	-0.6078802
203	0x3ed15de8	0.40891957
204	0x3ebea397	0.37234184
205	0x3dc55553	0.09635415
206	0x3e63f0bf	0.22259806
207	0xbc7fa508	-0.015603311
208	0x3e83400e	0.25634807
209	0x3ead2d86	0.33823794
210	0x3ede5338	0.43422866
211	0xbe1c9634	-0.15291673
212	0x3e9ef1de	0.31043905
213	0x3edcdeea	0.4313882
214	0xbeb22cbb	-0.34799752
215	0xbec2595b	-0.37958798
216	0x3e7338c5	0.23752125
217	0x3f020d23	0.50801295
218	0x3f02258f	0.5083856
219	0xbea04d23	-0.3130885
220	0xbefb5612	-0.49089104
221	0x3da7c1dd	0.08191273
222	0x3dc24aff	0.094869606
223	0x3eb87c74	0.3603245
224	0x3db420b5	0.08795301
225	0xbd4cdc79	-0.050014947
226	0xbdc00f68	-0.093779385
227	0xbf29b4e4	-0.6629164
228	0x3dfbcc3b	0.12294813
229	0xbf402620	-0.75058174
230	0x3e211fe9	0.15734829
231	0x3f0795f3	0.5296318
232	0x3e04857c	0.12941545
233	0xbd05df9c	-0.032683954
234	0x3e9ac69e	0.30229658
235	0xbf487e0e	-0.78317344
236	0x3da07cd5	0.0783631
237	0x3ea83cb6	0.3285882
238	0xbe0d223f	-0.13782595
239	0x3de9431f	0.113897555
240	0x3ed1cf3a	0.40978414
241	0xbf137072	-0.5759345
242	0xbf74b8fa	-0.9559475
243	0x3ee6def0	0.45091963
244	0x3eadfb57	0.3398082
245	0x3d93becc	0.07214126
246	0x3f017be3	0.5057966
247	0x3e04746c	0.12935036
248	0x3ec85642	0.3912831
249	0xbba7da10	-0.0051224306
250	0x3e804177	0.25049946
251	0x3e270317	0.16309772
252	0x3e5a96cd	0.21346588
253	0x3f17a4d0	0.5923586
254	0xbf3b3fd5	-0.73144275
255	0x3ec88cd9	0.39169958

local_mlp.2.bias f4 [256]
0	0xbe5b1917	-0.2139629
1	0xbe98dea2	-0.29857355
2	0xbd4b6ff7	-0.049667325
3	0xbeaecc00	-0.34140015
4	0xbeabe351	-0.33571866
5	0xbe8427b2	-0.25811535
6	0xbd8f283b	-0.06990095
7	0xbd71f660	-0.059072852
8	0xbbbb7b55	-0.0057214894
9	0xbe75516e	-0.23956844
10	0xbe960631	-0.293016
11	0xbe3466d6	-0.17617354
12	0xbe8a5af8	-0.2702253
13	0xbe8a9f8c	-0.2707485
14	0x3bc536b5	0.0060184845
15	0xbd818f71	-0.063261874
16	0xbe558776	-0.20852455
17	0x3c478d86	0.012179738
18	0x3e09ec1c	0.13468975
19	0xbdbe68a8	-0.09297305
20	0xbeb531fe	-0.35389704
21	0xbe599233	-0.21247177
22	0xbea2ace5	-0.31772533
23	0xbdaee1c1	-0.08539153
24	0xbea1d1cb	-0.31605372
25	0xbeb4283c	-0.35186946
26	0xbeb2ec4e	-0.3494591
27	0x3dd9de79	0.106381364
28	0xbebfe300	-0.37477875
29	0xbe5f643a	-0.21815577
30	0x3e0f50e5	0.13995703
31	0xbe70a7ea	-0.23501554
32	0xbe8f077a	-0.27935392
33	0xbe84d3d2	-0.25942856
34	0x3de4ba3c	0.11168334
35	0xbe85c836	-0.2612931
36	0x3d95c4dc	0.073129386
37	0xbe9f298a	-0.3108638
38	0xbe8f3084	-0.27966702
39	0x3e3132f2	0.1730459
40	0xbea4d52d	-0.3219389
41	0xbea48192	-0.32130104
42	0xbe8f73df	-0.2801809
43	0xbdae4736	-0.08509676
44	0xbe82834b	-0.25490794
45	0xbe94b41f	-0.2904367
46	0xbe88b9be	-0.2670421
47	0xbe77d8d7	-0.24203812
48	0x3d83a0d6	0.064271614
49	0x3e45c85f	0.19314717
50	0xbe067c3e	-0.13133332
51	0xbe7f52d4	-0.2493394
52	0xbe354759	-0.17702998
53	0x3e6a0d8c	0.2285673
54	0xbe88be47	-0.2670767
55	0xbe83c2d2	-0.25734574
56	0xbe92960f	-0.2863011
57	0xbeae53a4	-0.34048188
58	0x3e18af99	0.14910735
59	0xbe8d19d6	-0.27558774
60	0x3e5d0f4c	0.21587867
61	0xbd9473d2	-0.072486535
62	0xbed261e7	-0.4109032
63	0xbea32a89	-0.3186839
64	0xbe68b8c2	-0.2272673
65	0xbdebcdbc	-0.1151385
66	0xbe7ad5ff	-0.24495696
67	0xbe59c37a	-0.21265975
68	0x3dc27e7f	0.094967835
69	0xbc059713	-0.008153695
70	0x3e222790	0.15835404
71	0x3d894c42	0.06703998
72	0xbe843a6a	-0.25825816
73	0x3dd54691	0.1041385
74	0xbc82ae23	-0.015952175
75	0x3d8487dc	0.064712256
76	0xbe20c779	-0.15701093
77	0x3e1ad33e	0.15119645
78	0x3bf5755f	0.0074907984
79	0x3d7efdfa	0.06225393
80	0x3cb4ca0b	0.022068998
81	0xbe52d8fa	-0.20590582
82	0xbd315c23	-0.04330076
83	0xbe87da9e	-0.2653398
84	0xbe8eeae7	-0.2791359
85	0xbe468de4	-0.19390064
86	0xbc4ea263	-0.012611958
87	0x3dcc5e83	0.09978964
88	0x3d6f20d4	0.058380917
89	0x3dc57eb1	0.09643305
90	0xbe7b5117	-0.24542652
91	0x3e24811e	0.1606488
92	0x3e874d97	0.26426384
93	0xbe88d987	-0.2672846
94	0xbe922057	-0.28540298
95	0xbe31af2d	-0.1735198
96	0xbe66ce12	-0.22539547
97	0xbe9ef2a1	-0.31044486
98	0xbc9d468a	-0.019198675
99	0x3e19044a	0.14943042
100	0x3dca3e26	0.09875135
101	0xbe8ee810	-0.27911425
102	0x3db6258e	0.08893882
103	0xbd23dfe9	-0.04000846
104	0xbd9933d9	-0.07480592
105	0xbebd1cf1	-0.36936143
106	0xbeb7e798	-0.3591888
107	0x3db3f9b8	0.087878644
108	0xbe5dbfcf	-0.216552
109	0xbeaef2b9	-0.34169558
110	0x3e07a59d	0.1324677
111	0xbd892771	-0.06696976
112	0xbe3bbef6	-0.18334565
113	0x3dbd5d77	0.09246343
114	0xbe868424	-0.2627269
115	0xbe73327d	-0.23749729
116	0x3e36e464	0.17860562
117	0xbe871177	-0.26380512
118	0xbe84dbaa	-0.2594884
119	0x3dace138	0.084413946
120	0xbe9c16e4	-0.30486214
121	0xbdda5cfa	-0.10662265
122	0xbe93dfdb	-0.28881726
123	0x3e192e2e	0.14959022
124	0xbe87f9eb	-0.2655786
125	0xbebac47b	-0.36478028
126	0xbdb0f239	-0.0863995
127	0xbe5fc356	-0.21851858
128	0xbe941ef7	-0.28929874
129	0x3d4fbd96	0.050717913
130	0xbe7c92e3	-0.24665408
131	0xbeb1b6d4	-0.347098
132	0x3e09d15d	0.13458772
133	0x3da7dc85	0.08196358
134	0x3de7ee0d	0.113247015
135	0xbe70840e	-0.23487875
136	0xbe945b53	-0.28975925
137	0xbed18256	-0.4091975
138	0xbe57c8d7	-0.21072708
139	0xbe7affba	-0.24511614
140	0x3de697b6	0.11259405
141	0xbe71f94f	-0.2363026
142	0xbe5a6686	-0.21328172
143	0xbead8305	-0.33889022
144	0x3da730ec	0.08163628
145	0xbe551580	-0.20808983
146	0xbe57268a	-0.21010795
147	0xbd415fb9	-0.04721043
148	0xbe5b7a06	-0.21433267
149	0xbea11881	-0.31464007
150	0xbec135dc	-0.37736404
151	0xbde332bf	-0.110936634
152	0x3d51a831	0.05118579
153	0xbe8f11d5	-0.27943292
154	0x3ce4230e	0.027848747
155	0xbe88a2fc	-0.26686847
156	0xbea58997	-0.32331535
157	0x3e554c7d	0.20829959
158	0xbe96b415	-0.29434267
159	0xbdb33868	-0.08750993
160	0xbdb4c6be	-0.088269696
161	0xbebd2e65	-0.3694946
162	0x3db1897a	0.086688
163	0xbea4a7b9	-0.32159212
164	0xbeab01b5	-0.3339974
165	0xbe5502c2	-0.20801833
166	0xbeb3c454	-0.35110724
167	0xbdb6d9b9	-0.08928246
168	0xbe8af7a5	-0.27142063
169	0xbd35e5bc	-0.044408545
170	0x3dae6eec	0.085172504
171	0xbe9f1eaf	-0.31078097
172	0xbe9622b6	-0.29323357
173	0x3de7b521	0.113138445
174	0xbe817dff	-0.2529144
175	0xbd2d3557	-0.042287197
176	0xbe8d4338	-0.27590346
177	0x3d636a5a	0.055521347
178	0xbe4402fd	-0.19141765
179	0x3d85183b	0.06498762
180	0xbe8a8113	-0.270516
181	0xbe8e33d5	-0.2777392
182	0xbe5f4c76	-0.21806511
183	0x3b96b251	0.0045988937
184	0x3dc56881	0.09639073
185	0xbe966510	-0.2937398
186	0x3e356fed	0.17718478
187	0x3e822220	0.2541666
188	0x3d9c650c	0.07636461
189	0x3e102499	0.14076461
190	0xbd9bc7f2	-0.07606496
191	0xbe50fe97	-0.20409618
192	0xbed65a26	-0.41865653
193	0x3d6af738	0.057364672
194	0xbec21532	-0.37906796
195	0xbe0f2e7a	-0.13982573
196	0xbe9c1563	-0.30485067
197	0xbc85e588	-0.0163448
198	0xbec1e41c	-0.37869346
199	0x3dfaf9b2	0.12254657
200	0xbe7ed72a	-0.24886766
201	0x3d85ec91	0.06539262
202	0xbdd948ff	-0.10609626
203	0xbc0781d2	-0.008270698
204	0xbea73c51	-0.32663205
205	0xbe543908	-0.2072488
206	0xbcb58b1f	-0.022161065
207	0xbe9dd2ce	-0.30824894
208	0xbe74cff5	-0.23907454
209	0xbebb71bb	-0.36610207
210	0xbe74a512	-0.23891094
211	0xbe38bc91	-0.18040682
212	0x3e209037	0.15680014
213	0x3e8106c5	0.25200477
214	0x3daaae2f	0.08334004
215	0x3d1da979	0.0384917
216	0xbe5b91d1	-0.21442343
217	0xbe6a28cf	-0.2286713
218	0xbeabbc97	-0.3354232
219	0x3ddc5fad	0.10760436
220	0x3d3dd5fe	0.046346657
221	0xbec4556f	-0.3834643
222	0xbd24bb24	-0.040217534
223	0xbeae802e	-0.34082168
224	0xbe9242a0	-0.28566456
225	0x3da7a184	0.081851035
226	0x3d2a373e	0.04155659
227	0x3d050d50	0.0324834
228	0xbea31454	-0.31851447
229	0xbe697a53	-0.22800569
230	0x3d7ce218	0.061739057
231	0xbecd4c86	-0.40097445
232	0xbe6f6860	-0.2337966
233	0xbe9bda35	-0.30439916
234	0xbe99315c	-0.2992047
235	0xbcd09d52	-0.025465641
236	0xbd15dea1	-0.03658927
237	0xbe6b3e06	-0.22972879
238	0xbe813e6a	-0.2524293
239	0x3e0be6c5	0.1366225
240	0xbed29348	-0.41127992
241	0xbe6e29ca	-0.23258129
242	0xbe2d1528	-0.16902602
243	0xbe6f8a48	-0.23392594
244	0x3de5b070	0.112152934
245	0x3e4b52ec	0.19855851
246	0x3d7a59e9	0.0611209
247	0xbe5fcca4	-0.21855408
248	0xbe57b6bf	-0.21065806
249	0xbea467e5	-0.32110515
250	0x3eabd163	0.33558187
251	0x3dce9c12	0.10088362
252	0x3d80802b	0.06274446
253	0xbd7f7fff	-0.062377926
254	0xbe7d2a4b	-0.24723165
255	0xbe638a60	-0.22220755

output_mlp.0.weight f4 [128, 512]
0	0xbcb0aafa	-0.021565903
1	0xbc0bd67f	-0.008535027
2	0xbca3a7ef	-0.019977538
3	0xbd2986e2	-0.0413884
4	0xbb574416	-0.003284698
5	0x3c9dd10d	0.019264722
6	0x3ca2cae6	0.01987214
7	0x3d1ca96f	0.038247522
8	0x3d0bdc36	0.034145556
9	0xbbec24e4	-0.007206546
10	0x3d1ffed0	0.039061368
11	0x3c2a2071	0.010383711
12	0xbbb5698b	-0.0055362633
13	0x3c1b3238	0.009472422
14	0xbc35725f	-0.0110746315
15	0x3d0d5b3e	0.034510843
16	0xbbd164a2	-0.00639017
17	0xbcbade17	-0.022810979
18	0x3c271dce	0.010199977
19	0xbc138f3d	-0.009006319
20	0xbc3e6dc5	-0.011622851
21	0x3d0a8763	0.03382052
22	0x3c908a2c	0.01764401
23	0x3c6c5932	0.014425563
24	0xbc5effb5	-0.01361077
25	0xbb458ccc	-0.0030143736
26	0x3d48657f	0.04892492
27	0x3b630fa7	0.003464678
28	0x3d5d274a	0.053992547
29	0x3c97d2d9	0.018533157
30	0x3d0e3ab2	0.034723945
31	0x3d4d1bc5	0.05007531
32	0x3d18ed40	0.037335634
33	0x3d1b6c5a	0.03794513
34	0xba934bad	-0.0011237763
35	0x3cc5a083	0.02412439
36	0xba087525	-0.0005205444
37	0x3cae8b0a	0.021306533
38	0x3c74515b	0.014911975
39	0x3cba48bc	0.02273976
40	0xbb675e7d	-0.0035304122
41	0xbb1d40bb	-0.0023994881
42	0x39542b4e	0.00020234028
43	0x3b1ebd6e	0.0024221796
44	0x3b71231e	0.0036794613
45	0x3caa3f42	0.020782117
46	0x3cbf383b	0.023342242
47	0x3ccf0761	0.025272073
48	0x3cb62b15	0.02223734
49	0x3ca36d1c	0.019949488
50	0xbd15965c	-0.036520347
51	0x3c8397bc	0.016063564
52	0xbc958ee8	-0.01825662
53	0xbbf1df55	-0.0073813596
54	0x3d84d20b	0.06485375
55	0x3cf63570	0.030054778
56	0x3aa3f43e	0.0012508703
57	0x3c3fe17e	0.011711476
58	0x3bc43cf6	0.0059887124
59	0x3cf8ca31	0.03036985
60	0xbc2305bc	-0.009950098
61	0xbcd4c8b4	-0.025974609
62	0x3ccdd30c	0.025125049
63	0xbb976397	-0.0046200263
64	0x3ceb826f	0.028748719
65	0xbc1974fd	-0.009366271
66	0xbc068414	-0.008210201
67	0xbb8ae10b	-0.004238253
68	0x3ca382b9	0.019959794
69	0xbc1be515	-0.009515067
70	0xbd023bed	-0.03179543
71	0x3ce0e6c1	0.027453782
72	0x3d3d13ac	0.04616134
73	0xbd43425c	-0.047670707
74	0xbbe41f94	-0.006961772
75	0xbd074448	-0.033024102
76	0x3d2dc696	0.042425714
77	0x3b30e164	0.0026989812
78	0xba460d8a	-0.0007555118
79	0xbb7fab6b	-0.0039012085
80	0x3c0372c6	0.00802297
81	0xbb08cb73	-0.0020873218
82	0xbcc0c34d	-0.023530627
83	0x3cbb3bf3	0.022855734
84	0x3d108184	0.035279766
85	0x3c0bbbce	0.008528663
86	0xbb18b2e0	-0.0023299977
87	0x3c65c411	0.014023797
88	0xbca22429	-0.019792633
89	0x3d0299c8	0.03188494
90	0xbc55ad7d	-0.013041851
91	0x3b53e429	0.003233204
92	0xbd0f0f9d	-0.034927
93	0xbb43f14a	-0.0029898458
94	0x3d4c7221	0.04991353
95	0xbb3e9959	-0.0029083102
96	0x3cc07fde	0.023498472
97	0xbab9ae23	-0.0014166277
98	0xbb86c009	-0.004112248
99	0xbcca97a4	-0.024730511
100	0x3c930c75	0.017950276
101	0x3bce0cb6	0.0062881364
102	0xbcccae35	-0.024985412
103	0xbcc4bd98	-0.024016187
104	0x3bed4f59	0.007242125
105	0x3c881a94	0.016614236
106	0xbc412102	-0.011787655
107	0x3bc5c03a	0.006034878
108	0x3d154872	0.036446042
109	0xbcc280b7	-0.023743017
110	0xbc93eaef	-0.018056361
111	0x3cff1460	0.031137645
112	0xb9051a78	-0.00012693729
113	0xbbc8cf5f	-0.006128236
114	0x3ca3282f	0.019916622
115	0x3c8c7f5d	0.017150575
116	0x3c1fad56	0.009745916
117	0x3d1ba87f	0.038002487
118	0x3db70e54	0.0893828
119	0xbcfff6fe	-0.031245705
120	0x3c32ec34	0.010920573
121	0xbc393ec2	-0.011306467
122	0x3bb1b371	0.0054230024
123	0xbc2d1dfd	-0.010566232
124	0x3c092416	0.00837042
125	0x3cd454cf	0.025919346
126	0x3d8119f7	0.063037805
127	0x3a89641a	0.0010482103
128	0xbd26b924	-0.040703908
129	0xbceac81d	-0.028659875
130	0x3ccc2e78	0.024924502
131	0x3d462734	0.04837723
132	0xbd1d177e	-0.038352482
133	0x3bf8876a	0.007584502
134	0xbce2cdfe	-0.027686115
135	0x3c87fa56	0.016598862
136	0x3b58ec81	0.0033099952
137	0xbd11ca1e	-0.035593145
138	0x3d0fd727	0.035117295
139	0x3cddebab	0.027089914
140	0x3b67df4a	0.0035380893
141	0x3c868fb2	0.016425941
142	0x3cc57e2a	0.024108011
143	0x3ccd96c6	0.025096308
144	0x3c6df621	0.014524014
145	0x3c996499	0.018724727
146	0x3d0df392	0.034656115
147	0xbca64922	-0.020298544
148	0x3c2ee603	0.010674956
149	0x3d2fa564	0.04288234
150	0x3a22304a	0.0006187005
151	0x3c5202a2	0.0128180105
152	0xbc3cfa53	-0.011534291
153	0xbbfaa2c2	-0.007648797
154	0xbc55956d	-0.013036114
155	0x3cf8e57f	0.03038287
156	0xbb5189fa	-0.003197311
157	0xbd275ec9	-0.04086188
158	0x3c729c73	0.014807808
159	0xbc64a7df	-0.013956039
160	0x3c7fe677	0.015618912
161	0x3c7f315c	0.015575733
162	0x3c950464	0.01819057
163	0x39a3acef	0.00031218628
164	0xbb71cca3	-0.0036895655
165	0x3c9816be	0.018565532
166	0x3cd1eab9	0.02562462
167	0x3c5cd571	0.013478623
168	0x3d47533d	0.048663367
169	0x3ca887ff	0.02057266
170	0xbc4365ed	-0.0119261565
171	0x3d45c4cf	0.048283394
172	0x3d2971d4	0.04136832
173	0x3c600c5e	0.013674824
174	0x3d8fd76d	0.07023511
175	0x3ce99590	0.0285137
176	0xbb911591	-0.0044276197
177	0x3d0a65de	0.033788554
178	0xbbc0d5ad	-0.005884847
179	0x3c885b5a	0.016645122
180	0x3d2d0d5b	0.042249065
181	0x3cf5ac8f	0.029989509
182	0x3ca705e5	0.020388553
183	0x3994777c	0.00028317783
184	0xbc136a33	-0.008997488
185	0x3d035ea0	0.032072663
186	0xbd44c0a1	-0.048035268
187	0xbda2fa5e	-0.0795791
188	0xbcbe7e58	-0.023253605
189	0xbd0990f0	-0.03358549
190	0xbc52e9df	-0.012873142
191	0x3c5e2b16	0.013560077
192	0xbbf6f784	-0.0075368304
193	0x3c65acbf	0.014018237
194	0xbcde6fb3	-0.027152872
195	0x3d0ec5d1	0.03485662
196	0x3c8cf4e3	0.017206615
197	0x3c2c4215	0.010513802
198	0x3bbd4938	0.0057765506
199	0xbc2eddcc	-0.010672998
200	0x3c42a085	0.011879091
201	0xbb89d361	-0.0042061065
202	0x3d180e86	0.037123226
203	0xbcc559ea	-0.024090726
204	0x3b5e95ef	0.003396388
205	0xbd0db27f	-0.034594055
206	0xbc15e5de	-0.009149043
207	0x3bda3e1b	0.0066602356
208	0xbc1e795b	-0.009672488
209	0x3c09ad3a	0.008403117
210	0x3bcd26eb	0.006260743
211	0xbc9a646d	-0.018846715
212	0x3ca8cc51	0.020605238
213	0x3c7067ed	0.014673215
214	0xbb1f91af	-0.0024348309
215	0xbd367f04	-0.044554725
216	0x3c2d3a80	0.0105730295
217	0x3d8b3dda	0.067989066
218	0x3c56c517	0.013108513
219	0xbb229273	-0.0024806529
220	0x3c13f52c	0.0090306215
221	0xbbb71236	-0.0055868877
222	0xbc48fe66	-0.012267685
223	0xbc60d779	-0.013723248
224	0x3c838e41	0.016059043
225	0x3ced4ceb	0.028967341
226	0x3c3b30f5	0.0114252465
227	0xbbf7bc30	-0.0075602755
228	0x3ba9559b	0.0051676757
229	0xbbe40cff	-0.006959557
230	0xbc731d0d	-0.014838469
231	0x3cccaa05	0.024983415
232	0xbc50a1a7	-0.012733853
233	0xbce95d4e	-0.028486874
234	0x3cbe4aa0	0.023228943
235	0x3cbfa18c	0.023392461
236	0xbbd3b094	-0.0064602587
237	0x3d40e845	0.04709651
238	0xbd08af4e	-0.03337031
239	0x3c8adc76	0.016950827
240	0xbc6da697	-0.01450505
241	0x3ce7a002	0.02827454
242	0x3c3c0ad3	0.01147719
243	0x3d35bdce	0.044370465
244	0x3c8cc734	0.017184831
245	0x3cdac7f1	0.026706668
246	0x3cc8cbb5	0.024511198
247	0x3d66b4f4	0.056324914
248	0x3d15e82d	0.036598373
249	0x3d28d651	0.041220013
250	0xbb63874b	-0.0034718092
251	0x3cc2b947	0.023769988
252	0x3a984aca	0.0011618969
253	0xbc3efc93	-0.011656898
254	0x3c725109	0.014789828
255	0x3d4c361c	0.04985629

output_mlp.0.bias f4 [128]
0	0xbd3dfda7	-0.04638448
1	0xbe2abdc4	-0.16673952
2	0xbdf7401f	-0.12072777
3	0xbe15e42f	-0.14637826
4	0xbe1120b2	-0.14172629
5	0xbdb0b99d	-0.08629153
6	0xbd73fc29	-0.05956665
7	0x3e6ac0bd	0.22925086
8	0xbda4bb97	-0.080435924
9	0xbc050620	-0.008119136
10	0xbdf6c2ed	-0.12048898
11	0xbda13f87	-0.07873445
12	0xbc2fd5dc	-0.01073214
13	0xbe2bed5a	-0.16789761
14	0xbd81f25c	-0.063450545
15	0xbd6e7765	-0.058219332
16	0xbc97caf4	-0.018529393
17	0xbd6c5a92	-0.057703562
18	0xbd68bbc0	-0.056819677
19	0xbdf1f321	-0.11813951
20	0xbdafeb57	-0.085898094
21	0x3de63820	0.11241174
22	0x3d9d5d23	0.0768378
23	0xbd1eb6cc	-0.038748547
24	0xbd11ecc4	-0.035626188
25	0xbda34857	-0.07972782
26	0xbd4aae0f	-0.0494824
27	0xbd96e0d0	-0.07367098
28	0xbd900029	-0.070312805
29	0x3bb8f983	0.0056449785
30	0xbd1421cc	-0.036165044
31	0xbe5e5df7	-0.21715532
32	0xbdda1605	-0.10648731
33	0xbded3fc7	-0.1158443
34	0x3ede5f05	0.4343187
35	0xbd6845d5	-0.056707222
36	0xbe5f9684	-0.21834761
37	0xbe99aa9e	-0.30012983
38	0x3d5376ad	0.05162685
39	0x3d45b845	0.048271436
40	0xbd9595ee	-0.073039874
41	0xbe035c52	-0.12828186
42	0xbe34d0bd	-0.17657752
43	0x3d8ee750	0.06977713
44	0xbd9cdcde	-0.076593146
45	0x3e9528b8	0.29132628
46	0xbe0c2638	-0.13686454
47	0xbe865f40	-0.26244545
48	0xbda1c0f1	-0.07898129
49	0x3c115e5d	0.008872596
50	0x3de852bb	0.113439046
51	0x3d65190c	0.05593209
52	0xbda7cd75	-0.08193485
53	0xbe4e667b	-0.2015628
54	0xbde77b08	-0.11302763
55	0x3e12f549	0.14351381
56	0xbe2a75d0	-0.16646504
57	0xbc8b7622	-0.017024104
58	0x3c508b91	0.012728588
59	0xbcda1f93	-0.026626384
60	0xbdae7b1e	-0.085195765
61	0xbc7c3d20	-0.015395433
62	0xbe12a782	-0.14321712
63	0x3e1e58ea	0.15463606
64	0xbd86c2ec	-0.06580147
65	0x3d2b9196	0.04188689
66	0xbd7f4381	-0.062320236
67	0xbe1311e0	-0.14362288
68	0x3de92c9f	0.11385464
69	0xbd99ca3d	-0.07509277
70	0x3e8ea1fb	0.27857956
71	0x3e76d450	0.24104428
72	0x3e05db20	0.13071871
73	0x3de210a9	0.11038334
74	0xbd3d6a79	-0.04624412
75	0xbd0c3a57	-0.034235325
76	0xbe5fe965	-0.21866377
77	0xbe76e904	-0.24112326
78	0xbeafd276	-0.34340256
79	0xbdcfa33b	-0.101385556
80	0xbcdaa658	-0.026690647
81	0x3e2f12d7	0.1709703
82	0xbd999ca9	-0.07500584
83	0xbda331fd	-0.07968519
84	0xbb9011b6	-0.0043966426
85	0xbdaa4dd1	-0.083156236
86	0xbe05d9a6	-0.13071308
87	0xbd1d6a7a	-0.038431622
88	0xbbd6b93a	-0.0065528424
89	0xbd722a85	-0.05912258
90	0x3e09d5b4	0.13460428
91	0xbcc04391	-0.023469718
92	0x3d25a116	0.040436827
93	0xbe220570	-0.15822387
94	0xbd8732b0	-0.06601465
95	0x3db97039	0.09054608
96	0x3bb430ee	0.005498997
97	0xbd9f0908	-0.077653944
98	0xbd975728	-0.073896706
99	0xbd99f2fe	-0.0751705
100	0xbd3f7874	-0.046745732
101	0xbe3a596c	-0.18198174
102	0xbd907cee	-0.070550784
103	0x3e928171	0.2861438
104	0x3e1cd6f3	0.15316372
105	0xbda5ac00	-0.08089447
106	0x3df662d6	0.1203057
107	0x3dcd7220	0.10031533
108	0xbdc91ce9	-0.09819967
109	0xbef56e6f	-0.47935817
110	0x3dd05119	0.10171718
111	0xbdef3e86	-0.11681847
112	0x3ddac4b2	0.10682048
113	0xbe3330d5	-0.17499097
114	0xbdcf6888	-0.1012736
115	0xbd3695ee	-0.044576578
116	0x3c0408a9	0.008058705
117	0xbda578f5	-0.08079711
118	0x3d5bc015	0.05364998
119	0xbe0b91fe	-0.1362991
120	0xbd5c4bda	-0.053783275
121	0x3de7d797	0.113204174
122	0xbdaa527e	-0.083165154
123	0xbf05d15d	-0.5227259
124	0x3e2403fd	0.16017146
125	0xbd4383b0	-0.04773301
126	0x3e818491	0.25296453
127	0xbcefbd6a	-0.029265124

output_mlp.2.weight f4 [9, 128]
0	0x3ccc0c0d	0.02490809
1	0xbd8ba0c9	-0.06817777
2	0xbcac706a	-0.021049697
3	0xbc8eb5c7	-0.017420663
4	0x39ed841f	0.000453026
5	0xbcb4b18f	-0.022057323
6	0x3b71a336	0.0036870963
7	0xbd64b739	-0.055838797
8	0xbbf81883	-0.0075712814
9	0xbcf3531f	-0.029702721
10	0xbb810789	-0.003937666
11	0x3d84649d	0.06464503
12	0xbd0ed270	-0.034868658
13	0xbc6f987a	-0.014623756
14	0x3d00043f	0.03125405
15	0x3bbe5294	0.005808184
16	0x3c3819c1	0.011236609
17	0xbd23012c	-0.03979604
18	0xbb8af792	-0.0042409385
19	0x3c89a994	0.016804494
20	0x3c965716	0.018352073
21	0xbdf587ab	-0.11988767
22	0x3c1cda38	0.009573512
23	0xbba1ae7a	-0.0049341293
24	0x3d2658a0	0.040611863
25	0xba1224ef	-0.00055749615
26	0xbb2b8db0	-0.0026176982
27	0xbc34939f	-0.011021524
28	0x3c49a2cf	0.012306883
29	0xbce8c4a8	-0.028414086
30	0x3d14ee9a	0.03636036
31	0xbbeb5a75	-0.007182414
32	0xbcc231ef	-0.02370545
33	0x3aab5278	0.0013070842
34	0xbd4aa767	-0.049476054
35	0xbc94b75d	-0.01815384
36	0xbb01a9de	-0.0019785087
37	0x3cf166e9	0.029468017
38	0xbd9c701d	-0.076385714
39	0x3cc51f6f	0.02406284
40	0x3b8a0a05	0.00421262
41	0xbd6c444b	-0.057682317
42	0xbc3b24fd	-0.011422393
43	0xbcc54753	-0.024081862
44	0x3c59b4bb	0.013287718
45	0xbd646194	-0.05575712
46	0xbbeedb04	-0.0072892923
47	0x3c6c468d	0.0144211175
48	0x3c2d666e	0.010583503
49	0xbcc7ffd8	-0.024413988
50	0xbc2b2c4f	-0.010447576
51	0xbb632558	-0.003465971
52	0x3d7f2586	0.062291645
53	0xbd5ccfaa	-0.05390898
54	0xbc50ae18	-0.01273682
55	0xbd599726	-0.053122662
56	0xbc772193	-0.015083688
57	0x3ce80eca	0.028327364
58	0xbbb51f08	-0.005527381
59	0x3ce634ae	0.028101292
60	0xbc791002	-0.0152015705
61	0xbd4f8e1a	-0.050672628
62	0x3d29dc45	0.04146983
63	0xbccad130	-0.024757951
64	0x3b223ab9	0.002475424
65	0xbdc891c5	-0.09793428
66	0x3d50d7a7	0.050986912
67	0xbd76351f	-0.060109254
68	0xbcb1ec0d	-0.021719003
69	0x3cd7241a	0.026262332
70	0xbd7eadcc	-0.062177464
71	0xbcf9b5d7	-0.030482216
72	0xbc9fb9a9	-0.01949771
73	0xbd7acd02	-0.061230667
74	0x3d148549	0.036259923
75	0xbc4412b8	-0.0119673535
76	0x3b8fff95	0.0043944814
77	0x3d82086f	0.06349265
78	0xbd236b27	-0.03989711
79	0xbbc254d9	-0.005930525
80	0x3a354454	0.0006914784
81	0xbd23c4e0	-0.039982677
82	0xbc097ac4	-0.008391086
83	0xbbae45d6	-0.0053183837
84	0xbd07694a	-0.033059396
85	0xbc91043f	-0.01770222
86	0x3cb79ceb	0.022413692
87	0x3d2540f7	0.04034516
88	0x3ba28f63	0.0049609407
89	0x3c619d13	0.01377036
90	0xbd667a25	-0.05626883
91	0x3cf56575	0.029955605
92	0xbc6bd8af	-0.014394923
93	0xbc0a5328	-0.008442678
94	0xbca4fa27	-0.020138813
95	0xbd85f55a	-0.06540938
96	0xbdc6b4b6	-0.097024366
97	0x3b49366f	0.003070261
98	0x3c9f9f1e	0.019485053
99	0x3cc47d3a	0.023985494
100	0x3c8b3702	0.016994003
101	0x3d086607	0.033300426
102	0xbc412967	-0.011789656
103	0xbc180162	-0.009277673
104	0xbda1fd49	-0.079096384
105	0x3b0648f0	0.0020490251
106	0xbd64afb3	-0.055831622
107	0xbd7aeaf3	-0.06125922
108	0xba983b68	-0.0011614384
109	0xbd2a0c91	-0.04151589
110	0xbda777bf	-0.08177137
111	0xbcce1a8b	-0.025159141
112	0xbd99f736	-0.07517855
113	0x39fd2e5d	0.00048290464
114	0x3c554386	0.013016587
115	0x3bc1ae9d	0.005910708
116	0xbd8b9aac	-0.06816611
117	0x3cf8d37e	0.030374285
118	0xbc9e1614	-0.019297637
119	0x3c6622cb	0.014046381
120	0x3be66d00	0.007032037
121	0xbcdb2dd4	-0.026755251
122	0xbbf1dca9	-0.007381041
123	0xbd70c7ba	-0.058784224
124	0xbc7858e1	-0.015157909
125	0xbc371abc	-0.011175808
126	0xbd88618a	-0.06659229
127	0xbc9875d6	-0.018610876
128	0x3d44489a	0.0479208
129	0xbd799d55	-0.06094106
130	0xbd938f70	-0.07205093
131	0x3b786d20	0.003790684
132	0x3cd64d27	0.026159836
133	0x3ceffe62	0.029296104
134	0x3cc72a71	0.02431223
135	0xbdb25dfe	-0.08709334
136	0x3cb70d64	0.022345252
137	0xbd9a8912	-0.07545675
138	0x3d06d6c4	0.03291966
139	0x3d611439	0.054950926
140	0xbd01bd37	-0.03167459
141	0xbcd1d7bc	-0.025615565
142	0x3d235627	0.039877083
143	0x3d14416a	0.036195196
144	0x3cf56dec	0.029959641
145	0xbd52829a	-0.051394083
146	0x3c5aef76	0.013362756
147	0x3d170561	0.036870364
148	0x3cfa5b70	0.030561179
149	0xbd72e4a2	-0.059300072
150	0x3d6557fb	0.055992108
151	0x3d546d40	0.051862
152	0x3cb4882e	0.022037592
153	0x3cc06396	0.023484986
154	0x3ce06f77	0.0273969
155	0x3d7f1d15	0.062283594
156	0x3d089fb7	0.03335544
157	0xbddb3c2a	-0.10704835
158	0x3d1bf2c3	0.038073312
159	0x3c806abd	0.015675897
160	0xbc2f4964	-0.01069865
161	0x3c00686c	0.007837396
162	0xbd292f18	-0.041304678
163	0x3d8709ff	0.065937035
164	0xbd84187d	-0.06449983
165	0x3d83ac00	0.06429291
166	0xbd9cbfe5	-0.076537885
167	0xbd7b44f4	-0.061345056
168	0x3d895e96	0.06707494
169	0xbd4125dd	-0.04715525
170	0xbcc12fb3	-0.023582315
171	0xbd21c6cf	-0.03949624
172	0x3d428d12	0.047497816
173	0xbd8faea3	-0.07015731
174	0x3d3eb6ac	0.04656093
175	0xbd22f51a	-0.03978453
176	0x3cd5231a	0.026017714
177	0xbd879047	-0.066193156
178	0xbd6bf104	-0.057602897
179	0xbc6e5f9a	-0.01454916
180	0x3ca76782	0.020435099
181	0xbd7d7bdc	-0.0618857
182	0x3cc6c0ff	0.02426195
183	0xbd4bdcb3	-0.049771022
184	0xbd415284	-0.047197834
185	0x3d26032a	0.04053036
186	0xbd71d4f4	-0.05904098
187	0x3d06fd36	0.032956325
188	0x3cc18a9d	0.023625666
189	0xbd88bd54	-0.066767365
190	0x3d2dedf5	0.04246326
191	0xbd1f4886	-0.038887523
192	0x3d262268	0.040560156
193	0xbd94c391	-0.07263864
194	0x3d54670b	0.051856082
195	0xbc51b626	-0.012799775
196	0xbd4df2b0	-0.050280273
197	0x3b31efe1	0.0027151036
198	0xbdad69ba	-0.08467431
199	0xbd086a93	-0.033304762
200	0xbc10e3bb	-0.008843358
201	0xbc924da3	-0.017859286
202	0x3d44c53c	0.04803966
203	0xbd27e244	-0.040987268
204	0xbd040737	-0.032233443
205	0x3c09cfe3	0.00841138
206	0xbdbb8769	-0.09156687
207	0x3d5c9032	0.053848453
208	0xbca964ce	-0.02067795
209	0xbdb06bb8	-0.08614296
210	0x3d7c232e	0.061556987
211	0x3d2cabec	0.042156145
212	0xbdd6dc03	-0.10491183
213	0x3d2c8d30	0.042126834
214	0xbd1df1b2	-0.038560577
215	0x3d4e6cba	0.05039666
216	0xbd45d662	-0.048300155
217	0x3d4f76ae	0.05065029
218	0xbd5c4cda	-0.05378423
219	0x3d456857	0.04819521
220	0xbd3bd34d	-0.04585581
221	0xbda28cbc	-0.07936999
222	0x3d2d6d5b	0.042340618
223	0xbd292ec9	-0.041304383
224	0xbdb7f714	-0.08982673
225	0x3d9a55d2	0.075359
226	0x3cc80455	0.024416128
227	0x3ccefd67	0.025267316
228	0x3cf23064	0.02956409
229	0x3d10c468	0.035343558
230	0x3cc5f623	0.024165219
231	0xbdc5ab28	-0.09651786
232	0xbe25f849	-0.16207995
233	0x3d0b1b87	0.0339618
234	0xbd53f785	-0.051749725
235	0xbd24a7e7	-0.040199187
236	0x3c3903f7	0.011292449
237	0xbd8ddb73	-0.06926622
238	0xbdc6e4ee	-0.097116336
239	0x3c10a7cf	0.008829071
240	0xbd872378	-0.06598562
241	0xbd2f8f03	-0.042860996
242	0x3c99ea15	0.018788377
243	0xbcedb084	-0.029014833
244	0xbd9404d6	-0.07227485
245	0x3d97f164	0.074190885
246	0xbd002104	-0.031281486
247	0xbbf082ca	-0.00733981
248	0xbd3ac310	-0.045596182
249	0xbd5c21b6	-0.053743087
250	0x3c561852	0.013067322
251	0xbd7d85b1	-0.061895076
252	0xbd86109c	-0.06546137
253	0x3d25863f	0.04041123
254	0xbd9642bd	-0.07336948
255	0x3d5c6a95	0.053812582

output_mlp.2.bias f4 [9]
0	0xbc98c168	-0.01864691
1	0xbd1e8a29	-0.03870598
2	0xbd0c3cd2	-0.03423769
3	0x3caee57d	0.021349663
4	0x3e5361b9	0.20642747
5	0xbd13850d	-0.03601556
6	0x3d72aecc	0.05924873
7	0xbce1422f	-0.02749738
8	0xbe3143f0	-0.17311072
