log/segmentation/pn/bucket/weighted/pn_50.pth (torch, 337359 bytes, 8 tensors)

local_mlp.0.weight f4 [64, 3]
000000 56 fd 00 3f d0 b8 c9 3e 73 d1 85 3e 61 11 82 bf
       0.5038656 0.39398813 0.2613636 -1.0161554
000010 70 85 08 bf 6f ab 0d 3e 5c f5 2a bd 85 6f b0 3f
       -0.5332861 0.13834928 -0.0417379 1.3784033
000020 51 89 86 bd a2 2f 41 3f 43 80 b2 be 33 29 73 3d
       -0.0656916 0.75463307 -0.3486348 0.059365463
000030 39 99 3b bf 0f 2d 85 3e 4a 5c 00 3f ed 7d 33 3f
       -0.73280674 0.2601094 0.5014082 0.7011402
000040 ec 90 ba be 6c b3 22 3d 75 7e 1a 3f 5e 46 9c 3e
       -0.36438692 0.03972189 0.6034921 0.30522436
000050 e4 da 0b 3e 6c 87 91 3e 88 64 6b 3f b5 6d c9 bc
       0.13657719 0.2842363 0.91950274 -0.024588445
000060 e4 04 89 be e0 e9 49 3f 5d fc a0 be 9f 01 17 be
       -0.26761544 0.7887249 -0.31442538 -0.14746712
000070 59 c2 83 3f 4b 31 3a be 87 ed 5c 3e 58 35 c9 bd
       1.0293685 -0.18182866 0.21574984 -0.09824628
000080 53 32 89 be 4c e9 15 bf 99 41 ff 3e 2f 91 3b 3f
       -0.26796207 -0.5855911 0.49854735 0.7326841
000090 52 fe 27 3f ae 3f 2f be 13 ef 55 bd 78 c1 73 bf
       0.65622437 -0.17114136 -0.052229952 -0.95217085
0000a0 26 fa db be 25 2a 8e 3e 1d a9 21 3f 6b 4b 71 3e
       -0.42964286 0.2776653 0.6314867 0.23563926
0000b0 fa 36 0b 3e ff 5a 8e 3e dc f9 1d 3f b0 cb 04 3e
       0.1359519 0.278038 0.6170938 0.12968326
0000c0 55 dc 53 bf 1b fb c4 be 7d 25 a2 3e 95 f7 2e 3f
       -0.82758075 -0.38472828 0.31669226 0.6834653
0000d0 b8 24 2f 3e 94 75 18 3e 69 93 22 bf 66 fb 0b bf
       0.17103851 0.14888602 -0.6350618 -0.5468048
0000e0 73 57 c4 3e cf 7c 89 3e bc fc 29 3f 3f 39 9e 3c
       0.38347968 0.26853034 0.6640127 0.019314406
0000f0 cd f3 2a bf 3b 67 f3 be 6c 28 bc 3e c0 9f 3a 3f
       -0.6677826 -0.47539696 0.3674959 0.7290001
000100 33 a9 67 bd 35 f6 c8 3d 55 ff 5d 3e cf c6 95 3f
       -0.056557845 0.09812585 0.21679433 1.1701297
000110 02 f8 d5 3c 08 af fc 3e 45 e0 3e 3f fc 95 a3 bd
       0.026119236 0.49352288 0.7456096 -0.079875916
000120 51 5d 15 3f 7c 22 93 3e 7c 33 74 3e 2b 60 2d 3f
       0.58345515 0.28737247 0.23847765 0.67724866
000130 2f ea 72 be 87 8a 4c bb 4e ad 34 bf 81 26 01 bf
       -0.23722146 -0.0031210498 -0.7057694 -0.5044938
000140 60 02 b5 3e 3e 09 b1 bc 78 fc 50 3f 27 96 75 3d
       0.35353374 -0.021610852 0.81635237 0.05995765
000150 7f f6 21 bf 98 8a 62 bf 1a 49 73 bd 41 1a 70 bf
       -0.6326675 -0.8849273 -0.059395887 -0.9379006
000160 ce 4e d5 be 3b 6f 8e 3e 2b ac 71 bf da 7e d9 be
       -0.41661686 0.27819237 -0.9440333 -0.42479593
000170 c6 f7 87 3e 9a 2a 56 bf b6 08 da be 56 8e 93 3e
       0.26556224 -0.83658755 -0.4258477 0.2881953
000180 6c 66 7f bf 01 bb cd be 15 ff 82 3e 8c 0e 88 bf
       -0.9976566 -0.40181735 0.25585237 -1.0629439
000190 af ab e7 be 54 36 5e 3e 84 10 69 bf 50 ae f0 be
       -0.45248172 0.21700412 -0.91040826 -0.4700799
0001a0 89 6c 47 3e ff 82 f9 3d 7c 08 67 be 22 aa 70 be
       0.19474997 0.12183189 -0.2256183 -0.235024
0001b0 67 90 6b bf ea b5 cd be e8 7d 94 3e 44 3d f0 3e
       -0.92017215 -0.40177852 0.2900231 0.46921742
0001c0 ef 56 59 3f a1 d7 c0 bd a5 8f c9 3d 35 c1 7f 3f
       0.84898275 -0.09416128 0.09841851 0.99904186
0001d0 9f 38 90 be 7f ad 3c 3f 95 5f 73 be b3 ab 80 3d
       -0.28168198 0.73702234 -0.2376693 0.06282749
0001e0 32 8a dc bd fa 1b 96 3f d3 cd 11 be d8 b2 74 bf
       -0.10768546 1.1727288 -0.14238672 -0.95585394
0001f0 cc 1f d2 be c9 6d 58 3e 49 83 3c bf da 6f ee be
       -0.41039884 0.2113563 -0.73637825 -0.4656971
000200 2e 4f ad 3e 1a ed 89 3e 88 db 4e 3f 3b 81 6a bd
       0.33849472 0.26938707 0.8080373 -0.05725215
000210 88 55 79 bf 84 61 df be f5 87 84 3e f3 d2 a8 be
       -0.97396135 -0.43629086 0.25884977 -0.3297344
000220 61 10 4f 3f 1b e2 8f be 0f 06 9a 3e 1e 7e 3d 3f
       0.8088437 -0.28102192 0.30082747 0.74020565
000230 9f 43 83 3c 7f 86 ff 3e 95 35 ea 3e 77 eb 94 3d
       0.016023455 0.499073 0.45744005 0.07271474
000240 b6 ca 36 bf 7a 20 9c be b0 06 c5 3e b5 da ec 3d
       -0.7140306 -0.30493528 0.38481665 0.115651526
000250 93 5a 53 be d5 d5 82 be a8 ec cd 3e d1 67 23 3f
       -0.2064002 -0.25553766 0.40219617 0.63830286
000260 4c f1 02 be 08 19 3d 3f 28 21 57 bd 8e 4d f8 3d
       -0.1278736 0.7386632 -0.052521855 0.121241674
000270 eb 02 31 bf 53 11 fe be da 35 be 3e d0 94 13 3f
       -0.6914508 -0.49622592 0.3715046 0.57648945
000280 2a 00 e8 bc 96 a8 18 be e9 e6 01 3f 1d 20 7a be
       -0.02832039 -0.1490806 0.50742966 -0.24426313
000290 e8 2e ca bd 1c 4b b0 bb 4d 3e 90 3f f8 2f 3b be
       -0.09872228 -0.0053800475 1.1269013 -0.18280017
0002a0 3a e0 34 3f 84 89 be 3b 07 df 27 3e 2b 18 1b 3d
       0.7065464 0.005814733 0.16393672 0.037864845
0002b0 72 c8 cc 3f c5 1a 99 3c 98 99 0c 3f 2f a1 0b be
       1.5998671 0.018689523 0.54921865 -0.13635705
0002c0 0e c7 0b be 8f d6 48 bf c6 fd cc be ea a8 91 3e
       -0.13650152 -0.7845239 -0.40037364 0.28449184
0002d0 74 27 3b bf e2 b0 b1 be 3b 27 9a 3e 28 e8 2d 3f
       -0.73107076 -0.34705263 0.30108055 0.6793237
0002e0 e8 10 7e be 0c ae 41 bc e0 46 d5 3d 87 38 9a 3f
       -0.24811137 -0.011821281 0.10413909 1.2048501
0002f0 cd fc d7 3b fd 27 2d bf 71 41 fd be d5 a9 b7 3e
       0.0065914155 -0.6763914 -0.4946399 0.3587176

local_mlp.0.bias f4 [64]
000000 78 5a 05 bd 30 6c aa bd 9d 00 62 bd 43 eb 42 be
       -0.03255698 -0.083214164 -0.055176366 -0.19035058
000010 c7 42 92 be 43 a7 35 be f0 f1 c3 bd 35 aa 70 3e
       -0.28566572 -0.17739587 -0.0956763 0.23502429
000020 9e 43 da bd 63 8a 0c be 86 30 1d 3f 05 4d 8e be
       -0.10657428 -0.13724665 0.61402166 -0.27793136
000030 57 dc cd bd bc 80 59 be df 16 cc bd 25 66 99 bc
       -0.10051792 -0.21240515 -0.099653 -0.018725464
000040 ce 9f 7f be 71 83 da bd b4 a4 93 be 19 2b a8 3d
       -0.24963304 -0.10669602 -0.28836596 0.08211345
000050 ad 47 83 be 2d 04 10 be 1e fc 65 3e 54 7e 1c 3e
       -0.25640622 -0.14064093 0.22459456 0.15282565
000060 57 8f a9 bd 1b 57 03 be cf b0 98 be c1 05 5f 3e
       -0.08279293 -0.12826197 -0.29822394 0.21779539
000070 29 f4 4f 3e dd 69 5b be 92 b1 3d be 0f cc 86 be
       0.20307983 -0.21427102 -0.18524769 -0.2632756
000080 4e cd 52 be b3 2f 06 be 00 07 c9 bd 62 5e 0a 3f
       -0.2058613 -0.13104133 -0.09815788 0.54050267
000090 0a a2 6f be 94 2c af 3e 3b 87 0a be 3d f3 2f be
       -0.23401657 0.34213698 -0.13528149 -0.17182632
0000a0 a7 7b dd bd bc f2 0c be 19 38 83 be 8b 02 cc 3e
       -0.108146004 -0.13764471 -0.25628737 0.3984569
0000b0 ce bf 4b be 4e 87 e6 bd f8 45 db 3c b4 e7 da bd
       -0.19897386 -0.11256276 0.026766762 -0.10688725
0000c0 a6 aa 94 be bb 49 04 3f 23 b7 ec 3e b3 df 2c be
       -0.29036444 0.51675004 0.46233472 -0.1688221
0000d0 3a 46 8c be 5d 22 7c 3c ab 9c 7f bd 8b 33 01 be
       -0.2739733 0.015389052 -0.06240527 -0.12617318
0000e0 73 5a 12 be 9d 90 d1 3c e6 fc 31 bc 42 58 1e be
       -0.14292316 0.025581652 -0.010863518 -0.15463355
0000f0 15 eb 4b be d8 d1 01 be 91 fd cb 3e 1a aa 88 be
       -0.19913895 -0.12677705 0.39841893 -0.26692277

local_mlp.2.weight f4 [256, 64]
000000 bd db a5 3e 02 e0 fc be aa 1b 8e be 76 60 21 3f
       0.3239421 -0.49389654 -0.2775548 0.6303781
000010 fc 83 26 3f 1c ad 1c 3f ef 49 96 3e cd 07 a6 be
       0.6504514 0.61201644 0.29353282 -0.32427827
000020 f5 eb 16 be eb bd 5e be 4a f5 ab bf 57 23 1f 3f
       -0.14738448 -0.21752135 -1.3434231 0.621633
000030 bd db 19 3e 39 d4 70 3d 72 45 ae 3e f0 84 63 3e
       0.1502523 0.05879614 0.34037358 0.2221868
000040 01 73 84 3e e7 44 c8 3e 78 ce ea 3e a2 d4 b4 bc
       0.2586899 0.39115068 0.45860648 -0.022074047
000050 30 44 b1 3e f0 cc d8 3e 50 e2 71 be e0 54 c1 be
       0.34622335 0.42343855 -0.23621488 -0.37760067
000060 35 23 c1 3e b5 da a5 3e 27 4a bd 3e 6c c7 ec bd
       0.37722173 0.32393423 0.36970636 -0.11561474
000070 de a7 67 bf b4 61 df 3d ea d1 89 3d 3d c3 fb 3d
       -0.9049052 0.10907307 0.06729491 0.12293098
000080 47 84 b6 bc 16 18 5b be c7 38 29 be b4 b4 bf bf
       -0.022279872 -0.21395907 -0.16525565 -1.4977021
000090 66 dc ff 3d 96 05 22 bf 91 a6 6f be e2 f7 f6 3e
       0.124932095 -0.63289773 -0.23403384 0.48235995
0000a0 1a df 8d be 0b 4d 05 be 33 bd 94 3e 93 a8 10 bf
       -0.27709275 -0.13017671 0.29050598 -0.56507224
0000b0 57 4c 9e 3b c2 f3 20 be da 53 11 3d c0 d4 8d 3e
       0.0048308778 -0.15717986 0.035480358 0.27701378
0000c0 56 da e0 3e ff cc cb bf 96 fa 48 bf cc 68 ef 3e
       0.43916577 -1.5921935 -0.78507364 0.4675964
0000d0 a3 c3 cc 3e d7 da 9e be 66 f5 97 3c 56 a3 58 be
       0.3999301 -0.31026337 0.018549632 -0.21156058
0000e0 42 dc e4 3e ec b3 a9 be e9 d4 4f be be 67 39 3e
       0.44699293 -0.33145082 -0.20296063 0.18105981
0000f0 6e 55 81 3e e1 a6 bf 3e 6c 00 07 bf 64 fc b1 3e
       0.2526049 0.37432006 -0.5273502 0.3476287
000100 b4 44 10 3e 43 98 63 be 15 9f 2c bf 16 17 dc 3e
       0.14088708 -0.22226052 -0.6743024 0.42986363
000110 88 c6 36 bd 58 27 c8 3e 4b d1 5e 3e 94 1a b0 bd
       -0.044622928 0.39092517 0.21759526 -0.085988194
000120 4a e5 1b be 1f 28 7b be 86 ae ef be b1 38 54 bd
       -0.15224186 -0.24527024 -0.46812838 -0.051811878
000130 d1 0c a2 3e 4d a8 ad bd 63 da 4a 3e e1 31 ae 3d
       0.31650403 -0.084793665 0.1980987 0.085056074
000140 5c 20 b9 bd 6e df 89 3e 53 b1 37 be 55 0c 24 3d
       -0.09039375 0.26928276 -0.17938738 0.040050823
000150 a1 d9 25 be 1b 68 b1 3e 33 96 c9 bd 1f a2 67 3d
       -0.161963 0.3464974 -0.09843101 0.056551095
000160 95 87 56 3e 8c 41 b8 3e 2e 4d d8 bd 5f 51 28 be
       0.20950158 0.35987508 -0.10561596 -0.1643729
000170 c0 6c 34 bf ea 0c c9 bd cb c1 a7 bd 32 d2 fb 3b
       -0.7047844 -0.09816916 -0.0819126 0.0076849693
000180 2c 7d 6e bd 14 f8 0b be 72 d8 75 be c2 73 33 bf
       -0.058224842 -0.13668853 -0.24008349 -0.7009851
000190 a3 01 24 bd cc 11 25 be 50 84 90 be 14 84 d9 3e
       -0.040040623 -0.1612007 -0.28225946 0.4248358
0001a0 90 79 e8 be 9c 40 0e be 04 72 09 be d0 96 b1 be
       -0.45405245 -0.13891834 -0.134224 -0.34685373
0001b0 43 81 aa bd fb 41 34 be 53 b1 6c 3d ed 1e 69 3e
       -0.08325436 -0.17603295 0.057786297 0.22765703
0001c0 42 5e ac bd 99 8e 0a bf e4 63 b5 be 3f af bf 3e
       -0.08416416 -0.54123837 -0.35427773 0.3743839
0001d0 27 26 33 be b7 0f 91 3e ca 91 8a 3e c3 69 b3 be
       -0.17495023 0.28332302 0.27064353 -0.35041627
0001e0 a0 04 a4 3e 39 8f 6c bf 17 8b 8d 3e c4 f7 2e be
       0.3203478 -0.9240604 0.2764518 -0.17086703
0001f0 4f 60 f4 bd d7 dd bf 3e 85 38 d8 be ba 57 fc bd
       -0.11932432 0.37473938 -0.4223062 -0.1232142
000200 a9 df fa 3d c3 25 ed be 34 17 36 be b8 1c e0 bd
       0.12249691 -0.46317872 -0.17782289 -0.10942978
000210 e4 6d 31 3e 50 c7 1e be 39 fb a4 3d b7 cf 07 be
       0.17327076 -0.15505719 0.080557294 -0.1326283
000220 f1 f7 2b 3c fd c1 77 bd 96 54 e4 be 7f 45 09 3e
       0.010496126 -0.060487736 -0.44595784 0.13405417
000230 c7 e6 75 b9 9b 1e 0d be 84 b1 a0 3d 52 bc 63 3d
       -0.00023450992 -0.13781206 0.078463584 0.055599518
000240 af 0f 5c 3c 7d b0 ca 3d 2a 7a 12 3e da 94 21 bb
       0.013431474 0.09896944 0.14304414 -0.0024655373
000250 b8 14 af 3d 4f 55 72 3d b5 46 30 be 66 c0 c9 bd
       0.08548874 0.059163388 -0.17214473 -0.0985115
000260 d2 6d de 3d 8e 6e 18 bd 24 81 84 3d a3 8c a9 bb
       0.1086079 -0.03721481 0.06469944 -0.005174236
000270 83 f2 23 bf d2 de 06 be 16 6f 00 be 79 3a c4 bd
       -0.6404192 -0.13170937 -0.12542376 -0.09581465
000280 f7 b0 3f be 09 63 86 be 91 29 7c be b8 9d 0e bf
       -0.1871985 -0.26247433 -0.24625231 -0.5570941
000290 b4 75 d9 bd 48 21 37 be 34 a8 48 bc 3c 5f 28 bc
       -0.10618153 -0.1788379 -0.012247134 -0.010276612
0002a0 e1 b6 30 bd 2f df 60 be d7 e8 e5 3c 91 2f c0 bd
       -0.043143157 -0.21960138 0.028065128 -0.093840726
0002b0 42 70 3a be 74 95 9b 3b d8 14 8a bc 36 ab 28 3d
       -0.18206885 0.004748041 -0.016855642 0.041178904
0002c0 95 79 2f 3e 40 d0 20 bf bf 7c 41 be b8 d5 35 3c
       0.17136224 -0.62817764 -0.18895243 0.011098318
0002d0 39 6c a4 3d 75 b1 dd bd 83 f2 22 be b4 37 8d bd
       0.08028454 -0.10824863 -0.15912823 -0.0689539
0002e0 88 3f 92 3d 44 01 6d be 81 2e bf bd a0 6b e8 3b
       0.07141024 -0.23145014 -0.09335042 0.007092908
0002f0 95 63 82 3d fc 03 b8 bd 77 96 06 be 60 8d 1d 3e
       0.0636665 -0.08985135 -0.13143335 0.15385962
000300 74 5e 10 3e b6 a2 4b be ec ac 72 3c d0 1e 30 3f
       0.14098531 -0.19886288 0.014811736 0.68797016
000310 e5 5f f1 3e 05 4c 3b 3f 45 c8 4f 3e 16 7e ec be
       0.47143474 0.7316287 0.2029124 -0.46189946
000320 5c 39 89 3e 5f 8e 3f 3e ec cc 1d bf ca 7f d4 3e
       0.26801574 0.18706654 -0.6164081 0.41503745
000330 cd 97 bd 3e c9 41 c0 3d 3e 2c 65 3e b2 3c 5b bc
       0.37029877 0.093875475 0.22380158 -0.01338117
000340 d7 e4 83 3e dd c4 ad 3e d4 e6 df 3e f9 9e 1c be
       0.25760528 0.33939257 0.43730795 -0.15295018
000350 74 6f a0 3e 02 29 dd 3e d0 8e b2 be 73 1a c4 be
       0.31335032 0.4319535 -0.34874582 -0.3830143
000360 d0 1e 75 3e 87 cf 01 3f 37 e0 02 3f c1 1c a0 be
       0.23937535 0.50707287 0.51123375 -0.31271937
000370 13 f0 ff be 2f 5d a3 3d c0 5e bc 3d d2 71 b8 3e
       -0.4998785 0.07976758 0.0919776 0.36024338
000380 a3 98 ad 3d e7 d7 63 bd 05 cb ca bd ab e8 2b bf
       0.08476379 -0.055625822 -0.09902004 -0.671519
000390 2d 3f f9 3d b4 10 41 bf 93 5e 24 3e cd 9f 07 3f
       0.12170253 -0.7541611 0.16051702 0.5297821
0003a0 fb c4 06 3e 2a cb 17 bd df d8 9b 3e 1d 35 49 bf
       0.1316108 -0.037058987 0.30438897 -0.7859667
0003b0 77 ac 99 3d 8b 55 aa 3e e5 d7 0c be 6e 26 ec 3d
       0.07503598 0.3326839 -0.13754232 0.115307674
0003c0 1f 85 d4 3e a8 1b 16 bf a6 d1 75 bf ab 5a e7 3e
       0.41507813 -0.5863595 -0.96023023 0.45186362
0003d0 e9 75 af 3e 80 85 87 3d e9 8e 00 3f 44 dd 06 3e
       0.34269646 0.0661726 0.50218064 0.13170344
0003e0 20 f7 c8 3e 6b 0c b9 bb cf 22 7b 3e 57 b9 26 3e
       0.3925104 -0.0056472323 0.24524997 0.16281639
0003f0 5a 7b 5c 3e 03 5d 17 3f 6b 95 3b bf aa f6 c9 3e
       0.2153143 0.591263 -0.7327487 0.39446002

local_mlp.2.bias f4 [256]
000000 65 fd 5a be e9 e2 98 be a8 b9 50 bd e0 5d b0 be
       -0.21385725 -0.2986062 -0.050958306 -0.3444662
000010 89 32 ad be 9e c6 84 be d1 2a 8e bd f1 88 74 bd
       -0.33827618 -0.25932783 -0.0694176 -0.05970091
000020 7a f9 99 bb 02 b4 75 be e0 44 97 be 33 e3 34 be
       -0.0046989294 -0.23994449 -0.29544735 -0.17664795
000030 ed 2b 8b be 4f 81 8b be 6d d8 e0 3b e0 90 82 bd
       -0.2718195 -0.27247092 0.0068617375 -0.06375289
000040 d2 4b 56 be b8 11 4d 3c eb e6 09 3e 7f 04 c0 bd
       -0.2092736 0.0125164315 0.13466994 -0.093758576
000050 90 77 b6 be 6f 0f 59 be 22 14 a4 be 42 93 af bd
       -0.35638094 -0.21197294 -0.3204661 -0.08573009
000060 9b 3f a2 be bf e7 b4 be 60 ba b4 be 9d f0 d8 3d
       -0.31689152 -0.35333058 -0.35298443 0.10592768
000070 a9 48 c2 be 21 9f 60 be 96 bf 0e 3e 2b 35 71 be
       -0.3794606 -0.21935703 0.13940272 -0.23555438
000080 79 81 8f be 4c 60 86 be f0 3d ea 3d d2 b5 86 be
       -0.28028467 -0.26245344 0.11437595 -0.26310593
000090 56 27 96 3d 6e d9 9f be de 70 90 be 48 19 33 3e
       0.073317215 -0.31220573 -0.2821111 0.17490113
0000a0 f7 fe a5 be f3 1f a6 be 61 5e 90 be 38 2f b0 bd
       -0.32421085 -0.3244625 -0.28197005 -0.08602756
0000b0 33 3a 83 be 36 ba 95 be c9 cd 89 be d4 9d 79 be
       -0.2563034 -0.2924363 -0.26914814 -0.24376613
0000c0 aa 51 84 3d fa d7 47 3e c3 6c 07 be bd 45 80 be
       0.06460889 0.19515982 -0.13225083 -0.25053206
0000d0 fe 3d 35 be 07 ec 6c 3e 80 e0 89 be e8 94 84 be
       -0.1769943 0.23136912 -0.26929092 -0.25894856
0000e0 23 98 93 be 8d fe af be a8 bc 1c 3e 6f 2e 8d be
       -0.2882701 -0.34373894 0.15306342 -0.2757449
0000f0 d8 2f 5f 3e ef 5c 97 bd 74 ab d3 be 2d 24 a4 be
       0.21795595 -0.073907726 -0.41341746 -0.3205885
000100 c1 d3 69 be 63 83 ea bd 64 35 7c be fd 9b 5a be
       -0.22834684 -0.11450841 -0.24629742 -0.21348567
000110 4d db c1 3d a1 69 f9 bb f1 e3 21 3e a9 61 8a 3d
       0.094656564 -0.007611469 0.15809609 0.067569084
000120 52 a0 85 be 17 8d d6 3d aa 47 88 bc af fe 86 3d
       -0.26098877 0.104761295 -0.016635735 0.06591546
000130 af 92 21 be 4e d1 1a 3e 52 54 f1 3b 3e e3 7e 3d
       -0.15778612 0.15118906 0.007364788 0.062228434
000140 21 89 b1 3c d1 e6 52 be 02 00 35 bd a7 84 88 be
       0.021671833 -0.20595862 -0.04418946 -0.26663706
000150 17 07 90 be 4f ec 45 be 4a a9 55 bc e6 e6 ce 3d
       -0.2813041 -0.19328426 -0.01304085 0.10102634
000160 db 6c 6a 3d 11 a9 c5 3d fe b6 7c be fe 45 25 3e
       0.05723272 0.096513875 -0.24679181 0.16139981
000170 8a 2f 88 3e 6a 7c 88 be d6 4a 93 be 55 62 32 be
       0.2659877 -0.2665742 -0.28768033 -0.17420323
000180 25 f3 67 be 03 03 a1 be ea ee 9f bc ba a2 19 3e
       -0.22651346 -0.3144761 -0.019523103 0.15003482
000190 6a 53 cc 3d e8 bf 8f be e5 fb b7 3d d9 48 22 bd
       0.099768475 -0.280761 0.08983592 -0.039620254
0001a0 78 d7 9a bd 66 60 be be fe a0 b9 be 6f b0 b2 3d
       -0.07560629 -0.3718292 -0.3625564 0.08725058
0001b0 65 f8 5e be 96 7c b0 be aa 65 08 3e ef ce 8a bd
       -0.21774442 -0.34470052 0.13320032 -0.06777751
0001c0 52 d7 3c be 7f 07 c0 3d 56 16 87 be 80 4c 76 be
       -0.18441513 0.0937643 -0.26384228 -0.2405262
0001d0 5d f8 39 3e 99 27 88 be 1f 69 86 be 6f dd ac 3d
       0.1816115 -0.2659271 -0.26252076 0.084406726
0001e0 db 47 9d be da 6b db bd 13 7e 95 be 46 a9 1a 3e
       -0.30718884 -0.107139304 -0.2919775 0.15103635
0001f0 76 05 89 be 1b 49 bc be df 44 b0 bd 82 08 61 be
       -0.2676198 -0.36774525 -0.08606886 -0.21975902
000200 19 eb 94 be 7b 3e 4a 3d f8 fd 7d be bd c3 b2 be
       -0.29085615 0.049375992 -0.24803913 -0.3491496
000210 e8 8d 0b 3e 83 59 ab 3d 8c 9f e8 3d 9f d9 71 be
       0.13628352 0.083666824 0.11358556 -0.23618172
000220 ef 12 95 be a8 b6 d3 be fc f8 57 be 19 3a 7c be
       -0.29116008 -0.41350293 -0.21091074 -0.24631537
000230 dd 35 e7 3d c2 60 74 be d9 09 5b be 8c e4 ae be
       0.112895705 -0.23865035 -0.21390475 -0.34158742
000240 49 d1 a7 3d 98 30 56 be 96 4d 59 be 6d 16 40 bd
       0.08194215 -0.20916975 -0.21221003 -0.046896387
000250 29 ff 5c be 77 bc a2 be f7 c6 c3 be 5b 50 e2 bd
       -0.21581711 -0.31784412 -0.38237736 -0.11050483
000260 e4 61 52 3d 8b c9 8f be 78 5e e6 3c b1 21 89 be
       0.051362887 -0.28083453 0.028121218 -0.26783517
000270 fd 62 a6 be f9 43 56 3e 73 57 97 be 2b d7 b4 bd
       -0.32497397 0.20924367 -0.29558906 -0.088301025
000280 46 47 b5 bd cd 08 be be 4f 6a b1 3d 38 99 a5 be
       -0.08851485 -0.3711609 0.08662855 -0.3234346
000290 aa b1 ac be 46 f7 55 be 42 66 b5 be 90 59 b6 bd
       -0.33729297 -0.20895109 -0.3542958 -0.089038014
0002a0 95 fd 8b be 3b 56 37 bd 1b 66 ae 3d 48 40 a0 be
       -0.27341905 -0.04475997 0.08515569 -0.31299043
0002b0 e8 0f 97 be 21 c2 ee 3d 46 81 82 be 5c 72 2e bd
       -0.29504323 0.11658121 -0.25489253 -0.04258953
0002c0 13 28 8e be 39 20 68 3d 4a 21 45 be d3 c2 87 3d
       -0.2776495 0.056671355 -0.1925098 0.06628957
0002d0 0c de 8b be 1b ae 8f be 61 a2 61 be 10 d2 81 3b
       -0.27317846 -0.2806252 -0.22034599 0.003961809
0002e0 ca 33 c5 3d b9 db 97 be 2d fc 36 3e fc 12 83 3e
       0.096290186 -0.29659823 0.17869635 0.2560042
0002f0 e1 7e 9f 3d cc 25 11 3e f7 4e 9d bd bc 09 52 be
       0.07787872 0.14174575 -0.07681077 -0.20511526
000300 03 8f d7 be b1 d3 6e 3d fd 40 c3 be 41 0b 10 be
       -0.42101297 0.058307353 -0.3813552 -0.14066793
000310 64 49 9d be 38 77 7b bc e9 02 c4 be fc bc fd 3d
       -0.30720055 -0.015348248 -0.3828347 0.123895615
000320 06 1f 80 be ac b1 85 3d 24 3b da bd d4 37 11 bc
       -0.2502367 0.06528029 -0.106558114 -0.008863408
000330 98 02 a8 be 37 cd 54 be cb ad b8 bc cd ff 9e be
       -0.3281448 -0.20781408 -0.022543808 -0.31054536
000340 7a fd 75 be dd 73 bd be d8 e5 75 be eb 51 3a be
       -0.24022475 -0.3700246 -0.2401346 -0.18195312
000350 cd f8 20 3e 41 7b 82 3e 54 df ad 3d dd 98 1e 3d
       0.1571991 0.2548466 0.08489862 0.03872
000360 35 79 5d be 87 86 6a be 2c 65 ae be 57 c4 db 3d
       -0.21628268 -0.2290288 -0.34061563 0.10730808
000370 0b 1c 41 3d f7 20 c6 be f6 cb 2c bd a5 92 af be
       0.047145884 -0.38697025 -0.0421867 -0.34291568
000380 a4 41 93 be 2a 10 a9 3d b6 e2 2a 3d 5a 50 05 3d
       -0.28761017 0.08255036 0.041720115 0.032547332
000390 7f 22 a4 be 96 a4 6a be 32 79 80 3d 15 40 ce be
       -0.32057568 -0.22914347 0.06273116 -0.40283266
0003a0 f2 83 70 be a7 f7 9c be 57 e0 99 be 55 ef d4 bc
       -0.23487833 -0.30657694 -0.3005397 -0.025993029
0003b0 8c 1a 17 bd bf c2 6b be 33 9d 81 be cd 66 0e 3e
       -0.03689055 -0.23023508 -0.25315246 0.13906403
0003c0 fb 2f d4 be 0a e7 6c be 64 88 2e be 91 ba 70 be
       -0.41442856 -0.2313501 -0.17044216 -0.2350867
0003d0 4e 16 e9 3d 05 2b 4e 3e 7a dd 7e 3d 97 f9 5f be
       0.113812074 0.20133598 0.062222935 -0.21872555
0003e0 5a 92 59 be 04 8d a6 be 07 50 ad 3e 6f a6 d2 3d
       -0.21247235 -0.3252946 0.3385012 0.10285651
0003f0 fc 06 83 3d eb 0a 81 bd d7 6f 80 be 9a d3 63 be
       0.063978165 -0.063009106 -0.25085327 -0.22248688

output_mlp.0.weight f4 [128, 512]
000000 d0 ad b0 bc c3 d1 0b bc 6d a8 a3 bc 69 85 29 bd
       -0.021567255 -0.008533898 -0.019977773 -0.041386995
000010 c8 49 57 bb 5b d2 9d 3c 1c c8 a2 3c 0a a9 1c 3d
       -0.0032850374 0.019265344 0.01987081 0.038247146
000020 30 da 0b 3d 22 02 ec bb 32 00 20 3d bf 38 2a 3c
       0.034143627 -0.0072024027 0.039062686 0.010389506
000030 3f 5e b5 bb d0 30 1b 3c 5a 57 35 bc f5 5a 0d 3d
       -0.0055349167 0.009472087 -0.0110681895 0.03451057
000040 88 2d d1 bb 29 e1 ba bc fe 1c 27 3c 99 80 13 bc
       -0.0063836016 -0.022812443 0.010199783 -0.009002828
000050 82 61 3e bc b0 89 0a 3d f6 94 90 3c b8 7d 6c 3c
       -0.011619927 0.033822715 0.017649155 0.014434271
000060 c6 fc 5e bc 36 7d 45 bb c8 69 48 3d 53 0a 63 3b
       -0.013610071 -0.0030134446 0.048929006 0.0034643605
000070 ae 2b 5d 3d 80 d4 97 3c 48 39 0e 3d 3d 1a 4d 3d
       0.053996734 0.018533945 0.034722596 0.05007385
000080 85 ec 18 3d 18 6f 1b 3d e0 4b 93 ba da a0 c5 3c
       0.037334938 0.037947744 -0.0011237822 0.024124552
000090 82 8a 08 ba f0 92 ae 3c 99 56 74 3c 8c 48 ba 3c
       -0.00052086276 0.0213103 0.014913225 0.022739671
0000a0 bc 6a 67 bb 4b 19 1d bb 2c 19 5d 39 bb bd 1e 3b
       -0.0035311421 -0.0023971375 0.0002108558 0.0024221975
0000b0 07 32 71 3b b2 3f aa 3c bf 35 bf 3c ff 07 cf 3c
       0.00368035 0.020782325 0.023341058 0.025272368
0000c0 45 29 b6 3c d3 6c a3 3c b6 8d 15 bd 3d 9a 83 3c
       0.022236476 0.019949352 -0.0365121 0.016064757
0000d0 bf 86 95 bc 3e ac f1 bb 6c d2 84 3d ee 33 f6 3c
       -0.018252729 -0.007375269 0.06485447 0.030054059
0000e0 ad 74 a4 3a 63 ff 3f 3c c2 3d c4 3b 42 c8 f8 3c
       0.0012546979 0.011718604 0.0059888074 0.030368928
0000f0 6b ef 22 bc e6 b3 d4 bc c0 d6 cd 3c c5 48 97 bb
       -0.009944777 -0.025964689 0.025126815 -0.004616829
000100 e4 84 eb 3c c7 69 19 bc cb 76 06 bc de af 8a bb
       0.02874989 -0.009363598 -0.008207033 -0.004232391
000110 48 7e a3 3c 6f c9 1b bc b6 3a 02 bd c2 e6 e0 3c
       0.019957677 -0.009508475 -0.031794272 0.027453784
000120 bf 15 3d 3d ea 3b 43 bd ff 24 e4 bb 00 46 07 bd
       0.046163317 -0.04766456 -0.006962418 -0.03302574
000130 37 c8 2d 3d 2e c4 30 3b ca 43 46 ba cc be 7f bb
       0.042427268 0.00269724 -0.0007563202 -0.0039023636
000140 3d 70 03 3c d4 bc 08 bb 64 b2 c0 bc b1 3d bb 3c
       0.008022365 -0.0020864503 -0.023522563 0.022856565
000150 7e 82 10 3d 87 ba 0b 3c 28 07 18 bb 76 c0 65 3c
       0.035280697 0.008528358 -0.0023197625 0.014022937
000160 ea 26 a2 bc ac 98 02 3d 62 a0 55 bc ff c9 53 3b
       -0.019793946 0.03188388 -0.0130387265 0.0032316444
000170 43 0a 0f bd c9 16 44 bb c5 72 4c 3d c1 1e 3e bb
       -0.034921896 -0.0029920808 0.04991414 -0.002901003
000180 7a 82 c0 3c f4 85 b9 ba 70 7b 86 bb 8b 99 ca bc
       0.023499716 -0.0014154301 -0.0041040704 -0.024731418
000190 c3 08 93 3c 20 15 ce 3b 51 af cc bc 7a ae c4 bc
       0.017948514 0.0062891394 -0.024985941 -0.024008978
0001a0 44 4d ed 3b 77 1f 88 3c 64 1a 41 bc 9f b2 c5 3b
       0.007241877 0.016616566 -0.011786077 0.006033256
0001b0 48 4c 15 3d 55 73 c2 bc 7e eb 93 bc 58 13 ff 3c
       0.0364497 -0.023736635 -0.018056627 0.031137154
0001c0 42 60 02 b9 fe d8 c8 bb 98 2a a3 3c dc 97 8c 3c
       -0.00012433625 -0.006129383 0.019917771 0.017162256
0001d0 3f ac 1f 3c 82 a9 1b 3d 94 0f b7 3d 77 f8 ff bc
       0.0097456565 0.038003452 0.08938518 -0.031246407
0001e0 22 eb 32 3c f4 3d 39 bc 70 0b b2 3b 7d 1c 2d bc
       0.010920318 -0.011306275 0.0054334924 -0.010565874
0001f0 a5 23 09 3c 0c 5d d4 3c 2a 19 81 3d 35 91 89 3a
       0.008370315 0.025923274 0.06303628 0.0010495546
000200 6f b8 26 bd f6 c9 ea bc 35 2f cc 3c db 25 46 3d
       -0.040703233 -0.028660756 0.024924854 0.048375946
000210 5b 18 1d bd 77 7d f8 3b 8c cf e2 bc 72 fc 87 3c
       -0.038353305 0.007583316 -0.027686857 0.016599867
000220 a1 83 59 3b f2 c7 11 bd 6d db 0f 3d cf ed dd 3c
       0.003319003 -0.035591073 0.03512137 0.027090935
000230 ca d1 67 3b fd 91 86 3c 61 7c c5 3c 04 98 cd 3c
       0.0035372847 0.016427035 0.02410716 0.0250969
000240 55 f2 6d 3c 24 67 99 3c 89 f6 0d 3d 29 4c a6 bc
       0.0145231085 0.01872594 0.034658942 -0.020299988
000250 b6 df 2e 3c ca a7 2f 3d 7d 7b 23 3a 5a 0e 52 3c
       0.010673454 0.042884625 0.0006236358 0.0128208045
000260 8b fb 3c bc ee 9e fa bb 30 9b 55 bc 43 ed f8 3c
       -0.011534582 -0.0076483404 -0.013037488 0.030386573
000270 73 94 51 bb 2e 57 27 bd 4e 9d 72 3c b1 a7 64 bc
       -0.0031979352 -0.040854625 0.014808012 -0.013955996
000280 e5 03 80 3c 4d 41 7f 3c 24 03 95 3c af 5b a5 39
       0.015626857 0.015579534 0.018189974 0.00031539562
000290 5b 81 71 bb be 19 98 3c 7a fa d1 3c e4 cf 5c 3c
       -0.0036850784 0.018566962 0.025632132 0.013477299
0002a0 19 55 47 3d f8 87 a8 3c a7 67 43 bc 37 c6 45 3d
       0.04866514 0.020572647 -0.011926568 0.048284736
0002b0 46 74 29 3d 60 0c 60 3c 2a d7 8f 3d e8 a3 e9 3c
       0.041370653 0.013674825 0.07023461 0.02852054
0002c0 b0 18 91 bb 58 64 0a 3d 8c c7 c0 bb e7 57 88 3c
       -0.004427992 0.0337871 -0.005883163 0.016643478
0002d0 8f 0f 2d 3d f1 ae f5 3c 27 0b a7 3c f7 1e 94 39
       0.042251166 0.029990645 0.02039106 0.0002825183
0002e0 8c 6c 13 bc a1 60 03 3d 51 be 44 bd c8 f7 a2 bd
       -0.008998048 0.032074574 -0.048033062 -0.07957417
0002f0 4c 80 be bc 78 91 09 bd 96 eb 52 bc 59 32 5e 3c
       -0.023254536 -0.033585995 -0.012873551 0.0135618085
000300 3d eb f6 bb 3e a5 65 3c 48 5a de bc c5 ca 0e 3d
       -0.007535367 0.014016448 -0.027142659 0.034861345
000310 b2 f7 8c 3c e5 39 2c 3c cc 66 bd 3b 2d df 2e bc
       0.017207954 0.01051185 0.0057800766 -0.010673326
000320 17 ad 42 3c 6e 97 89 bb 74 17 18 3d 76 5b c5 bc
       0.011882088 -0.00419896 0.03713174 -0.024091464
000330 a5 2a 5f 3b 0c ae 0d bd fc e8 15 bc 44 64 da 3b
       0.0034052518 -0.034589812 -0.009149786 0.0066647846
000340 c5 76 1e bc 03 bb 09 3c 9a 36 cd 3b d3 60 9a bc
       -0.009671872 0.0084064035 0.0062626125 -0.018844998
000350 e8 c9 a8 3c 87 82 70 3c c0 af 1f bb 38 78 36 bd
       0.020604089 0.014679558 -0.002436623 -0.044548243
000360 4d 3d 2d 3c 1e 3d 8b 3d f2 d5 56 3c be ae 22 bb
       0.010573697 0.067987666 0.013112532 -0.0024823393
000370 0c f0 13 3c cb f2 b6 bb f7 00 49 bc 15 ca 60 bc
       0.0090294 -0.0055831424 -0.012268296 -0.013720055
000380 e3 8e 83 3c 34 4c ed 3c b2 53 3b 3c 10 c9 f7 bb
       0.016059345 0.028967 0.011433529 -0.0075618103
000390 9f 56 a9 3b a1 03 e4 bb fb 23 73 bc b5 b2 cc 3c
       0.0051677967 -0.0069584404 -0.014840121 0.024987558
0003a0 4d 7f 50 bc 61 5e e9 bc 6c 4c be 3c 9a b6 bf 3c
       -0.012725663 -0.028487386 0.0232298 0.0234025
0003b0 18 b7 d3 bb b7 e7 40 3d c8 a6 08 bd c4 db 8a 3c
       -0.0064610355 0.04709598 -0.03336218 0.016950496
0003c0 27 81 6d bc 0a a1 e7 3c eb 0f 3c 3c 4c be 35 3d
       -0.014496124 0.028275032 0.0114784045 0.044370934
0003d0 26 c4 8c 3c 62 c7 da 3c 05 c8 c8 3c 66 bd 66 3d
       0.017183375 0.026706401 0.02450944 0.05633297
0003e0 7b ea 15 3d 71 d9 28 3d f4 25 63 bb aa b7 c2 3c
       0.03660057 0.041222993 -0.0034660073 0.023769218
0003f0 22 1d 98 3a 5b ff 3e bc 4c 5b 72 3c 8e 34 4c 3d
       0.0011605362 -0.011657561 0.014792275 0.049854808

output_mlp.0.bias f4 [128]
000000 b2 ff 3d bd fa 75 2b be 20 ae f7 bd 08 e4 15 be
       -0.04638643 -0.16744223 -0.120937586 -0.14637768
000010 9f f4 11 be 7f ad b0 bd 51 fe 73 bd 96 a2 6d 3e
       -0.14253472 -0.08626842 -0.059568707 0.23206553
000020 64 bc a4 bd c5 eb 05 bc ed c2 f6 bd 87 3f a1 bd
       -0.08043745 -0.008173888 -0.12048898 -0.07873445
000030 3e d6 2f bc d4 f3 2e be ac 04 7d bd 24 69 6e bd
       -0.010732232 -0.170852 -0.061772034 -0.05820574
000040 d7 69 97 bc a4 26 5e bd 8e 15 62 bd 21 f3 f1 bd
       -0.018483086 -0.05423607 -0.055196337 -0.11813951
000050 57 eb af bd ea 1a e8 3d c3 38 a2 3d cc b6 1e bd
       -0.085898094 0.113332585 0.07920983 -0.038748547
000060 c4 ec 11 bd e0 3d a1 bd 09 a1 4a bd 3a dc 96 bd
       -0.035626188 -0.0787313 -0.04946998 -0.07366224
000070 29 00 90 bd 7b 3b 48 3b cc 21 14 bd a5 7a 62 be
       -0.070312805 0.0030553031 -0.036165044 -0.22117098
000080 eb 15 da bd c7 3f ed bd 1e 8a de 3e ee 4d 68 bd
       -0.10648712 -0.1158443 0.4346475 -0.056714945
000090 88 1a 60 be b7 6b 9a be 7b ec 4f 3d 23 bb 41 3d
       -0.21885121 -0.30160305 0.050762635 0.047297608
0000a0 73 8a 95 bd be 59 03 be fe ab 36 be 00 31 90 3d
       -0.07301798 -0.12827203 -0.17839047 0.07040596
0000b0 e9 da 9c bd 9d ef 94 3e 38 26 0c be 4a 03 86 be
       -0.07658941 0.2908906 -0.13686454 -0.26174384
0000c0 a2 8c 9e bd 2c 62 1b 3c 83 32 e9 3d 7b 8a 69 3d
       -0.07741667 0.009483855 0.113865875 0.05701683
0000d0 75 cd a7 bd 85 d7 4d be 08 7b e7 bd 4a 30 13 3e
       -0.08193485 -0.20101745 -0.11302763 0.1437389
0000e0 1c 91 2a be 6d 75 8b bc ea 52 3d 3c af 2e da bc
       -0.16656917 -0.017023766 0.011555413 -0.026633589
0000f0 40 78 ae bd 24 0f 92 bc a3 5d 13 be 54 89 1c 3e
       -0.085190296 -0.017829485 -0.14391188 0.15286762
000100 f6 c2 86 bd bf 6a 29 3d 81 43 7f bd 10 d9 0e be
       -0.065801546 0.041361567 -0.062320236 -0.1394999
000110 f5 2e e4 3d e8 d0 96 bd e4 58 8e 3e 64 eb 77 3e
       0.11141769 -0.073640645 0.27802193 0.24210888
000120 a5 ae 05 3e ac d5 e0 3d 79 6a 3d bd 57 3a 0c bd
       0.13054903 0.10978255 -0.04624412 -0.034235325
000130 75 da 5d be d4 4d 78 be d3 57 b0 be 3b a3 cf bd
       -0.21665366 -0.24248439 -0.34442005 -0.101385556
000140 c3 e1 c4 bc fb 22 2f 3e 58 9d 99 bd 82 48 9a bd
       -0.024033433 0.17103188 -0.07500714 -0.07533361
000150 b1 57 4c bb eb 02 aa bd 4f bb 09 be 3e 69 1d bd
       -0.0031180198 -0.08301338 -0.13450359 -0.038430445
000160 11 91 c8 bb 85 2a 72 bd dd 1c 0b 3e ee 50 c0 bc
       -0.006120809 -0.05912258 0.13585229 -0.02347609
000170 88 cd 24 3d 70 05 22 be b0 32 87 bd ff f8 b3 3d
       0.040235072 -0.15822387 -0.06601465 0.087877266
000180 5e 97 c3 3b 0b 09 9f bd ca 52 97 bd 9b f4 99 bd
       0.005968972 -0.07765397 -0.07388838 -0.07517358
000190 eb 7c 3f bd 49 b4 3d be 8d 76 90 bd 59 6e 92 3e
       -0.04674999 -0.18525805 -0.07053862 0.28599814
0001a0 fb d3 1d 3e 02 a9 a5 bd b0 7b f8 3d c4 b4 cf 3d
       0.15412895 -0.08088876 0.121329665 0.101419
0001b0 e9 1c c9 bd 04 b4 f5 be c6 39 d4 3d 86 3e ef bd
       -0.09819967 -0.47988904 0.10362582 -0.11681847
0001c0 56 21 da 3d d5 30 33 be 9b 5e cb bd b7 ca 3d bd
       0.106508896 -0.17499097 -0.09930154 -0.046335902
0001d0 09 9e fd 3b f5 78 a5 bd 38 c8 60 3d d2 32 0d be
       0.0077397865 -0.08079711 0.054878443 -0.13788918
0001e0 72 3a 61 bd 1c c0 ed 3d 4d 33 aa bd 4f c0 06 bf
       -0.05498738 0.116089076 -0.08310566 -0.5263719
0001f0 06 d4 24 3e b0 83 43 bd 58 3d 81 3e a5 c5 ef bc
       0.16096506 -0.04773301 0.25242114 -0.029269049

output_mlp.2.weight f4 [9, 128]
000000 0d 0c cc 3c c9 a0 8b bd 6a 70 ac bc c7 b5 8e bc
       0.02490809 -0.06817777 -0.021049697 -0.017420663
000010 1f 84 ed 39 8f b1 b4 bc 36 a3 71 3b 40 b7 64 bd
       0.000453026 -0.022057323 0.0036870963 -0.055838823
000020 83 18 f8 bb 1f 53 f3 bc 89 07 81 bb 9d 64 84 3d
       -0.0075712814 -0.029702721 -0.003937666 0.06464503
000030 70 d2 0e bd 7a 98 6f bc 3f 04 00 3d 94 52 be 3b
       -0.034868658 -0.014623756 0.03125405 0.005808184
000040 c1 19 38 3c 2c 01 23 bd 92 f7 8a bb 94 a9 89 3c
       0.011236609 -0.03979604 -0.0042409385 0.016804494
000050 16 57 96 3c a9 89 f5 bd 01 d6 1c 3c 7a ae a1 bb
       0.018352073 -0.11989147 0.009572507 -0.0049341293
000060 a0 58 26 3d ef 24 12 ba b0 8d 2b bb 9f 93 34 bc
       0.040611863 -0.00055749615 -0.0026176982 -0.011021524
000070 cf a2 49 3c a8 c4 e8 bc 9a ee 14 3d 75 5a eb bb
       0.012306883 -0.028414086 0.03636036 -0.007182414
000080 ef 31 c2 bc 78 52 ab 3a 2b a9 4a bd 5d b7 94 bc
       -0.02370545 0.0013070842 -0.049477737 -0.01815384
000090 de a9 01 bb e9 66 f1 3c 1d 70 9c bd 6f 1f c5 3c
       -0.0019785087 0.029468017 -0.076385714 0.02406284
0000a0 05 0a 8a 3b 4b 44 6c bd fd 24 3b bc 53 47 c5 bc
       0.00421262 -0.057682317 -0.011422393 -0.024081862
0000b0 bb b4 59 3c 0f 62 64 bd 04 db ee bb 8d 46 6c 3c
       0.013287718 -0.05575758 -0.0072892923 0.0144211175
0000c0 6e 66 2d 3c d8 ff c7 bc c7 2c 2b bc 76 33 63 bb
       0.010583503 -0.024413988 -0.0104476875 -0.0034668124
0000d0 86 25 7f 3d aa cf 5c bd 18 ae 50 bc 99 98 59 bd
       0.062291645 -0.05390898 -0.01273682 -0.053124044
0000e0 93 21 77 bc ca 0e e8 3c 08 1f b5 bb ae 34 e6 3c
       -0.015083688 0.028327364 -0.005527381 0.028101292
0000f0 02 10 79 bc 20 8e 4f bd 45 dc 29 3d 30 d1 ca bc
       -0.0152015705 -0.05067265 0.04146983 -0.024757951
000100 b9 3a 22 3b c5 91 c8 bd a7 d7 50 3d 1f 35 76 bd
       0.002475424 -0.09793428 0.050986912 -0.060109254
000110 9e ed b1 bc 1a 24 d7 3c 6b ae 7e bd d7 b5 f9 bc
       -0.02171975 0.026262332 -0.062178057 -0.030482216
000120 a9 b9 9f bc 1d d2 7a bd 49 85 14 3d b8 12 44 bc
       -0.01949771 -0.061235536 0.036259923 -0.0119673535
000130 95 ff 8f 3b 6f 08 82 3d 27 6b 23 bd d9 54 c2 bb
       0.0043944814 0.06349265 -0.03989711 -0.005930525
000140 54 44 35 3a e0 c4 23 bd c4 7a 09 bc d6 45 ae bb
       0.0006914784 -0.039982677 -0.008391086 -0.0053183837
000150 4a 69 07 bd 3f 04 91 bc eb 9c b7 3c f7 40 25 3d
       -0.033059396 -0.01770222 0.022413692 0.04034516
000160 be 8e a2 3b 13 9d 61 3c 89 7b 66 bd 75 65 f5 3c
       0.004960864 0.01377036 -0.056270156 0.029955605
000170 af d8 6b bc 28 53 0a bc 27 fa a4 bc 5a f5 85 bd
       -0.014394923 -0.008442678 -0.020138813 -0.06540938
000180 b6 b4 c6 bd 6f 36 49 3b 1e 9f 9f 3c 3a 7d c4 3c
       -0.097024366 0.003070261 0.019485053 0.023985494
000190 02 37 8b 3c 07 66 08 3d 67 29 41 bc b9 12 18 bc
       0.016994003 0.033300426 -0.011789656 -0.009281808
0001a0 51 fd a1 bd f0 48 06 3b 29 b2 64 bd 49 f0 7a bd
       -0.079096444 0.0020490251 -0.05583397 -0.06126431
0001b0 68 3b 98 ba 91 0c 2a bd bf 77 a7 bd 8b 1a ce bc
       -0.0011614384 -0.04151589 -0.08177137 -0.025159141
0001c0 37 f7 99 bd 5d 2e fd 39 86 43 55 3c 89 ae c1 3b
       -0.075178556 0.00048290464 0.013016587 0.005910699
0001d0 ac 9a 8b bd 7e d3 f8 3c 9c 1b 9e bc cb 22 66 3c
       -0.06816611 0.030374285 -0.019300275 0.014046381
0001e0 00 6d e6 3b d5 2d db bc a9 dc f1 bb ba c7 70 bd
       0.007032037 -0.026755253 -0.007381041 -0.058784224
0001f0 c8 6d 78 bc bc 1a 37 bc 92 61 88 bd d6 75 98 bc
       -0.015162893 -0.011175808 -0.06659235 -0.018610876
000200 9a 48 44 3d 55 9d 79 bd 70 8f 93 bd 20 6d 78 3b
       0.0479208 -0.06094106 -0.07205093 0.003790684
000210 27 4d d6 3c 62 fe ef 3c 71 2a c7 3c 03 5e b2 bd
       0.026159836 0.029296104 0.02431223 -0.087093376
000220 64 0d b7 3c 12 89 9a bd c4 d6 06 3d 39 14 61 3d
       0.022345252 -0.07545675 0.03291966 0.054950926
000230 37 bd 01 bd bc d7 d1 bc 27 56 23 3d 6a 41 14 3d
       -0.03167459 -0.025615565 0.039877083 0.036195196
000240 ec 6d f5 3c 9a 82 52 bd 76 ef 5a 3c 61 05 17 3d
       0.029959641 -0.051394083 0.013362756 0.036870364
000250 70 5b fa 3c a4 f1 72 bd ff 56 65 3d 40 6d 54 3d
       0.030561179 -0.059312478 0.05599117 0.051862
000260 2e 88 b4 3c 96 63 c0 3c 77 6f e0 3c 15 1d 7f 3d
       0.022037592 0.023484986 0.0273969 0.062283594
000270 b7 9f 08 3d 2a 3c db bd c3 f2 1b 3d bd 6a 80 3c
       0.03335544 -0.10704835 0.038073312 0.015675897
000280 64 49 2f bc 6c 68 00 3c 1a 33 29 bd ff 09 87 3d
       -0.01069865 0.007837396 -0.0413085 0.065937035
000290 7d 18 84 bd 00 ac 83 3d e5 bf 9c bd f4 44 7b bd
       -0.06449983 0.06429291 -0.076537885 -0.061345056
0002a0 96 5e 89 3d dd 25 41 bd b3 2f c1 bc cf c6 21 bd
       0.06707494 -0.04715525 -0.023582315 -0.03949624
0002b0 12 8d 42 3d f9 ae 8f bd ac b6 3e 3d 1a f5 22 bd
       0.047497816 -0.07015795 0.04656093 -0.03978453
0002c0 1a 23 d5 3c 47 90 87 bd 09 f1 6b bd 9b 64 6e bc
       0.026017714 -0.066193156 -0.057602916 -0.014550353
0002d0 82 67 a7 3c dc 7b 7d bd ff c0 c6 3c 33 e0 4b bd
       0.020435099 -0.0618857 0.02426195 -0.04977436
0002e0 84 52 41 bd 2a 03 26 3d f4 d4 71 bd 36 fd 06 3d
       -0.047197834 0.04053036 -0.05904098 0.032956325
0002f0 9d 8a c1 3c 58 bd 88 bd f5 ed 2d 3d 86 48 1f bd
       0.023625666 -0.066767395 0.04246326 -0.038887523
000300 68 22 26 3d 91 c3 94 bd 0b 67 54 3d 26 b6 51 bc
       0.040560156 -0.07263864 0.051856082 -0.012799775
000310 d7 f3 4d bd e1 ef 31 3b 2c 6a ad bd 93 6a 08 bd
       -0.050281372 0.0027151036 -0.08467516 -0.033304762
000320 d5 e3 10 bc 2f 69 92 bc 3c c5 44 3d 44 e2 27 bd
       -0.008843382 -0.017872421 0.04803966 -0.040987268
000330 37 07 04 bd e3 cf 09 3c 69 87 bb bd 32 90 5c 3d
       -0.032233443 0.00841138 -0.09156687 0.053848453
000340 ce 64 a9 bc b8 6b b0 bd 2e 23 7c 3d ec ab 2c 3d
       -0.02067795 -0.08614296 0.061556987 0.042156145
000350 03 dc d6 bd 30 8d 2c 3d b2 f1 1d bd ba 6c 4e 3d
       -0.10491183 0.042126834 -0.038560577 0.05039666
000360 62 d6 45 bd ae 76 4f 3d 02 50 5c bd 57 68 45 3d
       -0.048300155 0.05065029 -0.05378724 0.04819521
000370 4d d3 3b bd bc 8c a2 bd 5b 6d 2d 3d c9 2e 29 bd
       -0.04585581 -0.07936999 0.042340618 -0.041304383
000380 17 f7 b7 bd d2 55 9a 3d 55 04 c8 3c 67 fd ce 3c
       -0.089826755 0.075359 0.024416128 0.025267316
000390 64 30 f2 3c 68 c4 10 3d 23 f6 c5 3c 0b ad c5 bd
       0.02956409 0.035343558 0.024165219 -0.09652146
0003a0 4e f8 25 be 87 1b 0b 3d 0f fd 53 bd 4b b4 24 bd
       -0.16208002 0.0339618 -0.051755007 -0.040211003
0003b0 f7 03 39 3c 73 db 8d bd ee e4 c6 bd cf a7 10 3c
       0.011292449 -0.06926622 -0.097116336 0.008829071
0003c0 80 23 87 bd 03 8f 2f bd 15 ea 99 3c 84 b0 ed bc
       -0.06598568 -0.042860996 0.018788377 -0.029014833
0003d0 d6 04 94 bd 64 f1 97 3d a6 25 00 bd ca 82 f0 bb
       -0.07227485 0.074190885 -0.031285904 -0.00733981
0003e0 10 c3 3a bd b6 21 5c bd 52 18 56 3c b1 85 7d bd
       -0.045596182 -0.053743087 0.013067322 -0.061895076
0003f0 47 13 86 bd 3f 86 25 3d e5 42 96 bd 95 6a 5c 3d
       -0.065466456 0.04041123 -0.07336978 0.053812582

output_mlp.2.bias f4 [9]
000000 6c c1 98 bc 2a 8a 1e bd d9 3c 0c bd 52 d7 a3 3c
       -0.018646918 -0.038705982 -0.034237716 0.020000134
000010 fb be 53 3e 11 85 13 bd 63 37 6b 3d 09 24 d2 bc
       0.20678322 -0.036015574 0.057425868 -0.025651949
000020 87 d0 31 be
       -0.17364703
