log/segmentation/pn/bucket/weighted-1/pn_0.pth (torch, 337359 bytes, 8 tensors)

local_mlp.0.weight f4 [64, 3]
-0.024082476 0.009697818 -0.055606708 0.050684072 -0.008597949 0.04984281 0.06924489 0.012974168
0.041185416 -0.060834546 0.0074702324 -0.05485731 0.053309273 -0.025890162 0.072220884 0.03002218
-0.0059988014 0.04847684 0.014305874 -0.011110592 0.06310468 0.04989257 -0.0060749687 0.04900688
0.081623435 0.063569695 0.014864619 -0.049011655 0.01369456 -0.04179257 0.04133545 -0.021261446
0.041130736 -0.047307797 -0.004024754 -0.056541283 -0.031643353 0.021450104 -0.042158365 -0.086120404
0.02625855 -0.04718133 -0.06523158 0.034329876 -0.048660588 -0.03487842 -0.014324261 -0.04603447
0.03668816 -0.042287957 0.05896718 0.08816073 -0.011122161 0.06099194 0.013843524 -0.03133872
0.046357937 0.057490822 -0.0150760105 0.042084333 -0.060370624 -0.028576374 -0.044004634 0.015243999
-0.02741768 0.0709803 0.028683817 -0.051855847 0.05783202 0.046829503 0.05324323 0.04532934
0.037368998 0.0010071011 0.041064106 0.053102847 0.020892078 0.048592012 -0.05558566 -0.005730211
-0.031565104 0.031370796 0.020158377 0.04308024 0.038651884 0.028867912 0.050336894 -0.04110051
0.006626757 -0.040164992 -0.030378737 0.0032501554 -0.07097434 0.06579903 0.007377955 0.030914715
-0.04749933 -0.020819023 -0.04780202 0.021683717 -0.045250036 0.0572527 0.04078553 -0.01806082
0.04383641 -0.054967746 -0.000433031 -0.07412551 0.003218248 -0.008833421 0.05484924 -0.01114834
0.052906178 -0.04446995 0.012655266 -0.018554453 0.050630376 -0.0517556 -0.007861888 -0.030696344
0.041044485 -0.0248863 0.04763794 -0.044182498 -0.029696172 -0.053199057 -0.04322155 0.003416552
-0.054712247 -0.020455178 -0.013105735 -0.051397327 0.03778493 0.035065316 0.057599723 0.049686246
-0.024610965 0.03813175 -0.066325806 -0.030810677 -0.038479146 -0.05765081 -0.0011350642 -0.039130233
0.06797467 -0.04504928 0.05494997 -0.0706296 0.0042964197 -0.05345391 0.048329346 -0.006744631
0.049944174 -0.056751534 -0.016045162 -0.07347575 0.03183196 -0.013969129 0.043786682 -0.04183966
0.018375054 -0.06382699 -0.040110156 0.020708397 -0.064163454 0.053013314 0.004760396 0.03561878
0.05917789 -0.016079081 0.04871733 0.021656092 0.0049476675 0.073701605 -0.029595794 0.04659419
-0.07070641 -0.074257344 0.024227245 -0.07741234 -0.05808571 -0.025555696 -0.051675282 0.02556614
-0.015081583 0.054465916 -0.04047667 0.028431265 -0.037507366 0.057951063 0.019516863 0.0404026
00000000: 9d48 c5bc 99e3 1e3c dcc3 63bd 1a9a 4f3d
00000010: 69de 0cbc f927 4c3d 44d0 8d3d 9b91 543c
00000020: 0ab2 283d a52d 79bd dac8 f43b 0fb2 60bd
00000030: d35a 5a3d 9b17 d4bc 8be8 933d 13f1 f53c
00000040: 9891 c4bb a78f 463d 2f63 6a3c 3309 36bc
00000050: 073d 813d 275c 4c3d 8810 c7bb 70bb 483d
00000060: 302a a73d d430 823d bb8a 733c 72c0 48bd
00000070: 265f 603c b02e 2bbd 5c4f 293d 7c2c aebc
00000080: b478 283d d2c5 41bd 15e2 83bb d597 67bd
00000090: 769c 01bd 21b8 af3c 40ae 2cbd e55f b0bd
000000a0: 2c1c d73c 3641 41bd 2298 85bd 7c9d 0c3d
000000b0: 5350 47bd addc 0ebd 4eb0 6abc a48e 3cbd
000000c0: 5346 163d 2336 2dbd 9287 713d 9d8d b43d
000000d0: b939 36bc afd2 793d f3cf 623c 085d 00bd
000000e0: d2e1 3d3d 7f7b 6b3d 5f01 77bc 9f60 2c3d
000000f0: 3047 77bd 0019 eabc 343e 34bd f7c1 793c
00000100: 0b9b e0bc 1f5e 913d 53fa ea3c cc66 54bd
00000110: 45e1 6c3d 4bd0 3f3d 9315 5a3d 42ab 393d
00000120: 3c10 193d b500 843a d632 283d 5f82 593d
00000130: dd25 ab3c 6b08 473d caad 63bd 7ec4 bbbb
00000140: 694a 01bd aa7e 003d 2e23 a53c e874 303d
00000150: 7051 1e3d 667c ec3c 0f2e 4e3d 0259 28bd
00000160: 4425 d93b 0c84 24bd d4dc f8bc 8f00 553b
00000170: ff5a 91bd a4c1 863d c6c2 f13b db40 fd3c
00000180: a88e 42bd a88c aabc 0dcc 43bd 0da2 b13c
00000190: 1a58 39bd cf81 6a3d ba0e 273d 49f4 93bc
000001a0: cf8d 333d dc25 61bd 7008 e3b9 1ecf 97bd
000001b0: 3ee9 523b 0eba 10bc 99a9 603d 87a7 36bc
000001c0: 26b4 583d 1f26 36bd 0858 4f3c 82ff 97bc
000001d0: cc61 4f3d aefd 53bd 26cf 00bc e676 fbbc
000001e0: 431e 283d 5bde cbbc 0020 433d b5f8 34bd
000001f0: 6345 f3bc 41e7 59bd 1409 31bd 3be8 5f3b
00000200: f319 60bd 9e91 a7bc 70b9 56bc 0186 52bd
00000210: 5fc4 1a3d a6a0 0f3d b0ed 6b3d ce83 4b3d
00000220: ef9c c9bc 0a30 1c3d d3d5 87bd ac66 fcbc
00000230: 4f9c 1dbd 4123 6cbd 6fc6 94ba 0647 20bd
00000240: 4e36 8b3d 9885 38bd 3813 613d 40a6 90bd
00000250: fbc8 8c3b 7df2 5abd fef4 453d 1102 ddbb
00000260: 4392 4c3d 4c74 68bd 2571 83bc 747a 96bd
00000270: 3b62 023d c6de 64bc aa59 333d 1060 2bbd
00000280: 4887 963c bab7 82bd 8c4a 24bd a8a4 a93c
00000290: 2168 83bd 7d24 593d 19fd 9b3b ffe4 113d
000002a0: 8464 723d 47b8 83bc d38b 473d 1e68 b13c
000002b0: 0b20 a23b def0 963d e172 f2bc 8dd9 3e3d
000002c0: 86ce 90bd 3c14 98bd 3778 c63c 5c8a 9ebd
000002d0: 48eb 6dbd 2e5a d1bc 76a9 53bd 1570 d13c
000002e0: be18 77bc a717 5f3d ddca 25bd afe8 e83c
000002f0: 53a1 19bd 185e 6d3d d4e1 9f3c 327d 253d

local_mlp.0.bias f4 [64]
-0.039025825 0.03916182 0.035856996 -0.03503792 0.038828984 0.03830772 0.035492133 0.038467944
0.024776148 -0.034214534 0.036011018 -0.03860365 -0.038475573 -0.038660586 -0.035120938 -0.038814723
0.03607664 0.03911712 0.030909944 0.034983322 -0.035605345 0.038981754 0.035403527 0.038566157
0.03659173 0.035238817 -0.038924754 0.03899421 0.038320307 -0.035222396 -0.038943615 0.030821111
-0.036300678 0.038722083 0.03877214 -0.038592152 0.038902815 -0.03813279 0.038874537 -0.031286467
0.03592494 -0.036177028 -0.03576079 -0.03900408 0.036556028 0.03897582 -0.038790155 -0.038581133
0.036108144 -0.03860531 0.03889418 -0.03872461 0.031859405 -0.035760373 -0.03511062 0.038828354
0.034312032 0.037316345 -0.03607342 -0.038801838 -0.039163087 0.039041895 -0.038637724 0.035394613
00000000: 8bd9 1fbd 2568 203d c9de 123d ec83 0fbd
00000010: 240b 1f3d 8ee8 1c3d 3360 113d 9090 1d3d
00000020: 59f7 ca3c 8a24 0cbd 4a80 133d dc1e 1ebd
00000030: 9098 1dbd 905a 1ebd f9da 0fbd 30fc 1ebd
00000040: 19c5 133d 4639 203d da36 fd3c ac4a 0f3d
00000050: e9d6 11bd 55ab 1f3d 4a03 113d 8cf7 1d3d
00000060: 36e1 153d 9456 103d 906f 1fbd 65b8 1f3d
00000070: c1f5 1c3d 5c45 10bd 5783 1fbd 8e7c fc3c
00000080: 05b0 14bd 0c9b 1e3d 89cf 1e3d ce12 1ebd
00000090: 8f58 1f3d 2131 1cbd e83a 1f3d 3d26 00bd
000000a0: 0826 133d 5d2e 14bd e879 12bd bec2 1fbd
000000b0: c6bb 153d 1ca5 1f3d 6de2 1ebd 4007 1ebd
000000c0: 22e6 133d 9a20 1ebd 814f 1f3d b29d 1ebd
000000d0: 027f 023d 7879 12bd 27d0 0fbd 7b0a 1f3d
000000e0: c68a 0c3d 06d9 183d b9c1 13bd adee 1ebd
000000f0: 7969 20bd 65ea 1f3d 9742 1ebd f1f9 103d

local_mlp.2.weight f4 [256, 64]
0.05387085 -0.041227728 -0.04031099 0.034633078 -0.040079862 -0.04568487 -0.031000555 -0.023259716
-0.0006387118 0.051563933 -0.044762123 0.061654717 0.043910015 0.050870948 0.04479946 0.026329232
-0.026975075 -0.01874181 -0.046983115 -0.07172738 0.056143764 -0.01815435 -0.041763924 -0.046213962
-0.07280303 -0.050441805 0.008861086 -0.0050652367 -0.01845538 0.032967575 0.05834343 -0.013437467
0.047324955 -0.012581314 -0.023970945 0.044652734 -0.0423976 0.029902976 0.008549251 0.015577498
-0.021787498 0.024067542 0.027540796 0.035791155 -0.04603593 -0.018562932 0.051339142 0.04443568
-0.043746836 0.007644216 -0.009632503 0.0403839 -0.033377264 0.05718015 0.025629373 0.004777098
-0.023521498 -0.059102852 0.056817126 0.02348719 0.058199756 -0.046699375 -0.0107164085 -0.031821832
-0.05072497 0.055870924 0.035667427 -0.0364249 0.0081334775 0.019409273 0.0656902 0.01585007
-0.0055887853 -0.058258183 0.053217996 -0.04343525 -0.05979433 -0.040480856 -0.04286125 -0.023019623
0.044557806 0.036122568 0.018942079 0.04457239 -0.0068401354 0.039914116 0.02897987 0.019458186
0.01765612 0.044776946 -0.082199074 0.04055555 0.03222321 -0.053235877 -0.038887054 0.06807159
-0.010252928 0.056951616 0.041669946 -0.020043312 0.005020977 -0.006094218 0.0409057 -0.0070509575
0.046944443 -0.017509833 -0.03105677 -0.034042068 0.03325394 0.027132751 -0.054245632 -0.03681192
0.0034873805 -0.057269987 0.05936693 -0.034694877 0.019916683 -0.022756971 -0.042830504 0.027270908
0.05797803 0.042688638 -0.05185588 -0.085568935 -0.04167041 0.03268458 -0.059127036 0.033432376
-0.026165627 0.060648028 0.03951792 -0.021667495 0.030299414 0.017886657 0.07419539 0.056837197
0.06376168 -0.04302889 0.062288906 -0.06087881 -0.05370124 -0.035500143 -0.068348944 -0.019892467
0.0515136 0.028137915 0.0735623 0.07144207 -0.03384243 0.018030932 0.038621813 0.02148812
0.031656943 0.059088167 -0.0476174 0.031658884 0.010854105 0.00512162 -0.061846077 0.059595186
-0.08237382 0.020012246 0.04128424 -0.07545434 0.040166337 -0.038406044 0.01904937 -0.025336867
0.027051393 -0.027296599 -0.01393458 -0.027646564 0.00880794 0.0976004 -0.028890025 -0.03397398
0.04864582 -0.061726727 0.036793757 -0.06852533 0.0034818847 -0.056629773 -0.036583986 0.035729982
0.065660454 0.042950846 -0.03209489 -0.013973971 -0.025424791 0.034856804 -0.0434451 0.012857506
0.0765373 -0.04002845 -0.043246467 0.06519952 -0.042465437 -0.02790549 -0.0129739735 -0.04847876
-0.015856758 0.054307766 -0.06354366 0.004969167 0.051244397 0.056754757 0.022273032 0.03543862
-0.032779086 -0.02811298 -0.02491537 -0.037447445 0.0711303 -0.066081576 -0.04638013 -0.05659243
-0.06484459 -0.037597273 0.02842019 -0.039917286 -0.036232747 0.030094422 0.06085399 -0.058374744
0.043432057 -0.038430605 -0.011228182 0.066657454 -0.04607288 0.032777663 -0.0022828176 0.04595748
-0.054428954 0.0385124 0.025262758 0.048673708 -0.037695676 -0.042103488 0.049136184 0.05463836
-0.013677874 0.03493891 -0.02535241 0.027161844 -0.022463849 0.048730724 0.034859054 -0.06280703
-0.0020326644 -0.036337998 0.06575434 0.033302788 0.045550942 -0.03243802 0.038558632 -0.062699355
00000000: aea7 5c3d 68de 28bd 231d 25bd 6adb 0d3d
00000010: c82a 24bd 0f20 3bbd e0f4 fdbc 298b bebc
00000020: 396f 27ba b434 533d 7d58 37bd a889 7c3d
00000030: fdda 333d 0e5e 503d a37f 373d 67b0 d73c
00000040: d5fa dcbc 6d88 99bc 5e71 40bd cee5 92bd
00000050: 01f7 653d 6eb8 94bc a610 2bbd da4a 3dbd
00000060: c119 95bd 119c 4ebd 172e 113c 49fa a5bb
00000070: bd2f 97bc 0209 073d 85f9 6e3d d228 5cbc
00000080: d0d7 413d db21 4ebc b75e c4bc c9e5 363d
00000090: 1ba9 2dbd 16f7 f43c 2812 0c3c c338 7f3c
000000a0: b27b b2bc 4b29 c53c 3c9d e13c bf99 123d
000000b0: 2c90 3cbd 4a11 98bc fe48 523d 3002 363d
000000c0: e22f 33bd 557c fa3b a5d1 1dbc 9769 253d
000000d0: 99b6 08bd bc35 6a3d b1f4 d13c 3489 9c3b
000000e0: 28b0 c0bc d515 72bd 13b9 683d 3568 c03c
000000f0: de62 6e3d d847 3fbd e093 2fbc 9c57 02bd
00000100: fcc4 4fbd e9d8 643d 0218 123d 4732 15bd
00000110: 4742 053c 3200 9f3c 9588 863d 02d8 813c
00000120: 2122 b7bb 22a0 6ebd 1dfb 593d 29e9 31bd
00000130: e6ea 74bd 41cf 25bd 478f 2fbd a693 bcbc
00000140: 3f82 363d 42f5 133d 6b2c 9b3c 8a91 363d
00000150: 3723 e0bb fc7c 233d 3167 ed3c c666 9f3c
00000160: 91a3 903c 0868 373d fd57 a8bd 941d 263d
00000170: 7cfc 033d dd0d 5abd 0848 1fbd 1e69 8b3d
00000180: e6fb 27bc 1946 693d 1bae 2a3d df31 a4bc
00000190: 0287 a43b 02b2 c7bb bc8c 273d b80b e7bb
000001a0: d148 403d c870 8fbc c46a febc b26f 0bbd
000001b0: 4935 083d 8145 de3c ab30 5ebd 19c8 16bd
000001c0: 898c 643b ef93 6abd bd2a 733d 371c 0ebd
000001d0: 5028 a33c d46c babc 0a6f 2fbd 3d67 df3c
000001e0: 5f7a 6d3d 48da 2e3d d566 54bd c43e afbd
000001f0: 98ae 2abd 44e0 053d 312f 72bd 63f0 083d
00000200: 4c59 d6bc 116a 783d 8bdd 213d 0880 b1bc
00000210: 7a36 f83c 0a87 923c c1f3 973d 1fce 683d
00000220: 7c95 823d 103f 30bd a722 7f3d 0f5c 79bd
00000230: d5f5 5bbd 9968 11bd 88fa 8bbd 87f5 a2bc
00000240: edff 523d 7c81 e63c d5a7 963d 3850 923d
00000250: 5c9e 0abd 9bb5 933c e831 1e3d db07 b03c
00000260: b6aa 013d 6f06 723d 760a 43bd bfac 013d
00000270: 6bd5 313c 43d3 a73b 5052 7dbd 151a 743d
00000280: 9bb3 a8bd b9f0 a33c aa19 293d ce87 9abd
00000290: 7585 243d a84f 1dbd 6d0d 9c3c 438f cfbc
000002a0: e29a dd3c 1e9d dfbc dd4d 64bc 0c7b e2bc
000002b0: 2e4f 103c b8e2 c73d c6aa ecbc 4d28 0bbd
000002c0: d740 473d 2ad5 7cbd 0db5 163d 0257 8cbd
000002d0: 5530 643b 9ff4 67bd 17d9 15bd 9a59 123d
000002e0: fd78 863d 3aed 2f3d ee75 03bd 15f3 64bc
000002f0: a747 d0bc 02c6 0e3d 7df3 31bd 4aa8 523c
00000300: 97bf 9c3d dff4 23bd 3523 31bd 5387 853d
00000310: 3df0 2dbd 0e9a e4bc ca90 54bc aa91 46bd
00000320: 08e6 81bc d271 5e3d 2e23 82bd 65d4 a23b
00000330: a5e5 513d ad77 683d ef75 b63c 1628 113d
00000340: 5d43 06bd 314d e6bc 511b ccbc 7e62 19bd
00000350: c3ac 913d c755 87bd 17f9 3dbd 77cd 67bd
00000360: 3ecd 84bd 99ff 19bd 75d1 e83c 4f80 23bd
00000370: ca68 14bd 9488 f63c 0942 793d 5b1a 6fbd
00000380: d0e5 313d 6969 1dbd 69f6 37bc b483 883d
00000390: ebb6 3cbd df41 063d 539b 15bb e93d 3c3d
000003a0: e5f0 5ebd 2ebf 1d3d d8f3 ce3c 155e 473d
000003b0: c866 1abd b574 2cbd 0643 493d 79cc 5f3d
000003c0: 2919 60bc 1a1c 0f3d dbaf cfbc 8482 de3c
000003d0: 1b06 b8bc de99 473d 5ec8 0e3d f9a0 80bd
000003e0: 7336 05bb 27d7 14bd 36aa 863d 8168 083d
000003f0: a093 3a3d bbdd 04bd a8ef 1d3d 8568 80bd

local_mlp.2.bias f4 [256]
-0.037018172 0.036312062 0.03936702 -0.03502252 0.038704775 -0.038892966 -0.039302144 -0.039358493
0.03900817 0.039373677 -0.035220183 -0.031913094 0.03552376 -0.038506623 0.03955274 0.037749432
0.031201452 0.039455995 -0.036326896 0.039845217 0.039122775 0.039321847 -0.037172947 -0.039472945
-0.037610937 -0.039337292 -0.032785323 -0.03976561 -0.039137132 -0.038741037 -0.03936622 0.03957002
-0.034762558 -0.039615184 -0.03574467 -0.036959924 0.03984305 0.03598617 -0.039463736 -0.03939628
0.039617147 0.03888529 0.03936709 0.03938787 -0.038652174 0.039293543 0.039303057 0.039269805
-0.03946003 -0.03719342 -0.039690644 0.03970605 0.039237756 -0.039692137 -0.0399546 0.03952782
0.03985798 -0.039418682 0.036648642 0.03971783 -0.03566195 -0.037357178 0.039317504 -0.039110653
-0.039650645 -0.038859103 -0.03607168 -0.039364457 -0.034962595 -0.039615523 0.03783936 0.039170194
0.03990602 -0.03657233 0.039658993 0.037583835 -0.040105537 0.039463807 -0.033028647 -0.039713528
-0.03904794 -0.036661584 -0.03946364 0.03920011 -0.039362352 -0.039907046 0.03969897 0.036804583
0.0396872 0.03999027 -0.038761545 -0.033297177 -0.03960839 0.032286197 0.039470017 -0.039261974
0.038151853 0.03895734 0.039846115 -0.03993113 -0.03956329 0.039406426 0.03961344 0.038971096
-0.039812382 0.03966881 -0.03436548 -0.03915596 0.03958166 0.03520711 -0.039795052 -0.039646823
0.033503518 -0.0375071 -0.03772045 -0.032045625 0.039511386 0.039188735 -0.032844845 -0.038958192
-0.032699555 0.039846458 -0.03917866 0.039032754 -0.039553676 -0.03936791 0.039314486 0.03918401
0.03625938 -0.035718545 0.033471577 0.030908816 -0.039663535 0.03908996 0.03881612 0.039347257
0.039125063 0.035342555 0.039170593 0.036006607 0.039525244 -0.039157778 0.03881138 0.035817396
0.038729247 0.039281808 -0.038956188 0.039559808 -0.03906368 0.039643127 0.035472948 -0.03948311
0.03918602 0.039690364 -0.036215667 0.03915824 -0.039152775 -0.039919045 0.037506126 -0.036685087
0.038762018 -0.035713073 0.035618853 0.03190084 0.040078647 0.03844985 -0.038111143 -0.039355595
-0.036000386 0.029395713 -0.039463054 -0.03914215 -0.03986494 -0.03924125 0.039536867 0.039850518
0.039474946 0.038852196 0.039545365 0.039034534 -0.03968789 -0.03127637 -0.03988636 0.039470058
0.038175166 -0.02454768 -0.039573763 0.037585665 0.04006635 -0.035303656 -0.03899889 -0.032236237
0.03969621 0.03922946 -0.039902054 0.039352965 -0.039772358 0.03910539 0.0398844 -0.039347965
0.03940985 0.038327686 -0.034683198 0.03962555 -0.039892215 0.037287705 -0.03914181 0.039644342
-0.03829919 0.038958274 -0.03918208 0.031894892 0.026807409 -0.03984192 0.039422777 -0.039233834
-0.039302476 0.039160267 -0.036408238 -0.039444607 0.038492475 -0.03939882 0.038718924 0.03923264
0.033853684 0.03493379 0.03668761 0.039505094 0.039862234 -0.03752914 -0.039701175 -0.031157624
-0.039158463 -0.038991172 0.038619127 -0.036683068 0.035049047 -0.03860431 -0.039373286 -0.03987084
-0.03963857 -0.03957101 -0.03944484 -0.037317034 0.03887586 -0.039507642 -0.035203196 0.03981784
-0.034341335 0.03975765 0.039555874 0.03508341 -0.038344864 0.03930081 0.032416113 -0.035925455
00000000: 5ea0 17bd f5bb 143d 503f 213d c673 0fbd
00000010: e688 1e3d 3b4e 1fbd 49fb 20bd 5f36 21bd
00000020: 08c7 1f3d 4b46 213d 0a43 10bd 4eb7 02bd
00000030: 5d81 113d 1fb9 1dbd 0e02 223d 269f 1a3d
00000040: 309a ff3c 9c9c 213d 83cb 14bd bd34 233d
00000050: 343f 203d f20f 213d a942 18bd 62ae 21bd
00000060: ed0d 1abd 2420 21bd e749 06bd 44e1 22bd
00000070: 424e 20bd ecae 1ebd 793e 21bd 2c14 223d
00000080: 2f63 0ebd 8843 22bd 0169 12bd 4a63 17bd
00000090: 7732 233d 3c66 133d baa4 21bd fe5d 21bd
000000a0: 9745 223d 2f46 1f3d 633f 213d 2d55 213d
000000b0: be51 1ebd 44f2 203d 3efc 203d 60d9 203d
000000c0: d7a0 21bd 2158 18bd a892 22bd d0a2 223d
000000d0: c5b7 203d 3994 22bd 6fa7 23bd ece7 213d
000000e0: 1f42 233d 7c75 21bd e31c 163d 2aaf 223d
000000f0: 4412 12bd d703 19bd 640b 213d 7e32 20bd
00000100: b768 22bd b92a 1fbd e6bf 13bd a03c 21bd
00000110: f034 0fbd e343 22bd 72fd 1a3d ed70 203d
00000120: 7f74 233d decc 15bd 7871 223d 82f1 193d
00000130: b445 24bd cda4 213d 0c49 07bd a7aa 22bd
00000140: bcf0 1fbd 752a 16bd a0a4 21bd 4b90 203d
00000150: 6b3a 21bd 9275 23bd 639b 223d 67c0 163d
00000160: 0c8f 223d d6cc 233d 6dc4 1ebd 9f62 08bd
00000170: 683c 22bd 883e 043d 50ab 213d 2ad1 20bd
00000180: 1e45 1c3d bb91 1f3d ae35 233d d38e 23bd
00000190: 1e0d 22bd a268 213d b441 223d 28a0 1f3d
000001a0: 4f12 23bd c37b 223d d1c2 0cbd 0062 20bd
000001b0: 6120 223d 5535 103d 2300 23bd b564 22bd
000001c0: fc3a 093d 0ba1 19bd c280 1abd 4642 03bd
000001d0: b1d6 213d 5e84 203d 5188 06bd a092 1fbd
000001e0: f8ef 05bd 0a36 233d cd79 20bd cfe0 1f3d
000001f0: 0903 22bd 3f40 21bd 3a08 213d 6a7f 203d
00000200: b784 143d 9c4d 12bd 7e19 093d 7c34 fd3c
00000210: 3b76 22bd cb1c 203d a7fd 1e3d 972a 213d
00000220: 9a41 203d 5bc3 103d 5871 203d aa7b 133d
00000230: 39e5 213d e863 20bd aef8 1e3d 43b5 123d
00000240: 8fa2 1e3d f6e5 203d 8690 1fbd 7709 223d
00000250: 3d01 20bd d560 223d 154c 113d 0bb9 21bd
00000260: 8581 203d 5d92 223d e156 14bd 6464 203d
00000270: a95e 20bd 2782 23bd 06a0 193d 1a43 16bd
00000280: ecc4 1e3d df47 12bd 13e5 113d 75aa 023d
00000290: 8229 243d 977d 1d3d 6e1a 1cbd 5533 21bd
000002a0: 2475 13bd 47cf f03c 03a4 21bd 8553 20bd
000002b0: 6b49 23bd 6fbb 20bd 69f1 213d 4c3a 233d
000002c0: 7bb0 213d 7b23 1f3d 52fa 213d ade2 1f3d
000002d0: c58f 22bd a71b 00bd e15f 23bd 5bab 213d
000002e0: 905d 1c3d 3718 c9bc 1918 22bd 6df3 193d
000002f0: 9d1c 243d 919a 10bd 4dbd 1fbd 250a 04bd
00000300: 7e98 223d 12af 203d 5670 23bd 9330 213d
00000310: 57e8 22bd f92c 203d d35d 233d 552b 21bd
00000320: 396c 213d 7efd 1c3d f80f 0ebd 674e 223d
00000330: 0566 23bd feba 183d 2a53 20bd 1b62 223d
00000340: 9ddf 1cbd b692 1f3d 647d 20bd 38a4 023d
00000350: 369b db3c 4831 23bd c779 213d a8b3 20bd
00000360: a2fb 20bd 8466 203d ce20 15bd ab90 21bd
00000370: 49aa 1d3d a860 21bd bc97 1e3d 68b2 203d
00000380: 29aa 0a3d bc16 0f3d bf45 163d 18d0 213d
00000390: 9546 233d 28b8 19bd b39d 22bd 463e ffbc
000003a0: a064 20bd 35b5 1fbd 172f 1e3d fc40 16bd
000003b0: 978f 0f3d 8e1f 1ebd e245 21bd 9b4f 23bd
000003c0: 0e5c 22bd 3615 22bd ea90 21bd bfd9 18bd
000003d0: 4b3c 1f3d c4d2 21bd 3a31 10bd 0818 233d
000003e0: 80a9 0cbd ebd8 223d 5705 223d 9fb3 0f3d
000003f0: 810f 1dbd e3f9 203d c2c6 043d 9226 13bd

output_mlp.0.weight f4 [128, 512]
0.019770956 -0.044469647 -0.049088493 0.019743778 0.0024362176 0.037207417 0.029898351 0.033195406
0.003239326 0.0008547909 -0.011282123 0.005681073 -0.018129844 0.007084026 -0.022048691 -0.030065436
-0.0073788394 -0.044101745 0.04957511 -0.038686562 -0.0348552 0.010702467 0.021634381 0.061795566
0.042819537 0.028039703 0.027798595 0.021490285 0.014744179 0.019881347 0.03891716 0.018420067
0.025430165 0.023645133 0.01708887 0.030040825 -0.061412614 -0.022748552 0.009643166 0.07727008
-0.035339043 -0.06444449 -0.049546156 -0.05117059 0.021141797 -0.017120464 -0.03990214 -0.021033106
0.034806833 0.005586675 0.023037992 -0.061738342 -0.04109795 0.05501604 -0.0016580124 -0.041782796
0.016997194 0.018131983 -0.016858408 -0.006670226 0.039622784 0.050412554 -0.01091711 0.0067062275
0.03783214 0.008980319 0.016121939 0.052978013 0.0025873461 0.02967332 -0.0051483805 -0.050815683
-0.03651829 0.023091242 -0.030042963 -0.009006567 0.042568397 -0.026836012 0.019055305 0.044152252
0.06280653 0.017346108 0.05728299 0.02788671 0.034508273 -0.0018495824 -0.027823847 -0.024197504
-0.029777281 -0.018676195 0.020029072 0.042799216 0.04337837 0.0037684818 -0.041652527 0.04087662
-0.030910587 -0.039909154 0.008636431 0.01250069 0.04945638 -0.03060895 -0.035662845 -0.054035217
0.025191126 -0.05865568 0.042255137 0.026064774 -0.013628273 -0.03359008 0.0026218602 0.005600796
-0.013984119 0.008632853 0.008565531 0.022762261 -0.022297047 -0.03509248 0.040414423 0.05129613
0.02600321 -0.032287087 0.06279139 -0.01303644 0.037423506 0.04911025 -0.05733454 -0.060678374
-0.051869858 0.023218539 -0.030206345 -0.019011702 0.029291574 -0.017063199 -0.052900717 -0.034742184
-0.010753183 -0.031348858 -0.044556446 -0.03245332 -0.06613849 0.05400998 0.009153767 -0.071568064
-0.0063250093 -0.026268682 0.033713114 -0.018428698 -0.009338086 -0.055983786 0.013294058 0.039430004
-0.029670637 -0.012768934 0.033537883 -0.043301567 0.027199484 0.050769042 0.032383393 0.028789252
-0.029724173 0.05005019 0.00803352 -0.023812383 -0.07137382 -0.05202446 -0.026153062 0.05657808
0.014437713 -0.011488208 0.02242929 0.036291182 0.06390598 0.020359337 -0.013030432 -0.029961929
-0.029829346 -0.035195522 -0.042946097 -0.030178247 0.025527168 0.046606485 0.033819232 -0.044283453
-0.023404026 0.0443265 0.029793927 0.006573171 -0.049966212 0.0021329764 0.012811473 0.020594409
-0.06315277 -0.046887532 0.015689416 0.0072244112 0.044897173 -0.05249056 -0.029888805 0.049841106
-0.055734407 -0.034780942 0.0057295444 -0.03570987 0.012174443 -0.018681647 0.012230264 0.000746173
0.014603271 -0.023930479 0.008057549 -0.030362297 -0.01605762 0.04706136 -0.06812554 0.041337103
-0.00528271 -0.029443633 0.034050744 0.022829752 -0.02351535 0.008686683 -0.009114417 -0.041918375
-0.014733046 -0.04646958 0.0013832798 -0.035524867 -0.041123804 0.014725808 0.016828498 0.03345974
0.035667066 0.044831388 -0.047512446 0.0004281556 -0.0175922 0.048885677 0.054406878 0.020224905
0.014452739 0.060625263 0.058432024 0.035306353 -0.02827154 0.016494835 0.028381698 -0.031236032
0.03230297 -0.011360447 -0.03710262 -0.014407138 0.04776903 -0.040662874 -0.02046619 0.023092667
00000000: b3f6 a13c ce25 36bd 0411 49bd b4bd a13c
00000010: f3a8 1f3b ce66 183d 63ed f43c e8f7 073d
00000020: df4a 543b 0c14 603a a7d8 38bc 4b28 ba3b
00000030: 0a85 94bc 1e21 e83b 759f b4bc ca4b f6bc
00000040: 31ca f1bb 08a4 34bd 450f 4b3d cd75 1ebd
00000050: 54c4 0ebd 6659 2f3c 963a b13c 591d 7d3d
00000060: 8a63 2f3d 85b3 e53c e1b9 e33c 650c b03c
00000070: 9291 713c 35de a23c 9a67 1f3d aee5 963c
00000080: ec52 d03c 70b3 c13c f5fd 8b3c 2d18 f63c
00000090: cb8b 7bbd 2c5b babc 5ffe 1d3c c73f 9e3d
000000a0: acbf 10bd 79fb 83bd e9f0 4abd 4198 51bd
000000b0: 9031 ad3c 3740 8cbc 6d70 23bd 9f4d acbc
000000c0: 9c91 0e3d 6d10 b73b 2cba bc3c 58e1 7cbd
000000d0: 5356 28bd 8058 613d aa51 d9ba 7024 2bbd
000000e0: b33d 8b3c 8689 943c a51a 8abc e991 dabb
000000f0: 804b 223d 657d 4e3d aedd 32bc eabf db3b
00000100: e0f5 1a3d 3022 133c 2812 843c 79ff 583d
00000110: 7790 293b 7615 f33c bfb3 a8bb 1b24 50bd
00000120: 3494 15bd d829 bd3c a91c f6bc 4890 13bc
00000130: 335c 2e3d 32d7 dbbc df19 9c3c fed8 343d
00000140: b6a0 803d 6d19 8e3c 92a1 6a3d ab72 e43c
00000150: 8c58 0d3d b06d f2ba d6ee e3bc d839 c6bc
00000160: 7cef f3bc d2fe 98bc 0214 a43c 3b4e 2f3d
00000170: 85ad 313d a2f8 763b d79b 2abd 3e6e 273d
00000180: 3338 fdbc c877 23bd d17f 0d3c b2cf 4c3c
00000190: c692 4a3d 9fbf fabc 3413 12bd 0854 5dbd
000001a0: 9f5d ce3c f040 70bd b913 2d3d cb85 d53c
000001b0: 1f49 5fbc c095 09bd 84d3 2b3b e286 b73b
000001c0: a51d 65bc cf70 0d3c 7156 0c3c ec77 ba3c
000001d0: 4ca8 b6bc 22bd 0fbd 9889 253d e41b 523d
000001e0: af04 d53c 773f 04bd c698 803d cb96 55bc
000001f0: 6449 193d d427 493d 9fd7 6abd e389 78bd
00000200: 7d75 54bd ce34 be3c 4c73 f7bc 6ebe 9bbc
00000210: e2f4 ef3c 1fc8 8bbc 6cae 58bd d24d 0ebd
00000220: 1e2e 30bc a967 00bd d280 36bd c6ed 04bd
00000230: 9e73 87bd 9239 5d3d aef9 153c 4792 92bd
00000240: 0642 cfbb 6b31 d7bc c316 0a3d c8f7 96bc
00000250: c5fe 18bc 414f 65bd 52cf 593c 5b81 213d
00000260: d60f f3bc ca34 51bc 055f 093d fc5c 31bd
00000270: 74d1 de3c 33f3 4f3d 73a4 043d 70d7 eb3c
00000280: 1c80 f3bc 6e01 4d3d 069f 033c 3012 c3bc
00000290: 702c 92bd 9a17 55bd f23e d6bc 6bbe 673d
000002a0: 288c 6c3c 0939 3cbc a1bd b73c 10a6 143d
000002b0: 23e1 823d a0c8 a63c 987d 55bc b872 f5bc
000002c0: ac5c f4bc 2e29 10bd 3fe8 2fbd 5f38 f7bc
000002d0: 5a1e d13c 71e6 3e3d 0986 0a3d 9162 35bd
000002e0: cdb9 bfbc b48f 353d 6512 f43c c163 d73b
000002f0: 5fa9 4cbd 68c9 0b3b 36e7 513c 9bb5 a83c
00000300: 3d56 81bd 240d 40bd 1787 803c c1ba ec3b
00000310: 19e6 373d 5700 57bd 5ed9 f4bc 3026 4c3d
00000320: c349 64bd 7676 0ebd e7be bb3b 8344 12bd
00000330: 5177 473c 410a 99bc 7261 483c d39a 433a
00000340: 8f42 6f3c da09 c4bc cf03 043c 5aba f8bc
00000350: 458b 83bc 6ac3 403d 6785 8bbd 1851 293d
00000360: 951a adbb c633 f1bc cb78 0b3d 7605 bb3c
00000370: 43a3 c0bc 9752 0e3c a354 15bc 9ab2 2bbd
00000380: e062 71bc e356 3ebd 2b4f b53a 8682 11bd
00000390: 6f71 28bd 8444 713c ebdb 893c 150d 093d
000003a0: a117 123d 1ea1 373d 699c 42bd 127a e039
000003b0: 841d 90bc 593c 483d bfd9 5e3d b3ae a53c
000003c0: 2ecb 6c3c 3252 783d 6b56 6f3d 659d 103d
000003d0: b799 e7bc 2d20 873c bc80 e83c b5e2 ffbc
000003e0: 1e50 043d 2b21 3abc ebf8 17bd eb0b 6cbc
000003f0: 75a9 433d 1d8e 26bd b6a8 a7bc d52c bd3c

output_mlp.0.bias f4 [128]
-0.028412526 0.04084112 -0.027343981 -0.030585745 -0.026185855 0.036680378 -0.026667422 0.038282987
0.037627783 0.040367898 0.039061315 -0.028810913 -0.027357476 -0.029072408 0.037853215 -0.028437894
0.040428597 0.03548427 0.039279297 0.0411366 0.038101375 0.041666176 -0.030508347 0.04029809
0.037886452 -0.027602257 0.04147948 -0.028899532 0.039381925 0.03944932 0.036266666 -0.01903652
0.035193555 0.040148783 -0.030373655 -0.027674785 0.04071121 -0.027945649 0.039257996 -0.027990915
-0.026419768 0.01880586 -0.02858609 -0.029068964 0.04053301 0.01785462 -0.02783576 0.038817324
0.04112843 0.039351918 0.037793245 -0.026939582 -0.029201804 0.040859755 -0.027767893 0.03985983
-0.027804568 -0.027724538 -0.02637799 0.040337615 -0.030566392 -0.030488275 0.040559605 -0.028478218
0.037902165 0.038914137 -0.031535957 -0.027758531 -0.027909886 -0.03186623 0.037073284 0.04153448
0.041018892 0.035794333 -0.032453675 0.03904137 -0.027874358 0.039349023 0.027912155 -0.030740742
0.041647922 0.024385255 0.035281844 -0.029704984 -0.027347922 0.040325034 -0.031893365 -0.026564853
0.032621842 -0.026310213 -0.027568625 -0.029417807 0.03726181 0.04173852 -0.030422827 0.038217373
0.033553705 -0.02683503 -0.02815052 -0.02770945 0.041115217 0.040100213 -0.028215196 0.040162567
0.039926816 -0.028294407 -0.027128471 -0.02702602 0.04051482 -0.02641623 -0.027556274 -0.029027231
0.040917076 -0.02761941 -0.028531387 0.04047815 -0.02906777 0.041273814 0.041329335 -0.03010698
0.03956609 0.040933467 -0.02434162 0.038788848 -0.026922192 -0.027463803 0.03692786 -0.023489466
00000000: 63c1 e8bc 0549 273d 7c00 e0bc f58e fabc
00000010: b883 d6bc 2a3e 163d a375 dabc 9fce 1c3d
00000020: 971f 1a3d cf58 253d c2fe 1f3d dd04 ecbc
00000030: c91c e0bc 4229 eebc f90b 1b3d 96f6 e8bc
00000040: 7598 253d f457 113d 54e3 203d da7e 283d
00000050: 3010 1c3d 27aa 2a3d a4ec f9bc 9c0f 253d
00000060: d32e 1b3d 211e e2bc 63e6 293d b6be ecbc
00000070: f14e 213d 9c95 213d 5b8c 143d 7af2 9bbc
00000080: 1e27 103d 0d73 243d 2cd2 f8bc 3bb6 e2bc
00000090: ccc0 263d 46ee e4bc fecc 203d 344d e5bc
000000a0: 456e d8bc bf0e 9a3c 602d eabc 0922 eebc
000000b0: f105 263d da43 923c d207 e4bc eafe 1e3d
000000c0: 4976 283d 7a2f 213d 17cd 1a3d 66b0 dcbc
000000d0: 9f38 efbc 8f5c 273d 7e79 e3bc 1044 233d
000000e0: 68c6 e3bc 921e e3bc a816 d8bc 0e39 253d
000000f0: 5f66 fabc 8cc2 f9bc d421 263d 274b e9bc
00000100: 4d3f 1b3d 6e64 1f3d d92b 01bd dc65 e3bc
00000110: 46a3 e4bc 2a86 02bd 28da 173d 0f20 2a3d
00000120: 6d03 283d 149d 123d 25ee 04bd d8e9 1f3d
00000130: c458 e4bc 712c 213d 08a8 e43c 02d4 fbbc
00000140: 0397 2a3d 96c3 c73c b283 103d de57 f3bc
00000150: c008 e0bc dd2b 253d 9ea2 02bd 899e d9bc
00000160: 7b9e 053d 8488 d7bc 99d7 e1bc 9dfd f0bc
00000170: d79f 183d 03f6 2a3d 4b39 f9bc d289 1c3d
00000180: 9c6f 093d 23d5 dbbc eb9b e6bc eefe e2bc
00000190: 6e68 283d 1f40 243d 8e23 e7bc 8181 243d
000001a0: 4d8a 233d acc9 e7bc 873c debc ac65 ddbc
000001b0: def2 253d d966 d8bc b2bd e1bc 84ca edbc
000001c0: aa98 273d 1a42 e2bc a8ba e9bc 6bcc 253d
000001d0: 881f eebc bb0e 293d f348 293d eaa2 f6bc
000001e0: 0d10 223d daa9 273d 1468 c7bc 0ee1 1e3d
000001f0: ee8b dcbc c5fb e0bc ab41 173d fb6c c0bc

output_mlp.2.weight f4 [9, 128]
-0.035599157 0.0017658026 -0.026030233 -0.012830765 -0.023479639 0.035503626 -0.012360065 0.002187135
0.032052323 0.011801734 0.025252152 -0.03789596 -0.0017843476 -0.016313812 0.010506435 -0.012381595
-0.018587423 0.000659657 -0.00015839409 -0.018976437 0.037045702 -0.024106607 0.011892587 0.013710042
0.017790431 -0.0051885555 -0.01943075 -0.033625238 0.02461938 0.026555682 0.03671776 0.05497122
-0.040781 -0.004126145 -0.024208926 0.02463797 -0.005299215 0.022085315 0.026199918 0.01911855
-0.012869988 0.07079206 0.0002716928 -0.023468152 -0.036796894 0.0207618 -0.010577445 0.017012082
-0.00322276 0.01988601 0.02649823 -0.024917418 -0.03168841 -0.010771019 -0.014729183 -0.0030836212
0.0221379 -0.038554203 -0.010342316 0.0072826687 -0.021379849 -0.026798235 -0.0010426154 0.006965597
0.013323585 0.009004846 -0.046953477 0.0054037515 -0.0016993978 -0.021071622 0.035977073 -0.04182332
-0.004111952 0.034605317 -0.044251304 0.006897146 -0.0046225553 0.013395277 0.038257852 -0.025555108
-0.020692497 0.023841776 0.0039506066 -0.012648 -0.026540242 0.012883973 -0.054765865 0.027088067
0.00022893689 0.008589108 -0.025668865 -0.018609302 -0.011724579 -0.037842587 -0.05238384 0.013912365
0.012050605 -0.021800626 0.011588755 0.012306261 -0.0200793 -0.012122785 0.028203612 0.024880938
0.0003729522 -0.0013322902 -0.000922215 -0.022547856 0.017309578 -0.009875901 -0.0115027195 -0.011749306
0.0024523474 -0.007811889 -0.03403509 -0.0030843322 -0.020937558 -0.011793335 -0.015362915 -0.024925519
0.012494594 -0.013302319 0.015048826 -0.009747032 -0.006481292 0.006693104 0.037460178 0.018515298
-0.040558703 0.08826159 -0.053365607 -0.033430398 -0.055694733 0.04297738 -0.058364302 0.041768514
0.044669792 0.06896417 0.05134985 -0.030441865 -0.0597734 -0.034541346 0.029394865 -0.046522133
0.025567286 0.02089643 0.028105201 0.04436041 0.052137226 0.057574622 -0.012230643 0.060741466
0.056462303 -0.056170214 0.06676188 -0.045450553 0.053593785 0.06351695 0.045979038 -0.045035996
0.055196468 0.04557482 -0.0387562 -0.038025696 0.071797654 -0.049745694 0.0656465 -0.079553254
-0.08071898 0.039328992 -0.048209026 -0.045999233 0.016348569 0.008263819 -0.052993603 0.04510516
0.062474113 0.051670358 0.04302692 -0.07157281 -0.043188732 0.06231158 -0.06788753 0.03567242
-0.066469744 -0.05418531 -0.057616726 0.05938622 -0.028005604 -0.033170085 0.058200404 -0.04870115
0.03295843 0.038020276 -0.026018245 -0.054121394 -0.05220077 -0.020614032 0.04589281 0.05481189
0.060333394 0.04038741 -0.02529924 0.040422343 -0.049175065 0.043845665 0.028969144 -0.03135682
0.066042274 0.024119694 0.02380301 -0.025701849 -0.06612655 0.053241804 -0.039372075 -0.05040883
0.030216718 -0.075608805 -0.051386375 -0.04623359 0.026962927 0.06470659 -0.045338616 0.039496686
0.03334713 -0.06889441 -0.047897454 -0.038561903 0.04162439 0.049058996 -0.035486706 0.07061837
0.037386637 -0.048325524 -0.05554964 -0.06678359 0.08093109 -0.06496701 -0.06586908 -0.04970182
0.07192962 -0.07601686 -0.055301804 0.045223292 -0.038463954 0.062438395 0.08322389 -0.033155736
0.050427336 0.037497804 -0.052856445 0.023039123 -0.08007958 -0.056173455 0.050130136 -0.059397712
00000000: 6cd0 11bd 8172 e73a 5b3d d5bc 2138 52bc
00000010: 5f58 c0bc 406c 113d df81 4abc 0956 0f3b
00000020: 4c49 033d 0f5c 413c 9add ce3c cb38 1bbd
00000030: c5e0 e9ba 8ba4 85bc 2f23 2c3c 2cdc 4abc
00000040: a744 98bc d5ec 2c3a 9716 26b9 7974 9bbc
00000050: 3cbd 173d 387b c5bc 20d9 423c 16a0 603c
00000060: 3dbd 913c c204 aabb 3c2d 9fbc 9eba 09bd
00000070: 95ae c93c 4d8b d93c 5d65 163d 8129 613d
00000080: fa09 27bd 9d34 87bb cc51 c6bc 91d5 c93c
00000090: 0aa5 adbb 43ec b43c 36a1 d63c 819e 9c3c
000000a0: a4dc 52bc 6dfb 903d fe71 8e39 4840 c0bc
000000b0: 57b8 16bd a714 aa3c 054d 2dbc ec5c 8b3c
000000c0: f134 53bb fce7 a23c d112 d93c 9d1f ccbc
000000d0: b5cb 01bd ee78 30bc ac52 71bc 9416 4abb
000000e0: 8b5a b53c 03eb 1dbd d172 29bc 74a3 ee3b
000000f0: cb24 afbc f987 dbbc 5ea8 88ba aa3f e43b
00000100: 2a4b 5a3c 1089 133c 4a52 40bd f411 b13b
00000110: 54be deba 659e acbc b25c 133d ee4e 2bbd
00000120: 8ebd 86bb 4ebe 0d3d db40 35bd 7401 e23b
00000130: ce78 97bb dd77 5b3c 44b4 1c3d f258 d1bc
00000140: 5083 a9bc d44f c33c 1774 813b 8f39 4fbc
00000150: ec6a d9bc 4d17 533c 2c52 60bd cbe7 dd3c
00000160: c70e 7039 54b9 0c3c 8347 d2bc 8972 98bc
00000170: 7318 40bc d400 1bbd 7090 56bd b0f0 633c
00000180: e76f 453c 3a97 b2bc c3de 3d3c 33a0 493c
00000190: 587d a4bc a59e 46bc 430b e73c 1cd3 cb3c
000001a0: cc88 c339 3ea0 aeba cdc0 71ba 48b6 b8bc
000001b0: d1cc 8d3c 88ce 21bc e775 3cbc 2980 40bc
000001c0: 90b7 203b e0fa ffbb 6168 0bbd 8222 4abb
000001d0: 3e85 abbc d538 41bc bcb4 7bbc 9a30 ccbc
000001e0: 20b6 4c3c f8f1 59bc 5a8f 763c 04b2 1fbc
000001f0: 0561 d4bb d351 db3b d86f 193d 65ad 973c
00000200: e220 26bd 7ec2 b43d e595 5abd 50ee 08bd
00000210: 2920 64bd 0d09 303d 680f 6fbd 7615 2b3d
00000220: acf7 363d 163d 8d3d 3854 523d 3861 f9bc
00000230: f4d4 74bd 3a7b 0dbd 80cd f03c fe8d 3ebd
00000240: 7c72 d13c fd2e ab3c e13c e63c 43b3 353d
00000250: d88d 553d 5ed3 6b3d 0963 48bc 0bcc 783d
00000260: 0445 673d bd12 66bd 74ba 883d 5c2a 3abd
00000270: 2885 5b3d 2d15 823d 8454 3c3d aa77 38bd
00000280: b115 623d aaac 3a3d d2be 1ebd d5c0 1bbd
00000290: a60a 933d 24c2 4bbd ac71 863d d1ec a2bd
000002a0: fe4f a5bd 7017 213d d476 45bd b169 3cbd
000002b0: 6fed 853c f864 073c d20f 59bd 30c0 383d
000002c0: dbe4 7f3d 4ca4 533d ff3c 303d c494 92bd
000002d0: abe6 30bd 6d3a 7f3d 9e08 8bbd 3e1d 123d
000002e0: 4a21 88bd 6af1 5dbd 84ff 6bbd f73e 733d
000002f0: 026c e5bc 5bdd 07bd 8c63 6e3d db7a 47bd
00000300: 6bff 063d 26bb 1b3d 3724 d5bc 65ae 5dbd
00000310: 79d0 55bd c2de a8bc 19fa 3b3d 6f82 603d
00000320: 2620 773d 456d 253d 5a40 cfbc e691 253d
00000330: cb6b 49bd 8397 333d b350 ed3c 0270 00bd
00000340: 2c41 873d aa96 c53c 88fe c23c af8c d2bc
00000350: 5b6d 87bd 1414 5a3d 9d44 21bd 7d79 4ebd
00000360: 0d89 f73c cad8 9abd 857a 52bd 6f5f 3dbd
00000370: 5be1 dc3c e384 843d fcb4 39bd 47c7 213d
00000380: 0097 083d 8318 8dbd 1f30 44bd 16f3 1dbd
00000390: 567e 2a3d 16f2 483d 825a 11bd 5da0 903d
000003a0: bb22 193d fcf0 45bd 0588 63bd d6c5 88bd
000003b0: 33bf a53d 6c0d 85bd 5ee6 86bd 2394 4bbd
000003c0: d64f 933d baae 9bbd 2584 62bd 0f3c 393d
000003d0: 618c 1dbd 67bf 7f3d 4971 aa3d 4fce 07bd
000003e0: e58c 4e3d 4c97 193d 0080 58bd 8bbc bc3c
000003f0: c300 a4bd 2316 66bd 4255 4d3d 044b 73bd

output_mlp.2.bias f4 [9]
0.014350181 0.03908858 -0.03321457 -0.035424534 -0.034875643 -0.033588644 -0.0333059 -0.033899225
-0.009585347
00000000: 061d 6b3c 591b 203d 000c 08bd 5119 11bd
00000010: c3d9 0ebd 3f94 09bd c46b 08bd ead9 0abd
00000020: dc0b 1dbc
