log/segmentation/pn/bucket/weighted-1/pn_10.pth (torch, 337359 bytes, 8 tensors)

local_mlp.0.weight f4 [64, 3]
00000000: cc27 fc3e a7da 343d 9e6e 87be 9257 513e
00000010: f768 2f3d c0e9 243e 0e4b 813e c08d c53d
00000020: e6f1 2f3e f8a0 1dbe 7149 a23a d0b3 47be
00000030: be10 493e c538 29bc 430a 203e 9f80 203e
00000040: 5597 d7bc b521 333e 14b9 353d 2b95 d8bd
00000050: 248e 613e 1202 6a3e 6bcb 0b3d 6e41 1d3e
00000060: 69d2 df3e b060 ae3d 604c 793e 0c6d c63b
00000070: e31a 38bf 716e 87be b36d 783e 071f a9bd
00000080: 5760 0e3e 6d73 f43e c820 90bd 3e37 a7be
00000090: 64e6 3c3f 44c8 653e e2f1 9dbe cc5a d0bf
000000a0: c89e a93e d01d a13e b054 8ebe af0c 6e40
000000b0: 4779 8ebd 7092 f13e 56c3 6fbc 12c0 93be
000000c0: 047d c63d ab80 aabe 49a5 263e 2291 733e
000000d0: 703f 743d 1b02 273e 78a9 af3d b1b2 d2bf
000000e0: c720 8e3e d601 a13e 4eb6 22bd 1438 0c3e
000000f0: f57c c6be ad4d 59bf cac1 67bd d41c 0b3d
00000100: d003 41be 61a1 453e fa77 773d c7aa c2be
00000110: 8b9c 313e 70db 0a3e 3831 153e bb5b 3c3e
00000120: a4dc 293e fe84 a03c 98ea 2f3e eba3 303e
00000130: ae35 993d 8284 323e bf13 68bf 6369 2ebf
00000140: b60c 6c3e 0349 123e 21ed f23c 9df2 3a3e
00000150: 90af d33d dc88 c23d d532 3f3e dee3 043f
00000160: 192b 28bd 1359 94be 0a4e f03e 1e11 6e3d
00000170: 2c63 91be 2cf1 8e3e 6c64 fb3d 7580 303e
00000180: e800 ae3e 40db 43be dab3 a9be 7636 833d
00000190: 2330 e8be 2534 3d3e c649 3e3e a65c 3dbe
000001a0: c162 193e 1001 013f 23d7 153d c343 bbbe
000001b0: 8f67 a3bc accb 18be de81 6b3e a0ca 183f
000001c0: dd5d c73d b22f 82be a13a 153d bd2a 06bf
000001d0: 89e7 483e e2e7 e1be 8d77 8fbd 6080 74bd
000001e0: f977 743e 9522 3dbd 7ef2 1e3e b926 d03e
000001f0: 3c2a 48bd 407e a0be e18c ff3e eeb3 513c
00000200: 5532 9fbe d7d1 d83e 6511 073d 60a6 87be
00000210: 34fe 053e ffea 8b3d 6fe7 383e 222d 563e
00000220: 20af 88be 0dee 0b3e 716e 76bf d229 b7bf
00000230: 006d 523e dc03 03bf c932 a3bf e9e4 5c3d
00000240: 84d8 9d3e c3d0 0bbd d66f 153e 0aa4 13bf
00000250: 4157 5f3e cca7 b13c 791a 573e 8994 67bb
00000260: 2c01 1f3e a6aa e33e b3cc a2bd d90f acbe
00000270: 2d1c 0c3e f7b8 41bf 106a 673e 10a6 033f
00000280: 6520 4d3d 5770 99be ca17 0b3f 4b88 643d
00000290: 06f1 99be 9759 6d3e 7485 fc3d 19fa 2c3e
000002a0: 4c3b 8e3e 945c babd f1a9 183e cbe3 933d
000002b0: dbe6 1d3c 0e48 483e 2950 203f 2c7f eb3d
000002c0: 8d04 99be 0865 84be 3adb b93e 7763 07be
000002d0: defc c33d ef13 d3bf e1ca 57be afe5 133e
000002e0: d6f9 5fbd b5cb 383e 9ef8 1b3f c47e c6bd
000002f0: 7232 8abe 7638 533e c7e7 003e a78e 363e
0.49249113 0.044153836 -0.26451582 0.20443562 0.04282471 0.16104794 0.25252575 0.09646177
0.1718212 -0.15393436 0.0012381506 -0.19502187 0.19635293 -0.010328476 0.15628915 0.15674065
-0.026317278 0.17493327 0.044365957 -0.105753265 0.22026879 0.22852352 0.03412954 0.1535699
0.43715218 0.085145354 0.24345541 0.00605548 -0.71916026 -0.26451448 0.24260597 -0.08257871
0.13903938 0.47744313 -0.070375025 -0.32659334 0.7378905 0.22439677 -0.30848604 -1.6277709
0.33128953 0.31468058 -0.27798986 3.7195241 -0.069567256 0.47182035 -0.014633974 -0.28857476
0.096918136 -0.3330129 0.16273989 0.23785833 0.05963081 0.16309397 0.085772455 -1.6460782
0.27759382 0.31446713 -0.03972464 0.13693267 -0.3876721 -0.8488415 -0.056581296 0.03396304
-0.1884911 0.19299842 0.060417153 -0.38020918 0.17344873 0.13560271 0.14569557 0.18394367
0.16588074 0.019594666 0.17179334 0.1725003 0.07480942 0.1743336 -0.9065513 -0.6812956
0.23051724 0.14285664 0.029654087 0.18256612 0.1033622 0.0949876 0.18671735 0.519102
-0.041056726 -0.28974208 0.4693454 0.058121793 -0.28395975 0.27918375 0.12275013 0.17236502
0.33985066 -0.19126606 -0.33145028 0.06406872 -0.45349225 0.18476923 0.1858283 -0.18492374
0.14979078 0.50392246 0.036582123 -0.36575136 -0.019946842 -0.14921445 0.22998759 0.5968418
0.097347 -0.25427014 0.036432866 -0.52408963 0.19619574 -0.44122225 -0.070052244 -0.05969274
0.23873891 -0.046175558 0.15522191 0.40654543 -0.048868403 -0.3134632 0.4991217 0.012799246
-0.31093088 0.42347595 0.032975573 -0.26494122 0.13085252 0.06831931 0.18057035 0.20915654
-0.2669611 0.13665028 -0.9626227 -1.4309638 0.20549393 -0.51177764 -1.2749873 0.053929243
0.3082925 -0.034134638 0.14593443 -0.5767218 0.21810628 0.021686457 0.21006192 -0.0035336337
0.15527791 0.44466132 -0.079491995 -0.3360584 0.13682623 -0.7567286 0.22599053 0.51425266
0.050079722 -0.2996852 0.54333174 0.05579404 -0.300667 0.23178707 0.12330142 0.1689228
0.27779615 -0.09099689 0.14908578 0.072211824 0.00963756 0.19558737 0.62622315 0.114988655
-0.29886284 -0.2585833 0.3630007 -0.13221537 0.09569715 -1.6490458 -0.21073486 0.14443086
-0.05468162 0.18046458 0.60926235 -0.096921474 -0.26991612 0.20627007 0.12588416 0.17827855

local_mlp.0.bias f4 [64]
00000000: cf5e ad3d 8945 d2be c41e e2be 6db6 ed3e
00000010: 1b1b cfbe d42f cfbe eea2 cbbe 61d5 d5be
00000020: 7c20 0abf c1bb ee3e 981e d1be d6d8 193e
00000030: 6378 ba3c 1c71 ca3e 445e b03e e1c1 d13d
00000040: 92eb a4be 5424 dabe 1e32 53be 2e0f e5be
00000050: c127 ed3e 672a b0be 3a8e 9cbe 98b1 c0be
00000060: 10ac cebe 75ec cebe 88c5 d63e cf56 cebe
00000070: c12b bebe ccc1 943d 2e47 e83d 5983 e5be
00000080: 1643 833e 9b85 9abe 3642 c6be c597 443e
00000090: 5e33 b8be 5e41 713d 86f2 98be 302e fd3e
000000a0: 0e93 dbbe 8eb7 2e3e d7d0 e53d 63af e83d
000000b0: c4c3 c5be 846e bebe b446 d63e c548 ff3e
000000c0: d0bc e7be dd00 0c3f c94d d1be 82da 3d3e
000000d0: 4e2b 8bbe 7345 c13d 8d08 ab3d bb21 d9be
000000e0: 7cd1 e1be e5cc c0be ae6b 813d d042 fc3e
000000f0: 1add bc3e 3448 d0be 3986 713c 959f d5be
0.08465349 -0.41068676 -0.44164097 0.46428242 -0.40450367 -0.40466177 -0.39772743 -0.41764358
-0.5395582 0.4662762 -0.40843654 0.15024123 0.022762483 0.3953942 0.3444692 0.102420576
-0.32210976 -0.4260584 -0.20624587 -0.44738144 0.46319392 -0.3440735 -0.3057726 -0.37635493
-0.40365648 -0.40414777 0.4194758 -0.40300605 -0.37142757 0.07263526 0.113417014 -0.44826773
0.2563712 -0.30180058 -0.3872239 0.1919852 -0.3597669 0.05890023 -0.2987253 0.494493
-0.4288563 0.17062208 0.11221474 0.11361577 -0.3862592 -0.37193692 0.41850817 0.49860206
-0.4526124 0.5468882 -0.40879658 0.18540385 -0.27181476 0.094370745 0.0835124 -0.42408547
-0.44105136 -0.37656322 0.063193664 0.49269724 0.36887437 -0.40680087 0.014741474 -0.41723314

local_mlp.2.weight f4 [256, 64]
00000000: 2959 853e 3344 28be 33c7 2abe d56a 093e
00000010: 6705 35be db6b 4dbe 32d3 eebe 46e4 07be
00000020: 887c 2fbe c6b0 1d3e f700 4ebe 2ec8 083e
00000030: 845a 133d a193 98be d3e0 8c3d 1d3a 223e
00000040: 7342 83be a837 20be e110 fdbd 9ca4 56be
00000050: 636c 573e f886 c9be 6100 7abe a69a 65be
00000060: 4a31 55be 0289 45be da74 1d3e b53d 1cbe
00000070: 6f70 43be 288a aa3d 23ef 9a3e a7c7 07be
00000080: b71f 973e d964 51be 2f69 b7be 5cc8 003e
00000090: 8a18 01bf f5dd 5d3e 959a 2cbe 2ceb f93d
000000a0: 623c 1dbe 82fc 583e ed12 0a3e 90f3 a13e
000000b0: a291 56be 4d7b a5be a0b0 423e 717e 433e
000000c0: 4a65 4ebe edc5 363c 11de 0dbe e3c2 173e
000000d0: d628 2dbe b5d9 473e db26 213e a304 f2bd
000000e0: a42e 65be 1738 8abe b109 4a3e c7e6 77bd
000000f0: 8f95 873e 6ed7 63be 65a3 03be 31b1 36be
00000100: 39e7 e1be 0da8 253e d5c2 e13d 3e8c 40be
00000110: fb80 1e3e 8331 203e 39b6 433e 379b 0e3e
00000120: 3502 463d 4922 a9be d84a 373e 5303 babe
00000130: ff92 01bf df65 85bf f34b 99bf 23bf bdbe
00000140: 9b61 0b3e 1bd0 173e 031b 97bd 6c2e 123e
00000150: 711c f5bd e3f4 1b3e 0ad0 e13d 454c bc3d
00000160: 565e 0b3e 8504 173e 13a7 eabe e110 253e
00000170: 0acd 023e 47a4 c2be 7958 e9be b85f d63d
00000180: d6ba aabe 13c6 ff3d 8379 233e 1cdb b9be
00000190: 44ce f33d 2242 d1be 6e7b c93d 3e6b 4ebd
000001a0: 7881 343e 8d97 b8be 35b5 c6be 724a dbbe
000001b0: 31a1 193e 69a4 e73d 112e 3fbf 41e1 52be
000001c0: 54e7 d83d c0af 2cbe 205b 353e 55e9 babe
000001d0: bf01 143d dff1 d3be 713b e3be 4d27 923d
000001e0: e83f 223e 0aa6 323e e274 02bf 15cc 5abe
000001f0: 4cb6 f1be 889e 323e 7b13 afbe 11d5 c43d
00000200: bef8 89be 8269 ba3e d023 943e bab8 e0be
00000210: 8ae4 ca3e 1cf1 d43e 2748 da3e fe0f c33e
00000220: 6d9f a23e c35a 37bf 9a02 c93e f111 c3be
00000230: 1654 6cbe 4148 6cbf 9fde 47be 48f9 d7be
00000240: 4fc6 a93e 637e a83e 9475 b33e 5ec5 b03e
00000250: 0059 57be c749 9c3e 365b 9f3e f390 833e
00000260: 961e c23e bea0 ba3e dda8 07bf 5678 c93e
00000270: 415e 963e ecfc a5be 4a98 bbbe 1eb6 873e
00000280: bd14 24bf 39d9 933e 0120 b33e ef08 bebe
00000290: 3e01 ad3e f20e 58be f616 8a3e 6937 0bbe
000002a0: 3761 c63e af17 02bf c0e6 c5be 85c0 9dbe
000002b0: 2b42 a83e 15f4 c13e baf3 39bf 1205 71be
000002c0: b405 ab3e 6b14 72be a030 ba3e d5b0 ddbe
000002d0: 73e6 9b3e dfbf d9be c7d3 bebe e99e 783e
000002e0: 9217 ba3e 2e8a d53e f5f8 8cbe 4788 70be
000002f0: 005e cfbe ab4b ea3e 5f30 62be a92f 783e
00000300: 0226 833e b75a a0bd 5711 cdbd f6f6 d53c
00000310: 0863 90bd ee06 07bd f62d 613c 9c75 aebd
00000320: d689 a1bd 07eb f43d 8673 68bd 9909 f73d
00000330: 97e2 6b3d a543 96bd e584 16be 9cb5 343e
00000340: 8e37 0a3d 293a aebd cdad 523c 584c 36bd
00000350: fcd9 a63d 58dd b7bc e855 8a3c 25ae 05be
00000360: 56c5 aabd bc64 b8bd e022 203c 5034 75bd
00000370: 8b15 a6bd 2d8d 113e 734d 7b3e 698c e0bd
00000380: 0ce1 433e ef2c 6a3c 185e 1b3d bae9 1f3e
00000390: bbb8 c33b 830a 473e 1b67 503d 410c 4e3c
000003a0: 0832 8bbd f808 403e c566 123e 72bf 893e
000003b0: 1d93 abbd 1597 6c3d 110a 28be 8ed3 453d
000003c0: 91fa f1bc fafe 0e39 644a 4cbd bbc6 233e
000003d0: 7b0a 3c3d 5a75 353e 910b 253e 9764 ddbd
000003e0: 993a 293c 52ec 42bd fbdb 3c3e dacb c5bd
000003f0: 1e60 373e ffc0 1cbd 1a4b c23d e29e 03be
0.26044586 -0.16432266 -0.16677551 0.1341966 -0.17677842 -0.20060675 -0.46645504 -0.13270673
-0.17137349 0.15399465 -0.20117556 0.13357612 0.035974994 -0.29800132 0.06878819 0.15842481
-0.25636634 -0.15646231 -0.12356735 -0.20961231 0.2103744 -0.39360785 -0.24414207 -0.22422275
-0.20819584 -0.19290546 0.15376607 -0.15257914 -0.19085859 0.083271325 0.30260572 -0.13259755
0.29516384 -0.20448627 -0.35822436 0.12576431 -0.5042807 0.21666701 -0.16855843 0.122030586
-0.15355065 0.21190074 0.13483782 0.31631136 -0.20953992 -0.32320634 0.1901269 0.19091202
-0.20155826 0.011155588 -0.13854243 0.14820437 -0.16910109 0.19516642 0.15737478 -0.11817291
-0.22381073 -0.26995918 0.1973026 -0.06052282 0.26481292 -0.22250149 -0.12855299 -0.1784103
-0.4412172 0.16177388 0.110234894 -0.18803498 0.1547889 0.15643887 0.19112481 0.13926397
0.04834195 -0.3303397 0.17899644 -0.3633066 -0.50614923 -1.0421714 -1.1976303 -0.37059888
0.13611452 0.1482548 -0.07378199 0.14275521 -0.119683154 0.15230136 0.110260084 0.09194235
0.13610205 0.14747818 -0.45830593 0.1611972 0.12773529 -0.3801596 -0.45575312 0.10467476
-0.3334567 0.124889515 0.15964322 -0.3629998 0.119045764 -0.40870768 0.098379955 -0.050395243
0.17627513 -0.36053124 -0.38810125 -0.42830235 0.15002896 0.113106556 -0.74679667 -0.2059374
0.10590997 -0.16863918 0.17710543 -0.36506143 0.036134478 -0.4139547 -0.44381288 0.07136402
0.15844691 0.17446151 -0.509596 -0.21366914 -0.47209394 0.17443287 -0.3419455 0.09610952
-0.26947588 0.3640862 0.28933573 -0.43890935 0.39627486 0.41590202 0.42633173 0.3809814
0.31762257 -0.71622866 0.39259797 -0.38099626 -0.23078951 -0.9229775 -0.19518517 -0.42182374
0.3315911 0.32908925 0.35050642 0.3452558 -0.21030045 0.30525038 0.31124276 0.25696525
0.3791396 0.36450762 -0.5299204 0.39349622 0.29368785 -0.32419527 -0.36639625 0.26506132
-0.64094144 0.28876665 0.34985355 -0.3711619 0.3379001 -0.21099451 0.26970643 -0.13595356
0.38746044 -0.5081739 -0.3865261 -0.30810943 0.32862982 0.37881532 -0.7263752 -0.2353709
0.3340279 -0.23640601 0.36365223 -0.43298975 0.30449256 -0.425292 -0.37270948 0.2427937
0.36346108 0.41706985 -0.2753369 -0.23489486 -0.40501404 0.45760855 -0.22088765 0.24236931
0.25614935 -0.078298025 -0.10013073 0.026118737 -0.07050139 -0.032965593 0.013743868 -0.08518526
-0.07887618 0.119588904 -0.056750797 0.120623775 0.05758914 -0.07337121 -0.14699133 0.17647403
0.033744387 -0.08507187 0.01285882 -0.0445064 0.08147046 -0.022444412 0.016886666 -0.13054712
-0.0833842 -0.090035886 0.00977394 -0.059864342 -0.08109578 0.1421401 0.24541263 -0.10964281
0.19128817 0.01429294 0.03793153 0.15616503 0.0059729493 0.19437604 0.05087958 0.012576164
-0.06796652 0.18753421 0.14297016 0.26903874 -0.08377669 0.05776127 -0.1641009 0.048297457
-0.029538425 0.00013637161 -0.049875632 0.15993778 0.045908432 0.17720547 0.16117693 -0.108102016
0.010328912 -0.047588654 0.18443291 -0.09658022 0.1790776 -0.038269993 0.09486981 -0.12853578

local_mlp.2.bias f4 [256]
00000000: b40c 9dbc c94f 74be 414e 19be 1ebc 663c
00000010: 4394 48be e9e6 20bc 4ec4 87bd 8e60 d53d
00000020: c22b ab3c 5f35 c9be d4f9 633b bdff c33d
00000030: 5336 aabc f0e7 ed3b 98b9 1bbe d4b7 b63d
00000040: 089c 6ebd c2e1 e6bd 691f 293e c83c 91bd
00000050: 7407 18be 86d4 14be 8e79 563e 0122 63bc
00000060: 4b36 343d 3b69 fe3c 013e 3a3e e4db a5bb
00000070: 3eff bdbd 4d78 c53d b6f1 013e 50f2 26be
00000080: ed73 233e ad0e 73bd e635 0f3e fecc 043e
00000090: 0717 b2bd a456 54be a466 ff3d fe11 03bd
000000a0: 2a9f e6bd 7cc9 eabd 3cf7 53be e407 d2bd
000000b0: a7bc c83c c312 7cbd 178c 713d 39f3 fc3c
000000c0: 8475 a9bc 9153 b43d f847 d1bb 8356 a7bd
000000d0: 0677 b23c 86ec e93b f9ca 44bd 6201 f8bd
000000e0: 318d f9bd 7868 72bb 042f b9bb 4765 ebbd
000000f0: b1ae c63d 755f 483e 0c5a b9bd 5e53 0c3e
00000100: a18c a9bd b06c 833d 98d6 253e 45d3 8a3d
00000110: a3c6 903d 3447 e73d 3cd2 31be b6f6 bcbd
00000120: ae7e d7be ceab 103d 8c0a 35be 8298 19bc
00000130: 8e97 5ebb 0a51 f5bd 02d9 193e fb84 e73c
00000140: 0056 2dbd 3fd1 a23d be53 863d a8d1 53be
00000150: 27c9 b93d f532 943c 6c15 70be 7e2e 80bd
00000160: f375 12be 4fda 71be 2a6e 133d 8090 433e
00000170: 14db 203b d75a 20be dd04 b13c 8d8f a93d
00000180: 1fce 3abd 9e32 28be 1e66 d2bb b812 eebd
00000190: 71a0 c33d d5b2 aebd 7d62 8abd 9071 bbbc
000001a0: 6dae 973d f547 33be 1b38 003e e61e 0d3e
000001b0: e1b2 02be a613 01be 2d47 e03d a9d4 e23c
000001c0: 18d0 9c3d f10d e53c 7787 8f3d a1a0 653e
000001d0: 92e9 c4bd 5462 2fbe d4d4 533e 257c b6bc
000001e0: aa23 3b3a e67e 92bc 0fa2 32bd 2857 1dbd
000001f0: 27c0 813d 9eeb 603c 20f3 94bd d759 e53b
00000200: 20b8 6bbc e131 db3d a227 d0bd ef20 403d
00000210: e5c5 10bd 9cdb 21bd f702 1a3d 9b00 8bbd
00000220: 543b f8bc c16c 9c3c a5e0 2cbe c222 81bd
00000230: f3c1 93bd 2f0d f23d 9b90 eebd 1b18 8ebd
00000240: fac4 a2be b4f8 89bc 82a2 0d3e 1a84 1ebd
00000250: 8b5a 513e 6df3 54bc c52b 98bd b5af bb3c
00000260: 288f d3bd 1fee d5bd f70d 0a3e 556f 0cbd
00000270: d637 0e3e 5671 da3d 5af3 e0bd c241 173e
00000280: ad14 15be 6403 323e f72d 93be 92a2 38bd
00000290: 5862 68be 9f73 5fbe 83ba 90bd fdcf 86bc
000002a0: 0efc 34bc 420e 95be 0db3 f73d 1563 22be
000002b0: 1678 49bd fc99 ea3c 00b9 dbbc 346e 9abe
000002c0: f1c2 f1bd 2e8a 9cbe 07e1 aebc 70fd 9fbe
000002d0: 4caa 063e 0979 233e fa62 0ebd c879 45be
000002e0: 2c09 8ebe bafe 0c3e 9943 a1bd 7efd 48bd
000002f0: 71a3 b1bd 092b 783d c3f5 8bbd fa78 c03c
00000300: a176 8fbd c7d5 b5bd 70bb 403d d5aa c4bc
00000310: 5d48 033c c4c1 b33d 0de6 69bd 4c78 0b3e
00000320: f29b 4fbd 2af0 d33d 5bfd fe3d dcc6 bc3d
00000330: a39b a5bd dec3 8c3c 0688 ecbd 3b33 90be
00000340: eefd ad3d d439 9fbd 822c b23d 3e42 5bbb
00000350: 1927 e73a ab2e 473d 92f2 8ebd df28 7c3c
00000360: 1331 cc3d b9d3 18be ba9f 0a3e 6cb1 b93d
00000370: 2a53 ecbc 7cfa f03c 6794 9e3d 4274 adbd
00000380: 265f 6ebe b46d 3abe 4b14 b9be ea41 2bbd
00000390: 6f92 b1bd 40c3 1a3e ca6d 033d 1213 923e
000003a0: 72b0 d1bd 24e4 ff3d 8f08 d13d 07b2 b73c
000003b0: 8306 0bbe 2405 193e ba27 db3d bbb5 0b3d
000003c0: c0a4 84bc 6d26 f23d 3238 f3bd f403 f93d
000003d0: 6e47 c3bd 97d2 c63d 35cf ca3d 9b48 4fbc
000003e0: a294 4a3e b61c 74bd a7df c1bd d6af 7dbe
000003f0: 31e2 f2bc 6f8f 09bd 2d5d 4a3c 237e 403d
-0.019171096 -0.2385856 -0.14971258 0.014082937 -0.19587807 -0.009820678 -0.06629239 0.10418807
0.020894889 -0.3929853 0.003478636 0.095702626 -0.020777857 0.007260315 -0.15207517 0.08921781
-0.05825427 -0.11273529 0.16515888 -0.07091671 -0.14846593 -0.14534196 0.20944807 -0.013863088
0.04399709 0.031056037 0.18187715 -0.0050616134 -0.09277199 0.09642086 0.12689862 -0.16303372
0.15962191 -0.059340168 0.13985404 0.12968823 -0.08695798 -0.20736176 0.12470749 -0.03199958
-0.11260827 -0.11464211 -0.20699781 -0.10255411 0.024504019 -0.06154133 0.05897149 0.030877696
-0.020685919 0.088050015 -0.006386753 -0.08170798 0.02178527 0.0071387915 -0.048045132 -0.12109639
-0.12185133 -0.0036988538 -0.0056513567 -0.114939265 0.097012885 0.19567664 -0.09050378 0.13703677
-0.08278776 0.06417215 0.16195142 0.06778578 0.07069137 0.11292878 -0.17365354 -0.09226744
-0.42088836 0.035320096 -0.17679805 -0.00937474 -0.0033964845 -0.119783476 0.15024188 0.028261652
-0.042318344 0.07950067 0.06558941 -0.20685446 0.0907157 0.018090704 -0.23445672 -0.06258868
-0.14302807 -0.23618434 0.035993733 0.19098091 0.0024544643 -0.15659653 0.021608764 0.08279333
-0.04560673 -0.16425559 -0.0064208647 -0.11624664 0.09552086 -0.08530203 -0.067570664 -0.0228813
0.07406316 -0.17507918 0.12521403 0.13781318 -0.1276355 -0.12605152 0.10951076 0.027689295
0.07656878 0.02796075 0.0700826 0.22424556 -0.096148625 -0.17127353 0.20686656 -0.022275994
0.0007138798 -0.017882776 -0.043611582 -0.038413197 0.06335478 0.0137280505 -0.07272935 0.006999235
-0.014387161 0.10702873 -0.10163809 0.046906408 -0.035344977 -0.039516076 0.037600484 -0.06787225
-0.030301727 0.019094827 -0.1688257 -0.06305458 -0.07214727 0.11818921 -0.11648675 -0.069381915
-0.31790906 -0.016842224 0.13831523 -0.0387002 0.20444696 -0.01299749 -0.074302234 0.022910932
-0.10330039 -0.104458086 0.1348189 -0.034285862 0.13888487 0.10666148 -0.109839156 0.14771178
-0.14558668 0.17384106 -0.28746006 -0.045076914 -0.22693765 -0.2182145 -0.07066824 -0.016456598
-0.011046423 -0.2911244 0.12094698 -0.1585811 -0.04918679 0.028637879 -0.026821613 -0.30162203
-0.1180476 -0.30574173 -0.021347536 -0.31248045 0.131509 0.1596414 -0.03476236 -0.19284737
-0.27741373 0.13769045 -0.07874221 -0.049069874 -0.08673752 0.060587917 -0.06833985 0.023495186
-0.070050485 -0.088786654 0.047053754 -0.02400724 0.008012858 0.08777192 -0.05710416 0.13620108
-0.05068583 0.10348542 0.124506675 0.09217617 -0.08086326 0.01718324 -0.11549382 -0.28164086
0.08495699 -0.07774702 0.086998954 -0.0033456231 0.0017635553 0.04862849 -0.0697986 0.015390604
0.09970298 -0.14924516 0.13537493 0.09067044 -0.02884825 0.029416315 0.07743149 -0.0846944
-0.23278484 -0.18205911 -0.36148295 -0.041810907 -0.08670508 0.15113544 0.032087125 0.28530174
-0.102387324 0.12494686 0.102067105 0.022423757 -0.13576703 0.14943367 0.107009366 0.03410886
-0.01619184 0.118237354 -0.11875953 0.12158957 -0.095351085 0.097081356 0.09902803 -0.012651588
0.19783261 -0.059597693 -0.094664864 -0.24774107 -0.029648872 -0.033584055 0.012351316 0.046995293

output_mlp.0.weight f4 [128, 512]
00000000: 489e 16bc 1c8a a2bc a69d dbbe 44e4 6dbe
00000010: 6ddf 113d 54bc d7bd 90d2 26bc 5570 cb3e
00000020: fed1 2b3e 2148 5bbe 11bf 81be 9e46 dfbe
00000030: f633 45bc 0bc1 06be c7bc 843c 2d42 903e
00000040: 1a1b 023e fffc 44be 3954 6f3e 511a 4fbe
00000050: bc6e ddbe 4140 9ebd c06c d7bd ba62 f6bc
00000060: 9d72 cc3d 37fc 1dbe f6d0 f2bc fd29 7cbe
00000070: 27e4 95be 2962 7d3d b834 553e 8ec1 b0bd
00000080: 03d4 86be 5cd1 1aba fc78 213e 8124 f0bd
00000090: 9b8f 953d 25fc f0be 18c6 413d f8ef 6ebd
000000a0: 7870 22be a7c8 2abe 5a2b 05bf e964 4bbe
000000b0: db3b 3dbe fdba 613d 7db7 89be 9391 3c3c
000000c0: 2604 d4bd 3d9d e5bd 9ef3 e5bd c4f7 d3bb
000000d0: 4621 b93d 9478 26be 9456 92be cc59 53be
000000e0: 08ea 93bd 0836 533c ad22 11bc 9b14 3c3d
000000f0: 78bc d8be 3546 833d 2405 d1be f076 7e3e
00000100: dd23 94be 0deb cfbd 20fd 3f3d ebce 463e
00000110: d4ac 12be a540 c83e 7898 e6be 38b8 883c
00000120: 8a34 40be 5e75 b6be 5b37 00be e4d7 0ebf
00000130: 4963 adbe e52f 7ebd 63ff fd3d 0407 a63d
00000140: 952c fbbd a687 343e 73f4 bb3e e621 d6be
00000150: 28fc b43e b84f f03c f53e f9be e533 e6bd
00000160: 0214 95bd b4fb 2f3c d12a 13bc 14df cf3c
00000170: c814 853d 7ebb a93d 6e80 75be 28f0 7a3e
00000180: fd2e ac3d e87c fdbe 4c4f 7c3d c412 34be
00000190: 3d76 a53e ccdc 4ebe 8a90 e73c 52ca b1be
000001a0: 6543 7a3e 922b 88be 110d 65be 8b2a 2b3e
000001b0: aec8 2cbc 5556 c3be 6ba0 9d3e 3f70 74bd
000001c0: 4aea f33d a95f 7bbe f09a 2c3d efed 28be
000001d0: 02a6 7fbe 92a9 36be 37a1 27be e7e4 d2bd
000001e0: fca1 64be e058 e13c 94a5 a13d f756 bd3d
000001f0: 5d71 bd3e 704e 563d e2b3 2abe 6ae8 143e
00000200: c6b2 043e 6e44 e7be 894d 15be e5fb 873e
00000210: a749 433d 07e8 96be 65f9 84bc d45b 97bd
00000220: df40 c73d 9ea9 253e 0cf8 0abf a809 033d
00000230: 5698 e6be f096 dd3d 19e5 c83d d04c 043b
00000240: 1708 0c3e 85d7 4abe e362 443e 39eb 23bf
00000250: bf7e a0bd a738 1bbf 93ad b1be 9d07 17bd
00000260: 8368 f0be a1f8 cbbd 248e e5be 9600 e73d
00000270: 6e88 743e 61fd aebc 6ef7 023e 1f58 64be
00000280: e5b7 26bf e849 453c b792 bdbe d521 0a3e
00000290: 88cd 7dbe 34bf e9be cc6a aabe 9dd8 83bd
000002a0: 5242 54be 7792 f4bb c3d5 c73e b4eb eebd
000002b0: a647 b93b f206 683d 4725 933d 53f6 00be
000002c0: b8fa 83be 38c2 53bc 3d2e 203d 824d d2be
000002d0: de17 6f3e cfa1 debc 0954 9ebd 46c6 5dbe
000002e0: ce26 f8be b7c6 a2be 4826 8cbe 40ad e23d
000002f0: fbda c6be e86b c1be 890c 9dbe 4e0b 41be
00000300: 84d9 503b 4144 95be eb6f 5c3d 726c 2f3e
00000310: 4abc 19be 993a bc3d d473 eebd 07cf a73d
00000320: 6f31 f1bd 0c59 533e 3a05 943e 2997 373d
00000330: 2b0e a9be 8b2a 683e f6cf 6bbe 141d 883d
00000340: 0fd9 c0be 55ea 463d d166 53be bee4 e63d
00000350: cec3 513e 1b5f a33e 1fbe 753b 28e6 b13d
00000360: 50be a23e 4ea6 7abd c6f3 903d 4eb3 15be
00000370: 5c9b ea3d 1296 e9be f77a af3d c991 4fbe
00000380: 2925 093c 5cf6 1bbe 01be c3be ac95 46be
00000390: cace 2dbe 57ea 923e 0824 063e ddf3 1bbe
000003a0: 2c95 3abe 2379 a43e 8f78 883e 5453 53be
000003b0: fed5 72be 2de5 66be 7109 8a3e 034c b83e
000003c0: 6276 e3bc f9fe 83be e6d4 9cbe 7fd6 863e
000003d0: 3d86 9bbc d0ee 273e 09f0 8abe 1e20 eabd
000003e0: 9071 50be c672 80bd a0f2 79be 719a c6be
000003f0: 35ad 40be efab 2e3e 00c9 863e 577c d3be
-0.009193011 -0.019841246 -0.42893714 -0.23231608 0.035613466 -0.105339676 -0.010182038 0.3973414
0.16779324 -0.21414234 -0.25341085 -0.43608564 -0.012036314 -0.13159578 0.016203297 0.28175488
0.12705651 -0.19237135 0.23371972 -0.20224883 -0.43248546 -0.07727099 -0.10518789 -0.030076373
0.09982798 -0.15428244 -0.029640656 -0.24625392 -0.2927563 0.06186119 0.20820892 -0.086306676
-0.26333627 -0.0005905831 0.15768808 -0.117257126 0.07302781 -0.4706737 0.047308058 -0.05833432
-0.15863216 -0.16678105 -0.52019274 -0.19862713 -0.18479864 0.055109967 -0.26897803 0.011509317
-0.10352354 -0.112116314 -0.11228107 -0.006468745 0.090395495 -0.16256934 -0.2858168 -0.20639724
-0.07222372 0.0128913 -0.008858365 0.04591809 -0.4233129 0.06409875 -0.40824234 0.24850059
-0.28933612 -0.10152254 0.04687226 0.1941487 -0.14323741 0.3911182 -0.450382 0.016689405
-0.18770042 -0.3563642 -0.12521116 -0.5579817 -0.3386481 -0.062057395 0.12402227 0.08106807
-0.12264363 0.17629871 0.36709937 -0.41822737 0.3534863 0.029334888 -0.48680845 -0.11240367
-0.07279207 0.010741163 -0.008982376 0.025374927 0.06498104 0.082877144 -0.23974773 0.24505675
0.084074 -0.49509358 0.06159906 -0.17585284 0.3231677 -0.20201415 0.028267164 -0.3472467
0.24439771 -0.26595742 -0.22368266 0.16715448 -0.010545893 -0.38151804 0.30786452 -0.05967736
0.119099215 -0.2454821 0.042139947 -0.16497014 -0.2496567 -0.17838123 -0.16370092 -0.10297566
-0.22327417 0.0275082 0.0789291 0.09245103 0.37000552 0.052320898 -0.16670182 0.14541784
0.12958822 -0.45169395 -0.14580359 0.26559368 0.047677662 -0.29473898 -0.016232202 -0.07390562
0.0972917 0.16177985 -0.5428474 0.03199163 -0.45038098 0.10819805 0.09809322 0.0020187385
0.13674961 -0.19808777 0.19178347 -0.64030796 -0.07836675 -0.6063332 -0.3470274 -0.036872495
-0.46954736 -0.099595316 -0.44835007 0.11279409 0.23880169 -0.021361055 0.127897 -0.2229924
-0.6512435 0.012041546 -0.37025997 0.13489468 -0.24785435 -0.4565369 -0.33284605 -0.064378
-0.20728424 -0.007463749 0.39030275 -0.116660506 0.005654293 0.05664725 0.071848445 -0.12593965
-0.2577722 -0.012924723 0.039106596 -0.4107476 0.23348948 -0.027176766 -0.07730872 -0.21657667
-0.48467106 -0.31792232 -0.27372956 0.11068201 -0.38838944 -0.37777638 -0.30673626 -0.18851969
0.003186793 -0.29153636 0.05381767 0.17131212 -0.15013233 0.09190864 -0.11643186 0.08193784
-0.11777007 0.20639437 0.28910238 0.044821892 -0.33018622 0.22672479 -0.2302855 0.06646171
-0.37665603 0.04856332 -0.2064469 0.11274098 0.2048485 0.31908497 0.0037497354 0.08686477
0.31785822 -0.061193757 0.07077746 -0.1461918 0.11455414 -0.45622307 0.085683756 -0.20270456
0.008370676 -0.15230697 -0.382309 -0.19393033 -0.16973415 0.28694412 0.13099682 -0.15229745
-0.18220967 0.3212367 0.2665448 -0.20637256 -0.23714444 -0.22548361 0.26960328 0.35995492
-0.02776641 -0.25780466 -0.3063118 0.26335523 -0.018984908 0.16399693 -0.27136257 -0.11431907
-0.2035582 -0.06271891 -0.2440896 -0.38789704 -0.18816073 0.17057775 0.26325226 -0.413058

output_mlp.0.bias f4 [128]
00000000: 61e7 5cbe 9526 9d3d d5ee d83d 5563 adbd
00000010: 3dcb a1bb ea89 083e 1a41 32bd 87af eb3b
00000020: f621 be3d cb03 833d c39c 323f 6f79 7bbe
00000030: cfb9 0cbe 81e1 96bd 267a 66bd 474e 80bd
00000040: 8294 0c3d 277e c83e bb3b 363e dae8 4d3c
00000050: f4e8 8d3d a31a 893d 21d0 c0bd 4795 4cbc
00000060: 0ffe a0bd 3614 4bbd a9bb 733d c394 d5bd
00000070: 6816 cf3e 0e08 00be 284b 323d 152d 04be
00000080: cdb9 3a3d b6fe 5f3d fb6c ddbd e347 e0bc
00000090: 3be1 853d 0cc5 03be 3d64 4e3e 886b 13be
000000a0: 4e4d 25bd 7d4f f13d 3abb 2cbd b0a4 0dbe
000000b0: 70f6 583d 9349 d23c 0534 8bbd c7d6 4e3d
000000c0: 2794 8f3d 0ab0 303e 4104 75bd f1b3 debd
000000d0: cc1c b0bd 906c 8d3d c9a1 c2bd 9b1a 463d
000000e0: aad0 cabd 8111 fabd c15c a3bd 60df eb3d
000000f0: 0347 17be 05cf 86bd 3994 223d 0c48 8a3e
00000100: c593 ae3b 030b 073d 18a5 efbd 147d f2bd
00000110: 98d5 27bd 1fa2 8abd 92b6 9e3e fbfa 8a3d
00000120: 2c25 663d 57a0 5a3e 2f67 acbe 8bf2 febd
00000130: 5ba1 b3bd 7049 95bd 629b 893d 075d c9bd
00000140: 5e4b 823c e087 083e 9fec 2c3d 90e7 fdbd
00000150: 1abf 10be 93ad f1bd 84d3 9dbe f65b 8ebd
00000160: c071 3b3d 6762 32bd ca69 f73c 6d4c e1bd
00000170: abeb cd3c 685a 68bd c4c2 73be 55ff 36bd
00000180: fbf9 933e ab5c 2bbd a42a 10bd ddbf 19be
00000190: fc42 423d 8390 413d 0aea 2dbc 5207 a33c
000001a0: 9dd6 1cbe c04c 86bd c1af 85be 1815 8dbc
000001b0: 4a7e 1b3e 1054 43bd a62d 97bd b8ae e8bd
000001c0: 2319 923d eae3 09bd 4012 ccbd 6705 c2bd
000001d0: de60 f3bd fb15 143c 655c 953d edab febd
000001e0: 8c4f 0d3e ef54 5a3d 67ac a4bd 474c 563d
000001f0: 3290 7abd 13ff e3bd 8368 903e ae5f 153e
-0.21572639 0.076733746 0.105924286 -0.08466212 -0.004937558 0.1333386 -0.043519117 0.0071925553
0.09283821 0.06397208 0.6977045 -0.24558042 -0.13742755 -0.0736723 -0.056268834 -0.0626493
0.034321316 0.39158747 0.17796223 0.012567723 0.06929198 0.06694534 -0.094146974 -0.012486762
-0.07860958 -0.04957982 0.05950514 -0.10428765 0.40446782 -0.12503073 0.043528706 -0.12907822
0.04558735 0.05468627 -0.10811802 -0.027378028 0.065371 -0.12868136 0.20155425 -0.14396489
-0.040356927 0.11782739 -0.04217074 -0.13832355 0.052969396 0.025669849 -0.06797031 0.050497796
0.0701068 0.17254654 -0.05981851 -0.10874165 -0.085992426 0.06905472 -0.09503514 0.048365217
-0.09903081 -0.1221037 -0.07976676 0.11517215 -0.14773183 -0.065824546 0.039692137 0.27008092
0.005327674 0.032969486 -0.11701411 -0.11840263 -0.040975183 -0.067692034 0.30998665 0.06786152
0.056187794 0.21350227 -0.33672473 -0.12448605 -0.087710105 -0.07289398 0.0671909 -0.09832197
0.015905079 0.13333082 0.042217847 -0.12397683 -0.141354 -0.11800685 -0.30825436 -0.06951134
0.045762777 -0.043550875 0.030201811 -0.11000905 0.02513679 -0.056726843 -0.23804766 -0.044677097
0.28901657 -0.041836422 -0.035196915 -0.15014596 0.047427163 0.047256958 -0.010614881 0.019900952
-0.15316243 -0.06557608 -0.26110652 -0.017221972 0.15184894 -0.04768759 -0.073817536 -0.1136145
0.07133701 -0.03366462 -0.099644184 -0.09473687 -0.1188371 0.009038444 0.072930135 -0.12435136
0.13799876 0.053303655 -0.08040696 0.052318837 -0.06117267 -0.11132636 0.28204736 0.1458728

output_mlp.2.weight f4 [9, 128]
00000000: c60c 3d3f 119d 113d 1842 bebe 96ab 21c0
00000010: 22db 7fbe 04e2 043e 04a8 a9be 56a4 49bf
00000020: 613d e03d d3e3 063d 3f67 eb3d d101 85bf
00000030: 242f bcbf 2360 29c0 d13f a43d a0bd 8abe
00000040: 4682 27bf 5fe8 043e 8124 da3d a091 bdbf
00000050: 2308 f13d 9f76 3bbf e4db 5ac0 bbdd 0bbf
00000060: a8d8 dabf e73b bbbf f6c6 eeba 4bf9 24c0
00000070: 2075 003e b96b e43c 0f8e e93d 1cd4 7cbf
00000080: e362 73be 4a42 c1bd 4b72 43c0 81dd 4cbf
00000090: e362 4f3a 5c92 d7bf d22c 043e 3ebd cabc
000000a0: 41e1 85be 0b1f 7d3e 1268 11bf 2096 0fc0
000000b0: 0b46 4cbe b3df 193f 44f3 06c0 99fe e23d
000000c0: c5d5 3a3b 8c18 d83d 5668 be3d 9453 4fc0
000000d0: f892 08c0 a83e 783c ecd9 0cc0 ca72 22be
000000e0: d609 073f 57f6 40c0 de39 e8bf 81ce 85bf
000000f0: 8a7d 4cc0 fdee 41c0 ffd8 0fbf a264 5dbe
00000100: 8a54 063d 6e14 d43d 1309 54c0 42a5 e0bd
00000110: 24fb 8bbe 875a 36c0 5d99 d83d 4171 ffbe
00000120: d617 cf3c 998b 083e a172 25c0 36cf 0fbf
00000130: eae8 90bf 9492 d83d de9c d83e 019b 3cc0
00000140: 7274 46c0 67d0 393e 97c9 343e 28f3 073e
00000150: 79c9 12bf 74aa 39bf 3aa0 d6bf 7e28 95bf
00000160: 5ca5 3abe a9f7 b1be 6116 52be 7f90 f0be
00000170: b448 a3be b660 babf 1259 513f dfa9 4cbf
00000180: 7b33 ecbe 1c68 cabf 9918 a6bf 1a0d 503f
00000190: f90a b6bd 7c17 e7be 90c1 5fbe df00 28bf
000001a0: 8527 46bf 7f41 bcbf c631 f2bc ae99 90bf
000001b0: a1e2 02bd 6bf8 21bf 821f 07c0 c098 51c0
000001c0: b74b ef3b 5ee7 d1bf d065 41c0 c164 afbf
000001d0: 8f72 3dc0 4dbc 17c0 73b4 6b3a 1daf 40c0
000001e0: 8389 653c 99b7 31be 5b31 533f b430 2fbe
000001f0: 4123 f1be 4bdc 1abf 3454 da3d d04e 5fbd
00000200: 0514 53bf 02d2 b73d c226 12be 1032 0240
00000210: b4a7 1c3d 17e7 e53c 6921 e53d b3f7 8ebe
00000220: b086 7f3d 6e73 5a3d b29f 023d b66d dabe
00000230: e0cc 2a3f 3a7e 1740 a91d 99bc e3f1 2c3d
00000240: 3b85 ba3e 1207 39bd 89d8 df3b 1316 ba3e
00000250: 5cfd a33d ed18 e03e 4614 4d40 a06a 28be
00000260: d282 9f3f a65a b83e ee7c 2c3d 1e48 0d40
00000270: 5e1d 113d f8b4 a3be f6dd 4cbc 1eb1 063f
00000280: 9232 753e ae5f e83d 6be0 2a40 64a7 883e
00000290: 3df9 843d d607 7d3f 2bc9 e53c 6786 8abe
000002a0: 6293 0dbf 32d2 07be a156 c53e 231d 0040
000002b0: 23b7 3e3e 6625 1fbf 6266 d93f 9e0f d73d
000002c0: 6798 fc3c b46a 583c 3158 56ba 31f2 3540
000002d0: 3b2d f03f 2592 3d3d c8ee e43f 8dc6 303e
000002e0: 8db2 61bf 0fd9 2a40 2213 49be 906f 813f
000002f0: d3a4 f83f 8282 2440 d4d8 1b3e 9a27 c23d
00000300: 794b a3bc fd7b ad3d db78 3f40 54b7 a6bd
00000310: 5cb8 a73d 1b8d 2040 7b0c f63c bdb1 b33e
00000320: 0f57 0c3d 8872 953b 85b0 6abf 4979 5bbe
00000330: e934 483d cb7f 5c3e eaa7 b4be 357a 2c40
00000340: 1a6d a03f a539 febd 0c50 b23c 077a 913e
00000350: a669 43bd 8b44 02bf 6b2a 16c0 5ec6 b23e
00000360: a826 5c3e 6dde 3b3e f31d b4bc 4bf9 623d
00000370: 322e af3e 194c 203f 270c 9bbf 7437 363f
00000380: bab2 d93e ef99 ab3f bcc5 353e c223 003e
00000390: eb13 0b3e 9e91 8d3e 952a 97be 11cb be3d
000003a0: a49f a7be f216 8c3e 1409 3abe 9d00 623f
000003b0: 161d 073e af84 8f3e e79c fa3f 55f9 3c40
000003c0: 0476 503d dcc2 2c3f 1a7f 2d40 7bc4 133f
000003d0: 30e1 2340 ea64 833f 27db 983d 6c0a 2b40
000003e0: 3dc4 0d3e dfed 563e e6b1 bcbf 0b2a 413e
000003f0: 9e8b 763e 5c45 b03d cc20 143d b1ec 0f3e
0.73847616 0.03555018 -0.371598 -2.5260978 -0.24985936 0.12976843 -0.33135998 -0.7876638
0.10949207 0.032932114 0.11494302 -1.0391179 -1.4701886 -2.6464927 0.080199845 -0.27097797
-0.65433156 0.12979268 0.10651494 -1.4810066 0.1176913 -0.73227876 -3.419671 -0.5463521
-1.7097368 -1.4627656 -0.0018217254 -2.5777156 0.1254468 0.027883397 0.11404049 -0.98761153
-0.23768191 -0.09436472 -3.053851 -0.8002549 0.00079111586 -1.684154 0.12907723 -0.02474844
-0.26148418 0.24718873 -0.56799424 -2.243538 -0.19948594 0.6010696 -2.1085978 0.11083717
0.0028508764 0.10551557 0.09297244 -3.2394762 -2.1339703 0.015151657 -2.200801 -0.15864101
0.52749383 -3.0150354 -1.814266 -1.0453645 -3.1951623 -3.0302117 -0.56190485 -0.2162042
0.032795466 0.10355459 -3.3130538 -0.109690204 -0.27340043 -2.8492754 0.10576127 -0.49891093
0.02527992 0.13334502 -2.5851214 -0.56175554 -1.132108 0.105748326 0.4230718 -2.9469607
-3.1008573 0.18145905 0.17655025 0.1327635 -0.5733867 -0.72525716 -1.6767647 -1.1652982
-0.18227142 -0.34759262 -0.2051635 -0.46985242 -0.31891406 -1.4560764 0.81776536 -0.799467
-0.46133026 -1.5813022 -1.2976257 0.8126999 -0.088888116 -0.45135105 -0.21851182 -0.6562633
-0.7740405 -1.4707488 -0.02956475 -1.1296899 -0.03195441 -0.6326968 -2.111298 -3.2749481
0.007302727 -1.6398733 -3.0218391 -1.3702623 -2.960117 -2.370868 0.00089914276 -3.010688
0.014009836 -0.17355193 0.82497185 -0.17108423 -0.4709721 -0.6049239 0.10660592 -0.05451852
-0.8245242 0.08975603 -0.14272597 2.0343056 0.03824587 0.028064294 0.11188013 -0.27923355
0.062384307 0.05333274 0.03189058 -0.42661828 0.66718864 2.3670793 -0.0186909 0.04222287
0.36429772 -0.04517276 0.006831233 0.36344966 0.08007309 0.43769017 3.2043624 -0.16446924
1.2461798 0.3600666 0.04211133 2.2075267 0.035428397 -0.31974006 -0.0125040915 0.5261401
0.23945072 0.113463745 2.6699474 0.2669021 0.06492851 0.9884008 0.028050026 -0.27055666
-0.55303013 -0.13263777 0.38542655 2.0017784 0.18624549 -0.6216644 1.698437 0.105010256
0.03083439 0.013209034 -0.00081765937 2.8429072 1.8763803 0.046281952 1.788537 0.17263241
-0.8816307 2.6694982 -0.19636205 1.0112171 1.94253 2.5704656 0.15219432 0.0948021
-0.01993345 0.084709145 2.9917514 -0.08140436 0.08189461 2.5086124 0.030035248 0.3509654
0.034262713 0.0045607723 -0.916756 -0.21432985 0.048878584 0.21533124 -0.35284358 2.694959
1.2533295 -0.124133386 0.021766685 0.28413412 -0.047708176 -0.5088584 -2.346339 0.34916967
0.21499121 0.18346567 -0.021986937 0.055413526 0.34214932 0.62616116 -1.2113084 0.71178365
0.4251917 1.3406352 0.17751211 0.1251364 0.13581817 0.2765016 -0.29524675 0.093160756
-0.32738984 0.27361256 -0.18167526 0.88282186 0.13194689 0.28030917 1.9579133 2.952718
0.0508938 0.6748483 2.7108827 0.5772168 2.5606194 1.0265172 0.07463675 2.672511
0.1384439 0.20989178 -1.474179 0.18863694 0.24076697 0.08606979 0.03616409 0.14055134

output_mlp.2.bias f4 [9]
00000000: 93ae ba3d e7f5 ac3d 7d28 77bd e1a7 23bd
00000010: 220f 92be b725 71bd d03e 7bbd e771 73be
00000020: 14b0 80bd
0.09115329 0.0844534 -0.060341347 -0.039955024 -0.2852717 -0.05887386 -0.0613392 -0.23773919
-0.06283584
