log/segmentation/pn/bucket/weighted-1/pn_30.pth (torch, 337359 bytes, 8 tensors)

local_mlp.0.weight f4 [64, 3]
0	0x3f0da708	0.55332994
1	0x3d4f2457	0.050571766
2	0xbea25369	-0.31704262
3	0x3e7d8da0	0.24761057
4	0x3d7ce343	0.06174017
5	0x3e2c3509	0.16817106
6	0x3ea1ac43	0.31576738
7	0x3e170d8c	0.14751261
8	0x3e2711af	0.1631534
9	0xbe649cab	-0.22325389
10	0x3e03a4dc	0.12855858
11	0xbe8d1a31	-0.27559045
12	0x3e6cf57e	0.23140523
13	0x3c2bb7b0	0.010480806
14	0x3e2b7f93	0.16747884
15	0x3e41f696	0.18941721
16	0xbd1a5b4f	-0.037684735
17	0x3e41bfe7	0.18920861
18	0x3d293282	0.041307934
19	0xbe45e6e5	-0.1932636
20	0x3e8852f5	0.2662579
21	0x3e9290b4	0.28626025
22	0x3d8fee53	0.070278786
23	0x3e1fa888	0.15591633
24	0x3efb9d9f	0.49143693
25	0x3e294222	0.16529134
26	0x3e346baf	0.17619203
27	0x3bb2cfa7	0.005456883
28	0xbf85288b	-1.0402998
29	0xbec2759f	-0.37980363
30	0x3e9a9311	0.30190328
31	0xbdb03ccc	-0.08605346
32	0x3e0d0bee	0.13774082
33	0x3f04e7fb	0.51916474
34	0xbda02d29	-0.078211136
35	0xbec52b79	-0.3850973
36	0x3f75e7b1	0.9605666
37	0x3ed385d6	0.41313046
38	0xbeae9976	-0.34101456
39	0xc00931bb	-2.1436603
40	0x3f03251f	0.5122852
41	0x3ebb1a3c	0.36543453
42	0xbe2b4bf6	-0.16728196
43	0x40914609	4.539799
44	0xbd3cf8ef	-0.04613584
45	0x3f0a421a	0.5400711
46	0xbc5e61f0	-0.013573155
47	0xbeb0c7f2	-0.34527546
48	0x3dcdaa06	0.10042195
49	0xbeb082ef	-0.34474894
50	0x3e3b8960	0.18314123
51	0x3e9314fa	0.2872694
52	0x3ddbc5d0	0.10731089
53	0x3e26cb94	0.16288596
54	0x3dd3e97c	0.10347268
55	0xc0131120	-2.2979202
56	0x3e962f81	0.29333118
57	0x3ec9f163	0.39441976
58	0xbc7ea739	-0.015542799
59	0x3dfcbd5f	0.12340807
60	0xbee6c893	-0.450749
61	0xbf81f051	-1.0151464
62	0xbdca6140	-0.0988183
63	0x3c952d77	0.018210156
64	0xbe683352	-0.22675827
65	0x3e7f3598	0.24922788
66	0x3d4cb7d8	0.049980015
67	0xbed074ad	-0.40714017
68	0x3e50d669	0.20394291
69	0x3e1c280d	0.15249653
70	0x3e16936b	0.14704673
71	0x3e4d3577	0.20039926
72	0x3e4fc61a	0.20290413
73	0x3ca1d086	0.019752752
74	0x3e3c5c25	0.18394525
75	0x3e5b591c	0.21420711
76	0x3dba7e5b	0.09106132
77	0x3e3b076e	0.18264553
78	0xbf895fb5	-1.0732332
79	0xbf432209	-0.7622381
80	0x3e9eb529	0.3099759
81	0x3e327fd1	0.1743157
82	0x3caaf0b0	0.020866722
83	0x3e48fd16	0.19627795
84	0x3ddcf220	0.10788369
85	0x3d9ba1b3	0.07599201
86	0x3e5b2feb	0.21404998
87	0x3f1b0ac5	0.6056331
88	0xbd080380	-0.033206463
89	0xbead17d1	-0.33807233
90	0x3f077860	0.5291805
91	0x3d8394d0	0.06424868
92	0xbead099d	-0.33796397
93	0x3eb74ab1	0.35799173
94	0x3e3b6a4f	0.18302272
95	0x3e1d35ed	0.15352602
96	0x3ea31540	0.3185215
97	0xbe989d0d	-0.2980732
98	0xbedc7444	-0.43057454
99	0x3d63a6c8	0.055578977
100	0xbf05dfce	-0.52294624
101	0x3e5077ee	0.2035825
102	0x3e6e41a7	0.23267232
103	0xbe758fc8	-0.2398063
104	0x3e22af3a	0.15887156
105	0x3f143c36	0.57904375
106	0x3d9e7f1c	0.07739088
107	0xbedf7406	-0.43643206
108	0xbd849bf0	-0.06475055
109	0xbe7da6bb	-0.24770634
110	0x3e9c4610	0.30522203
111	0x3f2baa58	0.670568
112	0x3df9164d	0.12162457
113	0xbe9eba98	-0.31001735
114	0x3ceaaee3	0.028647846
115	0xbf26e613	-0.65194815
116	0x3e63db01	0.22251512
117	0xbeff975a	-0.4992016
118	0x3d9de755	0.07710139
119	0xbdcde79b	-0.10053941
120	0x3e981138	0.29700637
121	0xbd26bcbb	-0.04070733
122	0x3e1d5eaa	0.15368143
123	0x3eda0291	0.42580083
124	0xbd8d1c7e	-0.068902
125	0xbec286a4	-0.37993348
126	0x3f16a327	0.588427
127	0x3d051fa3	0.032500874
128	0xbebca440	-0.36844063
129	0x3eea9c44	0.45822346
130	0x3cbf0932	0.023319814
131	0xbea02dbc	-0.31284893
132	0x3e1aad77	0.15105234
133	0x3d7f62f2	0.06235022
134	0x3e4e75a4	0.20162064
135	0x3e884787	0.2661707
136	0xbec01a1a	-0.37519914
137	0x3e0a5113	0.1350749
138	0xbf8b8c07	-1.0902108
139	0xbfeed5c3	-1.8658985
140	0x3e6f0af7	0.23344027
141	0xbf180866	-0.59387815
142	0xbff47ddd	-1.910091
143	0x3d5ea587	0.054357078
144	0x3ebd3cb6	0.3696038
145	0xbc3788cb	-0.011202048
146	0x3e0a69ab	0.13516872
147	0xbf375a76	-0.7162241
148	0x3ee90f59	0.45519522
149	0x3c9575f6	0.018244725
150	0x3e820228	0.2539227
151	0x3c00064a	0.007813999
152	0x3e25fb5f	0.16209172
153	0x3eefed6a	0.4686082
154	0xbdd1bb88	-0.10240847
155	0xbeceb5a9	-0.4037297
156	0x3ddcdc0d	0.10784159
157	0xbf796aae	-0.97428405
158	0x3e4a7669	0.19771732
159	0x3f1df4f8	0.6170192
160	0x3d9859b2	0.07438983
161	0xbeb5dadf	-0.35518548
162	0x3f296b97	0.66179794
163	0x3db4a7f2	0.088210955
164	0xbeb67b8d	-0.35641137
165	0x3e976c92	0.2957502
166	0x3e2217a1	0.15829326
167	0x3e258de1	0.16167404
168	0x3eaad502	0.33365637
169	0xbdd06799	-0.1017601
170	0x3e0fbb72	0.14036348
171	0x3d9b159b	0.0757248
172	0xbcdcdd3a	-0.026960958
173	0x3e6d0e59	0.23150004
174	0x3f452961	0.77016264
175	0x3e33d700	0.17562485
176	0xbeb37cb8	-0.3505609
177	0xbeac22e3	-0.33620366
178	0x3f1dea06	0.61685216
179	0xbe0cb371	-0.13740326
180	0x3dfe8d0b	0.124292456
181	0xc029d5b1	-2.6536677
182	0xbe6193ac	-0.22028989
183	0x3e3aa1df	0.18225811
184	0xbd94edb4	-0.07271901
185	0x3e46cc6f	0.19413923
186	0x3f35e9b6	0.7105974
187	0xbde7d072	-0.11319055
188	0xbe9ce351	-0.3064218
189	0x3e804f62	0.25060564
190	0x3e219b3c	0.15781873
191	0x3e3786e9	0.17922558

local_mlp.0.bias f4 [64]
0	0x3d940a02	0.07228471
1	0xbef68e3c	-0.4815539
2	0xbf057063	-0.52124614
3	0x3f217bea	0.630797
4	0xbef0bb99	-0.47018126
5	0xbef1596e	-0.47138542
6	0xbeed1786	-0.4630701
7	0xbefc16e7	-0.49236223
8	0xbf289919	-0.6585861
9	0x3f098871	0.5372382
10	0xbef2bf1d	-0.47411433
11	0x3e57b6d6	0.2106584
12	0x3c11145a	0.00885495
13	0x3f00cb9a	0.5031067
14	0x3ecc8fe0	0.39953518
15	0x3e05a610	0.13051629
16	0xbec142b4	-0.37746203
17	0xbf0023a4	-0.50054383
18	0xbe7fc9dd	-0.24979348
19	0xbf050af0	-0.51969814
20	0x3f003c5b	0.50092095
21	0xbed4ae03	-0.4153901
22	0xbebc3299	-0.36757353
23	0xbee87748	-0.45403504
24	0xbef2861a	-0.47367936
25	0xbef4e0d2	-0.47827774
26	0x3ee8fd54	0.45505774
27	0xbef12d87	-0.47105047
28	0xbee33b96	-0.44381398
29	0x3d9efecd	0.07763443
30	0x3dfe0ff1	0.12405384
31	0xbf08f933	-0.5350525
32	0x3ed52754	0.41631567
33	0xbebca4a8	-0.36844373
34	0xbee4c507	-0.4468157
35	0x3e83ad91	0.25718358
36	0xbedbcf56	-0.42931622
37	0xb98c7e1a	-0.00026796834
38	0xbebcf66e	-0.3690676
39	0x3f0e1502	0.55500805
40	0xbefed189	-0.49769238
41	0x3e8788de	0.2647161
42	0x3e0bc97f	0.13651083
43	0x3e05ce9d	0.13067098
44	0xbeeafe67	-0.4589722
45	0xbedb013b	-0.42774376
46	0x3ee9d57e	0.45670694
47	0x3ef2defb	0.47435746
48	0xbf053424	-0.52032685
49	0x3f0fda49	0.5619245
50	0xbef4d666	-0.47819823
51	0x3e8c80f0	0.27442122
52	0xbebd4225	-0.36964527
53	0x3dcf351f	0.10117554
54	0x3d9c32fb	0.07626911
55	0xbf014634	-0.50497746
56	0xbf0050b8	-0.5012317
57	0xbee483f5	-0.44631925
58	0x3cf197c6	0.029491317
59	0x3f030ac1	0.51188284
60	0x3ec8641e	0.39138883
61	0xbef2c726	-0.47417563
62	0xbc229a20	-0.009924442
63	0xbefe8685	-0.49712005

local_mlp.2.weight f4 [256, 64]
0	0x3e7d7f21	0.24755527
1	0xbe8dcdf2	-0.27696186
2	0xbe7f5d0b	-0.24937837
3	0x3ee68280	0.4502144
4	0xbea2fb6c	-0.31832445
5	0xbec46056	-0.38354748
6	0xbf82ed63	-1.0228695
7	0xbe71298f	-0.2355101
8	0xbe94e99e	-0.29084486
9	0x3eae461a	0.34037858
10	0xbeb74fd5	-0.35803095
11	0x3e3e7d50	0.1860249
12	0xbe7d7d77	-0.24754892
13	0xbf1fc756	-0.6241354
14	0xbdd187e8	-0.10231
15	0x3e2260b6	0.15857205
16	0xbf383df4	-0.7196953
17	0xbe81fdc4	-0.2538892
18	0xbe849e12	-0.25901848
19	0xbea33397	-0.31875297
20	0x3e8ef10a	0.27918273
21	0xbf853269	-1.0406009
22	0xbf1fc40d	-0.62408525
23	0xbeadd855	-0.3395411
24	0xbeb35de6	-0.35032576
25	0xbe9ce555	-0.30643716
26	0x3d972bfc	0.07381436
27	0xbe9f2777	-0.31084797
28	0xbeaf5f4a	-0.34252387
29	0x3d3083fa	0.043094613
30	0x3e9c98f6	0.3058545
31	0xbe547c9b	-0.20750658
32	0x3f3f5642	0.74740994
33	0xbf0a4164	-0.5400603
34	0xbf31a5bb	-0.6939351
35	0x3df144c7	0.11780696
36	0xbf9a02ad	-1.2032067
37	0x3debd45b	0.11515113
38	0xbef33b7a	-0.47506315
39	0x3e73f310	0.2382319
40	0xbe95bdf9	-0.292465
41	0x3eab31fa	0.33436567
42	0x3de53001	0.11190797
43	0x3ebd4c89	0.36972454
44	0xbeb5c3f9	-0.35501078
45	0xbf4aefe9	-0.79272324
46	0x3e2000cf	0.15625308
47	0x3e4c22e3	0.19935183
48	0xbe9eb155	-0.3099467
49	0xbd888732	-0.066664115
50	0xbe88b093	-0.26697215
51	0x3e8a0f77	0.26964924
52	0xbee7f742	-0.4530583
53	0x3e12ec09	0.14347853
54	0x3da350e2	0.079744115
55	0xbe4b418d	-0.19849224
56	0xbec22ff4	-0.3792721
57	0xbf06b7b1	-0.5262404
58	0x3d2ba98a	0.041909732
59	0xbe0f8501	-0.1401558
60	0x3ea44af4	0.32088435
61	0xbee0e3ab	-0.43923697
62	0xbe89f150	-0.2694192
63	0xbe8a108f	-0.26965758
64	0xbeed7951	-0.4638162
65	0x3e94ca10	0.2906041
66	0x3e7e9402	0.24861148
67	0xbecf8365	-0.40529934
68	0x3e8dd917	0.2770469
69	0x3e925341	0.28579143
70	0x3e96d261	0.2945738
71	0x3e87ae7a	0.26500303
72	0x3e1488fe	0.14505383
73	0xbf0de447	-0.5542645
74	0x3e8e02b7	0.27736446
75	0xbee5e803	-0.44903573
76	0xbf07cc6b	-0.5304629
77	0xbf846bc4	-1.0345387
78	0xbfcfed6e	-1.6244333
79	0xbee29d4d	-0.44260636
80	0x3e52f080	0.20599556
81	0x3e919073	0.28430519
82	0xbd657b9e	-0.056026094
83	0x3e796f9f	0.24358986
84	0xbe7c451e	-0.24635741
85	0x3e70c329	0.23511948
86	0x3e2bb1d9	0.16767062
87	0x3e73a854	0.23794681
88	0x3e8b2038	0.27173018
89	0x3e959e8d	0.29222527
90	0xbf03423f	-0.5127296
91	0x3e975b5f	0.29561898
92	0x3e8a012e	0.26954025
93	0xbee2ee5d	-0.44322482
94	0xbefd4918	-0.4946983
95	0x3e6d739c	0.23188633
96	0xbee7c389	-0.4526637
97	0x3e316d00	0.17326736
98	0x3e799c94	0.24376136
99	0xbeebd474	-0.46060526
100	0x3e50e87c	0.20401186
101	0xbec5b867	-0.3861725
102	0x3e0f103c	0.13971037
103	0xbe1dcbef	-0.15409826
104	0x3e91ad38	0.28452468
105	0xbee8960d	-0.4542698
106	0xbeeb7d37	-0.4599397
107	0xbeea8b25	-0.45809284
108	0x3e959be7	0.29220507
109	0x3e4a8f40	0.19781208
110	0xbf543a16	-0.8290113
111	0xbe8f3fe8	-0.27978444
112	0x3e64113c	0.222722
113	0xbe6629c4	-0.2247687
114	0x3e9b1e68	0.30296636
115	0xbeec5fe2	-0.46166903
116	0x3daa5cff	0.08318519
117	0xbef3cbea	-0.47616512
118	0xbeff0f11	-0.49816182
119	0x3e5e1c4f	0.21690486
120	0x3e86f816	0.2636115
121	0x3e959e7a	0.2922247
122	0xbf05fd45	-0.52339584
123	0xbea74505	-0.32669845
124	0xbf1446bf	-0.5792045
125	0x3e98ff2b	0.29882178
126	0xbec0ee8e	-0.37682003
127	0x3e725f18	0.23669088
128	0xbe9f6135	-0.3112885
129	0x3f04f686	0.51938665
130	0x3edf7481	0.43643573
131	0xbf1fd5ea	-0.6243578
132	0x3f0a894b	0.5411574
133	0x3f07f298	0.53104544
134	0x3edf9c5a	0.43673974
135	0x3f0b9078	0.54517317
136	0x3eceb435	0.40371862
137	0xbf3cbb05	-0.7372287
138	0x3f08646b	0.53278226
139	0xbeb6f29a	-0.35731965
140	0xbe3e0785	-0.18557556
141	0xbf967a2e	-1.1756036
142	0xbde472ed	-0.11154733
143	0xbec85c81	-0.39133075
144	0x3ea14fa3	0.3150607
145	0x3ef6f07d	0.48230353
146	0x3eab03ad	0.33401242
147	0x3efb9ac7	0.49141523
148	0xbe8f2050	-0.2795434
149	0x3e98b4f3	0.29825553
150	0x3e8feabc	0.28108776
151	0x3ebd45ae	0.36967224
152	0x3f031809	0.5120855
153	0x3f01b027	0.5065941
154	0xbf20e627	-0.62851185
155	0x3f031e2f	0.5121793
156	0x3ec5053e	0.38480562
157	0xbe91390f	-0.28363845
158	0xbeca5e70	-0.39525175
159	0x3ed0c2a4	0.407735
160	0xbf1f2994	-0.6217282
161	0x3e81fa4d	0.25386277
162	0x3ed22734	0.41045535
163	0xbeb372b5	-0.35048452
164	0x3ea0b2e0	0.3138647
165	0xbe88674b	-0.26641306
166	0x3e666d4d	0.22502632
167	0xbecdd94f	-0.40204856
168	0x3f07a4f0	0.5298605
169	0xbef8565c	-0.48503387
170	0xbeb63202	-0.35585028
171	0xbeb31e78	-0.34984183
172	0x3ee2f091	0.44324163
173	0x3ecce29f	0.40016648
174	0xbf48499b	-0.78237313
175	0xbe839cb5	-0.25705495
176	0x3ef0d86f	0.47040126
177	0xbef6d25b	-0.48207363
178	0x3f04aac9	0.518231
179	0xbed2762d	-0.41105786
180	0x3e8204f3	0.253944
181	0xbecfb3fd	-0.40567008
182	0xbeb5b377	-0.35488483
183	0x3eca3d22	0.39499766
184	0x3ef459c1	0.47724727
185	0x3ef332b5	0.47499624
186	0xbe936a78	-0.28792167
187	0xbeecd16a	-0.4625352
188	0xbecf3ade	-0.404746
189	0x3f0f6068	0.5600648
190	0xbe311454	-0.17292911
191	0x3ec44bb1	0.38338998
192	0x3e941bfe	0.28927606
193	0x3cebf7de	0.028804716
194	0xbd4e065a	-0.050299026
195	0xbe512bb7	-0.20426832
196	0x3da13f4c	0.07873401
197	0x3dd46fcb	0.10372885
198	0x3e0f3f89	0.1398908
199	0x3ce95f46	0.028487813
200	0xbd87f319	-0.06638164
201	0x3e15afbc	0.14617819
202	0x3e2a068f	0.16604064
203	0x3e6598cf	0.22421573
204	0x3b8dd676	0.0043285443
205	0xbcc68a81	-0.024235966
206	0xbe34d1d4	-0.17658168
207	0x3e80941b	0.25112996
208	0x3e3f7680	0.18697548
209	0xbaa4a538	-0.0012561446
210	0x3d8ff4b0	0.07029092
211	0x3e0a6e9e	0.1351876
212	0xbc93fa52	-0.018063698
213	0x3dedfc30	0.116203666
214	0x3e09d791	0.13461138
215	0xbdbeb842	-0.09312488
216	0x3d00cd57	0.031445827
217	0xbbce32aa	-0.0062926607
218	0xbe55b1af	-0.20868562
219	0x3d0117ca	0.031516828
220	0xbc8e00db	-0.017334392
221	0x3e766681	0.2406254
222	0x3e89600e	0.26831096
223	0xbda4eca6	-0.080529496
224	0x3e8987c3	0.2686139
225	0x3df3a7dc	0.11897251
226	0x3e8a96d0	0.27068186
227	0x3e55f4df	0.20894192
228	0x3db3213c	0.08746573
229	0x3e533dbe	0.20629022
230	0x3e136c6d	0.1439683
231	0xbe874c94	-0.26425612
232	0x3dfe96c6	0.124311015
233	0x3e86253d	0.26200286
234	0x3e59431c	0.21217006
235	0x3e9501e3	0.29103002
236	0x3abcabc6	0.0014394454
237	0x3e956da0	0.291852
238	0xbeb01de4	-0.34397805
239	0xbce80741	-0.028323771
240	0x3e1624c2	0.1466246
241	0xbe0b08b9	-0.13577546
242	0x3dd9d9c8	0.106372416
243	0x3e83e011	0.25756887
244	0x3df71e11	0.120662816
245	0x3e68d971	0.22739197
246	0x3e5057c3	0.20345978
247	0xbd7bb07f	-0.061447617
248	0x3e6a35f3	0.22872142
249	0x3d2b2825	0.04178633
250	0x3e42e779	0.19033612
251	0xbe8086b5	-0.25102773
252	0x3e805b00	0.25069427
253	0x3ddfbfa8	0.109252274
254	0x3e52f084	0.20599562
255	0xbdb41097	-0.08792227

local_mlp.2.bias f4 [256]
0	0xbe3f292e	-0.18668053
1	0xbe8252c3	-0.25453767
2	0xbe1e7d91	-0.15477587
3	0xbd58750b	-0.052845996
4	0xbe4ae2c1	-0.19813062
5	0xbcea6c25	-0.02861602
6	0xbdb3e08e	-0.08783065
7	0x3df6e080	0.12054539
8	0x3c9d8e00	0.01923275
9	0xbed3f78a	-0.41399795
10	0xbe6ada8e	-0.22934934
11	0xbb9c0e68	-0.0047624595
12	0xbda7edd4	-0.08199659
13	0xba95cad0	-0.0011428241
14	0xbe3866c9	-0.1800796
15	0x3dc65bb8	0.09685463
16	0xbd815f9b	-0.063170634
17	0xbdc45cc8	-0.09588009
18	0x3e26823d	0.1626062
19	0xbda14a7a	-0.078755334
20	0xbe1de79e	-0.15420386
21	0xbe672cdc	-0.22575706
22	0x3ddd4fc0	0.10806227
23	0xbcb4b29e	-0.022057828
24	0x3d38e392	0.045138903
25	0x3c126faa	0.008937756
26	0x3da479b1	0.08031023
27	0xbdfd0a86	-0.12355523
28	0xbe70c61f	-0.23513077
29	0x3d8be27f	0.0683031
30	0x3dcb7b19	0.099355884
31	0xbe620632	-0.22072676
32	0x3bdcfa4a	0.006743704
33	0xbdbbf13d	-0.09176872
34	0x3d62c3f2	0.05536265
35	0x3e0cb3af	0.13740419
36	0xbdeeec67	-0.11666184
37	0xbe2c19b5	-0.16806681
38	0x3e0e6b15	0.13908036
39	0xbd84d647	-0.06486183
40	0xbe4efcd0	-0.20213628
41	0xbe3ce733	-0.1844757
42	0xbe1cd275	-0.15314658
43	0xbdd99826	-0.10624723
44	0xbc2de554	-0.010613758
45	0xbdbf8ecd	-0.09353409
46	0x3d7adbdc	0.06124483
47	0xbab9c6cb	-0.0014173625
48	0xbe5f7b52	-0.21824387
49	0xbd197335	-0.037463386
50	0x3afc0b27	0.0019229398
51	0xbddd17bd	-0.10795543
52	0xbc30f4c3	-0.010800543
53	0xbbb1047d	-0.0054021464
54	0xbd0cfbfe	-0.034420006
55	0xbe66adf6	-0.22527298
56	0xbe01674f	-0.12637065
57	0xbde00174	-0.10937777
58	0xbdbf720d	-0.09347925
59	0xbe0aa144	-0.1353808
60	0x3d701d9c	0.058621988
61	0x3dc5280c	0.09626779
62	0xbe16c112	-0.14722088
63	0x3dafd8a3	0.08586242
64	0xbdafa10e	-0.085756406
65	0xbd92f450	-0.07175505
66	0x3d93a142	0.07208492
67	0x3d711cf0	0.058865488
68	0xbda8718a	-0.08224781
69	0x3e0a2f6a	0.1349465
70	0xbdf02075	-0.11724941
71	0xbded1e04	-0.11577991
72	0xbef4159c	-0.47672737
73	0xbe149fd0	-0.14514089
74	0xbe4085b7	-0.18801008
75	0xbd257439	-0.04039404
76	0xbdccefdd	-0.10006688
77	0xbe4a12a4	-0.19733673
78	0x3d882d62	0.06649281
79	0x3d468a7f	0.048471924
80	0xbdca661a	-0.098827556
81	0x3d8a90c1	0.06765891
82	0x3d4bc6af	0.049750026
83	0xbe5bb9b6	-0.21457562
84	0x3db46f22	0.088102594
85	0x3d295b7d	0.041347016
86	0xbe4a17dc	-0.19735664
87	0xbd8ca6be	-0.06867741
88	0xbe2309f7	-0.1592177
89	0xbe7395a3	-0.2378755
90	0xbe108eb3	-0.14116935
91	0x3d85c627	0.06531935
92	0xbc9b358b	-0.01894643
93	0xbe66466f	-0.22487806
94	0xbd97989f	-0.07402157
95	0x3d560948	0.052254945
96	0xbd2fce7b	-0.042921524
97	0xbe012814	-0.12612945
98	0xbd948e4b	-0.07253703
99	0xbe86fb54	-0.26363623
100	0x3db2ed6d	0.087366916
101	0xbd81ffb0	-0.06347597
102	0xbdb835e1	-0.089946516
103	0xbcc397f0	-0.02387616
104	0x3d6e6f50	0.058211625
105	0xbe09d651	-0.13460661
106	0xbdc54976	-0.09633152
107	0x3dcabe95	0.09899632
108	0xbdb3b83d	-0.08775375
109	0xbe314405	-0.17311104
110	0x3df6ff1c	0.12060377
111	0x3d8a7991	0.06761468
112	0x3d9ef3df	0.077613585
113	0x3ccbe01a	0.024887133
114	0x3deec2b7	0.11658233
115	0x3deca9c0	0.11555815
116	0xbdb36760	-0.087599516
117	0xbe6da6cd	-0.2320816
118	0x3d9696f4	0.07353011
119	0xbe262a87	-0.1622716
120	0xbe2b5124	-0.16730171
121	0xbd86f4e5	-0.06589679
122	0xbd8786c0	-0.066174984
123	0xbc68e6b8	-0.014215164
124	0x3d9716a9	0.07377369
125	0x3c6aa4a4	0.01432148
126	0xbda3acbf	-0.07991933
127	0xbd4dc1e6	-0.050233744
128	0xbda72121	-0.08160616
129	0x3d9d8e46	0.07693152
130	0xbd8e1b29	-0.06938774
131	0x3ce50e80	0.027961016
132	0xbd224c65	-0.039623637
133	0xbd8ac9d2	-0.067767754
134	0x3c5bd137	0.01341658
135	0xbdf68f5a	-0.12039061
136	0xbd8f4b6c	-0.069968075
137	0x3d25fb09	0.04052261
138	0xbe02bc1c	-0.1276707
139	0xbd8cb732	-0.06870879
140	0xbd20d998	-0.039270014
141	0x3de916b5	0.11381284
142	0xbdec4549	-0.115366526
143	0xbdaa96df	-0.083295576
144	0xbea58c1a	-0.32333452
145	0xbd7732d3	-0.060351204
146	0x3e05b303	0.13056569
147	0xbda0266b	-0.07819828
148	0x3d95b842	0.07310535
149	0xbcb2e328	-0.021836832
150	0xbdc41a57	-0.095753364
151	0x3ca4fe43	0.020140773
152	0xbdb9084d	-0.090347864
153	0xbdbc5afe	-0.09197043
154	0x3de0ac95	0.109704174
155	0xbdd1ac50	-0.10237944
156	0x3e1081d9	0.14112033
157	0x3d855d39	0.065119214
158	0xbe131024	-0.14361626
159	0xbdae4a1e	-0.085102305
160	0xbe09e3dc	-0.13465828
161	0x3e251aaa	0.16123453
162	0xbe98dc38	-0.29855514
163	0xbe06268b	-0.1310064
164	0xbe3ab6f7	-0.18233858
165	0xbe5fc86a	-0.21853796
166	0xbda0b27f	-0.078465454
167	0xbc82e301	-0.015977385
168	0xbe5b4973	-0.21414737
169	0xbeb923b0	-0.3616004
170	0x3e18c6ca	0.14919582
171	0xbe30f38e	-0.17280409
172	0xbda0248b	-0.0781947
173	0x3cfba20e	0.030716922
174	0xbdbbdb1e	-0.09172653
175	0xbea050ab	-0.31311545
176	0xbe192b6b	-0.14957969
177	0xbea06fa8	-0.31335187
178	0xbda1f157	-0.0790736
179	0xbe9548e3	-0.2915717
180	0x3d9a8dce	0.07546578
181	0x3c2ff7bd	0.010740218
182	0xbd4604be	-0.048344366
183	0xbe1a2a68	-0.15055239
184	0xbe8459e9	-0.25849846
185	0xbde5c5ba	-0.11219354
186	0xbdb4c667	-0.08826905
187	0xbd97a6f2	-0.07404889
188	0xbda0b755	-0.07847468
189	0xbc392400	-0.011300087
190	0xbd6577fa	-0.05602262
191	0xbe32414b	-0.1740772
192	0xbd7d4da2	-0.061841615
193	0xbdbd76b3	-0.09251156
194	0x3d7aa93a	0.061196543
195	0xbd92e6d4	-0.07172933
196	0x3c1f85ba	0.009736473
197	0x3db9c85b	0.09071418
198	0xbdd7bc2b	-0.10533937
199	0x3d39716e	0.04527419
200	0xbdde7b51	-0.108633645
201	0x3dcd2cab	0.10018285
202	0x3de7c2b8	0.113164365
203	0x3dc750ef	0.09732234
204	0xbda912ba	-0.08255525
205	0xbc0e07f2	-0.0086688865
206	0xbe63e9a8	-0.22257102
207	0xbe8c3355	-0.27382913
208	0xbcc446ab	-0.023959478
209	0xbdf8d6fd	-0.12150381
210	0xbda62fbc	-0.08114573
211	0xbd153784	-0.036429897
212	0xbd3abc26	-0.04558959
213	0x3d4adea5	0.049528737
214	0xbdd8b96c	-0.105822414
215	0x3c26e352	0.010186033
216	0x3dea5db3	0.11443653
217	0xbe612efc	-0.2199058
218	0x3e17ef7c	0.1483745
219	0xbd0371af	-0.03209084
220	0xbd91f764	-0.07127264
221	0x38665b20	5.492114e-05
222	0x3dacd72e	0.0843948
223	0xbda4792c	-0.08030924
224	0xbeae8c1d	-0.34091273
225	0xbe477176	-0.19476876
226	0xbebf59bc	-0.3737315
227	0xbdf7df75	-0.12103168
228	0xbde005f6	-0.10938637
229	0x3dfad65c	0.12247917
230	0x3befe182	0.007320584
231	0x3e58157e	0.21101949
232	0xbdcf4a43	-0.10121586
233	0x3e0cddad	0.13756438
234	0x3e02b6df	0.12765072
235	0xbcbe668f	-0.023242263
236	0xbe2dd967	-0.16977464
237	0xbd184a06	-0.03717997
238	0x3dd3dafd	0.10344503
239	0x3d72f62e	0.059316806
240	0xbd11955e	-0.03554284
241	0xbd57f645	-0.052725095
242	0xbe23d4bc	-0.1599912
243	0x3dc59773	0.09648027
244	0xbdc435a5	-0.095805444
245	0x3d9e2005	0.07720951
246	0xbda2a78e	-0.07942115
247	0xbd6075b8	-0.054799765
248	0x3d8bf83b	0.068344556
249	0xbd8f4fad	-0.06997619
250	0xbdc91667	-0.09818726
251	0xbe769dd4	-0.24083644
252	0xbe32a508	-0.17445767
253	0xbd88444f	-0.06653654
254	0xbd084968	-0.03327313
255	0x3cf0e826	0.029407572

output_mlp.0.weight f4 [128, 512]
0	0x3dcc0c21	0.09963251
1	0x3c95b22f	0.018273441
2	0xbedb81dc	-0.42872512
3	0xbe544520	-0.20729494
4	0x3d8a8d32	0.06765212
5	0xbda07d4e	-0.078364
6	0x3c0e2a97	0.008677146
7	0x3efdef7d	0.49596778
8	0x3e8655ff	0.26237485
9	0xbe472872	-0.19449022
10	0xbdf83c4e	-0.12120877
11	0xbf037400	-0.51348877
12	0xbbf25827	-0.0073957625
13	0xbd95b9f0	-0.073108554
14	0x3e0c747d	0.13716312
15	0x3ed9593e	0.424509
16	0x3e398137	0.18115698
17	0xbe4b2335	-0.19837649
18	0x3e6cc792	0.23123005
19	0xbe57a1a1	-0.2105775
20	0xbec4d0cd	-0.38440552
21	0xbd0fb14a	-0.035081185
22	0xbdcc85bc	-0.09986445
23	0xbc77d510	-0.015126482
24	0x3e0e6220	0.13904619
25	0xbdf495e6	-0.11942653
26	0xbd94f585	-0.07273392
27	0xbe84bd3b	-0.2592562
28	0xbea2cafe	-0.31795496
29	0x3d923063	0.07138135
30	0x3e804da8	0.25059247
31	0xbdcb30e8	-0.099214375
32	0xbe84efe4	-0.25964272
33	0x3cf24cf0	0.029577702
34	0x3e4a6567	0.19765244
35	0xbd034928	-0.03205219
36	0x3e1226fc	0.14272684
37	0xbee379e3	-0.4442893
38	0x3d60bf92	0.054870196
39	0xbd2b16d2	-0.04176981
40	0xbdce18a0	-0.100632906
41	0xbd8b9b6f	-0.06816756
42	0xbef81a55	-0.4845759
43	0xbe404b0f	-0.18778633
44	0xbdcb6d44	-0.0993295
45	0x3d7cf313	0.06175525
46	0xbe86c85f	-0.26324746
47	0x3dc768fb	0.0973682
48	0x3cfce024	0.030868597
49	0xbd1879e4	-0.03722562
50	0xbdc9eabf	-0.098592274
51	0xbba4f5b0	-0.005034171
52	0x3e661b0e	0.22471258
53	0xbdffb6a6	-0.12486009
54	0xbe92df51	-0.28686002
55	0xbe476967	-0.19473802
56	0xbdbeb04e	-0.09310971
57	0x3d43431a	0.047671415
58	0xbca6d1ec	-0.02036377
59	0x3de2d8fe	0.11076544
60	0xbed02b71	-0.40658143
61	0x3d60923d	0.054826964
62	0xbeb56e4d	-0.35435715
63	0x3e8d698d	0.2761959
64	0xbe8e2c55	-0.27768198
65	0xbdaa8bcf	-0.083274476
66	0x3d658f26	0.05604472
67	0x3e70ce14	0.23516113
68	0xbd0d1db5	-0.03445216
69	0x3efcd056	0.49377698
70	0xbeda900d	-0.42688027
71	0x3d4716d4	0.048605755
72	0xbe255506	-0.16145715
73	0xbec2e1be	-0.38062853
74	0xbe113ed8	-0.14184129
75	0xbf014131	-0.504901
76	0xbeacff96	-0.33788747
77	0xbc4f0419	-0.012635254
78	0x3e0fceb3	0.14043693
79	0x3da37634	0.0798153
80	0xbe15c733	-0.1462677
81	0x3e45d034	0.19317704
82	0x3ee10201	0.4394684
83	0xbebf9340	-0.3741703
84	0x3ed7be38	0.42137313
85	0x3d5043cc	0.050845906
86	0xbeef475c	-0.4673413
87	0xbe046566	-0.12929305
88	0xbdb3676b	-0.0875996
89	0x3cb5eb8f	0.02220705
90	0x3e034f98	0.12823331
91	0x3d6ae50d	0.057347346
92	0x3e012bce	0.12614366
93	0x3e044484	0.12916762
94	0xbe2c9a88	-0.16855824
95	0x3ea13f44	0.3149358
96	0x3df7b384	0.12094787
97	0xbef82776	-0.48467606
98	0x3df2e9c7	0.11860996
99	0xbe3b5b5e	-0.18296573
100	0x3ec4a676	0.3840825
101	0xbe64cf6a	-0.22344747
102	0x3de3aa54	0.11116472
103	0xbea1873b	-0.31548485
104	0x3e9c52da	0.3053196
105	0xbe853061	-0.26013473
106	0xbe37fe96	-0.1796821
107	0x3e6a140a	0.22859207
108	0x3d3c5e51	0.045988385
109	0xbea86f40	-0.32897377
110	0x3ec2388c	0.37933767
111	0xbd4668be	-0.048439734
112	0x3e88d920	0.26728153
113	0xbe376bc1	-0.17912199
114	0x3c961bd1	0.01832381
115	0xbe2c8ba3	-0.16850142
116	0xbe83d646	-0.25749415
117	0xbe14cae0	-0.14530516
118	0xbe1f0d53	-0.15532427
119	0xbdb4a89d	-0.08821223
120	0xbdff39cf	-0.12462198
121	0x3d12c3b9	0.035831187
122	0x3dc109be	0.09425686
123	0x3e0fa07c	0.14026064
124	0x3ee12cc0	0.43979454
125	0x3d889c7e	0.066704735
126	0xbe3a54ed	-0.18196459
127	0x3e8874c0	0.26651573
128	0x3e8d9d66	0.27659148
129	0xbef0a371	-0.46999696
130	0xbe0251c3	-0.12726502
131	0x3ee242ac	0.44191492
132	0x3dd349d5	0.10316817
133	0xbe8ebb4f	-0.2787728
134	0xbca25a26	-0.019818377
135	0xbc36d96c	-0.011160236
136	0x3e672832	0.22573927
137	0x3e40df8a	0.18835273
138	0xbeff85a7	-0.49906656
139	0x3e14ddef	0.14537786
140	0xbec21a0b	-0.37910494
141	0x3dd9f2f6	0.10642044
142	0x3dfe9e6e	0.12432562
143	0x3dcdc8a0	0.10048032
144	0x3e1a5d1a	0.15074578
145	0xbe4221bd	-0.18958183
146	0x3e7e34c8	0.24824822
147	0xbf30a89b	-0.6900727
148	0xbd624ecf	-0.05525094
149	0xbf116dcf	-0.5680818
150	0xbeb211d8	-0.3477924
151	0x3c0ad9af	0.008474751
152	0xbed28e5d	-0.4112424
153	0xbdab9647	-0.083782725
154	0xbee65134	-0.44983828
155	0x3e488cff	0.19585036
156	0x3ea075ff	0.31340024
157	0xbbf27c5c	-0.0074000787
158	0x3e291271	0.16510941
159	0xbe34c8ea	-0.17654768
160	0xbf2f640c	-0.68512034
161	0xbc3e1433	-0.011601496
162	0xbeb012f3	-0.34389457
163	0x3e7f37fb	0.24923699
164	0xbe76727c	-0.2406711
165	0xbed6d4ac	-0.4195913
166	0xbea9e169	-0.33179787
167	0xbd667605	-0.056264896
168	0xbd9e08d3	-0.07716527
169	0x3cc2983a	0.023754228
170	0x3ef301f1	0.4746242
171	0xbddca20b	-0.10773095
172	0x3ce8c200	0.028412819
173	0x3dbf7d84	0.09350112
174	0x3db00d5f	0.085963
175	0xbde621b2	-0.112368956
176	0xbe6bb81e	-0.23019454
177	0x3b9f70dd	0.0048657493
178	0x3d59698e	0.05307918
179	0xbecb9e6c	-0.39769304
180	0x3e81693e	0.25275606
181	0x3c92b039	0.017906295
182	0xbd860f8b	-0.06545933
183	0xbe599e90	-0.21251893
184	0xbee55acc	-0.44795835
185	0xbe838e0c	-0.2569431
186	0xbe87e8c3	-0.2654477
187	0x3e4addb8	0.19811141
188	0xbebcc30f	-0.36867568
189	0xbcfa2810	-0.030536681
190	0xbe9bdac4	-0.30440342
191	0xbd57dc6a	-0.052700438
192	0x3d90c9d8	0.07069749
193	0xbe858db0	-0.2608466
194	0x3d4ccf2d	0.050002266
195	0x3e8ad8c5	0.27118507
196	0xbdf4f0f6	-0.11960022
197	0x3e538a1e	0.20658156
198	0xbe269a88	-0.16269886
199	0x3df8678c	0.12129125
200	0xbdfc2d25	-0.12313298
201	0x3e9e05c3	0.3086377
202	0x3eab6a8a	0.3347972
203	0x3e434077	0.1906756
204	0xbea7a4a5	-0.327428
205	0x3ec0693a	0.37580281
206	0xbe7b0870	-0.24514937
207	0x3d8fd9af	0.07023942
208	0xbeb53add	-0.35396472
209	0x3e148cf4	0.14506894
210	0xbe35ff10	-0.1777308
211	0x3e3c587b	0.18393128
212	0x3e9dc0e3	0.30811223
213	0x3ec82829	0.3909314
214	0x3cd09b83	0.025464779
215	0x3db88648	0.09009987
216	0x3ed9accd	0.4251465
217	0xbacdfa48	-0.0015714848
218	0x3da560f2	0.080751315
219	0xbd8faf58	-0.07015866
220	0x3e61b8ef	0.22043203
221	0xbeeea015	-0.46606508
222	0x3e57baa2	0.21067289
223	0xbe6c7f27	-0.2309538
224	0x3d778cf0	0.060437143
225	0xbe2c9ba9	-0.16856255
226	0xbebd7a12	-0.37007195
227	0xbe0ee524	-0.13954598
228	0xbe691ce1	-0.22764923
229	0x3ea59b50	0.32345057
230	0x3e5e4a0c	0.21707934
231	0xbe29b4ff	-0.16572951
232	0xbe34d770	-0.17660308
233	0x3ec6567c	0.38737857
234	0x3ed34222	0.41261393
235	0xbe2eb56f	-0.17061399
236	0xbe47c737	-0.19509588
237	0xbe4fea8b	-0.20304315
238	0x3e8caef4	0.2747723
239	0x3eee3a20	0.4652872
240	0xbc0b56c8	-0.008504577
241	0xbe69d26c	-0.22834176
242	0xbea8c43f	-0.32962224
243	0x3e9f5208	0.31117272
244	0xbcb886b2	-0.022525165
245	0x3e2fb370	0.17158294
246	0xbe6b436f	-0.22974943
247	0x3d2768ca	0.04087142
248	0xbe45ce35	-0.19316943
249	0xbd9b4d63	-0.0758312
250	0xbe749a7e	-0.23887059
251	0xbeba3285	-0.36366668
252	0xbe56bd08	-0.20970547
253	0x3e8faed8	0.28063083
254	0x3eebeddc	0.4607991
255	0xbec20a90	-0.37898684

output_mlp.0.bias f4 [128]
0	0xbe8d1f5d	-0.2756299
1	0xbd122a66	-0.035684966
2	0x3e725528	0.23665297
3	0xbdc58dbf	-0.096461765
4	0x3cdc6a0d	0.026906038
5	0x3e484104	0.19556051
6	0xbcef1d3d	-0.029188747
7	0xbdbace00	-0.09121323
8	0x3c8a359b	0.016871264
9	0x3d8b48db	0.068010055
10	0x3f7445d1	0.9541903
11	0xbee445a5	-0.44584385
12	0xbda949bf	-0.08266019
13	0xbe0597a2	-0.13046125
14	0xbe658adf	-0.22416256
15	0xbd6fd706	-0.05855467
16	0xbaa83779	-0.0012833915
17	0x3ef81376	0.48452348
18	0x3d893ca8	0.067010224
19	0x3cca25a8	0.024676159
20	0x3a9b6dad	0.0011858247
21	0x3daca5da	0.08430071
22	0xbe0a709c	-0.1351952
23	0xbd8619ba	-0.06547876
24	0xbdf82a88	-0.12117487
25	0x3d9cb8e5	0.07652453
26	0x3d45e5e0	0.04831493
27	0xbdc89622	-0.097942606
28	0x3eca88e7	0.39557573
29	0xbe81e04c	-0.25366437
30	0x3c98224b	0.01857104
31	0xbe13c184	-0.14429289
32	0x3d5d562f	0.05403727
33	0x3cd006bf	0.025393842
34	0xbe3d57f1	-0.18490578
35	0xbdb20c1e	-0.086937174
36	0x3c811bc4	0.01576031
37	0xbe2e06ac	-0.16994733
38	0x3e038f3b	0.12847607
39	0xbda5a6af	-0.08088433
40	0xbddb4efb	-0.10708424
41	0x3e3a6aad	0.18204756
42	0xbdb98d13	-0.09060111
43	0xbe41613b	-0.18884747
44	0x3d1c3214	0.038133696
45	0xbdc6ed65	-0.09713248
46	0xbd06cae2	-0.032908328
47	0xbc539ffb	-0.01291656
48	0xbc2d4ce7	-0.010577417
49	0x3e767add	0.24070306
50	0xbe651224	-0.22370201
51	0xbe370238	-0.1787194
52	0xbe224b32	-0.15848997
53	0x3d8fd207	0.070224814
54	0xbdedc163	-0.11609151
55	0x3d8564a8	0.06513339
56	0xbdd34591	-0.10316003
57	0xbe348685	-0.1762944
58	0xbd91b03c	-0.07113692
59	0x3ddb6882	0.10713293
60	0xbe302e6b	-0.17205207
61	0xbd947e74	-0.072506815
62	0x3bfb60eb	0.0076714656
63	0x3eeb30f2	0.4593578
64	0xbd661ee4	-0.056181803
65	0xbd787336	-0.06065675
66	0xbe3c3413	-0.1837924
67	0xbdb98a16	-0.09059541
68	0xbd6f80f1	-0.058472577
69	0xbcdea14c	-0.027176522
70	0x3f033f9a	0.51268923
71	0x3de0eff7	0.1098327
72	0x3b478652	0.0030445051
73	0x3e9eef2e	0.31041855
74	0xbea050f2	-0.31311756
75	0xbe03079c	-0.12795871
76	0xbdddda8e	-0.108327016
77	0xbdaa4150	-0.083132386
78	0x3d8191b9	0.063266225
79	0xbe23e65d	-0.16005845
80	0xbc2bd0e8	-0.010486819
81	0x3e1729dc	0.14762062
82	0x3d382d15	0.04496487
83	0xbdf814f1	-0.12113369
84	0xbebc8d40	-0.36826515
85	0xbe21975e	-0.15780398
86	0xbe8ac652	-0.2710443
87	0xbcd47f3c	-0.025939576
88	0x3d2b1cf0	0.041775644
89	0xbd5417ce	-0.051780514
90	0x3d13218b	0.03592066
91	0xbd7ea3b2	-0.06216783
92	0x3ac73bf4	0.0015200363
93	0xbce22857	-0.027607126
94	0xbe939133	-0.28821716
95	0xbc2f6c16	-0.010706922
96	0x3e9ccfa2	0.3062716
97	0xbd1b8af0	-0.037974298
98	0xbdb90d49	-0.09035737
99	0xbe380b2b	-0.1797301
100	0x3cbd2e7a	0.02309345
101	0x3d2d0699	0.04224262
102	0x3dec00e4	0.115236074
103	0x3d2d3ea9	0.042296086
104	0xbe9204bc	-0.28519237
105	0xbbbae97f	-0.0057041044
106	0xbf0a4554	-0.54012036
107	0xbd146395	-0.03622778
108	0x3e45a8fc	0.19302744
109	0xbd989a1c	-0.07451269
110	0xbd848ec1	-0.06472541
111	0xbe484433	-0.19557266
112	0x3dc9b965	0.09849814
113	0xbd028699	-0.031866644
114	0xbe1c1215	-0.15241273
115	0xbc50f41f	-0.0127535155
116	0xbe1caa0c	-0.15299243
117	0x3c150502	0.009095432
118	0x3c9d5d7d	0.019209618
119	0xbe3a06b5	-0.18166621
120	0x3e01568d	0.12630673
121	0x3cf66392	0.030076776
122	0xbd790e4e	-0.060804658
123	0x3d0e2838	0.034706324
124	0xbde26768	-0.110548794
125	0xbeb327bc	-0.34991252
126	0x3ef5b667	0.47990724
127	0x3e3e95c4	0.18611819

output_mlp.2.weight f4 [9, 128]
0	0x3f8131e5	1.0093352
1	0xbdff6d67	-0.12472039
2	0xbe2bc019	-0.16772498
3	0xc039f49b	-2.9055545
4	0xbe93cc3c	-0.28866756
5	0x3e6eef16	0.23333392
6	0xc077b628	-3.870493
7	0xbf785f15	-0.97020084
8	0x3dcc17c2	0.09965469
9	0xbec3a285	-0.3820993
10	0x3e030933	0.12796478
11	0xc008f186	-2.1397414
12	0xc00c4b76	-2.1921058
13	0xc0c5cb37	-6.1810565
14	0x3db50dd8	0.08840531
15	0xbf086745	-0.53282577
16	0xbf5797e8	-0.84216166
17	0x3e1296aa	0.14315286
18	0x3e0dc6a7	0.13845311
19	0xc0000ec5	-2.0009015
20	0x3de78426	0.11304502
21	0xbf514fd6	-0.81762445
22	0xc0b03280	-5.5061646
23	0xbf3160d0	-0.6928835
24	0xc00c07bd	-2.1879723
25	0xc03970c8	-2.8975086
26	0xbf458c7b	-0.7716748
27	0xc04f7967	-3.2417848
28	0x3dfea00a	0.12432869
29	0xbd9cafb3	-0.076506995
30	0x3fbbb540	1.4664688
31	0xbf802d73	-1.001387
32	0xbe100e8d	-0.1406805
33	0xbdc861c8	-0.09784275
34	0xc097aeb0	-4.740074
35	0xbf76bbe0	-0.96380424
36	0x3cf1576a	0.029460628
37	0xc005ebc1	-2.0925143
38	0x3e004c0a	0.12529007
39	0xbdbe3142	-0.09286739
40	0xbebb066c	-0.36528337
41	0x3e7a731f	0.24457978
42	0xc067b80d	-3.6206086
43	0xc1037618	-8.2163315
44	0xbdb8f86d	-0.090317585
45	0x3fd880f0	1.6914349
46	0xc0defa32	-6.9680414
47	0x3dbb308b	0.09140118
48	0xbfff5463	-1.9947628
49	0x3e004dcf	0.12529682
50	0x3dff3c8e	0.12462722
51	0xc0ae1b6d	-5.440848
52	0xc0d59422	-6.6743326
53	0xbebb7b39	-0.3661745
54	0xc0471c86	-3.111116
55	0xbda3c9f9	-0.079975076
56	0x3f4d4d7b	0.8019635
57	0xc09f1b11	-4.972054
58	0xc0650ec9	-3.5790274
59	0xbf959c25	-1.1688277
60	0xc0871052	-4.220742
61	0xc0686baf	-3.6315725
62	0xc01f4349	-2.4884818
63	0xbe3f1d6d	-0.18663569
64	0x3e240f34	0.16021425
65	0x3dc96b21	0.09834886
66	0xc0eb0693	-7.3445525
67	0xc0338085	-2.8047192
68	0xbf37d0ec	-0.71803164
69	0xc088fbaa	-4.2807207
70	0x3d9e5f60	0.07733035
71	0xbf96809e	-1.1758001
72	0x3e5080f8	0.20361698
73	0x3dea1cf1	0.114313014
74	0xc05914ca	-3.3918939
75	0xbf21c44b	-0.63190144
76	0xbff04fab	-1.8774313
77	0x3f3b385f	0.7313289
78	0x3fa62732	1.2980711
79	0xc0afa3b3	-5.488733
80	0xc08e76c7	-4.451999
81	0x3d8ab448	0.06772667
82	0x3f0e0f18	0.5549178
83	0x3f22e003	0.63623065
84	0xbf084928	-0.5323663
85	0xbfb7d1b7	-1.4360875
86	0xbff3a965	-1.903607
87	0xc0303584	-2.7532663
88	0xbdeffb54	-0.11717859
89	0xbeb4b61d	-0.3529519
90	0x3d3247df	0.043525573
91	0xbf06e346	-0.5269054
92	0xbe7d0c5e	-0.24711749
93	0xc00c30de	-2.1904826
94	0x3f80fc0f	1.0076922
95	0xbf44b7c5	-0.7684291
96	0xbecc378f	-0.39886138
97	0xc08aadc1	-4.33371
98	0xc022c9c8	-2.5435658
99	0x3fd84a0a	1.6897595
100	0xbe902aa9	-0.28157547
101	0xbf1111d9	-0.5666786
102	0xbeaa2419	-0.33230665
103	0xbf9913c6	-1.1959159
104	0xbfea555a	-1.8307297
105	0xc0475ac0	-3.114914
106	0xbdae8485	-0.0852137
107	0xc02906ac	-2.6410322
108	0xbc6e128d	-0.01453079
109	0xbf9dc92c	-1.2327018
110	0xc0b510ac	-5.658285
111	0xc0a73c92	-5.226144
112	0xbd97ccc3	-0.07412102
113	0xc0398493	-2.8987167
114	0xc0ab8ccc	-5.360937
115	0xc0598733	-3.398877
116	0xc095d062	-4.6816874
117	0xc046d77c	-3.1069021
118	0xbd3dc752	-0.046332665
119	0xc0a89ec8	-5.2693825
120	0xb9ca00eb	-0.00038529126
121	0xbd8072a9	-0.0627187
122	0x3fa78a7d	1.3089138
123	0xbd4bc508	-0.04974845
124	0xbeb1bd53	-0.34714755
125	0xc032660f	-2.7874792
126	0x3de23293	0.110448025
127	0xbe1f51e0	-0.15558577
128	0xbf9270b5	-1.1440645
129	0x3e88212d	0.2658781
130	0xbbfe4aba	-0.007760373
131	0x40382945	2.877519
132	0x3cd064f3	0.025438761
133	0x3c261e2f	0.010139032
134	0x407a842b	3.914317
135	0xbf068102	-0.525406
136	0x3e1886cb	0.1489517
137	0x3ee9dd62	0.45676714
138	0x3d0d017e	0.03442525
139	0xbf86aacc	-1.0520873
140	0x3fbc11ea	1.4692967
141	0x40ab63f3	5.355951
142	0x3dc29ae9	0.09502203
143	0x3e294f34	0.1653412
144	0x3f0e84a6	0.55671155
145	0xbd3e425f	-0.046450015
146	0xb96469a6	-0.00021783132
147	0x3f14352f	0.5789365
148	0x3e341a6d	0.17588206
149	0x3f0adf6f	0.5424718
150	0x40a4119f	5.127151
151	0xbec08352	-0.3760019
152	0x3fd97840	1.6989822
153	0x3fdf9fcb	1.747064
154	0x3ed79bc9	0.42111042
155	0x4035e700	2.8422241
156	0x3d83945f	0.06424784
157	0xbf80c9db	-1.0061601
158	0xbf9f6d91	-1.2455312
159	0x3e6e5aa3	0.23276763
160	0x3dd921a4	0.106021196
161	0x3d806f28	0.06271201
162	0x408f186b	4.4717307
163	0x3effe8aa	0.49982196
164	0xbd915b46	-0.07097487
165	0x3f7aafc1	0.9792443
166	0x3d638b17	0.05555257
167	0xbea422aa	-0.32057697
168	0xbf3c30b9	-0.73511845
169	0xbe19d707	-0.15023433
170	0x4058f7ec	3.390132
171	0x40fcb552	7.897134
172	0x3dc31284	0.09525016
173	0xc005ccd8	-2.0906277
174	0x40dc53d4	6.885233
175	0x3e10dfdb	0.14147894
176	0x3fa5665e	1.2921865
177	0x3a02a4b5	0.00049836497
178	0x3c8e8b4c	0.017400406
179	0x409e97a5	4.9560113
180	0x40cc0abb	6.37631
181	0x3f00f3f4	0.5037224
182	0x402370ba	2.5537553
183	0x3d8ce2fd	0.06879232
184	0xbf99b873	-1.2009414
185	0x4094502b	4.634786
186	0x3f9cacd6	1.2240245
187	0x3f9bbdbc	1.2167277
188	0x3fc82009	1.5634776
189	0x405b44e8	3.4260807
190	0x3ff76d91	1.9330312
191	0x3d5acdf2	0.05341906
192	0x3bd1b9ec	0.0064003374
193	0x3df4fbe6	0.11962108
194	0x40e0afc2	7.021455
195	0x40322553	2.783528
196	0x3eef8cea	0.46787196
197	0x4077c1dd	3.8712075
198	0x3da8cf95	0.08242718
199	0x3f830c64	1.0238156
200	0x3c9fb13c	0.019493692
201	0x3d2da1ca	0.042390622
202	0xbf889549	-1.0670558
203	0xbeb57c20	-0.35446262
204	0x3f3c38b8	0.73524046
205	0x3ff71c85	1.9305578
206	0xbfa3c481	-1.2794343
207	0x40a5c826	5.180682
208	0x3fbb5755	1.4636027
209	0xbcc3b532	-0.023890112
210	0xbe93fb8e	-0.28902858
211	0x3fd280ec	1.6445594
212	0xbe154ccc	-0.14580077
213	0xbf75dad6	-0.9603704
214	0xc01c6b2b	-2.444041
215	0x3ffbdbf4	1.9676499
216	0x3df26698	0.118359745
217	0x3e55dd12	0.20885113
218	0x3e0ad92b	0.13559406
219	0xbcf03599	-0.029322432
220	0x3e947e03	0.2900239
221	0x3f75119f	0.9573001
222	0xbfbf8714	-1.4963098
223	0x3f295ac0	0.661541
224	0x3eb61751	0.35564664
225	0x407e14ec	3.970027
226	0x3efbb9e0	0.4916525
227	0xbd90a8dc	-0.07063457
228	0x3ebb098a	0.36530715
229	0x3eacc5d3	0.33744678
230	0xbeda6b8d	-0.4266018
231	0x3f2571f4	0.64627004
232	0xbedc6d7e	-0.43052286
233	0x3ffffc8f	1.999895
234	0x3e454c12	0.192673
235	0x4018a9af	2.3853567
236	0x3da9a36b	0.08283123
237	0x3f712996	0.9420408
238	0x40d69aa2	6.706376
239	0x40a75a4e	5.2297735
240	0x3e00f6f9	0.12594213
241	0x3feafc7e	1.8358305
242	0x409df514	4.936167
243	0x3feb5449	1.8385097
244	0x4084dfa9	4.1523023
245	0x3f745347	0.9543957
246	0x3df28865	0.118424214
247	0x409f12d8	4.9710503
248	0x3e27c866	0.1638504
249	0x3dee881c	0.116470546
250	0xc00296e4	-2.0404596
251	0x3d99f2e3	0.0751703
252	0x3e10623a	0.1409997
253	0x3f6a5d34	0.91548467
254	0x3d2fd4fe	0.042927735
255	0x3e08ce77	0.1336001

output_mlp.2.bias f4 [9]
0	0x3dbe2cea	0.092859104
1	0x3db74c3c	0.089500874
2	0xbd917772	-0.071028605
3	0xbc29c3b3	-0.0103616
4	0xbeb559aa	-0.3541997
5	0xbd909b53	-0.07060876
6	0xbd987432	-0.074440375
7	0xbe5aedd8	-0.21379793
8	0xbd971262	-0.07376553
