log/segmentation/pn/bucket/weighted-1/pn_50.pth (torch, 337359 bytes, 8 tensors)

local_mlp.0.weight f4 [64, 3]
00000000: 6e99 0f3f bc52 623d 6654 a2be 8728 843e
00000010: 3c60 963d 933e 2c3e 26c4 a93e 3767 293e
00000020: 2d23 273e 4e20 76be c159 1f3e cefb 96be
00000030: 9b59 763e ae25 a23c 9fff 2b3e 1dba 443e
00000040: 3b3f 05bd 39ae 423e e384 0d3d 8abb 4bbe
00000050: 914f 8d3e a396 9a3e 9078 ad3d c9f7 1d3e
00000060: 45b2 023f 5ba7 413e c5ea 303e c165 8e3b
00000070: 676e 8fbf e087 d0be fc3e a03e c204 aebd
00000080: b6c0 073e 8f7d 033f 8c40 a5bd e91e c7be
00000090: 395a 7a3f ae3a e73e 4d62 afbe c7ca 0ec0
000000a0: 898f 0f3f ab9c bc3e 0b90 1abe 0ea8 9440
000000b0: 3188 29bd 9782 0a3f a610 38bc 39a4 b1be
000000c0: 39f2 d33d 41f9 b6be 89e8 3f3e b8bd 9a3e
000000d0: 2e2c fc3d 5cb7 273e ecd9 e73d 4888 18c0
000000e0: 7315 9a3e 9fc2 d23e e3c2 e2bb 3a23 f23d
000000f0: 6634 f0be 0579 87bf 8552 d4bd 51b3 343c
00000100: 9de3 6cbe 5d2e 863e a274 4c3d 37a0 d6be
00000110: b4c1 573e 1b89 1e3e 4697 253e f8dc 573e
00000120: d466 553e e9cb de3c 656e 3d3e 4417 643e
00000130: ba5f d33d 33fc 3d3e 4fda 8bbf ff97 4abf
00000140: 827a a33e 9852 353e 042e e43c e18c 4b3e
00000150: 22da d53d 20b2 b03d ad44 663e e1e0 1b3f
00000160: 14f5 02bd 6f40 aebe 9912 093f ad9f 8d3d
00000170: afc3 acbe a097 c03e 72cd 523e 85f7 1b3e
00000180: fb77 9e3e 9ace a3be f7d8 e2be 16d6 6d3d
00000190: 6000 0bbf f510 553e cab6 763e 14ea 81be
000001a0: ea53 203e b2d1 133f 7645 b63d 1757 e1be
000001b0: 2a8b 9bbd 9788 82be 5141 a43e aaa2 2f3f
000001c0: 1a9c 063e 9c59 9ebe 9416 013d b93b 2dbf
000001d0: af7a 693e 1aeb 04bf 3e00 c23d df4b ddbd
000001e0: c29e 9d3e 4f33 10bd 8d89 183e b71e d63e
000001f0: 4397 8fbd 12c6 c4be 8291 173f 3743 1e3d
00000200: 2796 bdbe 0a80 ed3e 29ff cc3c 6db4 9fbe
00000210: 98b3 1c3e 25af 943d 4729 563e f6d8 8e3e
00000220: 5d7c d1be b95c 073e 53de 8fbf 2b66 fabf
00000230: 421c 693e 1d67 1abf 365f 02c0 36a3 803d
00000240: 3a66 c53e 859e e5ba 38c4 053e 73b6 3bbf
00000250: 9922 013f 1fa5 c13c bcf8 863e 6ab9 8e3c
00000260: 68b5 243e 1ba1 eb3e 1c6c dbbd db5b d1be
00000270: 4f16 f03d 8992 82bf 15a3 4d3e f9d0 1f3f
00000280: 66d5 a93d a748 b6be 8bc5 2b3f ff89 ca3d
00000290: 8d0a b7be f704 9f3e 8106 363e c572 263e
000002a0: 0752 b13e 43ad d4bd fcc2 0a3e 2d95 8d3d
000002b0: 40d3 afbc 6998 783e b50d 493f 721c 463e
000002c0: 34b6 b3be b4c1 aebe 95c5 303f 3b5d 09be
000002d0: 65a8 083e 302d 34c0 b4c6 5bbe a99f 3c3e
000002e0: b4e2 8fbd 2228 473e 7663 373f f1cc 03be
000002f0: e61c 9ebe f1ac 853e 3e88 333e e268 3b3e
0.5609349 0.055254683 -0.31705016 0.2581217 0.07342574 0.16820745 0.33157462 0.1654328
0.16322012 -0.24035761 0.15561582 -0.29488987 0.2405762 0.019793358 0.1679673 0.19211622
-0.032531004 0.19011773 0.03455056 -0.19895759 0.27599767 0.30193052 0.08470261 0.15426554
0.5105327 0.18911497 0.17277057 0.004345626 -1.1205567 -0.40728664 0.31298053 -0.08497001
0.13257107 0.5136346 -0.08068952 -0.3889077 0.9779392 0.45161957 -0.34254685 -2.2311265
0.5607839 0.36838278 -0.1509401 4.6455145 -0.041389648 0.54105514 -0.011234438 -0.34695604
0.10348935 -0.3573704 0.18741049 0.3022287 0.12313114 0.1637854 0.11320862 -2.383318
0.3009449 0.4116411 -0.006920205 0.11823125 -0.46914977 -1.0583807 -0.10367302 0.0110290805
-0.23133703 0.26207247 0.049915917 -0.4191911 0.21069986 0.15481989 0.16170987 0.21080387
0.20840007 0.027196841 0.18499143 0.222745 0.10320993 0.18553238 -1.0925997 -0.7913818
0.31929404 0.17707288 0.027853973 0.1987796 0.10441996 0.08627725 0.22487135 0.6089001
-0.031972006 -0.34033534 0.53544 0.06915221 -0.33743045 0.3761568 0.20586184 0.1523114
0.30950913 -0.31993562 -0.44306156 0.058065496 -0.5429745 0.2080725 0.24093166 -0.253739
0.1565701 0.57741845 0.08899967 -0.44011757 -0.07594903 -0.25494835 0.32081082 0.6860758
0.13145486 -0.30927742 0.031515673 -0.67669255 0.22800706 -0.51921237 0.094727024 -0.10805487
0.30785185 -0.03520518 0.14896221 0.4182031 -0.07011273 -0.38432366 0.592064 0.03863832
-0.3702862 0.4638675 0.025024014 -0.3119234 0.15302885 0.07259969 0.20914184 0.27899903
-0.40915194 0.13218965 -1.1239723 -1.9562429 0.22764686 -0.6031359 -2.0370612 0.0628113
0.38554555 -0.0017518556 0.13063133 -0.7332527 0.50443417 0.023638306 0.26361644 0.017422397
0.16084826 0.4602135 -0.107139796 -0.40890393 0.11723005 -1.0200969 0.20081742 0.6242824
0.08292656 -0.35602304 0.670983 0.09889602 -0.35750237 0.31058475 0.17775919 0.16254719
0.34632894 -0.103846096 0.13550943 0.06913219 -0.021463037 0.2427689 0.7853654 0.19346789
-0.35099947 -0.3413216 0.69051486 -0.13414471 0.13345487 -2.815258 -0.21462518 0.1842028
-0.07025662 0.19448903 0.7163614 -0.12871148 -0.30881423 0.26108506 0.17532441 0.18301728

local_mlp.0.bias f4 [64]
00000000: 3e97 993d 948b f9be 2732 07bf cc85 2b3f
00000010: 07c3 f2be 09f8 f3be d263 efbe b373 ffbe
00000020: b89a 2abf d410 0b3f 3698 f5be 0e69 613e
00000030: 7704 da3b 58bc 053f 5efc cf3e 4623 0b3e
00000040: 72ed c4be 9d8f 01bf a2e4 85be 040a 07bf
00000050: f234 023f 006d d7be 73a5 c0be e532 ebbe
00000060: a548 f5be e18f f7be 1d1c ea3e 280e f4be
00000070: 0c68 e6be 006b a13d cb53 053e e012 0bbf
00000080: 4598 e13e 9677 c1be 3556 e7be 8074 883e
00000090: 7132 debe 727a ecba da63 c2be 9551 143f
000000a0: 27db 00bf f404 8f3e 414d 103e e679 0d3e
000000b0: 11cf edbe 0075 debe 0710 e83e 8dae f13e
000000c0: 71d2 06bf 11aa 123f 6a86 f7be 82c4 933e
000000d0: 8299 c3be b686 d43d b790 9d3d 1249 03bf
000000e0: 1db7 01bf 2a61 e7be f56d e73c ec2e 053f
000000f0: 3c07 c83e b4fe f4be d07c 50bc f6d9 00bf
0.0749955 -0.48739302 -0.528109 0.6700103 -0.4741442 -0.47650173 -0.46755844 -0.4989296
-0.6664233 0.5432255 -0.4796769 0.22012731 0.0066533643 0.52240515 0.40622228 0.13587674
-0.38462406 -0.5060976 -0.26150995 -0.5274966 0.5086204 -0.42075348 -0.37626228 -0.45937267
-0.47906986 -0.48351958 0.45724574 -0.4766705 -0.45001256 0.07881737 0.13020246 -0.54325676
0.44061485 -0.3778655 -0.45182958 0.26651382 -0.4339786 -0.0018041863 -0.37966806 0.57936984
-0.503344 0.27933466 0.1409197 0.13816032 -0.46447042 -0.4344864 0.45324728 0.47203484
-0.5266486 0.5729075 -0.48344737 0.2886086 -0.38203055 0.103772566 0.07693618 -0.5128337
-0.50670034 -0.45191318 0.028250674 0.5202472 0.3906802 -0.47850573 -0.01272507 -0.5033258

local_mlp.2.weight f4 [256, 64]
00000000: a191 833e 5afc 8cbe 82c1 7abe 9d7b f23e
00000010: f6e9 a2be 3327 c6be 2493 87bf c692 6dbe
00000020: 2246 8fbe 3e99 b33e f3dc b6be 711d 4d3e
00000030: 2f09 82be 3dd9 25bf 200c bbbd 4e38 2d3e
00000040: 883a 41bf 9972 80be f226 87be 5df5 9fbe
00000050: d0e9 933e 1e40 8abf a157 28bf 1097 b0be
00000060: 36f5 b3be a30e 9dbe cc81 8e3d 8d8c a0be
00000070: c195 b3be ebe9 503d bca1 a13e 8315 4ebe
00000080: 0551 473f cbd4 12bf d993 35bf 2cdc 023e
00000090: f187 9fbf 8576 f83d 0302 02bf b487 7f3e
000000a0: 6ba2 94be 9b23 b63e f5a9 f73d 9792 c33e
000000b0: d80e b8be a71a 54bf a3ce 233e 3536 533e
000000c0: dda8 9bbe 6047 cbbd a41b 88be 6796 943e
000000d0: 7ef3 fabe 8377 1a3e 86fa af3d bf69 47be
000000e0: 545b c1be 2419 0abf add5 333d fdb6 51be
000000f0: e105 ab3e 317d e3be 5003 8abe f579 89be
00000100: b9e0 edbe b79c 973e a60e 853e 1bbc cdbe
00000110: ae3f 903e 8924 923e 4dcd 913e d95e 8c3e
00000120: b969 243e 7ed0 0fbf 05fa 923e 2946 e9be
00000130: 1e69 06bf 08c0 86bf d498 d1bf d75e e4be
00000140: e2a2 4d3e 2a29 963e 922a 72bd be16 843e
00000150: ad35 86be 330c 673e 5ad7 233e 6da6 6f3e
00000160: 4d75 8b3e d682 963e 38ab 07bf 8afa 953e
00000170: a23c 853e 76e4 e3be 5375 febe 75ab 7b3e
00000180: ff33 ecbe 19b2 283e b654 7c3e af21 f0be
00000190: c593 443e f540 c4be 2109 053e 523b 1cbe
000001a0: a88f 963e 701c ecbe 1d8a edbe 6478 ebbe
000001b0: 0b12 933e 82fe 4d3e e856 5bbf 9cc5 96be
000001c0: e217 723e 46aa 63be c49b 9e3e 5964 f0be
000001d0: 795f 9d3d c816 f5be 6bdf ffbe 96e0 683e
000001e0: 6285 8c3e c525 903e 5157 05bf 568a a0be
000001f0: 8a60 15bf fb48 983e d9e7 bebe 82d7 783e
00000200: 4508 97be 34f0 073f 066b e73e dde9 21bf
00000210: 0de3 0c3f 5e50 083f b4ee d43e 907d 0f3f
00000220: 50fd d53e 75c1 38bf a8eb 0b3f e959 aebe
00000230: e452 37be 53b3 9bbf 23c5 e0bd 9c73 bfbe
00000240: e580 993e 3161 fe3e 1572 a63e fc3b 023f
00000250: a010 96be d00d 8d3e fb0d 853e c463 be3e
00000260: ed7c 043f f0d3 033f 75e2 30bf 026d 033f
00000270: c511 c23e aa89 88be 7f56 c2be df73 d93e
00000280: 7703 1bbf 7bdd 6e3e 97a8 d23e 6190 adbe
00000290: 1467 923e 46d4 81be 074c 4f3e b02d e2be
000002a0: ccfe 0a3f 0db8 efbe 8d71 aebe a648 aabe
000002b0: 09a8 e23e fe4e cd3e ffd4 55bf 187e 8fbe
000002c0: 2f03 f93e 3762 0abf f099 073f 1329 cabe
000002d0: 833a 753e bc6f c8be f119 afbe eb26 d23e
000002e0: 6294 fa3e b0ec eb3e 30d5 8ebe 5371 fabe
000002f0: 2657 c9be 201d 0f3f dffd 21be a152 ca3e
00000300: 6f52 933e 9291 a63c 5710 86bd 08b2 57be
00000310: ddfd 9a3d 21a0 d13d 4d5f 0f3e f202 aa3c
00000320: 335b a7bd 71e0 203e 839e 343e 0acf 6b3e
00000330: 036b 21bc 977e 8fbc 89c5 87be 8637 823e
00000340: 7b34 4b3e 1e96 4fbc 1fa9 9d3d fc66 0e3e
00000350: e9d1 90bc a93a f23d d7d9 123e 4b73 e3bd
00000360: d020 d13c bc3f 97bc 9c7c 6abe adc2 c13c
00000370: daff 00bd b27c 7a3e 9238 883e cc1d c9bd
00000380: ab39 903e 97bb 023e 4ef2 913e 0689 533e
00000390: c5ee a83d 0585 4d3e 4b70 1a3e 7037 8bbe
000003a0: d8ed 033e 8835 893e 128d 593e e52a 953e
000003b0: 4d46 2bbc 2740 9d3e b95a b9be 0346 f6bc
000003c0: f36f 193e 5acf 16be c8dc d53d 3a78 873e
000003d0: 3674 033e d4ab 663e e719 4d3e f2d3 9ebd
000003e0: c064 753e 65f4 063d 966b 3b3e 2ba7 8bbe
000003f0: 9258 853e c032 e33d 2e70 593e 73cf d6bd
0.25697044 -0.2753628 -0.2448788 0.47359934 -0.31819123 -0.38701782 -1.0591779 -0.23200521
-0.27983195 0.35077852 -0.35715446 0.20030762 -0.25397632 -0.64784604 -0.09133172 0.1691601
-0.75479937 -0.2508743 -0.263969 -0.31241885 0.28889322 -1.0800817 -0.6575871 -0.34490252
-0.3514802 -0.3067523 0.069583505 -0.31357232 -0.3507519 0.05100433 0.31568706 -0.20125394
0.77858 -0.57355946 -0.7092872 0.12779301 -1.2463361 0.12131981 -0.5078432 0.2495411
-0.29030165 0.3557404 0.120929636 0.38197777 -0.35948825 -0.8285317 0.15996794 0.20626147
-0.3040227 -0.09925723 -0.26583588 0.29020998 -0.49013895 0.15084653 0.085927054 -0.19473933
-0.3776499 -0.5394461 0.04390495 -0.2047996 0.33402923 -0.4443145 -0.26955652 -0.26850858
-0.46460512 0.2961175 0.25987738 -0.40182576 0.28173584 0.285435 0.28476945 0.27416113
0.16055955 -0.5617751 0.28706375 -0.4556134 -0.52504146 -1.0527353 -1.6374764 -0.44603607
0.20081666 0.2932828 -0.05912263 0.257986 -0.26212826 0.22563247 0.16000119 0.2340333
0.2723793 0.29396695 -0.52995634 0.2929271 0.26022822 -0.4451024 -0.49698886 0.24577124
-0.4613342 0.16474189 0.2464169 -0.469007 0.19196995 -0.38330808 0.12991764 -0.15257004
0.29406476 -0.46115446 -0.46394435 -0.45990288 0.28724703 0.20116618 -0.85679483 -0.2944764
0.23641923 -0.22232923 0.30978215 -0.4695156 0.076842256 -0.47868943 -0.49975142 0.22741923
0.27445513 0.28153816 -0.5208636 -0.31355542 -0.5835043 0.2974318 -0.3728626 0.2430096
-0.29498497 0.53100896 0.4519884 -0.6324747 0.5503395 0.5324763 0.41588366 0.5605097
0.41794825 -0.7217019 0.5465646 -0.3405297 -0.17902714 -1.21641 -0.10975101 -0.3739289
0.2998115 0.49683526 0.32508913 0.5087278 -0.2930956 0.275496 0.2598723 0.3718549
0.5175312 0.51495266 -0.69095546 0.5133821 0.37904182 -0.2666753 -0.37956616 0.42471215
-0.6055216 0.23326676 0.4114425 -0.33899215 0.28594267 -0.25357264 0.20243846 -0.44175482
0.5429504 -0.46820107 -0.34071007 -0.3325855 0.44268826 0.4009933 -0.8352813 -0.2802589
0.4863524 -0.54056114 0.52969265 -0.39484462 0.23948102 -0.39147747 -0.3419948 0.41045317
0.48941332 0.46079016 -0.27897024 -0.48914585 -0.393243 0.55903816 -0.158195 0.39516166
0.2877383 0.020333085 -0.06546085 -0.21064007 0.07567952 0.1023562 0.14001198 0.020753358
-0.08171692 0.15710618 0.17638592 0.23028198 -0.009852174 -0.017516417 -0.26517895 0.25432986
0.19844238 -0.012670068 0.07698273 0.13906473 -0.017678218 0.11827595 0.14340912 -0.11105975
0.025528342 -0.018463008 -0.22899097 0.023652399 -0.031494 0.2446163 0.2660566 -0.098201364
0.28168997 0.12766872 0.28505176 0.20657739 0.08248667 0.20070274 0.15081899 -0.27190733
0.12883699 0.26798654 0.2124522 0.29134288 -0.010453773 0.30713007 -0.36202028 -0.030062681
0.14984111 -0.14727536 0.10442501 0.26458913 0.128373 0.22526485 0.20029412 -0.07755269
0.23964214 0.032947917 0.1830276 -0.27275977 0.26044136 0.11093664 0.212342 -0.104887865

local_mlp.2.bias f4 [256]
00000000: e790 50be ccaf 81be 27b7 20be 7ca1 6bbd
00000010: 6235 48be 6235 11bd 043c b5bd ec23 fd3d
00000020: 9723 a73c b130 d1be d8a6 79be 06e6 4ebc
00000030: 67f7 bebd 3604 4dbb 1c7a 35be e85c c93d
00000040: 9bbc 7bbd fd29 bebd 1a3d 2b3e c28c 9abd
00000050: 3960 25be e2c0 73be e9dd d33d 54ab b2bc
00000060: 9ca5 363d f990 b0ba b9f0 933d 0a52 02be
00000070: eacf 7dbe 4faf 873d 273f e03d 1de6 62be
00000080: cd00 d8bb bf15 bfbd d44b 473d e43e 093e
00000090: 610b e1bd e158 2ebe f8d8 103e 1d33 8fbd
000000a0: 2073 5ebe d723 41be ab03 1ebe 5d98 dcbd
000000b0: 4b01 afbc 1f87 c9bd 59c7 7c3d cece 01bc
000000c0: 276a 6fbe 4c86 43bd c553 d33b 91d6 eabd
000000d0: 1804 2bbc 2a12 83bb e690 f4bc 77a2 70be
000000e0: 0bab 04be 7e78 02be 49d1 dabd d140 0bbe
000000f0: e118 5d3d ddb7 a73d fef2 24be a675 ac3d
00000100: 701c a8bd dd29 bebd ff7e 843d eec8 783d
00000110: cd43 babd fd40 0e3e cd93 f4bd 8e22 f1bd
00000120: a1bf f1be 9068 29be 55c7 42be 7f14 2abd
00000130: 6d95 ddbd 6ce4 47be 2b70 733d 6257 593d
00000140: b529 dabd 94fd 8b3d 84f2 503d 6a16 63be
00000150: 677a b63d de97 3d3d 595d 4bbe 14f1 88bd
00000160: 9c3e 2cbe a032 74be 873e 21be 9711 773d
00000170: 8bee 98bc 16f2 67be a703 a7bd 8cbd 443d
00000180: a692 25bd dfbe 07be 5250 a1bd 9cb8 8bbe
00000190: 6237 b13d 7bff 69bd 3c28 bebd 5e68 9ebc
000001a0: c07d 6f3d a802 03be 05d7 e1bd 02ee dd3d
000001b0: 39e6 a3bd 257e 3dbe 12b7 fd3d c4ff 9f3d
000001c0: 0b71 af3d 6213 cd3c 47f7 013e 3fcc e23d
000001d0: 1e62 bbbd 1188 79be 6a43 783d 8f83 38be
000001e0: ee9e 3bbe 5009 91bd 48e5 88bd 3b4b 46bc
000001f0: 212e 983d 9130 813c 8f44 a9bd 3901 71bd
00000200: 8bcb b0bd 579e 9f3d b52f 7abd e11b df3c
00000210: acdf 26bd 6d67 97bd 3102 2f3c b72d f6bd
00000220: 8fac 9abd d2fc 3f3d c627 04be 2108 8fbd
00000230: 6cd1 f1bc 47bb e73d e189 e4bd 4376 b0bd
00000240: bff3 a4be 6937 7fbd 56bc 113e e920 a8bd
00000250: 1139 803d eedb b3bc c7cc cabd fbb6 943c
00000260: 762e b2bd 4af6 b5bd 9e1b d83d 09bd e0bd
00000270: 0425 1f3e 3241 863d ebe2 13be 08e1 d6bd
00000280: 18b2 0cbe f7e5 273e 3882 9cbe fafa 04be
00000290: 34ae 31be b50f 65be e98a 96bd c41c 8cbc
000002a0: 1abb 6abe fb08 bebe 9a33 223e e7d7 2abe
000002b0: b846 a4bd a5ca 0c3d cbf0 cabd cfec 9ebe
000002c0: 660e 1fbe ea89 a0be eac8 adbd 0bce 93be
000002d0: 56e3 8b3d 4013 2cbb 4fb7 53bd 5f1d 12be
000002e0: 344f 86be 07b9 04be f9cd acbd 197c 8bbd
000002f0: 63eb 9abd 6aab 00bd 9343 4fbd f62a 3ebe
00000300: 306d 58bd a8df b9bd c382 833d 6c0a 9bbd
00000310: ee8b 543c cc91 ca3d ace6 f3bd 5bfb 203d
00000320: 3e9e f2bd 08c2 db3d d06d f13d fa97 cd3d
00000330: afb7 9cbd bb17 d9bb b427 6dbe 7f9a 8bbe
00000340: 22dd e9bc 6823 03be dc92 c8bd 7a72 1dbd
00000350: 90f2 4dbd 38c3 4a3d f474 e4bd c073 313c
00000360: 16a2 f63d 88e9 63be 0294 193e a13d 23bd
00000370: 593f 86bd 7f0c 28b9 8846 c33d 5d58 a8bd
00000380: d3c7 b3be cf28 49be 1977 bebe 7d2d 06be
00000390: 4105 f5bd 27cc f53d 632d be3b e1ed 573e
000003a0: 26a2 c2bd 1761 133e 3a05 083e 4a0e 08bd
000003b0: a9a8 36be e7a2 63bd 452a d43d 0a69 823d
000003c0: 03f1 13bd 23bd 9cbd 8b43 25be bbc8 d93d
000003d0: c6ac c1bd c246 9e3d 17a3 cfbd acb3 65bd
000003e0: f656 813d 592b 97bd 3d9a cebd e075 7cbe
000003f0: 5e19 39be 4b37 91bd b1e9 12bd 2371 db3c
-0.20367776 -0.25329435 -0.15694867 -0.05752705 -0.19551614 -0.0354513 -0.08849338 0.12360367
0.020402713 -0.4085746 -0.24380052 -0.012628084 -0.09324532 -0.0031283027 -0.17722362 0.098321736
-0.061459165 -0.092853524 0.16722527 -0.07546379 -0.16149987 -0.23804048 0.103450604 -0.021810211
0.04459153 -0.001347094 0.072236486 -0.12726608 -0.24786344 0.06625234 0.10949545 -0.22158094
-0.0065918923 -0.093303196 0.0486563 0.13402897 -0.109884985 -0.17026092 0.14145267 -0.06992171
-0.21723604 -0.18861328 -0.15431087 -0.107712485 -0.021362921 -0.098402254 0.06171355 -0.007922841
-0.23380338 -0.047735497 0.006449195 -0.114667065 -0.010437988 -0.003999968 -0.02985425 -0.23499475
-0.12955873 -0.12741277 -0.10684449 -0.13598944 0.053978804 0.08189366 -0.16108319 0.08420877
-0.08208549 -0.092853285 0.06469535 0.060738496 -0.09094963 0.13891979 -0.11942253 -0.11774169
-0.47216514 -0.16543794 -0.19021352 -0.041523453 -0.10819516 -0.1952073 0.059433144 0.05306185
-0.10652486 0.068354756 0.05101253 -0.22176519 0.08910065 0.04628741 -0.19859828 -0.06686607
-0.16820759 -0.23847437 -0.15746509 0.06031951 -0.018668434 -0.22650942 -0.081549935 0.04803233
-0.040423058 -0.13256405 -0.07876648 -0.27289283 0.086531416 -0.05712841 -0.09285018 -0.019336876
0.058469534 -0.12793982 -0.1102734 0.10836412 -0.08002896 -0.18505152 0.123884335 0.07812455
0.08566483 0.025033657 0.12691985 0.11074113 -0.09149574 -0.24368311 0.060611166 -0.18018936
-0.18322346 -0.07081854 -0.06684357 -0.012102897 0.074306734 0.015770229 -0.0826503 -0.058839057
-0.08632573 0.07793873 -0.061080653 0.027234973 -0.040740654 -0.07392774 0.010681675 -0.12020438
-0.07552444 0.046871968 -0.12905797 -0.06983972 -0.029518805 0.11315017 -0.11159111 -0.08616307
-0.32217214 -0.062308703 0.14232 -0.08209402 0.062608846 -0.021955457 -0.099023394 0.018153658
-0.08700268 -0.088848665 0.105521426 -0.109735556 0.15541464 0.06555404 -0.14442031 -0.1049214
-0.13739812 0.16396318 -0.305681 -0.12986365 -0.1735161 -0.22369273 -0.07350714 -0.01710356
-0.22922936 -0.37116227 0.15839997 -0.16683923 -0.08021301 0.034372944 -0.09909209 -0.31040046
-0.15532836 -0.3135522 -0.08485587 -0.28868136 0.0683047 -0.002625659 -0.05168849 -0.14269017
-0.26232302 -0.12961207 -0.08437724 -0.06810779 -0.07564428 -0.031413473 -0.050601553 -0.18571076
-0.052838504 -0.09075862 0.06421425 -0.07570347 0.012972815 0.0989109 -0.119092315 0.03930221
-0.118465886 0.10730368 0.11788523 0.10038753 -0.07652222 -0.0066251433 -0.23159677 -0.2726631
-0.028547827 -0.12806475 -0.09793636 -0.03843925 -0.050280154 0.04950258 -0.111551195 0.01083082
0.12042634 -0.22257054 0.14997867 -0.039853696 -0.06555051 -0.00016026384 0.09534937 -0.08219979
-0.3511339 -0.19644473 -0.3720024 -0.1310329 -0.11963893 0.120018296 0.0058037504 0.21086837
-0.095035836 0.14392506 0.13283244 -0.033216752 -0.17837776 -0.055575278 0.10359625 0.06367691
-0.03611852 -0.076532625 -0.16139047 0.106339894 -0.09456782 0.0772834 -0.10138529 -0.05607955
0.063154146 -0.07381315 -0.10088012 -0.2465434 -0.18076083 -0.070906244 -0.035867397 0.026787346

output_mlp.0.weight f4 [128, 512]
00000000: 250d c13d e0df 973c 51da dabe bfba 52be
00000010: 46b0 883d 430e 9cbd d3bb c03b ada3 fe3e
00000020: 0579 863e 572e 48be a472 03be 7229 02bf
00000030: d5a9 43bc ca4e 91bd 4cd2 0e3e d14d d93e
00000040: 985d 373e 7664 4cbe 744b 6b3e fded 5bbe
00000050: e982 c3be e822 0abd 654c c1bd 5995 84bc
00000060: effa 0c3e 2108 e8bd b478 98bd 6650 86be
00000070: 833a a5be 3f3e 8c3d 65f9 813e 9176 d1bd
00000080: 39a3 82be a01d ee3c cea9 483e 8eda f8bc
00000090: 29ca 143e 824b e2be 0549 643d 27a8 2dbd
000000a0: 116e cbbd 9e77 83bd efd2 f6be a318 41be
000000b0: 9f01 b1bd dc19 6c3d 5df7 85be 4622 c13d
000000c0: e68b c53c 4a97 4ebd e5bb c6bd 619a 1dbc
000000d0: 97a9 623e 3f66 f5bd 06fc 93be e994 45be
000000e0: e7a6 c4bd e7d2 2d3d 48af c8bc c29a dc3d
000000f0: c824 ccbe d777 5c3d 3a09 b4be 6fb6 8e3e
00000100: 4f9d 8dbe 1d06 b3bd c8bf 623d 5130 703e
00000110: bc29 68bd 2e87 ff3e 0c18 dabe 6383 373d
00000120: 6e75 25be 5567 c5be 9597 12be fd04 febe
00000130: 0df5 adbe 02ee 2dbc 2a76 0f3e ff32 9d3d
00000140: 2404 16be fc77 483e 7210 e33e dc82 bebe
00000150: cc72 d93e 1652 453d 912e efbe 00c9 08be
00000160: 45cd bcbd 9016 a73c 4777 fe3d 5cce 793d
00000170: 1314 003e e078 053e fca5 28be 8d6e a03e
00000180: 391b f23d 83ba f7be 77c5 ea3d ce9f 40be
00000190: 3f1d c63e a8a6 69be 8a7c dd3d 0d51 9fbe
000001a0: 2fae 9b3e 2b9a 86be cc53 3cbe ab29 6f3e
000001b0: 0f33 343d c645 a7be 2dff c13e c087 39bd
000001c0: e9c0 8c3e 4334 2abe 58cf 953c 644c 28be
000001d0: 197e 83be f149 13be 5eba 1bbe b432 bebd
000001e0: 1d39 06be 02ce 003d f86e bb3d 8c25 0d3e
000001f0: ffa1 e23e 2a07 853d d994 3dbe fcf8 863e
00000200: 8842 8e3e 3732 eebe dffc 05be b7e5 e43e
00000210: 6c2f d43d 5331 8dbe 8f99 c6bc 71d3 ebbb
00000220: 00cd 623e f010 403e a63d fdbe 1c80 123e
00000230: 03a6 c0be fc16 d53d f61d fc3d 886d c93d
00000240: b994 173e 2d4c 45be 06d4 823e e6e8 30bf
00000250: e74f 55bd fb70 0fbf e2a2 afbe b371 0c3c
00000260: 6823 d1be 0855 b2bd e5e6 e3be d91d 453e
00000270: adce a23e ff23 0dbc 8151 263e 77a3 3bbe
00000280: 1767 2fbf fcbd 16bc e3b6 afbe 2e40 813e
00000290: bced 78be 20ea d5be 7137 aabe fef9 6abd
000002a0: f362 a8bd 45c6 c73c 890d f53e e26d e0bd
000002b0: efed db3c 5d27 bc3d 5562 a73d d228 e9bd
000002c0: 9545 6abe 1ace 783b d718 493d 8d50 ccbe
000002d0: 5573 813e 83be 9f3c bc1b 89bd c60f 5dbe
000002e0: 0fa0 e4be 3a5d 84be bbd1 87be d3a8 4e3e
000002f0: 8f12 bbbe e079 aabc 4011 9cbe dc5c 69bd
00000300: eb8f 913d 0823 84be 2114 493d d595 893e
00000310: 0f8b e9bd 050a 563e fb92 2bbe beb2 f93d
00000320: 30b7 03be 0710 9e3e a811 af3e ee8c 493e
00000330: 4802 a8be 9513 c33e 73b9 7ebe b556 883d
00000340: 4c9a b3be 3a69 113e d33c 3bbe 5143 383e
00000350: 8a2b 9d3e 15c7 c93e 23fd b43c bfd3 b23d
00000360: 1711 dd3e c62e a539 c59e a53d 6086 8cbd
00000370: 5bf9 653e deec ebbe 0988 603e 7be5 6fbe
00000380: 1dc2 793d ade7 2dbe dd84 bebe 7d44 0dbe
00000390: aa1d 6ebe 9399 a63e b657 613e dee6 23be
000003a0: 48d4 36be 2bfa c83e 020f d43e de91 2bbe
000003b0: f853 45be 0e52 52be 4f6d 8d3e 6847 f03e
000003c0: d09d 19bc dff0 6ebe 3f47 a9be 6ef7 a03e
000003d0: fddf d8bc dbcb 2f3e e36a 6ebe b71f 343d
000003e0: b5fa 3ebe 9d3c a1bd c8fc 74be e785 b9be
000003f0: 0602 5cbe 0c14 903e f5a5 ed3e 2e15 bebe
0.09426335 0.01853937 -0.42744687 -0.2057905 0.066742465 -0.07619908 0.0058817654 0.4973425
0.26264206 -0.19548927 -0.128367 -0.5084449 -0.011942347 -0.07095106 0.1394741 0.42442182
0.17906797 -0.19960198 0.22978002 -0.21477504 -0.38185814 -0.033724695 -0.09438399 -0.016184496
0.13767599 -0.113296755 -0.07444897 -0.26233214 -0.32271203 0.0684781 0.25385585 -0.10227693
-0.25515154 0.02906686 0.19596025 -0.030377652 0.14530243 -0.44198233 0.0557337 -0.04239669
-0.09933103 -0.064192995 -0.48207805 -0.18857054 -0.08642887 0.05764185 -0.26165286 0.09430365
0.02411456 -0.05043725 -0.09703807 -0.009619326 0.22135006 -0.119823925 -0.28903216 -0.19295086
-0.096021466 0.04243746 -0.024497643 0.10771705 -0.39871812 0.053825226 -0.3516329 0.2787356
-0.2765908 -0.087414004 0.055358678 0.23455931 -0.056680426 0.4990782 -0.4259647 0.044803035
-0.16158077 -0.385554 -0.14315636 -0.4961318 -0.3397602 -0.0106158275 0.1400992 0.07675742
-0.14650017 0.1957702 0.44348484 -0.37209213 0.42470396 0.048173986 -0.46715215 -0.13357925
-0.092188396 0.0203965 0.12425094 0.060987815 0.12507658 0.13034391 -0.16469568 0.31334344
0.118215986 -0.48384485 0.11463445 -0.1881096 0.38694188 -0.2281748 0.108147696 -0.31116524
0.3040633 -0.26289496 -0.18391341 0.23355739 0.043994006 -0.3267042 0.37889996 -0.045295477
0.2749093 -0.16621499 0.018287346 -0.1643539 -0.25682142 -0.14383675 -0.15207812 -0.092870146
-0.13107724 0.031446464 0.09152025 0.13783854 0.44264218 0.06495507 -0.18513812 0.26361835
0.27785134 -0.46522686 -0.13084744 0.4470651 0.103606075 -0.27576694 -0.024243144 -0.0071968366
0.22148514 0.18756461 -0.49461097 0.14306682 -0.37626657 0.104047745 0.12310402 0.098353446
0.14802827 -0.1926734 0.25552386 -0.69105375 -0.052078154 -0.5603177 -0.34303957 0.00857203
-0.40847325 -0.08707625 -0.44512096 0.19249667 0.31798306 -0.008614539 0.16242029 -0.18324076
-0.6851668 -0.009200569 -0.3431922 0.25244278 -0.24309438 -0.41780186 -0.33245423 -0.057367317
-0.08221998 0.024386534 0.4786189 -0.109584585 0.026846854 0.091871955 0.08173052 -0.11384739
-0.22878106 0.0037964643 0.049095955 -0.39905205 0.25283304 0.019500023 -0.06694743 -0.21588048
-0.44653365 -0.25852376 -0.265272 0.20181589 -0.36537597 -0.020810068 -0.3048191 -0.056973323
0.07107528 -0.25807977 0.049091462 0.26872125 -0.114034764 0.2090226 -0.16755287 0.121922955
-0.12862849 0.30871603 0.34193158 0.19682667 -0.3281424 0.38100877 -0.24875431 0.06657163
-0.35078657 0.14200297 -0.18284921 0.17994429 0.3069728 0.394097 0.022093361 0.087317936
0.431771 0.000315061 0.080869235 -0.068615675 0.22458403 -0.46079153 0.21926893 -0.23427384
0.060976136 -0.16982909 -0.37210742 -0.13795657 -0.23253503 0.32539043 0.22006115 -0.16006038
-0.17854416 0.39253363 0.414177 -0.16754863 -0.19270313 -0.20539114 0.27622458 0.4692948
-0.009376004 -0.23334073 -0.3306217 0.31438774 -0.026473993 0.17167608 -0.23282962 0.043975558
-0.18650325 -0.07872889 -0.23924553 -0.36234972 -0.21485147 0.28140295 0.46415678 -0.37125534

output_mlp.0.bias f4 [128]
00000000: 19cc 8bbe 96bb 1abd ad33 813e 67bf c8bd
00000010: dd66 273d c773 4b3e a1ae d7bc bade c3bd
00000020: aff7 1c3b 2e3f 813d fa8d 7b3f 94d9 e9be
00000030: 47f6 b0bd e64e 13be 8d85 7fbe 1b60 0cbd
00000040: c1a2 b0bb fb88 f73e fdd7 4e3d 89c0 9b3c
00000050: c93d 1cbc 51e3 9f3d 772b 04be 42f8 84bd
00000060: da57 03be 368c 973d bed3 413d 2409 b4bd
00000070: 29fb c53e 7887 8bbe 2b82 323c 8d06 0dbe
00000080: 4199 703d 9c56 123d 4f6a 3ebe 2e87 63bd
00000090: 534d 1d3c c697 29be 0a3b e63d c4e7 89bd
000000a0: 618e ffbd cb49 443e af55 e7bd 2347 42be
000000b0: 8739 2a3d 7eb9 d5bd 7246 dbbc 6106 cebc
000000c0: b166 71bc a0e5 733e b1a4 6ebe aa49 42be
000000d0: fa94 25be ff76 a73d d505 ecbd 5ea2 913d
000000e0: f1ff d1bd 567d 27be 6f38 a4bd 6c3a d93d
000000f0: 18c6 34be b55d 97bd ae03 363c 60b7 f33e
00000100: 7df4 75bd 3fc7 94bd 6320 3ebe c5de b3bd
00000110: 6c5e 7dbd 1f12 bfbc 3d7d 073f 29fc e23d
00000120: f28a dd3a 3d56 9e3e e166 9abe 956f 07be
00000130: c188 e8bd 9543 77bd 3f45 543d 95e4 28be
00000140: 6aea 87bc 5012 033e 2a5a 573d 857b cbbd
00000150: 9793 c6be e02d 25be 9380 79be 6d97 d6bc
00000160: a0ae 233d c0ed 57bd 0be3 033d 7eb0 64bd
00000170: 3929 023b e962 8ebc cb52 96be bcd4 16bc
00000180: dc75 9c3e 513c 1fbd 5bdc b6bd c2c5 45be
00000190: e7d4 ac3c a84e 5e3d e70b 083e 321b 293d
000001a0: 82ff 9ebe fb2d 18bc c20a 08bf 2a81 2bbd
000001b0: f5e5 4b3e 1ab9 7ebd 2834 7fbd 9977 4dbe
000001c0: bdf7 d13d b90a 45bd b78e 17be a0d0 e8bb
000001d0: a35b 1dbe d6cd 363b 5994 6d3c 659f 3dbe
000001e0: 48cc 003e 36fa f03c e64b 87bd 81c8 123d
000001f0: 41d0 e5bd 129a b7be af1c fb3e 8340 403e
-0.27304152 -0.037776552 0.25234738 -0.09802132 0.040869582 0.19868384 -0.026328387 -0.09563966
0.0023951342 0.06310879 0.98263514 -0.4567381 -0.08640724 -0.14385566 -0.2495329 -0.03427134
-0.0053904955 0.48346695 0.05049895 0.019012706 -0.009536215 0.07807029 -0.12907206 -0.06492664
-0.12826481 0.0739979 0.047321074 -0.08790806 0.38668182 -0.27251792 0.010895292 -0.1377203
0.058739904 0.03572713 -0.18595241 -0.05554884 0.009600955 -0.16561803 0.112417296 -0.06733659
-0.124783285 0.19168775 -0.1129564 -0.18972449 0.04155877 -0.104357705 -0.02676699 -0.025149526
-0.014733956 0.23818064 -0.23305012 -0.18973413 -0.16170111 0.081769936 -0.1152455 0.07111047
-0.10253895 -0.16356406 -0.08018576 0.10606846 -0.17653692 -0.0739092 0.011109276 0.47600842
-0.060047615 -0.07264566 -0.18567042 -0.08782724 -0.061857626 -0.02332407 0.52925473 0.11083252
0.0016902371 0.3092517 -0.30156615 -0.13226159 -0.11354209 -0.060367186 0.05182385 -0.16493447
-0.01659127 0.12799954 0.05257622 -0.09935669 -0.38784477 -0.16130781 -0.24365453 -0.026195252
0.039961457 -0.05271697 0.032198947 -0.05583238 0.0019860996 -0.017381148 -0.2936004 -0.009205993
0.3055867 -0.03887588 -0.08928748 -0.1931372 0.021097613 0.05427423 0.1328579 0.0412857
-0.31054312 -0.009288306 -0.53141415 -0.041871227 0.1991194 -0.062188245 -0.0623056 -0.20065154
0.102523305 -0.04810593 -0.14800535 -0.007104948 -0.15366988 0.0027893684 0.014500701 -0.18517835
0.12577927 0.029416185 -0.06606273 0.035835747 -0.11221362 -0.35859734 0.4904532 0.1877461

output_mlp.2.weight f4 [9, 128]
00000000: 32cd 853f dd89 12be f8a7 5cbd 5de6 3ac0
00000010: 4a8e b8be f97c 773e ace5 8fc0 2848 86bf
00000020: 94a0 c53d 152f 0dbf 1947 063e a8a9 14c0
00000030: e3f4 20c0 8c93 e3c0 27ee a53d eaeb 21bf
00000040: 08ee 6cbf 9a83 143e 04f2 193e eb48 14c0
00000050: f6ad de3d 1905 59bf d4a4 b5c0 f330 4abf
00000060: dc52 14c0 cd25 4fc0 f768 8dbf 4add 54c0
00000070: 7c47 003e 11e5 a83d 2d47 d23f 5672 70bf
00000080: 115f 19be 75ca e5bd 0026 9fc0 78e2 9cbf
00000090: 3ff0 8d3d 6379 09c0 3e56 013e a1f8 9dbd
000000a0: d464 a8be 75c9 9f3e 6db8 a0c0 7d8b 19c1
000000b0: d73d eebd 7fb8 e23f 1f4d f6c0 8f6b b93d
000000c0: aee5 16c0 8a17 0f3e 7f25 0f3e 8a8a c0c0
000000d0: 98cc f6c0 05b1 16bf 8c68 58c0 0c40 b9bd
000000e0: f5d1 563f 0670 a7c0 57f4 85c0 73d4 93bf
000000f0: 368a 8bc0 058d 69c0 3ed2 40c0 40f9 3abe
00000100: 3a9a 473e d643 af3d 5fed 05c1 c07b 48c0
00000110: 8fcc 52bf 3d92 8ac0 3a17 763d ce2a 9fbf
00000120: 17f5 603e b2d8 ea3d 32fd 5dc0 665a 20bf
00000130: 0ed5 1ac0 e323 153f 7729 b03f 2c77 c2c0
00000140: b6ed 8fc0 c192 863d 48a8 233f c064 fb3e
00000150: 47d9 0ebf 12fa bbbf 1095 f9bf fe77 4dc0
00000160: 923c 01be 999f abbe 8fa7 b63d 1b99 08bf
00000170: c776 7abe 9add 0ec0 3fa0 833f f021 43bf
00000180: e9d5 c6be 68a8 a3c0 2641 41c0 ea54 e63f
00000190: 7420 04bf 97d4 19bf 7cc8 a8be f659 a9bf
000001a0: b9aa f4bf eff0 6ec0 2048 3d3e 0881 38c0
000001b0: 1faa 593b 9353 c4bf e3ab c2c0 cda4 b7c0
000001c0: bac8 ebbd b64f 5dc0 1a5b b8c0 a680 62c0
000001d0: acea 9bc0 36d2 4cc0 c2cc aebd 2125 b4c0
000001e0: 8f34 79bc e786 aebd 8455 b03f fcf0 b0bd
000001f0: 455e bcbe fa6e 4ec0 1386 e13d 63b7 3bbe
00000200: 9d11 98bf 9fb3 9b3e a78f 3b3d fbd0 4140
00000210: 4f81 8b3d ede9 1d3c 7845 9240 a806 1ebf
00000220: fa88 2d3e db5f 213f 00d0 e93c c9fc 8cbf
00000230: 30d4 e63f 38d1 c140 d43f fa3d fb6d 833e
00000240: 4de3 253f e522 4abd ceea 04bc 168f 693f
00000250: 7f7d 4b3e c298 123f d834 a840 76a3 c9be
00000260: 1a35 f13f 594b 0740 8912 253f 11cf 3a40
00000270: 2918 853d 02f8 9dbf 22c0 b5bf f91b 1e3e
00000280: 70da ee3d 796e 723d cb5a 9740 faed 1a3f
00000290: f5c5 06be 1f36 823f 9b51 683d 2f81 b3be
000002a0: 20e3 4fbf 1649 61be c42b 9740 5248 1441
000002b0: 39d9 073e 0b07 10c0 a5b0 f440 2fd6 133e
000002c0: b4d5 c93f 52c4 5bbc be3b ae3b a65e af40
000002d0: 993b ed40 5ea6 393f 53da 3140 0e5f a33d
000002e0: a5b7 9fbf 8321 9c40 b654 e83f be4d 9b3f
000002f0: bd5b c13f e493 5e40 bbd4 1940 8222 2a3d
00000300: 7f30 c03b 3230 0f3e 05c4 0041 524a 4840
00000310: e34c 013f 9379 7b40 99fb ce3d 16a9 8b3f
00000320: a2a4 9ebc 0158 333d d6b5 90bf 52ff cdbe
00000330: dcbb a43f 75b6 0c40 9c9f afbf 4e0c b740
00000340: 38b2 bb3f b7e1 d2bc 8155 b8be 672a f63f
00000350: 7d41 05be 7127 83bf ea3d 1ec0 448b 1b40
00000360: 05c2 013e 0aa5 473e c96c 203e f22e 47bd
00000370: 76c3 953e 21a1 753f cba5 c3bf 7108 283f
00000380: 57e1 ae3e 2c3b 9740 46ef 423f 3e80 dbbd
00000390: f5f6 1c3f 05a5 b93e e7cb e0be 005e 433f
000003a0: e277 e2be a04c 2840 0da0 c93e e709 2840
000003b0: be25 773d 41bf 9b3f 14d5 e740 5129 b940
000003c0: 5ac9 253e 3f73 1540 ae06 aa40 e789 f33f
000003d0: 9bab 8940 30c8 7b3f 0d08 293e fbf6 aa40
000003e0: dc64 353e 9abd 163e e7ce 07c0 d5aa 043e
000003f0: c648 273e 4853 643f 1909 2d3d 38d5 163e
1.0453246 -0.14310403 -0.053871125 -2.9203103 -0.36046058 0.24168767 -4.496786 -1.049077
0.096497685 -0.55149966 0.13113059 -2.322855 -2.5149467 -7.111761 0.081020646 -0.632506
-0.92550707 0.14503327 0.15033728 -2.3169506 0.10873024 -0.84773403 -5.6763706 -0.7898094
-2.3175573 -3.2366822 -1.1047658 -3.3260064 0.12527269 0.08246816 1.6427971 -0.9392446
-0.14977671 -0.11220256 -4.9733887 -1.2256613 0.06930589 -2.1480339 0.12630555 -0.07713438
-0.32889426 0.31208387 -5.022513 -9.596555 -0.11632889 1.7712554 -7.696914 0.09053718
-2.3577685 0.13973823 0.13979147 -6.0169115 -7.712475 -0.5886386 -3.381381 -0.09045419
0.8391412 -5.2324247 -4.1860766 -1.1549209 -4.3606215 -3.6492321 -3.0128322 -0.18259144
0.19492427 0.085578606 -8.370452 -3.132553 -0.8234338 -4.3303514 0.060080744 -1.2434938
0.21968494 0.114671126 -3.4685788 -0.6263794 -2.4192538 0.58257884 1.3762654 -6.0770473
-4.4977674 0.0657096 0.6392865 0.49100304 -0.5580029 -1.468569 -1.9498615 -3.2104487
-0.12620762 -0.335202 0.08918678 -0.5335862 -0.24459372 -2.2322755 1.0283278 -0.7622366
-0.38835075 -5.1143074 -3.0196013 1.7994664 -0.5161202 -0.6009001 -0.32965457 -1.3230579
-1.91146 -3.7334554 0.18484545 -2.8828754 0.0033212972 -1.5338005 -6.0834823 -5.7388673
-0.11512895 -3.4579902 -5.761121 -3.539102 -4.8723965 -3.2003303 -0.08535148 -5.6295323
-0.015210285 -0.08521824 1.3776097 -0.08639714 -0.36790672 -3.2255235 0.11011901 -0.18331675
-1.1880375 0.30410478 0.045791294 3.0283802 0.06811773 0.009638292 4.57098 -0.61728907
0.16946784 0.6303689 0.028541565 -1.1014644 1.8033504 6.0567894 0.122192055 0.25669846
0.6479996 -0.049349684 -0.008112622 0.91233957 0.19872092 0.5726434 5.2564507 -0.39382523
1.884433 2.1139739 0.6448141 2.9188883 0.06498749 -1.2341311 -1.4199259 0.15440358
0.116627574 0.059187386 4.729833 0.60519373 -0.13161452 1.0172766 0.05671845 -0.35059497
-0.8120594 -0.22000536 4.7240925 9.267656 0.13266458 -2.2504299 7.646563 0.14437173
1.5768342 -0.013413506 0.0053171804 5.480304 7.413525 0.7251948 2.7789505 0.079771146
-1.2477919 4.879091 1.8150852 1.21331 1.5106121 3.4777765 2.403609 0.041536815
0.005865156 0.13983229 8.047856 3.1295362 0.50507945 3.9292953 0.10106582 1.0910976
-0.019365612 0.0437851 -1.1305492 -0.40233856 1.286983 2.1986363 -1.3720584 5.720252
1.4663763 -0.025742395 -0.36002734 1.923169 -0.13013263 -1.0246412 -2.472529 2.430375
0.12671669 0.19496551 0.15666498 -0.048628755 0.29250687 0.9594899 -1.5284971 0.6563788
0.34156296 4.725973 0.7614635 -0.1071782 0.61314327 0.36258712 -0.43905565 0.7631531
-0.44232088 2.6296768 0.39379922 2.6256044 0.060338728 1.2167741 7.2447605 5.7862935
0.16190091 2.335159 5.3133154 1.902646 4.302198 0.98352337 0.16506977 5.342649
0.17714256 0.14720765 -2.1220033 0.12955792 0.16336355 0.8918958 0.042245004 0.14729774

output_mlp.2.bias f4 [9]
00000000: be89 bc3d c264 b13d b176 92bd 4d43 443a
00000010: b01a b5be 7ad1 91bd fc60 99bd 221a 54be
00000020: 2b51 98bd
0.0920596 0.08661796 -0.07151545 0.0007486835 -0.35371923 -0.071200326 -0.074892014 -0.20713094
-0.074373566
