log/segmentation/pn/bucket/weighted-4/pn_0.pth (torch, 337359 bytes, 8 tensors)

local_mlp.0.weight f4 [64, 3]
0	0x3e058a1b	0.13040964
1	0xbd8a0af1	-0.06740368
2	0x3ce0caa4	0.027440377
3	0xbde0acf6	-0.1097049
4	0x3c63f71c	0.013913896
5	0x3da4b720	0.08042741
6	0xbe24364a	-0.16036335
7	0x3c8d8581	0.017275574
8	0x3e02c977	0.12772165
9	0xbdf8134b	-0.12113055
10	0x3c662ef1	0.014049278
11	0x3da3bf1c	0.079954356
12	0xbdf91849	-0.12162835
13	0x3c418679	0.011811846
14	0x3da3d579	0.07999701
15	0x3e390a33	0.18070297
16	0x3ec815f4	0.3907925
17	0x3c7a4d62	0.015277239
18	0x3e1d45e5	0.15358694
19	0xbeb68beb	-0.35653624
20	0x3d1e0559	0.03857932
21	0xbe044aef	-0.1291921
22	0x3c998779	0.018741356
23	0x3d4d4266	0.05011215
24	0xbdc99d30	-0.09844434
25	0x3c88400b	0.0166321
26	0x3d4a005c	0.04931675
27	0x3e21fa08	0.15818036
28	0x3be29917	0.0069152224
29	0x3d4d0674	0.050054982
30	0xbe09b8d4	-0.13449413
31	0x3c60ef79	0.01372897
32	0x3da815a4	0.082072526
33	0x3e22cce6	0.15898475
34	0xbefa6c27	-0.4891064
35	0x3c9179a8	0.017758206
36	0xbe070c7c	-0.13188356
37	0x3c85755a	0.01629131
38	0x3d5da8e1	0.054116134
39	0xbdf3c845	-0.11903433
40	0x3c815262	0.015786353
41	0x3d359f2b	0.044341248
42	0xbe040ef0	-0.12896323
43	0x3c5df24c	0.013546538
44	0x3d8102a3	0.06299331
45	0xbdfb3f5d	-0.12267945
46	0x3c9501f4	0.018189408
47	0x3d443a95	0.04790743
48	0xbdf38a58	-0.11891621
49	0x3c602ae4	0.013682101
50	0x3d9d2259	0.07672567
51	0x3e2de829	0.16983093
52	0xbf008736	-0.50206316
53	0x3d0eb346	0.034838937
54	0x3e29a6b7	0.16567503
55	0x3ce9b286	0.02852751
56	0x3d132894	0.03592737
57	0xbdb35184	-0.08755782
58	0x3c7cf19f	0.015438466
59	0x3bb60280	0.0055544972
60	0x3df5f1a7	0.12008982
61	0xbe2566d6	-0.1615251
62	0x3cc25290	0.02372101
63	0x3e01a0bb	0.1265897
64	0xbe9c4232	-0.30519253
65	0x3c877ab6	0.016538005
66	0xbe436726	-0.19082317
67	0x3c6ca74e	0.014444185
68	0x3df1526a	0.11783297
69	0xbe042884	-0.1290608
70	0x3c84a700	0.016192913
71	0x3d83a226	0.06427412
72	0xbdd540ff	-0.10412788
73	0x3c3b7de4	0.011443589
74	0x3d86732c	0.06564936
75	0xbe07c5c3	-0.13259034
76	0x3c924d25	0.017859051
77	0x3d04a2d3	0.032381844
78	0xbe1e1abf	-0.1543989
79	0x3c3fc27e	0.011704085
80	0x3de8cc46	0.11367087
81	0xbdd6a6a9	-0.10481007
82	0x3c8b7ea4	0.01702816
83	0x3cc05358	0.023477241
84	0x3e1fc44e	0.15602228
85	0xbef64c12	-0.48104912
86	0x3c304fe2	0.010761233
87	0xbe01d7c1	-0.1267996
88	0x3c597d15	0.013274451
89	0x3d665db3	0.056241702
90	0x3e105bb4	0.14097482
91	0x3eb88446	0.36038417
92	0x3d014fbc	0.03157018
93	0x3e54cb66	0.20780715
94	0x3f243c64	0.6415465
95	0x3d03e59c	0.032201394
96	0xbdfd1db8	-0.12359184
97	0x3c75e7f4	0.015008915
98	0x3d35a7ad	0.04434936
99	0xbdd97242	-0.10617496
100	0x3c6dc4f4	0.014512289
101	0x3d5f4595	0.054509718
102	0x3e3b79d2	0.1830819
103	0x3ea5214d	0.3225197
104	0x3cc49d4c	0.024000786
105	0x3e0788d2	0.13235787
106	0xbe707b1d	-0.23484464
107	0x3d381a3f	0.044946905
108	0x3e5084f5	0.20363219
109	0x3f184be1	0.5949078
110	0x3d73ae59	0.059492443
111	0xbe089e22	-0.13341573
112	0x3c9a888e	0.018863942
113	0x3d1a9ba8	0.0377461
114	0x3e4f1467	0.20222627
115	0x3ea702f7	0.3261945
116	0x3bd796b8	0.0065792464
117	0xbdc58a19	-0.09645481
118	0x3c86d865	0.016460607
119	0x3d166ec4	0.036726728
120	0xbd9350da	-0.071931556
121	0x3c05d11c	0.008167531
122	0x3b437d5f	0.0029829366
123	0x3e352165	0.1768852
124	0xbe8b3f69	-0.27196816
125	0x3c82e290	0.015977174
126	0x3e1e293a	0.15445414
127	0xbca747d4	-0.020419993
128	0x3ce676a7	0.02813275
129	0xbde97321	-0.11398912
130	0x3c6e4fd7	0.0145454025
131	0x3d83db59	0.064383216
132	0x3e321fda	0.17394963
133	0xbdbedc71	-0.093193896
134	0x3ce7b363	0.02828378
135	0x3e286f36	0.16448674
136	0x3ebe78e8	0.3720162
137	0x3c49a1c9	0.012306639
138	0xbe10fac6	-0.14158162
139	0x3c7f30a4	0.015575562
140	0x3db36f2c	0.08761439
141	0xbe349d36	-0.17638096
142	0x3c85c89d	0.016331011
143	0x3dc90c9a	0.09816857
144	0xbdcfd978	-0.10148901
145	0x3c909e68	0.017653659
146	0x3c9f14e3	0.01941914
147	0x3e06b091	0.13153292
148	0xbf0a7022	-0.5407735
149	0x3c8457a5	0.016155073
150	0xbe13293a	-0.14371195
151	0x3c95f630	0.018305868
152	0x3d867278	0.06564802
153	0x3e1fa16c	0.15588921
154	0xbec4d971	-0.38447145
155	0x3b9a681c	0.004712118
156	0xbe21689a	-0.15762559
157	0x3c8f0ea5	0.017463038
158	0x3db8ad63	0.09017446
159	0x3e26481b	0.16238444
160	0xbd814cba	-0.063134626
161	0x3d2919f2	0.04128451
162	0xbe14e376	-0.14539894
163	0x3c64d59f	0.013966947
164	0x3dc14c06	0.094383284
165	0xbe052357	-0.13001762
166	0x3c8b696b	0.01701804
167	0x3d75ed4b	0.060040753
168	0x3e1d31ef	0.1535108
169	0x3e909fb0	0.28246832
170	0x3c6b16c4	0.0143486895
171	0xbe010d19	-0.12602653
172	0x3c869861	0.016430082
173	0x3d4852d9	0.048907135
174	0xbe06a5c2	-0.13149169
175	0x3c82473b	0.015903106
176	0x3d8cad12	0.06868948
177	0xbdce15fe	-0.100627884
178	0x3c410b0e	0.011782421
179	0x3d47fbdd	0.04882418
180	0x3e11ef51	0.14251448
181	0x3d4676b5	0.04845305
182	0x3cb4bdbc	0.022063129
183	0x3e63601e	0.22204635
184	0x3f1bea54	0.6090443
185	0x3cd41db0	0.025893062
186	0x3e3bb651	0.18331267
187	0xbeade0c0	-0.33960533
188	0x3d0a5dc1	0.033780817
189	0x3e26b168	0.16278613
190	0xbe31494d	-0.17313118
191	0x3c9504b4	0.01819072

local_mlp.0.bias f4 [64]
0	0x3c65ba38	0.014021449
1	0x3b9da112	0.004810461
2	0x3d09d50e	0.03365045
3	0x3c47a3ce	0.01218505
4	0x3c314eeb	0.010822038
5	0x3ce10e18	0.02747254
6	0x3c866e15	0.016409913
7	0x3c2e56ac	0.010640781
8	0xb8ccff93	-9.7750824e-05
9	0x3c544148	0.012955017
10	0x3c834c8a	0.016027708
11	0x3c9c98d2	0.01911584
12	0x3c487344	0.012234513
13	0x3bf8aab0	0.007588707
14	0x3c423f1b	0.011855866
15	0x3c1a4860	0.00941667
16	0x3c243766	0.010022974
17	0x3c8eaacc	0.017415427
18	0x3c85d71c	0.016337924
19	0xba5a75a9	-0.0008333573
20	0x3c484aa1	0.012224824
21	0x3c2ea6a3	0.0106598465
22	0x3d158b48	0.036509782
23	0x3c785f9a	0.015159512
24	0x3b70c436	0.0036738045
25	0x3c6faff6	0.014629355
26	0x3cf0aab6	0.029378276
27	0x3aae7dde	0.0013312658
28	0x3cc7b64b	0.024378916
29	0x3c36efb4	0.011165548
30	0x3c3c975c	0.011510696
31	0x3ce10299	0.027467059
32	0x3c43704e	0.011928631
33	0x3b8ab135	0.0042325505
34	0x3ccdd044	0.025123723
35	0x3c565411	0.013081566
36	0x3c558cda	0.01303407
37	0x3c403f51	0.011733846
38	0x3d205cfc	0.039151177
39	0x3b11cde4	0.0022247965
40	0xbbafa095	-0.005359719
41	0x3ccf987f	0.02534127
42	0x3c80638d	0.01567247
43	0x3c1161fc	0.008873459
44	0x3cbdc3a6	0.023164582
45	0x3cbb7a2e	0.022885408
46	0x3c817938	0.015804872
47	0x3cdc8957	0.026920957
48	0x3a3c6529	0.0007186705
49	0x3c3ad171	0.011402474
50	0x3cb8c87d	0.022556538
51	0x3ce1830a	0.027528305
52	0x3cb29605	0.02180005
53	0x3c95cd1d	0.018286282
54	0x3c96d171	0.018410416
55	0x3c566c2b	0.013087313
56	0x3c85bdf3	0.016325926
57	0x3c28f897	0.010313175
58	0x3c73518a	0.014850983
59	0x3b2af77f	0.002608746
60	0x3c813fad	0.015777433
61	0x3d118cbb	0.0355346
62	0x3cc663c3	0.024217492
63	0x3cbd192e	0.023083296

local_mlp.2.weight f4 [256, 64]
0	0xbd31a8e0	-0.043373942
1	0x3e010b1a	0.12601891
2	0x3dfc7a7b	0.12328049
3	0x3e04553d	0.12923141
4	0x3df41821	0.11918665
5	0xbe13076a	-0.14358297
6	0xbda83085	-0.08212379
7	0x3dad1ef9	0.08453173
8	0x3d24d56a	0.04024259
9	0xbda4577b	-0.08024498
10	0x3df8f27f	0.121556275
11	0xbe16412b	-0.14673297
12	0x3d89c259	0.06726522
13	0x3d9436f0	0.07237041
14	0x3dffbc2a	0.12487061
15	0x3db8e4c9	0.09028012
16	0x3dbede58	0.093197525
17	0xbe084ceb	-0.13310592
18	0xbdd09801	-0.101852424
19	0x3d4c067b	0.049810868
20	0xbda2c812	-0.07948317
21	0xbe088fe4	-0.1333614
22	0x3e0cc9b9	0.13748826
23	0x3d9f0366	0.0776432
24	0x3de55573	0.11197939
25	0x3c82f84d	0.01598754
26	0x3e1988c9	0.14993586
27	0x3d182263	0.03714217
28	0xbe2949d2	-0.16532066
29	0x3d832de0	0.06405234
30	0xbde6cdec	-0.11269745
31	0xbe6b0db4	-0.22954446
32	0x3dabfdcf	0.083980195
33	0x3dc57ad4	0.09642568
34	0xbdd7e3e0	-0.105415106
35	0xbd86a842	-0.065750614
36	0xbe02335b	-0.12714903
37	0x3d54217e	0.051789753
38	0xbe222a98	-0.1583656
39	0x3d7cacbf	0.06168818
40	0x3d246f7e	0.04014539
41	0xbdd64ed7	-0.10464256
42	0xbd9da410	-0.07697308
43	0x3dc8092a	0.09767373
44	0xbdb3ae84	-0.087735206
45	0xbe3182f7	-0.17335115
46	0x3db924e5	0.0904024
47	0x3da46d06	0.08028607
48	0x3c1d242b	0.009591143
49	0xbe4fec67	-0.20305024
50	0x3dc5769f	0.09641766
51	0xbe184ce4	-0.14873081
52	0x3dd4d48a	0.10392101
53	0xbd1b2cd3	-0.037884545
54	0x3e083785	0.13302429
55	0x3da156e9	0.07877905
56	0xbddab65b	-0.10679313
57	0x3db3839d	0.087653376
58	0x3db9d0b0	0.09073007
59	0x3dc83d61	0.09777332
60	0xbda8b7e8	-0.08238202
61	0xbe3b5ad7	-0.18296371
62	0xbddf8abe	-0.10915135
63	0xbdf620b6	-0.12017958
64	0xbd99ee1a	-0.075161174
65	0x3d8c8794	0.06861797
66	0x3e16efcb	0.14739911
67	0x3dde3052	0.1084906
68	0x3d93e573	0.07221498
69	0xbded80a7	-0.11596804
70	0xbd9a3cd6	-0.07531135
71	0x3dacdec5	0.084409274
72	0x3d77021b	0.060304742
73	0xbdb4d1b4	-0.0882906
74	0x3dbd7f18	0.09252757
75	0xbe08850b	-0.13332002
76	0x3db13879	0.086533494
77	0x3d856eda	0.06515284
78	0x3da0d5d3	0.07853284
79	0x3d95496c	0.07289395
80	0x3daa3e8b	0.083127104
81	0xbdc03561	-0.09385181
82	0xbdcdb7cc	-0.10044822
83	0x3d71c297	0.059023466
84	0xbd989569	-0.07450373
85	0xbdfb31d4	-0.12265363
86	0x3de6859a	0.11255951
87	0x3ca2bbf4	0.019865014
88	0x3d7f14a4	0.062275544
89	0x3d150dd6	0.036390148
90	0x3dfc88be	0.12330769
91	0x3d476d7e	0.048688404
92	0xbe3053a3	-0.17219405
93	0x3d47bcd9	0.048764084
94	0xbdf323d1	-0.11872066
95	0xbe2a0991	-0.16605212
96	0x3da9cb84	0.08290771
97	0x3da6df27	0.08148032
98	0xbe098a61	-0.13431694
99	0xbda170a2	-0.07882811
100	0xbe0d9d6f	-0.13829587
101	0x3d9290d1	0.07156528
102	0xbe23845a	-0.15968457
103	0x3d0d26eb	0.034460943
104	0x3cbccdf1	0.02304742
105	0xbdfc8072	-0.123291865
106	0xbdae82d1	-0.08521045
107	0x3dd4164a	0.10355814
108	0xbe03682e	-0.1283271
109	0xbdff8218	-0.12475985
110	0x3db64aa6	0.08900957
111	0x3d9f1ca9	0.07769138
112	0x3d71d7d0	0.059043705
113	0xbe3c2233	-0.18372421
114	0x3db5205f	0.08844065
115	0xbe1802c5	-0.14844806
116	0x3dcb909e	0.09939693
117	0xbde8152a	-0.11332162
118	0x3dc80e67	0.09768372
119	0x3d882eb5	0.06649534
120	0xbe06a6d8	-0.13149583
121	0x3d0b5297	0.03401431
122	0x3dff80fd	0.124757744
123	0x3d3a22f7	0.0454435
124	0xbd66c9e3	-0.056344878
125	0xbe3316a8	-0.17489111
126	0xbde587bb	-0.11207529
127	0xbe169a14	-0.14707214
128	0x3d6b5812	0.057457037
129	0xbdac1fdc	-0.08404514
130	0xbe0839fe	-0.13303372
131	0xbdb59fc3	-0.08868363
132	0xbddd2ca9	-0.10799534
133	0x3e05c9fd	0.13065334
134	0x3ddec926	0.1087821
135	0xbd8523e7	-0.065009885
136	0xbd3ddf7b	-0.046355706
137	0x3d633b98	0.055476755
138	0xbd966028	-0.07342559
139	0x3db2cd3b	0.08730551
140	0xbd1c4429	-0.03815094
141	0xbdc6e72c	-0.09712061
142	0xbd524364	-0.0513338
143	0xbd923180	-0.071383476
144	0xbe0c6127	-0.13708936
145	0x3dd2b031	0.10287512
146	0x3dda1750	0.10648978
147	0xbd78f822	-0.060783513
148	0x3d62a67b	0.05533455
149	0x3d619de1	0.055082206
150	0xbded5007	-0.1158753
151	0xbd617278	-0.055040807
152	0xbdad09a3	-0.08449104
153	0xbcf328b0	-0.029682487
154	0xbdb765f5	-0.08954994
155	0xbde3aaab	-0.11116537
156	0x3d704127	0.058655884
157	0xbdab66d7	-0.083692245
158	0x3da93ec1	0.082639225
159	0x3dfe1f2a	0.12408288
160	0xbdaae6cb	-0.083448015
161	0xbd80fd80	-0.06298351
162	0x3dbc68de	0.09199689
163	0x3d734e84	0.05940105
164	0x3dc799f9	0.09746165
165	0xbda6b32c	-0.08139643
166	0x3df8e56e	0.12153135
167	0xbd29cfd6	-0.041457973
168	0xbcf3e29f	-0.029771147
169	0x3dcc0a69	0.09962923
170	0x3d7774c0	0.060414076
171	0xbdafa9a6	-0.0857728
172	0x3db283db	0.08716556
173	0x3dcfd37c	0.10147759
174	0xbdc436d8	-0.09580773
175	0xbdc2ef0c	-0.09518251
176	0xbd2efa3a	-0.042719103
177	0x3dcb9ec8	0.099423945
178	0xbd8fcc8d	-0.07021437
179	0x3d8f95ed	0.07011018
180	0xbde905bb	-0.11378046
181	0x3da24324	0.07922962
182	0xbdbefe89	-0.093258925
183	0xbd87fd72	-0.06640138
184	0x3ddc8843	0.10768177
185	0xbd5a6122	-0.05331529
186	0xbd9b8374	-0.07593432
187	0xbdc42f8a	-0.0957938
188	0x3d8ae41e	0.06781791
189	0x3e1625e8	0.14662898
190	0x3dcb9abb	0.09941622
191	0x3d65cb6d	0.056102205
192	0xbd90b1f2	-0.070651904
193	0x3d77df8a	0.060515918
194	0x3de3ac89	0.11116893
195	0x3db9e8f0	0.090776324
196	0x3d903ca3	0.070428155
197	0xbe0d0086	-0.13769731
198	0xbdbef747	-0.09324508
199	0x3d04cd06	0.032422088
200	0x3d215f28	0.03939739
201	0xbd91b975	-0.07115451
202	0x3db246f9	0.08704943
203	0xbe58b49b	-0.21162646
204	0x3d4d4f1d	0.050124276
205	0x3d3711ad	0.04469459
206	0x3d9338d0	0.071885705
207	0x3d171247	0.036882665
208	0x3d912f16	0.07089059
209	0xbe16072f	-0.14651178
210	0xbdd06b26	-0.10176687
211	0x3d829132	0.0637535
212	0xbd9f4e23	-0.07778575
213	0xbd9fa3a9	-0.077948876
214	0x3de7a65d	0.11311028
215	0x3dbe2263	0.092839025
216	0x3d8d7784	0.069075614
217	0x3d779059	0.060440395
218	0x3dd9c8f9	0.106340356
219	0x3d7e4daa	0.062085785
220	0xbe0e3517	-0.1388744
221	0x3db6a2d3	0.08917775
222	0xbd9d256e	-0.07673155
223	0xbe3a0545	-0.18166073
224	0x3d3bbb45	0.04583289
225	0x3d8478f4	0.064683825
226	0xbe07f86d	-0.1327836
227	0xbdb504b4	-0.08838788
228	0xbe1720a1	-0.1475854
229	0x3d1a6892	0.037697382
230	0xbe01db05	-0.12681206
231	0x3d360f1e	0.04444801
232	0x3c805627	0.01566608
233	0xbd8c9be0	-0.06865668
234	0xbd812fc0	-0.06307936
235	0x3d197ccb	0.037472527
236	0xbdcaaae1	-0.09895874
237	0xbdfaedd6	-0.12252395
238	0x3dc1b6f6	0.09458725
239	0x3db1b545	0.086771525
240	0x3d0bcc37	0.0341303
241	0xbe1e7762	-0.15475228
242	0x3dbccb48	0.0921846
243	0xbe0e98bb	-0.1392545
244	0x3d50abc6	0.050945066
245	0xbd7290d5	-0.059220154
246	0x3d5d3aaa	0.054011025
247	0x3d645588	0.05574563
248	0xbe06f117	-0.13177906
249	0x3d20f0ed	0.039292265
250	0x3d7fbf65	0.062438387
251	0x3d24527a	0.04011772
252	0xbda3d9de	-0.08000539
253	0xbe2a1e22	-0.16613057
254	0xbe05bc0a	-0.13060012
255	0xbe03201e	-0.1280522

local_mlp.2.bias f4 [256]
0	0xbd02563f	-0.031820532
1	0xbcbe1112	-0.0232015
2	0x3cc01299	0.023446368
3	0xbc99805c	-0.018737964
4	0xbcd7d64a	-0.026347298
5	0x3cc9340d	0.024560953
6	0xbcb6514d	-0.022255564
7	0x3c9b286f	0.018940179
8	0x3cbd2022	0.023086611
9	0x3cd724fb	0.02626275
10	0x3c902499	0.017595576
11	0xbc345251	-0.011005954
12	0xbb8b990f	-0.0042601894
13	0x3d0fe39f	0.035129186
14	0x3c69fd2d	0.014281553
15	0xbcc62825	-0.024189064
16	0x3c8f0824	0.017459936
17	0x3c822f16	0.015891593
18	0x3cae71d4	0.021294512
19	0xbcc16be5	-0.023611018
20	0x3ca3b62c	0.019984327
21	0x3ca98978	0.020695433
22	0xbc00bb22	-0.007857116
23	0xbcc1a57e	-0.023638483
24	0x3d11791c	0.03551589
25	0x3cd7d101	0.026344778
26	0x3cd0d5a2	0.025492493
27	0x3c949e4b	0.018141886
28	0x3c7a9f3a	0.015296752
29	0x3c2f6c5e	0.010706989
30	0xbcc92bd8	-0.02455704
31	0x3c8b9f76	0.01704381
32	0xbcf8f0d4	-0.030388273
33	0xbcb6f41a	-0.022333194
34	0x3c8fde14	0.01756195
35	0x3c990e39	0.01868354
36	0x3ca4ad61	0.020102205
37	0xbcbfc63e	-0.023409959
38	0xbcc96034	-0.024582006
39	0x3ca66dae	0.020315971
40	0xbc8857b6	-0.016643386
41	0x3c39a28e	0.01133026
42	0xbc22d879	-0.009939306
43	0xbc6d5a88	-0.014486916
44	0xbc9165d4	-0.01774875
45	0x3c88e684	0.01671148
46	0xbcf34878	-0.029697642
47	0xbc9c0a4f	-0.019047884
48	0xbca358b8	-0.019939765
49	0xbc99dfce	-0.018783476
50	0x3ce82d45	0.028341899
51	0x3cda3758	0.026637718
52	0x3c3e27c6	0.011606162
53	0x3ce3e162	0.027817432
54	0xbc828a06	-0.015934955
55	0xbc88ed13	-0.016714608
56	0x3c986f12	0.01860765
57	0x3ca96d6b	0.020682057
58	0x3be6a03d	0.007038145
59	0xbc320c1a	-0.010867143
60	0x3c69aecd	0.014262867
61	0xbbfce527	-0.007717747
62	0xbc02f809	-0.0079937065
63	0xbc97da39	-0.018536674
64	0x3cdc74b0	0.02691111
65	0x3d6ad0d0	0.057328045
66	0x3cad7896	0.021175664
67	0x3ca94e6c	0.020667277
68	0xbca24c4d	-0.019811774
69	0xbcaa85ec	-0.020815812
70	0x3c9a54f3	0.018839335
71	0x3cb5e252	0.022202644
72	0x3cb677f5	0.022273997
73	0xbbb01ccd	-0.005374527
74	0x3ca192f7	0.019723399
75	0x3ccfdfe0	0.025375307
76	0xbc1e0f97	-0.009647272
77	0xbcbb675b	-0.022876432
78	0xbccfd366	-0.025369357
79	0x3cb2efdf	0.021842895
80	0x3cb8abba	0.022542823
81	0x3c24828e	0.010040892
82	0xbc281e7e	-0.010261176
83	0x3cbfc5db	0.023409775
84	0x3c8349a0	0.016026318
85	0xbc9b87a6	-0.01898558
86	0xbccd0743	-0.025027877
87	0x3c9ee2d2	0.019395266
88	0x3cd7da2a	0.026349146
89	0xbcbd2cb4	-0.023092605
90	0x3cace0e4	0.02110333
91	0x3c5200ea	0.012817601
92	0x3c60db39	0.013724142
93	0xbcba2452	-0.022722397
94	0xbca9a02d	-0.02070626
95	0x3c626bb0	0.01381962
96	0x3cacfc63	0.021116441
97	0x3c8741c5	0.016510854
98	0xbccdc797	-0.025119586
99	0x3cc29ff4	0.023757912
100	0x3bebccd1	0.007196047
101	0x3c0ad806	0.008474356
102	0xbc862fa5	-0.01638014
103	0x3cc96098	0.024582192
104	0x3d079a87	0.033106353
105	0x3c90cd1c	0.017675929
106	0xbc873f65	-0.016509721
107	0x3c791dbb	0.015204842
108	0xbcdc5480	-0.026895761
109	0x3cbee145	0.023300776
110	0xbc95ae0e	-0.018271472
111	0x3ca5f3a8	0.020257786
112	0x3c40d3d3	0.011769253
113	0x3c9ae4c2	0.018907908
114	0x3c980708	0.01855804
115	0x3c842765	0.016132066
116	0x3c8e6545	0.017382273
117	0xbc8e2fc9	-0.01735677
118	0xbc9a8208	-0.018860832
119	0xbca2c9c7	-0.019871606
120	0xbc828ca8	-0.01593621
121	0x3ca561d2	0.020188246
122	0x3c842de3	0.016135162
123	0x3cc86132	0.024460409
124	0xbcb4460c	-0.022006057
125	0xbbd47a04	-0.006484272
126	0xbca74e9c	-0.020423226
127	0xbca177df	-0.01971048
128	0xbc69d1d5	-0.014271219
129	0x3c979699	0.018504428
130	0x3c309738	0.010778241
131	0xbbb9f4ca	-0.005674933
132	0xbcc1377a	-0.023586024
133	0xbca06ca7	-0.01958306
134	0x3cb16b56	0.021657627
135	0xbcecedef	-0.02892205
136	0xbd0127b1	-0.031531993
137	0xbb027dbc	-0.001991137
138	0xbc9847bd	-0.018588895
139	0xbcbd3bee	-0.023099866
140	0x3ca4437d	0.020051712
141	0x3c39a0d5	0.011329849
142	0x3c7f932c	0.015599053
143	0x3c0c623a	0.008568341
144	0x3ac6cea5	0.0015167786
145	0x3ad9b27b	0.0016608977
146	0x3caa18e5	0.020763824
147	0x3cd5fed0	0.02612248
148	0xbca5f6b2	-0.020259235
149	0xbcafbbad	-0.021451795
150	0xbcc5993f	-0.024120925
151	0x3c627193	0.0138210235
152	0xbca97051	-0.02068344
153	0xbcea522a	-0.028603632
154	0xbc980607	-0.018557562
155	0xbcb3d3b9	-0.021951543
156	0x3cafcce0	0.021459997
157	0xbcb8449f	-0.022493659
158	0x3be133cf	0.006872631
159	0xbce2e4d8	-0.027697012
160	0x3c9e1cab	0.01930078
161	0x3d3420d5	0.043976624
162	0xbcb165de	-0.02165502
163	0xbccb29c9	-0.024800198
164	0xbc81fec8	-0.01586856
165	0x3c515492	0.012776511
166	0xbca92c48	-0.020650998
167	0x3cade203	0.021225935
168	0x3c9a851b	0.018862298
169	0x3cb752cd	0.02237835
170	0xbccad8df	-0.024761615
171	0xbcb49f49	-0.02204861
172	0x3cc41da4	0.023939915
173	0xbcd94801	-0.026523592
174	0xbc141556	-0.00903829
175	0x3c7fac91	0.015605108
176	0x3c8b64ca	0.017015833
177	0xbc028734	-0.007966805
178	0x3cab7999	0.020932006
179	0xbcbe9b68	-0.023267463
180	0x3ce50666	0.027957153
181	0x3cad07a8	0.021121815
182	0x3ca16177	0.019699795
183	0xbccaaf1f	-0.024741707
184	0xbcd685dc	-0.026186876
185	0xbcc11df6	-0.023573857
186	0xbc6cecfe	-0.0144608
187	0x3c74d309	0.014942893
188	0x3cf2a7f1	0.029621096
189	0x3ca1281b	0.019672444
190	0xbcd8eb0f	-0.026479272
191	0xbcac05b5	-0.020998815
192	0x3cb2a93b	0.021809211
193	0xbce746f8	-0.028232083
194	0xbcb6b92f	-0.0223051
195	0xbcbf7917	-0.02337317
196	0x3cc76002	0.024337772
197	0x3cc2130b	0.023690721
198	0xbca63e51	-0.020293387
199	0xbcd62dac	-0.026144825
200	0xbd08ae15	-0.033369143
201	0x3c377414	0.011197109
202	0xbc951e2a	-0.01820286
203	0x3c700316	0.014649173
204	0xbca8be50	-0.02059856
205	0xbcac6df5	-0.021048525
206	0xbc8a004f	-0.01684585
207	0x3c887d26	0.016661238
208	0x3cbc07c4	0.022952922
209	0x3ca1d272	0.019753668
210	0x3c470e01	0.012149335
211	0x3c8dc938	0.017307863
212	0xbcf2c82d	-0.029636467
213	0x3ce456ac	0.02787336
214	0x3c8f8bbb	0.017522683
215	0x3cac38b5	0.021023134
216	0x3c8766e9	0.016528564
217	0x3d1fd1ec	0.039018556
218	0x3cd7c4c4	0.026338942
219	0xbc979300	-0.018502712
220	0xbc521783	-0.012822988
221	0xbcb566cf	-0.02214375
222	0x3cc3d731	0.023906322
223	0x3cb427bf	0.021991609
224	0x3c441d1c	0.011969831
225	0x3caf0d06	0.021368515
226	0x3cd3d44a	0.025858063
227	0x3c9b5e6e	0.018965926
228	0x3c8cf392	0.017205987
229	0xbcb39273	-0.021920418
230	0x3c1c0305	0.009522204
231	0xbce155fd	-0.027506823
232	0x3cafa1be	0.02143943
233	0xbcaa07a3	-0.020755595
234	0x3cae3f5e	0.02127045
235	0x3cd1273e	0.025531407
236	0xbc985dad	-0.018599356
237	0x3c9d1093	0.019172942
238	0xbca020b3	-0.019546842
239	0x3ca8a894	0.020588197
240	0x3cb92cf2	0.02260444
241	0x3cbfec91	0.023428233
242	0x3c6f7e99	0.014617586
243	0x3cb3c3e3	0.021943992
244	0xbc6809f0	-0.014162526
245	0x3c9283b0	0.01788506
246	0x3c4d015d	0.012512532
247	0xbc909c3a	-0.01765262
248	0x3c9804ec	0.018557034
249	0xbcaddf65	-0.021224687
250	0x3c6ee325	0.014580523
251	0x3bba1ca8	0.0056796856
252	0xbcb9c1e8	-0.02267547
253	0xbcd219f7	-0.025647147
254	0xbd0c67ce	-0.034278683
255	0x3c85768e	0.016291883

output_mlp.0.weight f4 [128, 512]
0	0x3d523da4	0.051328316
1	0x3d2f4f11	0.042800013
2	0xbca35a17	-0.01994042
3	0x3d74d85f	0.05977666
4	0x3d71fb32	0.05907745
5	0xbd878910	-0.066179395
6	0x3cb45e35	0.022017578
7	0xbcaaf17a	-0.020867098
8	0xbd27f203	-0.041002285
9	0xbd16b06e	-0.03678935
10	0xbcdef9d2	-0.027218733
11	0x3d385e45	0.045011777
12	0x3d94752a	0.0724891
13	0xbd59c49e	-0.053166024
14	0xbd1a2192	-0.03762967
15	0x3d207c77	0.0391812
16	0xbd4f30e7	-0.050583746
17	0xbd2e3a1b	-0.042535882
18	0xbd6c29b4	-0.05765696
19	0x3d69ecc8	0.057110578
20	0xbd5e11a2	-0.054216035
21	0xbd9e0038	-0.077148855
22	0x3d105c72	0.035244413
23	0x3d897bc0	0.067130566
24	0xbd21c152	-0.039491005
25	0xbd69b9f7	-0.057062116
26	0xbd87b4f4	-0.06626311
27	0xbc96ed47	-0.01842369
28	0xbd09546c	-0.033527777
29	0xbd74ebc7	-0.059795167
30	0x3cf96b8c	0.03044679
31	0xbd652776	-0.055945836
32	0x3d477074	0.048691228
33	0x3d2f958e	0.042867236
34	0xbd223c22	-0.03960813
35	0xbd495acf	-0.049158867
36	0xbd523f23	-0.051329743
37	0x3d727dae	0.05920189
38	0x3d69424c	0.05694799
39	0xbd0c8140	-0.03430295
40	0x3ce8c0d9	0.02841227
41	0xbdba11ea	-0.09085448
42	0x3d651228	0.05592552
43	0x3d583b07	0.052790668
44	0xbd7ed199	-0.062211607
45	0xbc4f0327	-0.012635029
46	0x3cf9424d	0.030427122
47	0x3cdddd7d	0.027083153
48	0x3d8bf6c4	0.06834176
49	0x3d0f857c	0.03503941
50	0xbd44fc81	-0.04809237
51	0xbcab9e3c	-0.020949475
52	0xbd17d1a4	-0.037065163
53	0xbcc3ed07	-0.023916734
54	0x3d5c1935	0.053734977
55	0x3c784969	0.015154221
56	0xbda9331e	-0.08261703
57	0xbdc2ab49	-0.09505326
58	0xbd43424b	-0.047670644
59	0x3db0346e	0.0860375
60	0xbd8d3341	-0.068945415
61	0x3dbb7ece	0.091550454
62	0x3d43d684	0.047812
63	0x3d6bcc83	0.057568084
64	0xbd9a87d8	-0.075454414
65	0xbd1f5883	-0.03890277
66	0xbd3c11f5	-0.045915563
67	0xbdaf2fce	-0.0855404
68	0x3d584abe	0.052805655
69	0x3d047dc0	0.032346487
70	0xbce58a7c	-0.028020136
71	0xbd0d07c3	-0.03443123
72	0xbd3e4a21	-0.046457414
73	0x3ce3aa5d	0.027791196
74	0xbd61ee64	-0.055158988
75	0xbd8931c6	-0.06698947
76	0x3dab2a3c	0.08357665
77	0x3db7c21f	0.089725725
78	0x3cfa9dd3	0.030592835
79	0xbdb04b33	-0.08608093
80	0xbd9b12e0	-0.075719595
81	0xbcf3bc59	-0.029752897
82	0x3d32f2e7	0.04368868
83	0xbd6825df	-0.05667674
84	0xbd46f882	-0.04857684
85	0x3d075b6d	0.033046175
86	0x3d925050	0.07144225
87	0xbd9a9a3d	-0.0754895
88	0xbd0c21ed	-0.03421204
89	0x3d39b9ac	0.045343086
90	0xbd81bf5b	-0.06335326
91	0xbd85a872	-0.06526269
92	0xbd85f0ca	-0.065400675
93	0x3cbc1e08	0.022963539
94	0x3d81e192	0.06341852
95	0xbd57b6f3	-0.05266471
96	0x38b355bb	8.551354e-05
97	0xbd84f170	-0.06491363
98	0x3d89627d	0.06708238
99	0xbd1dc1be	-0.038514845
100	0xbd878d1f	-0.066187136
101	0xbd92ff56	-0.07177608
102	0x3cdfb8aa	0.027309734
103	0xbd9d53dc	-0.076820105
104	0xbd6e1ce3	-0.058133017
105	0xbd15f23c	-0.036607966
106	0x3d918f35	0.07107393
107	0xbd4c7b33	-0.04992218
108	0x3d944de0	0.07241416
109	0xbd8423a3	-0.0645211
110	0x3d87fc46	0.06639914
111	0xbda8bf29	-0.08239586
112	0xbd48fb4c	-0.04906778
113	0xbd548c7a	-0.05189178
114	0xbd048ce3	-0.032360923
115	0xbd964d45	-0.07338957
116	0xbd9878c3	-0.074449085
117	0x3d0710f5	0.032975156
118	0x3ce4bb83	0.027921444
119	0x3d6354e8	0.055500895
120	0x3d39d682	0.045370586
121	0xbd8f7915	-0.070055164
122	0xbca845db	-0.020541122
123	0xbd1484fd	-0.03625964
124	0x3d286515	0.041112024
125	0xbd99e9e6	-0.07515316
126	0x3ce4bcd6	0.027922075
127	0x3d27e3d4	0.04098876
128	0x3d9ad400	0.07559967
129	0xbd6f9349	-0.05849007
130	0xbc5ad3f3	-0.013356197
131	0x3d81cd83	0.063380264
132	0x3d2fd6f6	0.042929612
133	0x3d97774f	0.07395803
134	0xbd358070	-0.04431194
135	0x3d9151ac	0.07095656
136	0x3d3a3c54	0.04546769
137	0xbd8d98f1	-0.06913937
138	0x3d171fa5	0.036895413
139	0x3d8b1f9f	0.067931406
140	0xbcd74f64	-0.026282974
141	0xbd1a86e9	-0.037726317
142	0xbd94bc2b	-0.07262453
143	0xbd18da87	-0.03731778
144	0xbd22f449	-0.03978375
145	0xbd3ba5c0	-0.04581237
146	0xbd2ad9ab	-0.04171149
147	0xbce8a45f	-0.02839869
148	0x3d707a8a	0.058710612
149	0x3d8b4ae7	0.06801396
150	0x3d74140f	0.059589442
151	0xbced2cf2	-0.028952096
152	0x3d552650	0.05203849
153	0x3cf39119	0.029732274
154	0x3d268b44	0.040660158
155	0x3de3d698	0.11124915
156	0xbd35e6ef	-0.04440969
157	0x3d152095	0.036408026
158	0xbce6dd65	-0.028181741
159	0x3d155b5f	0.03646409
160	0xbd349c16	-0.044094168
161	0xbd8fdd07	-0.070245795
162	0x3d95e04d	0.073181726
163	0x3ce356a5	0.027751276
164	0x3d5d1431	0.053974334
165	0xbcb39d48	-0.021925583
166	0x3d67132a	0.05641476
167	0xbd97c8fc	-0.074113816
168	0xbd27cc14	-0.04096611
169	0xbd15b5d6	-0.036550365
170	0x3d703037	0.05863973
171	0x3d089c63	0.033352267
172	0xbc58de13	-0.01323654
173	0x3d53198d	0.05153804
174	0x3dadad07	0.08480268
175	0xbd8987d5	-0.06715361
176	0xbd5deb16	-0.054179274
177	0xbd5df275	-0.054186303
178	0xbd805da3	-0.0626786
179	0x3d9edf86	0.077574775
180	0xbd04bd84	-0.0324073
181	0xbd9cabd9	-0.07649965
182	0xbcbd53d1	-0.023111256
183	0x3cc7201f	0.024307309
184	0x3db86add	0.090047576
185	0x3d574319	0.052554224
186	0x3d988ee8	0.07449132
187	0xbdd99029	-0.106231995
188	0xbd84bb87	-0.064810805
189	0xbdb7a44e	-0.089668855
190	0x3d7170af	0.058945354
191	0x3dacea45	0.08443121
192	0xbd82720a	-0.063694075
193	0x3da45302	0.08023645
194	0x3cc70bc7	0.024297608
195	0x3daa892d	0.083269455
196	0xbcafc9e5	-0.021458576
197	0xbd319c88	-0.04336217
198	0x3d9ccb1d	0.07655928
199	0x3d48256c	0.048863813
200	0x3dc9db47	0.09856277
201	0xbd59fc16	-0.053218924
202	0x3d89647b	0.06708618
203	0xbd299086	-0.041397594
204	0x3d6fbfef	0.05853265
205	0x3d129173	0.035783242
206	0x3d6f1a27	0.05837455
207	0xbd265a53	-0.040613484
208	0xbd547016	-0.051864706
209	0xbd4a3ff7	-0.049377408
210	0xbd612b3a	-0.054972865
211	0xbd73805d	-0.05944859
212	0x3d0b8e23	0.0340711
213	0xbd472fa9	-0.048629437
214	0xbcfd63e9	-0.03093143
215	0xbcf6fd9a	-0.030150224
216	0xbd12e0f6	-0.03585907
217	0xbd6b172b	-0.05739514
218	0xbd50c15d	-0.050965656
219	0x3d102c12	0.03519828
220	0x3d9979a3	0.074939035
221	0x3d0a23fe	0.03372573
222	0xbd1d3985	-0.038384933
223	0xbc7d0144	-0.015442196
224	0xbd579d4a	-0.052640237
225	0xbd34b39c	-0.0441166
226	0xbd0c465d	-0.03424679
227	0xbd792c01	-0.06083298
228	0xbd960aa1	-0.07326246
229	0x3d957894	0.07298389
230	0xbda0af6c	-0.07845959
231	0x3d8679cc	0.065662
232	0xbd168270	-0.03674549
233	0x3d3e470b	0.04645447
234	0xbd829853	-0.0637671
235	0xbd654b00	-0.05597973
236	0x3d68e7b7	0.056861605
237	0xbce12d31	-0.02748737
238	0x3d2eb3f6	0.042652093
239	0xbd8d2984	-0.06892684
240	0xbdb0f7d7	-0.08641022
241	0xbd819124	-0.063265115
242	0xbd39f312	-0.045397826
243	0xbd57a840	-0.05265069
244	0x3dbb1d4e	0.09136449
245	0xbd100055	-0.035156567
246	0xbdb40ca6	-0.08791475
247	0x3d8a60f5	0.06756774
248	0xbd80e7d9	-0.062942214
249	0x3d573649	0.052542005
250	0xbd3cb8d7	-0.046074715
251	0xbd907b2a	-0.07054742
252	0x3d84e633	0.064892195
253	0x3da04731	0.07826079
254	0x3d2c8253	0.042116474
255	0xbd24e976	-0.04026171

output_mlp.0.bias f4 [128]
0	0xbce18664	-0.027529903
1	0xbbab61f6	-0.0052301837
2	0xbc6c52d9	-0.014424049
3	0xbbc7cb16	-0.006097208
4	0x3d811a35	0.06303827
5	0x3d1ca8c9	0.038246904
6	0xbc5a54f9	-0.013325923
7	0x3bfa6f70	0.007642679
8	0x3ce57aec	0.028012715
9	0xbcf3e82c	-0.029773794
10	0xbc0b8cf8	-0.008517496
11	0xbc66b643	-0.0140815405
12	0xbc02c732	-0.007982062
13	0xbc0bc527	-0.0085308915
14	0xbc301734	-0.01074772
15	0x3db0c9bb	0.08632227
16	0xbce83ab0	-0.028348297
17	0xbc0fd152	-0.008777933
18	0x3be4464d	0.0069663883
19	0x3c2c6e07	0.010524279
20	0xbccda424	-0.025102682
21	0x3c0d2afb	0.008616204
22	0xbcc0ef4f	-0.023551611
23	0xbc5ad6f5	-0.013356914
24	0xbc62c9d6	-0.013842067
25	0xbc074406	-0.008255964
26	0x3dd89b34	0.10576478
27	0x3c5c0f3a	0.013431365
28	0x3c146dd0	0.009059384
29	0x3cfc3d55	0.030790964
30	0x3c8a59af	0.016888468
31	0x3dded3f8	0.108802736
32	0xbcab1d87	-0.020888103
33	0xbc7ddb23	-0.015494141
34	0xbacb1009	-0.001549245
35	0x3b9a2ba6	0.0047049103
36	0xbbc4d903	-0.006007315
37	0x3d7e0190	0.06201321
38	0x3d8085f1	0.06275547
39	0xbc20d06f	-0.009815319
40	0x3dc12f34	0.094328314
41	0x3c6afa13	0.014341849
42	0x3bb4fcb6	0.0055232896
43	0xbc69e17b	-0.01427495
44	0x3d8d73d4	0.06906858
45	0x3b8756d4	0.0041302238
46	0xbc15f81c	-0.009153392
47	0xbbc04016	-0.0058670146
48	0x3d989f0e	0.07452212
49	0xbc158c1b	-0.009127642
50	0xbc33d04e	-0.010974957
51	0xba9e5857	-0.0012080771
52	0x3d893cf4	0.06701079
53	0x3c9e08b9	0.019291269
54	0x3da37ad2	0.079824105
55	0x3ca3e769	0.020007806
56	0xbc17b21c	-0.009258773
57	0x3a34f8fb	0.0006903556
58	0x3cfc88dd	0.03082698
59	0xbcefa29b	-0.029252341
60	0xbbbb6b0c	-0.005719548
61	0x3dd261ac	0.10272536
62	0xbbacbb5d	-0.005271359
63	0xbbeadb20	-0.007167235
64	0xbd08602f	-0.033294853
65	0xbb1899db	-0.0023285064
66	0xbcacbb00	-0.021085262
67	0x3cb939f0	0.022610635
68	0x3db84ca3	0.08998992
69	0xbc8702e6	-0.016480874
70	0xbb13f83a	-0.0022578374
71	0x3be06950	0.0068484917
72	0x3c6661b1	0.014061377
73	0xbc54a008	-0.012977608
74	0xbc3367f9	-0.010950082
75	0x3d4fe251	0.05075294
76	0xbc0e0d8f	-0.008670225
77	0xbc537b96	-0.012907883
78	0xbc1ff921	-0.009763987
79	0xbcd62e87	-0.026145233
80	0xbcba18f8	-0.022716984
81	0x3d7dc3a3	0.06195415
82	0xbc221f5a	-0.00989517
83	0x3d2e2450	0.0425151
84	0x3d6edc7d	0.058315743
85	0x3c26ec93	0.01018824
86	0xbc8178a3	-0.015804594
87	0xbbec8cbc	-0.0072189253
88	0xbc80bd4d	-0.015715266
89	0xbcb4d435	-0.022073844
90	0xbc0016db	-0.007817949
91	0xbc982485	-0.018572101
92	0xbb2d7077	-0.002646474
93	0x3d89f224	0.06735638
94	0xbbd03539	-0.006354001
95	0xbca303ad	-0.019899214
96	0x3ce6883d	0.028141135
97	0x3d3879b1	0.04503793
98	0xbc0896bd	-0.00833672
99	0xbcbaa3d1	-0.022783192
100	0xba07e14d	-0.0005183414
101	0x3dcde5da	0.10053606
102	0xbbf0b031	-0.0073452224
103	0xbbccdc2d	-0.006251833
104	0x3c88a886	0.01668192
105	0xbb1e8018	-0.0024185237
106	0xbc2f9901	-0.010717631
107	0xbcf9c35e	-0.030488666
108	0x3c0a6fb2	0.008449482
109	0x3d21a86a	0.039467253
110	0x3ca553be	0.020181533
111	0xbc814919	-0.015781926
112	0x3c0eb73a	0.008710677
113	0xbbda83ac	-0.0066685285
114	0xbbfee1ab	-0.0077783666
115	0xbb23985c	-0.002496264
116	0xbd00cd09	-0.031445537
117	0xbc6c2a64	-0.014414404
118	0xbc9efe9d	-0.019408518
119	0xbd09bc7a	-0.03362701
120	0x3c85066f	0.01623842
121	0xbb1cd5ae	-0.0023931074
122	0xbce76491	-0.028246196
123	0xbc1629c6	-0.009165233
124	0x3de855fd	0.11344526
125	0xbd14eb5f	-0.03635728
126	0x3ac71401	0.0015188457
127	0xbc12084f	-0.008913114

output_mlp.2.weight f4 [9, 128]
0	0xbd0e3b58	-0.034724563
1	0x3c735cfa	0.01485371
2	0xbcb92d05	-0.022604475
3	0x3ce1eb34	0.027577974
4	0xbd88703a	-0.066620305
5	0xbd242ac0	-0.040079832
6	0xbc5d0804	-0.013490681
7	0xbb9cd051	-0.0047855754
8	0xbce14a67	-0.027501298
9	0xbcecea86	-0.028920423
10	0xbc52ee9a	-0.01287427
11	0xbc9e1fe1	-0.01930231
12	0xbcc83e0b	-0.024443647
13	0x3cf5f8df	0.030025898
14	0xbcebfdf5	-0.02880762
15	0xbd066d09	-0.032818828
16	0xbb152a63	-0.002276086
17	0xbd41ee2d	-0.047346283
18	0xbca1856f	-0.019716946
19	0xbcfd645e	-0.030931648
20	0xbd4ab2e5	-0.049487013
21	0xbbd2910b	-0.006425982
22	0xbd7a590a	-0.06112007
23	0xbbd0c77b	-0.006371436
24	0xbc42b13b	-0.011883075
25	0xbd3493b9	-0.04408619
26	0xbd77e0d9	-0.060517166
27	0xbbefb1c2	-0.0073148916
28	0x3be42626	0.0069625555
29	0xbcb1878d	-0.021671081
30	0xbc1d3df0	-0.009597287
31	0xbd8b636e	-0.06806074
32	0xbd13531b	-0.035967927
33	0xbc29211b	-0.010322834
34	0xbd1754af	-0.036945995
35	0x3c775644	0.015096251
36	0x3c35730a	0.011074791
37	0xbd03e1d1	-0.032197777
38	0xbd303603	-0.04302026
39	0xbb99ec7b	-0.00469738
40	0xbcdbc324	-0.026826449
41	0xbd210dbb	-0.039319735
42	0xbccaa5bc	-0.024737231
43	0x3aca03a9	0.0015412468
44	0xbd154ed7	-0.03645214
45	0xbca3910c	-0.019966625
46	0xbce1cbad	-0.02756294
47	0xbcd35b76	-0.025800448
48	0x3b88ad1e	0.004171028
49	0x3cd6f80a	0.026241321
50	0x3b141b1f	0.0022599173
51	0x3c169c9a	0.00919261
52	0xbda3500b	-0.07974251
53	0xbc1be7c2	-0.009515705
54	0xbd0f936e	-0.03505271
55	0xbc313427	-0.010815657
56	0xbcb0d213	-0.021584546
57	0xbcbed430	-0.023294538
58	0xbd90156b	-0.07035335
59	0xbcaf4b73	-0.021398282
60	0xbd122288	-0.035677463
61	0xbd193df8	-0.037412614
62	0xbc1c517e	-0.009540914
63	0xbd05200c	-0.032501265
64	0x3c1e3b41	0.009657682
65	0xbc10435b	-0.008805121
66	0xbba0c01d	-0.004905714
67	0xbd399a90	-0.045313418
68	0xbcb5ca5d	-0.02219122
69	0xbc58390f	-0.013197198
70	0xbbc9ac90	-0.0061546043
71	0xbc3c6bd0	-0.011500314
72	0xbc67616a	-0.014122346
73	0xbc4ade5c	-0.012382116
74	0xbd24a3ef	-0.0401954
75	0xbd048d4b	-0.03236131
76	0xb976c2db	-0.00023532978
77	0x3c3655b7	0.011128834
78	0x3cb5991c	0.022167735
79	0xbb88ed7d	-0.0041787014
80	0xbcd8733e	-0.02642214
81	0xbcf2da46	-0.029645097
82	0xbd04e017	-0.03244027
83	0xbc42170a	-0.011846313
84	0xbcff6ff9	-0.031181322
85	0x3b81d3a7	0.0039619985
86	0xbd0487b7	-0.03235599
87	0x3ccac52e	0.024752226
88	0xbc989a82	-0.018628363
89	0x3b10d266	0.0022098063
90	0xbc8c9bd1	-0.017164143
91	0xbcf18e65	-0.029486844
92	0xbd316ef2	-0.043318696
93	0xbd00e963	-0.031472575
94	0xbc152e5c	-0.009105291
95	0x3a7e5863	0.00097025017
96	0xbc3fa8de	-0.011697976
97	0xbc4e4e46	-0.012591904
98	0xbcbb0e6a	-0.022834022
99	0xbc8a22bb	-0.016862264
100	0x3c1a8d4f	0.009433105
101	0xbd13b9de	-0.03606593
102	0xbcd98c41	-0.026556136
103	0x3d3c3d1d	0.04595672
104	0xbd091f5d	-0.033477176
105	0xbc532594	-0.012887377
106	0x3c46efba	0.012142116
107	0xbbda8ea4	-0.006669836
108	0x3d1f4eca	0.0388935
109	0xbbbf8223	-0.005844371
110	0xbd1cf057	-0.038315143
111	0xbced9bcf	-0.02900496
112	0x3d01e017	0.03170785
113	0xbcbd6a7d	-0.023122067
114	0x3d04ea62	0.032450087
115	0x3c94fb31	0.018186184
116	0xbcbd132c	-0.02308043
117	0x3c63cd2c	0.013903897
118	0xbc7389be	-0.014864383
119	0xbbe8596c	-0.007090738
120	0x3af0bc60	0.0018366687
121	0xbc7c6a0f	-0.015406146
122	0xbd0b5141	-0.034013037
123	0xbd061b57	-0.032740917
124	0xbd1f2e7e	-0.038862698
125	0xbd0edf6e	-0.034881048
126	0x3c75afe1	0.014995546
127	0xbd27104b	-0.040787023
128	0xbd2ccd51	-0.042187992
129	0x3d4b98e9	0.049706373
130	0x3df116a8	0.117718995
131	0x3dc23d03	0.09484293
132	0x3ca2c6a4	0.01987011
133	0x3d51c408	0.05121234
134	0x3e089858	0.13339365
135	0x3da63ae3	0.081167005
136	0x3d22cee2	0.03974808
137	0xbd91cacc	-0.071187586
138	0x3e0fca57	0.1404203
139	0x3e1794c4	0.14802843
140	0x3e22e95d	0.15909334
141	0x3e0c04fb	0.13673775
142	0x3e152283	0.14563946
143	0xba0972ae	-0.0005243224
144	0xbd61621c	-0.055025205
145	0x3e154529	0.14577164
146	0x3dc7c0cb	0.09753569
147	0x3d767826	0.060173176
148	0x3b09afa3	0.0021009229
149	0x3da741c9	0.081668444
150	0x3d0ee3d3	0.03488524
151	0x3e0e02c2	0.1386824
152	0x3e0a41e6	0.13501701
153	0x3e1563d5	0.14588864
154	0xbc5cf5c2	-0.013486328
155	0x3d7c0172	0.061524816
156	0x3d8666d5	0.065625824
157	0x3d0772df	0.033068534
158	0x3d907116	0.070528194
159	0xbd014751	-0.031562153
160	0x3bb59d40	0.0055424273
161	0x3ddf6a13	0.10908904
162	0x3e28872a	0.16457811
163	0x3e2437f6	0.16036972
164	0x3e0eb42e	0.1393592
165	0x3cdd0f85	0.02698494
166	0x3cb88f52	0.022529278
167	0x3e1765e1	0.14784957
168	0x3b939523	0.0045038625
169	0x3d2b9975	0.041894395
170	0x3da4f431	0.08054388
171	0x3e0d2bc3	0.13786225
172	0x3cc23a9f	0.023709593
173	0x3d9dfb4a	0.07713945
174	0x3da2376b	0.079207264
175	0x3e0e05ed	0.13869448
176	0xbb582dbf	-0.0032986251
177	0x3e0abd79	0.1354884
178	0x3e12ebe7	0.14347802
179	0x3e1e8fb0	0.154845
180	0x3d215db0	0.039395988
181	0x3d91e3a8	0.071235
182	0x3bc8ca5e	0.0061276397
183	0x3d80ff7f	0.06298732
184	0x3e153c9a	0.14573899
185	0x3d8291a5	0.06375436
186	0x3d6fdc79	0.05855987
187	0xbd0d3a78	-0.03447959
188	0x3e18fb65	0.1493965
189	0xbc989f59	-0.01863067
190	0x3e0fe554	0.14052325
191	0x3e17e458	0.148332
192	0xbdad181d	-0.08451865
193	0x3e292eb7	0.16521727
194	0x3c73d38e	0.014881982
195	0x3d085fd0	0.0332945
196	0xbc7610a0	-0.015018612
197	0x3dd8add9	0.10580034
198	0x3e2529a7	0.1612917
199	0x3d6bd139	0.057572577
200	0x3d44a136	0.048005305
201	0x3df6a40a	0.12043007
202	0x3e16ed8f	0.14739059
203	0x3cf9d9a1	0.030499281
204	0x3e18f91d	0.14938779
205	0x3e12515b	0.14288847
206	0x3e076769	0.13223042
207	0xbd3326b8	-0.043738097
208	0xbb892b32	-0.0041860575
209	0x3c3fdf0c	0.011710893
210	0x3e177cd1	0.14793707
211	0x3c72b27a	0.01481306
212	0x3d0b8e20	0.034071088
213	0x3d9028d3	0.070390366
214	0x3df24958	0.118303955
215	0x3e172ad0	0.14762425
216	0x3e112e78	0.14177883
217	0x3d09c093	0.03363092
218	0x3e1221e4	0.14270741
219	0x3d916416	0.07099168
220	0x3e0af992	0.13571766
221	0xbad5d920	-0.0016315319
222	0x3e1d552a	0.15364519
223	0x3cd43722	0.025905196
224	0x3d753222	0.059862264
225	0x3d2e4f10	0.04255587
226	0x3e1ed8d0	0.15512395
227	0x3cd4d548	0.025980607
228	0x3da93353	0.082617424
229	0xbc718a26	-0.01474241
230	0x3e1436fc	0.144741
231	0x3e150f22	0.14556554
232	0x3d8e3fba	0.069457486
233	0x3dbb0f00	0.091337204
234	0x3d6a72d6	0.057238422
235	0xbd471dab	-0.048612278
236	0x3d98a857	0.07453983
237	0x3d0ba8be	0.034096472
238	0x3d29f4f0	0.041493356
239	0x3de7479d	0.11292956
240	0x3de14e35	0.11001245
241	0x3e251c01	0.16123964
242	0x3e0fecc4	0.14055163
243	0x3d8579e9	0.06517393
244	0xbd42e622	-0.047582753
245	0x3df01517	0.117227726
246	0x3d8553e7	0.06510144
247	0xbd53ffb3	-0.051757526
248	0x3d4cb10a	0.049973525
249	0x3e17b4d3	0.14815073
250	0xbd2f02dd	-0.04272734
251	0x3e09d4a3	0.1346002
252	0xbcd28fb1	-0.025703283
253	0xbd8b498d	-0.06801138
254	0x3dc68f70	0.09695327
255	0x3e0d06e2	0.13772157

output_mlp.2.bias f4 [9]
0	0x3c8358d4	0.016033567
1	0x3b9bff1f	0.0047606374
2	0xbd01ea2c	-0.031717464
3	0xbcbfbc03	-0.02340508
4	0xbd10eee7	-0.035384085
5	0xbd019234	-0.03163357
6	0xbd0280eb	-0.031861227
7	0xbd04bf07	-0.03240874
8	0x3dab314f	0.08359014
