log/segmentation/pn/bucket/weighted-4/pn_10.pth (torch, 337359 bytes, 8 tensors)

local_mlp.0.weight f4 [64, 3]
0.33427733 -0.16503616 0.43923312 -0.044658996 -0.09632573 0.22338326 -0.20820072 -0.00066788995
0.2221544 -0.0779638 -0.07236094 0.20635168 -0.07805943 -0.07915219 0.20898497 0.48778605
0.19867669 0.02631636 0.31412166 -0.2886124 0.08058549 -0.19081007 0.1461154 0.18996127
0.053426445 -0.13791965 0.25073588 0.3370248 -0.12266521 0.4315287 -0.10197987 -0.03454208
0.19255783 0.51409405 -0.8674427 -0.17488927 -0.1391247 0.1349108 0.16529538 -0.16707797
-0.11118577 0.16355304 -0.084683836 0.002504451 0.17512617 -0.0845086 -0.044158 0.15885483
-0.06884206 -0.101503 0.2196627 0.4650889 -0.5355679 -0.091557875 0.3495686 -0.108947895
0.383023 -2.7270799 0.33481678 -0.3278714 0.27094343 -0.20084612 0.2809224 0.36733004
-0.29084796 -0.07372669 -0.3267678 0.16558531 0.24160652 -0.09145177 -0.0127302455 0.16396874
-0.017878745 -0.137025 0.24186553 -1.6250803 1.7585274 0.3970991 -0.21406814 0.00052962947
0.20138024 -2.0367982 -1.5352226 0.30523053 0.5731512 -1.0404992 -0.21069548 -0.091558866
-0.011686206 0.15739393 0.47255465 0.13670856 0.08185971 0.58984447 4.118155 -0.07405007
-0.29269683 0.011565419 0.23832494 -0.013937522 -0.122391835 0.23361558 0.57611257 0.09407412
0.20405576 0.22795768 -0.27945882 0.2747722 0.39233765 0.9988308 0.123102516 -0.8131068
0.685271 0.30653942 0.5322335 0.08775017 0.124276906 -0.09638211 -0.3344647 0.18086632
-0.43791544 0.023253785 0.53305227 0.52030987 -0.22642578 0.13669313 0.34199804 -0.14514239
0.38445368 -0.06323661 -0.12585422 0.21727827 0.37032777 -0.18967763 0.31944558 0.5598353
0.2955724 -0.021915441 -0.14314538 -0.0244954 0.17297332 -0.26687014 0.14215374 0.20190555
-0.75507677 -0.6522805 -0.42671278 0.3067688 -4.638015 -0.092977256 -0.17580211 0.19939566
0.18582998 0.6072118 -0.27725083 -0.1330763 -0.22083586 0.0912085 0.17952505 0.31855562
-0.17358321 0.36496562 -0.16382532 -0.03882966 0.17163241 -0.09979504 0.06360951 0.15975443
0.61928976 0.031386837 0.13703907 -0.17981064 0.016544562 0.17395157 -0.110803925 0.056169264
0.16440023 0.023693133 -0.14905533 0.2429524 0.34881735 -0.0956155 0.3972356 0.40199137
1.6506656 0.0017641643 0.47042805 -0.30214807 0.124443896 0.4559429 -0.2138869 0.2388617
00000000: 6626 ab3e 3dff 28be 2ae3 e03e 5aec 36bd
00000010: 6d46 c5bd 95be 643e 9232 55be 5615 2fba
00000020: 717c 633e 7cab 9fbd f931 94bd db4d 533e
00000030: 9fdd 9fbd 8b1a a2bd 2800 563e 18bf f93e
00000040: e771 4b3e 6895 d73c 8ed4 a03e 01c5 93be
00000050: 010a a53d b763 43be 479f 153e 3585 423e
00000060: b0d5 5a3d cf3a 0dbe 7460 803e 848e ac3e
00000070: e637 fbbd 54f1 dc3e d2da d0bd ff7b 0dbd
00000080: e12d 453e ab9b 033f ba10 5ebf 2c16 33be
00000090: b576 0ebe 0f26 0a3e 3143 293e 7d16 2bbe
000000a0: 5db5 e3bd 737a 273e b86e adbd b721 243b
000000b0: 4654 333e d812 adbd 05df 34bd d7aa 223e
000000c0: 11fd 8cbd cee0 cfbd 42ef 603e 2220 ee3e
000000d0: fa1a 09bf b282 bbbd a8fa b23e 1320 dfbd
000000e0: 971b c43e 7a88 2ec0 1b6d ab3e c3de a7be
000000f0: 19b9 8a3e 9baa 4dbe 10d5 8f3e af12 bc3e
00000100: 06ea 94be 05fe 96bd 1c4e a7be 328f 293e
00000110: b367 773e 114b bbbd 8592 50bc 6ce7 273e
00000120: 7276 92bc 4850 0cbe 99ab 773e a202 d0bf
00000130: 6d17 e13f 9350 cb3e ae34 5bbe d5d6 0a3a
00000140: 9f36 4e3e e75a 02c0 2d82 c4bf 2d47 9c3e
00000150: 09ba 123f 142f 85bf 8ec0 57be 3783 bbbd
00000160: 8077 3fbc e02b 213e aff2 f13e 54fd 0b3e
00000170: 10a6 a73d 0c00 173f edc7 8340 90a7 97bd
00000180: 5cdc 95be e27c 3d3c 740b 743e 345a 64bc
00000190: 92a8 fabd ec38 6f3e 1d7c 133f efa9 c03d
000001a0: fef3 503e bd6d 693e 3a15 8fbe f1ae 8c3e
000001b0: 7be0 c83e 60b3 7f3f 2c1d fc3d c427 50bf
000001c0: ec6d 2f3f bcf2 9c3e 7440 083f 5cb6 b33d
000001d0: e484 fe3d fc63 c5bd f53e abbe 0535 393e
000001e0: 7436 e0be b97e be3c 1d76 083f 0733 053f
000001f0: 29dc 67be 49f9 0b3e 5e1a af3e 35a0 14be
00000200: 1dd7 c43e 3282 81bd eedf 00be 327e 5e3e
00000210: 9a9b bd3e da3a 42be 5f8e a33e 5e51 0f3f
00000220: 4455 973e 0388 b3bc b494 12be 94aa c8bc
00000230: eb1f 313e 34a3 88be c090 113e 54c0 4e3e
00000240: b64c 41bf dbfb 26bf 197a dabe cd10 9d3e
00000250: 9e6a 94c0 dc6a bebd 7805 34be 602e 4c3e
00000260: 374a 3e3e 3c72 1b3f d2f3 8dbe 2745 08be
00000270: cc22 62be 86cb ba3d 6ad5 373e b919 a33e
00000280: ccbf 31be c6dc ba3e d3c1 27be d90b 1fbd
00000290: 68c0 2f3e 5861 ccbd b445 823d aa96 233e
000002a0: c689 1e3f 7c8f 003d f853 0c3e 4820 38be
000002b0: 7688 873c 5c20 323e 2bed e2bd be11 663d
000002c0: 8958 283e 1a18 c23c f6a1 18be 84c8 783e
000002d0: 3098 b23e 0fd2 c3bd 7762 cb3e d0d1 cd3e
000002e0: 0349 d33f 883b e73a f2db f03e 27b3 9abe
000002f0: 71dc fe3d 5971 e93e 2b05 5bbe 2998 743e

local_mlp.0.bias f4 [64]
-0.7464337 -0.34713706 -0.07105642 -0.2972966 -0.30075082 -0.13566823 -0.321966 -0.060346346
-0.47745118 -0.6822527 -0.2529262 -0.04242381 -0.13332245 -0.105235994 -0.23457839 -0.20464131
-0.32770175 -0.13230047 -0.6146436 0.035627853 -0.5771439 -0.1771493 0.042918347 -0.21300764
-0.40776414 0.29852363 -0.07258589 0.30670008 -0.02385486 -0.19647871 -0.26403126 0.013876787
0.07808389 -0.39858758 -0.27913558 -0.5894915 -0.13065007 0.20038071 -0.21506906 -0.24950726
0.24686751 -0.2694584 -0.62030464 -0.3345989 -0.51607025 -0.07924823 -0.17939182 -0.013483187
0.0014171001 0.09034906 -0.0925656 -0.034662835 -0.064242154 -0.6097458 -0.14835513 -0.191064
-0.29109257 -0.08765331 -0.18976927 -0.44461814 -0.6713464 0.011000238 -0.28342158 -0.40122443
00000000: 4716 3fbf f3bb b1be 0786 91bd 4337 98be
00000010: 03fc 99be 9dec 0abe bad8 a4be bb2d 77bd
00000020: 7b74 f4be 1da8 2ebf 8b7f 81be 97c4 2dbd
00000030: ae85 08be f885 d7bd 5135 70be 7e8d 51be
00000040: 86c8 a7be c679 07be 4859 1dbf 83ee 113d
00000050: b4bf 13bf a066 35be 26cb 2f3d ad1e 5abe
00000060: 76c6 d0be 17d8 983e e9a7 94bd cb07 9d3e
00000070: 446b c3bc b731 49be 1b2f 87be 775b 633c
00000080: 72ea 9f3d ac13 ccbe dcea 8ebe eae8 16bf
00000090: 22c9 05be 9a30 4d3e 103b 5cbe d57e 7fbe
000000a0: d6ca 7c3e 74f6 89be 49cc 1ebf 8c50 abbe
000000b0: 2e1d 04bf e54c a2bd 7db2 37be 96e8 5cbc
000000c0: fdbd b93a ee08 b93d 0993 bdbd 9efa 0dbd
000000d0: 6491 83bd 4d18 1cbf 68ea 17be 48a6 43be
000000e0: 160a 95be 9483 b3bd e052 42be fda4 e3be
000000f0: 5cdd 2bbf 583a 343c a21c 91be 4a6d cdbe

local_mlp.2.weight f4 [256, 64]
0.23072769 0.21148258 0.14138268 0.1865073 0.18430015 -0.20014586 0.06649121 0.08959539
0.22899373 0.18092854 0.1690513 -0.14948781 0.07846949 0.1256795 0.18911643 0.15016294
0.16702588 -0.073223926 0.14758979 -0.18674578 0.15249705 -0.034913767 0.11932179 0.13854578
0.24546242 -0.31449223 0.16186967 -0.00015028214 -0.20182355 0.12482009 -0.13110767 -0.72850835
0.1010686 0.26359594 -0.02977997 0.16092466 -0.30009097 -0.084395476 -0.10551223 0.16328332
0.28405386 0.07896739 0.18610248 0.21812937 0.15633656 -0.26543367 0.10623192 0.06600201
-0.079602726 -0.55610037 0.09983893 -0.0713072 0.10884769 0.21621267 0.14694278 0.107686006
-0.026930764 0.12281084 0.124624416 0.27879035 0.17050336 -0.5339556 0.0633551 0.09785795
-0.083304025 0.042600702 0.15850472 0.092953175 0.057317734 -0.02048999 -0.05870671 0.10027302
-0.045998227 -0.10729239 0.09471048 -0.15060468 0.09828103 0.05756946 0.09708376 0.07016468
0.0584165 -0.084186986 -0.099249326 -0.523042 -0.0659004 -0.123152465 0.1372726 0.036298487
0.014951131 -0.055583574 0.13139233 -0.20224363 -0.20244545 0.047859263 -0.033727 -0.36346626
0.08796415 0.02234984 -0.06767255 -0.09508229 -0.12071303 0.032575287 -0.081948794 -0.011303599
0.27930114 -0.058652937 -0.08190234 0.077621214 -0.10999204 -0.004173761 0.09088583 0.10130683
-0.28130496 -0.51716506 0.11408312 -0.06577912 0.11581526 -0.119323626 0.09765926 0.07783618
-0.03451075 0.04165931 0.13501282 -0.057300754 -0.045144826 -0.17260674 -0.06746606 -0.094282486
0.13914739 -0.06738496 -0.24712244 -0.08643217 -0.1086902 0.22197567 0.22201943 -0.21721679
-0.06558692 0.13553026 -0.09023968 0.05652339 -0.14003764 -0.2533964 -0.090444945 -0.1561248
-0.12953259 0.1389621 0.21735275 0.62110627 0.17608745 0.06781164 -0.25393802 -0.105696894
-0.05113467 -0.39049107 -0.19289094 0.07413258 0.0043081874 -0.15073298 0.1837517 -0.1573628
-0.31120867 -0.084212765 0.26021665 0.1496318 0.120344564 -0.35135832 0.28903094 -0.18980479
-0.34030423 0.26831877 0.16216838 -0.094675526 0.21405624 0.1390171 -0.14793155 -0.21897604
0.20980117 -0.55733365 -0.1864437 0.11239562 -0.21531846 0.17157991 -0.1609706 -0.119352184
0.29556847 -0.19694814 -0.1254199 -0.124811284 0.18619584 0.07729458 0.24354136 0.21671364
-0.14706223 -0.19045751 -0.14293414 -0.23736717 -0.2502861 0.2074637 -0.096268445 -0.14395127
-0.16996458 -0.16153476 -0.30251804 -0.24945378 -0.124250546 -0.31394812 -0.25677785 -0.27173457
-0.21491407 -0.17287946 -0.1502556 -0.3927262 -0.10411625 -0.0713561 -0.057514943 -0.24316345
-0.15531088 -0.03651114 -0.16277106 -0.2134528 -0.17468369 -0.22437349 0.270755 0.11390659
-0.20324343 -0.1598471 0.031677138 -0.14696744 0.11265112 -0.11066439 0.07905724 -0.32000536
0.09736839 -0.02450024 -0.11914939 -0.24091549 -0.12956455 0.29358986 -0.2832165 -0.094107285
-0.19869934 -0.40992716 -0.045716595 -0.09755308 -0.16066423 -0.12755015 -0.30476665 -0.16661867
0.06880562 -0.2166078 -0.18068385 -0.1752951 -0.11161597 0.15446126 -0.12298252 -0.10936416
00000000: e143 6c3e e48e 583e 9fc6 103e c5fb 3e3e
00000010: 2eb9 3c3e 09f3 4cbe 8b2c 883d ca7d b73d
00000020: 557d 6a3e 5545 393e c91b 2d3e 5513 19be
00000030: 9db4 a03d 20b2 003e bda7 413e 50c4 193e
00000040: d508 2b3e 6df6 95bd c721 173e 493a 3fbe
00000050: 3028 1c3e bd01 0fbd fc5e f43d f2de 0d3e
00000060: 805a 7b3e 2005 a1be 2ac1 253e 0e95 1db9
00000070: d5aa 4ebe ada1 ff3d 1741 06be 867f 3abf
00000080: 0efd ce3d 0cf6 863e 20f5 f3bc 6fc9 243e
00000090: 86a5 99be 89d7 acbd cc16 d8bd be33 273e
000000a0: 826f 913e a8b9 a13d a691 3e3e 4e5d 5f3e
000000b0: b116 203e ece6 87be 1f90 d93d 102c 873d
000000c0: c106 a3bd 985c 0ebf 5a78 cc3d 8209 92bd
000000d0: 8aeb de3d db66 5d3e 2b78 163e 7b8a dc3d
000000e0: e89d dcbc 4084 fb3d 163b ff3d 9cbd 8e3e
000000f0: 6f98 2e3e 50b1 08bf 52c0 813d c069 c83d
00000100: 4d9b aabd 137e 2e3d 104f 223e 3c5e be3d
00000110: 00c6 6a3d a0da a7bc 7276 70bd f15b cd3d
00000120: a368 3cbd 1dbc dbbd 91f7 c13d 1d38 1abe
00000130: 9147 c93d f4cd 6b3d dad3 c63d 80b2 8f3d
00000140: 2446 6f3d 3a6a acbd 3b43 cbbd 15e6 05bf
00000150: caf6 86bd 5c37 fcbd 3091 0c3e b9ad 143d
00000160: 97f5 743c 9aab 63bd b68b 063e f418 4fbe
00000170: dc4d 4fbe 1308 443d 5325 0abd 4018 babe
00000180: 8c26 b43d 0317 b73c e897 8abd 81ba c2bd
00000190: 6538 f7bd aa6d 053d c5d4 a7bd bb32 39bc
000001a0: 8f00 8f3e 103e 70bd 6abc a7bd dff7 9e3d
000001b0: 8243 e1bd 0bc4 88bb 5a22 ba3d f579 cf3d
000001c0: 3407 90be ee64 04bf 69a4 e93d 34b7 86bd
000001d0: 8d30 ed3d f25f f4bd 9401 c83d 9368 9f3d
000001e0: 255b 0dbd f4a2 2a3d cd40 0a3e 32b4 6abd
000001f0: c8e9 38bd d2bf 30be a52b 8abd 2d17 c1bd
00000200: a77c 0e3e 2001 8abd aa0d 7dbe 5903 b1bd
00000210: f898 debd 974d 633e 1059 633e 146e 5ebe
00000220: 6f52 86bd 72c8 0a3e 95cf b8bd 1285 673d
00000230: 0766 0fbe 2cbd 81be 333b b9bd 2edf 1fbe
00000240: 31a4 04be 154c 0e3e b891 5e3e d200 1f3f
00000250: 4550 343e d4e0 8a3d 2a04 82be 9d77 d8bd
00000260: 9672 51bd 72ee c7be 3485 45be d2d2 973d
00000270: b22b 8d3b bf59 1abe 6829 3c3e b723 21be
00000280: be56 9fbe be77 acbd 1e3b 853e 1439 193e
00000290: 3677 f63d 3de5 b3be ddfb 933e 305c 42be
000002a0: 5b3c aebe 1461 893e 780f 263e 3ee5 c1bd
000002b0: 8f31 5b3e 805a 0e3e 5e7b 17be 413b 60be
000002c0: 1ed6 563e 6bad 0ebf 19eb 3ebe ad2f e63d
000002d0: 717c 5cbe a5b2 2f3e 7ad5 24be eb6e f4bd
000002e0: c054 973e c6ac 49be 136e 00be 0f9d ffbd
000002f0: 1faa 3e3e 9f4c 9e3d e862 793e 2eea 5d3e
00000300: 7b97 16be 4b07 43be 545d 12be 6110 73be
00000310: 8025 80be 5d71 543e 6428 c5bd f667 13be
00000320: 320b 2ebe 5e69 25be a5e3 9abe d070 7fbe
00000330: 1277 febd cfbd a0be 6378 83be cb20 8bbe
00000340: 6f12 5cbe 5007 31be 9bdc 19be 6913 c9be
00000350: e73a d5bd 2623 92bd ca94 6bbd d7ff 78be
00000360: d109 1fbe b58c 15bd 75ad 26be 5f93 5abe
00000370: 48e0 32be 2ac2 65be 66a0 8a3e dc47 e93d
00000380: 0c1f 50be f5ae 23be e3bf 013d a27e 16be
00000390: a1b5 e63d 03a4 e2bd c3e8 a13d bed7 a3be
000003a0: 1469 c73d bab4 c8bc 9804 f4bd 8db2 76be
000003b0: 92ac 04be 6951 963e c101 91be 52bb c0bd
000003c0: d777 4bbe f9e1 d1be 5341 3bbd e9c9 c7bd
000003d0: 2a85 24be 829c 02be 600a 9cbe 169e 2abe
000003e0: f6e9 8c3d 6fce 5dbe 3005 39be 8f80 33be
000003f0: ea96 e4bd 182b 1e3e 42de fbbd 51fa dfbd

local_mlp.2.bias f4 [256]
-0.1493686 0.11586293 -0.07786527 0.022463657 0.05557017 -0.037174802 -0.093668744 -0.47405654
0.15804546 -0.08399278 -0.14293496 0.093452156 0.114645734 0.38058716 -0.4460043 -0.13175014
0.0272178 -0.31804827 0.11700366 0.06371112 0.18253554 -0.18094768 0.07591139 0.14231463
0.2690653 0.4657074 0.23356009 0.07089287 -0.210202 -0.07438829 -0.13201568 0.10822865
-0.07359444 -0.11527971 -0.06863469 -0.25944403 0.15220828 0.12786315 -0.22606659 -0.32159477
0.11807711 -0.42561206 0.09775733 -0.01298664 -0.17062144 -0.318825 -0.107595965 -0.022021506
-0.06314084 0.06445548 -0.06773215 0.0035825672 -0.14722382 -0.03500442 -0.03631391 0.08055162
-0.11783607 -0.18199006 -0.30464128 -0.02531551 -0.047208022 0.19318207 -0.13181145 0.11296241
0.19023377 0.25467187 -0.15978251 -0.27183872 0.1274673 -0.00545376 -0.3135038 -0.17071529
-0.04377089 -0.13326038 -0.16640459 0.018526351 0.17602628 0.09404489 -0.15922432 -0.06014368
-0.15385488 -0.29002544 0.00060276553 -0.07200653 -0.21290365 0.043827668 -0.020281475 -0.2963487
-0.036559276 0.028350495 0.23727427 -0.06204929 -0.33092123 -0.04157146 0.09642203 -0.20585214
-0.13410224 -0.2580793 0.042664625 -0.1754477 -0.29511958 -0.3104055 0.067019336 -0.08565936
0.31859884 -0.15145448 -0.13594677 -0.21267413 -0.22083353 -0.12730084 0.14806794 -0.093219504
-0.47273198 -0.07807073 -0.1298742 -0.07600678 -0.20072646 0.023242518 -0.024477538 -0.08498217
0.021695929 -0.12239623 -0.244076 0.15943481 -0.13895056 -0.38995448 0.09484258 0.0573269
0.003260657 -0.26103774 -0.16643241 0.093305044 -0.22539239 0.08459957 -0.032723658 -0.053243168
-0.44646648 -0.5628054 -0.016454834 -0.17758167 0.16251291 -0.33565572 -0.14236069 -0.14997184
-0.3414258 -0.31779787 -0.13059501 0.28639618 -0.21393986 0.052197777 -0.2608835 -0.15000159
-0.056761093 -0.07817061 0.14135098 -0.00959514 -0.2348356 -0.21986431 -0.16059431 -0.2637681
-0.13912061 0.3254687 0.0062826714 -0.01423138 -0.2159568 -0.2760529 0.17199628 -0.16598816
-0.22226688 -0.06520155 0.15872404 0.08203552 -0.1024222 -0.060010195 -0.18153922 0.09270384
-0.2882444 -0.48561788 -0.21241869 0.12767442 0.2684303 -0.108367756 -0.32302797 0.1596189
-0.15947168 0.14383149 0.14028119 -0.13804707 0.23664285 -0.05881309 0.051248886 0.03469112
-0.17948677 -0.16283886 0.11586283 -0.121256545 0.31269795 0.05842348 0.1958938 -0.09159738
-0.14901023 -0.122694805 0.16987473 -0.43097755 -0.022752902 0.019461416 0.035909247 -0.41683567
-0.081619106 -0.12176965 -0.28670552 -0.384922 -0.060878403 -0.06857183 0.19564909 -0.1679304
-0.33716494 0.35815313 -0.028453376 0.120198585 0.20676582 0.073632196 0.16971241 0.07703203
-0.40471178 -0.22512367 0.10010896 0.17923911 -0.11102684 -0.18186532 -0.19145297 -0.119337976
-0.2793578 -0.09591721 -0.2333522 0.07948184 0.07685732 -0.037308566 -0.1667975 -0.24770536
-0.051814448 -0.12619989 -0.15589213 0.04768444 0.07685757 -0.3634327 -0.11589292 -0.05893866
0.064444855 -0.036333036 -0.04898812 -0.18104006 -0.1200706 -0.0992199 -0.07064233 -0.18726878
00000000: 15f4 18be 8b49 ed3d d477 9fbd b405 b83c
00000010: 8c9d 633d 9b44 18bd 66d5 bfbd 8ab7 f2be
00000020: abd6 213e 6804 acbd 8b5d 12be d863 bf3d
00000030: 62cb ea3d 52dc c23e ad5a e4be 82e9 06be
00000040: ddf7 de3c 39d7 a2be 9d9f ef3d fa7a 823d
00000050: 99ea 3a3e 594a 39be 6e77 9b3d edba 113e
00000060: edc2 893e 3371 ee3e 602a 6f3e 4830 913d
00000070: 313f 57be e358 98bd 1e2f 07be fca6 dd3d
00000080: afb8 96bd c517 ecbd 5890 8cbd d9d5 84be
00000090: 7ddc 1b3e 8fee 023e 007e 67be 12a8 a4be
000000a0: 69d2 f13d d3e9 d9be ff34 c83d ebc5 54bc
000000b0: 63b7 2ebe 083d a3be 465b dcbd 7266 b4bc
000000c0: fc4f 81bd 3c01 843d 27b7 8abd 81c9 6a3b
000000d0: d7c1 16be cb60 0fbd e5bd 14bd 3ff8 a43d
000000e0: 0a54 f1bd 9a5b 3abe f1f9 9bbe 7962 cfbc
000000f0: 335d 41bd 85d1 453e 95f9 06be d658 e73d
00000100: a4cc 423e 5a64 823e 079e 23be 722e 8bbe
00000110: ca86 023e 74b5 b2bb 9283 a0be fdcf 2ebe
00000120: 1b49 33bd 6975 08be f765 2abe 93c4 973c
00000130: 3c40 343e 9b9a c03d b30b 23be 3859 76bd
00000140: 228c 1dbe 377e 94be e902 1e3a 2978 93bd
00000150: 6a03 5abe a484 333d 5625 a6bc 04bb 97be
00000160: 2ebf 15bd 4c3f e83c 07f8 723e 6527 7ebd
00000170: 826e a9be d646 2abd ea78 c53d e7ca 52be
00000180: 1952 09be f822 84be 1ac1 2e3d 90a8 33be
00000190: ea19 97be 78ed 9ebe 6f41 893d 2d6e afbd
000001a0: 631f a33e e216 1bbe a135 0bbe 3fc7 59be
000001b0: 2f22 62be 275b 02be 1f9f 173e dee9 bebd
000001c0: ed09 f2be 8ce3 9fbd befd 04be 71a9 9bbd
000001d0: 3d8b 4dbe 1867 be3c 1e85 c8bc 220b aebd
000001e0: a9bb b13c e0aa fabd 0fef 79be e142 233e
000001f0: 0e49 0ebe 1da8 c7be d43c c23d 9dcf 6a3d
00000200: bfb0 553b bda6 85be 426d 2abe b716 bf3d
00000210: 43cd 66be 8a42 ad3d 3e09 06bd 8215 5abd
00000220: 4197 e4be 0414 10bf 4acc 86bc f8d7 35be
00000230: c969 263e 11db abbe 00c7 11be 3892 19be
00000240: 5dcf aebe 67b6 a2be b3ba 05be 85a2 923e
00000250: 0d13 5bbe 56cd 553d 8692 85be 049a 19be
00000260: 527e 68bd ea17 a0bd 50be 103e ef34 1dbc
00000270: be78 70be 1c24 61be d672 24be 9d0c 87be
00000280: a275 0ebe d5a3 a63e dede cd3b bc2a 69bc
00000290: c823 5dbe ce56 8dbe cb1f 303e cdf8 29be
000002a0: ee99 63be 6488 85bd 8e88 223e 3d02 a83d
000002b0: bbc2 d1bd 40cd 75bd 6be5 39be 83db bd3d
000002c0: c594 93be e8a2 f8be 4984 59be 15bd 023e
000002d0: b26f 893e eaef ddbd ec63 a5be 2373 233e
000002e0: 8b4c 23be 9048 133e dfa5 0f3e 365c 0dbe
000002f0: 8152 723e ffe5 70bd 5aea 513d 4718 0e3d
00000300: 61cb 37be 3bbf 26be 7e49 ed3d 5a55 f8bd
00000310: f219 a03e 754d 6f3d 6298 483e 6897 bbbd
00000320: 2396 18be 6a47 fbbd a4f3 2d3e 17a9 dcbe
00000330: 4b64 babc 8c6d 9f3c 9315 133d 7c6b d5be
00000340: eb27 a7bd 5e62 f9bd 11cb 92be 7f14 c5be
00000350: a25b 79bd 636f 8cbd 3c58 483e f2f5 2bbe
00000360: e2a0 acbe d95f b73e 0e17 e9bc ad2a f63d
00000370: 6bba 533e 7acc 963d 17c9 2d3e f8c2 9d3d
00000380: 6236 cfbe d286 66be ed05 cd3d 758a 373e
00000390: 0a62 e3bd e73a 3abe 3f0c 44be 7867 f4bd
000003a0: fc07 8fbe 3e70 c4bd e1f3 6ebe 60c7 a23d
000003b0: 5f67 9d3d ded0 18bd f7cc 2abe 79a6 7dbe
000003c0: 633b 54bd 8b3a 01be 30a2 1fbe c250 433d
000003d0: 8067 9d3d da13 babe 4459 edbd aa69 71bd
000003e0: aafb 833d f3d1 14bd c4a7 48bd 9162 39be
000003f0: 93e7 f5bd ce33 cbbd edac 90bd 63c3 3fbe

output_mlp.0.weight f4 [128, 512]
0.2662691 0.07719672 0.06722204 0.13081174 0.07419748 0.08110634 0.11016365 0.15016577
-0.0973744 0.23380645 0.044658054 0.17607659 0.17063622 -0.32174736 0.057440296 0.22704741
-0.09246611 0.25023526 -0.15601659 0.12903865 -0.14830364 0.0835474 0.21436211 0.09384811
-0.08654681 -0.06445622 -0.05330952 -0.035770025 -0.07214259 0.11170193 0.2269451 -0.47716832
0.06417876 0.18185867 0.06589433 0.12389847 -0.13906837 0.073307365 0.29767415 0.34964192
0.009819752 0.09975126 0.12749054 0.13750006 -0.018369673 0.16720657 0.15133509 0.11984779
0.26470852 -0.011431578 0.16010737 0.18189903 -0.122178376 0.016537122 0.16941501 0.0078256875
-0.040651225 0.027004046 -0.027533635 0.19906878 0.14459904 0.0899908 0.14647223 0.05591642
-0.113866985 -0.28267682 0.039947197 0.105779946 0.06938491 0.077295616 -0.0017173091 -0.0026072403
0.073031835 0.11850053 0.051717382 -0.08039486 0.090414464 0.20082499 0.22354649 0.11512021
0.25974655 -0.021015547 0.14977051 0.009272919 0.13046521 0.15162975 0.24492799 -0.08435534
-0.0075275977 0.052703228 -0.045853335 -0.056718662 -0.090541944 0.0690803 0.09809977 -0.0760004
-0.0098903375 0.07273427 0.12993592 0.06589229 -0.112053744 -0.03777996 0.024405617 -0.09847767
-0.07642967 0.11632623 0.14020583 0.07219464 0.37880072 -0.038296103 0.07484509 -0.09859212
0.06282942 0.20015697 0.016162775 0.020855835 0.16837162 0.01859416 0.11300169 0.1056129
0.06811568 0.02018212 0.0071468255 -0.24792893 0.11551311 -0.07282572 0.10306315 0.014270868
0.22901952 0.25543112 -0.092662156 0.08206823 0.15171084 0.11871831 0.17829567 0.14566387
0.3331285 0.17503297 0.107586674 0.33668184 -0.12761994 -0.053223953 0.22806971 -0.10959437
-0.10897443 0.1137518 0.060217634 -0.025031367 0.22082324 0.036146447 0.16014104 -0.09941659
0.29297587 0.3415689 0.10498248 0.16140722 0.024159174 0.13306275 -0.11264706 0.17463379
0.1477595 -0.29907337 0.16739213 0.121064655 0.13156141 -0.039540056 0.09544352 0.22808495
0.18532719 0.11429235 0.06821355 0.023959614 0.095254585 0.16160205 0.35478127 -0.12727918
0.30467442 0.103185356 0.021809489 0.13665093 -0.03290381 -0.028240176 0.017099561 0.0028973348
0.20519733 0.07324775 0.12032177 -0.12916118 -0.13214186 -0.045501746 0.16292427 0.2009223
0.1455233 0.22224963 0.020267913 0.2185756 -0.011660274 -0.055615265 0.08874058 0.07934734
0.24884169 -0.04290789 0.051467724 0.19738856 0.2226593 0.15005663 0.15630138 0.11023928
-0.05244996 0.07826046 0.32436782 0.032421194 0.108696625 -0.0021652535 -0.13318318 0.24359196
0.08425635 -0.35547712 0.12138933 0.12945288 0.10682612 0.03393305 -0.046270452 -0.051098738
0.09672952 0.18958127 -0.10681419 -0.1110001 0.06280537 0.36488128 0.13132142 0.18944748
0.27607444 0.1563948 0.04187169 -0.10358504 0.038269725 2.9174786e-05 0.07120534 0.20095703
-0.09237156 0.04946395 0.10534654 -0.11482256 0.10756706 0.009267391 -0.22873661 0.21346273
-0.144331 0.089545846 0.100362405 -0.17329761 0.32856676 0.23183128 0.1335432 -0.09036589
00000000: 6c54 883e 5019 9e3d b5ab 893d 83f3 053e
00000010: d9f4 973d 151b a63d 7b9d e13d 0ec5 193e
00000020: 3b6c c7bd f56a 6f3e 5deb 363d 6c4d 343e
00000030: 43bb 2e3e 12bc a4be 8446 6b3d 1e7f 683e
00000040: df5e bdbd d61e 803e d0c2 1fbe b522 043e
00000050: e9dc 17be e61a ab3d be81 5b3e 7033 c03d
00000060: 743f b1bd 9f01 84bd 155b 5abd 9783 12bd
00000070: 7fbf 93bd fbc3 e43d 4c64 683e 684f f4be
00000080: 2770 833d 2939 3a3e 9bf3 863d 7bbe fd3d
00000090: f067 0ebe 2c22 963d bf68 983e 4404 b33e
000000a0: 06e3 203c 634a cc3d e18c 023e d1cc 0c3e
000000b0: ff7b 96bc 3338 2b3e 96f7 1a3e c272 f53d
000000c0: e087 873e 834b 3bbc 30f3 233e bd43 3a3e
000000d0: a838 fabd dc78 873c 217b 2d3e 5037 003c
000000e0: e681 26bd 9737 dd3c 388e e1bc b0d8 4b3e
000000f0: c511 143e 194d b83d d1fc 153e 9e08 653d
00000100: 1833 e9bd 04bb 90be ac9f 233d 28a3 d83d
00000110: ad19 8e3d 2a4d 9e3d 5517 e1ba 3cde 2abb
00000120: b791 953d 68b0 f23d 9bd5 533d 0fa6 a4bd
00000130: 382b b93d 11a5 4d3e 5fe9 643e 25c4 eb3d
00000140: 80fd 843e cc28 acbc 715d 193e 71ed 173c
00000150: ac98 053e d444 1b3e 67ce 7a3e 7ec2 acbd
00000160: 11aa f6bb 57df 573d b5d0 3bbd d451 68bd
00000170: 0e6e b9bd f979 8d3d 88e8 c83d 19a6 9bbd
00000180: 150b 22bc b4f5 943d ec0d 053e 89f2 863d
00000190: 6f7c e5bd 29bf 1abd 4aee c73c a9ae c9bd
000001a0: 2987 9cbd 723c ee3d 1e92 0f3e c9da 933d
000001b0: 2bf2 c13e 60dc 1cbd 6248 993d aaea c9bd
000001c0: b6ac 803d f3f5 4c3e cc67 843c dbd9 aa3c
000001d0: 9c69 2c3e c852 983c 6e6d e73d 934b d83d
000001e0: 3c80 8b3d f954 a53c eb2f ea3b 15e1 7dbe
000001f0: 2392 ec3d a725 95bd c612 d33d 5cd0 693c
00000200: 1884 6a3e dec7 823e a8c5 bdbd 6313 a83d
00000210: 165a 1b3e 9622 f33d 2493 363e e928 153e
00000220: d28f aa3e d83b 333e 6756 dc3d 9061 ac3e
00000230: cdae 02be 5c01 5abd 1b8b 693e 0373 e0bd
00000240: fc2d dfbd b4f6 e83d c4a6 763d 950e cdbc
00000250: 7d1f 623e 4c0e 143d 03fc 233e ed9a cbbd
00000260: ef00 963e 1ee2 ae3e 0e01 d73d ef47 253e
00000270: 76e9 c53c 9a41 083e 80b3 e6bd 33d3 323e
00000280: 444e 173e 2520 99be d868 2b3e bff0 f73d
00000290: 09b8 063e c1f4 21bd e477 c33d 1a8f 693e
000002a0: 69c6 3d3e 1c12 ea3d 8cb3 8b3d f446 c43c
000002b0: d614 c33d 027b 253e e4a5 b53e 7955 02be
000002c0: 49fe 9b3e d852 d33d d0a9 b23c 39ee 0b3e
000002d0: 25c6 06bd f157 e7bc 6114 8c3c 36e1 3d3b
000002e0: 401f 523e eb02 963d 436b f63d d442 04be
000002f0: 3250 07be 0a60 3abd 9fd5 263e 93be 4d3e
00000300: 0f04 153e 6895 633e e508 a63c 48d2 5f3e
00000310: bc0a 3fbc d5cc 63bd 9fbd b53d dc80 a23d
00000320: 5bd0 7e3e 2fc0 2fbd d2cf 523d 3a20 4a3e
00000330: cd00 643e 72a8 193e 780d 203e 22c5 e13d
00000340: c5d5 56bd 0547 a03d 8a13 a63e 16cc 043d
00000350: 569c de3d ede6 0dbb 2c61 08be 2c70 793e
00000360: 988e ac3d 1901 b6be f89a f83d 4c8f 043e
00000370: a7c7 da3d 62fd 0a3d 1686 3dbd e94c 51bd
00000380: 201a c63d 9821 423e 66c1 dabd 0554 e3bd
00000390: 1aa0 803d b8d1 ba3e 1f79 063e 85fe 413e
000003a0: a159 8d3e f525 203e a681 2b3d 6524 d4bd
000003b0: b7c0 1c3d 60bc f437 1bd4 913d aec7 4d3e
000003c0: 4d2d bdbd b69a 4a3d edbf d73d 1728 ebbd
000003d0: 1e4c dc3d 41d6 173c ee39 6abe f995 5a3e
000003e0: 81cb 13be d063 b73d ce8a cd3d ee74 31be
000003f0: e739 a83e 2e65 6d3e 8cbf 083e c011 b9bd

output_mlp.0.bias f4 [128]
-0.14944609 0.38979554 -0.13304587 0.17185922 0.025008455 0.32063448 -0.1149733 0.007707645
-0.061762482 -0.10519529 -0.14554548 -0.093144506 -0.09966379 -0.11099181 -0.14475307 0.08404401
-0.10470821 -0.13478217 -0.087239556 -0.17149086 -0.16076022 -0.032615412 -0.14433458 -0.1088491
-0.11379008 -0.10148548 0.062129594 0.08440814 0.13585225 0.08582214 -0.0029490462 0.118282445
-0.15553017 -0.10581885 -0.103686586 -0.0834531 -0.13524868 0.066827446 0.0177089 -0.102526724
0.15091033 -0.048652347 0.011012682 -0.10378301 -0.23075232 -0.02735678 -0.032805566 -0.08472413
0.1719664 -0.09896863 -0.14514576 -0.10968381 -0.38751334 -0.03212253 0.10646879 -0.04270377
-0.09668929 0.08348918 -0.032557342 -0.15917818 -0.13779168 0.15716065 -0.106838055 -0.12914936
-0.094033144 -0.09009256 -0.13744812 -0.100098625 0.14419612 -0.14521874 -0.07701287 0.00092056027
-0.15327409 -0.10881958 -0.1124731 0.072615035 -0.094198726 -0.08381201 -0.10163567 -0.15033498
-0.17979196 -0.015658723 -0.10922307 -0.026813988 0.03728241 0.01062676 -0.12254789 -0.06886698
-0.14859392 -0.13852592 -0.037985094 -0.16360159 -0.10526169 -0.07588414 -0.08557825 -0.15066122
-0.02311939 0.09998913 -0.12469654 -0.1472169 0.19942665 0.14544845 -0.11287186 -0.097325265
-0.04313442 0.011406806 0.38458753 -0.12829125 0.2718958 -0.0140469475 -0.026322866 -0.13245566
0.016013622 -0.10200145 -0.10847486 0.41819465 -0.1336511 -0.1211904 -0.13399039 -0.22730394
0.07721536 -0.08907738 0.15475869 -0.105923586 0.17082919 0.005889103 0.02274012 -0.10277788
00000000: 6508 19be 4893 c73e 2d3d 08be ddfb 2f3e
00000010: 88de cc3c 342a a43e 1f77 ebbd 6a90 fc3b
00000020: a8fa 7cbd a170 d7bd e009 15be 8cc2 bebd
00000030: 871c ccbd ad4f e3bd 263a 14be 441f ac3d
00000040: 4271 d6bd 5604 0abe a7aa b2bd 4d9b 2fbe
00000050: 549e 24be bd97 05bd 72cc 13be 47ec debd
00000060: c60a e9bd 9fd7 cfbd 9a7b 7e3d 2dde ac3d
00000070: da1c 0b3e 85c3 af3d c944 41bb 113e f23d
00000080: 4d43 1fbe 8eb7 d8bd a259 d4bd 75e9 aabd
00000090: a17e 0abe d4dc 883d 4112 913c 88f9 d1bd
000000a0: 3d88 1a3e af47 47bd 896e 343c 308c d4bd
000000b0: 564a 6cbe 531b e0bc 215f 06bd d883 adbd
000000c0: f617 303e 11b0 cabd 17a1 14be e8a1 e0bd
000000d0: 2668 c6be ea92 03bd 4f0c da3d 26ea 2ebd
000000e0: 0905 c6bd 60fc aa3d d95a 05bd 9bff 22be
000000f0: 4319 0dbe b9ee 203e e9cd dabd bb3f 04be
00000100: 7394 c0bd 7382 b8bd 33bf 0cbe 8200 cdbd
00000110: 26a8 133e 39b4 14be ecb8 9dbd c151 713a
00000120: e2f3 1cbe cddc debd 4c58 e6bd 31b7 943d
00000130: 43eb c0bd a2a5 abbd 5d26 d0bd 6af1 19be
00000140: 621b 38be b946 80bc 58b0 dfbd 02a9 dbbc
00000150: 71b5 183d dd1b 2e3c 63fa fabd 220a 8dbd
00000160: 0129 18be bdd9 0dbe 4296 1bbd 2d87 27be
00000170: 7193 d7bd 2569 9bbd a643 afbd ef46 1abe
00000180: e064 bdbc 1ac7 cc3d e660 ffbd 07c0 16be
00000190: 8036 4c3e 70f0 143e 5d29 e7bd 7852 c7bd
000001a0: b8ad 30bd 9de3 3a3c a8e8 c43e c85e 03be
000001b0: ed35 8b3e 2b25 66bc 0da3 d7bc 75a2 07be
000001c0: 002f 833c 23e6 d0bd 1128 debd 9c1d d63e
000001d0: d5db 08be ac32 f8bd c734 09be 5dc2 68be
000001e0: 1623 9e3d 346e b6bd 1079 1e3e 77ee d8bd
000001f0: d9ed 2e3e 60f9 c03b 7d49 ba3c 367d d2bd

output_mlp.2.weight f4 [9, 128]
-0.047620106 0.103598736 -0.008494534 0.1152107 -1.2200569 -2.1607537 0.0007357886 0.043736693
0.6430545 -0.020662388 0.045442626 -0.0015071526 -0.005427227 0.048083205 -0.10241988 0.27986762
0.21223938 -0.06752612 0.014556226 -0.028044125 -0.008938186 0.01817614 -0.04251972 0.030712929
0.022678383 -0.008064555 0.42083746 0.02439478 0.059805185 0.06341127 -0.14430925 0.32318962
-0.0026906484 0.002713767 -0.014188435 0.03439495 0.05994072 -0.668033 0.14534846 0.018905105
0.23331529 -0.74246424 -0.012190404 0.057847675 0.2100076 0.04602939 0.042453337 -0.005160693
0.35683885 0.05333391 -0.008914389 0.02837247 -0.08461365 -0.28349572 -0.94332165 -0.0022016044
-0.0013837649 0.040602945 0.43834364 0.01026164 -0.074689694 0.31863487 0.014282003 0.04437036
0.052992366 0.028428711 -0.0269194 0.40874913 0.407997 0.026853653 0.012735302 0.013910669
0.035026953 0.059354838 -0.022212252 0.48013547 0.018284926 0.05377932 0.08137565 -0.035058223
-0.09628095 -0.5745705 -0.013401664 -1.0955153 -0.65562624 0.07107866 -0.06806469 0.06613501
0.041812424 -0.06685693 0.09145829 0.00798612 -0.022741262 -0.07668418 0.051951975 0.037308723
-0.60378295 -1.6571897 -0.051980622 -0.092631616 0.06971217 0.3310628 0.004783455 0.06455577
-0.30704272 0.048975017 0.10609704 0.004265808 0.14112638 -0.00074634654 -0.020421786 0.01685012
0.09621474 0.023933832 0.054898106 0.10027229 -0.031168345 0.056240004 -0.0338565 0.1615089
0.06941345 0.038713668 -0.50911814 0.0007375351 0.34314656 0.09089072 0.09398989 -0.009648778
0.27739817 0.09444968 0.4191897 0.13615379 0.49476534 -2.274438 0.4566478 0.14676048
-1.156041 -0.0028018418 0.44847393 0.45080146 0.45802522 0.4485282 0.5440285 -0.31132877
0.27769545 0.4485503 0.17336433 0.15688945 0.45717424 0.16406457 0.4615697 0.43136257
0.44371936 0.44436193 -0.34528878 0.13283165 0.08989046 -0.3947903 0.21618356 -0.30531493
0.391562 0.48179471 0.4517361 0.43953258 0.4629241 0.15574007 -0.010497652 0.4430193
-0.20363629 0.3327911 0.14618306 0.44761452 0.04488071 0.121097535 0.13412057 0.422364
-0.29984647 0.43143138 0.42772603 0.43181884 -0.10092682 0.34363607 -0.671792 0.14111502
0.45209095 0.10635472 -0.95907974 0.28025836 0.49078202 -0.21185721 0.40684733 0.46762118
-0.052771296 0.44371104 0.41844463 -0.63703233 -0.26598924 0.44568387 0.437323 0.13244621
0.1284353 0.47742122 0.44389847 -0.56247467 0.4479692 0.444005 0.33379433 0.30799544
0.47928736 -1.4481937 0.44079357 -1.5912482 0.028573403 0.10003292 0.53458446 0.43270066
0.47442943 0.5187677 0.3494625 0.455103 0.42838013 0.23813607 0.42912084 0.5023915
0.92267 0.34586686 0.5190749 0.5110837 0.13138895 -0.2077069 0.4346384 0.42271432
0.17340328 0.14224322 0.104223 1.6550218 0.10831336 -0.0024545523 0.086532414 0.45569575
0.15555869 0.45953402 0.45404115 0.1081661 0.23899764 0.45514837 0.53786814 1.5677375
0.06740456 0.35131148 0.20000125 0.44373003 -0.23341936 0.099935606 0.13794339 0.43761352
00000000: 4d0d 43bd 932b d43d a82c 0bbc 96f3 eb3d
00000010: d32a 9cbf ca49 0ac0 f0e1 403a 3f25 333d
00000020: 389f 243f 2b44 a9bc 0c22 3a3d a68b c5ba
00000030: e1d6 b1bb e5f2 443d 84c1 d1bd cf4a 8f3e
00000040: 4855 593e 224b 8abd 3d7d 6e3c cbbc e5bc
00000050: 7871 12bc 21e6 943c 2829 2ebd ae99 fb3c
00000060: 04c8 b93c 3221 04bc 0278 d73e 90d7 c73c
00000070: 48f6 743d c5dd 813d cec5 13be 1c79 a53e
00000080: 9755 30bb 75d9 313b 9c76 68bc b8e1 0c3d
00000090: 6784 753d 3604 2bbf 3ad6 143e e1de 9a3c
000000a0: 34ea 6e3e 2312 3ebf 43ba 47bc aff1 6c3d
000000b0: 3b0c 573e 5089 3c3d 8de3 2d3d 081b a9bb
000000c0: 95b3 b63e a874 5a3d a80d 12bc 626d e83c
000000d0: ec49 adbd 5a26 91be 877d 71bf cb48 10bb
000000e0: 725f b5ba 464f 263d 946e e03e 7020 283c
000000f0: e9f6 98bd 1c24 a33e 10ff 693c b2bd 353d
00000100: 860e 593d 54e3 e83c 1386 dcbc 9147 d13e
00000110: fce4 d03e 31fc db3c baa7 503c 93e9 633c
00000120: 6c78 0f3d 0f1e 733d 78f6 b5bc 51d4 f53e
00000130: 45ca 953c b447 5c3d 47a8 a63d 3699 0fbd
00000140: f22e c5bd 0d17 13bf a792 5bbc d839 8cbf
00000150: 1fd7 27bf b091 913d 8065 8bbd cb71 873d
00000160: 8143 2b3d 49ec 88bd 7c4e bb3d 37d8 023c
00000170: e24b babc 980c 9dbd 98cb 543d 08d1 183d
00000180: 8591 1abf cb1e d4bf a2e9 54bd a5b5 bdbd
00000190: 41c5 8e3d 1081 a93e 87be 9c3b d135 843d
000001a0: b434 9dbe 079a 483d 6849 d93d 31c8 8b3b
000001b0: 6f83 103e 78a6 43ba 974b a7bc 4309 8a3c
000001c0: 3c0c c53d e210 c43c d6dc 603d 8f5b cd3d
000001d0: c254 ffbc eb5b 663d 1dad 0abd 9762 253e
000001e0: a428 8e3d 3992 1e3d 9155 02bf 2557 413a
000001f0: e8b0 af3e ea24 ba3d c57d c03d e815 1ebc
00000200: 2207 8e3e d56e c13d 08a0 d63e e66b 0b3e
00000210: e251 fd3e 6490 11c0 becd e93e 6148 163e
00000220: 27f9 93bf 1b9f 37bb 609e e53e 73cf e63e
00000230: 4882 ea3e 7da5 e53e 7445 0b3f 7c66 9fbe
00000240: 192e 8e3e 63a8 e53e 6b86 313e a1a7 203e
00000250: be12 ea3e 8b00 283e dd52 ec3e 8edb dc3e
00000260: 2f2f e33e 6883 e33e b1c9 b0be 0505 083e
00000270: 7d18 b83d f421 cabe 395f 5d3e 3d52 9cbe
00000280: d17a c83e ccad f63e f449 e73e 6a0a e13e
00000290: 6304 ed3e 537a 1f3e 58fe 2bbc 6dd3 e23e
000002a0: 0886 50be 9863 aa3e 03b1 153e bb2d e53e
000002b0: d6d4 373d fc01 f83d e756 093e 1840 d83e
000002c0: 7a85 99be 93e4 dc3e e8fe da3e 5c17 dd3e
000002d0: b8b2 cebd 11f1 af3e 8ffa 2bbf 7580 103e
000002e0: 7778 e73e 81d0 d93d 4086 75bf 067e 8f3e
000002f0: c847 fb3e 19f1 58be 4b4e d03e 0b6c ef3e
00000300: b726 58bd 182e e33e 603e d63e 8d14 23bf
00000310: be2f 88be ad30 e43e cde8 df3e fb9f 073e
00000320: 8b84 033e 8e70 f43e a946 e33e 57fe 0fbf
00000330: 385c e53e a054 e33e 17e7 aa3e 94b1 9d3e
00000340: 2765 f53e 695e b9bf b2af e13e 05ae cbbf
00000350: c512 ea3c 0fde cc3d 87da 083f f18a dd3e
00000360: 6ae8 f23e f6cd 043f c0ec b23e 4303 e93e
00000370: a454 db3e f1d9 733e bab5 db3e bb9c 003f
00000380: 1a34 6c3f 7615 b13e 18e2 043f 62d6 023f
00000390: d38a 063e 1eb1 54be ed88 de3e 036e d83e
000003a0: a190 313e 35a8 113e de72 d53d c1d7 d33f
000003b0: 65d3 dd3d 8edc 20bb e837 b13d f450 e93e
000003c0: c74a 1f3e 0b48 eb3e 1578 e83e 3086 dd3d
000003d0: ccbb 743e 3509 e93e bab1 093f 9fab c83f
000003e0: 670b 8a3d 19df b33e 21cd 4c3e 9530 e33e
000003f0: 7c05 6fbe 0aab cc3d 0841 0d3e e10e e03e

output_mlp.2.bias f4 [9]
0.12137487 -0.021552619 -0.036915544 -0.014313918 -0.071626626 -0.036307987 -0.039665684 -0.22980358
-0.114413075
00000000: 6393 f83d 1e8f b0bc c134 17bd ec84 6abc
00000010: fbb0 92bd afb7 14bd 7c78 22bd a151 6bbe
00000020: 6751 eabd
