log/segmentation/pn/bucket/weighted-4/pn_40.pth (torch, 337359 bytes, 8 tensors)

local_mlp.0.weight f4 [64, 3]
0	0x3ea80471	0.3281589
1	0xbdf00593	-0.11719813
2	0x3ede432c	0.43410623
3	0x3d286726	0.041113995
4	0xbcfc7bd7	-0.03082077
5	0x3ea0a903	0.31378946
6	0xbe5615de	-0.20906779
7	0xbc003fd2	-0.007827716
8	0x3e7c3568	0.24629748
9	0x3c5161e3	0.012779686
10	0xbc2eae78	-0.010661714
11	0x3e9db997	0.30805656
12	0x3c374b89	0.011187443
13	0xbca630d2	-0.020286951
14	0x3e9dee19	0.30845717
15	0x3f2665ca	0.6499907
16	0x3e39f6be	0.18160531
17	0xbe020bd8	-0.1269983
18	0x3eb97d98	0.36228633
19	0xbe25f861	-0.1620803
20	0x3e28ab56	0.1647161
21	0xbe942ff4	-0.28942835
22	0x3e19a00f	0.15002464
23	0x3e7e1f8a	0.24816719
24	0x3e09156f	0.13387083
25	0xbcad3180	-0.021141768
26	0x3eb19f7a	0.34691983
27	0x3eb3aaca	0.3509124
28	0xbd805cfb	-0.062677346
29	0x3ef8d8d1	0.48602918
30	0xbd07161c	-0.03298007
31	0xbb172362	-0.0023061861
32	0x3e9e7ec2	0.30956084
33	0x3f50c878	0.8155589
34	0xbf81e16f	-1.0146922
35	0xbec69a16	-0.38789433
36	0xbe10033e	-0.14063737
37	0x3d9e1dad	0.07720504
38	0x3e87b2ef	0.26503703
39	0xbdcdc11b	-0.100465976
40	0xbcbc0761	-0.022952737
41	0x3e65b667	0.22432862
42	0xbd4660a7	-0.04843202
43	0x3b14013e	0.0022583748
44	0x3e9d5310	0.30727434
45	0xbd33a2a4	-0.043856278
46	0xbc7534b3	-0.014966178
47	0x3e937e63	0.28807363
48	0x3ce4f4b3	0.027948713
49	0xbd0c2895	-0.03421839
50	0x3e9dbe6b	0.3080934
51	0x3f4cf35f	0.80058855
52	0xbf0fc8ce	-0.5616578
53	0xbe9583c4	-0.29202092
54	0x3ea0441d	0.31301966
55	0xbd7f6448	-0.062351495
56	0x3eb67b0e	0.35640758
57	0xc03dbf1a	-2.964789
58	0x3e87e636	0.26542825
59	0xbeefb030	-0.46814108
60	0x3ea69fad	0.32543698
61	0xbd3163b0	-0.04330796
62	0x3eaa8262	0.333026
63	0x3f83385f	1.0251578
64	0x3d5f3651	0.05449516
65	0xbec1329e	-0.3773393
66	0xbf10ec70	-0.56610775
67	0x3e600f25	0.21880777
68	0x3e86a3aa	0.2629674
69	0xbd49991b	-0.04921828
70	0xbb5add48	-0.0033396054
71	0x3e9803e7	0.29690477
72	0x3df49011	0.11941541
73	0xbce0ff73	-0.027465558
74	0x3e9b4787	0.3032801
75	0xbffb8e29	-1.9652759
76	0x4031719e	2.7725596
77	0x3effbc9e	0.4994859
78	0xbe2e627c	-0.17029756
79	0x3b82dce2	0.0039936164
80	0x3e6900b7	0.22754179
81	0xc06190cb	-3.5244625
82	0xbffb1d36	-1.961829
83	0x3f2a82db	0.6660592
84	0x3f5aa0b0	0.8540144
85	0xbfa1f49f	-1.2652777
86	0xbed96fb1	-0.42468026
87	0xbd646cc4	-0.05576779
88	0xbc4a4576	-0.012345662
89	0x3e8fec2c	0.28109872
90	0x3f0f3712	0.55943406
91	0x3de385d1	0.11109508
92	0x3cf8736d	0.030328477
93	0x3f1f7899	0.6229339
94	0x40af686b	5.4814963
95	0xbd5fb402	-0.05461503
96	0xbf1494b8	-0.58039427
97	0x3cbb9c04	0.022901542
98	0x3e826008	0.2546389
99	0x3da09b7d	0.07842157
100	0xbd2cbd32	-0.04217262
101	0x3ea2d9c6	0.31806773
102	0x3ef2800d	0.4736332
103	0x3d946602	0.07246019
104	0x3de23382	0.110449806
105	0x3e994947	0.2993872
106	0xbe23eac8	-0.1600753
107	0x3eaf0c53	0.3418909
108	0x3e2f22fa	0.17103186
109	0x3f33968a	0.7015158
110	0x3e008d08	0.12553799
111	0xbf828eb2	-1.0199797
112	0x3f993c74	1.1971574
113	0x3ec4fcb0	0.38474035
114	0x3f058957	0.5216269
115	0x3d84d62d	0.06486163
116	0x3d1e7d04	0.038693443
117	0xbdd79a62	-0.10527493
118	0xbe6d9117	-0.23199879
119	0x3ea06c5f	0.3133268
120	0xbf635f5a	-0.8881737
121	0xbe1e038d	-0.15431042
122	0x3ed5300a	0.41638213
123	0x3ef5eff9	0.48034647
124	0xbe5db251	-0.21650054
125	0x3da1f1c5	0.07907442
126	0x3ea25083	0.3170205
127	0xbdd26fbd	-0.10275219
128	0x3eb9b1aa	0.3626836
129	0x3ce1b7fd	0.027553553
130	0xbd6d09a4	-0.057870522
131	0x3e9d5098	0.3072555
132	0x3e9d0deb	0.3067468
133	0xbe24c84f	-0.16092037
134	0x3e931917	0.2873008
135	0x3f51db79	0.81975514
136	0x3ebbc344	0.36672413
137	0xbe85f5c9	-0.26164082
138	0xbd8be5b9	-0.068309255
139	0xbba8f53c	-0.0051561873
140	0x3e931b4f	0.28731772
141	0xbed8ec2b	-0.42367682
142	0x3e38fe7c	0.18065828
143	0x3e74b469	0.23896946
144	0xbfb836c1	-1.439171
145	0xbf5379e0	-0.8260784
146	0xbed8dfda	-0.42358285
147	0x3e917d1f	0.28415772
148	0xc0ac5d92	-5.386422
149	0x3cee4138	0.029083833
150	0xbe8c7a9f	-0.27437302
151	0x3e36dc84	0.17857558
152	0x3e8a371b	0.26995167
153	0x3f67e5de	0.90585124
154	0xbe3937c8	-0.18087685
155	0xbec3da9b	-0.3825272
156	0xbe62478c	-0.22097605
157	0x3dc98249	0.09839303
158	0x3e673fa4	0.2258287
159	0x3e91537a	0.28384
160	0xbe047edd	-0.1293902
161	0x3eb44197	0.3520629
162	0xbd9127fa	-0.07087703
163	0xbc4b56d9	-0.012410843
164	0x3e86488b	0.2622722
165	0xbda8d4fe	-0.0824375
166	0x3c99b86e	0.0187647
167	0x3e971be5	0.2951347
168	0x3f26ded2	0.65183747
169	0x3cd5b670	0.02608797
170	0x3d16d3fd	0.03682326
171	0xbe21f258	-0.15815103
172	0x3c994f6a	0.018714625
173	0x3e644ded	0.22295351
174	0xbd9ce61e	-0.07661079
175	0x3cc3fd87	0.023924602
176	0x3e95a540	0.29227638
177	0x3ddc0672	0.10743417
178	0xbd508324	-0.050906315
179	0x3eaa210e	0.33228344
180	0x3eaf411c	0.34229362
181	0x3bd6f832	0.006560349
182	0x3ec476ab	0.38371786
183	0x3ea1c040	0.31591988
184	0x3fcf7ee3	1.6210598
185	0xbe12bd55	-0.14330037
186	0x3ee46042	0.4460469
187	0xbe8b7b6d	-0.27242604
188	0x3dd685ea	0.10474761
189	0x3ec1d5e1	0.3785849
190	0xbe410bac	-0.18852109
191	0x3e4cb510	0.19990945

local_mlp.0.bias f4 [64]
0	0xbf5d08c0	-0.86341476
1	0xbf0f7b28	-0.56047297
2	0xbe810b64	-0.25204003
3	0xbf0842cd	-0.5322693
4	0xbf080f92	-0.5314876
5	0xbe70e7f0	-0.23525977
6	0xbf0dbdd5	-0.55367786
7	0xbe313153	-0.17303972
8	0xbf31514e	-0.69264686
9	0xbf43d27c	-0.7649305
10	0xbefe3dea	-0.49656612
11	0x3c20ed9d	0.009822276
12	0xbea1454d	-0.31498185
13	0xbe943b4e	-0.28951496
14	0xbef123b5	-0.47097555
15	0xbee0bfe1	-0.43896392
16	0xbf0ba878	-0.5455394
17	0xbdf880e3	-0.12133958
18	0xbf3b740f	-0.73223966
19	0x3ea3827f	0.31935498
20	0xbf4af020	-0.7927265
21	0xbe50d7e9	-0.20394863
22	0xbc1685fc	-0.009187218
23	0xbee86bd1	-0.45394757
24	0xbf1e8b94	-0.6193173
25	0x3ec3186a	0.38104564
26	0xbe80d15d	-0.25159732
27	0x3ef08233	0.46974334
28	0x3ce48014	0.027893104
29	0xbed408eb	-0.41413054
30	0xbef551cd	-0.47913972
31	0x3c991016	0.018684428
32	0x3d3cfcf7	0.046139684
33	0xbf1b1f30	-0.60594463
34	0xbed2dcff	-0.41184232
35	0xbf4aad8d	-0.7917107
36	0xbea08b32	-0.31356198
37	0x3e8781b3	0.2646614
38	0xbeb4b40c	-0.35293615
39	0xbedfd3cf	-0.43716285
40	0x3c624a6b	0.013811688
41	0xbeed640a	-0.46365386
42	0xbf3c9626	-0.7366661
43	0xbf0a8874	-0.5411446
44	0xbf283416	-0.65704477
45	0xbdff7bf0	-0.12474811
46	0xbedbe649	-0.4294913
47	0xbd99a6b3	-0.075024985
48	0x3eaf997b	0.34296784
49	0x3de0336d	0.10947309
50	0xbe5f5552	-0.21809891
51	0xbbb01e84	-0.0053747315
52	0xbe532e6f	-0.20623182
53	0xbf3a68bf	-0.7281608
54	0xbec44549	-0.3833411
55	0xbed3d366	-0.41372222
56	0xbeee241f	-0.46511933
57	0xbe76061a	-0.24025765
58	0xbed664fb	-0.41873917
59	0xbf269071	-0.6506415
60	0xbf4defee	-0.8044423
61	0xbd1e1265	-0.03859176
62	0xbefead91	-0.49741796
63	0xbf162c3d	-0.5866125

local_mlp.2.weight f4 [256, 64]
0	0x3ee2eead	0.4432272
1	0x3f461f8d	0.7739189
2	0x3e91f703	0.28508767
3	0x3f440cf6	0.76582277
4	0x3f46b4e1	0.7761975
5	0xbef4f231	-0.47841027
6	0x3e1e11a0	0.15436411
7	0x3e826a66	0.254718
8	0x3f5d7bce	0.86517036
9	0x3eae0f81	0.33996204
10	0x3f357043	0.7087442
11	0xbe624666	-0.22097167
12	0x3eb3184b	0.34979472
13	0x3ee38d1c	0.44443595
14	0x3f27a231	0.6548186
15	0x3f160f39	0.5861698
16	0x3f44b494	0.7683804
17	0xbe7ebb98	-0.24876249
18	0x3ea00caa	0.31259662
19	0x3f97cee4	1.1860013
20	0x3ed0aceb	0.40756926
21	0xbeae62ab	-0.34059653
22	0x3d97811b	0.07397672
23	0x3f151957	0.5824179
24	0x3f6c731c	0.9236314
25	0xbeb3c4c4	-0.35111058
26	0x3ead9482	0.33902365
27	0xbf87e8a0	-1.0617867
28	0xbe59cc9c	-0.21269459
29	0x3f06fdb0	0.52730846
30	0xbea40b91	-0.32040074
31	0xbf37575f	-0.7161769
32	0x3d9c33e7	0.07627087
33	0x3f679eaa	0.9047648
34	0xbd6042c2	-0.054751165
35	0x3eecae1d	0.46226588
36	0xbd57ac95	-0.05265482
37	0xbe3516c1	-0.17684461
38	0xbe2a91e3	-0.16657214
39	0x3eff312e	0.4984221
40	0x3e221450	0.15828061
41	0xbcc535c5	-0.02407349
42	0x3eb522a5	0.35377994
43	0x3f4c092c	0.79701495
44	0x3e93b4e9	0.2884896
45	0xbf2e4b08	-0.6808324
46	0x3f0e57d0	0.5560274
47	0x3dc48f6b	0.09597667
48	0x3d009941	0.031396154
49	0xbed6709e	-0.41882795
50	0x3e83d401	0.25747684
51	0xbef6c79b	-0.48199162
52	0x3e865e4f	0.26243827
53	0x3ed04328	0.40676236
54	0x3f073ba0	0.52825356
55	0x3eeaaff6	0.45837373
56	0xbe2d0932	-0.16898039
57	0x3eb06c89	0.34457806
58	0x3eff8d60	0.49912548
59	0x3f683f16	0.9072126
60	0x3eb44a6a	0.35213023
61	0xbf0ce4da	-0.550367
62	0xbc14e37e	-0.0090874415
63	0x3df9bd7a	0.12194343
64	0xbd8edf63	-0.069762014
65	0xbd43d776	-0.0478129
66	0xbd24ef00	-0.04026699
67	0xbd309bf3	-0.043117475
68	0xbda32349	-0.079657145
69	0x3e793b32	0.24338987
70	0x3df426c9	0.1192146
71	0xbd976d2d	-0.073938705
72	0x3d11d0a0	0.03559935
73	0xbe09f42c	-0.1347205
74	0xbd3d8163	-0.04626597
75	0x3e3bf76e	0.18356106
76	0xbd3baaf3	-0.045817327
77	0xbda336bc	-0.07969424
78	0xbcc83209	-0.024437921
79	0xbd70a97f	-0.058755394
80	0xbd4530cb	-0.048142236
81	0x3e6006d7	0.21877609
82	0xbd9eb0c3	-0.07748558
83	0xbf014ac7	-0.50504726
84	0xbb8ee3af	-0.004360638
85	0x3e36b1e9	0.17841305
86	0xbd9fdd5e	-0.07805894
87	0xbdb1b771	-0.08677567
88	0x3e0d56ce	0.13802645
89	0xbe214d36	-0.1575211
90	0xbd6d42a2	-0.057924874
91	0x3ea033f0	0.31289625
92	0x3e0bf1e6	0.13666496
93	0xbd9408c8	-0.072282374
94	0x3e511792	0.20419148
95	0xbecc5139	-0.39905718
96	0xbdcb1e88	-0.09917933
97	0x3e099a9c	0.13437885
98	0x3d7d6378	0.06186244
99	0xbc51119a	-0.012760544
100	0xbcd0993d	-0.025463695
101	0xbe267270	-0.16254592
102	0x3ddfa780	0.1092062
103	0xbddcd047	-0.10781913
104	0x3dd1e3b4	0.10248509
105	0x3de2ccf8	0.11074251
106	0xbd89bb3c	-0.06725165
107	0x3ac5d030	0.0015091952
108	0xbd4f8153	-0.050660443
109	0x3ea06fa7	0.31335184
110	0xbd8cbd0c	-0.06871995
111	0xbdca5184	-0.09878829
112	0xbe86d789	-0.26336315
113	0xbecf8ade	-0.40535635
114	0xbd84213d	-0.06451652
115	0x3e9b2ce8	0.30307698
116	0xbd81e560	-0.06342578
117	0xbda9cbca	-0.08290823
118	0xbd8b7b67	-0.068106465
119	0xbd81be87	-0.06335168
120	0x3e3bf219	0.18354072
121	0xbdddc683	-0.10828879
122	0xbc698e8f	-0.01425518
123	0x3d703cb2	0.058651634
124	0xbca63374	-0.020288207
125	0x3d0547f5	0.032539327
126	0x3dd3ce7f	0.103421204
127	0x3c433c6e	0.011916263
128	0x3e03fdd6	0.128898
129	0xbd5d3634	-0.05400677
130	0xbe24b2cd	-0.16083832
131	0xbd819479	-0.06327147
132	0xbdb73eb7	-0.08947509
133	0x3e510439	0.20411767
134	0x3e84429b	0.25832066
135	0xbdf2358c	-0.118266195
136	0xbc98eb05	-0.018666754
137	0x3e2a3e50	0.16625333
138	0xbd740246	-0.05957248
139	0x3deca88a	0.11555584
140	0xbd38015c	-0.04492317
141	0xbe19dba6	-0.15025195
142	0xbd04c244	-0.03241183
143	0xbd99f777	-0.07517903
144	0xbde0933f	-0.10965585
145	0x3e3be2f5	0.18348296
146	0x3e62beda	0.22143117
147	0x3f546e35	0.8298066
148	0x3e1bad92	0.1520293
149	0x3dbc3f41	0.09191752
150	0xbe48a9f6	-0.19596085
151	0xbd26f882	-0.04076434
152	0xbcecc902	-0.028904442
153	0xbe48e6eb	-0.19619338
154	0xbddb294e	-0.107012376
155	0xbe9e1c63	-0.30881032
156	0x3d8ae8f8	0.067827165
157	0xbd849bf4	-0.06475058
158	0x3e4c2bd4	0.19938594
159	0xbe5d1170	-0.21588683
160	0xbe667e1a	-0.22509041
161	0xbd679d20	-0.05654633
162	0x3e8e8c0b	0.2784122
163	0x3e0f5bc3	0.13999848
164	0x3dc082e5	0.09399966
165	0xbe9fb18f	-0.31190154
166	0x3e99ce82	0.30040365
167	0xbde21dab	-0.11040815
168	0xbe9d2405	-0.30691543
169	0x3e910714	0.28325713
170	0x3e31a402	0.1734772
171	0xbd7d39e4	-0.061822787
172	0x3e61c8b1	0.22049214
173	0x3ddf85a2	0.1091416
174	0xbdb6a8ae	-0.08918892
175	0xbe146028	-0.14489806
176	0x3edb225a	0.42799646
177	0xbed27217	-0.4110267
178	0xbdbec536	-0.09314959
179	0x3dbacb35	0.0912079
180	0xbe068162	-0.13135293
181	0x3e35f659	0.17769755
182	0xbdb6f4f4	-0.0893344
183	0xbd3434b8	-0.04399559
184	0x3e9f3ff1	0.3110347
185	0xbdc1da8d	-0.094655134
186	0xbd6910da	-0.056900837
187	0xbdb8bb57	-0.09020107
188	0x3e349ab0	0.17637134
189	0xbb78d982	-0.0037971442
190	0x3e893dd5	0.26804987
191	0x3e6682d2	0.22510841
192	0xbec58936	-0.38581246
193	0xbdb773fe	-0.08957671
194	0xbe44d3c1	-0.19221403
195	0xbe1e24f9	-0.15443791
196	0xbe29a08e	-0.16565153
197	0x3ea5fd88	0.32419991
198	0xbe188c45	-0.14897259
199	0xbe379c8e	-0.17930815
200	0xbd0a1d56	-0.033719383
201	0xbeb985e7	-0.36234972
202	0xbe6de0ff	-0.2323036
203	0xbf80179f	-1.0007209
204	0xbdaf9d76	-0.08574955
205	0xbe82ca8c	-0.25545156
206	0xbe4a4266	-0.19751891
207	0xbe4de433	-0.20106582
208	0xbdec129e	-0.115269884
209	0xbf179b5c	-0.59221435
210	0xbea9e1d9	-0.3318012
211	0x3f9056ca	1.1276486
212	0xbdef3245	-0.1167951
213	0x3dca06c1	0.098645695
214	0xbe8450cb	-0.2584289
215	0xbe43f445	-0.1913615
216	0xbc98f0d5	-0.018669525
217	0xbf5d53b3	-0.8645584
218	0xbe5953ce	-0.21223375
219	0x3f0fc916	0.5616621
220	0xbf86f09c	-1.0542178
221	0xbe2cc862	-0.16873315
222	0x3ea52744	0.3225652
223	0x3ebee5fe	0.37284845
224	0xbe93bad0	-0.28853464
225	0xbcabe3bb	-0.020982614
226	0xbd597133	-0.05308647
227	0xbe0bce67	-0.13652955
228	0x3e88421b	0.26612934
229	0xbed74ec0	-0.4205227
230	0x3ce768b5	0.02824817
231	0xbe621511	-0.22078349
232	0xbcbab8af	-0.022793142
233	0xbe8a2f00	-0.26988983
234	0xbea695aa	-0.3253606
235	0xbe109a49	-0.14121355
236	0xbeb3feee	-0.35155433
237	0x3eec67c1	0.46172908
238	0xbe7152cb	-0.2356674
239	0xbe8579fa	-0.26069623
240	0x3e05e996	0.13077387
241	0xbe0a5667	-0.13509522
242	0xbda22469	-0.07917101
243	0xbe2ad231	-0.16681744
244	0xbe6cb3e6	-0.23115501
245	0xbea9930a	-0.33119994
246	0xbe891a45	-0.26777855
247	0xbdd2d782	-0.10295011
248	0xbc923f0d	-0.01785233
249	0xbe757b09	-0.23972715
250	0xbde3790a	-0.11107071
251	0xbd0681c8	-0.032838613
252	0xbe8a3e89	-0.27000836
253	0x3ec16135	0.37769476
254	0xbec445ce	-0.38334507
255	0xbebb2a60	-0.36555767

local_mlp.2.bias f4 [256]
0	0xbe5344e1	-0.20631744
1	0x3e2081de	0.1567454
2	0xbdc23133	-0.0948204
3	0xbe35e242	-0.17762092
4	0x3e24821d	0.1606526
5	0xbc76df13	-0.0150678335
6	0xbeaac598	-0.33353877
7	0xbefeb95d	-0.49750796
8	0xbe689986	-0.22714815
9	0xbcc8267e	-0.024432417
10	0xbe07532e	-0.13215324
11	0x3e184675	0.14870627
12	0x3e3930fc	0.18085092
13	0x3eba6782	0.36407095
14	0xbf12d1e2	-0.57351506
15	0xbeb3258d	-0.34989586
16	0xbeb26dc3	-0.34849367
17	0xbea15cb5	-0.31516042
18	0xbd8d134b	-0.068884455
19	0x3e34e37e	0.17664906
20	0xbd10d4ea	-0.0353593
21	0xbd984dc4	-0.074367076
22	0x3e4b36de	0.19845149
23	0x3e4bc4bf	0.19899271
24	0x3db9b852	0.090683594
25	0x3efba3e5	0.4914848
26	0x3c3cd9bf	0.011526524
27	0x3d7faebb	0.062422495
28	0xbedaae44	-0.4271108
29	0xbcb63820	-0.02224356
30	0xbd4c741b	-0.049915414
31	0xbe4e697f	-0.20157431
32	0xbe64155b	-0.22273771
33	0x3c9757c0	0.01847446
34	0xbd6121e0	-0.054963946
35	0xbe8240db	-0.25440106
36	0xbdaec627	-0.08533888
37	0x3e0a583f	0.13510226
38	0xbe51236a	-0.20423666
39	0xbe904ac4	-0.28182042
40	0x3e2a638c	0.16639537
41	0xbeddc002	-0.43310553
42	0x3e1ce58a	0.15321937
43	0xbeaf773b	-0.34270653
44	0xbea48fc5	-0.32140937
45	0xbea4efc0	-0.32214165
46	0xbe8af1d6	-0.2713763
47	0xbe8ec01b	-0.2788094
48	0xbe571251	-0.21003081
49	0xbd1041e8	-0.035219103
50	0x3bc20025	0.0059204274
51	0xbd684c70	-0.05671352
52	0xbdf6b4ca	-0.120462015
53	0x3a88b9e8	0.0010431381
54	0xbe86ceda	-0.2632969
55	0x3d86c41d	0.065803744
56	0xbdccda08	-0.10002524
57	0xbe28b247	-0.16474257
58	0xbeca8503	-0.39554605
59	0xbeee4c9b	-0.4654282
60	0x3d1693ce	0.03676205
61	0x3e2f88ca	0.17142025
62	0xbeed4d39	-0.4634798
63	0x3e0010e8	0.12506449
64	0x3d7f99df	0.062402602
65	0x3e12c828	0.14334166
66	0xbe296cfe	-0.16545483
67	0xbe8c310b	-0.27381167
68	0x3e1b6beb	0.15177886
69	0x3dad8de9	0.08474333
70	0xbee3a91b	-0.44464955
71	0xbe3db680	-0.1852665
72	0xbe333d54	-0.17503864
73	0x3d45c577	0.04828402
74	0xbe16a17e	-0.14710042
75	0x3cd8d2d9	0.026467727
76	0x3e3cf0eb	0.18451278
77	0x3e0c637a	0.13709822
78	0xbe68d154	-0.22736102
79	0x3d116df6	0.035505258
80	0xbd82e58d	-0.063914396
81	0xbec251f9	-0.37953165
82	0xbe972453	-0.295199
83	0x3c2fd446	0.010731762
84	0xbe6e9036	-0.232972
85	0x3dff1376	0.12454884
86	0x3d42a359	0.04751906
87	0xbee182df	-0.4404516
88	0x3b251519	0.0025189577
89	0xbeafce30	-0.34336996
90	0x3e643811	0.22287013
91	0xbdbf3ddf	-0.09337973
92	0xbf102fcd	-0.5632294
93	0xbec243ed	-0.37942448
94	0x3e4c9f7d	0.19982715
95	0xbeb08dcc	-0.34483182
96	0xbe4043ee	-0.18775913
97	0xbe9acf0f	-0.30236098
98	0xbe2f18ce	-0.17099306
99	0xbe0fad37	-0.1403092
100	0xbf026ef7	-0.5095057
101	0xbeddcc6e	-0.4332003
102	0x3da9ce14	0.082912594
103	0xbe2ba0d7	-0.16760574
104	0xbe4c6dee	-0.1996381
105	0xbe1956e0	-0.14974546
106	0xbeea2b66	-0.45736235
107	0xbe38524b	-0.18000142
108	0xbe8b5f5a	-0.27221185
109	0xbdcb0ae5	-0.09914187
110	0x3e616829	0.2201239
111	0xbddb34a9	-0.107034035
112	0xbf101be4	-0.5629256
113	0xbe40c4c2	-0.18825057
114	0xbe12fa80	-0.1435337
115	0xbd4c8813	-0.049934458
116	0xbe1f0e40	-0.1553278
117	0xbee71d1b	-0.45139393
118	0xbe8ec086	-0.2788126
119	0xbeab38d0	-0.33441782
120	0xbea63492	-0.32461983
121	0xbe0f4aaa	-0.13993326
122	0xbec2b1aa	-0.38026172
123	0xbc3ce39d	-0.011528877
124	0xbee6fe2d	-0.45115796
125	0xbeeae3a5	-0.45876804
126	0x3e6bf399	0.23042144
127	0xbe5a37eb	-0.21310394
128	0xbe78c577	-0.24294077
129	0xbe4dd99c	-0.20102543
130	0xbe3454f7	-0.17610537
131	0xbe374677	-0.17897974
132	0xbf083303	-0.5320284
133	0x3e0cc9d1	0.13748862
134	0x3d71197f	0.058862206
135	0xbe9d8446	-0.3076498
136	0xbf21f392	-0.63262284
137	0xbf187835	-0.5955842
138	0xbed52117	-0.41626808
139	0xbddfe2d9	-0.1093194
140	0xbe6336bc	-0.22188848
141	0xbf2053c9	-0.62627846
142	0xbcfcfc5d	-0.030882055
143	0xbe2230ca	-0.15838924
144	0xbf23ee9c	-0.64035964
145	0xbeaff269	-0.34364632
146	0xbe19bd0a	-0.15013519
147	0x3df8d276	0.12149517
148	0xbeea0324	-0.4570552
149	0xbea59fcc	-0.32348478
150	0xbf1c857c	-0.6114118
151	0xbe43ecd4	-0.19133312
152	0xbe322ecc	-0.17400664
153	0x38cf6b9a	9.8905715e-05
154	0x3e2f2df0	0.17107368
155	0xbc84cd15	-0.016211072
156	0xbe83e78a	-0.25762588
157	0xbf102f76	-0.5632242
158	0xbda638bf	-0.08116292
159	0xbeb22b6e	-0.3479876
160	0x3c8bf83d	0.017086143
161	0x3e895252	0.26820618
162	0xbe93e9f7	-0.2888944
163	0xbc5e31e9	-0.013561704
164	0xbf1407ba	-0.5782429
165	0xbea7ebe9	-0.32797173
166	0x3e1ea791	0.15493609
167	0xbd175815	-0.036949236
168	0xbe41003e	-0.18847749
169	0xbd912009	-0.07086188
170	0x3e834979	0.25641993
171	0xbd8fea19	-0.070270725
172	0xbdd5be0f	-0.104366414
173	0xbebdd205	-0.37074295
174	0xbe8c6414	-0.27420104
175	0xbda8cc67	-0.08242112
176	0xbe839d02	-0.25705725
177	0xbf138058	-0.5761771
178	0xbe5158ea	-0.20444074
179	0x3e90430b	0.2817615
180	0x3e37096d	0.1787469
181	0xbddcf78f	-0.107894056
182	0xbed8c25d	-0.42335787
183	0x3e517406	0.20454416
184	0xbe1f74d4	-0.1557191
185	0x3e131c4e	0.14366266
186	0x3e33b36f	0.17548917
187	0xbe1d3314	-0.15351516
188	0x3e1537c9	0.14572062
189	0xbda4d334	-0.08048096
190	0x3d8cfbed	0.068839885
191	0x3e25350c	0.16133517
192	0xbd778bcd	-0.06043606
193	0xbe2ee906	-0.17081079
194	0x3e050a99	0.12992324
195	0xbeba590a	-0.36396056
196	0x3eb304cc	0.34964597
197	0x3d4108b2	0.047127433
198	0x3e42e76a	0.1903359
199	0xbed3d7e0	-0.41375637
200	0xbeae5626	-0.340501
201	0xbdebc85d	-0.11512826
202	0x3e8105e4	0.25199807
203	0xbef2d1dc	-0.47425735
204	0xbe81f26d	-0.2538027
205	0xbdd1318f	-0.10214531
206	0x3e867e4d	0.26268235
207	0xbee9363e	-0.45549196
208	0xbe0b6aaa	-0.13614908
209	0xbde15522	-0.11002566
210	0xbe7be90c	-0.24600619
211	0xbf04288e	-0.5162438
212	0xbda570e5	-0.080781735
213	0xbd8f9da7	-0.07012492
214	0x3e26453d	0.1623735
215	0xbd3f648e	-0.046726756
216	0xbee502b6	-0.4472863
217	0x3e9d6670	0.30742216
218	0xbbaf73c8	-0.0053543784
219	0x3e0436bd	0.12911506
220	0x3e3ecd9a	0.18633118
221	0x3e38106a	0.17975011
222	0xbe89a829	-0.2688611
223	0x3d9238ee	0.07139765
224	0xbf134ec7	-0.5754208
225	0xbe3f2592	-0.18666676
226	0x3d9911d9	0.07474107
227	0xbdb8bdce	-0.09020577
228	0xbd3fd033	-0.046829414
229	0xbe244907	-0.16043483
230	0xbdae0da0	-0.084986925
231	0xbc141e7c	-0.009040471
232	0xbe4e4000	-0.20141602
233	0x3daec9d6	0.08534591
234	0xbe613654	-0.21993381
235	0x3d876c33	0.06612434
236	0xbdb9c464	-0.09070662
237	0x3c3bc98b	0.011461626
238	0xbf00a5f0	-0.502532
239	0xbe5659d7	-0.20932709
240	0xbd32ab1f	-0.043620225
241	0xbda7d31f	-0.08194565
242	0xbda2dc08	-0.07952124
243	0x3d8541f6	0.06506722
244	0xbd83dfb0	-0.064391494
245	0xbef423af	-0.47683474
246	0xbe805104	-0.2506181
247	0x3c0142e3	0.007889482
248	0xbc7271c4	-0.014797632
249	0xbeb0247d	-0.34402838
250	0x3c3b0c71	0.0114165405
251	0xbe86a717	-0.26299354
252	0xbeafe88e	-0.34357113
253	0x3d0f4f68	0.034987837
254	0xbdc44440	-0.0958333
255	0xbdfe8f55	-0.12429682

output_mlp.0.weight f4 [128, 512]
0	0x3e88539a	0.26626283
1	0x3d9e1981	0.07719708
2	0x3d89b0a4	0.06723145
3	0x3e05f654	0.13082248
4	0x3d97f463	0.0741966
5	0x3da61dd2	0.081111565
6	0x3de1a137	0.110170774
7	0x3e19c8c9	0.15018
8	0xbdc76b1e	-0.09737228
9	0x3e6f6d0c	0.23381442
10	0x3d36f8fd	0.044671047
11	0x3e344b0a	0.1760675
12	0x3e2ebb40	0.17063618
13	0xbea4ba5f	-0.3217344
14	0x3d6b4d4f	0.057446774
15	0x3e687f5c	0.22704834
16	0xbdbd5d3c	-0.09246299
17	0x3e8021ed	0.25025883
18	0xbe1fc2b0	-0.15601611
19	0x3e042284	0.12903792
20	0xbe17dc2b	-0.14830081
21	0x3dab2187	0.08356004
22	0x3e5b8185	0.21436127
23	0x3dc032c5	0.093846835
24	0xbdb138db	-0.086534224
25	0xbd83fa7f	-0.06444263
26	0xbd5a52a4	-0.05330147
27	0xbd12800a	-0.03576664
28	0xbd93b878	-0.07212919
29	0x3de4c91c	0.11171171
30	0x3e6865f6	0.22695145
31	0xbef44ea3	-0.47716245
32	0x3d836dc3	0.0641742
33	0x3e3a3a69	0.18186344
34	0x3d86fa8a	0.06590755
35	0x3dfdc575	0.123911776
36	0xbe0e6782	-0.13906673
37	0x3d96225a	0.07330771
38	0x3e986d61	0.2977095
39	0x3eb3071f	0.3496637
40	0x3c20d0b5	0.009815385
41	0x3dcc5164	0.099764615
42	0x3e028c26	0.12748775
43	0x3e0ccc64	0.13749844
44	0xbc9651d8	-0.018349573
45	0x3e2b3df6	0.16722855
46	0x3e1af928	0.15134108
47	0x3df5741b	0.11985036
48	0x3e87880a	0.26470977
49	0xbc3b5a8e	-0.011435164
50	0x3e23f537	0.16011511
51	0x3e3a45d6	0.18190703
52	0xbdfa36c7	-0.12217479
53	0x3c878636	0.016543489
54	0x3e2d7d3a	0.16942301
55	0x3c0038f4	0.007826079
56	0xbd26768d	-0.040640403
57	0x3cdd5498	0.027017877
58	0xbce16cd3	-0.027517712
59	0x3e4bda15	0.1990741
60	0x3e1413d6	0.14460692
61	0x3db84dc6	0.08999209
62	0x3e15fbe1	0.14646865
63	0x3d650912	0.055916853
64	0xbde932bd	-0.11386631
65	0xbe90b76d	-0.28264943
66	0x3d23acc2	0.039959677
67	0x3dd8aee8	0.10580236
68	0x3d8e19c9	0.06938512
69	0x3d9e4eb9	0.07729859
70	0xbadeead0	-0.0017007235
71	0xbb2a0d37	-0.0025947818
72	0x3d9591ec	0.07303223
73	0x3df2b2b5	0.11850492
74	0x3d53e3e4	0.051731005
75	0xbda4a369	-0.080389805
76	0x3db92b41	0.09041453
77	0x3e4da3b6	0.20081982
78	0x3e64e917	0.22354542
79	0x3debc7f2	0.11512746
80	0x3e84fed1	0.2597566
81	0xbcac0a16	-0.021000903
82	0x3e195fee	0.14978
83	0x3c180f27	0.009280956
84	0x3e059cc0	0.13048077
85	0x3e1b45e7	0.15163384
86	0x3e7acd07	0.24492274
87	0xbdacb9a7	-0.08433848
88	0xbbf5e49f	-0.0075040604
89	0x3d57dc84	0.052700534
90	0xbd3bbd80	-0.04583502
91	0xbd6849e0	-0.056711078
92	0xbdb965e6	-0.09052639
93	0x3d8d78f5	0.06907836
94	0x3dc8e8f2	0.09810056
95	0xbd9ba0ea	-0.07599051
96	0xbc21daf4	-0.009878863
97	0x3d95035c	0.072760314
98	0x3e050e34	0.129937
99	0x3d86f9ed	0.06590638
100	0xbde572ee	-0.11203562
101	0xbd1aad43	-0.03776289
102	0x3cc7ec45	0.024404654
103	0xbdc9a8ec	-0.098466724
104	0xbd9c814e	-0.076418504
105	0x3dee42ed	0.11633859
106	0x3e0f90d1	0.14020087
107	0x3d93e16c	0.0722073
108	0x3ec1f071	0.37878755
109	0xbd1cd6ec	-0.038290903
110	0x3d994804	0.07484439
111	0xbdc9e54c	-0.09858188
112	0x3d80b20b	0.06283959
113	0x3e4cf852	0.20016602
114	0x3c847fda	0.016174246
115	0x3caaef01	0.020865919
116	0x3e2c6d1f	0.16838501
117	0x3c98549f	0.018595038
118	0x3de7747c	0.113015145
119	0x3dd849c9	0.105609484
120	0x3d8b7ecb	0.06811293
121	0x3ca56e09	0.02019407
122	0x3bea5887	0.0071516666
123	0xbe7ddfba	-0.24792376
124	0x3dec90a7	0.11551028
125	0xbd951d6b	-0.07281002
126	0x3dd30ef9	0.1030559
127	0x3c69d57c	0.01427209
128	0x3e6a867a	0.22902861
129	0x3e82c92a	0.255441
130	0xbdbdc71d	-0.092664935
131	0x3da81303	0.08206751
132	0x3e1b58cb	0.1517059
133	0x3df32017	0.11871355
134	0x3e3694be	0.17830178
135	0x3e1526ef	0.14565633
136	0x3eaa8de8	0.3331139
137	0x3e333f6f	0.17504667
138	0x3ddc5a52	0.10759415
139	0x3eac628c	0.33668935
140	0xbe02ad91	-0.12761523
141	0xbd59f958	-0.05321631
142	0x3e698e25	0.2280813
143	0xbde07391	-0.109595425
144	0xbddf2660	-0.10895991
145	0x3de8fe3f	0.113766186
146	0x3d76b7a9	0.060233746
147	0xbcccd868	-0.025005534
148	0x3e6222a9	0.22083534
149	0x3d140c07	0.036144283
150	0x3e23fb32	0.16013792
151	0xbdcb9460	-0.0994041
152	0x3e96001f	0.29296967
153	0x3eaee1c2	0.34156615
154	0x3dd700ab	0.10498174
155	0x3e254608	0.16139996
156	0x3cc61011	0.024177583
157	0x3e08429b	0.13306658
158	0xbde6b146	-0.11264281
159	0x3e32d3a9	0.17463554
160	0x3e175088	0.14776814
161	0xbe991e01	-0.29905704
162	0x3e2b6b54	0.16740161
163	0x3df7efa3	0.12106254
164	0x3e06b748	0.13155854
165	0xbd21e96f	-0.03952926
166	0x3dc37811	0.09544385
167	0x3e69924e	0.22809717
168	0x3e3dc831	0.18533398
169	0x3dea15f8	0.114299715
170	0x3d8bb23a	0.068211034
171	0x3cc441dc	0.023957185
172	0x3dc319d6	0.09526412
173	0x3e257d98	0.16161191
174	0x3eb5a570	0.3547778
175	0xbe025472	-0.12727526
176	0x3e9c00fb	0.30469498
177	0x3dd35bf4	0.10320273
178	0x3cb2ca6b	0.021825036
179	0x3e0bed6a	0.13664785
180	0xbd06ab1f	-0.032878038
181	0xbce74457	-0.02823083
182	0x3c8c365f	0.01711577
183	0x3b3dc66c	0.002895738
184	0x3e522043	0.2052012
185	0x3d9602fe	0.073247895
186	0x3df66b4a	0.120321825
187	0xbe043f91	-0.12914874
188	0xbe074a3d	-0.13211913
189	0xbd3a5610	-0.04549223
190	0x3e26d5e7	0.16292535
191	0x3e4dbad2	0.20090798
192	0x3e150763	0.14553599
193	0x3e639495	0.22224648
194	0x3ca60898	0.02026777
195	0x3e5fd491	0.21858431
196	0xbc3edba1	-0.011649043
197	0xbd63c82a	-0.055610813
198	0x3db5bd7b	0.08874031
199	0x3da27d28	0.07934028
200	0x3e7ed426	0.24885616
201	0xbd2fb459	-0.042896602
202	0x3d52ce07	0.051466014
203	0x3e4a2369	0.1974007
204	0x3e63fe79	0.22265042
205	0x3e19abaa	0.15006891
206	0x3e200d97	0.15630184
207	0x3de1cae5	0.11025027
208	0xbd56ca5b	-0.052439075
209	0x3da04d1a	0.07827206
210	0x3ea615d2	0.32438523
211	0x3d04dc2a	0.032436527
212	0x3dde99a3	0.10869148
213	0xbb0d48d0	-0.0021558292
214	0xbe0859e8	-0.13315547
215	0x3e797307	0.24360286
216	0x3dac94f4	0.08426848
217	0xbeb5ff30	-0.35546255
218	0x3df89db3	0.12139454
219	0x3e048ee5	0.12945135
220	0x3ddac7bf	0.1068263
221	0x3d0afce2	0.033932574
222	0xbd3d804a	-0.046264924
223	0xbd514a5a	-0.051096298
224	0x3dc62383	0.09674742
225	0x3e42253f	0.18959521
226	0xbddabea1	-0.10680891
227	0xbde3535b	-0.11099883
228	0x3d80a479	0.06281371
229	0x3ebad213	0.364884
230	0x3e067d1f	0.13133667
231	0x3e41ff30	0.18945003
232	0x3e8d5c36	0.27609414
233	0x3e2026b7	0.15639769
234	0x3d2b935f	0.04188859
235	0xbdd421d3	-0.10358014
236	0x3d1cbeb2	0.0382678
237	0x386513f6	5.4616445e-05
238	0x3d91d1eb	0.07120117
239	0x3e4dcb77	0.20097147
240	0xbdbd28ab	-0.092362724
241	0x3d4aa705	0.04947569
242	0x3dd7c66c	0.10535893
243	0xbdeb2435	-0.11481515
244	0x3ddc4a5e	0.10756372
245	0x3c181ab6	0.009283712
246	0xbe6a3652	-0.22872284
247	0x3e5a974e	0.2134678
248	0xbe13cad3	-0.1443284
249	0x3db761fb	0.08954235
250	0x3dcd8fd0	0.10037196
251	0xbe317777	-0.17330728
252	0x3ea839ea	0.32856685
253	0x3e6d65e6	0.23183402
254	0x3e08bdbd	0.1335363
255	0xbdb90db9	-0.090358205

output_mlp.0.bias f4 [128]
0	0xbe190afc	-0.14945596
1	0x3f1f1620	0.62143135
2	0xbe1ed4d4	-0.15510875
3	0x3e869737	0.26287243
4	0x3ccd739d	0.025079543
5	0x3ee438be	0.4457454
6	0xbe0f09ac	-0.13968533
7	0x3d63144b	0.055439275
8	0x3b4dc315	0.0031396796
9	0xbdf43e24	-0.11925915
10	0xbe1509e0	-0.14554548
11	0xbdbd60dd	-0.09246991
12	0xbdcc1b69	-0.099661656
13	0xbe0515f4	-0.12996656
14	0xbe143a26	-0.14475307
15	0x3db5c284	0.088749915
16	0xbdc2e285	-0.095158614
17	0xbe0a0456	-0.13478217
18	0xbe868353	-0.26272067
19	0xbeba960e	-0.36442608
20	0xbe51827e	-0.20459935
21	0xbd2d8c26	-0.042369984
22	0xbe444401	-0.19166566
23	0xbe0f495c	-0.13992828
24	0xbe0800b0	-0.13281512
25	0xbe000f48	-0.1250583
26	0x3d0f56a8	0.03499475
27	0xbd1845eb	-0.037176054
28	0x3e042ffc	0.1290893
29	0xbc180302	-0.009278061
30	0x3ccee7ae	0.025256958
31	0x3dde032d	0.108404495
32	0xbe1f434d	-0.15553017
33	0xbdfc82c9	-0.12329633
34	0xbe0454a8	-0.12922919
35	0xbdaacbea	-0.08339675
36	0xbe0a7ea1	-0.13524868
37	0x3e28f9e9	0.16501583
38	0xbe4bcf26	-0.1990324
39	0xbdd1f986	-0.10252671
40	0x3e4642e9	0.19361462
41	0xbe221eb8	-0.15832031
42	0x3d5ca884	0.053871647
43	0xbe0c05a7	-0.13674031
44	0xbf038adb	-0.5138375
45	0xbecbdcf9	-0.39817026
46	0xbc5a87f5	-0.013338079
47	0xbdabf75c	-0.083967894
48	0x3e3d7e71	0.18505265
49	0xbdfc07dc	-0.123061866
50	0xbe14a117	-0.14514576
51	0xbde0a1e8	-0.10968381
52	0xbf84732a	-1.0347645
53	0x3dad5b07	0.08464628
54	0x3e9ca04a	0.3059104
55	0xbe277eed	-0.16357012
56	0xbdf5efe2	-0.12008645
57	0x3e00f79a	0.12594453
58	0x3c9e6e20	0.019339621
59	0xbe22f7ca	-0.15914837
60	0xbe0d1943	-0.13779168
61	0x3dfeed93	0.124476574
62	0xbe02fbef	-0.12791418
63	0xbe043fbb	-0.12914936
64	0xbe0995bd	-0.13436027
65	0xbdf630ca	-0.120210245
66	0xbe0cbf33	-0.13744812
67	0xbe789c96	-0.24278483
68	0x3e247604	0.16060644
69	0xbe14b439	-0.14521874
70	0xbdec3a82	-0.11534597
71	0x3e9c78e6	0.30560988
72	0xbecd813b	-0.40137658
73	0xbe104a0a	-0.14090744
74	0xbe07365f	-0.13204335
75	0x3e0eb433	0.13935928
76	0xbdc0e978	-0.09419531
77	0xbe009097	-0.12555157
78	0xbe0689b4	-0.13138467
79	0xbe19f16a	-0.15033498
80	0xbe53bb5b	-0.20676939
81	0x3c187a90	0.009306565
82	0xbe044d28	-0.12920058
83	0xbc8581f8	-0.016297325
84	0x3dfaceca	0.12246473
85	0x3d02d7b9	0.03194401
86	0xbe089de7	-0.13341485
87	0xbdcc8951	-0.099871285
88	0xbe182901	-0.14859392
89	0xbe37af35	-0.1793793
90	0xbd061c0d	-0.032741595
91	0xbda0c369	-0.078497715
92	0xbdd779bf	-0.10521268
93	0xbd8be067	-0.06829911
94	0xbdfbc0ce	-0.12292634
95	0xbe301bf3	-0.17198162
96	0x3d2e28db	0.04251943
97	0x3cd44c95	0.025915423
98	0xbdff60e6	-0.12469654
99	0xbe2995f0	-0.16561103
100	0x3ef8078b	0.48443255
101	0x3e12084e	0.1426098
102	0xbe0bdcf3	-0.13658504
103	0xbdc7522a	-0.097324684
104	0xbd6de1ef	-0.058076795
105	0xbbc1b02d	-0.0059108944
106	0x3f39a5c2	0.7251855
107	0xbe1b9808	-0.15194714
108	0x3e4d4e97	0.20049511
109	0xbe19de32	-0.15026167
110	0xbd8c359a	-0.06846161
111	0xbe07a275	-0.13245566
112	0x3d08c2a0	0.033388734
113	0xbdf5c374	-0.1200017
114	0xbe09f6cb	-0.1347305
115	0x3f94fc9e	1.1639593
116	0xbe0891dc	-0.13336891
117	0xbe061ee8	-0.13097727
118	0xbe1732fc	-0.14765543
119	0xbe94af1e	-0.29039854
120	0x3baf5dcf	0.005351759
121	0xbdca08c0	-0.0986495
122	0x3e2c5399	0.16828765
123	0xbdd8eb4f	-0.105917566
124	0x3e16abf3	0.14714031
125	0x3e0a7519	0.13521232
126	0x3e4bda82	0.19907573
127	0xbdd1520f	-0.102207296

output_mlp.2.weight f4 [9, 128]
0	0xbd430d5d	-0.047620166
1	0x3e3509a3	0.17679457
2	0xbd167482	-0.036732204
3	0x3e93de30	0.28880453
4	0xc0042dfe	-2.0653071
5	0xc012915a	-2.2901216
6	0xbcd4618d	-0.025925422
7	0x3dc518b4	0.09623852
8	0x3fb5e3b3	1.4210113
9	0xbd629431	-0.055317108
10	0x3d3a220c	0.045442626
11	0xba7c9f92	-0.0009636815
12	0xbbb1d1ca	-0.00542662
13	0x3dd6e06c	0.10492024
14	0xbdd1c184	-0.10241988
15	0x3ea2b588	0.31779122
16	0x3ec3fcb4	0.38278735
17	0xbd8a4b22	-0.06752612
18	0x3e265077	0.16241632
19	0x3e16c5d7	0.14723907
20	0x3d781f2c	0.060576603
21	0xc02e03b0	-2.718975
22	0x3c89300a	0.01674654
23	0x3d76fa9f	0.060297605
24	0x3d47f520	0.048817754
25	0xbd09028b	-0.03344969
26	0x3eabd4da	0.3356083
27	0x3e2390ba	0.15973178
28	0x3e52ff1e	0.20605132
29	0x3f2962d2	0.6616641
30	0xbf01e546	-0.5074047
31	0x3eecd8e4	0.46259224
32	0xbb305597	-0.0026906484
33	0x3d2b9c3d	0.041897047
34	0x3cdbb520	0.026819766
35	0x3d0cedda	0.03440652
36	0x3d758467	0.05994072
37	0xbf4fea5d	-0.81216985
38	0x3dedbbd4	0.11608091
39	0x3c9adee1	0.018905105
40	0xbc301d5a	-0.010749185
41	0xc017896c	-2.3677626
42	0xbf7d3a69	-0.9891725
43	0x3d64aa35	0.055826385
44	0x3eb94bf4	0.3619076
45	0x3dd60836	0.10450785
46	0x3e002e04	0.12517554
47	0xbb90e687	-0.0044220123
48	0x3e892d7e	0.2679252
49	0x3d2770a3	0.040878903
50	0xbc120da8	-0.008914389
51	0x3ce86d62	0.02837247
52	0xbeb5bab1	-0.35493997
53	0xbf1663ef	-0.58746237
54	0xc0020232	-2.031384
55	0xbe78563e	-0.24251649
56	0xbc42fc56	-0.011900982
57	0x3e9a1791	0.30096105
58	0x3f265d41	0.64986044
59	0x3c281430	0.010258719
60	0xbd98f6e9	-0.074689694
61	0x3e5d5856	0.21615729
62	0xbb839df6	-0.004016633
63	0x3d35bdb2	0.04437036
64	0x3d32e91e	0.04367935
65	0x3cd6570c	0.026164554
66	0xbcdc8613	-0.0269194
67	0x3fa89ea6	1.3173416
68	0x3e93fda1	0.2890444
69	0x3cdbfc31	0.026853653
70	0x3cb5321e	0.022118624
71	0x3e0f6a31	0.14005353
72	0x3e3ea11d	0.18616147
73	0x3ce25d79	0.027632462
74	0xbc259557	-0.010106406
75	0x3f5c3399	0.8601623
76	0x3c95ce59	0.01828687
77	0x3cb51641	0.022105338
78	0x3da08d23	0.0783942
79	0xbd0f9936	-0.035058223
80	0x3c0d7fda	0.008636439
81	0xc0892bd2	-4.286599
82	0xbc92d0cc	-0.017921828
83	0xc01dea53	-2.467427
84	0xc052c985	-3.2935498
85	0xbede002a	-0.433595
86	0xbdb7afb4	-0.089690596
87	0x3d0def21	0.03465188
88	0x3d2b4381	0.041812424
89	0xbc9cd00a	-0.01914217
90	0xbfcd0199	-1.6016113
91	0xc055ecb0	-3.3425713
92	0xbcba4be2	-0.022741262
93	0xbf60423e	-0.8760108
94	0x3ca6547b	0.020303955
95	0x3c3d9fb8	0.011573724
96	0xbedeea2e	-0.4353804
97	0xc033dbe3	-2.8102958
98	0xbd54e9a2	-0.051980622
99	0xbdf7aa02	-0.12092973
100	0x3db4ede0	0.088344336
101	0x3f0eef23	0.55833644
102	0x3d2b4a7b	0.041819077
103	0x3d8435d1	0.06455577
104	0xc053b06d	-3.3076432
105	0x3e5b32a5	0.21406038
106	0x3e4615c7	0.19344245
107	0x3dfb8833	0.12281837
108	0x3e7f45ef	0.24929021
109	0xbef2ef41	-0.4744816
110	0x3d65ab7c	0.056071743
111	0x3c8a0943	0.01685012
112	0x3e344291	0.17603518
113	0x3ca43c5f	0.020048318
114	0x3dca02ea	0.09863837
115	0x3df8916c	0.12137112
116	0xbcff53b9	-0.031167852
117	0x3d476c0c	0.048687026
118	0x3c010f98	0.007877253
119	0x3e039592	0.12850025
120	0x3dcb9bbf	0.099418156
121	0x3d1e956a	0.03871671
122	0xbfce5c92	-1.6122
123	0x3a41571c	0.0007375346
124	0x3e74f398	0.23921049
125	0xbf31eb76	-0.6949991
126	0x3e307c22	0.17234853
127	0xbc1b68cc	-0.009485435
128	0x3e8e0623	0.27739057
129	0x3e5e6b06	0.21720514
130	0x3ed0d058	0.40783954
131	0x3e208144	0.15674311
132	0x3f081223	0.53152674
133	0xc04c2d16	-3.1902518
134	0x3ef4a4c9	0.4778197
135	0x3eb6db7e	0.35714334
136	0xbff6d178	-1.9282675
137	0x3c080db2	0.0083040465
138	0x3ee59e60	0.44847393
139	0x3ee6ce18	0.45079112
140	0x3eea825b	0.45802578
141	0x3f215fab	0.630366
142	0x3f0b4574	0.5440285
143	0xbf2d0a77	-0.67594093
144	0x3e6bb941	0.23019888
145	0x3ee5a863	0.4485503
146	0x3e28f1c4	0.16498476
147	0x3ed288e0	0.41120052
148	0x3efbe961	0.4920149
149	0x4009b9d5	2.1519673
150	0x3f00b68d	0.5027855
151	0x3eea2a19	0.45735243
152	0x3f070829	0.52746826
153	0x3ef4d008	0.47814965
154	0xbeea7b44	-0.4579717
155	0x3e92f50f	0.2870259
156	0x3e16b5c7	0.1471778
157	0xbf6ca4d3	-0.92439
158	0x3eace585	0.3376886
159	0xbf0884be	-0.5332755
160	0x3ec87ad1	0.391562
161	0x3f5c9394	0.86162686
162	0x3ef22a89	0.47298077
163	0x3ee10ab8	0.4395349
164	0x3eed0463	0.4629241
165	0xbda8e786	-0.082472846
166	0xbd48aa57	-0.048990574
167	0x3ee2d36d	0.4430193
168	0xbe0bed04	-0.13664633
169	0x3f7aa738	0.97911406
170	0x3f581443	0.84405917
171	0x3ee293f5	0.44253507
172	0x3ee56146	0.44800776
173	0x3d796dfd	0.06089591
174	0x3e49757e	0.19673726
175	0x3ed84149	0.4223731
176	0xbe749039	-0.23883142
177	0x3ed3053f	0.4121494
178	0x3edafee8	0.42772603
179	0x3edd175c	0.43181884
180	0xbe716cd5	-0.23576672
181	0x3edfcdfc	0.4371184
182	0xbfab6900	-1.3391418
183	0x3f25b34f	0.6472673
184	0x3ed9e3f6	0.42556733
185	0x3e161df3	0.14659862
186	0xbfdead8c	-1.7396712
187	0x3e8f84c5	0.28030983
188	0x3efb47c8	0.49078202
189	0xbdf5a800	-0.11994934
190	0x3edf639d	0.43630686
191	0x3eef6c0b	0.46762118
192	0x3c857c5c	0.01629465
193	0x3efbbf97	0.4916961
194	0x3ed63e60	0.41844463
195	0xc00d1c63	-2.2048576
196	0xbdfd3c6b	-0.123650394
197	0x3ee430ad	0.44568387
198	0x3eef5de5	0.46751323
199	0x3dcbfdc0	0.09960508
200	0x3e4f1d28	0.20225966
201	0x3ee4c0bc	0.44678295
202	0x3ef7694a	0.48322517
203	0xbfcf83c1	-1.6212083
204	0x3ee55c4c	0.4479698
205	0x3ed4f613	0.4159399
206	0x3ebb3917	0.36566994
207	0x3e9db194	0.30799544
208	0x3f27249e	0.6529025
209	0xbfe0b579	-1.7555381
210	0x3ee872e1	0.45400146
211	0xc003bff6	-2.0585914
212	0x3f8a6e9b	1.0815004
213	0x3f44d21c	0.768831
214	0x3f0a5136	0.5403017
215	0x3ed024e5	0.40653148
216	0x3ef2e86a	0.47442943
217	0x3f00641a	0.5015274
218	0xbf14df08	-0.5815282
219	0x405205ec	3.2816114
220	0x3edb55bb	0.42838845
221	0x3f134950	0.5753374
222	0x3ecd3735	0.40081182
223	0x3f001d88	0.5004506
224	0x3f1cfb1c	0.6132066
225	0x3edea4bf	0.43485066
226	0x3f04e218	0.5190749
227	0x3f0b7b56	0.5448507
228	0x3e9b378b	0.30315813
229	0xbf14c6e2	-0.5811597
230	0x3edeefa5	0.4354221
231	0x3ed86e03	0.42271432
232	0x3f8700d4	1.0547128
233	0x3e4b5ed2	0.1986039
234	0x3e52b334	0.20576173
235	0x3fcf17cb	1.6179136
236	0x3e1f2c53	0.15544252
237	0x3e0ec208	0.13941205
238	0x3deed7a5	0.11662225
239	0x3ee950f4	0.45569575
240	0x3e445be8	0.19175684
241	0x3ee4e159	0.44703177
242	0x3ef1abb6	0.47201318
243	0x3e1c9f13	0.15295057
244	0x3e74fa29	0.23923554
245	0x3edfa216	0.4367835
246	0x3f0c5e73	0.5483162
247	0x3fdd1f4e	1.7275178
248	0x3dfbbb26	0.12291555
249	0x3ec20629	0.37895325
250	0x3e8e3d6a	0.2778123
251	0x3ee330d8	0.44373202
252	0xbe508341	-0.2036257
253	0xbf124724	-0.571398
254	0x3e36844e	0.17823908
255	0x3ee01f18	0.43773723

output_mlp.2.bias f4 [9]
0	0x3e599e76	0.21251854
1	0xbcdd0942	-0.026981954
2	0xbdb1258d	-0.0864974
3	0xbba7f39d	-0.0051254765
4	0x3de24de3	0.11050012
5	0xbd828cf0	-0.06374538
6	0xbdbfef38	-0.09371799
7	0xbf15aec1	-0.5846978
8	0xbf0415df	-0.5159587
