log/segmentation/pn/bucket/weighted-4/pn_50.pth (torch, 337359 bytes, 8 tensors)

local_mlp.0.weight f4 [64, 3]
000000 18 fc a3 3e ca a5 fd bd c2 dc d5 3e 71 7a 0f 3d
       0.3202827 -0.123851374 0.41769987 0.03502888
000010 87 65 e7 bc 3f 79 a6 3e 75 51 23 be 3a f8 20 bb
       -0.028246654 0.32514378 -0.15949042 -0.0024562017
000020 c0 ea 7b 3e 9b b8 8a 3b df 2e 19 bc 0d e4 a4 3e
       0.24601269 0.0042334325 -0.009349554 0.3220524
000030 13 7c 19 3b df 15 97 bc 80 27 a5 3e 56 73 2d 3f
       0.0023419901 -0.018443046 0.322567 0.67754114
000040 2a 56 24 3e 7f 02 03 be 2d 3b c6 3e 5a ac 1c be
       0.16048494 -0.12793921 0.38717023 -0.15300122
000050 17 97 25 3e 07 88 80 be 5c 13 10 3e e7 62 83 3e
       0.16170917 -0.2510378 0.14069885 0.25661394
000060 34 62 0d 3e c9 d8 16 bc cf 3e b5 3e 4c 7b a8 3e
       0.13806993 -0.009206959 0.35399482 0.32906568
000070 03 ea 62 bd fb 73 f0 3e 63 73 34 bd 56 e3 7a bb
       -0.055398952 0.46963486 -0.044055354 -0.0038282475
000080 e6 3c a6 3e ed 7d 5f 3f 34 9f 81 bf 12 f1 d9 be
       0.32468337 0.8730152 -1.012671 -0.42566735
000090 a2 e8 fe bd 7a 43 75 3d be 8b 8b 3e 43 33 9f bd
       -0.12446715 0.059878804 0.27255052 -0.07773449
0000a0 f6 93 47 bc ed f4 62 3e af 83 74 bd 5b 39 84 3b
       -0.012181273 0.22163744 -0.059695896 0.0040351576
0000b0 1a 3a a5 3e b6 fb 4e bd d8 9b 3d bc e4 61 97 3e
       0.3227089 -0.05053302 -0.011572801 0.29566872
0000c0 98 f7 a4 3c a0 d1 04 bd 38 ab a4 3e 8b 4b 64 3f
       0.020137593 -0.032426476 0.3216188 0.8917777
0000d0 ee 28 0b bf 28 1b a6 be bf f7 9b 3e 97 10 74 bd
       -0.5435933 -0.32442594 0.30462453 -0.059586134
0000e0 53 00 b0 3e a5 af 40 c0 37 25 68 3e 5b 81 08 bf
       0.34375247 -3.0107205 0.22670446 -0.5332238
0000f0 b9 63 b3 3e 3f 31 f5 bc 03 56 a4 3e 4c 99 95 3f
       0.3503702 -0.029930709 0.32096872 1.1687407
000100 a6 7d 9a 3d bc ad e4 be d1 ab 0f bf cf 5e 64 3e
       0.07543497 -0.446638 -0.56121546 0.22301792
000110 08 37 8e 3e e3 d5 69 bd 23 2f 08 bb ce 85 9e 3e
       0.2777636 -0.057088744 -0.0020780049 0.3096146
000120 74 04 00 3e 18 d7 9e bc d8 80 a0 3e bc 34 03 c0
       0.12501699 -0.019389674 0.313483 -2.0500937
000130 d0 10 37 40 23 14 f9 3e 5e 12 fb bd 66 e1 41 3b
       2.8604012 0.48648176 -0.12259363 0.002958381
000140 86 90 63 3e 1d 0e 70 c0 fd 2b 03 c0 b6 d5 38 3f
       0.222231 -3.7508614 -2.0495598 0.72201097
000150 b7 5b 66 3f 70 24 a3 bf f4 68 ed be 44 cd 77 bd
       0.89983696 -1.2745495 -0.46369135 -0.06049849
000160 33 f2 f6 bb 92 02 94 3e 51 9c 18 3f d3 a1 9b 3d
       -0.0075361966 0.2890821 0.5961352 0.07599225
000170 0a 59 1b 3d e3 05 17 3f c1 87 b2 40 23 ff 09 bd
       0.03792671 0.5899336 5.5790715 -0.033690583
000180 75 ba 15 bf 43 d8 96 3c 22 7e 88 3e f6 4f 9d 3d
       -0.58487636 0.018413668 0.26658732 0.07681267
000190 6e e7 0c bd 9b 58 a9 3e dd aa e8 3e fa 68 8b 3d
       -0.034400396 0.33075413 0.45442858 0.06807132
0001a0 d9 8f f9 3d fb 8a a2 3e 4a 96 19 be c2 3b a9 3e
       0.1218564 0.3174666 -0.14998737 0.33053404
0001b0 e4 7e 10 3e 21 24 10 3f 13 d3 22 3e ac 51 89 bf
       0.14110905 0.5630513 0.15900831 -1.0728049
0001c0 8b 02 a5 3f 01 61 ca 3e 50 db 06 3f 3f 9c 6e 3d
       1.2891401 0.39527133 0.52678394 0.058254477
0001d0 98 70 5f 3d 86 40 e2 bd 5e 02 47 be ea 81 aa 3e
       0.054550737 -0.11047463 -0.19434497 0.33302242
0001e0 40 38 6f bf 36 1f 71 be f0 4c de 3e 9a 2f ff 3e
       -0.93445206 -0.23547062 0.43418074 0.49841005
0001f0 43 8a 5c be 21 69 bc 3d ad 61 9d 3e b0 24 d9 bd
       -0.21537118 0.09199739 0.30738583 -0.10602701
000200 f0 9c b2 3e ea 99 93 3c da d8 5c bd 8c b2 a4 3e
       0.3488536 0.018017728 -0.053917743 0.3216747
000210 d2 6a 9c 3e 75 3f 1f be 0b 80 8d 3e c2 d2 61 3f
       0.30550247 -0.1555155 0.27636752 0.88212216
000220 97 ed c6 3e 0f 3a 9a be 9c dc 96 bd 97 d6 14 bc
       0.38853142 -0.3012242 -0.07366297 -0.009084365
000230 a9 07 99 3e 78 15 c6 be 60 f5 35 3e 22 0a 7c 3e
       0.29888657 -0.38688254 0.17769384 0.2461324
000240 4c ca c9 bf 4e d9 52 bf 93 9e d1 be 1f 25 85 3e
       -1.5764861 -0.8236283 -0.40941295 0.26004884
000250 2b 66 af c0 ea 30 6a 3d bc 10 7c be 80 58 27 3e
       -5.4812217 0.057175554 -0.24615759 0.16342354
000260 90 9c 91 3e 1f 60 7c 3f 6d d6 f4 bd 2b a0 dc be
       0.2843976 0.9858417 -0.11954961 -0.43090948
000270 bd 13 2d be db f7 9a 3d 18 fc 64 3e 8a 99 8d 3e
       -0.16902061 0.07566806 0.22361791 0.27656204
000280 09 3d 05 be d2 eb ac 3e 5e 6e 90 bd 3d cc 82 bc
       -0.13011564 0.33773667 -0.07052301 -0.015966529
000290 15 d2 89 3e f1 da b3 bd b3 b6 96 3c 2d 10 9e 3e
       0.26918092 -0.08781994 0.018397665 0.30871716
0002a0 60 90 30 3f 3e 69 ed 3b 66 7f 34 3d 95 03 ea bd
       0.689703 0.007245212 0.04406681 -0.114264645
0002b0 10 31 93 3c 1f 96 5e 3e 3a cc a7 bd c1 21 a7 3c
       0.01796773 0.21736954 -0.0819325 0.020401837
0002c0 d4 2b 9c 3e c0 03 dc 3d 2d 68 28 bd 93 63 af 3e
       0.30502188 0.10742903 -0.041114975 0.34255657
0002d0 73 85 af 3e 77 e9 6e 3c b3 56 be 3e 8a 9c 9e 3e
       0.342815 0.01458203 0.3717552 0.30978805
0002e0 5a 3f d3 3f 8f 43 30 be 02 7a ef 3e e4 94 85 be
       1.6503708 -0.17213272 0.46772772 -0.26090157
0002f0 9a 55 e7 3d 2b 59 c7 3e ab 11 3a be e6 0b 4a 3e
       0.11295624 0.38935217 -0.18170802 0.19731101

local_mlp.0.bias f4 [64]
000000 57 86 57 bf 0e c3 12 bf 12 51 94 be e0 40 0c bf
       -0.8418936 -0.5732888 -0.28968102 -0.5478649
000010 41 59 0c bf 34 22 85 be b2 1b 13 bf 12 94 5d be
       -0.5482369 -0.26002657 -0.57464135 -0.21638516
000020 74 d1 36 bf 9c 8b 46 bf 29 51 03 bf 1c 17 88 3c
       -0.7141335 -0.77556777 -0.51295716 0.016612582
000030 ad d7 af be e9 e4 9d be 1c 81 fa be 6b a2 e7 be
       -0.34344235 -0.30838707 -0.48926628 -0.45241103
000040 83 a0 0f bf 2c 65 07 be 48 67 36 bf e2 38 e6 3e
       -0.56104296 -0.13222188 -0.71251345 0.44965273
000050 58 c4 4c bf 85 d9 52 be 6d 33 1d bd bb de f0 be
       -0.79987097 -0.2059079 -0.03837912 -0.4704493
000060 3e 7e 24 bf 0e 0f db 3e 0c a1 8f be 84 0c 07 3f
       -0.6425513 0.42784923 -0.28052557 0.5275347
000070 31 42 09 3d 9c 77 db be 1b d5 04 bf a8 13 df 3c
       0.03351039 -0.42864692 -0.51887673 0.027231053
000080 c1 85 bb 3c cb f8 20 bf be a5 dd be 05 eb 4c bf
       0.022890927 -0.6287963 -0.43290514 -0.8004611
000090 fb 17 a9 be b2 c7 8f 3e fb fd c4 be 41 6b f3 be
       -0.33026108 0.28082043 -0.38475022 -0.47542766
0000a0 86 8c e6 bc e7 a7 fc be 43 f6 37 bf 36 f3 0e bf
       -0.028143179 -0.4934685 -0.7186014 -0.5583986
0000b0 fe 63 24 bf 17 3c 00 be b9 97 e4 be 7d ed e2 bd
       -0.64215076 -0.12522922 -0.44647005 -0.110804535
0000c0 57 70 d7 3e 2d 2d bc 3d f6 82 86 be dd 7d 9c 3b
       0.42077896 0.09188304 -0.2627179 0.0047757463
0000d0 40 71 77 be 3c b6 34 bf 6e fd cb be 87 0c de be
       -0.24164295 -0.7059057 -0.3984179 -0.43368933
0000e0 ef 0b 02 bf f0 5e 89 be 3f c0 df be ca 53 2c bf
       -0.5079946 -0.26830244 -0.4370136 -0.6731535
0000f0 03 29 4a bf d4 7e 80 bc 2a 73 06 bf 83 1f 17 bf
       -0.7896883 -0.015685476 -0.52519476 -0.5903246

local_mlp.2.weight f4 [256, 64]
000000 48 3c 05 3f ef 74 73 3f c5 f7 bd 3e 3a d5 73 3f
       0.52045107 0.951003 0.37103096 0.9524723
000010 58 7e 76 3f 05 27 f1 be 92 a6 a8 3e 56 78 8c 3e
       0.96286535 -0.47100082 0.32939583 0.2743556
000020 9a e5 89 3f 8c 35 bf 3e 84 d8 5e 3f 36 ef fb bd
       1.0773194 0.3734554 0.87049127 -0.12301485
000030 21 26 da 3e ce 46 0e 3f af a2 49 3f c6 2a 37 3f
       0.42607215 0.5557679 0.7876386 0.7154964
000040 9e 06 77 3f 5a e5 3f be 77 41 c3 3e aa b5 d2 3f
       0.9649447 -0.18739834 0.38135883 1.646169
000050 09 74 12 3f 58 03 d0 be 9d de 9a 3c a7 fb 36 3f
       0.57208306 -0.4062755 0.018904978 0.7147774
000060 fc e3 95 3f 9a 99 71 be c5 0a e0 3e 70 80 b2 bf
       1.17102 -0.2359375 0.43758217 -1.3945446
000070 99 2a b4 bd bb 9c 24 3f d7 91 6c be 57 88 43 bf
       -0.08797187 0.6430165 -0.23102508 -0.76379913
000080 8e a4 6f 3c 15 48 91 3f 04 f0 9d bc c9 3b 23 3f
       0.014626635 1.1350123 -0.019279487 0.637631
000090 de 1c a9 b8 34 11 3c be 77 ef 04 be 89 bb 1d 3f
       -8.063925e-05 -0.18365937 -0.12981974 0.6161428
0000a0 79 ed 24 3d eb 19 8f 3d ac 35 d7 3e 49 71 7c 3f
       0.040265534 0.06987365 0.42033136 0.9861036
0000b0 ff 5c c3 3e 9c af 42 bf c0 fb 32 3f 19 1b 94 3d
       0.38156888 -0.7604921 0.6991539 0.07231731
0000c0 1c c3 a3 3d ec db b3 be fa 26 92 3e 52 8b 05 bf
       0.079961985 -0.35128725 0.28545362 -0.5216571
0000d0 44 44 a5 3e ce 62 fa 3e 25 32 2a 3f 53 72 0e 3f
       0.32278645 0.48903507 0.66482764 0.55643195
0000e0 16 09 fe bd 18 60 d8 3e 09 2c 1b 3f 09 fd 90 3f
       -0.12404077 0.42260814 0.6061407 1.132722
0000f0 fe d5 d9 3e f4 b8 11 bf c6 c6 e4 3d 6c 2b 6c 3e
       0.42546076 -0.5692284 0.111707255 0.23063439
000100 38 48 df bd 72 69 b6 bd 09 0f 8e bd ef 5f ac bd
       -0.109024465 -0.08906831 -0.069364615 -0.084167354
000110 ec e9 fa bd 5a 06 9d 3e d7 75 f4 3d 9b bd e2 bd
       -0.12251648 0.30668908 0.11936539 -0.110713206
000120 7d ef 11 bd cb ea 1c be 95 ee b2 bd 29 80 6e 3e
       -0.035628784 -0.15323941 -0.08736912 0.23291077
000130 96 5f 93 bd 74 4b cc bd dc 01 70 bd 66 1d a3 bd
       -0.07195966 -0.09975329 -0.058595523 -0.07964592
000140 88 1c c3 bd b9 0c 8e 3e 9d 84 cb bd d8 ed 9d be
       -0.09526926 0.27744082 -0.09937403 -0.30845523
000150 4e 86 56 bd 04 1a 88 3e 43 c3 0f be c7 f8 f4 bd
       -0.052374177 0.26582348 -0.1403933 -0.11961513
000160 89 73 9c 3d d2 ba 67 be fb 93 b7 bd 0b 7e f2 3e
       0.07639224 -0.2262986 -0.08963772 0.47361788
000170 66 33 37 3e b4 c6 bd bd 70 2c 7c 3e c8 92 09 bf
       0.178907 -0.09266415 0.24626327 -0.53739595
000180 54 79 24 be 89 b8 a4 3d a1 76 ba 3d e1 65 6a bd
       -0.16061908 0.0804301 0.09104658 -0.057226066
000190 c2 b9 4c bd 6f 55 83 be 9d 35 11 3e 46 a0 f6 bd
       -0.04998184 -0.25651118 0.14180608 -0.120422885
0001a0 ce 56 0f 3d bf 9c 09 3e e0 77 b1 bd d6 85 41 bd
       0.034994893 0.134387 -0.086654425 -0.047246777
0001b0 f7 f9 7c bd 35 8a c5 3e 49 33 db bd 28 1a 1a be
       -0.061761823 0.38582006 -0.10703141 -0.1504904
0001c0 f3 36 7e be c1 a3 eb be a5 84 d5 bd 0e ce c0 3e
       -0.24825649 -0.46023372 -0.104256906 0.37657207
0001d0 e2 67 d5 bd 5b 59 d8 bd 42 79 cb bd 6d 16 bf bd
       -0.10420205 -0.10563918 -0.099352375 -0.09330449
0001e0 5e 3b 5e 3e f0 8e 04 be c9 fa 4d bd ce c1 ea 3a
       0.21702334 -0.12945151 -0.050287995 0.0017910542
0001f0 ec 0d 66 bd 5d c0 9b 3c 64 6b f7 3d e9 01 81 3c
       -0.05616562 0.019012624 0.1208103 0.015747981
000200 5d 16 07 3e 12 a8 80 bd 38 4a 11 be cb c5 90 bd
       0.13192125 -0.06282057 -0.14188468 -0.07068976
000210 bb 1c cb bd d8 31 49 3e 10 2c 7a 3e 6b a5 c2 bd
       -0.09917589 0.1964792 0.24430871 -0.09504207
000220 91 12 00 bc 78 bc 2d 3e 58 cd 85 bd d5 da cd 3d
       -0.007816927 0.16966426 -0.06533307 0.100515045
000230 b0 0e cc bc 3d 35 09 be 90 f1 ef bc 2a e9 8f bd
       -0.024909347 -0.13399215 -0.02928999 -0.070268944
000240 59 f4 f5 bd 9e 08 2c 3e b6 91 61 3e 2b 61 52 3f
       -0.12009496 0.16800162 0.2202824 0.82179517
000250 0d b6 19 3e 9d 3d 98 3d ca d0 2a be 4b 96 19 bd
       0.15010853 0.07433627 -0.16681209 -0.037496846
000260 5b 9d ea bc fc 6c 1c be 8c 38 b5 bd d1 cf c7 be
       -0.028639486 -0.15275949 -0.08848676 -0.3902574
000270 c3 8f 6c 3d 58 1c 65 bd 5a 00 4c 3e 6c fc 4b be
       0.05775429 -0.055935234 0.19922009 -0.1992051
000280 fc e6 4c be 35 27 6c bd 84 9a 8d 3e b0 30 0d 3e
       -0.20009989 -0.05765458 0.2765695 0.13788104
000290 a0 c6 b8 3d b2 7d 8e be 02 2a 97 3e f0 88 f3 bd
       0.0902226 -0.27830273 0.29524237 -0.11891353
0002a0 e7 c7 92 be dd f2 8c 3e 71 00 31 3e ca 15 8b bd
       -0.28668138 0.2752904 0.17285325 -0.06791265
0002b0 75 f9 5b 3e 21 e6 c8 3d 59 b2 b1 bd 56 f2 f3 bd
       0.21481879 0.098095186 -0.08676595 -0.11911456
0002c0 8c 92 00 3f e8 df c2 be 13 a2 8f bd 47 8f 8d 3d
       0.5022361 -0.38061452 -0.07013335 0.069120936
0002d0 30 97 df bd 14 ea 34 3e bf 18 a5 bd ba 7d f8 bc
       -0.109175086 0.17667419 -0.080613606 -0.030333389
0002e0 50 82 9f 3e e5 0d 95 bd 82 d6 3b bd df 7f b2 bd
       0.31154108 -0.07278041 -0.045858867 -0.08715796
0002f0 f5 51 37 3e fe a1 30 bc d4 98 84 3e c6 1a 5e 3e
       0.17902358 -0.010780809 0.2589785 0.21689901
000300 63 10 e7 be 66 05 8d bd c6 a6 56 be d2 b9 01 be
       -0.4512969 -0.06885795 -0.20962057 -0.12668541
000310 3d 6a 10 be 95 0d ae 3e 47 98 3f be f4 77 48 be
       -0.14103027 0.33994737 -0.18710433 -0.19577008
000320 e6 60 87 bc 16 4b cf be bc 58 49 be ca 82 93 bf
       -0.016525697 -0.40486974 -0.19662756 -1.1524289
000330 b9 a9 8f bd e5 06 83 be 42 d1 2a be 96 d9 37 be
       -0.07014794 -0.25591198 -0.16681388 -0.17954096
000340 0d 4c c4 bd a4 3c 2b bf ec 83 b9 be 90 df a8 3f
       -0.09584818 -0.66889405 -0.3623346 1.3193226
000350 12 20 0c be 8e dc 15 3e 93 b6 9f be 8e 31 28 be
       -0.13684109 0.14634916 -0.3119398 -0.16425154
000360 10 88 8a 3a e3 29 70 bf 4b 53 63 be d1 ee e8 3e
       0.0010569114 -0.93813914 -0.22199742 0.45494702
000370 e6 c3 9e bf 00 3d 1a be 2e 37 8c 3e e9 bf d6 3e
       -1.2403533 -0.15062332 0.2738585 0.4194329
000380 fd ca ac be 26 b7 be bb c9 60 1f bd a5 83 21 be
       -0.33748618 -0.005820173 -0.03891066 -0.15772875
000390 f1 ab a9 3e 67 0d dc be 86 d2 fc 3c bc c1 78 be
       0.33138993 -0.42978975 0.030862104 -0.24292654
0003a0 4e a1 77 bd fd db b0 be b3 2c bf be d2 d0 04 be
       -0.060456567 -0.34542838 -0.3733879 -0.12970284
0003b0 86 b7 ce be a9 d8 03 3f b6 25 53 be 2a a1 98 be
       -0.40374392 0.5150247 -0.20619854 -0.29810458
0003c0 8c 8b fc 3d 8e 10 2a be a5 d6 ab bd 50 f4 fb bd
       0.12331304 -0.16607878 -0.083905496 -0.12302458
0003d0 11 76 6e be 33 ca c2 be b1 3e 7c be a0 24 9a bd
       -0.23287226 -0.3804489 -0.2463329 -0.07526517
0003e0 d9 e1 39 bd 53 6a 81 be 80 92 98 bd 54 c2 8b bc
       -0.0453814 -0.2527643 -0.07449818 -0.017060436
0003f0 20 9a 97 be 2e 81 e0 3e 15 00 eb be 8a 3f d9 be
       -0.29609776 0.43848556 -0.458985 -0.4243129

local_mlp.2.bias f4 [256]
000000 27 67 63 be f0 fa 27 3e 1d df b0 bd b7 83 70 be
       -0.22207318 0.16404319 -0.086363055 -0.23487745
000010 7e 1f 33 3e 03 65 ce bc 0c 51 be be 24 84 f3 be
       0.17492482 -0.02519465 -0.3717121 -0.47561753
000020 3c 4b 9f be 22 01 2f bc 21 a7 ec bd 05 e7 0c 3e
       -0.31112087 -0.010681422 -0.11555315 0.13760002
000030 72 62 48 3e 85 63 b9 3e 11 2e 17 bf c4 72 ce be
       0.19568804 0.3620874 -0.59054667 -0.40321934
000040 5c 9c d6 be df 08 9d be be 36 0d be 67 b0 38 3e
       -0.41916168 -0.3067083 -0.13790414 0.18036042
000050 4b 80 e6 bd 05 d0 47 bd 34 6a 4e 3e 49 b4 4a 3e
       -0.11254939 -0.048782367 0.20157701 0.19795336
000060 0b 55 5e 3d 80 ef f1 3e a4 5c 28 bd 42 70 60 3d
       0.054280322 0.47253036 -0.041103974 0.054794557
000070 3a 10 e9 be 9d 80 56 bc ca ce 8e bd 24 b2 85 be
       -0.45520192 -0.013092187 -0.06973036 -0.26112473
000080 6e 07 95 be 25 ec 52 3d cf 31 58 bd cf 6a 62 be
       -0.2910723 0.051494736 -0.052781876 -0.22111057
000090 e1 df 2f be 69 de 08 3e 0f f6 45 be 02 9f 83 be
       -0.17175247 0.13366093 -0.19332145 -0.2570725
0000a0 8e ff 20 3e 51 d5 c8 be 69 d2 27 3e 5c 3d ce be
       0.15722486 -0.39225248 0.16388859 -0.40281188
0000b0 a3 6a b3 be 06 be 9c be 89 1d 9b be ac f5 b6 be
       -0.35042295 -0.30613726 -0.3029597 -0.35734308
0000c0 61 17 84 be 27 eb 4c bd 0a 5c e1 3c 69 94 73 bd
       -0.25799087 -0.050028946 0.027509708 -0.059467707
0000d0 47 cd e1 bd f6 40 02 3d 8e 08 99 be d2 22 73 3d
       -0.11025482 0.031800233 -0.2988934 0.05935938
0000e0 bd 3c a5 bd 4d b4 1c be 29 1b c6 be 27 22 0d bf
       -0.080682255 -0.15303154 -0.38692597 -0.5513024
0000f0 24 42 2a 3d f8 1d 2b 3e 34 a9 07 bf 5a da f5 3d
       0.041566983 0.16710651 -0.5299256 0.12004538
000100 61 c8 bc 3c 02 09 0a 3e 79 04 15 be cd 78 8a be
       0.023044767 0.13479999 -0.14552487 -0.2704529
000110 05 c6 22 3e 26 31 a9 3d 23 54 e2 be 06 aa 2d be
       0.15895851 0.082613274 -0.44204816 -0.1695939
000120 f2 82 72 be 37 78 71 3d 85 9f fe bd 56 6f 01 3d
       -0.23682764 0.058952536 -0.1243277 0.03160032
000130 d0 fc 2a 3e d7 19 14 3e 03 1f 80 be 95 39 64 3d
       0.16698003 0.14462982 -0.2502366 0.055718977
000140 46 41 0b bd 01 d8 bd be fb ea b3 be 7f ee 17 3d
       -0.033997796 -0.3707886 -0.35140213 0.037092682
000150 62 45 60 be db 54 d9 3d 1c b4 89 3d 3d d6 e8 be
       -0.21901467 0.10611888 0.06723806 -0.4547595
000160 3b 9b 45 bb 33 99 df be 43 74 5b 3e 0a 1e b3 bd
       -0.003015234 -0.4367157 0.21431069 -0.08745964
000170 99 84 16 bf 14 c9 e0 be f1 c1 55 3e 00 cb c1 be
       -0.5879608 -0.4390341 0.20874764 -0.3785019
000180 0b e8 3b be c8 19 99 be ed a8 5e be 41 2a f9 bd
       -0.18350236 -0.29902482 -0.21744128 -0.121662624
000190 ff cf 06 bf 02 61 d9 be 66 db a1 3d 8e c7 2d be
       -0.52661127 -0.42456824 0.07903175 -0.16970655
0001a0 6e 40 90 be 5d f5 07 be 92 ad 00 bf e8 c3 0e be
       -0.28174156 -0.13277192 -0.5026485 -0.1394192
0001b0 11 44 93 be 55 0f 89 bd 48 2c 54 3e d3 02 b3 bd
       -0.28762868 -0.066923775 0.20720017 -0.08740773
0001c0 86 77 11 bf 4b f1 7b be 6d 4d 00 be dc 9a 45 bd
       -0.56823003 -0.24603765 -0.12529536 -0.04824339
0001d0 5f 40 ff bd 23 b7 04 bf 2d cc ad be 22 9b c3 be
       -0.1246345 -0.51841944 -0.33944836 -0.38204294
0001e0 c9 c1 d7 be c1 df f9 bd 92 f0 d2 be 9f 5e a2 bd
       -0.42140034 -0.12200881 -0.41199166 -0.07928204
0001f0 2f 4e 01 bf e7 a8 db be a7 bd 72 3e 0c 39 a5 be
       -0.50509924 -0.429023 0.23705159 -0.32270086
000200 59 8f 92 be cc 85 2c be 71 ab 2d be 53 e8 86 be
       -0.2862499 -0.16847914 -0.16959931 -0.26349124
000210 12 c4 12 bf 16 92 11 3e 4e 29 7a 3d ba 95 b6 be
       -0.5733043 0.14215884 0.061074547 -0.35661107
000220 42 a7 2b bf bc 5b 10 bf 2f ed f3 be 85 6e 9a bd
       -0.6705209 -0.56389976 -0.47641894 -0.07540611
000230 8a 6d 9e be 3d 5a 2c bf 38 e0 93 bc 35 dd 3d be
       -0.30942947 -0.6732519 -0.018051252 -0.18541415
000240 d1 39 30 bf 0a 4c 9b be a6 ec 18 be dc 5d e2 3d
       -0.6883822 -0.3033145 -0.14934024 0.110530585
000250 88 75 ff be 45 62 d4 be e8 75 2d bf 65 a8 3c be
       -0.49894357 -0.41481224 -0.67758036 -0.18423612
000260 9d 39 5b be a5 1a a0 bc 58 bd 0f 3e 5e e8 d7 bc
       -0.21408696 -0.019543955 0.14037073 -0.026355918
000270 17 38 75 be 6e f0 21 bf 4c fc 94 bd 05 b8 b6 be
       -0.23947178 -0.6325749 -0.07274684 -0.3568727
000280 81 25 93 3c 74 b4 81 3e dd 06 b3 be 8d 01 c1 bc
       0.01796222 0.25332987 -0.34966174 -0.02356031
000290 4f 9d 24 bf 55 a0 ab be 52 8b 24 3e 28 09 aa bc
       -0.64302534 -0.3352076 0.16068771 -0.02075632
0002a0 1c 06 3d be e1 f9 68 bd 38 28 7c 3e fb 6e e5 bd
       -0.18459362 -0.056878928 0.24624717 -0.112028085
0002b0 3c bc b6 bd a6 76 d9 be c5 b0 90 be 35 ef fc bd
       -0.089226216 -0.42473334 -0.28259864 -0.123503126
0002c0 9e d3 74 be 5a 9a 10 bf fe 63 3a be a7 f7 93 3e
       -0.2390885 -0.5648552 -0.18202206 0.2889988
0002d0 61 71 29 3e 27 b7 aa bd 2c f5 d7 be dd 92 41 3e
       0.16547157 -0.08335715 -0.4217924 0.1890368
0002e0 ca 56 11 be c8 04 17 3e 6e 50 11 3e 6d 92 0c be
       -0.14193264 0.14747918 0.14190838 -0.13727732
0002f0 41 73 02 3e 1c 13 8b bd f5 59 8f 3d 4f ec 33 3e
       0.12739278 -0.06790754 0.0699958 0.17570613
000300 c5 30 1e bd ca 36 37 be c7 1a 02 3e fb fc ce be
       -0.03862073 -0.17891994 0.12705527 -0.40427384
000310 17 8c a6 3e 8a c4 43 3d 9e f5 45 3e c7 13 ee be
       0.32528755 0.047794856 0.19331977 -0.46499464
000320 42 23 cd be 53 fe bb bd 13 05 7a 3e 2b 7b eb be
       -0.40065962 -0.09179368 0.24415998 -0.45992407
000330 2d f0 95 be bb be 1f be 0b 67 93 3e bd 7a e3 be
       -0.29284802 -0.15600102 0.28789553 -0.4442958
000340 1d 72 03 be 1b b2 d4 bd b1 72 5b be d6 9d 01 bf
       -0.128365 -0.103855334 -0.2143047 -0.50631464
000350 b4 f3 e3 bd ff 0f 4e bd 87 12 1a 3e 21 4a dd bc
       -0.11130467 -0.050308224 0.1504613 -0.027012886
000360 5a b5 e4 be e2 ef 8d 3e 1e 91 65 3c 2e 1c 04 3e
       -0.4466961 0.2772208 0.014011649 0.12901375
000370 85 a3 36 3e 82 46 3e 3e 2c 03 be be b3 fc 47 3b
       0.17835815 0.18581584 -0.37111795 0.003051561
000380 0a 80 0f bf 5f 67 1c be 34 35 73 3d 7f 0a 27 be
       -0.5605475 -0.15273808 0.05937691 -0.16312598
000390 74 fe 1f bd 1d 43 19 be 1c 18 72 bd 5d 68 91 bb
       -0.039061025 -0.14967008 -0.059105024 -0.00443749
0003a0 07 9d 33 be 8c 52 e1 3d d9 ef 47 be 9d 8e 77 3d
       -0.1754037 0.11002073 -0.19525088 0.06043874
0003b0 3f 4d 1c be 7f 83 a6 3b f8 d0 11 bf ff eb 3b be
       -0.15263842 0.0050815935 -0.56959486 -0.18351744
0003c0 54 67 dc bc b7 c7 6f bd ce 80 6c bd a4 8e 86 3d
       -0.02690474 -0.058540072 -0.057740025 0.06570175
0003d0 e4 dd c7 bd dc e5 ed be c8 f3 84 be 1a 57 a3 3b
       -0.09759119 -0.4646443 -0.2596724 0.0049847485
0003e0 c3 f6 2b bd ee 1f cd be e1 1b 81 3c 91 90 97 be
       -0.041983377 -0.40063423 0.015760364 -0.29602483
0003f0 13 77 bf be 85 60 33 3d bd 8f ee bd 68 af ed bd
       -0.37395534 0.04379322 -0.1164851 -0.11605722

output_mlp.0.weight f4 [128, 512]
000000 bd 53 88 3e 75 19 9e 3d ec b0 89 3d 02 f6 05 3e
       0.26626387 0.07719699 0.06723198 0.13082126
000010 2e f4 97 3d dc 1d a6 3d 50 a1 e1 3d 0b c9 19 3e
       0.074196205 0.08111164 0.11017096 0.15018098
000020 2e 6b c7 bd 2a 6d 6f 3e 96 f9 36 3d e3 4a 34 3e
       -0.0973724 0.23381487 0.044671617 0.17606692
000030 40 bb 2e 3e 5d ba a4 be 21 50 6b 3d ea 7e 68 3e
       0.17063618 -0.32173434 0.057449464 0.22704664
000040 f8 5c bd bd 01 22 80 3e bb c2 1f be 81 22 04 3e
       -0.09246248 0.25025943 -0.15601628 0.12903787
000050 44 dc 17 be be 21 ab 3d 09 81 5b 3e c5 32 c0 3d
       -0.14830118 0.08356045 0.21435942 0.093846835
000060 5e 39 b1 bd 98 fa 83 bd 46 52 5a bd 1c 80 12 bd
       -0.0865352 -0.06444281 -0.05330112 -0.035766706
000070 e3 b7 93 bd 75 c9 e4 3d de 65 68 3e b1 4e f4 be
       -0.07212808 0.111712374 0.22695109 -0.47716287
000080 f0 6d 83 3d 74 3a 3a 3e e3 fa 86 3d f4 c5 fd 3d
       0.06417453 0.1818636 0.065908216 0.12391272
000090 82 67 0e be 59 22 96 3d 2f 6d 98 3e 37 07 b3 3e
       -0.13906673 0.0733077 0.297708 0.34966442
0000a0 15 cc 20 3c e2 51 cc 3d df 8b 02 3e 3e cc 0c 3e
       0.009814282 0.099765554 0.12748669 0.13749787
0000b0 35 4e 96 bc 20 3e 2b 3e 30 f9 1a 3e d1 73 f5 3d
       -0.018347839 0.16722918 0.1513412 0.11984981
0000c0 17 88 87 3e ed 5a 3b bc 48 f5 23 3e f7 45 3a 3e
       0.26471016 -0.011435253 0.16011536 0.18190752
0000d0 83 36 fa bd af 86 87 3c 47 7d 2d 3e 44 35 00 3c
       -0.122174285 0.016543714 0.16942321 0.0078251995
0000e0 51 76 26 bd 20 55 dd 3c c7 6a e1 bc a9 d9 4b 3e
       -0.04064018 0.02701813 -0.027516736 0.1990725
0000f0 e8 13 14 3e cf 4d b8 3d bf fb 15 3e 12 09 65 3d
       0.14460719 0.08999216 0.14646815 0.055916853
000100 ad 32 e9 bd 72 b7 90 be 76 ad 23 3d 6a af d8 3d
       -0.11386619 -0.28264958 0.039960347 0.105803326
000110 bb 19 8e 3d a9 4e 9e 3d 98 d6 de ba 9d 09 2a bb
       0.069385014 0.07729847 -0.001700121 -0.0025945671
000120 b6 92 95 3d e3 b2 f2 3d 31 e4 53 3d 50 a3 a4 bd
       0.073033735 0.11850526 0.051731292 -0.08038962
000130 41 2b b9 3d aa a3 4d 3e 35 e9 64 3e 29 c8 eb 3d
       0.09041453 0.20081964 0.22354586 0.11512787
000140 e1 fe 84 3e 32 07 ac bc ac 5f 19 3e be 0f 18 3c
       0.25975707 -0.020999525 0.14977902 0.009281097
000150 ee 9c 05 3e 94 45 1b 3e e2 cc 7a 3e 4f b9 ac bd
       0.13048145 0.1516326 0.24492219 -0.08433782
000160 5d e2 f5 bb ba db 57 3d 14 bd 3b bd 58 49 68 bd
       -0.0075037912 0.052699782 -0.045834616 -0.05671057
000170 53 66 b9 bd 93 78 8d 3d cf e8 c8 3d f2 a0 9b bd
       -0.0905272 0.06907763 0.0981003 -0.07599057
000180 5e e0 21 bc a7 03 95 3d 30 0e 05 3e 25 fa 86 3d
       -0.009880153 0.07276087 0.12993693 0.0659068
000190 e3 72 e5 bd f6 ab 1a bd 01 eb c7 3c 46 a9 c9 bd
       -0.112035535 -0.03776165 0.02440405 -0.098467395
0001a0 dc 81 9c bd 52 43 ee 3d d6 90 0f 3e d1 e1 93 3d
       -0.07641956 0.11633934 0.14020094 0.072208054
0001b0 80 f0 c1 3e bf d6 1c bd 04 48 99 3d 4c e5 c9 bd
       0.378788 -0.038290735 0.07484439 -0.09858188
0001c0 c6 b2 80 3d 74 f8 4c 3e 95 80 84 3c 20 ef aa 3c
       0.06284098 0.20016652 0.016174594 0.020865977
0001d0 49 6d 2c 3e 32 57 98 3c e6 73 e7 3d c5 49 d8 3d
       0.16838564 0.018596265 0.11301403 0.105609454
0001e0 9d 7e 8b 3d 28 6f a5 3c f2 6e ea 3b f4 df 7d be
       0.06811259 0.020194605 0.007154339 -0.24792463
0001f0 5f 90 ec 3d d7 1c 95 bd c4 0e d3 3d 3d d6 69 3c
       0.11550974 -0.072808914 0.10305551 0.01427227
000200 21 86 6a 3e 37 c9 82 3e 74 c6 bd bd cf 12 a8 3d
       0.22902729 0.2554414 -0.092663676 0.082067125
000210 f1 58 1b 3e f3 1f f3 3d cd 94 36 3e ec 26 15 3e
       0.15170647 0.11871328 0.178302 0.14565629
000220 0f 8e aa 3e b6 3f 33 3e 67 59 dc 3d 8e 62 ac 3e
       0.33311507 0.17504773 0.1075924 0.3366894
000230 cb ad 02 be 7f fc 59 bd 45 8e 69 3e 2d 73 e0 bd
       -0.1276161 -0.053219315 0.22808178 -0.10959468
000240 be 26 df bd be fe e8 3d 5a b8 76 3d b3 dc cc bc
       -0.10896061 0.11376713 0.060234405 -0.025007581
000250 80 22 62 3e 5c 0b 14 3d f6 fa 23 3e df 94 cb bd
       0.22083473 0.036143646 0.16013703 -0.09940504
000260 42 00 96 3e d2 e1 ae 3e dc 00 d7 3d 14 46 25 3e
       0.29297072 0.34156662 0.10498211 0.16140014
000270 ec 0e c6 3c 9c 42 08 3e af b1 e6 bd 7f d3 32 3e
       0.024177037 0.1330666 -0.11264359 0.17463492
000280 98 50 17 3e 05 1e 99 be b0 6a 2b 3e 28 ef f7 3d
       0.14776838 -0.29905716 0.16739917 0.12106162
000290 1b b7 06 3e 58 ea 21 bd 06 78 c3 3d 6f 92 69 3e
       0.13155787 -0.03953013 0.09544377 0.22809766
0002a0 69 c8 3d 3e 2b 16 ea 3d 37 b2 8b 3d 62 45 c4 3c
       0.18533482 0.114300095 0.06821101 0.023958866
0002b0 22 1a c3 3d 39 7d 25 3e e8 a5 b5 3e 70 54 02 be
       0.09526469 0.1616105 0.3547814 -0.12727523
0002c0 11 01 9c 3e a0 5c d3 3d 36 ca b2 3c 65 ed 0b 3e
       0.30469564 0.10320401 0.021824937 0.13664778
0002d0 e3 ab 06 bd 99 44 e7 bc 55 38 8c 3c 6b c5 3d 3b
       -0.032878768 -0.028230952 0.017116705 0.0028956782
0002e0 37 20 52 3e 03 03 96 3d 4a 6b f6 3d 9b 3f 04 be
       0.20520101 0.07324793 0.120321825 -0.12914889
0002f0 76 4a 07 be 7b 55 3a bd c1 d5 26 3e bd ba 4d 3e
       -0.13211998 -0.045491677 0.16292478 0.20090766
000300 83 07 15 3e 95 94 63 3e 99 08 a6 3c 9b d4 5f 3e
       0.14553647 0.22224648 0.020267772 0.21858446
000310 f7 e3 3e bc 0d c8 63 bd 7c bd b5 3d 40 7d a2 3d
       -0.011651031 -0.055610705 0.08874032 0.07934046
000320 e6 d3 7e 3e f9 b3 2f bd 12 ce 52 3d ab 23 4a 3e
       0.2488552 -0.042896245 0.051466055 0.19740169
000330 94 fe 63 3e 69 ab 19 3e 8b 0d 20 3e 8a cb e1 3d
       0.22265083 0.15006794 0.15630166 0.1102515
000340 d6 ca 56 bd 49 4d a0 3d ef 15 a6 3e 29 dd 04 3d
       -0.052439533 0.07827241 0.3243861 0.032437477
000350 06 9a de 3d bf 42 0d bb c8 59 08 be 20 73 79 3e
       0.108692214 -0.0021554676 -0.13315499 0.24360323
000360 c5 95 ac 3d 42 ff b5 be d4 9d f8 3d be 8e 04 3e
       0.08427004 -0.3554631 0.12139478 0.12945077
000370 c6 c7 da 3d a5 fc 0a 3d 04 81 3d bd 8d 49 51 bd
       0.10682635 0.033932347 -0.046265617 -0.051095534
000380 11 24 c6 3d 70 25 42 3e 6e be da bd 6a 53 e3 bd
       0.09674848 0.18959594 -0.10680853 -0.11099894
000390 88 a4 80 3d f6 d1 ba 3e 3e 7d 06 3e 4c ff 41 3e
       0.06281382 0.36488312 0.13133714 0.18945044
0003a0 4d 5c 8d 3e 93 26 20 3e bb 93 2b 3d aa 21 d4 bd
       0.27609482 0.15639715 0.041888934 -0.103579834
0003b0 19 bf 1c 3d ad 77 64 38 6c d1 91 3d a3 cb 4d 3e
       0.038268182 5.4470893e-05 0.07120022 0.20097212
0003c0 8a 28 bd bd 69 a7 4a 3d 97 c6 d7 3d 68 24 eb bd
       -0.09236248 0.04947606 0.10535925 -0.11481553
0003d0 7e 4a dc 3d c8 20 18 3c 78 36 6a be 4c 97 5a 3e
       0.10756396 0.009285159 -0.2287234 0.21346778
0003e0 e1 ca 13 be 8a 61 b7 3d 07 90 cd 3d d8 76 31 be
       -0.14432861 0.08954151 0.10037237 -0.17330492
0003f0 ea 39 a8 3e e9 65 6d 3e e1 bd 08 3e 7b 0e b9 bd
       0.32856685 0.23183407 0.13353683 -0.09035965

output_mlp.0.bias f4 [128]
000000 ae 0a 19 be 18 b4 1f 3f d4 d4 1e be bc 06 81 3e
       -0.1494548 0.62384176 -0.15510875 0.2520045
000010 4c fb 18 3d 35 61 d8 3e ac 09 0f be 36 1a 92 3d
       0.03734903 0.42261663 -0.13968533 0.071339056
000020 2c e7 39 3c fc 00 f0 bd e0 09 15 be b0 6f bd bd
       0.01134662 -0.11718938 -0.14554548 -0.09249818
000030 b5 1b cc bd f4 15 05 be 26 3a 14 be 1d 58 bf 3d
       -0.09966222 -0.12996656 -0.14475307 0.09342978
000040 2f f2 e3 bd 56 04 0a be ff 3c 92 be f8 9d cb be
       -0.11130177 -0.13478217 -0.2856216 -0.39768958
000050 6d 82 51 be 3e a4 fb bc ae 41 44 be 5c 49 0f be
       -0.2045991 -0.030717965 -0.1916568 -0.13992828
000060 5b ff 07 be 48 0f 00 be 18 46 be 3c 5e 1b 70 bd
       -0.13281004 -0.1250583 0.023226783 -0.05861985
000070 7a 96 e1 3d cb b7 9b bc 36 18 3d b9 91 39 d8 3d
       0.11015029 -0.019008538 -0.00018033464 0.10557855
000080 4d 43 1f be f7 cb 01 be a8 54 04 be 00 e9 aa bd
       -0.15553017 -0.12675463 -0.12922919 -0.083452225
000090 a1 7e 0a be 7a 9c 2e 3e f8 ec 5d be 86 f9 d1 bd
       -0.13524868 0.17051879 -0.21672428 -0.10252671
0000a0 6f 8e 3f 3e af a5 33 be 38 7e 65 3d a7 05 0c be
       0.18706678 -0.17543672 0.056028575 -0.13674031
0000b0 0d 6c 0f bf d0 d8 1a bf 86 6f fb 3b 43 37 ad bd
       -0.5602425 -0.6048708 0.0076732067 -0.08457806
0000c0 cf bd 32 3e dc 07 fc bd 17 a1 14 be e8 a1 e0 bd
       0.17455219 -0.123061866 -0.14514576 -0.10968381
0000d0 c8 44 8f bf b9 13 b4 3d 04 f7 8d 3e 09 02 22 be
       -1.1192865 0.08792824 0.2772752 -0.15821089
0000e0 e2 ef f5 bd cd 25 e5 3d d0 0a df 3c 83 eb 22 be
       -0.12008645 0.111888506 0.027226835 -0.15910153
0000f0 43 19 0d be 63 b2 bf 3d ef fb 02 be bb 3f 04 be
       -0.13779168 0.093601964 -0.12791418 -0.12914936
000100 ab 39 0a be ca 30 f6 bd 33 bf 0c be d1 be 91 be
       -0.13498561 -0.120210245 -0.13744812 -0.28465894
000110 4f 30 14 3e 39 b4 14 be 82 3a ec bd 4e 7e a5 3e
       0.14471553 -0.14521874 -0.11534597 0.32322925
000120 aa 79 dd be 0a 4a 10 be 5f 36 07 be 4e fa 30 3e
       -0.43256885 -0.14090744 -0.13204335 0.17282984
000130 b8 e9 c0 bd 97 90 00 be b4 89 06 be 6a f1 19 be
       -0.09419578 -0.12555157 -0.13138467 -0.15033498
000140 31 67 54 be 86 5c e1 bc 28 4d 04 be 30 44 70 bd
       -0.2074249 -0.027509939 -0.12920058 -0.05865878
000150 cb dc f7 3d 27 a9 33 3d e7 9d 08 be 51 89 cc bd
       0.1210266 0.043862488 -0.13341485 -0.099871285
000160 01 29 18 be 40 af 37 be cd 5b 1d bd cd b4 78 bd
       -0.14859392 -0.17937946 -0.038417626 -0.0607193
000170 c0 86 d7 bd 55 fd 8d bd ce c0 fb bd 5b 81 30 be
       -0.105237484 -0.06933085 -0.12292634 -0.17236845
000180 93 53 80 3d bb 57 50 3c e6 60 ff bd 50 95 29 be
       0.062659405 0.012716229 -0.12469654 -0.16560864
000190 d2 0c 0d 3f f4 c7 1f 3e f3 dc 0b be 2a 52 c7 bd
       0.5509769 0.1560362 -0.13658504 -0.097324684
0001a0 33 b4 6a bd d2 01 bc 3c 6c b2 53 3f ac 65 24 be
       -0.057300758 0.022950087 0.82694125 -0.1605441
0001b0 31 ab 5c 3e 6f 8e 18 be 99 3d bd bd 75 a2 07 be
       0.2154968 -0.14898084 -0.092402644 -0.13245566
0001c0 f6 5f 2c 3d 74 c3 f5 bd cb f6 09 be b2 e3 9f 3f
       0.042083703 -0.1200017 -0.1347305 1.2491362
0001d0 f8 91 08 be f7 1e 06 be 7b 3c 19 be 8d 11 90 be
       -0.13336933 -0.1309775 -0.14964478 -0.2813839
0001e0 cf cc 64 bc 66 4b ca bd d9 56 17 3e 59 eb d8 bd
       -0.013964846 -0.09877662 0.14779224 -0.10591764
0001f0 77 11 27 3e f8 dc 2a 3e cd 33 5e 3e f9 51 d1 bd
       0.16315256 0.16685855 0.21699448 -0.10220713

output_mlp.2.weight f4 [9, 128]
000000 8a 0d 43 bd e9 be 46 3e 82 74 16 bd ac 31 9e 3e
       -0.047620334 0.19408764 -0.036732204 0.30897272
000010 a8 e8 18 c0 8a 95 0d c0 8d 61 d4 bc e2 eb e0 3d
       -2.3892002 -2.2122521 -0.025925422 0.10982491
000020 12 7f ad 3f 3b 4e 80 bd 0c 22 3a 3d 92 9f 7c ba
       1.3554404 -0.06264921 0.045442626 -0.0009636815
000030 ca d1 b1 bb 6c e0 d6 3d 84 c1 d1 bd de c4 c2 3e
       -0.00542662 0.10492024 -0.10241988 0.38040823
000040 b1 ff ca 3e 22 4b 8a bd 2b dd 34 3e c1 5e 5a 3e
       0.39648202 -0.06752612 0.17662494 0.21325208
000050 2c 1f 78 3d da de 4b c0 eb 3e 89 3c 9f fa 76 3d
       0.060576603 -3.1854768 0.016753634 0.060297605
000060 20 f5 47 3d 8b 02 09 bd 43 df 03 3f 6a c9 27 3e
       0.048817754 -0.03344969 0.51512545 0.16385427
000070 b7 5a 61 3e 3a 4e 07 3f b9 34 f4 be 47 c5 fb 3e
       0.22007261 0.5285374 -0.47696474 0.49173948
000080 97 55 30 bb 4d 9c 2b 3d 20 b5 db 3c da ed 0c 3d
       -0.0026906484 0.041897107 0.026819766 0.03440652
000090 67 84 75 3d 49 20 4f bf fa 97 35 3e e1 de 9a 3c
       0.05994072 -0.8090864 0.17733756 0.018905105
0000a0 f1 c4 bc bd 70 de 1e c0 95 19 b6 bf 35 aa 64 3d
       -0.09217251 -2.4823265 -1.4226557 0.055826385
0000b0 ce f2 b8 3e 68 3f 76 3d f0 35 09 3e 87 e6 90 bb
       0.36122745 0.060119063 0.13399482 -0.0044220123
0000c0 9b 59 42 3e a3 70 27 3d a8 0d 12 bc 62 6d e8 3c
       0.18979494 0.040878903 -0.008914389 0.02837247
0000d0 b1 ba b5 be 7b 66 2c bf ad bd 17 c0 94 78 39 be
       -0.35493997 -0.6734387 -2.370952 -0.18112403
0000e0 56 fc 42 bc 4f b7 bd 3e 32 66 32 3f 75 fc 27 3c
       -0.011900982 0.37053916 0.6968719 0.010253062
0000f0 e9 f6 98 bd c1 3f 55 3e f6 9d 83 bb b2 bd 35 3d
       -0.074689694 0.20825101 -0.004016633 0.04437036
000100 ab 6e 12 3d 0c 57 d6 3c 13 86 dc bc b9 48 ab 3f
       0.035750072 0.026164554 -0.0269194 1.3381568
000110 37 01 73 3e 31 fc db 3c 1e 32 b5 3c dc 9a 32 3e
       0.23730932 0.026853653 0.022118624 0.17441887
000120 1f a6 56 3e 79 5d e2 3c 57 95 25 bc 56 9a 5c 3f
       0.20961808 0.027632462 -0.010106406 0.86173
000130 59 ce 95 3c 41 16 b5 3c 23 8d a0 3d 36 99 0f bd
       0.01828687 0.022105338 0.0783942 -0.035058223
000140 83 53 c2 3b bf b3 9c c0 cc d0 92 bc 25 b3 29 c0
       0.0059303655 -4.8969417 -0.017921828 -2.651559
000150 ae fb 5c c0 4f e0 ff be b4 af b7 bd 21 ef 0d 3d
       -3.4528613 -0.4997582 -0.089690596 0.03465188
000160 81 43 2b 3d d7 cf 9c bc b4 f2 ef bf 6e 80 58 c0
       0.041812424 -0.019142075 -1.8745942 -3.3828387
000170 e2 4b ba bc f6 ad 82 bf 7b 54 a6 3c cb 9a 40 3c
       -0.022741262 -1.0209339 0.020303955 0.0117556555
000180 a3 40 b1 be f4 d8 4c c0 a2 e9 54 bd 49 aa f7 bd
       -0.34619626 -3.2007418 -0.051980622 -0.12093026
000190 dc 86 b7 3d f0 28 4c 3f 7b 4a 2b 3d d1 35 84 3d
       0.08961269 0.79749966 0.041819077 0.06455577
0001a0 ef 0f 64 c0 1f d2 82 3e 32 65 55 3e 95 98 fb 3d
       -3.5634725 0.25550935 0.20839384 0.12284962
0001b0 78 ff 81 3e 0b 1c f3 be 97 f3 9e 3d 43 09 8a 3c
       0.2539022 -0.47482333 0.07761305 0.01685012
0001c0 22 8b 38 3e 5f 3c a4 3c ea 02 ca 3d be b7 0c 3e
       0.18021825 0.020048318 0.09863837 0.13741967
0001d0 65 53 ff bc 0c 6c 47 3d 0d b2 a7 3d ec d9 f5 3d
       -0.031167695 0.048687026 0.08188257 0.12004456
0001e0 a6 e9 d5 3d 6a 95 1e 3d b9 1a 3a c0 1c 57 41 3a
       0.104449555 0.03871671 -2.907881 0.0007375346
0001f0 94 17 8a 3e 9b 87 6a bf a1 46 37 3e cc 68 1b bc
       0.26971114 -0.9161317 0.17898037 -0.009485435
000200 52 06 8e 3e 57 05 8c 3e 58 d0 d0 3e d3 97 3a 3e
       0.27739197 0.27347824 0.40783954 0.18221979
000210 96 b0 32 3f a6 59 54 c0 c9 a4 f4 3e 5f da c4 3e
       0.698007 -3.3179717 0.4778197 0.38447854
000220 57 c4 eb bf 67 19 80 3c 60 9e e5 3e 66 cb e6 3e
       -1.8419293 0.015637113 0.44847393 0.45077056
000230 6a 82 ea 3e ab 5f 21 3f 74 45 0b 3f 27 4b 5c bf
       0.45802623 0.630366 0.5440285 -0.86052173
000240 a3 ed 59 3e 63 a8 e5 3e 43 4d 30 3e 1d f5 c2 3e
       0.21282057 0.4485503 0.17216973 0.38077632
000250 61 e9 fb 3e b7 95 1d 40 93 b6 00 3f 19 2a ea 3e
       0.4920149 2.4622629 0.50278586 0.45735243
000260 5e 08 07 3f 08 d0 f4 3e 7c 88 40 bf 95 4e 9c 3e
       0.5274714 0.47814965 -0.7520826 0.30528703
000270 70 4f 44 3e e7 6a 7b bf 47 33 8e 3e ce 39 17 bf
       0.19170928 -0.98209995 0.27773497 -0.5907258
000280 d1 7a c8 3e 0e 35 5c 3f 89 2a f2 3e e8 06 e1 3e
       0.391562 0.86018455 0.47298077 0.43950582
000290 63 04 ed 3e 17 13 3a be 89 3f 5c be 6d d3 e2 3e
       0.4629241 -0.18171345 -0.21508612 0.4430193
0002a0 74 61 f5 bd ad 8d 78 3f 14 eb 87 3f f5 93 e2 3e
       -0.11981478 0.9709118 1.0618615 0.44253507
0002b0 cf 4f fb 3e 20 6c b3 bb 27 a1 58 3e 10 14 d8 3e
       0.49084327 -0.005475536 0.21155225 0.42202806
0002c0 38 8f 2a be 3f 05 d3 3e e8 fe da 3e 5c 17 dd 3e
       -0.16656196 0.4121494 0.42772603 0.43181884
0002d0 5b 04 73 be e2 42 03 3f 73 5c bc bf 78 6f 24 3f
       -0.2373213 0.5127393 -1.4715713 0.6423259
0002e0 f6 e3 d9 3e 87 f2 2a 3e 40 1c ec bf c3 8e 8f 3e
       0.42556733 0.1669408 -1.8446121 0.28038606
0002f0 c8 47 fb 3e fd bb ff bd 9d 63 df 3e 0b 6c ef 3e
       0.49078202 -0.12487028 0.43630686 0.46762118
000300 5a 43 c6 3c 97 bf fb 3e 60 3e d6 3e 89 e5 18 c0
       0.024202038 0.4916961 0.41844463 -2.3890097
000310 8f 82 66 bd ad 30 e4 3e e5 5d ef 3e 77 23 00 3e
       -0.056276854 0.44568387 0.46751323 0.12513529
000320 20 9c 5e 3e bc c0 e4 3e 4a 69 f7 3e 44 46 e1 bf
       0.21739244 0.44678295 0.48322517 -1.7599568
000330 4c 5c e5 3e 13 f6 d4 3e 17 39 bb 3e 94 b1 9d 3e
       0.4479698 0.4159399 0.36566994 0.30799544
000340 a3 5a 2d 3f af ac eb bf e1 72 e8 3e 8f 63 0a c0
       0.67716426 -1.8412074 0.45400146 -2.1623266
000350 43 01 98 3f 46 03 63 3f 36 51 0a 3f e5 24 d0 3e
       1.1875385 0.8867687 0.5403017 0.40653148
000360 6a e8 f2 3e 1a 64 00 3f 84 e4 54 bf aa 8c 56 40
       0.47442943 0.5015274 -0.8316119 3.3523355
000370 e1 52 db 3e 51 73 17 3f 35 37 cd 3e 99 11 00 3f
       0.4283667 0.59160334 0.40081182 0.5002685
000380 86 07 07 3f df 1c ec 3e 18 e2 04 3f 56 7b 0b 3f
       0.52745855 0.46115777 0.5190749 0.5448507
000390 be 93 b2 3e fb 20 71 bf a5 ef de 3e 03 6e d8 3e
       0.34878343 -0.9419095 0.4354221 0.42271432
0003a0 59 38 89 3f ad 25 7a 3e 7c 88 63 3e cb 47 d0 3f
       1.0720321 0.24428435 0.22220033 1.627191
0003b0 f3 01 40 3e 08 c2 0e 3e d6 5d e4 3d f4 50 e9 3e
       0.18750744 0.13941205 0.1115071 0.45569575
0003c0 95 61 53 3e 59 e1 e4 3e b6 ab f1 3e d5 93 0e 3e
       0.20642693 0.44703177 0.47201318 0.13923581
0003d0 5a fa 74 3e 31 a2 df 3e 10 65 ff 3e ba 16 e0 3f
       0.23923627 0.4367843 0.49881792 1.7506936
0003e0 a1 aa 10 3e 50 ff c1 3e b1 91 ee 3e d9 30 e3 3e
       0.1412759 0.378901 0.4659553 0.44373205
0003f0 40 35 97 be 88 a5 7c bf 93 57 40 3e 2c 1f e0 3e
       -0.29532814 -0.9869008 0.18783407 0.43773782

output_mlp.2.bias f4 [9]
000000 90 60 6b 3e 6b 6c e0 bc 84 99 cd bd 8e ad 6c 3c
       0.22986054 -0.027395448 -0.100390464 0.014445676
000010 72 e2 24 3e 2d b2 da bd 00 eb d2 bd 8f 94 2c bf
       0.16102007 -0.106785156 -0.10298729 -0.6741418
000020 eb 54 22 bf
       -0.63410825
