log/segmentation/pn/bucket/weighted-2/pn_0.pth (torch, 337359 bytes, 8 tensors)

local_mlp.0.weight f4 [64, 3]
0.13138391 0.077338554 0.24502441 0.35588142 -0.022610273 -0.1532464 0.20325278 -0.048682246
-0.07901292 0.14775276 -0.04132784 -0.07982465 0.19981803 -0.04498837 -0.085015915 0.21413197
-0.04057846 -0.0955216 0.20349945 -0.04107152 -0.082781844 0.21889105 -0.043748464 -0.08676413
0.15050283 0.0084930025 0.26288703 0.12426833 -0.034753673 -0.09230022 0.13655448 -0.043304626
-0.079166606 0.07909365 0.060276877 0.22947434 0.059786633 0.098478876 0.23097904 -0.16005306
0.10740115 0.0948771 -0.38359973 0.1384184 0.09276899 0.055471268 0.016667599 0.25011012
0.05737502 -0.09489758 0.23520833 0.15253788 -0.038990982 -0.082616016 0.11219198 0.03467495
0.24137731 0.12812552 0.056916416 0.24991482 0.19162333 -0.043237243 -0.09358959 0.06228303
-0.023772413 -0.07091473 0.18818118 -0.048403867 0.28769368 0.044096798 -0.026591217 0.25071153
0.13650376 -0.010972334 0.28163633 0.19213794 0.014108807 0.28385788 -0.015020909 0.02283269
-0.0408188 0.21828581 -0.0367021 -0.08499281 0.18018426 -0.039285284 -0.09246568 0.104036406
-0.07423823 0.23519157 0.11260649 -0.012562032 0.24082267 0.22218879 -0.037853662 -0.08293468
0.2360648 -0.03458287 -0.08578417 0.0083576925 0.006618514 -0.04944651 0.04791443 -0.014124016
0.23040494 0.057263605 -0.10457961 0.22516829 0.16641392 -0.07523841 0.26805806 0.14484891
-0.049541652 0.25365138 0.1870394 -0.045108702 -0.07758346 0.11089783 -0.108154275 0.25822198
0.28363657 -0.03575716 -0.105878994 0.117389865 0.07439726 0.2539989 0.07854814 -0.0015488141
0.24068901 0.07585827 0.0020452305 0.2299546 0.10922379 -0.02617307 -0.088690825 0.15180576
-0.111881025 0.25512707 0.115383685 0.091351934 0.23637182 -0.07352502 0.07292382 0.023884488
0.0045411917 0.013934276 -0.04770014 0.10397827 0.012937444 0.22946465 0.24466208 -0.039819956
-0.09298008 0.21134873 -0.042602025 -0.08417663 0.07138276 -0.036404278 0.2320333 0.05454979
-0.04843332 0.22133036 0.25067103 -0.040231027 -0.09074806 0.061688248 -0.045696083 0.22886977
0.26405063 -0.037807524 -0.1079873 0.21226339 -0.041796774 -0.08549925 0.095027745 -0.099708006
0.24480334 0.024009869 0.023271617 0.23226827 0.16141963 -0.023074346 0.262772 0.124293976
-0.019547312 0.25318605 0.28551292 -0.03398433 -0.095197305 0.03263807 0.066847734 0.23574497
00000000: 8189 063e ad63 9e3d aee7 7a3e 1736 b63e
00000010: 2e39 b9bc a0ec 1cbe 7f21 503e 0967 47bd
00000020: 87d1 a1bd 804c 173e 6247 29bd 1b7b a3bd
00000030: 199d 4c3e ba45 38bd d31c aebd 6945 5b3e
00000040: 9935 26bd d4a0 c3bd 2962 503e 9c3a 28bd
00000050: 8789 a9bd fa24 603e 9731 33bd 64b1 b1bd
00000060: 6a1d 1a3e 3c26 0b3c 2199 863e 6580 fe3d
00000070: de59 0ebd e607 bdbd f0d4 0b3e 3160 31bd
00000080: 1a22 a2bd dafb a13d e3e4 763d 52fb 6a3e
00000090: d4e2 743d 4baf c93d c585 6c3e f3e4 23be
000000a0: 22f5 db3d ed4e c23d 2f67 c4be 8ebd 0d3e
000000b0: abfd bd3d d735 633d 7d8a 883c 6f0e 803e
000000c0: 1202 6b3d aa59 c2bd 74da 703e e432 1c3e
000000d0: 02b5 1fbd 9632 a9bd e9c4 e53d 5207 0e3d
000000e0: 9d2b 773e 5633 033e 3021 693d ace9 7f3e
000000f0: e838 443e 8919 31bd e6ab bfbd 7e1c 7f3d
00000100: 5dbe c2bc be3b 91bd 91b2 403e 2243 46bd
00000110: 964c 933e d89e 343d d3d5 d9bc 435d 803e
00000120: a4c7 0b3e 4ec5 33bc a332 903e cfbf 443e
00000130: a028 673c d255 913e 421a 76bc 9f0b bb3c
00000140: 9d31 27bd 5186 5f3e f154 16bd b610 aebd
00000150: 3982 383e 9be9 20bd a55e bdbd 0a11 d53d
00000160: 370a 98bd 0fd6 703e 3b9e e63d fbd0 4dbc
00000170: 389a 763e 7585 633e 710c 1bbd a8d9 a9bd
00000180: f9ba 713e c4a6 0dbd 9caf afbd b4ee 083c
00000190: 1fe0 d83b 6c88 4abd ec41 443d 6b68 67bc
000001a0: 46ef 6b3e 3e8d 6a3d d62d d6bd 8492 663e
000001b0: 6968 2a3e 9816 9abd e83e 893e 4653 143e
000001c0: 30ec 4abd 98de 813e 4287 3f3e e7c3 38bd
000001d0: 14e4 9ebd 671e e33d fd7f ddbd ac35 843e
000001e0: d038 913e 1a76 12bd 16d7 d8bd 196a f03d
000001f0: 975d 983d 250c 823e d9dd a03d 9401 cbba
00000200: 2e77 763e 955b 9b3d 4609 063b 3879 6b3e
00000210: b9b0 df3d e868 d6bc 89a3 b5bd f872 1b3e
00000220: e121 e5bd 04a0 823e 484e ec3d b916 bb3d
00000230: 740b 723e 4994 96bd 1559 953d 67a9 c33c
00000240: 47ce 943b 974c 643c 3961 43bd 8ff2 d43d
00000250: 93f7 533c c8f8 6a3e b288 7a3e 401a 23bd
00000260: 576c bebd cd6b 583e 767f 2ebd cc64 acbd
00000270: 2031 923d a71c 15bd 239a 6d3e 9a6f 5f3d
00000280: 0462 46bd 6da4 623e f457 803e 4ac9 24bd
00000290: 1eda b9bd d1ac 7c3d d12b 3bbd d65c 6a3e
000002a0: a531 873e 10dc 1abd 7228 ddbd 935b 593e
000002b0: 1833 2bbd 3b1a afbd e89d c23d b633 ccbd
000002c0: baad 7a3e 58b0 c43c 1ea4 be3c bcd7 6d3e
000002d0: 304b 253e 6906 bdbc 0d8a 863e d78d fe3d
000002e0: af21 a0bc 9aa1 813e c02e 923e 2733 0bbd
000002f0: cef6 c2bd 7faf 053d 77e7 883d 2167 713e

local_mlp.0.bias f4 [64]
-0.26280943 0.25117114 0.10898022 0.12732898 0.119675286 0.12851408 0.11504017 0.12502638
-0.260174 0.122037634 0.09981968 -0.16751435 -0.14071478 0.36813134 0.60775316 -0.113339655
-0.11297054 0.11542184 -0.25137588 -0.27648583 0.11697849 0.12680684 -0.21401799 -0.10877795
-0.30267093 -0.20923005 0.19590032 0.12878187 0.11479646 -0.203122 -0.21504852 0.124644525
0.13205174 0.15479 -0.11514836 -0.12789623 -0.2304245 -0.24789158 0.10335366 -0.1614906
0.19529559 -0.20816998 -0.14122893 -0.15003729 0.19168375 -0.24249394 -0.22446617 0.23367868
0.15512912 -0.2031052 0.14373906 0.12131372 -0.13666266 -0.12612484 0.14737754 -0.13583983
0.13416119 0.12454046 -0.16644707 -0.0882596 -0.24745658 -0.26620156 0.16355975 -0.10380596
00000000: f58e 86be 8199 803e 0631 df3d 8762 023e
00000010: 5118 f53d 3299 033e 2e9a eb3d ea06 003e
00000020: 8735 85be deee f93d 436e cc3d e288 2bbe
00000030: 8917 10be b67b bc3e b695 1b3f 9f1e e8bd
00000040: 195d e7bd 4962 ec3d 57b4 80be 8d8f 8dbe
00000050: 6b92 ef3d a7d9 013e 8827 5bbe f9c6 debd
00000060: aff7 9abe 6740 56be 189a 483e 65df 033e
00000070: 681a eb3d 37ff 4fbe ae35 5cbe a145 ff3d
00000080: 9238 073e 4581 1e3e e7d2 ebbd 3bf7 02be
00000090: 66f4 6bbe 4ad7 7dbe 15ab d33d cb5d 25be
000000a0: 91fb 473e 832a 55be 519e 10be 60a3 19be
000000b0: bf48 443e 5550 78be 76da 65be 7749 6f3e
000000c0: 2bda 1e3e cffa 4fbe 5530 133e 5473 f83d
000000d0: 4cf1 0bbe df26 01be 23ea 163e 9919 0bbe
000000e0: 8d61 093e 120f ff3d 1a71 2abe 73c1 b4bd
000000f0: 4265 7dbe 924b 88be 357c 273e 3898 d4bd

local_mlp.2.weight f4 [256, 64]
-0.08756176 0.4354331 0.19824885 0.13115437 0.18241392 0.17172056 0.20523492 0.21256858
-0.07401298 0.10868537 0.1367061 -0.099731036 -0.11547116 0.069324814 0.07330099 -0.12851684
-0.123777635 0.13085455 -0.065054715 -0.121943176 0.15138401 0.1186603 -0.045637555 -0.15490215
-0.04994664 -0.054849055 0.06539487 0.19677752 0.1637107 -0.12381271 -0.08509564 0.1955707
0.25911254 0.062541604 -0.13151002 -0.10709696 -0.062129226 -0.06377815 0.2099386 -0.082737364
0.3503285 -0.069310255 -0.12440974 -0.08315968 0.15941247 -0.057645794 -0.11051612 0.0372733
0.008243196 -0.09784822 0.22219372 0.22269024 -0.12667553 -0.12808356 0.31525362 -0.13966215
0.19852787 0.19945212 -0.05353361 -0.13158764 -0.07441877 -0.031796902 0.32273 -0.1432411
0.32608172 -0.1921295 -0.062281664 -0.04856833 -0.0682467 -0.060154162 -0.06885328 -0.07593732
0.33566093 -0.06307383 -0.059547305 0.2479274 0.20170005 -0.34431183 -0.42569423 0.14518166
0.16784668 -0.06697485 0.31799257 0.31364655 -0.02576474 -0.06293174 0.37825832 0.15073752
0.39911366 0.34471145 -0.13093404 -0.09052162 -0.045204673 0.26593432 0.28794098 -0.07544257
-0.05366597 -0.11116867 0.15551192 0.20641647 0.30828768 0.3361517 -0.026138391 0.22800246
-0.09039423 0.25742093 0.1816363 0.20164455 -0.09285685 0.3713448 0.28945452 -0.19891877
-0.13084307 0.2626249 -0.03820973 -0.07240881 0.20268746 0.18677433 -0.08648934 0.21462727
-0.04768822 -0.066536315 0.28161794 0.1558686 0.35046932 0.36177084 -0.07190713 0.16675365
0.16749994 -0.11116283 0.01893162 -0.037809603 0.031492483 -0.030530231 -0.03754463 -0.012256217
0.20554464 -0.023335714 0.034133554 0.17981745 0.12356377 -0.34420276 -0.4299107 0.09209302
0.13922165 -0.010012217 0.17693369 0.18990427 -0.0045473375 -0.016535632 0.23516153 0.07545807
0.2560415 0.21047404 -0.14371464 -0.0069133374 0.000745426 0.23956336 0.20567963 -0.018829906
-0.03707439 -0.10248245 0.103697434 0.19571435 0.24047695 0.2265045 0.014366052 0.14078061
-0.020398447 0.13160966 0.15166312 0.1621046 -0.034605972 0.25491023 0.16534606 -0.21490546
-0.089926355 0.18073674 -0.0042988523 0.0010492294 0.11908813 0.15103182 -0.014826309 0.15838617
0.007731425 -0.031809058 0.20020527 0.06523213 0.21052976 0.22929372 -0.019640762 0.062200136
-0.0906304 0.41047063 0.18159299 0.16253586 0.20369953 0.16818587 0.21176365 0.22214842
-0.08549346 0.1397278 0.12430498 -0.17400207 -0.1403746 -0.006835413 0.03531463 -0.1380862
-0.119036876 0.12533565 -0.07419173 -0.06419263 0.18926355 0.04607492 0.0015821529 -0.13155901
-0.06098422 -0.065165594 0.045188587 0.2077265 0.14491893 -0.06869524 -0.08213265 0.25768012
0.2544786 0.055166833 -0.12313563 -0.13244526 -0.054786067 -0.086188965 0.19451936 -0.08904517
0.31855968 -0.09042733 -0.093856245 -0.10693265 0.15567276 -0.054179404 -0.10513994 0.033674553
0.04752063 -0.08901149 0.24487814 0.19506541 -0.10664825 -0.13109556 0.25665218 -0.121675976
0.23630312 0.19960274 -0.08571724 -0.10090173 -0.041056205 -0.08523112 0.2784237 -0.20221601
00000000: 9453 b3bd 16f1 de3e bf01 4b3e 554d 063e
00000010: b7ca 3a3e 84d7 2f3e 1a29 523e 94ab 593e
00000020: 1e94 97bd 6f96 de3d affc 0b3e c93f ccbd
00000030: 257c ecbd 2bfa 8d3d d41e 963d eb99 03be
00000040: 217f fdbd bcfe 053e 683b 85bd 58bd f9bd
00000050: 6904 1b3e 2c04 f33d 72ee 3abd ab9e 1ebe
00000060: d994 4cbd 67a9 60bd bfed 853d 0c80 493e
00000070: c7a3 273e 8591 fdbd 9f46 aebd b043 483e
00000080: 66aa 843e d015 803d 90aa 06be a755 dbbd
00000090: 377b 7ebd 1e9e 82bd 25fa 563e 3572 a9bd
000000a0: 425e b33e 89f2 8dbd 89ca febd 9f4f aabd
000000b0: 063d 233e ff1d 6cbd 4756 e2bd e3ab 183d
000000c0: 780e 073c a664 c8bd c086 633e e908 643e
000000d0: 3bb7 01be 5628 03be ec68 a13e 9803 0fbe
000000e0: e44a 4b3e 2d3d 4c3e 0f46 5bbd e9be 06be
000000f0: de68 98bd 783d 02bd de3c a53e cbad 12be
00000100: 2ff4 a63e 98bd 44be 0f1b 7fbd 96ef 46bd
00000110: edc4 8bbd 3664 76bd f302 8dbd 0785 9bbd
00000120: c0db ab3e da2c 81bd e0e7 73bd aee0 7d3e
00000130: 758a 4e3e a449 b0be 98f4 d9be 80aa 143e
00000140: 00e0 2b3e 1c2a 89bd eccf a23e 4896 a03e
00000150: 9310 d3bc 5be2 80bd 13ab c13e f05a 1a3e
00000160: a058 cc3e 057e b03e 9313 06be 6663 b9bd
00000170: 8928 39bd 8b28 883e 006d 933e a281 9abd
00000180: d9d0 5bbd 66ac e3bd 843e 1f3e d75e 533e
00000190: e2d7 9d3e 131c ac3e 2e20 d6bc 7a79 693e
000001a0: 9c20 b9bd adcc 833e defe 393e e97b 4e3e
000001b0: bb2b bebd e820 be3e 6233 943e 5db1 4bbe
000001c0: bafb 05be c576 863e ce81 1cbd 124b 94bd
000001d0: 4d8d 4f3e c541 3f3e 5321 b1bd 40c7 5b3e
000001e0: b954 43bd 3144 88bd 3a30 903e 059c 1f3e
000001f0: b770 b33e 073a b93e 0c44 93bd 78c1 2a3e
00000200: 1b85 2b3e 56a9 e3bd 7c16 9b3c 3ede 1abd
00000210: 43fe 003d 891a fabc 66c8 19bd 4dce 48bc
00000220: 4b7a 523e 8a2a bfbc a0cf 0b3d 1122 383e
00000230: 000f fd3d 583b b0be 411d dcbe 449b bc3d
00000240: 1f90 0e3e 480a 24bc 1b2e 353e 4476 423e
00000250: d501 95bb bc75 87bc 2fce 703e c389 9a3d
00000260: df17 833e 8286 573e ee29 13be 4789 e2bb
00000270: b168 433a 1950 753e ae9d 523e 2d41 9abc
00000280: 51db 17bd 52e2 d1bd 525f d43d 5869 483e
00000290: 973f 763e ccf0 673e 975f 6b3c cb28 103e
000002a0: a51a a7bc afc4 063e 944d 1b3e c0fe 253e
000002b0: febe 0dbd 9883 823e 7a50 293e 2d10 5cbe
000002c0: 4f2b b8bd 0d13 393e 63dd 8cbb 4c86 893a
000002d0: 7ae4 f33d 16a8 1a3e 0cea 72bc fc2f 223e
000002e0: e557 fd3b 374a 02bd 9c02 4d3e 6c98 853d
000002f0: 1d95 573e f9cb 6a3e aae5 a0bc 92c5 7e3d
00000300: 6e9c b9bd 3529 d23e 83f3 393e cd6f 263e
00000310: 9c96 503e eb38 2c3e 92d8 583e e07a 633e
00000320: 3217 afbd ce14 0f3e 9c93 fe3d 992d 32be
00000330: 5cbe 0fbe 9afb dfbb 13a6 103d 7866 0dbe
00000340: 9bc9 f3bd fd57 003e d5f1 97bd 6d77 83bd
00000350: 4ece 413e 0eb9 3c3d 3e60 cf3a 68b7 06be
00000360: 97ca 79bd 8a75 85bd ab17 393d 41b6 543e
00000370: a165 143e 17b0 8cbd 2a35 a8bd a6ee 833e
00000380: 054b 823e 9ef6 613d 882e fcbd bb9f 07be
00000390: 5b67 60bd d783 b0bd 1530 473e 505d b6bd
000003a0: 411a a33e f731 b9bd b437 c0bd 81ff dabd
000003b0: ae68 1f3e 39eb 5dbd 9c53 d7bd 54ee 093d
000003c0: fea4 423d a84b b6bd 56c1 7a3e 3abf 473e
000003d0: 666a dabd ea3d 06be ea67 833e 4131 f9bd
000003e0: 72f9 713e a964 4c3e 858c afbd 91a5 cebd
000003f0: 8d2a 28bd a78d aebd 8d8d 8e3e b711 4fbe

local_mlp.2.bias f4 [256]
0.0063424115 -0.10708598 -0.06614788 -0.0093940655 -0.08781824 -0.08013734 -0.06810935 -0.08611455
-0.02586181 -0.0628364 -0.06192695 -0.056561198 -0.07080075 -0.081869654 0.0052520377 -0.072424434
-0.081880555 -0.013967309 -0.08409495 -0.018342923 0.010622154 -0.09967394 -0.09447139 0.002237776
-0.066239566 -0.006883286 -0.09630385 0.00064780266 -0.017693715 -0.07848825 0.012439953 -0.065932
0.015762987 -0.07134408 0.01005379 -0.007857028 -0.07288816 -0.0067045544 0.010760226 -0.06935945
-0.07432082 -0.022768397 -0.08692649 0.005649673 0.01859928 -0.05917953 -0.091460645 -0.06607905
-0.11011498 -0.01803685 -0.06591934 0.023621129 -0.011756991 0.015592546 0.02286087 -0.075792395
-0.09928222 -0.09555405 -0.06881732 -0.0026356054 -0.059417266 0.014191897 -0.016171897 -0.10940014
-0.07278566 -0.13659278 -0.025115738 0.016118878 0.0046147066 0.02181725 -0.099743515 -0.04763177
-0.010631261 -0.08075605 -0.019898156 -0.07584063 -0.07585173 -0.10658043 -0.07342078 -0.0027836373
-0.013355422 0.0045687375 0.019415824 0.03084466 -0.0037614773 -0.09302395 -0.11620395 0.010793777
-0.06967192 -0.08280129 -0.05558419 -0.054644186 -0.096690945 -0.079299524 -0.0060911984 -0.074739955
0.006775692 0.018114068 -0.061784998 -0.02337838 -0.06123028 -0.0057581617 -0.07776118 -0.08883304
-0.014742552 -0.083390564 -0.089474775 -0.05685348 -0.08997534 -0.08211724 -0.018532192 -0.072260424
-0.10169954 -0.07052433 -0.075627014 0.0089680515 -0.026865464 -0.054636717 -0.12117733 0.006171221
0.0042429166 -0.01229557 0.013454142 0.016126743 -0.08864207 -0.006370053 -0.09206815 -0.051770333
0.00023782629 -0.11455957 -0.082777746 -0.058556136 0.0048191873 -0.062039804 -0.0015344998 0.014738386
-0.007932476 0.006112924 -0.08016411 0.006011417 -0.1094908 -0.06704364 -0.055567954 -0.016574034
-0.07776632 -0.015151573 -0.0886804 -0.004905012 -0.0057763103 0.010185501 0.024555668 -0.09147136
0.0062448494 0.007115069 -0.065133184 -0.04846943 -0.00551314 0.010712161 -0.021677254 0.0011778291
-0.114768595 -0.010140088 -0.019724486 -0.009458572 -0.018029597 -0.0066946303 -0.01578529 -0.014382747
-0.08875748 -0.009961427 -0.01536893 0.0019218841 0.0073649483 0.008181803 0.0056193382 -0.017133888
-0.089783154 -0.060961887 -0.07600905 -0.063236035 -0.004753357 0.004500745 -0.01987126 -0.0014532403
0.0067956625 -0.0016367114 0.013816142 -0.08175189 0.0060610673 -0.07410655 -0.023942627 -0.090228364
-0.07179482 -0.07953354 -0.07635317 -0.073990606 0.017203085 -0.07403131 -0.08928714 -0.06625803
-0.06878968 -0.09559557 -0.011969107 -0.021495556 -0.063637845 -0.07526745 -0.0716729 -0.07285538
-0.117666684 -0.07414509 -0.03904102 -0.065961756 -0.08480719 -0.09105672 -0.02532033 -0.051451307
-0.013555954 -0.09410798 -0.059658915 0.011574648 -0.0019174437 -0.025418013 -0.01903713 -0.050461356
-0.018642575 -0.0052930284 -0.0032878849 -0.10051033 -0.09437106 -0.008610551 -0.105013184 -0.07599241
-0.006893255 0.021135615 -0.118387975 0.012822092 -0.016044967 0.007710394 -0.08141047 0.0146521
0.0010041359 -0.022238534 -0.07159655 -0.06765908 -0.017969973 0.019463088 0.0033810595 -0.07157682
-0.09204148 -0.08280649 -0.070427515 -0.09323904 -0.078750186 -0.06886321 -0.052887406 -0.09050342
00000000: 01d4 cf3b e54f dbbd 8a78 87bd 91e9 19bc
00000010: 0dda b3bd 0c1f a4bd ea7c 8bbd d35c b0bd
00000020: 26dc d3bc 5fb0 80bd 1da7 7dbd b7ac 67bd
00000030: fcff 90bd 47ab a7bd 4919 ac3b 4353 94bd
00000040: feb0 a7bd 24d7 64bc f939 acbd e643 96bc
00000050: 8b08 2e3c da21 ccbd 377a c1bd a7a7 123b
00000060: 9ca8 87bd 308d e1bb f43a c5bd 4dd1 293a
00000070: 69f2 90bc 73be a0bd f2d0 4b3c 5b07 87bd
00000080: 6121 813c d81c 92bd a7b8 243c c4ba 00bc
00000090: 6346 95bd e1b1 dbbb a94b 303c 540c 8ebd
000000a0: 8435 98bd ca84 babc 8406 b2bd e420 b93b
000000b0: 845d 983c 3c66 72bd b84f bbbd 7454 87bd
000000c0: f683 e1bd 04c2 93bc b800 87bd 1981 c13c
000000d0: 65a0 40bc e177 7f3c b846 bb3c 0b39 9bbd
000000e0: 7a54 cbbd d7b1 c3bd 18f0 8cbd 1fba 2cbb
000000f0: 855f 73bd 2185 683c ed7a 84bc 2e0d e0bd
00000100: a610 95bd fade 0bbe 85bf cdbc bd0b 843c
00000110: f736 973b 17ba b23c 5446 ccbd 8819 43bd
00000120: be2e 2ebc 6e63 a5bd 7501 a3bc 5552 9bbd
00000130: 2758 9bbd d746 dabd a25d 96bd af6d 36bb
00000140: b3d0 5abc 59b5 953b ef0d 9f3c f1ad fc3c
00000150: 1e83 76bb 5783 bebd 56fc edbd 62d8 303c
00000160: 27b0 8ebd b993 a9bd 3fac 63bd 95d2 5fbd
00000170: e705 c6bd ca67 a2bd ad98 c7bb 4311 99bd
00000180: a006 de3b f463 943c 4412 7dbd 0484 bfbc
00000190: 9acc 7abd f6ae bcbb 4141 9fbd 19ee b5bd
000001a0: bf8a 71bc acc8 aabd 8d3e b7bd 32df 68bd
000001b0: fe44 b8bd 152d a8bd d3d0 97bc 46fd 93bd
000001c0: d947 d0bd 0f6f 90bd 56e2 9abd bcee 123c
000001d0: f614 dcbc c0ca 5fbd d22b f8bd f437 ca3b
000001e0: 2a08 8b3b 5c73 49bc c36e 5c3c 3b1c 843c
000001f0: f989 b5bd e1bb d0bb 3a8e bcbd 210d 54bd
00000200: 0261 7939 359e eabd 6187 a9bd 8fd8 6fbd
00000210: 46ea 9d3b 731d 7ebd 4521 c9ba 4579 713c
00000220: 37f7 01bc ec4e c83b 152d a4bd 6cfb c43b
00000230: b63c e0bd 2d4e 89bd 399b 63bd 45c6 87bc
00000240: f343 9fbd 4e3e 78bc 129e b5bd 39ba a0bb
00000250: 3447 bdbb 16e1 263c f828 c93c 5655 bbbd
00000260: 98a1 cc3b 8625 e93b 8c64 85bd e287 46bd
00000270: 92a7 b4bb 0f82 2f3c 7f94 b1bc 6361 9a3a
00000280: cc0b ebbd 9d22 26bc 3f95 a1bc 20f8 1abc
00000290: ceb2 93bc a15e dbbb 2750 81bc 9da5 6bbc
000002a0: 7bc6 b5bd 4135 23bc f7cd 7bbc bbe7 fb3a
000002b0: aa55 f13b f80c 063c 6d22 b83b 5e5c 8cbc
000002c0: 3be0 b7bd 2cb3 79bd a2aa 9bbd e581 81bd
000002d0: 0cc2 9bbb fc7a 933b 0dc9 a2bc a77a beba
000002e0: 26ae de3b ec86 d6ba 1a5d 623c 896d a7bd
000002f0: eb9b c63b 2dc5 97bd 5423 c4bc a6c9 b8bd
00000300: 2a09 93bd 7be2 a2bd 0d5f 9cbd 6388 97bd
00000310: 7ced 8c3c ba9d 97bd 2ddc b6bd 4ab2 87bd
00000320: 9be1 8cbd 9cc7 c3bd 131a 44bc 7317 b0bc
00000330: 8f54 82bd d225 9abd 3ec9 92bd 3435 95bd
00000340: 3bfb f0bd 62d9 97bd 7ae9 1fbd f516 87bd
00000350: 64af adbd f27b babd 956c cfbc 9bbe 52bd
00000360: cb19 5ebc afbb c0bd e85c 74bd 98a3 3d3c
00000370: bc52 fbba 7039 d0bc c1f3 9bbc 91b0 4ebd
00000380: 50b8 98bc 2471 adbb 8e79 57bb 5cd8 cdbd
00000390: 9d45 c1bd 4513 0dbc 2711 d7bd e9a1 9bbd
000003a0: d0e0 e1bb 9924 ad3c 6575 f2bd c013 523c
000003b0: bc70 83bc 79a7 fc3b 88ba a6bd 5d0f 703c
000003c0: 369d 833a 962d b6bc 36a1 92bd d890 8abd
000003d0: c435 93bc 0e71 9f3c c494 5d3b de96 92bd
000003e0: 3e80 bcbd 7396 a9bd 4d3c 90bd 1cf4 bebd
000003f0: c747 a1bd 2808 8dbd 77a0 58bd db59 b9bd

output_mlp.0.weight f4 [128, 512]
0.09866023 -0.05773879 -0.03990398 0.038861793 -0.008152934 -0.009646504 -0.031217348 -0.050846882
0.045073353 -0.015301722 -0.061127003 -0.0019829401 -0.057415195 -0.034770433 0.04505921 -0.037359376
-0.032372348 -0.012975844 -0.035322566 0.054029737 0.08942025 -0.027627917 -0.060442362 0.096228264
-0.03700229 0.06979482 -0.016451191 0.043057453 0.05757346 -0.021209905 0.09217052 -0.020537738
0.0604115 -0.022978183 0.030410586 0.06126681 -0.047377184 0.02156179 0.07494848 -0.01616832
-0.019172557 0.061962917 -0.039060418 0.10360706 0.07868478 -0.025184007 -0.064559355 -0.022122907
-0.06292265 0.08063042 -0.05356921 0.069268934 0.079950005 0.042705193 0.047556575 -0.031165615
-0.0030780125 -0.023844516 -0.03354489 0.06550361 -0.068105705 0.039902806 0.06877356 -0.050591987
-0.04428552 -0.09057218 0.0722818 0.084212 0.071432576 0.080445915 -0.053076215 -0.023292985
0.047090027 -0.062942974 0.091284305 -0.03957917 -0.062262557 -0.052624356 -0.05127092 0.054603692
0.105299436 0.080105565 0.051960655 0.056999274 0.019043133 -0.04611723 -0.0673351 0.056393832
-0.027643347 -0.038451154 0.0022432518 -0.025720345 -0.0019440629 -0.003919351 0.014344579 -0.06363664
0.05591662 0.071251094 -0.042221267 0.08499273 -0.037303984 0.0933487 -0.027290294 -0.025122954
0.08042115 -0.037793458 -0.06511567 -0.035669856 -0.055685326 -0.059321433 0.085711494 -0.0028671303
-0.023986565 -0.049233694 -0.02906746 0.07733854 0.07128209 -0.013857195 -0.03867905 0.069894284
0.063045524 0.050962217 0.071121894 0.045023438 -0.042800706 0.0562305 -0.03828778 -0.07098186
0.05830524 -0.028375471 -0.031996433 -0.03655534 0.07642974 0.0014995233 0.07243379 0.06944143
0.06458691 0.06430959 -0.050973594 0.047954217 -0.06612462 -0.04342473 -0.011666933 0.05798684
-0.049934458 0.06627825 -0.03686507 0.041956943 0.09037539 0.045786567 0.055785216 -0.0064523756
0.06516963 0.04913573 -0.0456344 -0.031410825 0.07123994 0.08581602 0.057753287 0.05845466
-0.010601616 0.049408693 0.025789846 0.053021334 0.08246108 0.055387348 0.058388162 0.04621549
-0.045744985 0.05961789 0.0527985 0.078224815 0.045088682 0.030112308 0.08642264 0.07426727
-0.0019585146 0.0045752344 -0.0054225037 0.0041919816 0.038977314 0.07620736 0.06704498 0.05459269
0.1110689 0.08626871 0.048706234 -0.03998153 0.051398765 -0.04375936 0.03630149 -0.06862534
-0.017986663 -0.021728473 -0.042855937 -0.04090984 0.085223444 -0.05431045 -0.045771383 -0.032985065
-0.0026100632 -0.037503794 0.070785426 0.07711766 -0.03281566 0.0012856746 -0.01496318 -0.04327348
-0.057859875 -0.021621063 -0.027932504 -0.037532814 -0.026619002 -0.07019943 0.06714221 -0.04807591
0.086649306 -0.06878675 0.024238164 0.0450075 0.06860213 0.037401624 0.07029669 -0.034849323
-0.007996364 0.053966705 0.078673415 -0.037958704 -0.061473552 0.07807147 -0.05937959 -0.0057245656
0.07527854 0.08733644 -0.038605534 0.046681106 0.10499064 0.07378835 -0.03133491 0.06250433
0.05412359 0.058770373 -0.02992135 -0.0326205 0.05047581 0.054329228 0.060001563 -0.020953309
-0.034979098 -0.04210051 -0.0364044 -0.027972443 -0.0261843 -0.037339978 -0.006895817 -0.05146849
00000000: 600e ca3d 827f 6cbd 5b72 23bd 8b2d 1f3d
00000010: e293 05bc 5f0c 1ebc 86bb ffbc d244 50bd
00000020: d69e 383d 13b4 7abc 4f60 7abd 37f4 01bb
00000030: 322c 6bbd 716b 0ebd 0290 383d 2506 19bd
00000040: de98 04bd a298 54bc 65ae 10bd 494e 5d3d
00000050: f721 b73d f153 e2bc 6992 77bd 5313 c53d
00000060: b78f 17bd 96f0 8e3d a6c4 86bc 035d 303d
00000070: 26d2 6b3d 65c0 adbc e6c3 bc3d c23e a8bc
00000080: 0d72 773d be3c bcbc 9f1f f93c e8f2 7a3d
00000090: 940e 42bd 5aa2 b03c 977e 993d 6d73 84bc
000000a0: c40f 9dbc d4cc 7d3d d1fd 1fbd f02f d43d
000000b0: 7c25 a13d b14e cebc b237 84bd 193b b5bc
000000c0: 97dd 80bd 9021 a53d 636b 5bbd dfdc 8d3d
000000d0: d4bc a33d a4eb 2e3d afca 423d 084f ffbc
000000e0: 7bb8 49bb 9355 c3bc 5e66 09bd c226 863d
000000f0: 017b 8bbd 2071 233d 27d9 8c3d 8b39 4fbd
00000100: bc64 35bd e87d b9bd 7b08 943d 5777 ac3d
00000110: 3e4b 923d d4c0 a43d 7266 59bd eed0 bebc
00000120: 79e1 403d 3fe8 80bd 44f3 ba3d c51d 22bd
00000130: 0607 7fbd a38c 57bd 7501 52bd 1fa8 5f3d
00000140: 3ba7 d73d 630e a43d b2d4 543d 1278 693d
00000150: 5800 9c3c 6ce5 3cbd fce6 89bd 38fd 663d
00000160: 4d74 e2bc f57e 1dbd 8503 133b 79b3 d2bc
00000170: edcf feba e66d 80bb 8605 6b3c ed53 82bd
00000180: d308 653d 18ec 913d 35f0 2cbd ab10 ae3d
00000190: 10cc 18bd 9a2d bf3d e58f dfbc a7ce cdbc
000001a0: d8b3 a43d 50cd 1abd 5d5b 85bd 8e1a 12bd
000001b0: 4c16 64bd 08fb 72bd 8289 af3d 77e6 3bbb
000001c0: 797f c4bc 45a9 49bd e21e eebc ab63 9e3d
000001d0: 58fc 913d 4a09 63bc ec6d 1ebd bc24 8f3d
000001e0: 031e 813d c2bd 503d 5ba8 913d 7f6a 383d
000001f0: cb4f 2fbd f451 663d a6d3 1cbd f05e 91bd
00000200: 7ad1 6e3d ad73 e8bc b10e 03bd 0dbb 15bd
00000210: 3287 9c3d a78b c43a 2b58 943d 4f37 8e3d
00000220: 2446 843d bfb4 833d b0c9 50bd a46b 443d
00000230: 586c 87bd 21de 31bd aa26 3fbc 9c83 6d3d
00000240: 1388 4cbd e4bc 873d d4ff 16bd 0bdb 2b3d
00000250: bc16 b93d b28a 3b3d 0a7f 643d 736e d3bb
00000260: a877 853d 8c42 493d 23eb 3abd a3a8 00bd
00000270: 3fe6 913d 4fc0 af3d b68e 6c3d 276e 6f3d
00000280: 67b2 2dbc c560 4a3d 3a45 d33c e62c 593d
00000290: 5be1 a83d d8dd 623d 6d28 6f3d 744c 3d3d
000002a0: 185f 3bbd e331 743d 3d43 583d 5534 a03d
000002b0: e9ae 383d 16ae f63c 5afe b03d 7019 983d
000002c0: 6c5a 00bb d9eb 953b 42af b1bb e45c 893b
000002d0: ada6 1f3d 9b12 9c3d e14e 893d 969c 5f3d
000002e0: 1778 e33d a6ad b03d 3080 473d acc3 23bd
000002f0: 8387 523d 043d 33bd dfb0 143d 718b 8cbd
00000300: c458 93bc e9ff b1bc b589 2fbd 1491 27bd
00000310: a189 ae3d a274 5ebd c67a 3bbd 591b 07bd
00000320: 980d 2bbb 949d 19bd f3f7 903d ddef 9d3d
00000330: b769 06bd 1584 a83a 2028 75bc 883f 31bd
00000340: 7afe 6cbd a81e b1bc b5d2 e4bc 02bc 19bd
00000350: 1810 dabc b8c4 8fbd db81 893d 3feb 44bd
00000360: 3175 b13d 11e0 8cbd 1d8f c63c c959 383d
00000370: 467f 8c3d 7232 193d b6f7 8f3d 2abe 0ebd
00000380: 2e03 03bc 310c 5d3d 871f a13d 967a 1bbd
00000390: b1cb 7bbd efe3 9f3d 0338 73bd 2395 bbbb
000003a0: a32b 9a3d 73dd b23d d620 1ebd b034 3f3d
000003b0: 5505 d73d 591e 973d 0959 00bd 4502 803d
000003c0: b3b0 5d3d 34b9 703d 9e1d f5bc 139d 05bd
000003d0: b9bf 4e3d 5388 5e3d 33c4 753d 46a6 abbc
000003e0: 3e46 0fbd 9671 2cbd c81c 15bd 7726 e5bc
000003f0: 7580 d6bc cef1 18bd 4ef6 e1bb a0d0 52bd

output_mlp.0.bias f4 [128]
0.08215141 0.06588691 0.053938918 -0.0054515772 0.05409132 -0.030340023 0.06499778 -0.03249588
-0.03190796 -0.007315944 -0.049634602 0.06862222 0.042783357 0.07214957 -0.00577166 -0.033181183
-0.0063824947 -0.0031910334 -0.014985465 0.04795766 -0.0066826115 0.07513473 0.07475066 0.043959647
-0.029610354 0.008132168 -0.0013640155 0.034738503 -0.05635356 0.042346355 -0.030334784 -0.029183509
-0.0068330714 0.060741678 -0.0071234675 -0.004094301 -0.021601928 -0.030270804 -0.03137573 0.06390518
-0.03167467 0.063254386 -0.0028349638 0.03574494 -0.029996108 -0.005366665 0.08268945 -0.015746117
0.053702842 0.06242461 0.061436027 6.382509e-05 0.04948038 -0.0062872265 -0.022670977 -0.00873443
0.05923759 0.061025202 0.053202 0.075497136 0.07171479 0.06972934 -0.02984526 -0.0012302302
0.07387791 -0.019783834 -0.025748756 -0.023826003 -0.010602328 0.027817586 -0.0016286559 0.044099472
-0.030686188 0.032354575 -0.021021608 -0.0081503475 -0.0069281063 -0.055283356 0.049369466 0.07592695
0.07600052 -0.0065890816 0.044906456 0.038689584 -0.031699084 0.051335335 -0.03007955 -0.029956043
0.032109365 -0.02900289 -0.024144776 0.007018171 0.053719405 0.0569695 -0.0064582336 0.07990265
0.10060945 -0.031642664 0.052042197 -0.015672065 0.057247374 0.058853194 0.057054248 0.062216096
0.061151482 0.09358948 -0.06730524 -0.033531055 0.0063437484 -0.027246507 0.06212411 -0.006988642
0.07676161 -0.028024971 0.08447547 -0.031263627 0.045043774 -0.029182313 0.053947717 -0.030201813
0.08333259 -0.030002218 0.07327588 0.07452422 0.053330306 -0.0061774785 -0.009181015 0.050870694
00000000: 003f a83d b7ef 863d 0eef 5c3d 25a3 b2bb
00000010: dc8e 5d3d a48b f8bc 8e1d 853d 661a 05bd
00000020: ecb1 02bd 96ba efbb a74d 4bbd ce89 8c3d
00000030: 9a3d 2f3d 27c3 933d 3120 bdbb fee8 07bd
00000040: 3f24 d1bb a820 51bb 9985 75bc 406f 443d
00000050: cff9 dabb 3de0 993d e016 993d 080f 343d
00000060: 6a91 f2bc c93c 053c c4c8 b2ba f649 0e3d
00000070: fed2 66bd 5f73 2d3d a780 f8bc 4112 efbc
00000080: f5e7 dfbb 44cc 783d fa6b e9bb 7c29 86bb
00000090: 87f6 b0bc 7afa f7bc d683 00bd b8e0 823d
000000a0: 4cbd 01bd 848b 813d cdca 39bb 4969 123d
000000b0: 66ba f5bc d9da afbb 1659 a93d 00fe 80bc
000000c0: 83f7 5b3d f3b0 7f3d 58a4 7b3d d6d9 8538
000000d0: f0ab 4a3d 1405 cebb 7cb8 b9bc db1a 0fbc
000000e0: 1da3 723d 90f5 793d 57ea 593d 3e9e 9a3d
000000f0: 34df 923d 42ce 8e3d 0c7e f4bc ad3f a1ba
00000100: 4d4d 973d b511 a2bc 0eef d2bc c02e c3bc
00000110: 63b5 2dbc b5e1 e33c a078 d5ba a6a1 343d
00000120: 9a61 fbbc 3b86 043d 8235 acbc 0989 05bc
00000130: 2b05 e3bb cd70 62bd a337 4a3d 977f 9b3d
00000140: 29a6 9b3d 39e9 d7bb d5ef 373d f878 1e3d
00000150: e6d6 01bd 0045 523d 6369 f6bc 6066 f5bc
00000160: 1c85 033d 7897 edbc 44cb c5bc aff8 e53b
00000170: e108 5c3d da58 693d 979f d3bb 00a4 a33d
00000180: 540c ce3d bd9b 01bd 332a 553d b462 80bc
00000190: 397c 6a3d 0c10 713d b7b1 693d 4ed6 7e3d
000001a0: fa79 7a3d d7ab bf3d 54d7 89bd dc57 09bd
000001b0: 38df cf3b 1134 dfbc da75 7e3d fa00 e5bb
000001c0: 3135 9d3d a094 e5bc 7a01 ad3d 4a0e 00bd
000001d0: d27f 383d bf0f efbc 48f8 5c3d cb69 f7bc
000001e0: 47aa aa3d 36c7 f5bc aa11 963d 27a0 983d
000001f0: e170 5a3d 726c cabb f86b 16bc ca5d 503d

output_mlp.2.weight f4 [9, 128]
0.103891425 0.09305668 -0.16838743 0.024502045 -0.19821909 -0.010110466 0.07352036 -0.024724731
-0.07232869 -0.022605408 -0.18164483 -0.25695193 -0.07892793 -0.25690663 -0.0099191265 -0.010390429
-0.023529816 0.018378107 -0.095918104 -0.1389544 0.008333322 0.10924012 0.09864118 0.04272267
-0.025294423 0.045383595 -0.006219491 0.03741893 -0.23559272 -0.08889976 -0.04253113 -0.052582756
-0.014553961 -0.15533811 0.022603592 -0.016697101 -0.0620864 -0.026397383 -0.023151238 -0.23108579
-0.01885827 0.07643806 -0.003778511 0.037170965 -0.03583057 -0.0022181342 0.08706994 -0.07551532
-0.14728107 0.08684342 -0.17615011 0.01591062 0.08208948 -0.02432664 -0.17947377 -0.025534276
-0.20575315 -0.22775204 -0.21332854 0.11665568 -0.27161035 0.069923155 -0.04200602 0.00863813
0.09523902 -0.057800215 -0.1884056 -0.18048233 -0.056735553 0.025254555 -0.0029766501 -0.14599118
-0.016452676 0.05060781 -0.08071341 0.0070352117 0.022363735 -0.24464731 0.07545347 0.086299725
0.09065006 -0.011203884 -0.105171055 0.067278124 -0.019083424 0.08269104 -0.029190976 -0.05177621
0.038584486 -0.05411728 -0.19015095 0.03969831 -0.20926782 -0.19631448 -0.03669896 0.14190151
0.13193128 -0.037728854 -0.16663212 -0.057295352 -0.1960463 -0.19084169 -0.18379681 0.075133026
-0.16954297 0.14404583 -0.2829453 -0.00047658384 0.029635325 -0.05283422 -0.24172427 -0.0070293406
0.10422628 -0.13937703 0.13060258 -0.01790572 -0.16868076 -0.05373003 0.08507633 -0.16735712
0.09766037 -0.037154213 0.087432615 -0.2629723 0.08368143 -0.0010328661 -0.028103366 -0.16120034
-0.03137522 0.00414282 0.009000165 0.09360133 -0.011989969 -0.06569166 -0.0028003398 -0.0420883
0.15205795 0.0835175 0.21216322 0.087075315 -0.09362063 0.07401302 0.092162125 -0.037312407
0.07980031 0.049158145 -0.08088602 -0.12685439 0.05523695 -0.005518323 -0.0023130765 0.014392516
-0.054077066 0.07066524 0.07853574 0.035587102 0.2808292 -0.101865806 -0.05336534 -0.0348743
0.09466427 -0.07105139 0.05973556 0.08637058 0.13420601 -0.061246686 -0.052122742 0.034334574
-0.041705742 -0.006896221 0.06812955 0.037956163 -0.05249481 0.062454216 -0.046629142 0.12734532
-0.0010828157 0.012842118 -0.046747528 0.098860964 0.036357053 0.08596378 0.05458195 0.11479949
0.037932847 0.055267606 0.025607998 -0.00018744357 0.08660345 -0.016705237 -0.058382105 0.09292866
-0.0098708365 0.12902543 0.03263929 0.03887302 0.105445676 0.027795864 0.08469907 -0.0013040238
-0.03317284 0.040254097 0.15956251 0.07148945 0.047963403 0.27841496 0.03613593 -0.012890829
-0.023643805 0.098095246 -0.0960667 0.046246316 -0.050033975 0.027220272 -0.06616687 -0.056319557
0.039403148 -0.080157496 0.035991784 0.04170948 0.026606342 0.03817809 0.10232266 -0.022237655
-0.07627813 -0.043484528 0.013103011 0.10348042 0.007356883 0.029667504 -0.061285082 0.004745711
0.0096030785 -0.03518683 0.31966823 -0.05952739 0.061754823 -0.05177658 0.064127415 0.09347515
-0.014071246 -0.0037845678 -0.021264233 -0.06561476 -0.015305497 -0.051128574 0.030830659 0.011846692
-0.0359799 -0.026416056 -0.014622758 0.08509662 0.022900483 0.11256117 0.100704506 -0.015823849
00000000: 07c5 d43d 8094 be3d c16d 2cbe 83b8 c83c
00000010: f2f9 4abe 5ea6 25bc d891 963d 858b cabc
00000020: 1021 94bd fa2e b9bc 1a01 3abe 348f 83be
00000030: f7a4 a1bd 4489 83be d583 22bc 9e3c 2abc
00000040: 9ac1 c0bc af8d 963c b670 c4bd 104a 0ebe
00000050: 7c88 083c 49b9 df3d 6304 ca3d f7fd 2e3d
00000060: 4036 cfbc 26e4 393d dfcc cbbb 9844 193d
00000070: 383f 71be 1411 b6bd 1f35 2ebd 0461 57bd
00000080: bd73 6ebc f410 1fbe 2b2b b93c 5cc8 88bc
00000090: 4f4e 7ebd 533f d8bc aaa7 bdbc c1a1 6cbe
000000a0: a97c 9abc 8f8b 9c3d e5a0 77bb 9540 183d
000000b0: 13c3 12bd 1e5e 11bb ba51 b23d c7a7 9abd
000000c0: d9d0 16be f7da b13d b260 34be fd56 823c
000000d0: 871e a83d a948 c7bc f9c7 37be 422d d1bc
000000e0: f4b0 52be d537 69be cc72 5abe 2ce9 ee3d
000000f0: 8310 8bbe df33 8f3d 810e 2cbd f186 0d3c
00000100: ad0c c33d ebbf 6cbd 66ed 40be 5cd0 38be
00000110: 8a63 68bd a4e2 ce3c e713 43bb b67e 15be
00000120: c3c7 86bc 234a 4f3d 134d a5bd a287 e63b
00000130: 2734 b73c d384 7abe 5987 9a3d e9bd b03d
00000140: bda6 b93d 7f90 37bc ec63 d7bd 1dc9 893d
00000150: d754 9cbc ec59 a93d ea21 efbc 4b13 54bd
00000160: c40a 1e3d 15aa 5dbd eeb6 42be b29a 223d
00000170: 4e4a 56be aa06 49be a651 16bd a14e 113e
00000180: fe18 073e 9289 1abd 9ca1 2abe 88ae 6abd
00000190: 5cc0 48be 016c 43be 3b35 3cbe 58df 993d
000001a0: ac9c 2dbe c080 133e 35de 90be 00de f9b9
000001b0: c8c5 f23c b268 58bd 9186 77be 6256 e6bb
000001c0: 9674 d53d dab8 0ebe afbc 053e 04af 92bc
000001d0: a6ba 2cbe 0514 5cbd 803c ae3d aa5f 2bbe
000001e0: 2902 c83d 042f 18bd df0f b33d 4ea4 86be
000001f0: 2b61 ab3d 3c61 87ba 0839 e6bc b411 25be
00000200: 4d83 00bd 7ec0 873b 6e75 133c 0eb2 bf3d
00000210: 9371 44bc 5989 86bd e885 37bb c864 2cbd
00000220: 14b5 1b3e 390b ab3d 5141 593e 8b54 b23d
00000230: 2cbc bfbd 2394 973d 7fbf bc3d e5d4 18bd
00000240: 586e a33d 0d5a 493d 92a7 a5bd 1ee6 01be
00000250: 2440 623d 0cd3 b4bb fc96 17bb 96ce 6b3c
00000260: ea7f 5dbd f0b8 903d 59d7 a03d c8c3 113d
00000270: d8c8 8f3e 059f d0bd 9d95 5abd 5bd8 0ebd
00000280: 57df c13d 6483 91bd 46ad 743d 0fe3 b03d
00000290: 4d6d 093e cedd 7abd a87e 55bd 69a2 0c3d
000002a0: a4d3 2abd b2f9 e1bb 8187 8b3d ec77 1b3d
000002b0: cc04 57bd fecf 7f3d 33fe 3ebd d066 023e
000002c0: 44ed 8dba bf67 523c 567a 3fbd 9e77 ca3d
000002d0: 22eb 143d c70d b03d 5391 5f3d ff1b eb3d
000002e0: 795f 1b3d 4960 623d ddc7 d13c 808c 44b9
000002f0: 265d b13d 6cd9 88bc 1322 6fbd 6251 be3d
00000300: 4ab9 21bc 3e1f 043e c7b0 053d 5139 1f3d
00000310: e7f3 d73d 27b4 e33c b576 ad3d c7eb aaba
00000320: 3ee0 07bd 7be1 243d 5b64 233e 1069 923d
00000330: 4675 443d 688c 8e3e 4503 143d 0e34 53bc
00000340: a7b0 c1bc 29e6 c83d 9ebe c4bd c76c 3d3d
00000350: 6df0 4cbd 0cfd de3c 7f82 87bd 56af 66bd
00000360: 3265 213d 9d29 a4bd 1f6c 133d 8fd7 2a3d
00000370: 8bf5 d93c a160 1c3d 8b8e d13d be2b b6bc
00000380: b537 9cbd d51c 32bd 03ae 563c 8bed d33d
00000390: 0212 f13b 4409 f33c 1106 7bbd e981 9b3b
000003a0: 3b56 1d3c 1120 10bd 8eab a33e fed2 73bd
000003b0: a0f2 7c3d ae13 54bd 3c55 833d e66f bf3d
000003c0: 158b 66bc 8306 78bb 5432 aebc 0861 86bd
000003d0: e8c3 7abc 326c 51bd 9490 fc3c a118 423c
000003e0: a95f 13bd 7c66 d8bc 4b94 6fbc 2347 ae3d
000003f0: cb99 bb3c 7886 e63d 2a3e ce3d 04a1 81bc

output_mlp.2.bias f4 [9]
0.08382303 -0.005549731 -0.03233781 -0.001819391 -0.032848496 -0.031356435 -0.032058652 -0.03165583
0.00095660554
00000000: 69ab ab3d 85da b5bb a774 04bd a278 eeba
00000010: 258c 06bd 9b6f 00bd ef4f 03bd 8ba9 01bd
00000020: b6c4 7a3a
