log/segmentation/pn/bucket/weighted-2/pn_20.pth (torch, 337359 bytes, 8 tensors)

local_mlp.0.weight f4 [64, 3]
00000000: c399 7d3e 951a 2c3e e3bb 6d3e d53a 2e3f
00000010: ce07 853e a9d0 bbbe 4aa5 f13e 0c18 a6bb
00000020: 3434 14be c805 f23e 690f a1bc 02e0 40be
00000030: e936 013f 8c32 ee3c 6910 3ebe b426 3c3f
00000040: 931c 4e3e cad3 9bbe dd9e f83e 5f95 c33c
00000050: 0340 2dbe 9a8d 013f 2ab5 253d ba0e 51be
00000060: 1845 a43e 604c dc3c 4087 623e ad7a 563f
00000070: 54cf fe3e e1e2 c3be 3c83 213f ab99 973c
00000080: e69c 5bbe 9a1b bc3d 079a ac3e 1895 553e
00000090: 0e4b 8a3d 4ec9 c73f 4ae2 1b3e eec0 80bf
000000a0: 098e 033f f708 8c3e 7de4 edbf 53d7 373f
000000b0: 9663 aa3e efb2 733d a544 153e 96f1 7f3e
000000c0: 5143 aabd c886 1ec0 2c8d 8c3e df42 283f
000000d0: 186b ad3d 4968 84be a1b4 823e 22b9 da3d
000000e0: c4ef 713e 15c4 903e 7436 f93d 773c 703e
000000f0: 3fcd 423f 4f92 473e 1326 99be 50c2 d6be
00000100: 2e35 69c0 cdfc 99bc 30d7 8c3e afff b1bc
00000110: 407f 313e 86d7 093d 5afb a2bb 87b0 823e
00000120: 822b b03e 9fe3 b43c a7f5 6d3e acce 873e
00000130: 5b47 0c3d ac53 373e e685 aebe 2e1a b83d
00000140: 0749 1abe 391e f33e d8c5 d63c 6b45 3dbe
00000150: 3a19 513f 263e 903e 60e6 a3be 9d3b 633e
00000160: 1539 9fbd 5487 443e 21d9 883e 44d5 6c3c
00000170: bb3f 673e d9ae e13e e32e 723c 43b5 2dbe
00000180: 7f39 df3e bbf5 ab3c 417d 31be 6b16 56be
00000190: 0c50 20be 09e2 3dbe e761 b73d 3eff c73c
000001a0: 8d9a 823e c94d 54bd e657 51c0 d1d8 923e
000001b0: a827 973e 8b5b 5ebd 9e01 413e 34c4 a23e
000001c0: b90b ffbc d860 4e3e a068 d83e f227 e2bc
000001d0: 4baf fdbd d6f7 053e dec9 36be aa58 353e
000001e0: b7fc d73e c3a0 1f3d c22c 67be 366e 343e
000001f0: 6805 543e afb6 6e3e cb6c 2e3e b997 2e3d
00000200: 2722 763e 2af5 2a3e 9fa0 5d3d 94c3 7b3e
00000210: 77da 0e3f 0f83 a13d b52f 10bf b8dd 913e
00000220: 9204 aebd d8f6 393e 4411 3b3e c957 823e
00000230: c225 693e 9a0f ffbe c701 2840 e5b8 be3d
00000240: fbb1 5ebe 8b1d 753e fba0 51be bfd2 683e
00000250: 684c 923d a35e 733e b766 083f a9b7 9b3d
00000260: 8c00 6cbe d3a8 f73e c355 ab3c 21ae 3cbe
00000270: f85c 093e 2324 b7bc 6032 5b3e 4e55 773d
00000280: 1bcf 87bd d9be 573e bec3 df3e a13e 113d
00000290: f968 44be 0741 ce3d ece5 07bd b43c 613e
000002a0: d50f 5d3f 0b92 ca3e 2be1 b7be 43bc fc3e
000002b0: 10dd 0c3d 1d08 42be a8fd 033e 8cb4 20be
000002c0: cc10 353e 3a83 88bd 6562 863f 43c2 333e
000002d0: 1013 a43e 2f8a cdbb fc64 523e 0eb2 9d3e
000002e0: 1173 393c 2e94 663e 3b13 dc3e b3b3 183d
000002f0: 9b91 4dbe 3a2b ac3d 5e8a 1140 b3a3 313e
0.24765687 0.16807015 0.23216204 0.6805852 0.25982517 -0.36682633 0.47196418 -0.0050687846
-0.14473039 0.47270036 -0.019660668 -0.18835452 0.5047441 0.029076837 -0.18560947 0.73496556
0.20128088 -0.3043502 0.48558703 0.023874937 -0.1691895 0.5060669 0.040455975 -0.20415774
0.32083964 0.026891887 0.22121906 0.8378094 0.49767554 -0.38259032 0.6309087 0.018505892
-0.21446571 0.09184952 0.33711264 0.20857656 0.06752597 1.5608308 0.15223041 -1.0058877
0.51388603 0.2735059 -1.8585354 0.71812934 0.33279103 0.059496816 0.14576967 0.24994501
-0.08313621 -2.4769764 0.27451456 0.6572704 0.08467692 -0.25860813 0.25528434 0.106798425
0.2362662 0.282746 0.12168589 0.23460566 0.7609443 0.19489406 -0.2991186 -0.41945124
-3.6438708 -0.018797303 0.27507925 -0.021728365 0.17333698 0.033652805 -0.004973811 0.25525305
0.34408194 0.022081194 0.2323824 0.26524866 0.034247737 0.17903012 -0.3408653 0.089893684
-0.1506692 0.47483996 0.026217386 -0.18483512 0.8167912 0.28172415 -0.320117 0.2219071
-0.077745594 0.19192249 0.26728156 0.014455143 0.22582905 0.4407871 0.0147816865 -0.16963677
0.43598554 0.020991197 -0.17332937 -0.2090699 -0.15655535 -0.18543257 0.0895422 0.024413701
0.25508538 -0.051831994 -3.27099 0.28681043 0.29522443 -0.05428652 0.18848273 0.31790316
-0.03113352 0.2015413 0.42267323 -0.027606938 -0.1238695 0.13082823 -0.17850444 0.17709604
0.42184994 0.038971674 -0.22575668 0.17620167 0.20705187 0.23311876 0.17033689 0.042625163
0.24036466 0.16695085 0.05410826 0.24586326 0.558021 0.078863256 -0.56322795 0.2848947
-0.084969655 0.1816057 0.18268305 0.254576 0.2276831 -0.4981659 2.6251085 0.093126096
-0.21747582 0.23937051 -0.20471565 0.22736643 0.071434796 0.2376657 0.5328173 0.0760339
-0.23047084 0.4837099 0.020914918 -0.184258 0.13414371 -0.022356099 0.21405935 0.060384087
-0.06631299 0.21068896 0.43704027 0.03546012 -0.19180669 0.10070997 -0.033178255 0.21995813
0.8635228 0.39564547 -0.35913977 0.49362382 0.03439051 -0.18948407 0.12889731 -0.15693873
0.17682189 -0.066656545 1.0498778 0.17554574 0.32045794 -0.0062725763 0.20546335 0.30799907
0.011318938 0.22517464 0.42983422 0.03728075 -0.20075075 0.08406682 2.2740703 0.17347603

local_mlp.0.bias f4 [64]
00000000: a402 12bf 3032 063e 51b5 1ebe 188f b6bd
00000010: f57e e3bd b875 7cbd fc5b fbbd 0504 aabd
00000020: 29b2 1cbf a5b7 9ebb 048c 16be 9842 d1be
00000030: e2bf 5dbe f0a7 de3e a5e0 223f 0252 e8be
00000040: 32f9 68be 3e7d c7bd 68ad 15bf aae1 19bf
00000050: 7292 b2bd d736 c93d e838 01bf 8d93 ddbe
00000060: c90c 26bf edbb 01bf 6342 023f 3895 bfbd
00000070: 6ace adbd b7b8 fabe 659c 13bf d1d2 bcbd
00000080: f3e2 a5bd 0b14 eb3e 2edd f5be 9045 58be
00000090: 282b 0bbf 161f 15bf f541 1bbe f5e2 c9be
000000a0: e12d e33c 3189 04bf 5e42 06bf 83ab 07bf
000000b0: 28e1 de3e 1180 07bf 8eac 02bf 33ab cf3e
000000c0: 223a f63e f0ca 10bf def4 6abd 3cf0 cabd
000000d0: 72d1 e7be 78db c4be 3303 48bd 0b7d debe
000000e0: 03d5 0cbd 6e7d cbbd 0eaa c8be 4228 50be
000000f0: d4bf 16bf fe42 1cbf 3bf0 c6bc 012e 11be
-0.5703528 0.13105083 -0.15498854 -0.08914012 -0.111081995 -0.061635703 -0.12273404 -0.08301548
-0.6120935 -0.0048436695 -0.14701849 -0.4087112 -0.21655229 0.434875 0.6362403 -0.45375067
-0.2275131 -0.09740685 -0.5846772 -0.6010996 -0.087193385 0.09824913 -0.5047746 -0.43276635
-0.6486326 -0.50677377 0.5088255 -0.09354633 -0.08486636 -0.4896905 -0.57660514 -0.092198975
-0.08099928 0.4591373 -0.4802031 -0.21120286 -0.54362726 -0.5825056 -0.1516188 -0.39430967
0.027731838 -0.5177184 -0.5244502 -0.5299608 0.43531156 -0.5292979 -0.5104455 0.40560302
0.48091227 -0.5655966 -0.05736243 -0.09909102 -0.45276982 -0.3844869 -0.048831176 -0.43454775
-0.03438283 -0.09936033 -0.3919224 -0.20327857 -0.58886456 -0.6103972 -0.024284473 -0.14177705

local_mlp.2.weight f4 [256, 64]
00000000: 6b62 873e ad4a c63e 873c 983e d91c 053e
00000010: 5662 753e 0fe4 273e 4fa5 8d3e 8d08 843e
00000020: a004 933e 9cb0 bdbd 6b7a 3a3e 7223 f03d
00000030: cbcc 00bd 467d 80be d5e6 cfbe a2ff 1d3d
00000040: f542 a0be 7f8e ff3d cac0 963e f245 843e
00000050: 3ae8 1a3e 414e 0abf 591b 813e 9052 31bc
00000060: 2900 ad3e 9315 7e3e 87f3 b9be 21ff 7c3e
00000070: 4fea 0e3e 2350 2b3e 7d60 853e 0f4b 853e
00000080: a6a8 a43e 78b8 dfbe a645 c53d 9b56 c1be
00000090: 0a56 793e 68a5 8c3e aebd 9d3e 5ff6 d93d
000000a0: 95b4 b93e f786 4d3e 0b49 0f3e 751f 523e
000000b0: e379 82be 2c47 813e e380 383e eb76 c6be
000000c0: 7b19 06bf eb01 6c3e 52fb 813e ac36 903e
000000d0: 194e cc3d 8ec6 753d 6aa1 b73e 7934 9b3d
000000e0: e576 373e 0d31 813e 8ef4 1e3e 5122 a3bd
000000f0: 696a 8d3e d7c0 b13e 7208 c33e 5f74 05be
00000100: 80d2 3b3e 58d8 3dbf cbff 5cbe b6d9 32be
00000110: 1410 84be 6bae e4be 521d 81be 85a2 94be
00000120: d07f 783e 2b2e 03bf 690d 95be 2926 12bd
00000130: d669 d8be 2c8f 11bf 3811 87bf aa2a 7a3d
00000140: 0204 42be f44f adbe 4d40 483e 463f 343e
00000150: 91b0 d2be 84c6 3abf 274b 8e3e b579 033e
00000160: fcd5 813e 58bb 863e 7848 7cbe 4f65 8cbe
00000170: 5bc1 f7be 968b 5a3e 39ca 623e f8fe 72be
00000180: 65dd 60be 1090 e2bd 4b00 f93d 0c0b 89be
00000190: 5428 5f3e 46ba 783e 893b 0dbe 77b2 133e
000001a0: b715 a8be 1959 e23d 51c9 233e 6575 203e
000001b0: 2b81 84be 19c1 7a3e 302e cb3d a3ab 35bf
000001c0: e103 41be 1c35 423e 0a62 96be cc9b 85be
000001d0: b69d 513e eca0 223e ce2d 8fbe d3d2 453e
000001e0: 1a62 19bf d1e6 87be 458e 4f3e 65d8 9bbe
000001f0: d268 7e3e 8ebf 823e 0c12 95be e133 0bbf
00000200: 6371 803c 6387 76be b4ed 863d 4de8 b3bc
00000210: 8acc 453d 02e5 ebbd 91cb 4ebc 8baa 583b
00000220: 0f53 193e 781a 7ebe 3fbd 963d 2e1c a4bd
00000230: 663e ffbe db8c ecbe 8dc8 06bf 5e74 a9bd
00000240: 253d e13c e84d bfbc 0acc 933d d03d 953d
00000250: ef53 a8bd c3bf 33bf 3daa 4c3e 5313 71bd
00000260: d0f7 673e a823 033e 7b90 70be b1ce 913c
00000270: 7441 e9bd d01e 793e c9d0 1d3e 5d01 4f3c
00000280: 9976 2aba 3729 2bbe 24a3 76bc 0dda f83c
00000290: f70b 7a3e db59 6f3e bf89 8a3d bbf8 473e
000002a0: 7081 d53c bdf2 89bd 1951 0d3d b9f8 3d3d
000002b0: 57f1 38be 9382 a73e bbf5 65bd a2c2 1cbf
000002c0: 2743 82be db80 af3d 01a1 23bb 035f e73c
000002d0: 89ac 653c b425 1f3d dfa7 a63c 3b5e 3b3d
000002e0: 7adc 3abe 998d 1bbc a0b4 733e 45e9 4ebe
000002f0: f7b0 2a3e 0883 493e b89d 073d 9118 1fbf
00000300: 8bca 743e c19b f23e eb4c fe3e d274 ca3e
00000310: afcd f33e a30f d63e 3b27 fb3e 306d ef3e
00000320: c6ea cf3e bf58 a53e 38d8 fb3e a694 2bbe
00000330: 3838 43bf fbd8 62bf a6a0 2cbf 4eb3 b6bd
00000340: 5ea3 33bf 5fee d43e b298 b73e e204 c03e
00000350: 182c f63e c3cf afbf ac54 f93e a8a4 f1bd
00000360: fb25 023f f2bb ba3e 66b4 6cbf 3174 e73e
00000370: 85ec e43e b62b d33e 2115 d73e c602 023f
00000380: 6a83 f73e 7f91 61bf acfe 943d fb2e 62bf
00000390: 3f37 e23e 95eb ea3e c6e8 033f 84cd 373e
000003a0: 006f d33e ea61 b23d 2160 6c3e 8bb3 6d3e
000003b0: 1642 e3bc f85b 003f 4c64 663d 4833 a5bf
000003c0: d8a0 7fbf b3e8 ab3e 7ab3 e83e 243d e93e
000003d0: a476 1c3e 435a 22bd 6fe2 e53e a078 b43d
000003e0: 146c f93e 464d eb3e 8ed3 3d3e 2d7c 03bf
000003f0: 62d8 f33e f058 fb3e 67e8 e13e 74d1 7cbf
0.26442274 0.38728848 0.2973368 0.12999286 0.23963293 0.16395591 0.27665183 0.25787774
0.28714466 -0.09262201 0.18210761 0.11725511 -0.031445306 -0.25095576 -0.40605798 0.03857387
-0.31301084 0.12478351 0.2944396 0.25834614 0.1512765 -0.54025656 0.25216177 -0.010822907
0.33789185 0.24812917 -0.3631861 0.24706699 0.13956569 0.16729788 0.26050177 0.26033828
0.3215992 -0.43695426 0.09632425 -0.37761387 0.24349228 0.27469945 0.30808777 0.10642695
0.36270586 0.20071016 0.13992707 0.20519812 -0.25483617 0.25249612 0.18017916 -0.38762602
-0.5238263 0.23047607 0.25387055 0.2816671 0.099758334 0.06000381 0.35865337 0.07578368
0.17916448 0.25232735 0.15522978 -0.0796553 0.27620247 0.34717438 0.3809238 -0.13032673
0.18342018 -0.7415824 -0.21581952 -0.17465863 -0.25793517 -0.4466432 -0.25217682 -0.29030243
0.24267507 -0.5124232 -0.29111794 -0.035680924 -0.42268246 -0.5685909 -1.055213 0.061075844
-0.18946841 -0.33850062 0.19555779 0.17602262 -0.41150334 -0.7295916 0.27791712 0.12839396
0.2535857 0.26314807 -0.2463702 -0.27421042 -0.48389706 0.2134231 0.22147454 -0.23730075
-0.21959455 -0.11062634 0.12158259 -0.2676624 0.21792728 0.24289808 -0.13792242 0.14423548
-0.32829067 0.1105215 0.15994765 0.15669782 -0.25879797 0.24487723 0.09920919 -0.7096502
-0.18849136 0.18965572 -0.29371673 -0.26095426 0.20470318 0.158817 -0.27964634 0.19318704
-0.59915316 -0.26543286 0.20269115 -0.30438533 0.24844673 0.2553677 -0.2911533 -0.54376036
0.015679067 -0.24075083 0.06588307 -0.021961356 0.048290767 -0.11518289 -0.012621776 0.0033060636
0.1497309 -0.24814785 0.073603146 -0.08013187 -0.49852294 -0.46201214 -0.52649766 -0.082741484
0.027494976 -0.023352578 0.07216652 0.072871804 -0.08219134 -0.7021448 0.19986816 -0.05885632
0.22653127 0.1280657 -0.23492615 0.017798753 -0.11389437 0.2432816 0.15411676 0.012634602
-0.0006502658 -0.16714941 -0.015053544 0.030377412 0.24418627 0.23374121 0.06764554 0.19528477
0.026062697 -0.06735752 0.03450117 0.04637978 -0.18060814 0.32716808 -0.05614255 -0.61234486
-0.25441858 0.08569499 -0.0024967792 0.028243547 0.014018186 0.038854316 0.020343719 0.045744162
-0.18248168 -0.009494209 0.23799372 -0.20206173 0.16669069 0.1967889 0.033109397 -0.6214686
0.23905389 0.47384456 0.4966806 0.39542252 0.47617862 0.41808805 0.49053368 0.4676299
0.40608805 0.3229427 0.491884 -0.16755924 -0.7625766 -0.88612336 -0.6743263 -0.089209184
-0.70171154 0.41588113 0.35858685 0.37503725 0.48080516 -1.3735279 0.48697412 -0.11798984
0.50839204 0.36471516 -0.92462766 0.45205835 0.447117 0.41244286 0.42008308 0.5078548
0.48342448 -0.88112634 0.07275137 -0.88352937 0.44182774 0.4588286 0.5152706 0.17949492
0.41295624 0.08710082 0.23083545 0.23213021 -0.027741473 0.50140333 0.056247994 -1.2906275
-0.99854803 0.33575973 0.4544943 0.4555446 0.15279633 -0.03963686 0.44899318 0.0881207
0.4871527 0.45957392 0.18537733 -0.5136135 0.47626024 0.4909129 0.4412262 -0.987571

local_mlp.2.bias f4 [256]
00000000: 70c8 96bd d95c 0ebe 23e2 53bd 959d 03bf
00000010: ffde 84bd 9873 28be 8178 18be bd57 86bd
00000020: 7be3 e93d aa1f 6bbe 72ad 2cbe ecf6 85ba
00000030: defe e9bc 9e31 d0be a04f cf3d a6c6 c1bc
00000040: b18f c8bd 929f 2e3d c8e6 5dbd c6b7 973d
00000050: d9d0 7ebd 64f7 b3bd eb71 fdbd 07ef a33d
00000060: ae62 7aba afea 4e3d fc86 75be 9c49 603d
00000070: c80a a23d 9d6a 0f3d 5837 303d 573a 94be
00000080: ccb8 08be a7f8 81be 915a 223e 8e82 bb3d
00000090: a246 4f3d 7e79 843d b928 683c c60a 2cbc
000000a0: 1699 63be ebc5 f13d a663 a4bd 068a 943d
000000b0: 3a8b 15be 8a42 32be 6897 96bd 1923 00be
000000c0: 67bb 7abe 6dd9 033e cdd1 45be 6b10 3d3e
000000d0: 52f7 5e3d 40de 993d 966d ea3d 05cb 9abc
000000e0: 193c 90be a131 fbbd 3123 33be 9837 f9bd
000000f0: 37c2 8cbb b0df 4abd 4c58 cb3d 3da3 1dbe
00000100: 85f7 d2bd 560a dfbd b612 c83d 8024 cc3d
00000110: b792 553e 79c2 ce3d 879a 84bd a10c b3bd
00000120: a10a c4bd 7ef9 f23c 603b 9c3d 9c83 4dbe
00000130: 4d5e 4abe cb1a febc 7dab bebd 6bf6 b43d
00000140: a5ec e5be 9e53 9cbd f2bf 15bd 303f a13d
00000150: 31dd 5abe 7b36 f4bd e804 30be 8c1d a13d
00000160: 18f0 14be f3cc 59be edcd 323e 7f00 88be
00000170: d1ad 82bd d07c b3bd 3e70 453d a669 7abc
00000180: f230 c63d 5f66 f83d 5662 ef3c 4033 c63d
00000190: f52f 9dbd c629 833d 9794 22bd 0666 e0bd
000001a0: f53f 0b3c 7cf7 90bc 8f3a 6fbd 9fdf 95be
000001b0: fed8 c8bd a806 143d 8595 e03d bc88 8ebd
000001c0: 65e3 3ebe 4a6a 9dbd 3eb4 11bd f6c2 7f3d
000001d0: f81c e33d 7c30 053e 4c36 a4bd e4f5 bc3d
000001e0: c4d0 c43d dc41 033e e5d4 b63d 5b56 523d
000001f0: 4ca0 92bd b197 8abe 33d5 71bd 711a c1bc
00000200: 4699 65be 2152 1cbe bdd7 bdbb 05f1 4ebe
00000210: e600 043e 52ea ecbd 4e52 73be 8d22 bb3d
00000220: 928b e7be 873d 9b3d 74bd b5be 7103 9dbd
00000230: fb1c 8cbe 605e 5ebb 69a3 76be 909e 983d
00000240: 1ae3 18be 0ce8 14be 846e 4ebd 94fc c13d
00000250: 7bd1 9b3d af88 9a3d 734a ce3d 0cc4 febc
00000260: f006 37be 4a3c bb3d 47c5 b8bc 62f3 a0bd
00000270: e0e5 9b3d d3d1 293d cc0f e9bc 0928 2f3d
00000280: 5487 b8bd 717e 823d db7c b83d 4cb2 a1bd
00000290: fa4c 2fbd 7d8b 933d ba0f ddbe e7d1 9f3d
000002a0: 7c9e b3bd 7111 84bd 3e50 d23d 9a25 bf3d
000002b0: c8df 1f3e eecf 78be 1801 e63d 7ebd 8dbe
000002c0: a052 a7bd 5381 efbd 7a81 a5bd 0619 db3b
000002d0: 4c7a a33d ce53 f3bd 611f d3be 8801 12be
000002e0: 2ff3 003e 23b8 b1bd 626a 2c3d 72f3 fcbd
000002f0: efa9 b9bc 17ba f03c d29e 7dbd b28f 02be
00000300: c5ef b33b 5418 59be e70a 28be 0ddf 6bbd
00000310: 7d4c 053c 5950 b0bd 09e4 47be 6368 8b3b
00000320: 5a7f f2bd 5305 1cbd 1df0 36bc 442c a2bd
00000330: ac88 b7bc a0d1 44bb ecec eb3d 7415 02bd
00000340: a668 cfbd 8b44 cb3c 0673 b03d 748c 9bbd
00000350: a681 96bd fbc0 95bd b2c4 903d 46be 36bd
00000360: 91fa de3d 3277 a4bd e64a 8c3d bd07 f03d
00000370: feaf f13d 401b ec3d c60d 89be 6d32 963e
00000380: 0881 033e 6b9a 30bd 5866 04be 0904 32be
00000390: 6a5f e1bd 6919 aa3d 0520 88be 3cb1 88bc
000003a0: 6df0 8d3d 855f 0d3e df3a c0be f443 b13d
000003b0: 819f d93d 7d32 0abe 63f3 1cbd 0d67 ab3d
000003c0: b9ae 6d3d cef8 0c3e 030d f0bd fc41 88bd
000003d0: d40f 8ebe 5baa 7c3e 64a5 a5bd 5f36 51be
000003e0: 0408 abbe 8fe8 61be f8bf 1cbd 51bc 0abd
000003f0: b549 b6bd 6682 72be d8f9 50bd 4419 94be
-0.07362449 -0.13902606 -0.051729333 -0.51412326 -0.06487846 -0.16450346 -0.14889719 -0.065597035
0.114203416 -0.22961298 -0.16863039 -0.0010220683 -0.028563913 -0.40662855 0.10122609 -0.023654293
-0.09793032 0.042632647 -0.05417517 0.07408099 -0.06221089 -0.087874204 -0.12375244 0.08004575
-0.00095514476 0.05051678 -0.23977274 0.0547577 0.079122126 0.035013784 0.04302153 -0.2895076
-0.13351744 -0.2538502 0.15854861 0.09155761 0.05060447 0.06468485 0.014169865 -0.010500615
-0.22226366 0.11805328 -0.08026819 0.072528884 -0.14603892 -0.17408195 -0.07353097 -0.12513389
-0.24485551 0.1287591 -0.19318314 0.18463294 0.05443508 0.07513094 0.11446683 -0.018895635
-0.2817085 -0.12265325 -0.17493893 -0.12168807 -0.004295613 -0.04952973 0.09928951 -0.15394302
-0.10301117 -0.10890643 0.09769194 0.09967899 0.20856749 0.100956865 -0.06474786 -0.08742643
-0.0957234 0.029659983 0.076285124 -0.20069736 -0.19762535 -0.031018635 -0.093100525 0.08836063
-0.44907108 -0.07633136 -0.036560006 0.0787338 -0.2137344 -0.11924454 -0.17189372 0.07866964
-0.14544713 -0.21269588 0.17461367 -0.26562878 -0.06380809 -0.087640405 0.048202746 -0.015283978
0.09677304 0.12128901 0.029221695 0.09677744 -0.07675163 0.06404452 -0.039692488 -0.109569594
0.008499135 -0.017696135 -0.058405455 -0.29272172 -0.09807013 0.03613916 0.109660186 -0.06959674
-0.18641432 -0.07686289 -0.035572283 0.06244179 0.1108951 0.13006777 -0.08018169 0.092265874
0.096101314 0.12818092 0.08927325 0.051351886 -0.071594805 -0.27068856 -0.059041213 -0.023572179
-0.2242175 -0.15265705 -0.0057935403 -0.20209129 0.12890968 -0.115681306 -0.23761865 0.091374494
-0.4522367 0.07580095 -0.35496104 -0.07666672 -0.2736586 -0.0033930764 -0.24085774 0.074521184
-0.14930382 -0.14541644 -0.050398365 0.094720036 0.076083146 0.075456016 0.10072794 -0.031099342
-0.1787374 0.091423586 -0.022555007 -0.078589216 0.076122046 0.04145987 -0.028449915 0.04276279
-0.09010187 0.06371773 0.09008189 -0.078953356 -0.04279802 0.0720434 -0.4317606 0.078037076
-0.08770463 -0.06448639 0.10269211 0.09333344 0.1561271 -0.24298069 0.11230677 -0.27683634
-0.08170056 -0.116945885 -0.08081336 0.0066863326 0.07982311 -0.11881219 -0.41234878 -0.14258397
0.12592767 -0.086776994 0.042093642 -0.12351121 -0.022664038 0.02938561 -0.06191904 -0.12750128
0.0054912292 -0.21200687 -0.16410409 -0.057585765 0.008135912 -0.08609075 -0.19520582 0.004254387
-0.11840697 -0.038091015 -0.011165646 -0.07918599 -0.022404037 -0.0030032173 0.11519799 -0.03175874
-0.10127382 0.024812957 0.08615689 -0.07595149 -0.07348947 -0.07312199 0.07068767 -0.044615053
0.108876355 -0.08030547 0.06850223 0.11720226 0.11801146 0.11528635 -0.2676832 0.29335347
0.1284219 -0.043116014 -0.12929666 -0.17384352 -0.11004527 0.08305628 -0.2658693 -0.016686074
0.06930623 0.13805969 -0.37544915 0.08655539 0.10626126 -0.13495822 -0.03831805 0.08369265
0.058027957 0.13766786 -0.11721232 -0.066532105 -0.2774645 0.2467436 -0.080881864 -0.20430897
-0.33404553 -0.2206137 -0.038269013 -0.033871 -0.08900777 -0.23682556 -0.05101952 -0.28925526

output_mlp.0.weight f4 [128, 512]
00000000: 7827 493e 07d6 15be 5b34 22bd 6774 9b3d
00000010: df68 59bd 667e 1abd 4fcc 1abe 32c4 03be
00000020: 953a c03c 3906 8ebd d87a 9fbc f542 fabd
00000030: 09ca bdbc 0393 a0bd 78b6 483e 77b7 d1bd
00000040: ae9c 56bd dae7 653d 904e 49be b4e9 a93e
00000050: c4cf 3e3e 3f24 a8bd 2a50 a7bd 4b53 103e
00000060: 8bfc acbc a11c c23d 0910 a0bd 2d56 833d
00000070: d3f3 743e 4d9a 5f3d 0b8b 093e 4fcb b7bd
00000080: 504e 163e a365 c1bd e544 a43d 33d8 b13d
00000090: bd9e cd3d 830e 703d 7633 8d3d a2d7 d7bd
000000a0: 3f5b 29bd 627f 9a3c e5d8 0c3b 0093 813d
000000b0: efbf 2a3e 5dae d8bc f655 09bd cd10 48bc
000000c0: 91f1 0dbe 1c36 993d a54d 89bd 5733 4c3d
000000d0: 33b7 e53c 6bfd febd 23cf 05be 2ef7 c0bd
000000e0: 32e5 4bbd 6959 d8bd eea1 e4bc 7f22 1d3e
000000f0: 6a93 16be eb18 0b3e cfcb f73d 76b3 34be
00000100: 42ac 38bd ec72 71be 17ba 463d 7fc7 233e
00000110: 8a90 ff3d 5e5b d7bd e57a 77bc da52 503c
00000120: ee8f 053e c020 dd3d 245d d93d eb5f 59bd
00000130: c2f4 bebd adbb b5bd 9c8e 25bd 228d ae3d
00000140: 5b02 203e 539b 313e 1989 123e 667e 923d
00000150: 45df be3d 9c85 ecbd d273 2cbe 266f 9c3d
00000160: 5ca5 59bd e2c1 1fbe 2781 883d 0fed a0bd
00000170: 1104 3abd 5e19 09bd 8532 afbc 6d0a 41bd
00000180: c10b 6f3e d2e9 b13d dce6 043d 666e a93d
00000190: b43c 27bd 1071 953d dde7 d0bd 8f8c 353d
000001a0: 6f2a 053d 5d4e 923c 35f4 1dbe 1424 a5bd
000001b0: 423e 29bd c1aa cfbc e9ce 803d 400c 033d
000001c0: cd8e 0cbe 76f5 0ebe c346 31be b8e3 393d
000001d0: 5b60 803d 52bd 353d 5c81 ccbd b15f 163e
000001e0: 09ff b13d 07a6 473d a116 933d c5c7 7d3d
000001f0: 43c7 bcbc 9ee2 fa3d ebc1 1bbd d998 16be
00000200: 14e2 063e 6d31 dbbd af1e 243e 0ff9 06bd
00000210: cd56 d13d b850 373d e65a 113e 579a ca3d
00000220: e6de f23d a1f3 e1bd 9b55 febd 4ec7 1b3e
00000230: 610a 3abe a6f3 2cbb 0dce 64ba ae39 fe3d
00000240: 3360 c8bc f683 b0bc ff43 3bbd 3f3f 2b3e
00000250: c169 b23d 4add 7cbb d6ad f7bd 49a6 82bd
00000260: 6ec8 193e 0876 943d 207c c8bc 6d63 42be
00000270: 7857 a03e cb32 353e dbf1 af3d e69a d63c
00000280: c88b afbd fab0 5a3d cf66 7b3e 0014 123e
00000290: 70cc c73d ea49 bc3d 260b e43d 6334 a23d
000002a0: 4a82 dd3b 3f5b c2bd 9a65 5a3d 5cfb 303e
000002b0: 2e71 efbd 97b1 d63d c622 983d 4e6b 0d3e
000002c0: 34cc 51ba 6fde 963c 6d5e a03c 4435 d8bd
000002d0: cd47 483e 14aa 2d3e 33e7 bb3c 28c8 193e
000002e0: e862 0c3e 4ce8 413e 2804 c23d 951c 18bd
000002f0: 5636 083e a99d 9dbc cdc5 573d 1c69 31be
00000300: 84a6 7e3c 07d6 6cbd e0c7 0bbc ca39 3fbd
00000310: b9cf c03d 0590 77bd 5cf3 40be bda7 dfbd
00000320: 2ed7 e4ba d12c bdbc 2bb3 b9bd 4e7a 54bd
00000330: 90dc e8bd 60aa 423d 32df 653d a90f 713a
00000340: 0167 76bd 2064 503d 3278 073d 0be4 33bc
00000350: 7dde d5bc e25d 75bd 26e1 8c3c e2c9 a3bd
00000360: c658 1a3e 5240 03be f8bd 283e dbf2 97bd
00000370: fe08 f03d 978f e33a 4c87 003d 416f 873c
00000380: 82a0 4d3d ad7e 903d 63e9 2e3e c1a2 53be
00000390: a437 edbd 31bc e93d 20e6 10be 6be7 bcbd
000003a0: f629 173e 8ebe c23d b695 c5bd f9b4 01be
000003b0: 37a1 bf3d f6b5 1a3e 4f87 38bc 575a 223e
000003c0: 3301 2c3d 89de 753d 58e7 efbd 2294 2c3c
000003d0: d013 ee3d fc88 bc3d ffca 253e 11b9 a5bc
000003e0: a1eb b3bd 7a9a 5fbd 8923 e7bc 2e7f 0dbe
000003f0: ce83 07bc 0742 67bd 1f36 843d 1daa d1bd
0.19643962 -0.14632426 -0.03960071 0.07590561 -0.05307853 -0.0377182 -0.15117 -0.12867811
0.023465434 -0.06934781 -0.019467756 -0.12219802 -0.023167627 -0.0784054 0.19600856 -0.10240071
-0.052395515 0.056129314 -0.19658875 0.33186114 0.18633944 -0.082100384 -0.08169587 0.14094274
-0.021116516 0.09478117 -0.078155585 0.06412921 0.23921137 0.054590512 0.13431947 -0.08974325
0.14678311 -0.09443214 0.08020953 0.08683815 0.100400425 0.05860759 0.06894581 -0.105391756
-0.041346785 0.018859569 0.0021491584 0.06326866 0.1667478 -0.02645033 -0.033529244 -0.012211037
-0.13861682 0.07481024 -0.06704263 0.04985365 0.028041458 -0.124506794 -0.13067298 -0.09422146
-0.049779125 -0.10563929 -0.027909245 0.1534519 -0.14704672 0.13583724 0.1209942 -0.17646584
-0.045086153 -0.23578995 0.048517313 0.1599407 0.124787405 -0.10515474 -0.015104984 0.012715066
0.13043186 0.10797262 0.10613468 -0.05306999 -0.093240276 -0.08873687 -0.040419206 0.08523013
0.15625899 0.17344408 0.14310111 0.07153015 0.09319929 -0.115489215 -0.16841057 0.076383874
-0.053136215 -0.15601304 0.06665259 -0.07857715 -0.045414034 -0.033471458 -0.021386394 -0.047129083
0.23344328 0.08687176 0.032446727 0.0827301 -0.040829375 0.072969556 -0.102004744 0.0443235
0.03251117 0.017859632 -0.15425189 -0.08063522 -0.04131914 -0.025349976 0.06289465 0.031994104
-0.13726349 -0.13960823 -0.1731215 0.045383185 0.06268378 0.044370003 -0.09985611 0.14684941
0.08691222 0.04874232 0.071820505 0.061958093 -0.023044234 0.12250255 -0.03802673 -0.14706744
0.1317218 -0.107027866 0.1602733 -0.032952365 0.10221634 0.044754714 0.14194831 0.09892719
0.11858921 -0.11032797 -0.12418672 0.15212747 -0.18168022 -0.0026390343 -0.0008728214 0.12413345
-0.024459934 -0.021547299 -0.045719143 0.16723345 0.08711577 -0.0038584047 -0.120937034 -0.063793726
0.15017864 0.07249075 -0.02447325 -0.1898324 0.31316733 0.17695157 0.08591052 0.026196908
-0.08571583 0.053391434 0.24550937 0.14265442 0.0975579 0.091937855 0.11134939 0.07920148
0.0067599164 -0.0949006 0.05331955 0.17283386 -0.11691509 0.10483091 0.074285075 0.13810465
-0.0008003146 0.018416611 0.019576276 -0.105570346 0.1955864 0.16959411 0.022937393 0.1501776
0.13709605 0.1893627 0.09473449 -0.037136633 0.13301978 -0.019240217 0.052678872 -0.17325252
0.01554263 -0.0578213 -0.008531541 -0.04668597 0.0941462 -0.060440082 -0.18842834 -0.109206654
-0.0017459148 -0.02309266 -0.09067377 -0.05187445 -0.11370194 0.047525764 0.05612106 0.0009195754
-0.060156826 0.050876737 0.03307361 -0.010979663 -0.026107067 -0.059903987 0.017197203 -0.079974905
0.15072927 -0.12817505 0.16478717 -0.07419368 0.11720465 0.0017361519 0.03137903 0.016532542
0.0502019 0.070554115 0.17081217 -0.20667554 -0.11582878 0.11412848 -0.14150286 -0.09223827
0.147621 0.09509002 -0.09647696 -0.12666692 0.09356921 0.15108475 -0.011262729 0.15854774
0.04199333 0.06002668 -0.11714047 0.0105333645 0.11624873 0.09205815 0.16190718 -0.020229848
-0.08785177 -0.05459068 -0.028215187 -0.13818046 -0.008271171 -0.056459453 0.06455635 -0.10237525

output_mlp.0.bias f4 [128]
00000000: cb82 db3d cf0f 1e3e 1614 033e 9830 b73d
00000010: f1bb 50bd 05ab d4bd 9b1c 733d 92a8 18be
00000020: 6d90 7f3d 2870 573e f97f 5f3d 13e1 86be
00000030: ae1a 9abd 3478 55bd 19de d13d ad19 4b3d
00000040: 4042 243d d5ba afbc 863b 6fbe 45d0 d1bd
00000050: 22f7 dcbd 70d4 d63d 1104 c73d 1a1c d73e
00000060: aa59 413d 463a fabd 2e25 d23d 4baa 65bc
00000070: edd0 dd3b 8a38 15be c860 11be 6ec4 1cbe
00000080: 0a64 013e a7f5 f63d 9174 a03d f5e2 a93d
00000090: a153 953d abc2 e4bb 5e96 95bd d29d 15bd
000000a0: 9317 b6be bf95 9c3d be40 833d 2cd3 63bb
000000b0: 490a eebd 2a30 033e 4d4c f33d 17bb 253d
000000c0: 70a6 af3b 9c97 0d3e e7d2 fa3d 4451 813d
000000d0: 7607 bc3e d03b 9b3d 9f8d fabd 3c20 873d
000000e0: c61f 06be d16a a23c 8dbd 92bd 48ae 2d3e
000000f0: fd77 1fbe 5444 633d 9df9 62bd ff9c ca3d
00000100: d034 943d 88b6 f93c 14f7 dabd b28c c2bd
00000110: 9c2c 393d fc44 2ebe 6c08 813e e0ea 533d
00000120: 3d16 a3be cc54 173f b1e3 a33d 160e 693d
00000130: 526a 373c cd60 09bd 3f2c a73e 44f3 b53d
00000140: 3fa4 843e 02a0 7e3d 9909 1abd de08 953c
00000150: bbed 3cbe beee a23e 0241 1ebe bd0f 84bd
00000160: 34fb c8be b5c4 393d b061 f9bd 7a50 013f
00000170: 3759 cf3c 2d5a 9bbe a479 9e3d fde4 da3d
00000180: 1d1a f83d bf01 26be 586c b1bc 75f6 583d
00000190: 3b0b 923c 64c1 cdbd 49e6 7e3d 2204 053e
000001a0: 1898 ea3d 6940 503d 6909 b8bb e5c6 2bbe
000001b0: 076a 9abe 1881 35be 56d3 5dbd 4f61 7c3d
000001c0: 8419 cc3d 8d33 b4bd 9b36 c53d 472e 90bd
000001d0: fc3a 46bd d29d 22be 062b 363e 4852 10be
000001e0: 2501 f83d e161 46be 8028 cb3d 98fb 8fbd
000001f0: 5e37 9b3e 71b7 6b3d ea6b 18bb 1723 d63d
0.10718306 0.15435718 0.12800631 0.089448154 -0.050960485 -0.10384182 0.059353452 -0.14908054
0.062393595 0.21038878 0.054565404 -0.26343593 -0.0752462 -0.052116588 0.1024744 0.049585033
0.040102243 -0.021451393 -0.2336255 -0.102448024 -0.10789324 0.10489738 0.097175725 0.42013627
0.04720465 -0.12218146 0.10260998 -0.014017652 0.0067692907 -0.14572349 -0.14197075 -0.15309307
0.12635818 0.12058573 0.07834733 0.08295242 0.072913416 -0.006981214 -0.07304071 -0.036527462
-0.3556486 0.07645749 0.06408833 -0.003476332 -0.116230555 0.12811342 0.118797876 0.040461626
0.005360417 0.13827366 0.12247258 0.06314328 0.36724442 0.07579768 -0.12234043 0.06597945
-0.13098058 0.019826325 -0.0716506 0.16961014 -0.15573116 0.055485085 -0.05541383 0.09893226
0.07236636 0.030482545 -0.10691658 -0.09499492 0.04520856 -0.17018503 0.25201738 0.051737666
-0.31852904 0.59113765 0.08002413 0.0568982 0.011194782 -0.033539582 0.32650945 0.0888429
0.2590656 0.062164314 -0.03760681 0.018192705 -0.18450062 0.3182277 -0.15454486 -0.06448314
-0.39254153 0.04535361 -0.121768355 0.5051342 0.025311096 -0.30342236 0.07738045 0.10688207
0.12114356 -0.16211604 -0.021658108 0.052969415 0.01782762 -0.10046652 0.062231336 0.12989858
0.11454791 0.050842676 -0.005616356 -0.16775091 -0.30159017 -0.17725027 -0.054156624 0.06161624
0.09965804 -0.08798895 0.09629556 -0.07040077 -0.048396096 -0.15880516 0.1778985 -0.14093888
0.12109593 -0.19373275 0.09919834 -0.070304096 0.3031568 0.05754799 -0.0023257681 0.104559116

output_mlp.2.weight f4 [9, 128]
00000000: 3080 433e 7504 f53d f9c8 89bf 1b99 0fb9
00000010: e3e8 ae3f d604 a0c0 a8f9 223e 39c6 41c0
00000020: 1c5c 33be 7d22 acbd 1821 20bf de19 6cbf
00000030: 1172 203f f279 a0bf 03e5 d6bd 0a0b 67be
00000040: b5e4 053c 9aff 1f3d 637a 403d 8265 263f
00000050: 707e d8be eca2 1a3e a955 363f 9b3b 483d
00000060: 9308 6bbf 1b03 0fc0 c35a 0ebe 600e f2bd
00000070: 7299 85be 171b 223f 496e 88c0 fe1f 0fbf
00000080: 2ed0 05be 3374 2abe 0f50 3abd 9486 18be
00000090: 034e 0abe e472 90be d6d0 b8be 0eea a5be
000000a0: 544d 19be 0fcc 583d 2d67 a0bd c4a4 183d
000000b0: 8f90 29bf 4e67 2bbf cfc2 da3d 8451 30be
000000c0: 83dc 7fbf a30c 943e faf7 3fbe adf4 55be
000000d0: 29bc 223e 0b98 23bd 91f3 04c0 bebd 1bbf
000000e0: 58bf f4be 4f8b e6be 9e21 c5be e1f5 6e3e
000000f0: c0c5 52be 7f9c 7d3e 8dd4 a2bf f956 cfbd
00000100: 647a e33e 0d0c b7bb 4934 babf 4230 fcbf
00000110: 8a3b e2bc 4621 8a3d 3c30 8bbd 4edf 39bf
00000120: 0bea 18be ffce e53d c7b4 a2be dbaa cf3c
00000130: fcd8 c03b 5713 cfbf 7561 183e c1bf 063e
00000140: e25e 4a3e 72ed d23a 1ff5 1b3f dbaa 973d
00000150: 0a9a 1fc0 6665 2e3e ced7 e1be 2d14 f03f
00000160: 6356 c73d 9add 453f 3799 0dc0 1a17 943d
00000170: 6bb7 c03e 8531 9fbe d775 37bd 32d2 273e
00000180: aefe 7b3e 83c1 2ac0 511e babe 0ad4 20bd
00000190: 661f ecbe 87ab b0be 4e34 21be 8a26 8e3e
000001a0: bec1 c0be 9800 443e 9098 d4be d024 9ec0
000001b0: 12bf 91be f14f 9bc0 86f1 7ebe 33b6 98bd
000001c0: 97c6 083e 4419 a8bf 5086 543e 09a5 e23d
000001d0: 1901 15c0 ea59 9bc0 5eff 763e fdc3 89c0
000001e0: af0f 083e 2d0e 81c0 6473 ef3d d170 cebe
000001f0: 76a7 113e 30f1 3cbd 8502 19bf 8d35 3fbf
00000200: 482a 20be ffde 8dbd 287f 343f 9105 543e
00000210: ac7a 09c0 ab50 9740 3240 0abe 0e74 5440
00000220: 2768 633e 2cd6 c33d b2a9 143f 4384 5abe
00000230: 3c7c 80bf d611 8d3e a663 003d 6f96 bebc
00000240: 6001 0b3e a11e 41be d37b 25bf 816f bebf
00000250: f314 6b3e 44be 8abd 3ff5 2abf 6dd4 ad3c
00000260: f81e 3c3f 89f5 133f d6fa 723e f2c6 153e
00000270: 8ca9 de3e 5d1f 93bf d77d 8440 6309 033e
00000280: f528 223e 0fd6 0abd 39b8 0fbf d2b5 983e
00000290: ff52 3e3e 80bd b03e 38d0 2840 8b81 393f
000002a0: a514 39c0 0dcf 97bd 26a9 d63d e13d 463e
000002b0: 361b c83e 08c4 3e3f a8a3 16be 0187 263e
000002c0: 5957 953d 1e63 22be 4260 58bb 0622 c13e
000002d0: 0dc4 373d 8fed 373e 17af 91bf 60ab 083f
000002e0: 5d8e 69be b232 a83f 57d1 c23f 5c1d 21be
000002f0: 8a84 05c0 2c4f 83be d478 e43e a064 743e
00000300: bac1 b5be 21b8 fb3d 4478 02bf b6fb b3bf
00000310: 84ba 013e a702 49c0 478f 233e 115a 8d3e
00000320: 1356 b63e d96b 903d 8f90 aa3e 6306 043e
00000330: bed6 f73d 051f b43f 5c39 733d 4783 ecbd
00000340: c4ad dbbd 4ae9 2b3e 8ef2 b7bf 975b be3d
00000350: cb49 1a40 b6a1 1c3d e34c 2940 e89d 34c0
00000360: 0881 8dbb 3839 75bf 9c5c afbf 099e b93d
00000370: fa6f 76bf 7d7b 08bf 779a 143e b3d2 f9bd
00000380: 64bf 54be 0849 3d40 be68 3f3f bce2 0d3e
00000390: 4184 ba3f 1fe8 b53f d6d6 e0bc c22a 89be
000003a0: 5acd 1c3f afe5 42be 3bba 073f 3dd9 9740
000003b0: d5b3 883f 9636 9540 fdaf b23e 8f37 c33d
000003c0: dfb8 d8bd 160b 873f cfc3 eebd 9462 ddbe
000003d0: b2f7 813f e291 9440 d3b5 c0bc 50d1 7f40
000003e0: d486 0dbe ed74 8640 72ba fcbd ca09 a13f
000003f0: 3bda 223d b261 fb3d c0ef 943e 6999 553e
0.19091868 0.11963741 -1.0764457 -0.00013694579 1.3664821 -5.0005903 0.15915549 -3.0277236
-0.17515606 -0.084050156 -0.625505 -0.9222697 0.6267405 -1.2537215 -0.10492899 -0.22562805
0.008172204 0.03906212 0.046991717 0.6499864 -0.42283964 0.15101212 0.7122446 0.04888497
-0.9180996 -2.2345645 -0.1390181 -0.11819148 -0.26093632 0.63322586 -4.2634625 -0.5590819
-0.13067695 -0.16645889 -0.045486506 -0.14895087 -0.13506322 -0.28212655 -0.3609683 -0.32405132
-0.14970905 0.05292898 -0.07832179 0.037266508 -0.66236204 -0.66954505 0.10681688 -0.17218596
-0.9994585 0.2891589 -0.1874694 -0.20894118 0.1589209 -0.03993992 -2.077366 -0.608364
-0.47802234 -0.4502816 -0.3850221 0.23335983 -0.20583248 0.2476673 -1.2721115 -0.101240106
0.44429314 -0.0055861534 -1.4547206 -1.9702227 -0.027616281 0.06744628 -0.06796309 -0.7260636
-0.1493303 0.11221122 -0.31778547 0.025350025 0.0058852416 -1.6177777 0.14880927 0.13159086
0.19762757 0.0016092493 0.609209 0.07405635 -2.4937768 0.17030868 -0.44109958 1.8756157
0.09733274 0.7729126 -2.2124765 0.07230969 0.37639937 -0.31092468 -0.044790115 0.16388777
0.24608871 -2.668061 -0.36351255 -0.039264716 -0.46117705 -0.34505865 -0.15742609 0.27763778
-0.37647814 0.19140851 -0.41522646 -4.9419937 -0.28466088 -4.8535085 -0.24896821 -0.07456627
0.13357006 -1.313271 0.20754361 0.11066634 -2.328192 -4.854726 0.24120852 -4.3051744
0.13287233 -4.0329804 0.11691931 -0.40320447 0.14224038 -0.04612845 -0.5976947 -0.74691087
-0.15641129 -0.06927299 0.70506525 0.20705248 -2.1481123 4.728597 -0.13501051 3.3195834
0.222077 0.095623344 0.58071434 -0.21339516 -1.0037913 0.2755267 0.031345032 -0.023265092
0.13574743 -0.1885934 -0.64642066 -1.4877778 0.2295721 -0.067745715 -0.66780466 0.021219457
0.73484755 0.5779653 0.23728499 0.14626673 0.4348873 -1.1493946 4.1403613 0.1279655
0.15835936 -0.03389555 -0.56140476 0.29826218 0.18586348 0.34519577 2.6377087 0.7246329
-2.891885 -0.07412539 0.10481481 0.19359542 0.3908326 0.7451787 -0.14710867 0.16262437
0.07292051 -0.15858123 -0.0033016359 0.3772127 0.044864703 0.17961715 -1.1381558 0.533865
-0.22808214 1.3140471 1.5220135 -0.15733856 -2.0862145 -0.2564634 0.44623435 0.2386651
-0.35499364 0.12290979 -0.5096476 -1.4061191 0.12668806 -3.140787 0.15972625 0.27607778
0.35612544 0.0705182 0.33313414 0.12893061 0.12101506 1.4071966 0.059380874 -0.11548477
-0.107265025 0.16788211 -1.4370897 0.09294813 2.410754 0.038240157 2.6453178 -2.8221378
-0.0043183602 -0.95790434 -1.3700137 0.09063346 -0.9626461 -0.5331343 0.14512049 -0.12198391
-0.20776135 2.9575825 0.747692 0.13856024 1.4571611 1.4211463 -0.027446192 -0.26790434
0.6125084 -0.1903293 0.5301854 4.7452683 1.067988 4.6629133 0.34899893 0.09532081
-0.10582136 1.0550258 -0.11658441 -0.43239272 1.0153716 4.642808 -0.0235242 3.9971504
-0.13820964 4.201773 -0.12340249 1.2581112 0.039758902 0.12274493 0.29089165 0.20859303

output_mlp.2.bias f4 [9]
00000000: a687 7c3c 5b09 ca3c ce01 37bd 7523 7ebd
00000010: ab05 3abd f984 2ebd 7bca 38bd 5673 5b3d
00000020: e4e1 88bc
0.0154132005 0.024662664 -0.044679455 -0.062045533 -0.04541556 -0.04260728 -0.045114975 0.05357679
-0.016709276
