log/segmentation/pn/bucket/weighted-2/pn_40.pth (torch, 337359 bytes, 8 tensors)

local_mlp.0.weight f4 [64, 3]
000000 dd 7c 91 3e b8 7a 19 3e 6b 79 6d 3e 24 ea 33 3f
       0.28415576 0.1498822 0.23190849 0.70279145
000010 41 43 8b 3e 7a f9 c6 be 15 ac 03 3f 84 83 f7 bc
       0.27199748 -0.3886221 0.5143445 -0.030214079
000020 3b 83 1e be 96 55 03 3f ea ca 34 bd 6c dd 4e be
       -0.15479748 0.5130247 -0.044138826 -0.20201653
000030 0b 88 0b 3f bd d0 36 3c bd 85 4d be 71 0b 46 3f
       0.5450446 0.0111581655 -0.20070548 0.7736121
000040 e5 3b 57 3e 0e fb a8 be 47 46 07 3f e9 e1 37 3a
       0.21018942 -0.3300404 0.5284161 0.0007014559
000050 5d 4b 3b be 3e 7d 0c 3f 2d 37 b1 3c a3 5f 63 be
       -0.18290468 0.54878604 0.021632755 -0.22204451
000060 b6 a8 bf 3e 37 21 29 3c 13 0f 5c 3e 53 5a 63 3f
       0.37433404 0.01032286 0.21490125 0.888097
000070 93 ef 15 3f ac ac d1 be 9b fe 2a 3f cf 5d 20 bc
       0.58568686 -0.4095205 0.6679475 -0.009787991
000080 95 cd 6e be 9d e5 b7 3d 7b ea a1 3e 1f f2 65 3e
       -0.23320611 0.08979342 0.31624207 0.22455643
000090 11 8a 8b 3d 0d 7c db 3f cd f8 27 3e 92 64 87 bf
       0.068134435 1.7147232 0.16403504 -1.0577567
0000a0 97 cb 03 3f 91 f7 9e 3e ff b8 05 c0 02 66 4a 3f
       0.5148253 0.31048253 -2.0894163 0.790619
0000b0 01 9f aa 3e 04 23 49 3d c7 ab 09 3e 43 80 8a 3e
       0.33324435 0.04910566 0.13444434 0.2705098
0000c0 56 f7 b5 bd f0 0b 37 c0 5f b1 98 3e 76 73 31 3f
       -0.08885066 -2.8601036 0.29822823 0.69316804
0000d0 fa fd 80 3d b6 c3 8f be de b2 95 3e eb 54 c0 3d
       0.06298442 -0.28079003 0.29238027 0.09391197
0000e0 fd 46 72 3e c2 bb a6 3e 0d a3 d6 3d 75 02 6f 3e
       0.23659892 0.32565123 0.10480318 0.23340781
0000f0 82 8a 4c 3f f1 d8 50 3e 0f b0 a4 be 0b 5e 10 bf
       0.79898846 0.20395257 -0.32165572 -0.563935
000100 ae 08 82 c0 5d f9 0f bd f1 7e aa 3e 44 ab 1b bd
       -4.0635595 -0.03514992 0.33299974 -0.03800513
000110 b4 37 2f 3e c4 7a 8a 3c eb 9a 08 3b 48 a3 8c 3e
       0.17111093 0.016904242 0.0020844291 0.27468324
000120 43 02 cd 3e 06 1d 01 3b 1b 31 69 3e 44 ed a3 3e
       0.40040788 0.0019701137 0.22772638 0.32016957
000130 92 72 87 3c 0b 11 36 3e e0 ed c9 be d1 d1 e7 ba
       0.016534124 0.17779939 -0.39439297 -0.0017686432
000140 06 20 3b be 47 aa 04 3f 5f 6b e2 3b 7d 54 4c be
       -0.18273935 0.5182232 0.0069097723 -0.19954105
000150 dc 1f 5c 3f 25 91 9b 3e 71 ef af be 85 2e 84 3e
       0.85986114 0.30384174 -0.34362367 0.25816742
000160 25 7f ae bd f3 60 41 3e da 76 9d 3e 9f 81 bb 3b
       -0.08520345 0.1888464 0.3075474 0.005722239
000170 ef de 62 3e d8 73 f7 3e 26 6e 1f bb 5e d7 3a be
       0.22155355 0.4833057 -0.0024327128 -0.18246219
000180 26 2e f4 3e f7 f6 37 3b 05 6b 3e be a2 3d 80 be
       0.47691458 0.0028070787 -0.18595512 -0.25047022
000190 23 40 8c be 4f 86 66 be d4 c4 b4 3d ee 1c fc 3c
       -0.27392682 -0.22512172 0.088266045 0.030775513
0001a0 ed 2e 88 3e dc d0 bc bc 4e 04 6f c0 22 96 a5 3e
       0.26598302 -0.02304881 -3.7346377 0.32341105
0001b0 a9 43 b2 3e 8d 4c 96 bd b8 a6 3c 3e aa 29 bf 3e
       0.34817246 -0.0733882 0.18422973 0.37336475
0001c0 4b ff 58 bd 74 53 48 3e 91 83 f2 3e b2 e0 5c bd
       -0.05297784 0.19563085 0.47366002 -0.053925224
0001d0 c7 c2 08 be ee af 1b 3e 75 3f 36 be a4 7d 3a 3e
       -0.13355552 0.1520383 -0.17797644 0.1821199
0001e0 ec 23 e9 3e 04 ad 00 3d 19 68 78 be 57 d9 45 3e
       0.4553522 0.031415 -0.2425846 0.1932119
0001f0 bd ce 41 3e 49 d8 77 3e e2 28 42 3e f9 be 2d 3d
       0.1892652 0.242036 0.18960908 0.042418454
000200 67 bf 78 3e 8a fb 3c 3e be f0 64 3d c5 00 7e 3e
       0.24291764 0.1845533 0.055893652 0.24804981
000210 d8 b1 1b 3f 4b 93 e3 3d b7 0e 27 bf de b2 ac 3e
       0.60818243 0.11112078 -0.6525683 0.33730215
000220 b2 69 d4 bd 72 dd 33 3e 8d d2 4d 3e 94 82 72 3e
       -0.10371722 0.17564943 0.2009985 0.23682624
000230 eb 4c 72 3e f5 b6 05 bf 45 76 44 40 56 fe b9 3d
       0.23662154 -0.52232295 3.0697186 0.09081714
000240 34 35 73 be 02 3d 5c 3e a2 9a 7d be d1 f7 84 3e
       -0.23750764 0.21507648 -0.24766019 0.2597032
000250 18 9b 7f 3d 05 e8 71 3e c7 09 12 3f e0 01 82 3d
       0.06240377 0.23623665 0.5704617 0.06348014
000260 e5 0c 80 be 7e 3e 07 3f 7c c6 9b 38 18 eb 4b be
       -0.25009838 0.5282973 7.4279465e-05 -0.199139
000270 17 cb 19 3e d3 5f 95 bc 93 ab 5e 3e 4a e0 69 3d
       0.15018879 -0.01823417 0.21745138 0.057098664
000280 17 3a 6a bd 2b fa 64 3e f5 91 f3 3e 30 f5 c5 3c
       -0.057184305 0.22361057 0.47572294 0.024164766
000290 96 dd 53 be b5 23 db 3d c6 4d c8 bc 00 9e 69 3e
       -0.20689997 0.1070017 -0.024451148 0.22814178
0002a0 91 2c 6a 3f 28 04 e2 3e dc ce c1 be 78 d6 08 3f
       0.9147425 0.44143796 -0.37853134 0.53452253
0002b0 55 15 6d 3c e9 aa 51 be cb 98 18 3e c8 45 1c be
       0.014470418 -0.20475353 0.14902036 -0.15260994
0002c0 e0 7e 38 3e 45 1f c7 bd e8 fe 93 3f 69 67 47 3e
       0.18017149 -0.09722761 1.1562166 0.19473042
0002d0 b1 d0 c1 3e 0e 26 ca bc 0e a7 4c 3e 58 20 b7 3e
       0.3785453 -0.024676349 0.19985601 0.35766864
0002e0 4d cd e3 bb 62 e4 61 3e b6 5e ed 3e fa d4 dc 3c
       -0.006951964 0.22059777 0.4636132 0.026957024
0002f0 a8 ce 5a be 56 64 cf 3d 06 84 22 40 4a fa 49 3e
       -0.21367896 0.101265594 2.539308 0.19724384

local_mlp.0.bias f4 [64]
000000 57 80 1b bf f2 c1 0f 3e 3c d8 26 be 5b c7 a2 bd
       -0.60742706 0.14038828 -0.16293424 -0.0794818
000010 58 24 e4 bd ed 74 4d bd a0 19 00 be f5 70 9f bd
       -0.111397445 -0.050160337 -0.12509775 -0.07785217
000020 a8 6c 25 bf dd 43 c1 3c 06 05 16 be b4 66 e3 be
       -0.6461892 0.02359193 -0.14650354 -0.44414294
000030 c4 aa 6b be 67 96 f0 3e 27 94 27 3f 1e 73 f7 be
       -0.2301436 0.46989748 0.6546044 -0.48330015
000040 e4 52 70 be a6 26 b0 bd 83 ee 1e bf e5 e1 23 bf
       -0.2346912 -0.086011216 -0.6208269 -0.6401656
000050 0c f9 9e bd 43 b8 09 3e f4 8d 0a bf 87 85 e8 be
       -0.07762346 0.13449197 -0.54122853 -0.45414373
000060 d1 72 2f bf 10 f3 0a bf 8c c9 1d 3f f9 24 bb bd
       -0.6853457 -0.54277134 0.6163566 -0.09137911
000070 d3 07 94 bd 22 5b 04 bf 09 4c 1b bf 2e f2 bb bd
       -0.07228055 -0.5170156 -0.60662895 -0.091770515
000080 1b be a4 bd 0c 77 11 3f 5c a8 00 bf 06 9a 48 be
       -0.08044072 0.56822276 -0.50256896 -0.19590005
000090 40 6a 13 bf 14 86 1d bf f6 9e 24 be fc cf d5 be
       -0.57584 -0.6153271 -0.16076264 -0.41760242
0000a0 f8 71 18 3d 96 18 0e bf 0f bb 0c bf 81 28 0e bf
       0.037218064 -0.55506265 -0.5497293 -0.55530554
0000b0 90 7f 10 3f 99 fa 0e bf 56 8c 0c bf 1f 8a d7 3e
       0.56444645 -0.5585113 -0.54901636 0.42097566
0000c0 f6 d2 11 3f f6 87 18 bf b3 2e 43 bd c7 c0 ca bd
       0.56962526 -0.5958246 -0.047651958 -0.099000506
0000d0 01 fb f3 be 43 03 d0 be b0 c3 2c bd d7 45 ea be
       -0.47652438 -0.40627488 -0.04217881 -0.4575641
0000e0 39 26 80 bc d5 04 c6 bd b9 f9 d3 be 10 55 5e be
       -0.015643226 -0.096688904 -0.4140146 -0.21712136
0000f0 f7 b9 1f bf 7e cf 24 bf 24 48 ac bc f7 a3 13 be
       -0.62393135 -0.6437911 -0.021030493 -0.14418016

local_mlp.2.weight f4 [256, 64]
000000 c4 d6 87 3e 2d 8f b4 3e 57 83 9b 3e 7b c6 0e 3e
       0.2653104 0.35265484 0.30373642 0.13942902
000010 42 92 77 3e ba 60 21 3e d3 4e 90 3e 1e 64 83 3e
       0.24176887 0.15759555 0.28185138 0.2566232
000020 45 bb 9a 3e 6a c2 d5 bd 3b 75 42 3e 90 f5 ce 3d
       0.30221 -0.10437472 0.18990032 0.10105431
000030 93 c6 82 bc 93 d0 96 be 5a 30 df be e4 95 63 bc
       -0.015963828 -0.29456005 -0.43591577 -0.013890717
000040 0f 2f 90 be 77 f5 01 3e 6a 94 98 3e 06 28 88 3e
       -0.28160903 0.12691294 0.2980073 0.26593035
000050 c5 07 16 3e 5b 87 02 bf 0b 0e 8e 3e 50 9d 94 bd
       0.14651401 -0.50987786 0.2774509 -0.072565675
000060 39 8a b6 3e ad 92 88 3e 53 3b cd be 17 92 7c 3e
       0.3565233 0.26674405 -0.40084323 0.24665104
000070 16 b1 08 3e 7f be 46 3e 5c ec 8a 3e cb 75 85 3e
       0.13348803 0.19408606 0.27133453 0.2606643
000080 7d 5b a2 3e 32 1a f3 be b2 e0 44 3d 35 95 ad be
       0.31710425 -0.47480923 0.04806585 -0.33902898
000090 1d 8e 89 3e 2b 44 99 3e 41 6e a2 3e a7 98 11 3e
       0.26866236 0.2993482 0.31724742 0.14218388
0000a0 df 82 af 3e 42 fd 42 3e d6 c8 fe 3d 8f 68 3e 3e
       0.34279534 0.19041923 0.1244065 0.18594573
0000b0 6e b8 a9 be 34 74 91 3e 88 26 33 3e 37 b7 b4 be
       -0.3314852 0.28408968 0.17495167 -0.35296032
0000c0 ad ed 0d bf eb 79 67 3e 19 ac 7d 3e 11 2a 90 3e
       -0.5544079 0.22605102 0.24772681 0.28157094
0000d0 f4 70 bd 3d e6 30 28 3d 2a a9 b3 3e d0 09 6a 3d
       0.0925006 0.04106226 0.3509 0.057138264
0000e0 a2 f8 29 3e fc 30 81 3e e5 88 44 3e 16 5c 93 bd
       0.16598752 0.25232685 0.19192846 -0.071952984
0000f0 69 70 98 3e 22 91 ba 3e bc f5 ba 3e 34 4c e6 bd
       0.29773262 0.36438853 0.36515605 -0.11245003
000100 cb 70 8b 3e c3 11 46 bf 77 26 20 be 4c d0 02 be
       0.27234492 -0.7737085 -0.15639673 -0.12774771
000110 a0 d1 53 be 63 6c e2 be e1 df 4b be c5 49 7e be
       -0.20685434 -0.44223318 -0.19909622 -0.24832828
000120 bf 87 aa 3e c4 7d 14 bf 70 ae 6b be 1e 83 c9 3c
       0.3330669 -0.58004403 -0.23015761 0.024598654
000130 a8 d2 04 bf b9 2b 16 bf 13 20 84 bf b9 9c 05 3e
       -0.51883936 -0.58660465 -1.0322288 0.13048066
000140 ce a4 21 be f1 a1 9a be 02 31 91 3e b3 8a 87 3e
       -0.15785524 -0.30201676 0.28357702 0.26473007
000150 16 91 ce be 69 04 63 bf 18 9d be 3e 9e 2e 31 3e
       -0.40345067 -0.88678604 0.37229228 0.1730294
000160 50 a6 ac 3e 89 f5 b5 3e 8e 58 ac be 74 04 6c be
       0.33720636 0.3553889 -0.33661312 -0.23048574
000170 08 92 00 bf 13 c3 9b 3e 01 3b a0 3e 40 d7 45 be
       -0.50222826 0.30422267 0.31295016 -0.19320393
000180 39 c8 33 be 13 ec 4c be df 7d 3d 3e f2 ad 6b be
       -0.17556848 -0.2001193 0.18505047 -0.23015574
000190 75 bd 9f 3e d6 78 ac 3e 1b 4f a5 bd 08 d7 61 3e
       0.31199232 0.3368594 -0.08071729 0.22054684
0001a0 56 18 94 be c9 26 4e 3e 8e ca 7b 3e db 62 77 3e
       -0.28924817 0.20131983 0.24588987 0.24158804
0001b0 92 85 94 be 6f 54 b1 3e f2 ba 3a 3e 7b c1 34 bf
       -0.29008156 0.3463473 0.18235376 -0.7060773
0001c0 c7 58 78 be 76 7d 90 3e 8b e3 84 be 59 24 5d be
       -0.24252616 0.2822072 -0.25954852 -0.21595897
0001d0 df 1d 91 3e dd 4b 5c 3e d7 ea 75 be 78 68 85 3e
       0.28343102 0.21513315 -0.24015366 0.26056266
0001e0 1a d8 26 bf 83 66 63 be e9 ef 8e 3e bc 13 b0 be
       -0.65173495 -0.22207074 0.27917412 -0.34390056
0001f0 79 3c ae 3e 90 ba b0 3e 79 4e 7c be 88 c2 26 bf
       0.34030512 0.34517336 -0.2463931 -0.6514058
000200 8d af 94 bd 3e 27 60 be 0e 28 c4 3d 78 85 18 3c
       -0.07260046 -0.2188997 0.09577952 0.009309165
000210 f6 97 a2 3d 14 46 b8 bd 6d 31 92 3c 1e 2b 10 3d
       0.079391405 -0.08997741 0.017845834 0.03519737
000220 fb 4a ce 3d 68 46 7c be 19 04 d3 3d c8 10 4d be
       0.10072895 -0.24636233 0.10303516 -0.20025933
000230 c9 c5 0d bf 69 01 e3 be 9a 23 e5 be b7 1a 61 be
       -0.5537992 -0.44337013 -0.44753724 -0.21982847
000240 72 3e ee 3a a4 6b d7 3b c0 82 cb bb 31 3c 05 bb
       0.0018176569 0.006574111 -0.006210655 -0.0020330066
000250 0d 2b 6c bd ce 27 58 bf 3c 5c 21 3e c1 e6 1f be
       -0.057658244 -0.8443574 0.15757841 -0.1561537
000260 47 db 30 3e cb 66 9b 3d 72 38 6f be e2 1a 47 3d
       0.17271148 0.075879656 -0.23361376 0.04860962
000270 68 88 bc bd 35 25 4b 3e bc 60 c9 3d 1e f0 2e 3d
       -0.09205705 0.19838412 0.09832904 0.042709462
000280 76 54 f0 3c 34 a0 47 be d7 0b de bd f3 8b df 3c
       0.02933715 -0.19494706 -0.10842102 0.027288413
000290 da 67 53 3e 91 71 43 3e fe c1 c3 3d 7e 4e 1c 3e
       0.20645085 0.19086291 0.095584854 0.15264317
0002a0 d9 d8 60 3d 8e 6c 39 be 87 e4 2c bd 7b 97 14 bd
       0.054894302 -0.18107817 -0.04221013 -0.036277276
0002b0 03 17 64 be 01 30 91 3e ee 42 32 be e5 71 20 bf
       -0.22274403 0.28356937 -0.17408344 -0.6267379
0002c0 be c5 81 be f3 89 44 3c 1e 11 e7 3c 68 d3 7c 3d
       -0.25346178 0.01199578 0.028206404 0.06172505
0002d0 d4 9a 45 bd c5 c0 fc bc 88 ab 47 3d 4c 34 cc bc
       -0.04824336 -0.030853638 0.04874757 -0.02492728
0002e0 d7 e9 28 be 10 97 b6 3c 04 79 44 3e b9 68 78 be
       -0.16495453 0.02228883 0.19186789 -0.24258699
0002f0 ac 9d fb 3d 71 21 12 3e 1c ad 78 3d 54 01 33 bf
       0.12285933 0.1427057 0.060711965 -0.699239
000300 e2 76 a6 3e 19 0d 08 3f a5 80 20 3f d2 a5 05 3f
       0.32512575 0.53144985 0.62696296 0.52206147
000310 60 62 16 3f 1f d5 f2 3e b3 66 1b 3f ad 6d 13 3f
       0.5874386 0.47428223 0.6070358 0.57589227
000320 2b f0 05 3f 2e 95 be 3e 40 30 13 3f 03 f2 3a be
       0.5231959 0.3722319 0.574955 -0.18256383
000330 39 7c 54 bf 53 64 98 bf 6a 65 3d bf d2 b8 08 be
       -0.8300205 -1.1905617 -0.7398287 -0.13351753
000340 d8 2a 46 bf cc 1c fc 3e 14 71 e2 3e 98 5a f4 3e
       -0.77409124 0.4924072 0.44226897 0.47725368
000350 83 eb 08 3f 06 6b c8 bf df 2e 25 3f 39 4b 40 be
       0.5348436 -1.5657661 0.64524645 -0.18778695
000360 24 ba 21 3f 76 48 04 3f 55 48 8d bf 9b de 13 3f
       0.63174653 0.51673067 -1.1037699 0.57761544
000370 d4 52 00 3f 18 9e 00 3f 6c a0 01 3f 82 4d 25 3f
       0.50126386 0.5024123 0.5063541 0.6457139
000380 83 f0 1d 3f f2 cb 75 bf 4f 49 e0 3c e3 64 71 bf
       0.61695117 -0.9601432 0.027378706 -0.94294566
000390 4f 87 14 3f 93 9b 18 3f c8 49 2a 3f 08 e8 6a 3e
       0.58018965 0.5961239 0.6651883 0.22940075
0003a0 5e db 00 3f 48 28 fa 3d 2b d2 7a 3e ff 5b 78 3e
       0.5033473 0.12214714 0.24494235 0.24253844
0003b0 41 06 b3 3c 69 09 28 3f 50 9f d4 3d c8 d5 ba bf
       0.021853568 0.6563936 0.10381949 -1.4596491
0003c0 ea 4d 87 bf f7 83 c9 3e 41 2a 0c 3f 2b 19 13 3f
       -1.0570652 0.39358494 0.54751974 0.5746028
0003d0 0c 52 22 3e fc e9 a6 bd ea fe 11 3f 9c 17 8e 3d
       0.15851611 -0.08150098 0.57029593 0.06938097
0003e0 c2 42 09 3f 87 6b 14 3f ac 3b 66 3e 94 bc 20 bf
       0.5361749 0.57976574 0.224837 -0.6278775
0003f0 72 6b 1b 3f cd ef 1a 3f f7 b8 0b 3f 94 10 86 bf
       0.60710824 0.60522157 0.5457911 -1.0473809

local_mlp.2.bias f4 [256]
000000 c2 ec 7d bd 5c 8d 28 be 68 29 8a bd ee a2 02 bf
       -0.061993368 -0.16460174 -0.06746179 -0.5102986
000010 1c f3 9e bd 26 eb 28 be 32 86 29 be 98 79 8c bd
       -0.07761213 -0.16495952 -0.16555098 -0.0685913
000020 1b c8 f9 3d 0e f3 6b be 65 54 24 be ac 4a 38 39
       0.1219637 -0.23041937 -0.16047819 0.00017575425
000030 81 44 3a bd b6 70 ce be d8 89 d1 3d fd 61 0b bd
       -0.045475487 -0.40320367 0.1023137 -0.034028996
000040 31 70 f7 bd 7e 78 71 3c 1b 8a 69 bd 8e b6 ad 3d
       -0.12081946 0.0147382 -0.057016473 0.08482085
000050 cb 8c 77 bd 3c 96 a1 bd aa c1 01 be 95 79 10 3d
       -0.060437005 -0.07889983 -0.12671533 0.0352722
000060 e4 f8 74 bc 0b dd a1 3c 1a 1a 7c be c5 5c 11 3d
       -0.014951918 0.019758722 -0.24619332 0.035488863
000070 82 c3 b9 3d f9 47 02 bb 45 44 64 bd 74 b0 97 be
       0.09070493 -0.0019879325 -0.05572917 -0.2962681
000080 20 91 34 be 6d fd 86 be 78 0f d7 3d 16 54 a5 3d
       -0.17633486 -0.26365224 0.10500997 0.08072679
000090 3d 49 5c 3d e8 87 ad 3c b4 30 7f bc 2c 07 03 bc
       0.053780783 0.02118297 -0.015575577 -0.007997315
0000a0 fe a4 6b be 63 1f 0f 3e 38 a8 e1 bd b1 1d 97 3d
       -0.23012158 0.13976817 -0.11018413 0.0737871
0000b0 15 f8 15 be 5b fe 3c be f2 fc ca bd b5 79 03 be
       -0.14645417 -0.18456404 -0.09911527 -0.12839396
0000c0 41 a9 8f be d9 a3 0d 3e 48 c0 4d be 8a 26 38 3e
       -0.28058818 0.13832034 -0.2009288 0.17983451
0000d0 90 a6 47 ba 86 b6 92 3d b0 bb eb 3d ef ce 90 bc
       -0.00076160673 0.0716372 0.11510408 -0.017676799
0000e0 b3 de 98 be 43 6f 1e be ae 61 3e be 64 43 d3 bd
       -0.29857406 -0.1547213 -0.1859195 -0.10315588
0000f0 ce 07 a4 bb 4d 70 0b bd a2 34 e3 3d 4e 57 28 be
       -0.005005813 -0.034042645 0.11094023 -0.16439554
000100 af 8c 03 be 6b 46 bb bd d7 38 e5 3d 1d 11 b7 3d
       -0.12846635 -0.091442905 0.11192482 0.08938811
000110 bf 3e 2a 3e 12 20 cf 3d 74 ed af bd 4c 00 b8 bd
       0.16625498 0.10113539 -0.085902125 -0.089844316
000120 cc 5c e5 bd f9 1e 0b 3d 5a 18 40 3d ab 9e 7e be
       -0.1119934 0.033965085 0.046898223 -0.24865215
000130 99 dd 50 be 38 77 ae bc d0 f3 ea bd 52 f6 96 3d
       -0.20397033 -0.021297082 -0.11472285 0.073712006
000140 4d c4 e4 be 70 bb a0 bd 7d 7a e3 bc ad 4d b4 3d
       -0.44681016 -0.07848251 -0.027768368 0.08803878
000150 f3 9d 60 be 2e 1a 04 be 5b b1 32 be 10 47 bc 3d
       -0.21935253 -0.12900612 -0.17450468 0.091932416
000160 29 da 12 be db cd 67 be 3f a2 08 3e cd 12 8f be
       -0.14341034 -0.22637121 0.13343142 -0.2794403
000170 21 bf 8f bd 3e 8a ee bd c6 d8 09 3d a9 f2 5c bc
       -0.07018877 -0.11647461 0.033653997 -0.013485589
000180 81 de d9 3d 5c 1e 20 3d 5f 89 a4 bc 47 99 a7 3d
       0.106381424 0.039091453 -0.020085035 0.08183532
000190 0a ae a6 bd 7e e8 1a 3d 3d db 60 bd 2a 17 07 be
       -0.08138664 0.037819378 -0.054896582 -0.1319243
0001a0 16 88 9f bc c0 5f fa bb 2e 23 7a bd c3 09 96 be
       -0.01947407 -0.007640809 -0.061068706 -0.29304323
0001b0 f7 8b d8 bd 1a 5f a3 3c 4b 45 b1 3d d1 51 cc bd
       -0.10573571 0.019942809 0.08655795 -0.09976543
0001c0 a7 41 5c be 89 34 af bd 9b e1 ce bc c0 c5 2e 3d
       -0.2150942 -0.08554942 -0.025254061 0.042669058
0001d0 e8 e3 b4 3d 3d 44 c0 3d d2 25 9a bd c4 82 ab 3d
       0.08832532 0.093880154 -0.07526745 0.08374551
0001e0 b0 9e d8 3d 8b a9 0a 3e 33 08 a5 3d 18 c0 bd bb
       0.10577142 0.13541238 0.080582045 -0.0057907216
0001f0 6b be c7 bd 74 d4 7c be 5b 20 3e bd d2 66 00 bd
       -0.09753116 -0.2469042 -0.046417575 -0.031348057
000200 e0 3d 52 be 63 a4 19 be 6d 86 81 3b 95 00 55 be
       -0.20531416 -0.15004115 0.0039527924 -0.20801003
000210 cc 20 05 3e 14 d1 06 be 36 11 4e be b6 50 5a 3d
       0.13000792 -0.13165694 -0.20123753 0.05329963
000220 12 b6 e0 be c1 b2 97 3d f4 a0 b6 be c8 24 a4 bd
       -0.4388891 0.074071415 -0.35669672 -0.08014828
000230 1f 5d 90 be 81 84 e2 bc 97 e4 82 be 50 87 ae 3d
       -0.28196046 -0.027651073 -0.25565025 0.085219026
000240 ab 99 20 be e1 fe 17 be 06 46 62 bd 36 1d d7 3d
       -0.1568362 -0.14843322 -0.05524256 0.105036184
000250 f7 6e 17 3d 50 71 80 3c 8d f3 d7 3d ea 8e de bc
       0.03697106 0.015679032 0.105445005 -0.027167756
000260 96 33 32 be ee 7a b6 3d 20 49 39 bd 92 8e b5 bd
       -0.17402491 0.08910166 -0.045235753 -0.08865084
000270 5c 97 a5 3d 3c 07 47 3d df bb be bc d7 bd 12 b9
       0.0808551 0.048590884 -0.023282943 -0.00013994366
000280 ed 40 b2 bd 19 5b 5f 3d dd 70 c3 3d 37 9a bb bd
       -0.0870379 0.054530237 0.09543011 -0.091602735
000290 15 7f 1e bd 76 15 59 3c 01 3f cf be ea dc 7c 3d
       -0.038695414 0.013249746 -0.40477756 0.061734118
0002a0 66 6f f2 bd 52 1f 92 bd ab 10 dd 3d 78 df b9 3d
       -0.11837654 -0.0713488 0.10794195 0.090758264
0002b0 63 81 0b 3e 3a d3 6c be e6 8a b6 3d 69 d5 6f be
       0.13623576 -0.23127452 0.089132115 -0.23421253
0002c0 b8 3c ea bd 39 1b 08 be 5d ec ef bd b2 f3 6e 3c
       -0.114373624 -0.13291635 -0.117150046 0.014584469
0002d0 de 6a c6 3d e1 4c e3 bd bb fc d5 be 5e 92 12 be
       0.09688352 -0.11098648 -0.4179438 -0.14313647
0002e0 38 48 05 3e 27 2d c0 bd e0 1e 31 bd e2 0e 1d be
       0.1301583 -0.09383612 -0.043242335 -0.15337709
0002f0 49 56 38 bc a3 5e ba 3c 6c 38 71 bd ca c6 f6 bd
       -0.011251041 0.022750204 -0.0588917 -0.12049635
000300 18 66 52 bc 2a 81 72 be ca 19 3a be 7e cc a8 bd
       -0.012841724 -0.23682085 -0.181739 -0.08242129
000310 88 47 fc bc c8 f9 e7 bd c2 ae 53 be f4 87 e3 3c
       -0.030795828 -0.11326939 -0.20672134 0.027774788
000320 e5 0e ec bd 27 b7 70 bd c8 ef 56 bc ab f0 aa bd
       -0.115262784 -0.058768418 -0.013118692 -0.08346685
000330 b5 27 91 bc 2b 23 fa bc 0e a0 98 3d 5c 56 71 bd
       -0.01771913 -0.030534348 0.07452403 -0.05892025
000340 14 63 bf bd 27 29 69 bc 91 ac 37 3d 5c 61 e3 bd
       -0.093450695 -0.014231003 0.044842307 -0.11102554
000350 73 00 b4 bd 0c 91 b5 bd 73 86 42 3d f7 58 d4 bc
       -0.08789148 -0.08865556 0.047491502 -0.025921328
000360 36 ed 00 3e 84 d3 cc bd 52 22 9a 3d fc b2 0a 3e
       0.12590489 -0.10001281 0.07526077 0.1354484
000370 7a 94 fa 3d 42 04 d1 3d b3 66 8a be 64 08 82 3e
       0.12235351 0.1020589 -0.27031478 0.25397027
000380 80 1b c4 3d 6a 7b 1f bd 19 56 07 be 1d 67 43 be
       0.09575558 -0.038936056 -0.13216437 -0.19082303
000390 7e a0 09 be fa 83 5c 3d ae f4 93 be b0 26 f8 ba
       -0.13440129 0.0538368 -0.28897613 -0.0018932428
0003a0 cc dc 93 3d 1a 52 13 3e 25 15 c8 be 9c d0 b5 3d
       0.07219848 0.14386788 -0.39078632 0.0887768
0003b0 69 ca bf 3d b8 7e e6 bd 88 67 50 bd 16 7e b7 3d
       0.093647785 -0.112546384 -0.050879985 0.08959596
0003c0 fd 6e c6 3c 37 1e 0e 3e 3c da 1d be 34 d2 a7 bd
       0.024222845 0.13878714 -0.15415281 -0.0819439
0003d0 3c 0e 92 be 11 25 4a 3e 03 79 c0 bd a8 f7 59 be
       -0.28526485 0.19740702 -0.09398081 -0.2128588
0003e0 92 27 ab be 6c 74 62 be 8c 4a 8b bd 91 29 5d bc
       -0.33428627 -0.22114724 -0.06801328 -0.01349868
0003f0 21 90 f2 bd 28 83 71 be 76 a2 ba bd 4c a7 9e be
       -0.11843897 -0.23585188 -0.09113018 -0.30987012

output_mlp.0.weight f4 [128, 512]
000000 d2 4c 54 3e 92 1f 1c be 13 30 4e bd 06 27 6e 3d
       0.2073243 -0.15246418 -0.050338816 0.058142684
000010 07 64 45 bd e9 dc 47 bd 16 8f 1b be 70 0c 19 be
       -0.048191097 -0.04879466 -0.15191302 -0.14946151
000020 25 af ea 3b 23 37 5e bd 9f f3 04 3d d2 11 f6 bd
       0.007161992 -0.0542518 0.032458898 -0.12015118
000030 0a e7 e1 bc d4 66 94 bd 07 31 70 3e 11 b5 bd bd
       -0.027575988 -0.072461754 0.23456202 -0.09263051
000040 16 95 31 bd a8 7e 0d 3e 7c e8 2d be a3 dd b3 3e
       -0.04335507 0.13817847 -0.16983217 0.35130033
000050 8b 81 47 3e 26 ae 85 bd 43 f7 72 bd 72 10 33 3e
       0.1948301 -0.06527357 -0.05931784 0.17486742
000060 01 37 d2 bc c2 84 aa 3d 31 77 9f bd 90 52 1a 3d
       -0.025660994 0.08326103 -0.07786406 0.037676394
000070 a1 7e 81 3e 27 65 fd 3d d5 9f c2 3d dc 13 b8 bd
       0.25291923 0.12372809 0.09503142 -0.08988163
000080 d6 07 1d 3e 7c 84 d3 bd 66 a1 00 3e ac a3 93 3d
       0.1533502 -0.10328004 0.12561569 0.07208952
000090 88 05 31 3e 43 83 b3 3d e5 bb 82 3d 0d e8 d8 bd
       0.17287266 0.087652706 0.06383494 -0.10591135
0000a0 89 8a fc bc 31 71 38 bb a5 4e aa 3c cb 6e 7d 3d
       -0.030827777 -0.002814364 0.020789454 0.06187324
0000b0 0e a5 2a 3e 6b 80 36 bc ce 2e 09 bc 55 49 87 3c
       0.16664526 -0.011139016 -0.0083729755 0.01651446
0000c0 2c eb 08 be 87 7b 3e 3d 7d a1 47 bd 7a 94 22 3d
       -0.13370961 0.046504524 -0.04873799 0.03969238
0000d0 cf 62 99 bb 60 b9 22 be c5 1a 28 be 2a 05 bb bd
       -0.0046809684 -0.15891027 -0.16416462 -0.09131844
0000e0 a6 22 88 bd 40 bf b0 bd 80 98 69 bc 0a 52 1e 3e
       -0.06647234 -0.08630228 -0.01425755 0.15460983
0000f0 af 3f 1e be 88 49 12 3e e6 af c3 3d dd 64 21 be
       -0.15453981 0.14285862 0.09555034 -0.15761133
000100 42 13 23 bd 8a 1d 78 be 1f 27 ec 3c 9c 0b 44 3e
       -0.039813288 -0.24230018 0.028827248 0.19145054
000110 5d a5 29 3e 75 82 0f be 85 dc 11 3d 37 c3 28 3d
       0.16566987 -0.14014609 0.035610694 0.041201796
000120 81 62 05 3e 4a 69 4a 3e 94 62 da 3d c8 e0 8c bd
       0.13025858 0.19766727 0.106633335 -0.06878811
000130 11 cf d5 bd f0 ec a8 bd 18 f4 22 bd 14 5c bb 3d
       -0.104398854 -0.08248317 -0.039783567 0.09148422
000140 f3 61 16 3e be 68 39 3e b6 1f 0d 3e 54 87 98 3d
       0.14685802 0.18106362 0.13781628 0.07447687
000150 92 e3 b5 3d 8a 78 b1 bd 07 86 1e be 57 52 91 3d
       0.08881296 -0.08665569 -0.15480815 0.07095783
000160 0a 44 62 bd a6 2e 1b be c2 66 0c 3e f5 d8 bf bd
       -0.05524067 -0.15154514 0.13711074 -0.09367553
000170 53 2c 3e bd 5c e0 3f bd 1c e5 50 bd f0 8e 43 bd
       -0.04642899 -0.046844825 -0.050999746 -0.047743738
000180 c6 a9 8b 3e c7 7e ea 3d fc 36 96 3d 9b d8 a3 3d
       0.27277964 0.11449962 0.07334706 0.080002986
000190 36 c5 6e bd 19 9f 83 3d 3a 7b d0 bd b6 68 90 3d
       -0.058293544 0.0642683 -0.101797536 0.07051222
0001a0 78 5e 33 3c 42 b1 48 3c b7 c5 11 be fb bd 9e bd
       0.010947816 0.012249293 -0.14235578 -0.0775108
0001b0 24 4c 5d bd 97 76 ce bb 1f 48 58 3d 5f bf 54 3d
       -0.05402769 -0.006300758 0.052803155 0.05194032
0001c0 e3 2a f1 bd 13 b4 15 be f5 14 39 be d3 de 0d 3d
       -0.11775758 -0.14619474 -0.180744 0.03463633
0001d0 a3 9d 2e 3d 31 03 e8 3d e3 26 96 bd 42 97 32 3e
       0.042630803 0.11328734 -0.07331636 0.17440513
0001e0 16 c3 98 3d c1 56 7d 3c 35 4c 4f 3d f1 fb 9f 3d
       0.07459085 0.015462578 0.050609786 0.07811726
0001f0 f8 43 52 bb 5d 09 e5 3d 91 56 25 bd 97 42 15 be
       -0.003208397 0.111834265 -0.04036576 -0.14576183
000200 0d 06 f4 3d c1 cd 95 bd a7 f2 76 3e 68 dd 78 bc
       0.119152166 -0.07314635 0.24116002 -0.015189506
000210 2e 74 d8 3d 63 94 b0 3d d2 af 03 3e d4 ab f4 3d
       0.105690345 0.086220525 0.12860039 0.11946836
000220 af 03 dd 3d f2 ab 14 be 96 09 ff bd aa 77 31 3e
       0.10791718 -0.14518717 -0.12453 0.17330804
000230 05 35 3b be e9 c7 06 3d 78 db e5 3c 2c df cb 3d
       -0.18281944 0.032905493 0.028058752 0.09954676
000240 0d 70 fd 3a 4c a3 1c bd 35 f9 0e bd 0a e3 4f 3e
       0.0019335762 -0.03824167 -0.03490563 0.20301452
000250 6e e8 90 3d 62 cd 22 bd a6 68 1c be 46 c5 7d bd
       0.070755824 -0.03974665 -0.15274295 -0.061955713
000260 f2 c9 17 3e 07 99 8b 3d 9f 54 f0 bc 43 90 44 be
       0.1482313 0.06816297 -0.029337225 -0.19195656
000270 c4 b1 a5 3e 08 31 27 3e d3 49 a2 3d 8e 4e e6 3c
       0.32362187 0.16327298 0.07924237 0.02811363
000280 88 72 cc bd 60 a9 fc 3c dd 43 81 3e 6d 29 13 3e
       -0.099827826 0.030842483 0.25247088 0.14371271
000290 e7 25 ac 3d 8e b3 c2 3d c0 55 cb 3d 7c 0b 85 3d
       0.08405667 0.095069036 0.09928465 0.06496331
0002a0 47 c6 3a 3c e7 e3 07 be 32 7d 2d 3d ed 2d 4f 3e
       0.011399812 -0.13270532 0.042355724 0.20232363
0002b0 c5 45 29 be f4 66 d0 3d ac c3 90 3d 9a 50 00 3e
       -0.16530521 0.10175887 0.070685714 0.12530747
0002c0 9d 1c 30 bc 79 70 a6 3c 6c e9 1d 3c cf 0f d1 bd
       -0.010749009 0.020317303 0.009638172 -0.102080934
0002d0 96 1f 6c 3e 1e 8c 36 3e f8 44 35 3c 14 cd 22 3e
       0.23058924 0.17826888 0.011063807 0.15898544
0002e0 48 35 11 3e 16 ef 5a 3e dc d8 98 3d 4a 49 62 bd
       0.14180481 0.21380267 0.07463238 -0.055245675
0002f0 06 67 f9 3d d5 44 de 3c be dc 0d 3d 40 ee 2c be
       0.12177853 0.027132431 0.034634344 -0.1688776
000300 2f 14 2b 3d 43 5a 79 bd ec 4f 83 3c 41 91 b4 bc
       0.041767295 -0.060877096 0.01602932 -0.022041919
000310 35 08 c3 3d 98 ee 90 bd a9 bb 36 be 0e 3b e9 bd
       0.0952305 -0.07076758 -0.17845024 -0.11388217
000320 ef 8a 3e 3c f8 fe 96 3b e3 b7 00 be c4 5a ae bd
       0.011629804 0.0046080314 -0.12570147 -0.08513406
000330 71 ce 03 be 7e af bc 3d 93 a1 09 3e 7a 14 38 3d
       -0.1287172 0.0921316 0.13440542 0.044941403
000340 b3 9a 88 bc 7a 51 05 3e 0c 7c e2 3d 1d d5 46 bc
       -0.016675329 0.13019362 0.11058816 -0.012135771
000350 68 5f 9b bc f0 c1 18 bd 41 9b a7 3b 0b 1f 85 bd
       -0.018966392 -0.03729433 0.0051149433 -0.065000616
000360 6f f5 2a 3e ae 55 d7 bd a7 41 64 3e 8e 50 d5 bd
       0.16695188 -0.10514389 0.2229067 -0.10415755
000370 3c 35 ce 3d 06 91 4b bc ed c1 73 3c e5 de 9b 3d
       0.100687474 -0.012424713 0.0148777785 0.07610873
000380 88 1e f4 3d 7b ab 7e 3d 1d d0 36 3e 9c 97 4c be
       0.11919886 0.062175255 0.17852826 -0.1997971
000390 e9 ad b2 bd fd c5 01 3e b8 af 14 be 20 98 e6 bd
       -0.08724577 0.12673183 -0.14520156 -0.11259484
0003a0 e5 10 2b 3e 1c 7a ea 3d 21 cf b6 bd 45 65 22 be
       0.16705664 0.11449072 -0.089262255 -0.15858944
0003b0 7f 7d ab 3d a8 c4 0d 3e 4a aa b7 bc 23 7e 1b 3e
       0.08373546 0.1384455 -0.022420067 0.15184836
0003c0 99 fb fa 3c 9e 7c e9 3c 8d 27 c4 bd 0c 11 8b 3c
       0.03063755 0.028501805 -0.09577856 0.016975902
0003d0 ac 3e dd 3d 30 af f0 3d 70 a5 37 3e 5c 75 ae bb
       0.10802969 0.11752164 0.17934203 -0.005324049
0003e0 22 3d ae bd 41 71 1a bd 23 69 0f bd ff cc 0d be
       -0.08507754 -0.037705664 -0.035012376 -0.13847731
0003f0 61 6e d0 39 f8 1d 39 bd 1f b8 0d 3e 52 c0 c0 bd
       0.0003975509 -0.045194596 0.13839768 -0.09411682

output_mlp.0.bias f4 [128]
000000 0b 45 05 3e 7e bf 31 3e 4f c5 13 3e eb a3 9b 3d
       0.13014619 0.17358205 0.14430736 0.07599624
000010 85 29 9d bd 7c f3 cd bd fd 9f c6 3c f3 f7 e3 bd
       -0.07673935 -0.100562066 0.02424621 -0.11131277
000020 f4 5a a5 3d dc c2 81 3e 92 a3 87 3d 95 95 8b be
       0.080739886 0.25343978 0.066229954 -0.2726256
000030 e4 b7 84 bd 73 4c 66 bd 79 fd 13 3e 46 da 8d 3d
       -0.06480387 -0.05622525 0.14452161 0.06926398
000040 b5 d1 84 3d c3 55 14 bc a2 7c 74 be 64 1e 03 be
       0.06485311 -0.00905365 -0.23875669 -0.12804562
000050 69 63 34 be 8d 06 08 3e 5f 53 98 3d 23 d7 d8 3e
       -0.17616047 0.13283749 0.07437777 0.42351636
000060 ff f8 e4 3c 11 1e ef bd ff 2e 06 3e fb 69 f5 bc
       0.027950762 -0.116756566 0.13103865 -0.029957762
000070 4a c9 2f 3c 3b 0e 03 be 99 be f2 bd c2 93 1c be
       0.010729143 -0.12798397 -0.1185276 -0.1529074
000080 dc f9 1a 3e 48 92 0e 3e 11 5d a7 3d 7f 71 9c 3d
       0.15134376 0.1392299 0.08172048 0.07638835
000090 35 dd 82 3d c0 9e d2 bc 04 ac 8f bd d6 aa 34 bd
       0.06389848 -0.025710464 -0.07015231 -0.044108234
0000a0 64 49 cd be 4d 23 f4 3d 67 e5 ad 3d ae 89 2e bd
       -0.40095055 0.119207956 0.08491021 -0.04261177
0000b0 7a da c2 bd 3f 99 19 3e 18 ad 1c 3e 7e dc 00 3d
       -0.09514327 0.14999865 0.15300405 0.031460278
0000c0 ba 12 12 bd 60 83 0f 3e ce 00 0c 3e 2f 75 37 3d
       -0.03566239 0.1401496 0.13672182 0.04478949
0000d0 4d a8 be 3e ed d9 b7 3d 82 3b 07 be 82 1d 54 3d
       0.37237778 0.08977113 -0.13206294 0.051785953
0000e0 7d fa 21 be 31 4a de 3c 4b 40 9f bd ac 43 50 3e
       -0.1581821 0.027134987 -0.07775935 0.20338315
0000f0 d9 4d 64 be 18 30 60 3d fa 9e 3a bd c1 4b fe 3d
       -0.22295322 0.054733366 -0.045561768 0.12416793
000100 2a 65 3c 3d a6 66 6e 3b 0a 90 bd bd 2a 0e bd bd
       0.045994915 0.0036377101 -0.09255989 -0.09231217
000110 89 a4 11 3d 79 13 48 be ed e6 a7 3e 15 c8 1d 3d
       0.035557304 -0.19538678 0.3279337 0.03852089
000120 a7 45 b7 be b3 6c 13 3f 44 a2 91 3d 3d 87 59 3c
       -0.35795328 0.57587737 0.07111028 0.013276872
000130 d3 57 b6 b9 80 bf 03 bd 69 cb b5 3e 4d 34 88 3d
       -0.0003477918 -0.03216505 0.35506752 0.066506006
000140 de 3c 94 3e cf 3b 8d 3d cd b6 04 bd 0e 51 d4 3b
       0.28952688 0.06896173 -0.032400895 0.006479389
000150 77 d7 2c be bf 98 a7 3e 02 a8 3a be 8b f0 bf bd
       -0.16879068 0.32733724 -0.18228152 -0.09372052
000160 9d 60 d7 be 0e 6a c6 3d 63 16 09 be d2 01 f5 3e
       -0.42065898 0.09688197 -0.13387446 0.4785295
000170 b5 76 6e 3c 6b 4e a9 be 3a 84 c6 3d c2 ee f5 3d
       0.014554669 -0.3306764 0.09693189 0.1200843
000180 92 67 04 3e d4 33 11 be 99 3d f0 bc e9 41 4e 3d
       0.12930134 -0.14179927 -0.029326247 0.050355826
000190 c4 ed a7 3c 06 a9 05 be be 0d 68 3d 42 85 18 3e
       0.020499118 -0.13052759 0.05665373 0.14894584
0001a0 7b 26 0c 3e fb 46 00 3d 0f 2c d9 bb 6f e2 44 be
       0.13686554 0.031317692 -0.0066275666 -0.19227003
0001b0 d6 7c aa be bf 96 4a be 5e 03 a7 bd 7e c9 bd 3d
       -0.33298367 -0.19784068 -0.08154939 0.09266947
0001c0 c8 f8 c2 3d a3 9e 9b bd 78 78 b6 3d e7 69 07 bd
       0.095201075 -0.07598617 0.08909696 -0.03305998
0001d0 4a c0 d6 bc be 3c 1e be fc a9 54 3e 6d f6 02 be
       -0.026214737 -0.15452859 0.20767969 -0.12789316
0001e0 19 22 27 3e ac a0 5c be fb 2f d1 3d e9 ef d9 bd
       0.16321601 -0.21545666 0.1021423 -0.10641462
0001f0 e5 75 a5 3e 4c 0b bb 3d 5f 97 37 bd 24 6c 07 3e
       0.3231651 0.09133014 -0.044822093 0.13224846

output_mlp.2.weight f4 [9, 128]
000000 ce 8d 5c 3e 73 76 23 3e 16 43 93 bf 71 93 45 bd
       0.21538469 0.15963154 -1.1504848 -0.048236314
000010 a2 03 d4 3f 49 ee b1 c0 09 15 1d 3e 0b d7 af c0
       1.6563609 -5.5603375 0.15340056 -5.4950004
000020 2e e1 29 be 1b 21 01 bc 9e 21 3c bf b2 b9 b7 bf
       -0.16589805 -0.007881428 -0.73488796 -1.4353545
000030 81 64 20 3f 79 99 08 c0 a5 4c 9d bd 4a 85 75 be
       0.62653357 -2.1343672 -0.076806344 -0.23976627
000040 1f c9 2f 3e de 43 df 3c ec de 4c 3d 70 27 28 3f
       0.17166565 0.027254041 0.050017282 0.65685177
000050 8a c2 09 bf f2 fc 26 3e 78 37 58 3f 4d 22 74 3d
       -0.5381247 0.16307428 0.8445964 0.059603024
000060 6d c8 bc bf 58 38 66 c0 4c ac 5f be 3e eb a5 bf
       -1.4748665 -3.597189 -0.2184307 -1.2962415
000070 c9 49 52 be 9b dd 25 3f 64 d0 b8 c0 ef 75 36 bf
       -0.2053596 0.6479127 -5.7754383 -0.712737
000080 21 26 1a be 35 9d 29 be b0 da c6 3d 15 db 1b be
       -0.15053608 -0.16563876 0.0970968 -0.15220292
000090 90 3b 0b be 60 17 84 be 33 69 00 bf 1d 4b 9f be
       -0.1359694 -0.25799084 -0.5016052 -0.31111994
0000a0 db 01 eb bd 81 5f 93 3c 3c ef 95 bd 6e a0 84 3b
       -0.11474963 0.017989876 -0.07321021 0.004047445
0000b0 59 b3 5b bf 10 09 62 bf 8e ba 47 3d 87 b1 4e be
       -0.8582054 -0.8829508 0.048761897 -0.20184909
0000c0 42 c5 7d bf 77 f7 ac 3e 76 62 41 be 3c 4b 49 be
       -0.99129117 0.3378255 -0.18885216 -0.19657606
0000d0 4c 2f 41 3e 46 2e d1 bd 71 ae 04 c0 02 50 80 bf
       0.18865699 -0.10213904 -2.073147 -1.0024416
0000e0 cf bf f6 be 25 71 02 bf 54 59 c1 be d7 05 7a 3e
       -0.48193213 -0.50953895 -0.37763464 0.2441629
0000f0 c1 ca 84 bd 84 f4 cd 3e 54 31 21 c0 ff cb 26 be
       -0.06483985 0.40225613 -2.5186357 -0.16288756
000100 e8 2c 57 3f 03 85 fe bd c2 19 0a c0 b8 99 32 c0
       0.84052896 -0.12427714 -2.1578221 -2.7906322
000110 74 88 ae bd 29 f9 a0 3d 17 bc 7a bd e0 36 38 bf
       -0.0852212 0.078600235 -0.061214533 -0.7195873
000120 0b db 17 be a4 01 0a 3e 0a a9 b8 be 19 0e 92 bd
       -0.14829652 0.13477188 -0.36066467 -0.07131595
000130 5f dc 19 bd a8 8f c4 bf 93 79 43 3e 3f 63 40 3e
       -0.037563678 -1.535634 0.19089346 0.1878786
000140 ee c1 4a 3e e7 0d 8e bd c4 00 11 3f a9 86 7e 3d
       0.19800541 -0.069362454 0.56641793 0.06214014
000150 a1 61 3c c0 7a a3 36 3e 0b 84 d2 be 2d bf f6 3f
       -2.9434588 0.17835799 -0.41116366 1.9277092
000160 e3 67 c5 3d 29 f5 7c 3f b5 2d 0d c0 78 91 b9 3d
       0.096389554 0.98811585 -2.2059147 0.09060949
000170 0b 79 0c 3f 8a 05 a9 be c3 28 c6 bd 0c e3 ab 3d
       0.54872197 -0.33012038 -0.096757434 0.08392915
000180 0d ac 55 3e 4a b7 5e c0 29 5a bb be 79 71 4b bd
       0.20866413 -3.479937 -0.36592224 -0.049668763
000190 65 57 f9 be db 0e a5 be af 5e 1e be 9c 64 32 3f
       -0.4869949 -0.32237896 -0.15465806 0.6968477
0001a0 cf 00 be be 77 80 73 3e 7f 0f bc be 74 5f ee c0
       -0.37109992 0.23779474 -0.36730573 -7.449152
0001b0 85 9a a1 be e2 8e ef c0 33 fe 4b be e7 8b c9 bd
       -0.31563202 -7.4861917 -0.19921188 -0.098411374
0001c0 1b 28 94 3d 50 4d 3a c0 4f 38 82 3e 8e 51 0d 3e
       0.07234212 -2.9109688 0.25433585 0.13800642
0001d0 f3 8f 02 c0 b2 9c c9 c0 1e a7 8a 3e 85 59 ad c0
       -2.040036 -6.300378 0.27080625 -5.4171777
0001e0 4a fe 95 3d cb ec bf c0 e7 7f 54 3d 67 c2 cb be
       0.073238924 -5.9976554 0.05187979 -0.39796755
0001f0 5b b0 13 3e 2d 85 06 bc 48 2f ca bf dc fe 27 bf
       0.14422743 -0.0082104625 -1.5795679 -0.6562326
000200 3d 3a 3e be 29 b2 24 be b9 e5 4c 3f 5c 6f 98 3e
       -0.18576904 -0.16083588 0.8003803 0.2977246
000210 64 49 1f c0 7c 7d a7 40 4a 38 0f be 70 3d b1 40
       -2.4888544 5.234068 -0.13986316 5.5387497
000220 8a 88 50 3e aa b3 7f bd bd 96 33 3f 92 d7 1f 3e
       0.20364586 -0.0624272 0.70151883 0.15609577
000230 8f 2b 89 bf a0 14 95 3f 90 27 5a bd 63 85 04 3c
       -1.0716418 1.1646919 -0.053260386 0.0080884425
000240 3d e2 20 3e 16 8e 57 be 31 5b 33 bf 4e 36 d5 bf
       0.15711303 -0.21050295 -0.7006102 -1.6657197
000250 83 3d 4e 3e 06 b9 0e bd 11 cb 41 bf 12 fa 14 3c
       0.20140652 -0.03484442 -0.7570048 0.0090928245
000260 f7 5d a0 3f fb 06 45 3f 27 c5 b0 3e 14 d9 a3 3f
       1.2528676 0.76963776 0.34525415 1.2800622
000270 a3 26 d0 3e 24 ba a4 bf 0c 74 b2 40 02 d0 0a 3e
       0.40654477 -1.2869306 5.576666 0.13555911
000280 fe a9 28 3e e1 18 0b bc 7c 3e 3d bf 8e 13 a7 3e
       0.16471097 -0.008489818 -0.7392347 0.32632107
000290 30 0b 35 3e 73 a6 c2 3e 73 f1 4f 40 10 22 75 3f
       0.17680049 0.38017616 3.249112 0.957551
0002a0 b8 5e 55 c0 31 85 ac bd 66 a1 a0 3d 91 8b cf 3e
       -3.3339062 -0.08423842 0.07843284 0.40536168
0002b0 73 f5 1a 3f 6b d9 74 3f e1 47 de bd 66 f7 e9 3d
       0.60530776 0.95644253 -0.108535536 0.11424141
0002c0 4e f7 2c bd 2a ee 64 be ed d4 db 3c 25 b9 b9 3e
       -0.042228036 -0.22356477 0.02683493 0.36274067
0002d0 4d 43 e7 3c f1 33 8c 3e 3d 38 92 bf e7 92 58 3f
       0.028230334 0.27383378 -1.1423413 0.84599155
0002e0 2c 97 73 be bd 6d d1 3f 54 18 fa 3f ed 32 39 be
       -0.23788136 1.6361614 1.9538674 -0.18085833
0002f0 9a 11 35 c0 f9 be ef be d9 e7 dc 3f 05 ea 9f 3e
       -2.8291993 -0.46825388 1.7258254 0.3123323
000300 67 a8 51 bf b1 32 e6 3e 45 35 35 3e c6 73 aa bf
       -0.81897587 0.4496055 0.17696102 -1.3316581
000310 4f 77 76 3e 9a d5 80 c0 0b 11 e6 3d 53 16 7c 3e
       0.2406895 -4.0260744 0.112337194 0.24617891
000320 76 ca af 3e 91 8e 72 3d f6 0c a4 3e ea 37 9d 3e
       0.34334153 0.059217993 0.32041138 0.30706722
000330 d6 21 3d 3e df 81 b8 3f 98 61 f1 3c c6 b8 45 be
       0.18469939 1.4414634 0.029465482 -0.19308767
000340 b4 1c e3 bd 70 19 8f 3e 5e 3d c2 bf e1 84 28 3e
       -0.11089459 0.27949095 -1.5174978 0.1645694
000350 58 17 44 40 97 f6 35 3d bb 95 3e 40 fe ca 4f c0
       3.0639248 0.04442462 2.9778888 -3.2467647
000360 39 6d cb 3c 58 32 89 bf bf 31 b0 bf 40 65 ac 3d
       0.024832355 -1.0718489 -1.3765181 0.084177494
000370 1f 56 8f bf 08 0b 00 bf 79 21 4a 3e 8d 01 82 bd
       -1.1198157 -0.5001683 0.19739331 -0.06347952
000380 ee 34 24 be d9 7e 5e 40 1d 31 63 3f c1 61 30 3e
       -0.16035816 3.4764922 0.88746816 0.1722479
000390 6a fa e4 3f 49 2f c6 3f f1 0c b9 3d d3 a8 3d bf
       1.788892 1.548318 0.090356715 -0.7408573
0003a0 c0 54 18 3f 18 5c 80 be 3b 6e 00 3f 54 17 e8 40
       0.5950432 -0.25070262 0.501682 7.2528477
0003b0 f3 a1 9e 3f 01 96 e9 40 0d fb 86 3e 61 2e af 3d
       1.2393173 7.299561 0.26363412 0.08553768
0003c0 63 30 a9 bd 35 f6 27 40 20 f6 20 be f2 13 ff be
       -0.08261182 2.6244023 -0.15718889 -0.49819905
0003d0 08 2a 38 3f 61 f0 c5 40 77 e0 00 bd 5a 8d a2 40
       0.71939135 6.185593 -0.031464066 5.079755
0003e0 5a 4e c7 bd e8 7f d0 40 64 11 a7 bd 3c d4 c2 3f
       -0.09731741 6.5156136 -0.08157614 1.5221019
0003f0 cd 14 3a 3d 24 ac 9e 3d bc ad 3b 3f 9f cb ce 3d
       0.045429993 0.07747677 0.7331197 0.100974314

output_mlp.2.bias f4 [9]
000000 51 0c c0 bb f0 68 ab 3c d0 dc 37 bd cb 48 4b bd
       -0.005860843 0.020924062 -0.044888318 -0.049629968
000010 3e 5f 3b bd 81 85 2f bd 9d b2 39 bd 49 0b be 3d
       -0.045745127 -0.04285193 -0.045336355 0.09279496
000020 f4 60 8b bc
       -0.017014004
