log/segmentation/pn/laptop/full/pn_0.pth (torch, 337359 bytes, 8 tensors)

local_mlp.0.weight f4 [64, 3]
00000000: 1069 823e c405 463e 6837 cdbc e93f 55be
00000010: c677 47be 1118 893d 1fec 5abe 4908 31be
00000020: 37e6 643d 80c9 5e3e 71ef 1b3e 9536 32bd
00000030: 52fe 80be da28 0dbe 1591 b63d 3f98 75be
00000040: 34dd dbbd d3e8 913d 0a5d 783e 0afd 0d3e
00000050: 0d54 2bbd 6cc1 81be 1109 6bbe d68a bd3d
00000060: 9198 883e 4ffe 2d3e 21b7 0ebd ec8a 903e
00000070: 3537 013e 823e 1abd 0962 783e 1c4b 053e
00000080: fcec 8fbd 93eb 813e 0e7b 1e3e 8e9c 80bd
00000090: 72e6 78be ae6c b3bd 52c9 893d 2343 973e
000000a0: ff3f 283e a1b6 00bd 9704 763e 0d70 2c3e
000000b0: 6f72 01bd 5419 a33e f95c a23d 0b1d 06bd
000000c0: 3846 753e 49a5 303e 9895 42bd e25b 67be
000000d0: 8a20 b8bd 725c b13d 7cc8 a3be a490 a7bd
000000e0: 02f7 a83d 0a92 8d3e 5d08 893d 7be3 13bd
000000f0: e91c 83be 2afd 41be 83cb bd3d 1ffe 5abe
00000100: 3bc4 26be 167a 7b3d 2c5c 403e 7cb8 3b3e
00000110: e4ce 69bd 06de 74be fb0b 29be 1f26 b83d
00000120: d821 773e c3c9 393e 3b98 42bd 56e9 663e
00000130: 4df2 273e 2010 09bd 7f88 983e 7b78 813d
00000140: 24fb e9bc fd0a 693e 167f 333e bb51 d5bc
00000150: ac1f 95be 32c4 a9bd 63f0 bb3d bcb8 80be
00000160: 56f9 35be 21ce 913d 2cfd 8e3e d254 f73d
00000170: 7b94 24bd 89f9 833e edc3 503e 8579 96bc
00000180: b20b 77be e432 e5bd 5141 a13d 8f4e 923e
00000190: 404c 163e a120 31bd 6285 79be e75f eabd
000001a0: a654 8d3d 6983 923e 1e89 143e 258c 06bd
000001b0: ec70 83be 6d70 05be d21a ac3d e5f9 7dbe
000001c0: 3cb4 f4bd 4fe1 923d d36f 7abe f9cf 44be
000001d0: 93d1 973d 5c0f 323e 3470 1e3e 82aa 46bd
000001e0: 6e50 4a3e dfb3 1f3e a28c 42bd a502 823e
000001f0: a225 3c3e 78a1 cfbc 67eb 693e 5616 513e
00000200: 18ff 5cbd 7802 833e a343 2a3e 579a 2abd
00000210: d4c0 bdbe 706b b5bd 9788 cf3d fde5 913e
00000220: 447f 383e f676 8abd 52f3 79be afbc efbd
00000230: 8ea6 883d 267e 81be a387 29be ad89 b13d
00000240: a693 6abe a83a 21be 3d71 943d 9c16 603e
00000250: 6e4a bd3d 8f6a 66bd 2970 91be 5f8b a0bd
00000260: 657a c13d 66f8 a7be d57d 22be 5eb9 c23d
00000270: 5781 75be 4779 10be a4ca a83d 375d 73be
00000280: 0a64 e3bd fa36 a53d db86 78be 306b f7bd
00000290: c52d 833d 5ce5 7bbe fa43 37be 6993 b93d
000002a0: 477f 893e d569 2d3e 74dc 21bd bfb1 4e3e
000002b0: 7076 2c3e 8e47 9dbd f164 8ebe 3fba 30be
000002c0: 36ce b83d 39af 8ebe fed0 d1bd 8dbb c23d
000002d0: f255 87be 20b7 f1bd 5058 983d c436 74be
000002e0: 4e08 2fbe 2ab0 a83d 2f53 963e 6b9e 263e
000002f0: 3e4c 20bd b0b6 b73e f3cc cc3c f725 bfbc
0.2547078 0.19338137 -0.025050834 -0.20825161 -0.19479284 0.066940434 -0.21379136 -0.17288317
0.055883612 0.21756554 0.15228058 -0.043509085 -0.2519403 -0.13785115 0.08914391 -0.23983859
-0.107355505 0.07124486 0.24254242 0.13866058 -0.041828204 -0.25342882 -0.22952677 0.092549965
0.266789 0.16991542 -0.034842614 0.2823099 0.12618716 -0.03765727 0.24256147 0.13016933
-0.07027623 0.2537504 0.15476629 -0.062798604 -0.24306658 -0.087609634 0.06727852 0.2954341
0.16430663 -0.03142417 0.24025188 0.16839619 -0.031603273 0.3185526 0.079278894 -0.03274254
0.23952568 0.17250551 -0.047505945 -0.22593644 -0.08990581 0.08660211 -0.31988895 -0.08181885
0.08250238 0.2765048 0.06691048 -0.036105614 -0.25607994 -0.1894423 0.092673324 -0.21386002
-0.16285793 0.061395727 0.18785161 0.18332094 -0.057082072 -0.2391282 -0.16508476 0.08991646
0.24134004 0.18143372 -0.04750846 0.22549948 0.16401024 -0.033462644 0.29791638 0.06321808
-0.028562136 0.22758098 0.17528948 -0.026039949 -0.29125726 -0.082893744 0.091767095 -0.2514094
-0.17770895 0.07119394 0.2792753 0.12076725 -0.040180665 0.25776318 0.2038724 -0.018368492
-0.24125555 -0.11191347 0.07873786 0.2857556 0.14677525 -0.043244008 -0.24367288 -0.11444073
0.06900911 0.28615883 0.14505431 -0.032848496 -0.2567209 -0.13031168 0.08403553 -0.24802358
-0.119484395 0.071718805 -0.2445672 -0.1921996 0.0741302 0.17388672 0.1547249 -0.048502453
0.19757244 0.15595959 -0.0474974 0.25392643 0.18373731 -0.025345549 0.22843705 0.20418677
-0.053954214 0.2558782 0.16627364 -0.041651096 -0.3706118 -0.08858383 0.10133474 0.2849578
0.18017298 -0.06760971 -0.24409226 -0.117059104 0.06672393 -0.25291556 -0.16555648 0.08668838
-0.22907886 -0.15745032 0.07248161 0.21883625 0.09242712 -0.056253966 -0.28405884 -0.07839083
0.09447173 -0.328067 -0.15868314 0.09508012 -0.2397512 -0.14108764 0.08241776 -0.23766027
-0.11103065 0.080671266 -0.24270193 -0.12080991 0.06405214 -0.24599212 -0.17897025 0.090613194
0.26854917 0.16934903 -0.03951688 0.20184992 0.16842055 -0.076796636 -0.27811387 -0.17258547
0.090237066 -0.2786806 -0.1024494 0.09508429 -0.2643276 -0.118025064 0.07438719 -0.23849016
-0.17093012 0.08236726 0.2936034 0.16271369 -0.03913521 0.35881567 0.025000071 -0.023333533

local_mlp.0.bias f4 [64]
00000000: 6a8a dd3c 3851 c33b 2d9d 8b3a 2a6f 8e3c
00000010: 5156 213c 2a2c 7a3b 0db5 b43c 0cbd 663c
00000020: 5d42 fa3c b3f2 153d a41d f93c 27ec 043d
00000030: 0707 c73b 50fd 0d3d 7b03 ab3c 147f 223d
00000040: c86b c13c 962a e53b cbb4 883c d2ea f83c
00000050: ba14 703c cacd c23b 48f6 7c3c 15eb 363c
00000060: 0557 e63c fbb4 893c 2858 f13c 122d ca3c
00000070: 9058 823c bb5a 4c3c 4214 e23c b0ef 253d
00000080: a14c 903b 43ad 073d 4cb9 143c da15 0e3d
00000090: d7f8 4f3c d00a 163c 9c96 0f3c 003a 5e3c
000000a0: abca 5c3c 6025 d53c b142 e13c 6811 e33c
000000b0: c410 c83c 5357 253d acbb 1e3c 3290 e93b
000000c0: 6342 f63b 85a5 b93c 8510 833c 937d a13c
000000d0: f79c e53b 67bc 203c f4da fd3b 1087 aa3b
000000e0: 5010 ee3c 48a4 bf3c e5e9 8e3c e1a7 8b3c
000000f0: 3a0d 473c 3b6a 373c 343b 3b3d 61a1 313d
0.02704354 0.0059606098 0.00106517 0.017386992 0.00984724 0.0038173296 0.022058988 0.014083158
0.030549223 0.03660841 0.030409642 0.032451775 0.006073836 0.034665406 0.020875683 0.039671972
0.023610964 0.006993602 0.016687771 0.030385409 0.014653379 0.005944942 0.015439577 0.011164446
0.028117666 0.016809931 0.029460981 0.024679694 0.01591137 0.012472804 0.02759755 0.040511787
0.004403666 0.03312422 0.009077381 0.034688808 0.012693605 0.009157851 0.008763935 0.013563633
0.013476054 0.026018798 0.027497621 0.02771826 0.024422057 0.040366482 0.009688299 0.007127785
0.007515238 0.022661934 0.015999088 0.019713199 0.007007237 0.009810544 0.0077470485 0.005204089
0.029060513 0.023393765 0.017445514 0.017047824 0.01214915 0.011194761 0.045710757 0.043366794

local_mlp.2.weight f4 [256, 64]
00000000: 8627 013e cf00 dabd d5ee c6bd a227 663d
00000010: 9e3e 6bbd d225 aabd 264e 6a3d bce6 b3bd
00000020: e9fb d73d f97f 013e 7f38 933d e7fa b13d
00000030: e669 a9bd ebcb e93d b87d f13d e04a dd3d
00000040: 37af bf3d 81d2 9dbd 8657 16be a655 853d
00000050: c1b7 a2bd 4086 ecbd d030 983d e9fc d7bd
00000060: a8d3 893d bd94 7f3d 578e 233e ac82 de3d
00000070: 0834 f8bd 0290 cdbd 3971 e13d 1003 bf3d
00000080: 94fa 8bbd d261 0e3e 91b0 8dbd 1411 fc3d
00000090: 7d0a e8bd 549e 8cbd b3b5 efbd 66f7 423d
000000a0: 03f0 2d3d f9b0 e63d b206 dd3d b606 ea3d
000000b0: ea0e 44be 1198 633d 1faa aabd 7e90 efbd
000000c0: 68b7 87bd 8ddd 8d3d 2830 0fbe 0d6e 48be
000000d0: 93e7 febd 048e afbd 00b2 c6bd 848f abbd
000000e0: 0c35 d13d 2ed8 a33d 9495 09be 184d d2bd
000000f0: fdb6 b1bd 3bb9 d8bd 36e3 b93d 30d9 103e
00000100: 5f6e 05be 6bed 9c3d ab07 3b3d a3b6 c0bd
00000110: 4a03 863d e37c a83d 3bc2 14be dc13 973d
00000120: d107 b6bd 9d03 17be 3d57 f5bd 2f67 9ebd
00000130: 6917 e13d 6bad 24be 7403 93bd 64c3 20be
00000140: 4bfc 99bd e06e b43d 3aa9 3c3e 959e d9bd
00000150: 686b cd3d fb91 b23d ce04 63bd eed2 cf3d
00000160: aaa6 8bbd aa6d cdbd 5e33 0dbe f8f0 87bd
00000170: 5479 033e 6cbb ca3d c9f1 98bd 8741 bebd
00000180: 5f54 b73d 314c 92bd 4226 c93d 2659 02be
00000190: c423 c43d c70d 823d 7ad5 d63d b78b a3bd
000001a0: 62f2 c0bd bb47 97bd e0ed 71bd 613a ebbd
000001b0: d6dc 323e 6ef5 e6bd a0a1 953d e0d2 a43d
000001c0: 1bf1 753d c3f2 adbd 65dd 043e db88 ec3d
000001d0: fd81 b13d 73d9 853d ed1c d53d 9a23 f53d
000001e0: 0c6c 58bd 259a fbbc d5f1 963d 61d6 ef3d
000001f0: 6d4a 023e b8e1 dd3d 9095 f3bd 7c89 14be
00000200: 1a24 0c3e 841a 50bd 7cc9 abbd a361 9e3d
00000210: eea3 debd 83fd c5bd e5b1 ab3d 882d 03be
00000220: 6560 c13d 656c 9f3d b044 973d 1b9a 8e3d
00000230: 11bb aabd d0f4 da3d 58fc d13d fe0a 083e
00000240: f585 de3d 2101 84bd 3d65 21be 3d51 e83d
00000250: 791c babd 508f e7bd 4ed8 4e3d 2aea bbbd
00000260: 4271 ce3d 272d b43d 4fd1 d83d c0a7 e53d
00000270: 4151 0cbe 686c 04be a971 113e 1b2f d93d
00000280: 3e55 bdbd b697 093e c245 abbd 61f0 f93d
00000290: 52db bbbd ba73 b4bd f00d 00be 0f04 e73c
000002a0: b11f 333d 7f5e f03d 4166 ba3d e8fc e13d
000002b0: dbfa 4cbe 55eb 5e3d 1cad f3bd 9593 52bd
000002c0: d4a6 7bbd 75c3 873d d251 e5bd 5171 22be
000002d0: a08d a5bd 4c45 05be 09ed 89bd 2d01 acbd
000002e0: 8f49 ec3d 8c55 843d d6db d3bd b6e5 bebd
000002f0: 8b16 d2bd e293 92bd 6d00 053e 1a76 1b3e
00000300: 0383 cfbd ca19 a63d 521e 873d 2f60 b3bd
00000310: 3492 073e 502a c03d 4821 b9bd dec1 ba3d
00000320: 2a2e 04be 362d 20be 7517 f0bd 0c94 ebbd
00000330: 1a18 cc3d c60c 1dbe d254 eebd 2be0 0ebe
00000340: 2a78 e5bd ca1a a13d c9dd 3c3e 94d6 ecbd
00000350: a56a f43d 8a70 953d fe1f 96bc 5e09 cf3d
00000360: 0911 ccbd 66e4 a4bd 8e67 03be a43f 25be
00000370: 20b6 363e 70f9 b03d 06fd 0dbe d4d8 a3bd
00000380: 9c21 cd3d 49de 0fbe 7773 023e 5f3f c5bd
00000390: 8144 093e be31 983d 6a07 1d3e 1e6e 7ebd
000003a0: 6584 4fbd d599 c0bd 23fb 6bbd ff2a 09be
000003b0: 922f 4d3e 2ff3 f2bd 1378 063e 1244 e73d
000003c0: ed88 bf3d f3ba aebd dd09 003e ce34 153e
000003d0: 5785 c03d 8705 e23d 819f a23d 3f3f c73d
000003e0: b984 e2bd c17e 92bd 9527 e13d b9d9 b53d
000003f0: 21c6 ae3d aab1 943d faa4 17be 4b22 36be
0.12612733 -0.106446855 -0.09713522 0.05619014 -0.057432763 -0.08307995 0.057203434 -0.087842435
0.10546095 0.12646474 0.0718851 0.08690434 -0.08272152 0.114158474 0.11791557 0.10805297
0.093595915 -0.07706166 -0.14681825 0.06510477 -0.079452045 -0.11549044 0.07431185 -0.10546286
0.06729823 0.062397707 0.15972267 0.108647674 -0.12119299 -0.10037233 0.11007924 0.09326756
-0.06834903 0.13904503 -0.06918443 0.12307945 -0.113301255 -0.06866136 -0.11704578 0.04759922
0.04246522 0.112642236 0.10792293 0.11427061 -0.19146314 0.055564944 -0.08333229 -0.116974816
-0.06626779 0.06927023 -0.13983214 -0.19573231 -0.12446513 -0.08572009 -0.097019196 -0.08376983
0.10215196 0.080002174 -0.13435966 -0.10268611 -0.0867748 -0.10582205 0.0907654 0.1414535
-0.13030384 0.076624714 0.04566161 -0.09409835 0.06543596 0.08226945 -0.14527218 0.07376835
-0.088882096 -0.14747472 -0.1197953 -0.077345245 0.10990793 -0.16081779 -0.07178393 -0.15699536
-0.07518824 0.0881021 0.1842393 -0.1062595 0.10030252 0.0871925 -0.055424504 0.101476535
-0.06818898 -0.100306824 -0.13789126 -0.06637758 0.12839252 0.09899029 -0.07467992 -0.09289842
0.089516394 -0.071434386 0.0982175 -0.1272932 0.09577134 0.06350284 0.10489936 -0.07985633
-0.09421231 -0.073867284 -0.059064746 -0.11485744 0.17467055 -0.11277281 0.07306218 0.08048034
0.06004439 -0.08493569 0.1297508 0.115495406 0.086673714 0.06535616 0.10405908 0.11969681
-0.052837417 -0.03071315 0.073703445 0.117108114 0.12723704 0.10834068 -0.11893761 -0.14505571
0.13685647 -0.050806537 -0.083880395 0.077334665 -0.10871111 -0.09667494 0.0838354 -0.12810338
0.09442214 0.077843465 0.07386148 0.06962987 -0.08336461 0.106912255 0.10253209 0.13285443
0.10865394 -0.06445528 -0.15761276 0.1134362 -0.09087462 -0.113066316 0.050499253 -0.091755226
0.10080196 0.087976746 0.105867974 0.112136364 -0.13702871 -0.12931979 0.14203514 0.10604688
-0.09244774 0.1343678 -0.083629146 0.12204052 -0.091726914 -0.088111356 -0.12505317 0.028200177
0.043731395 0.11736774 0.09101535 0.11034566 -0.20017569 0.05442365 -0.11898252 -0.051410276
-0.061438397 0.06629077 -0.111972466 -0.1586354 -0.080836535 -0.13014716 -0.06734664 -0.08398662
0.11537468 0.06461629 -0.10344665 -0.09321158 -0.10258206 -0.07157113 0.12988444 0.15181771
-0.101324104 0.081103876 0.0659758 -0.0875858 0.13239366 0.093830705 -0.09039551 0.091190085
-0.12908235 -0.15642247 -0.11723224 -0.11502847 0.099655345 -0.15336904 -0.11637272 -0.13952701
-0.1120456 0.07866438 0.1844398 -0.11564365 0.11934403 0.07296856 -0.018325802 0.101092085
-0.09964187 -0.08051376 -0.12832472 -0.16137558 0.17842913 0.086413264 -0.13866052 -0.08000341
0.10016176 -0.14049639 0.12739359 -0.09631228 0.13405038 0.074313626 0.1533486 -0.062116735
-0.05066337 -0.09404341 -0.05761255 -0.13395308 0.20037678 -0.1186279 0.13131742 0.1129228
0.093522884 -0.085317515 0.12503763 0.14570925 0.094004326 0.110362105 0.07940579 0.0972886
-0.11060471 -0.07153083 0.10993878 0.08879418 0.08533884 0.07260449 -0.14809027 -0.17786519

local_mlp.2.bias f4 [256]
00000000: 6dea 2bbc 425a 573c c61c 1fbc bb84 8f3c
00000010: 6284 a23c f184 7d3c a8fb 6a3c cf97 2bbc
00000020: 2712 46bc 8ae2 a23c 1c06 25bc 5833 1abc
00000030: 6f1d 913c 185b 48bb 8e3c 2cbc a773 223c
00000040: 3434 49bb 88bf de3a 1184 433c e064 fe3b
00000050: 0b0b f8bb 029e 183c d10f 3bbb 61de 303c
00000060: 8724 0d3c 0163 14bc b65e 5ebc 4aa5 773c
00000070: 6aaf 63bb 957b 4a3c a0cc 4cbc 5612 643c
00000080: b1a7 703c 4b6e 683c 2f8d 7e3c 7a27 363c
00000090: 8622 42bc b2bc 15bc 55ac 2a3c 55c8 a53c
000000a0: 4fbc f2bb f610 583c 4dae 423c 6e92 693c
000000b0: 8438 983c ba97 873b a5fc 903c 2ee8 71ba
000000c0: 0856 1b3c 0f01 1c3c ca8a 7dbc 978f 5c3c
000000d0: d739 7c3b b6df 03bc 3b5a 40bb 7c52 603c
000000e0: 3fcd 0ebc 4a59 053c 3dd1 8d3c f475 993b
000000f0: 0388 193b 1b7e 4f3c b3d2 ef3b c5d8 f8ba
00000100: f642 7b3c f465 c13c 565b 273c 5cea 373c
00000110: ba75 2dbc ef77 cdbb 90af a23c 0af2 cdbb
00000120: 1e8c 67bc 4714 6cbc d545 81bc 243d 51bb
00000130: aa76 ebbb 082f 5ebc 8b83 82bc 75b4 bf3b
00000140: d20d a63c 5842 4fbc 160c 833c 06bf 21bc
00000150: ae97 3d3b db40 b93c 0d7a 61bb cbc6 1d3a
00000160: 82a9 44bc 982c 683c e12f 7f3c cfb9 95bc
00000170: 582c e23b 3ecc 683c 092e 933c 53f8 4a3a
00000180: ebc5 f63b 0820 3cbc 211b 4e3c d12f 923c
00000190: 0e58 a3bb f422 4f3c 2167 4f3c dc71 273c
000001a0: 4354 413c c9d2 823c 2364 8dbc bd8e e93b
000001b0: 714a 793c 7059 22bc 3fb2 43bc 86f6 663c
000001c0: db24 2fbc 1eb3 453c 6c3f 26bc 67dc 18bc
000001d0: c381 653c 2fa5 103c e840 733c e361 76bc
000001e0: 4cd4 143c 69f3 00bc 67a3 413c 5e7f 3dbc
000001f0: 3196 6c3c 15a2 ef3b e4b0 4a3c 3b5d 413c
00000200: 1678 b5bb 5c53 3e3c 5143 4fbc 95bf f3bb
00000210: 60f7 3f3c dcbd 35bc 4f0d 7a3c d466 34bc
00000220: 5b1f 8c3c 7dea 0fbc ae52 613c 5743 6fbb
00000230: 1a48 e5bb 7d3b 25bb 5678 e1bb 9025 a53b
00000240: 3dbe 0b3c b204 6fbc 0113 e1bb 872d 2a3a
00000250: ed81 fd3b d826 6e3c 5a52 eebb 134f 2d3c
00000260: 71f7 053c af73 f83b 183a 663b 9e29 8b3b
00000270: 9896 663c d481 ad3c f939 e738 9cbe a43c
00000280: 334f ae3c e920 d8bb 407b 513c 8d11 5f3c
00000290: bf0d 7a3c f964 5a3c cfa2 1fbb 9368 5ebc
000002a0: c294 233c 85ae 6d3c 7a29 a13c 72b5 823c
000002b0: adc1 503c 8991 af3b ae99 41bc aff5 8a3c
000002c0: 5395 4c3c 295f d5bb b86c 68bc be1a 9e3c
000002d0: 1207 093c 90a9 453c 7543 1bbc 7004 583c
000002e0: 6758 563c b8a7 3fbc 35b7 4e3c e9b0 e2bb
000002f0: e25e 53bc c207 973c 2ac2 4d3c 45d2 553b
00000300: 2b86 583b 26dd 68bc 40a4 6eba b862 07bc
00000310: b57e 433c 9adb 1e3c d049 d8bb 4586 193c
00000320: 76cd 883c 4582 453c dba8 8abc 8b4b 4fbc
00000330: b024 8d3c b6d2 3cbc 444e 7f3c 8675 6e3c
00000340: 70e4 8d3c 3b41 5c3c accb ebbb 338e 133c
00000350: fb0a 353b f139 3a3c 3677 7fba d73d ddbb
00000360: df69 753c 307a 803c 5494 a83b 57ea 8f3c
00000370: 6054 553c 2d4e 1f3c d68e 63bb d42e 9a3c
00000380: 73ea 1fbc 7a6a 163c 8a70 7bbc 7dec 16bc
00000390: bd3c 603c b77e 813c 07ed 9bbb e07f 963c
000003a0: 5815 633b 9a55 8e3c a8cd 8b3c 999a 12bc
000003b0: 4165 693c e99e e03b 4d28 893c 4b07 673c
000003c0: d914 17bc aa60 e93b e346 323c ce7f 0d3c
000003d0: 2b0e 5d3c 83f6 6b3c 1369 393c 5824 debb
000003e0: 940d aebb 67fd 413b 6c45 793c f1d1 4a3c
000003f0: acba 133c 64a5 7aba 1f36 07bc 03a3 bbbb
-0.010492903 0.013144078 -0.00971145 0.017519346 0.019838516 0.01547359 0.014342226 -0.010473206
-0.012089289 0.019883413 -0.010072257 -0.009411655 0.01771423 -0.0030571874 -0.010512484 0.009915269
-0.0030701282 0.0016994337 0.011933343 0.00776349 -0.007569676 0.009315016 -0.0028543363 0.010795207
0.008614666 -0.0090568075 -0.013572386 0.015115092 -0.0034742006 0.012358566 -0.012499958 0.013920387
0.014688418 0.014186452 0.0155365905 0.01111781 -0.011849051 -0.009139227 0.010417064 0.020237127
-0.007407702 0.013187638 0.011882377 0.014256103 0.018581636 0.0041379603 0.017698595 -0.0009228018
0.009480961 0.009521737 -0.015474984 0.013461969 0.0038486624 -0.008048942 -0.0029350657 0.013691541
-0.008715927 0.008138964 0.017311687 0.0046832506 0.0023427017 0.012664343 0.0073188185 -0.0018985501
0.015335789 0.023608185 0.010214647 0.011225309 -0.01058715 -0.0062704007 0.019859105 -0.006284957
-0.014132528 -0.014409131 -0.015780369 -0.0031927312 -0.0071857767 -0.013561018 -0.015931865 0.0058503696
0.020270262 -0.012650095 0.015996974 -0.009872204 0.002892952 0.022613933 -0.0034405023 0.0006018697
-0.012003304 0.014170788 0.01557538 -0.018277077 0.006902259 0.014208851 0.017966287 0.00077426917
0.007530918 -0.011482246 0.01257971 0.017845066 -0.004984862 0.012642611 0.012658865 0.010220017
0.011799875 0.01596965 -0.017259663 0.0071276114 0.015215502 -0.009909019 -0.011944353 0.014096862
-0.010689939 0.012066631 -0.010146957 -0.009329892 0.014007988 0.008828445 0.014847018 -0.015037986
0.009083819 -0.0078705335 0.011818743 -0.011566011 0.014440105 0.007313023 0.012371276 0.011802013
-0.005537997 0.011616554 -0.012650327 -0.00743861 0.011716694 -0.011092629 0.015261962 -0.011010844
0.017104795 -0.008783934 0.0137526225 -0.0036508644 -0.0069971206 -0.002521246 -0.0068808002 0.005039878
0.008529243 -0.014588522 -0.0068687205 0.00064917695 0.0077364356 0.014535628 -0.0072730007 0.010577935
0.00817667 0.00758215 0.0035129841 0.0042469045 0.01407399 0.021180071 0.000110257366 0.02011042
0.021278 -0.00659572 0.012785733 0.013615024 0.015262066 0.013329738 -0.0024358516 -0.013574737
0.009984197 0.014506941 0.019673098 0.01595566 0.012741488 0.0053579253 -0.011816425 0.016962854
0.012486774 -0.006511588 -0.014186077 0.019299861 0.008363502 0.012064353 -0.009476532 0.013184652
0.0130826 -0.011697702 0.012616922 -0.006918062 -0.01290104 0.018436316 0.012558499 0.003262655
0.0033038955 -0.014212882 -0.00091034546 -0.0082632825 0.011932065 0.009695912 -0.006600596 0.009370391
0.016699534 0.012054984 -0.01692622 -0.012652288 0.017229408 -0.011524847 0.015582625 0.014554387
0.017320842 0.0134432865 -0.0071959104 0.009006071 0.0027624953 0.011366353 -0.0009745242 -0.0067517566
0.014978855 0.015683264 0.005144635 0.017567797 0.013020605 0.009723228 -0.0034722588 0.018821158
-0.009760487 0.009180659 -0.015346656 -0.009211657 0.013686356 0.015807493 -0.0047584805 0.018371522
0.0034650173 0.017374802 0.017065838 -0.008947992 0.014245332 0.006854881 0.01674285 0.01410086
-0.009221279 0.007122119 0.0108811585 0.008636428 0.013492147 0.014402035 0.011316556 -0.006779235
-0.005311677 0.0029600502 0.015214305 0.0123791555 0.009016674 -0.0009561388 -0.00825265 -0.0057262196

output_mlp.0.weight f4 [128, 512]
00000000: b815 653d d65f 55bd 1c9a 993c 830f 05bd
00000010: df3a bcbc 2db9 1dbd b745 60bd 3042 9d3d
00000020: 81fd 1c3d e4f9 2aba 920c 573d 3e78 2f3d
00000030: 394c 73bc 86ff 0c3d 7749 9e3c f3cd b1bc
00000040: 346b 843c 1125 1bba cb1c 8dbd e104 d9bc
00000050: 7db6 433d af15 75bc a8d7 a53c 2031 09bd
00000060: e332 7bbc 2dab 6b3c d0f0 083c fb5d 37bd
00000070: dcb1 043d eb56 5dbc 3e8f 283d 51f8 33bd
00000080: e4ed d2bc 699e 79bc d352 053c ae72 34bd
00000090: 97b8 8c3d f797 153d 7766 24bc 5ea1 91bb
000000a0: f904 113c 1d9b 92bd 91d1 12bd 1b74 2fbd
000000b0: a527 1f3c 3778 7bbd 85d1 39bc efbc b93c
000000c0: 4691 853c 76fe 23bd 3daf 773d 8b52 34bd
000000d0: 409e 97bc 9ef8 593d 4e98 2b3d 5e7b c6bc
000000e0: 2ef0 143d b561 95bc 5d93 85bd 5ce9 40bc
000000f0: d508 03bb bb47 c2bc b984 12bc 3ca1 fa3c
00000100: b3ae 16bd 66ad d13c d0d5 2ebd 17a1 29bd
00000110: 0ca0 033d 9952 1d3d 0856 25bd 8e8a efbb
00000120: fe45 8d3d cfc0 ac3d 14d2 f93c 4293 debc
00000130: 5e64 293d 332e 933d f95b 643d c10c 91bc
00000140: 947a abbc 2e62 3d3d 17cc f4bc 438e b03c
00000150: 01eb 513c 04fc dbbc db05 533c 82cb 57bc
00000160: fef4 413d 4115 0bbd 7171 62bc 99c5 473d
00000170: a9c9 513c cac0 71bd e0d1 4bbd 9a27 ac3c
00000180: 46b9 85bb bada 843a f50c 2b3c 1db2 dabc
00000190: 297e 573d d24a 56bd 804b 08bd 2b45 82bd
000001a0: 6b84 5cbc eaab 00bd 0610 c33c 1a28 c23b
000001b0: e69e 3aba 4d5c 1c3d ddac 3f3d 77aa 7ebd
000001c0: ba25 473d 1150 23bd 3e5d 3b3d 2e78 403d
000001d0: 5631 dabc 7143 a0bc 20d3 89bc 7680 243d
000001e0: e9e5 86bc e46c a4bb 9d06 42bd ae5d 803d
000001f0: 54b9 4fbd 2a0b af3b 6e15 26bd ca4c 1cbd
00000200: 289e 8a3c 4bad 31bd f37f 173d a74a a63c
00000210: a904 66bd 7fbb da3c 70b2 51bd d7a3 8a3d
00000220: 2f6d f2bc 91a3 473d a624 87bd db8d 243d
00000230: e3d4 ea3c de6b 733c bdc6 1f3d f09f 03bc
00000240: 516b 31bd 404b bc3b 78db 753c e26e 483d
00000250: 3f15 40bd 9a94 3dbc 826c 083c 2227 b8bc
00000260: fa79 c33c 6d4a 60bc 6998 19bd ba03 00bd
00000270: 48ad 7dbd b6ae 95bd acce d13c 2027 dcbc
00000280: 486f f3bc 28d2 09bc 84e2 f4bc e82d 0bbd
00000290: 1c85 1bbd 1cf5 86bd 558e df3c 2d72 d43c
000002a0: f48d bebb efe5 21bd 873f 74bd d3dc a53b
000002b0: efed 84bd 40ac 72bd 5d48 433d aea3 88bd
000002c0: 3e4b 7dbd 3c42 2c3d d92d ba3b 5778 5abd
000002d0: 9750 8abd a9d5 3abd f947 393d 532b fbbc
000002e0: be3d 1ebd 7455 613d 5850 64bd a619 543c
000002f0: 8ef0 303d 397e 25bd 77ba 41bd 1326 8bbd
00000300: 5f04 d53b 27d9 1d3d 5ce2 e0bc a114 283d
00000310: 6da6 36bd 3f9d 3fbd c728 aa3c f3e3 6dbd
00000320: ab27 86bd 0ae2 07bd 049c 283d fc89 093d
00000330: a963 1b3c a9ac 163d 8bf4 43bd 3a6c 1cbd
00000340: ac46 0bbd bbf5 2cbd 78d3 693d e781 84bc
00000350: 15e7 fdbc bdcb 8cbd f612 983c 90f9 193d
00000360: 6515 463c 9ac9 ecbc bd77 a83b 44f5 70bd
00000370: afac 30bd d1b0 a7bc 26af d83b f743 85bd
00000380: f01b c83c b10f adbc fdc0 31bd 7052 dd3c
00000390: abce 5fbd bfff 57bd 4f83 433d 37c9 15bd
000003a0: 18e2 3f3c 12a8 8bbd 8035 84bc 3a71 b23d
000003b0: bd22 39bd f6a4 15bd abda 1abd 1740 30bd
000003c0: c56c d83b ff07 bebc 27e0 70bd b3c9 7abc
000003d0: 6dc2 cdbc 2413 88bc 2b93 9abd bd4e 9d3d
000003e0: 4bb5 0d3d 4d78 17bd e59a fdbc 821f 84bd
000003f0: e644 15bc a985 52bd 10ce 823c 8a9e 833d
0.055928916 -0.05209335 0.018750243 -0.032485496 -0.02297729 -0.038506676 -0.054753985 0.0767864
0.038327698 -0.0006522222 0.052502222 0.04283928 -0.014849716 0.034423374 0.01932214 -0.02170465
0.0161644 -0.0005918304 -0.068902574 -0.026491584 0.047781456 -0.014958783 0.020244434 -0.033494115
-0.015331957 0.014384073 0.008358195 -0.04476736 0.032396182 -0.013509492 0.04115223 -0.043937985
-0.0257482 -0.015235522 0.008137423 -0.04405468 0.06871145 0.036521878 -0.010034195 -0.0044442853
0.008851283 -0.07158492 -0.03584439 -0.042835336 0.009714042 -0.061393943 -0.011341457 0.022673098
0.016304623 -0.040037595 0.060469855 -0.04402403 -0.018508077 0.053215615 0.041893296 -0.024228748
0.036361866 -0.018235067 -0.06522248 -0.011774387 -0.0019994278 -0.023715844 -0.008942776 0.03059446
-0.0367877 0.025595378 -0.042684376 -0.041413393 0.032135054 0.03840885 -0.04036525 -0.007310218
0.068981156 0.08435213 0.03049568 -0.027169827 0.041355483 0.07186546 0.055751774 -0.017706277
-0.020932473 0.04623621 -0.029882474 0.02155221 0.012812377 -0.026853569 0.012879814 -0.013171079
0.047352783 -0.033955816 -0.013820992 0.04877243 0.012804427 -0.05902175 -0.0497607 0.021014977
-0.004080924 0.0010135986 0.010440101 -0.02669626 0.05261055 -0.052317448 -0.033275127 -0.06360849
-0.013459305 -0.03141395 0.023811352 0.0059251906 -0.00071190146 0.038173962 0.046795715 -0.062174287
0.048619963 -0.03987128 0.04574322 0.046989612 -0.026634853 -0.019563409 -0.016824305 0.040161572
-0.016467052 -0.0050178636 -0.04736959 0.06267868 -0.050713852 0.005341907 -0.04054778 -0.03815917
0.016921118 -0.043378156 0.036987256 0.020299269 -0.056156788 0.026700733 -0.051195562 0.06769531
-0.029593078 0.048739973 -0.06598787 0.040174346 0.028665965 0.0148572605 0.03900789 -0.008033738
-0.043315236 0.005746275 0.015005939 0.04893387 -0.04689526 -0.011571074 0.0083266515 -0.022479597
0.023861874 -0.0136896195 -0.037498865 -0.031253554 -0.061932832 -0.07308714 0.025611244 -0.026874125
-0.029716149 -0.008411922 -0.029893167 -0.033979326 -0.03796874 -0.0658972 0.027289549 0.02593335
-0.005815262 -0.039525922 -0.059630897 0.0050617247 -0.06490695 -0.0592463 0.047676433 -0.066718444
-0.061839335 0.042055354 0.005681735 -0.05333742 -0.067536525 -0.04561392 0.045234654 -0.030660307
-0.0386331 0.055013135 -0.055740684 0.012945568 0.04319816 -0.04040358 -0.047296967 -0.067943715
0.006500765 0.03853717 -0.027451687 0.0410353 -0.04459231 -0.04678082 0.020771397 -0.058078717
-0.06550535 -0.033174552 0.041164413 0.033578858 0.00948421 0.036785755 -0.047840636 -0.03818915
-0.034002945 -0.042226534 0.057086438 -0.016175224 -0.030993978 -0.068747975 0.018563729 0.037591517
0.012090062 -0.028904725 0.005141227 -0.058827654 -0.043133434 -0.020470055 0.006612676 -0.06507104
0.024427384 -0.021125646 -0.04339694 0.027016848 -0.054640453 -0.052734133 0.047732648 -0.036568847
0.01171162 -0.06819166 -0.016138792 0.087130025 -0.045199145 -0.036534272 -0.037806194 -0.04302987
0.006604763 -0.023197172 -0.05880752 -0.015306878 -0.025117123 -0.01661069 -0.07547601 0.07681034
0.034596723 -0.036979962 -0.030957649 -0.06451322 -0.009110665 -0.051397 0.015967399 0.06426723

output_mlp.0.bias f4 [128]
00000000: 3467 44bd 5eaf 1dbd 1e8a f2ba 277b 883d
00000010: f924 aabb 1dcf 0fbd 533b 23bd b8e2 673d
00000020: 7828 32bd 3fb6 9f3d c683 2e3d 5f4d 32bd
00000030: 685e 34bd 8e74 65bb a481 16bd 3827 8b3d
00000040: 3f03 47bd 2af3 5f3b 3bfa f5bc 3ab3 113d
00000050: c8fd 203a 9552 a3ba 7367 a33d af78 f03a
00000060: 19cd ebbc e7f0 35bd 57cd 14bd c011 1abd
00000070: 30c8 27bd d059 bd3d 3266 fe3d fb0a 15bd
00000080: 5837 0bb9 7922 c0bc 9acf ee39 6c19 cabc
00000090: 2d4e 26bd b954 04bd 2dbb 6238 1eb5 23bd
000000a0: fb57 2dbd 8613 43bd 0cf6 18bd d124 ce3c
000000b0: adf8 ba3b f6d0 d33d 6182 63b9 eef2 0cbd
000000c0: d8b0 313c f0c0 773a 9e00 593d 07b5 3c3d
000000d0: c3d0 b93c 7df9 93bc 65ef 9bbc 906f 36bd
000000e0: 4747 763d 90aa ba3d ff62 dcbb 95b1 7638
000000f0: 708a 433c 5eb8 19bd bf51 903d 6e40 3cbd
00000100: 744f 1bbc 0d43 c1bc 1aae ea3d 9fe6 58ba
00000110: 08b6 8b3d 8b54 583a e9ba 7d3b b4d8 27bd
00000120: e44e c13d a263 863b f180 6b3b cc8d ee3d
00000130: 62d6 7d3c 5e94 b4bc ba52 19bb 45bd bc3d
00000140: 47b7 2fbd c14a cdbc 4127 38bd 5d7e c836
00000150: 42ed 5a3d 1a0a 48bd e327 903b c2c6 14bd
00000160: 43e7 2fbd 9388 5abb db3a 32bd 5355 45bd
00000170: 40f3 25bd 7792 06bd fbfb afbc 204a f9bc
00000180: a476 2abd dde6 023e 916e 01bd f964 813d
00000190: 6a41 ffbc dbf0 23bd fcba 2cbd 1bb6 95bb
000001a0: 1efa 29bd be1d 7b3b 6896 b13b b882 a93c
000001b0: e8a6 bfbc e06a 123e 3ef4 b53c 34b5 cd3d
000001c0: 19bd 2fbd 4762 8539 3a04 24bd 1509 dd3b
000001d0: 9796 4bbd 7f62 07bd 145b c93b 0293 673c
000001e0: 4f7d 573c 58be 10bd abf0 29bd 55ea 3abd
000001f0: e02a 853c 6a4e 9b3c 8839 c63b d7ee 843c
-0.047949985 -0.03849732 -0.0018504297 0.066641144 -0.0051923958 -0.035109628 -0.039851498 0.0566127
-0.043495625 0.077984326 0.042606138 -0.043530818 -0.044035345 -0.00350121 -0.03674473 0.0679459
-0.04858708 0.0034172037 -0.030026546 0.035571314 0.0006141332 -0.0012460524 0.07978716 0.0018346513
-0.028784322 -0.044419196 -0.03632864 -0.037614584 -0.040962398 0.09245646 0.12421836 -0.036387425
-0.0001327669 -0.023453938 0.00045549573 -0.024670325 -0.040601898 -0.03230736 5.405692e-05 -0.03996765
-0.042320233 -0.04762604 -0.037344024 0.02516404 0.005705914 0.103425905 -0.00021696977 -0.034411363
0.0108453855 0.0009451052 0.052979104 0.04607108 0.022682553 -0.018063301 -0.01903505 -0.044539988
0.06012657 0.091145635 -0.0067256684 5.8816357e-05 0.011934862 -0.037529342 0.07046842 -0.045959882
-0.009479392 -0.023591543 0.114589885 -0.00082741113 0.06821829 0.0008252344 0.0038716143 -0.04097815
0.09438875 0.0041012326 0.003593501 0.11648139 0.015493007 -0.022043403 -0.0023395256 0.09215788
-0.042899396 -0.02506006 -0.04495931 5.975175e-06 0.053448923 -0.04883776 0.004399286 -0.036322363
-0.042945158 -0.0033345565 -0.04351316 -0.048177075 -0.040515184 -0.032854524 -0.021482458 -0.030430853
-0.04161705 0.1278338 -0.031599585 0.06318087 -0.031159122 -0.04002462 -0.04217051 -0.004568828
-0.041498296 0.0038317288 0.005419541 0.020692214 -0.023395017 0.14298582 0.02221119 0.100443274
-0.042904947 0.0002544096 -0.040043093 0.0067454674 -0.04970416 -0.033052918 0.0061448906 0.0141341705
0.0131524345 -0.035337776 -0.041489284 -0.045633633 0.016255796 0.01895829 0.0060493387 0.016227169

output_mlp.2.weight f4 [9, 128]
00000000: 7708 523d 51ae ca3c 480c 55bd fede 45bd
00000010: 9d91 86bd 739b dc3c 20f6 943c c397 8cbd
00000020: 33aa ce3c fd23 52bd f906 abbd dae4 cd3c
00000030: b944 bf3c c4b6 d1bb a75d fd3b 1e35 4fbd
00000040: 7109 fb3c 9247 6bbd 876e 5d3d 0d3f 43bd
00000050: 964a c5bc 2d0e 8cbc 002d 02bd af92 23bd
00000060: 281a 1e3d 0413 f73c f150 3d3d 94b3 803d
00000070: 39c4 5d3b 23eb 45bd 219b 85bd afda 543c
00000080: d468 6fbd 396e a73c 4794 8ebd b44c 293d
00000090: 2879 173c 3d4b 2d3d 9faa 2fbd 7e6d 073d
000000a0: e1e2 f13c d964 123d 2278 ef3c 2301 3cbd
000000b0: e96f 9ebc e0a7 20bd 150b 42bc 3c95 fdbb
000000c0: 6eb5 abbc 683f 7bbc ddaf 31bc 53e8 17bd
000000d0: 459f 41bd a696 123c d8e4 633d e8ca 9e3c
000000e0: 6224 c8bc 6820 89bd 4311 2d3c d379 20bc
000000f0: 9e82 57bd b072 6e3c d93b 1abd c98e 8d3c
00000100: 4139 243d e262 cc3c 52f9 a7bd 4131 353c
00000110: 38b8 cdbc 2ff3 53bd 24b1 fbbc 23fb c63c
00000120: 7acc a3bd fc20 33bd 14d6 87bd d02c 7ebd
00000130: 28d3 0fbd cb38 793c 9909 47bd 4b98 14bd
00000140: 43d4 1b3c c7eb a33c f633 3fbc c926 3dbd
00000150: 956b 6fbd 0b48 1f3d 193a babb aafd 0a3d
00000160: 7968 d8bc 7046 6dbb fde8 d53c 09ba 663c
00000170: c731 973c afff 69bc 2f9b 2b3d 6630 763c
00000180: 1604 d33c 26c7 abbd 04d6 ac3c a548 1cbd
00000190: ef13 433d a6de 0e3d 86de 043d 2ed9 623c
000001a0: 7933 3b3d 0025 34bd a261 10bd 1217 11bd
000001b0: 25e1 fe3c 4654 a9bd db70 83bd 266f 10bd
000001c0: d2fa 293d 034c 0abd 5d15 083d b8a7 b6bc
000001d0: a00b 513c 93a5 3f3d 9a74 2dbd c10d afbc
000001e0: bbbf 0abd b135 db3c f927 063d bb8f 923c
000001f0: 89e2 aebc 0ea2 73bc 0447 41bd 07d1 7ebd
00000200: 7057 6c3d affb 05ba 10b4 17bd 8f6d a0bd
00000210: 2540 e0bc d480 103d 572d 253d b96f a6bc
00000220: fc9a 6f3c 6b7c 83bd edb5 c9bc 8fd4 bb3c
00000230: 7c66 8d3d df62 6abd 18d1 893d c0b0 f7bc
00000240: 965c 453c 5d99 d7bb eb37 2c3d a416 6cbd
00000250: 72ff 71bd 0b27 e9bc cf83 93bd 3eb2 a8bc
00000260: 7868 203d 0ddb 7d3b 96ad 313d b0ad 523d
00000270: ea1b 1a3d ddfc b0bd 801e a6bd 7d1b 5b3c
00000280: 6c22 75bd 1ae6 3c3d 9b99 39bd c859 ae3c
00000290: 681e 613d 1678 4d3d 68b3 38bd bf1d ccbb
000002a0: 0cf8 083d 3770 033d 731c 703c e32e 37bd
000002b0: 9688 d4bc 87b1 6ebd 9146 9ebc ae10 de3c
000002c0: 850f 21bd 7c0a a5bc d341 40bd 3620 63bd
000002d0: 4caf 36bd fd16 f13c 5ff9 253d 9bd6 233d
000002e0: ce26 31bd 7dd2 90bd e9e4 bb3c 8349 84bd
000002f0: 23e2 28bd f920 c53c cf73 f2bc 9558 953d
00000300: ed0b 0a3d 0bfc 4e3d ca5b 1dbd 66c9 8bbc
00000310: d903 56bd 09f5 62bd 889e 86bd 1095 0d3c
00000320: 59f1 3fbd 3202 20bd 8339 1bbd 898f babd
00000330: c1bc 17bd dccc 163d 47c7 86bc fa72 9fbd
00000340: da8a 3b3d 53fd 103d 1b52 ab3c 40d1 60bd
00000350: 6193 a8bd 337f 163d f8c0 f7bc 6bb2 293d
00000360: b0ea c43b e43d 5cbd 1cd4 f73c f9cd e03c
00000370: cbe5 c03c d93f 833d 5b6c 1b3d 833c af3d
00000380: 4963 733c a642 23bd 2401 d53c d7c5 64bd
00000390: d13a bc3c dff5 a93c 3e6f f03a d5c7 7cbc
000003a0: 8727 793d 9dd4 80bd f6fc 17bd 2d61 3abc
000003b0: c773 153d 40e6 3ebd 12ce b6bc 3548 afbd
000003c0: ae07 833d dd16 b6bd c2a2 4039 6ba6 eebc
000003d0: df1e f73c 4b68 a23c 6b18 7dbd 54f7 21bd
000003e0: 322d 73bc 2b92 ff3c eb32 253d 935d c4bb
000003f0: 8ef9 6ebd eb49 1bbd d776 3bbd e471 15bd
0.051277604 0.024741324 -0.052013665 -0.048308365 -0.06570742 0.026929593 0.018183768 -0.06864884
0.025227642 -0.051303852 -0.08350939 0.025133539 0.0233482 -0.006399961 0.0077321115 -0.050587766
0.03064415 -0.0574413 0.054060485 -0.04766755 -0.024083417 -0.017096603 -0.031781197 -0.03993481
0.038599163 0.030160435 0.04621977 0.06284252 0.0033838882 -0.048319947 -0.06523729 0.012991591
-0.05844958 0.0204383 -0.069618754 0.041332915 0.0092451945 0.04230808 -0.042887326 0.033063404
0.02952713 0.035740707 0.029232088 -0.04589952 -0.019340472 -0.039222598 -0.0118434625 -0.0077387374
-0.020960536 -0.015334941 -0.010845152 -0.037086796 -0.047271032 0.00894705 0.055638164 0.019383863
-0.024431411 -0.06695634 0.010563198 -0.00979467 -0.0526148 0.014553711 -0.03765473 0.01728
0.040093664 0.024949495 -0.08201851 0.011059106 -0.025112256 -0.05174559 -0.030724116 0.024289673
-0.07997985 -0.04373263 -0.06632629 -0.062054455 -0.035113484 0.015211294 -0.048593137 -0.03627805
0.009511056 0.020009888 -0.011670103 -0.046179567 -0.058452208 0.038887065 -0.0056831953 0.03393332
-0.026417004 -0.0036205314 0.026112074 0.01408244 0.018456353 -0.014282151 0.04189604 0.0150261875
0.025758784 -0.08387594 0.021098144 -0.038155217 0.047626432 0.034880303 0.032438777 0.013845725
0.045703385 -0.0439806 -0.03524936 -0.035422392 0.031113217 -0.08268027 -0.0641801 -0.03526225
0.041498967 -0.033763897 0.0332235 -0.022296771 0.012759119 0.046788763 -0.042347528 -0.021368863
-0.033874255 0.026759 0.032752965 0.017890802 -0.021348255 -0.01487018 -0.047186866 -0.062211063
0.057700574 -0.0005111051 -0.037036955 -0.07833397 -0.027374336 0.03527911 0.040326443 -0.020316945
0.0146243535 -0.06420215 -0.024622882 0.022928504 0.06904313 -0.057223197 0.067293346 -0.030235648
0.012046 -0.0065795616 0.042045515 -0.05763878 -0.059081502 -0.028461 -0.07202875 -0.020592805
0.03916213 0.00387353 0.043378435 0.051435173 0.037624277 -0.0864198 -0.08111286 0.013373253
-0.05984728 0.04611788 -0.045312505 0.021283045 0.05496064 0.05016335 -0.04509297 -0.006229132
0.03343968 0.03208944 0.01465522 -0.04472245 -0.025944036 -0.058274772 -0.019320758 0.027107563
-0.03932144 -0.0201466 -0.046937775 -0.05545064 -0.04460077 0.029429907 0.040521022 0.039999586
-0.043249898 -0.070713975 0.022936301 -0.06459334 -0.041231286 0.024063574 -0.029596237 0.07292286
0.03370278 0.050533336 -0.038417615 -0.017063808 -0.052249763 -0.055409465 -0.06573206 0.008641496
-0.046861026 -0.039064594 -0.037896644 -0.091094084 -0.037045244 0.036816463 -0.016452445 -0.07785602
0.045786716 0.03539784 0.020913174 -0.054887056 -0.08231235 0.0367424 -0.030243382 0.04142992
0.0060094222 -0.05376996 0.030252509 0.027441965 0.023547074 0.06408662 0.037945133 0.085564636
0.014855214 -0.039858483 0.02600152 -0.055852737 0.022977265 0.020747123 0.00183437 -0.015428503
0.06082871 -0.06290553 -0.037106477 -0.011375708 0.036487367 -0.046606302 -0.022315059 -0.08558694
0.06397949 -0.088910796 0.00018371179 -0.029132089 0.030166088 0.019825121 -0.061790865 -0.03954251
-0.014842318 0.031197628 0.040331762 -0.0059926 -0.058343463 -0.03791229 -0.04576763 -0.036485568

output_mlp.2.bias f4 [9]
00000000: 3188 17bd 8eec 19bd e7d9 05bd 8df3 f63d
00000010: 0453 42bc 080c 04bd 9e06 08bd b11e 08bd
00000020: 6778 63ba
-0.036995117 -0.03757911 -0.03267851 0.120581724 -0.011860613 -0.032238036 -0.033209436 -0.033232395
-0.0008677304
