log/segmentation/pn/laptop/full/pn_100.pth (torch, 337359 bytes, 8 tensors)

local_mlp.0.weight f4 [64, 3]
000000 ef 28 3c 3e 16 8b e6 be 9a 4d 1b 3f 60 d0 ac 3c
       0.1837499 -0.4502799 0.60665286 0.021095455
000010 e4 1e 91 bc 39 22 12 3d 31 dd cd 3f b6 fe 5d 3f
       -0.017714925 0.03567717 1.6083127 0.86716783
000020 67 c1 42 bf 4e 11 5c 3e 60 0b 9d 3d 0d 58 f7 bf
       -0.7607636 0.21490976 0.07668185 -1.9323746
000030 c3 f9 75 bf 6d 8c 0d 3f b3 f6 12 bd 50 d6 20 bf
       -0.9608423 0.552924 -0.035879802 -0.62827015
000040 2e 44 75 be ab fc e1 bf 72 b3 30 3e 14 cb 8e be
       -0.2395179 -1.7655233 0.17255953 -0.2788931
000050 7e 60 23 3e 8c bc bc bb 2a 9a 83 b9 67 65 88 bb
       0.15954778 -0.005759781 -0.00025101128 -0.0041624787
000060 11 a8 86 bb 46 7d 3e bb 90 35 40 3c db 84 68 bf
       -0.0041093905 -0.0029066368 0.01173152 -0.9082772
000070 a8 ab 7e bf 47 74 a4 bf 85 ea c3 bb 8c 4b 8a 3c
       -0.99480677 -1.2847985 -0.0059788846 0.016881727
000080 da 49 ce ba 25 22 d8 3d f7 62 80 bd da 9e 1e 3e
       -0.0015738562 0.105533876 -0.06268876 0.15490285
000090 7b d2 28 3e dc be 07 bf 85 92 43 3f 3e be 15 3b
       0.16486542 -0.53025603 0.76395446 0.002284899
0000a0 9d e5 97 bc 31 dc b5 3b 60 7e 22 bf 1b 07 86 3f
       -0.018542105 0.0055499305 -0.6347408 1.0470918
0000b0 f1 b3 89 bf 59 d4 ba bb ec 1a 09 3b 9a fa ac ba
       -1.0758039 -0.0057015833 0.0020920588 -0.0013197244
0000c0 80 f7 d5 bf 74 b5 56 bf e8 98 5f 3e 47 ae 79 c0
       -1.6716156 -0.83870625 0.21835673 -3.901262
0000d0 67 de 5b 3f f8 43 37 3e 15 83 15 3f e5 e6 0f 3e
       0.85886234 0.17897022 0.5840314 0.14052923
0000e0 b2 90 de bf 3c 55 21 3f ab a7 9e bf 42 93 a7 be
       -1.7387908 0.6302068 -1.2394918 -0.32729536
0000f0 2e 61 aa 3b 64 55 8b bc d4 d4 8d 3c 44 6f 33 3c
       0.005199573 -0.01700849 0.017313398 0.010951821
000100 38 d8 84 bc 2e e9 cf 3c 57 1c b3 bb d4 8b 34 bb
       -0.016216382 0.025379743 -0.005466025 -0.0027549164
000110 80 4c af ba 8b 53 44 bb ac 0f 1b ba 78 30 60 ba
       -0.0013374239 -0.0029957022 -0.0005915116 -0.0008552144
000120 83 6a 62 bb 9c fc 9a bb e6 bf a3 bb 4d 41 dd 3d
       -0.003454835 -0.0047298204 -0.0049972413 0.10803471
000130 bc 61 ab be 23 8f 0a 3f 9d a6 39 c0 d0 27 4b be
       -0.33473003 0.5412466 -2.9007943 -0.19839406
000140 43 7d ac 3e 83 bd eb bd 84 e6 27 bf 3a 8c 7f 3e
       0.33689317 -0.11510756 -0.65586114 0.24955836
000150 ac 40 32 be e4 48 2d 3f 9e 01 41 3f b9 76 b2 3d
       -0.17407483 0.6768935 0.7539309 0.08714051
000160 64 0f c4 bc 28 6c fe 3d bb 9e b8 3f 30 9c 2e bf
       -0.02393312 0.12422973 1.4423441 -0.68207073
000170 06 14 26 3c a5 2f d8 bf 44 c4 82 3e 57 dd e1 3d
       0.01013661 -1.688954 0.25540364 0.11028545
000180 44 4e 06 3e 39 1c 3a bf b4 fa 2a 3f ba 8d ec bb
       0.13115793 -0.72699314 0.6678879 -0.0072190436
000190 9c cb bb 3f 2a d4 b7 3e 73 2d eb 3c 6b 1b cc 3d
       1.4671512 0.35904056 0.028708195 0.09966167
0001a0 23 c4 f1 3e 12 c8 01 3d df f4 b6 bc ed 09 34 3d
       0.47219953 0.031684943 -0.02233356 0.04395478
0001b0 73 21 c4 3f e8 4e d4 bf 66 47 63 be 41 8c c1 3d
       1.5322708 -1.658658 -0.22195205 0.094505794
0001c0 73 07 be 3d c9 18 d5 3e 50 4e cb bd 72 99 c3 3d
       0.092787646 0.41620472 -0.09927046 0.09550752
0001d0 4d a4 f8 bf de 80 f7 3d bb 96 dd 3b 50 c1 84 3e
       -1.9425141 0.12085126 0.0067623532 0.25928736
0001e0 1f 2c 6d 3d 0d 1e 9c c0 b6 7d 05 3d 5f 0a 13 3e
       0.057903405 -4.8786683 0.03259059 0.14359425
0001f0 74 ec 5a bd 80 56 05 3e 3e 07 4c 3d 8c ca f0 bc
       -0.053448156 0.13021278 0.049811594 -0.029393457
000200 f2 d4 8f 3d 9b 66 c5 bb 62 18 87 bb 8e d9 26 3c
       0.07023038 -0.0060241944 -0.0041227797 0.010183705
000210 76 03 00 bb 71 85 0d bc 5a 58 67 bb c3 ad 06 3b
       -0.0019533313 -0.008637772 -0.0035300464 0.0020550347
000220 a4 20 86 3b 3d be f4 ba 9d 8f 02 3c b4 fd 8d 3c
       0.0040932465 -0.0018672418 0.00796881 0.01733289
000230 2c 71 57 bb c4 10 0f bd 08 b3 a0 3e 94 57 11 3f
       -0.0032873852 -0.0349281 0.3138659 0.5677426
000240 2c 20 55 be 0d 99 2a 3f 68 34 06 3f 4d 69 9c 3d
       -0.20813054 0.66639787 0.52423716 0.07637272
000250 89 82 0b be 3f 1c 23 3e b0 e8 8d bd 13 79 89 3e
       -0.13624014 0.15928744 -0.06929147 0.26850185
000260 aa 5c a5 3e e2 15 8f 3e 5d fb 3a 40 bf ff 84 3e
       0.3229726 0.27946383 2.921592 0.2597637
000270 ed 1d b8 ba 0e 2f cc ba 52 cd 64 bb d0 55 6a 3f
       -0.0014047005 -0.0015577988 -0.003491242 0.9153719
000280 8d 28 3f 3f 18 87 9c be db cf 68 3f cd 2a fb bf
       0.7467125 -0.30571818 0.9094216 -1.9622437
000290 78 16 f1 be 82 3c 0a be 5f 68 5a 3e 55 45 02 c0
       -0.47087455 -0.13499644 0.21328877 -2.0354817
0002a0 71 c1 8c bb 6f b1 e6 bb 56 de 3a 3c 12 a0 25 bf
       -0.004295521 -0.0070401947 0.011405548 -0.6469737
0002b0 16 c7 8c 3e 81 83 bf bd 38 eb 79 bb 7f 2c 42 bc
       0.2749564 -0.09351254 -0.0038134586 -0.011851429
0002c0 31 38 14 bb 2d 29 90 bf fa 1a 41 40 99 79 ee 3c
       -0.00226165 -1.1262566 3.0172715 0.029110717
0002d0 6f b2 9c bf 37 1c a5 bf 33 55 06 3f d5 26 30 3e
       -1.2241954 -1.2899235 0.52473754 0.17202313
0002e0 a5 b7 94 bd 5b ba d1 3e 95 3f 1a bb 38 ff 44 bc
       -0.0726159 0.4096249 -0.0023536433 -0.0120237395
0002f0 ca 4d 7f 3b de f9 f4 bf c7 66 28 3f bd 66 6e 3e
       0.0038956278 -1.9138753 0.65781826 0.23281379

local_mlp.0.bias f4 [64]
000000 0d 55 5f bf 5e c4 88 bd 3b 09 e6 3e 5a 32 eb 3f
       -0.8723915 -0.06678079 0.44928917 1.8374741
000010 1b 1e 15 3f c0 55 22 40 a8 a0 c2 be 3a 95 27 bb
       0.5824906 2.5364838 -0.38013196 -0.0025571124
000020 a3 68 02 bc ee 82 00 40 0d 32 ad 3a 62 97 94 be
       -0.007959518 2.0079913 0.0013213769 -0.29021746
000030 80 95 7a bf ed b7 71 bc a9 75 bb 3f 8c 89 1f ba
       -0.9788437 -0.014753324 1.4645282 -0.0006085865
000040 f3 0f c4 3e 1f 4e 6d 3f 90 0e d0 3f 1c b8 82 be
       0.38293418 0.9269733 1.6254444 -0.2553109
000050 96 89 02 bd 82 23 3f bd 05 21 b2 b9 5f 5c 60 ba
       -0.031869493 -0.046664722 -0.00033975407 -0.0008558686
000060 db 47 1d bc ca 04 47 bf 6b 15 90 3e 0c 1a da be
       -0.009599651 -0.7774168 0.2814134 -0.42597997
000070 a8 0e 48 bf 97 12 79 be 2c b8 18 bf 3a c5 0f 3f
       -0.78147364 -0.24323498 -0.59656024 0.5616032
000080 5f 4a 68 bf 72 aa b9 be 93 8e 23 bf dd e6 ab bd
       -0.9073848 -0.36262852 -0.63889426 -0.08393643
000090 c1 26 31 bf 4e 07 1f bf 0e fe 05 40 10 ca e5 be
       -0.6919976 -0.6212052 2.0936313 -0.44880724
0000a0 e3 26 8a bc 71 c2 8b be 48 0b 09 be 65 ca 85 bb
       -0.016864246 -0.27296785 -0.1338321 -0.004082965
0000b0 40 4b 95 bb 9e 0a b5 b9 fe ea 56 bb 36 f6 2f bf
       -0.0045560896 -0.0003453092 -0.0032793875 -0.68735063
0000c0 d9 33 ff be 07 d7 99 be f9 f5 c8 be 86 00 94 be
       -0.49844244 -0.30046865 -0.39250162 -0.2890665
0000d0 0f 16 e5 bb a1 98 81 be 93 10 a8 be 7b 3e 0d 40
       -0.006991155 -0.2531176 -0.32825145 2.2069385
0000e0 6e 84 44 bb 2d 7c f9 3e aa 95 c3 b8 f3 56 ca 3e
       -0.002998616 0.4872755 -9.326202e-05 0.39519462
0000f0 f3 fc 04 bf 74 2b 2c bf c4 26 12 bc 81 c0 24 3f
       -0.5194847 -0.67253804 -0.008920375 0.6435624

local_mlp.2.weight f4 [256, 64]
000000 ba 08 85 3d e6 55 61 bd e4 e6 30 3f 91 b5 5f 3e
       0.06495805 -0.05501356 0.6910231 0.21846606
000010 b9 9f 30 3e b3 94 33 bf c6 f4 2c be d2 b0 18 3d
       0.1724843 -0.7014877 -0.16890249 0.037278004
000020 57 56 90 3d db 01 f2 be 07 1e b4 3c f2 8b c5 3c
       0.07047718 -0.4726704 0.021986974 0.024114583
000030 62 2a 40 3d 68 34 43 bd 3f e5 49 3e 86 76 23 3c
       0.04691542 -0.0476574 0.19716357 0.009976989
000040 a9 ac ae 3f e9 90 08 3f 74 14 7f 3f 6a d4 34 bf
       1.3646442 0.53346115 0.99640584 -0.7063662
000050 1c 37 a1 bd 9a f9 23 bd ad b7 bb 3c a3 6a 15 3d
       -0.078718394 -0.04003296 0.022914732 0.03647865
000060 17 60 5c bd c8 28 ab 3d e0 3e 5b 3f 6a b2 27 3e
       -0.053802576 0.08357388 0.85642815 0.16376653
000070 20 51 88 bd 18 40 49 3e f5 61 37 3f e1 3f 57 3f
       -0.06656098 0.19653356 0.71633846 0.84081846
000080 4e da 2e 3d c9 a1 be 3e 3e 75 93 3c 54 ba 55 bd
       0.04268866 0.37232807 0.018000241 -0.05217965
000090 7e ca 0f bf f0 9b 71 3d 15 c8 44 be 8b af 05 3e
       -0.56168354 0.058986604 -0.1921695 0.13055246
0000a0 9d 71 22 bf 37 45 e9 3e 27 1d 86 3c 24 eb d0 bd
       -0.6345461 0.4556062 0.016371323 -0.102010995
0000b0 5c f6 40 3d da 77 60 3d ed b3 89 3d 1e c8 47 bd
       0.047109947 0.0548018 0.06723771 -0.04877483
0000c0 34 f1 25 be 8b d2 23 bd 1b fd fe 3c 1e 9b 33 3f
       -0.16205293 -0.03999571 0.03112655 0.70158565
0000d0 cc 7e d3 bc 63 c3 ba 3f 21 94 98 bf 98 e7 40 be
       -0.025817297 1.4590877 -1.1920205 -0.18838346
0000e0 e1 45 76 bd 41 dd be 3e 31 10 50 3c 5b d1 75 bf
       -0.060125235 0.37278178 0.012699173 -0.96022576
0000f0 c5 92 c6 3f 95 04 87 3e 9b 1e ae bd 54 a7 36 3f
       1.551354 0.26370683 -0.08501931 0.7134907
000100 ed 25 a9 be 97 81 3d 3e d1 00 48 bf bd 20 18 bf
       -0.33036748 0.18506466 -0.78126246 -0.59424955
000110 ca 34 a0 be 7f 71 4c bf 00 d8 97 3e bb 6b 3b bd
       -0.31290275 -0.7986068 0.29656982 -0.045757037
000120 1e 26 22 3d 80 c7 5f bf fa 80 a3 3d 14 65 92 3d
       0.039587133 -0.8741379 0.07983585 0.07148185
000130 34 17 da be 29 f4 e1 3d 06 98 a9 3f 9a 64 6b 3c
       -0.42595828 0.11032898 1.3249519 0.014367247
000140 1b 33 ae bf 43 e1 9a bf 77 f8 4d bf 96 da 31 3e
       -1.3609346 -1.2099994 -0.8045725 0.1736854
000150 b6 f9 02 3e cf 3a c4 3d 8b 9d c0 bb 37 2f 6b 3c
       0.1279057 0.09581529 -0.0058781556 0.014354519
000160 55 fb ac bc e9 2a ab be da c2 a0 bf 75 64 b1 be
       -0.021115938 -0.33431175 -1.2559464 -0.34646955
000170 96 3f 48 3d 48 42 c0 ba fa 27 52 bf df e4 ad bf
       0.048888765 -0.0014668191 -0.8209225 -1.3585471
000180 7d d9 d3 be a4 db 4d 3e d9 56 76 be 3e e9 45 3e
       -0.41376868 0.20103317 -0.24056567 0.19327256
000190 43 33 bf be 5c 0d 92 bd ae 35 17 bf c0 ef 29 3a
       -0.37343797 -0.07131454 -0.59066284 0.0006482564
0001a0 ea f3 b4 3e 8c 43 7b 3e c9 69 f9 3d ea cb 32 3e
       0.35342342 0.24537486 0.1217838 0.174606
0001b0 d1 26 51 bc e4 58 01 3d 03 37 87 3d 1f b9 84 bd
       -0.012765602 0.031578913 0.066022895 -0.064806215
0001c0 7f 38 a9 bc 5e c3 5f 3c 49 a1 36 3e a1 6b 41 3e
       -0.020656822 0.013657419 0.17834963 0.18888713
0001d0 c7 a3 6c 3a 6c b5 07 bf 0b b7 87 3e de f9 05 bf
       0.000902709 -0.530112 0.26506838 -0.5233439
0001e0 60 fe 83 3e 12 ed e4 be 9c 34 a4 bd b7 cb ed 3e
       0.2578001 -0.4471212 -0.08017847 0.46444485
0001f0 ba 2a 1d bf 3a 6a 7c bd a2 56 84 3d 92 38 af bf
       -0.6139332 -0.061624743 0.064618364 -1.3689139
000200 08 c7 e6 bd 3f 00 33 3e d9 96 27 3c a4 cd 5b 3f
       -0.11268431 0.17480563 0.010228836 0.8586066
000210 15 22 02 bf 0a a7 77 be cb 4d 94 3d 7c fd b9 bb
       -0.50833255 -0.24184814 0.072414 -0.0056759696
000220 fb 0d 9e bc 76 52 64 bf 9b 45 0b 3d 9b 80 aa 3c
       -0.019293776 -0.89188325 0.034001928 0.020813277
000230 07 69 07 be 78 ff 5a 3e 3d 4b 3d bf 36 c7 7f 3b
       -0.13223659 0.21386516 -0.7394293 0.003902865
000240 3a 44 97 3d 32 20 aa 3e 91 ac 18 3f 66 45 92 bc
       0.0738606 0.33227688 0.59638315 -0.017855357
000250 83 b0 2e 3e 72 28 02 3e 3e 4e 28 3b 7a 6f 7c bd
       0.17059521 0.12710741 0.0025681402 -0.06162975
000260 0c 88 0f bc 9b 4e cb bd a7 79 b7 3e 60 0c 45 3e
       -0.008760463 -0.09927102 0.35835 0.19243002
000270 86 92 80 3d 00 3a 88 3d b6 ad 45 3e 76 dd 12 be
       0.06277947 0.066516876 0.19304547 -0.14342293
000280 aa 13 ff bd da d2 eb bd 68 70 46 bd 82 0e 0c 3e
       -0.124549225 -0.11514826 -0.048447043 0.1367741
000290 f7 44 45 bd 0d f5 d4 bd 0f 7a 13 3f 94 c1 c5 bd
       -0.048161473 -0.10398302 0.5760812 -0.09656063
0002a0 7d f8 85 3b 21 b8 6f 3e fc da 55 3e 1f 1f e2 3d
       0.00408846 0.23410083 0.20884317 0.11041092
0002b0 45 7e 22 3c cc 09 24 3d ad cb 86 bb 03 92 10 be
       0.0099178 0.040048406 -0.0041136355 -0.14118199
0002c0 92 0f 02 be 26 17 5f 3e 7d b2 4a bd c3 40 1c bd
       -0.12701252 0.21786174 -0.049486626 -0.0381477
0002d0 ff 42 a2 bd 2f 86 91 3e 22 66 9e be fd bf 0d 3f
       -0.07922935 0.28422686 -0.30937296 0.55371076
0002e0 c9 7b 5d 3d 85 5c 00 bf 0f aa ca 3d ca 3f 75 be
       0.05407313 -0.50141174 0.09895717 -0.23950115
0002f0 81 be e9 3e 51 fd d8 3d 27 ec 97 3d e7 b8 5c be
       0.45653155 0.10595191 0.07418089 -0.2155491
000300 2c c5 da be b8 cc 38 3e 4e 8d 82 be 1f c4 3f bf
       -0.42728555 0.18046844 -0.25498432 -0.7490863
000310 7f d6 0e bf 59 04 85 bf e7 5a 37 3e fb 2c 89 bd
       -0.55796045 -1.0391952 0.1790577 -0.066980325
000320 dc 07 4b be f5 01 89 bf 05 20 9f bd e3 9e 13 be
       -0.19827217 -1.0703722 -0.07769779 -0.14416079
000330 5c 7a fc be 65 7a 82 3e bf 7c 69 be f3 2f 14 3d
       -0.49312103 0.25484005 -0.22801493 0.03617854
000340 95 8b 3f bf ae b8 81 3e 87 9b 5f bf 4a 0a f9 3d
       -0.7482236 0.25336212 -0.8734669 0.121601656
000350 b9 5f 69 3e df 5e 5a 3e 6e ff 87 bd 33 ff 15 bd
       0.22790422 0.21325253 -0.06640516 -0.03662033
000360 18 f6 d1 bd 46 e5 bf be b2 b8 d4 bd 8b 29 d8 3d
       -0.10252017 -0.3747961 -0.1038679 0.10554799
000370 d9 38 00 bf 66 ca 96 be 8d e3 7e be ec da 37 bf
       -0.5008674 -0.29451293 -0.24891491 -0.71818423
000380 51 40 d3 be aa 76 83 be 7a 29 dd be 60 70 70 3e
       -0.41260007 -0.2567647 -0.43195707 0.23480368
000390 4d 0e d1 be 15 cd cf be 45 1f 51 bf 38 3b c7 be
       -0.40831223 -0.40586153 -0.8168834 -0.38912368
0003a0 b6 83 69 be 1f d7 de 3d ba b6 8a 3d 3c ff a2 bc
       -0.2280415 0.10880875 0.067731336 -0.019897096
0003b0 a1 42 79 39 a3 c3 5c 3d 4d 79 c2 bc c0 a2 eb be
       0.00023771312 0.05389751 -0.023739481 -0.46022606
0003c0 b7 82 d5 be c4 17 08 3e ea b8 b2 be c8 7b 85 be
       -0.4170129 0.13290316 -0.34906703 -0.26071
0003d0 d1 ee e9 bd 18 37 79 be c2 21 0a 3d 39 eb 69 bf
       -0.11422504 -0.24337423 0.0337236 -0.91374546
0003e0 1f 7f d8 3c 41 8b 12 bf 02 b1 d6 bc 43 33 c0 3e
       0.026427804 -0.57243735 -0.02620745 0.3753911
0003f0 c8 35 7d bc a1 8d 9d be df ab 75 3a dc f8 84 bf
       -0.015454717 -0.30772117 0.0009371619 -1.0388446

local_mlp.2.bias f4 [256]
000000 32 02 33 bf 68 3d 34 bf d1 55 cd bd 41 06 cc be
       -0.69925225 -0.704062 -0.10026134 -0.3984852
000010 39 05 cc be f0 6b 62 bf eb 6f 8d bd 1c 1b 2b be
       -0.39847735 -0.8844595 -0.06906112 -0.1670956
000020 43 50 11 bd 57 54 35 be 03 2e d8 be af cd fe be
       -0.035476934 -0.17707954 -0.42222604 -0.497663
000030 63 b2 f5 be ea e4 f2 be 2a 3a 97 3c 82 ca ef be
       -0.4798766 -0.47440273 0.018460352 -0.4683419
000040 1a 16 8f be 4b 8f 47 be 50 95 f4 bc 6d 2b 13 bf
       -0.2794655 -0.19488256 -0.029856354 -0.5748814
000050 a2 6f 57 3d 71 8f 85 be a7 97 fa be 4e 67 26 be
       0.052596696 -0.26086 -0.48943827 -0.16250345
000060 c6 c5 04 bf ab de 32 bf 27 c6 ef bd 4e c4 32 be
       -0.5186428 -0.69871014 -0.117077164 -0.17457697
000070 8d 07 bd be e6 7e f9 be b7 1a 85 3c 06 66 4c bf
       -0.36919823 -0.48729628 0.01624809 -0.79843175
000080 94 37 f7 be fe c5 94 be 8e 8f e3 be 23 aa 0c be
       -0.4828459 -0.29057306 -0.4444546 -0.13736777
000090 94 62 1c be 7f 32 c7 be 6c 9b f3 be e5 bb 85 be
       -0.1527198 -0.38905713 -0.47579515 -0.26119915
0000a0 ec 9c 85 be 80 95 14 bf 96 cc 98 be db 01 a0 be
       -0.26096284 -0.5804062 -0.29843587 -0.31251416
0000b0 c8 3c 34 bf f2 28 1c be b9 1f 44 3d ca 47 18 be
       -0.70405245 -0.15249994 0.047881816 -0.14871135
0000c0 06 64 b8 be e8 14 5b bf 28 93 b4 bb 00 aa 38 3d
       -0.36013812 -0.85578775 -0.0055107065 0.045084
0000d0 54 86 fb be 0b d4 37 bf f7 94 54 be de 04 48 be
       -0.49125922 -0.71807927 -0.2075995 -0.19533107
0000e0 b1 be 3e bf 0e eb 1d bd a2 8c 9f be c1 6a 4d 3d
       -0.7450972 -0.038554244 -0.31161982 0.050150637
0000f0 22 93 83 be fc 87 a2 be 14 2a 2f bf 04 71 d1 be
       -0.2569819 -0.31744373 -0.6842358 -0.40906537
000100 9d 12 b1 be 70 f2 3e be 66 73 3e bd 35 dc e6 bd
       -0.34584513 -0.1864717 -0.04649677 -0.1127247
000110 9a f7 cc be 6f cd 92 3b 79 a7 12 3d 7d 15 47 be
       -0.40032655 0.004480056 0.035804246 -0.19441791
000120 32 74 3e be 7f 8b 15 bf 59 1d 84 be a5 99 b4 be
       -0.18599012 -0.5841598 -0.2580364 -0.3527347
000130 2a ae d4 be dc 96 92 be 7b bf 58 bf d3 63 30 be
       -0.41539127 -0.28630722 -0.84667176 -0.1722558
000140 36 53 1a bf 48 a1 94 be 3b 0a 18 bf 7a 51 8b be
       -0.6028322 -0.29029298 -0.5939061 -0.272106
000150 84 6a b2 be 1c 55 00 bf bc 46 89 be 82 67 99 be
       -0.3484689 -0.50129867 -0.2681178 -0.29961783
000160 18 ea 79 be fb 2f cc bc 0b be 0e be 7d 9c 02 bd
       -0.24405706 -0.024925223 -0.13939683 -0.03188752
000170 37 cb 73 be 05 ef cf be d8 ed 90 be e8 99 0d 3d
       -0.23807989 -0.40612045 -0.2830646 0.034570605
000180 4f 4a 54 bf 43 6b c1 be a1 d3 44 bf af e5 bf be
       -0.82925886 -0.37777147 -0.7688542 -0.37479922
000190 3c bd 97 be 3f 06 e2 be 90 0d 63 bf 7d 53 ae be
       -0.29636562 -0.4414539 -0.8869257 -0.34048072
0001a0 9d 55 f7 3d 1d 91 c2 3d a3 6c ae 3b 78 99 bf be
       0.12076876 0.095003344 0.005323009 -0.37421775
0001b0 06 03 2f bf 35 8f 80 be 04 4f 14 bc 41 be c2 be
       -0.6836399 -0.25109258 -0.009052042 -0.38035777
0001c0 90 5a 41 bf a9 cd 1c bf 5b e7 1b bf 07 da fc 3d
       -0.7552881 -0.6125131 -0.60899895 0.12346273
0001d0 ae 4e ff be cf e7 47 be e6 a4 9e be a8 b1 61 be
       -0.49864715 -0.19522022 -0.30985183 -0.22040427
0001e0 b0 69 09 bf a8 1b f2 be 47 83 45 be 71 9b 45 bf
       -0.5367689 -0.47286725 -0.1928836 -0.7719031
0001f0 37 bb 07 bf 81 30 93 be 9f 1e 25 bf 04 62 ed be
       -0.5302004 -0.28747943 -0.6449985 -0.46363842
000200 ae b5 45 bd 9d 0b 53 bc 86 3d 6d be 8a e8 b8 be
       -0.048268966 -0.012881187 -0.23168 -0.36114913
000210 c5 0b 4d 3c c3 d4 88 bd a5 5a dc be 6c 30 2e be
       0.012515013 -0.06681206 -0.43037906 -0.17010659
000220 9d ed 9d be 9c d9 ad be 90 3c 15 bf 03 2e 4f be
       -0.30845347 -0.33955085 -0.58295536 -0.20232396
000230 3a 16 4f be 81 01 ab be 33 ca 39 3c 1f 91 10 3d
       -0.20223323 -0.33399585 0.011339712 0.03529465
000240 89 92 0c bf c7 72 96 3d 93 3c 43 bf e5 10 a0 be
       -0.54911095 0.07346111 -0.76264304 -0.3126289
000250 eb f7 cf be a0 57 32 bd 41 bd c1 be 49 9f b3 be
       -0.40618834 -0.043540597 -0.37839702 -0.35082462
000260 63 4e a3 be 75 39 b4 be 03 98 f3 3d 57 8e 94 be
       -0.31895742 -0.35200086 0.11894228 -0.29014847
000270 c8 68 fa be e0 dd a5 bd e0 09 3d be 23 b0 93 3d
       -0.48908067 -0.0809896 -0.18460798 0.0721133
000280 4d f3 b1 be 01 d7 2c be e9 90 ce be bd a2 1c bf
       -0.34755936 -0.16878892 -0.40344933 -0.6118582
000290 02 e5 98 be f6 5b d3 be a5 a4 55 bf 47 50 ee be
       -0.2986222 -0.41281098 -0.8345435 -0.46545622
0002a0 eb e6 33 bf 9d 00 23 bf 5d 26 9c be 14 8e 61 be
       -0.7027423 -0.6367281 -0.3049802 -0.22026855
0002b0 cd e5 c3 be 71 fa bf bd 53 0d 15 be c4 4f a2 be
       -0.38261262 -0.0937394 -0.14555864 -0.3170148
0002c0 5a 5f d8 be 44 55 76 3d 66 d8 b9 3b 64 66 cb bd
       -0.42260247 0.06013991 0.0056715487 -0.09931639
0002d0 e3 f6 e9 be 9a 3d db bd 10 5b 28 be b0 43 a3 bd
       -0.45696172 -0.10705109 -0.16440988 -0.07971895
0002e0 62 ae 7a be 5c 79 a6 be 23 7d a8 be 4e f7 76 be
       -0.24480584 -0.32514465 -0.32907972 -0.24117777
0002f0 38 a6 f6 be d7 30 44 bf 7b 3b e1 be 18 e3 05 be
       -0.4817369 -0.76637024 -0.43990692 -0.1307491
000300 55 45 1f bf 0c b5 ba be 4e 0f 27 be e6 1f b6 be
       -0.6221517 -0.36466253 -0.16314432 -0.35571212
000310 dd af e3 be f6 d9 3e 3e 56 bf 50 bf 7a 78 13 bf
       -0.4447011 0.18637833 -0.81541955 -0.5760571
000320 a0 dc 47 bf ba 1c f9 be 7e d2 5d be c3 61 cc be
       -0.7807102 -0.4865473 -0.21662328 -0.39918336
000330 3b 42 1c be 53 66 c5 3d 12 da 33 bf 10 42 8f be
       -0.1525964 0.096386574 -0.70254624 -0.2798009
000340 f4 fc 27 3e ba 97 4c bf 67 d5 bf be af 76 ba be
       0.16405088 -0.79919016 -0.374675 -0.36418673
000350 65 cc 0f bc 98 56 05 bd 36 e4 12 bf 1d 80 85 bf
       -0.008776759 -0.032553285 -0.5737947 -1.0429722
000360 3f 0e 80 be 46 af a9 be 58 e4 81 bf 9d 68 87 be
       -0.2501087 -0.33141536 -1.014781 -0.26447
000370 98 1e fa 3c fa 2f 33 be 0d ac cf be f5 c2 fa be
       0.030532166 -0.1749877 -0.40560952 -0.48976865
000380 9e fc 20 be 12 59 75 be 7d 75 46 bf 63 cb 62 bd
       -0.15721366 -0.23959759 -0.7752302 -0.055369746
000390 10 7e ba bd a1 e8 45 bf a8 2d 40 bd bb 1f 05 bf
       -0.09106076 -0.7730809 -0.04691854 -0.5200154
0003a0 1f c5 90 be be 86 c5 be 8f f4 06 bf 97 fc a3 be
       -0.2827539 -0.38579363 -0.52716917 -0.32028648
0003b0 c2 2f ff bd 7e f7 e7 be ca ee 81 be cc 34 5b bf
       -0.12460281 -0.4530601 -0.25377494 -0.85627437
0003c0 80 9b 11 be 71 75 28 be ff ad ea bd db a0 27 be
       -0.14219475 -0.1645105 -0.11458968 -0.16369955
0003d0 9f 89 3d bf 38 06 2f bd 29 a7 e5 be c2 8b 80 be
       -0.7403812 -0.04273054 -0.44854096 -0.25106627
0003e0 6a 4e 0f bf 5a 72 a7 be 47 b7 2b be 34 43 e8 be
       -0.55979025 -0.3270443 -0.16769134 -0.45363772
0003f0 8d de 84 3d e9 12 5b be 46 79 42 be bf 95 13 bf
       0.06487761 -0.21393932 -0.18991575 -0.5765037

output_mlp.0.weight f4 [128, 512]
000000 c1 08 90 3d 93 4d a1 3d f9 09 62 be bb 64 a7 bc
       0.0703292 0.07876124 -0.22074117 -0.020433774
000010 6c db 57 3d d6 af db 3d d6 77 05 3c e8 5a de bd
       0.05269949 0.107268974 0.008146247 -0.10857183
000020 d9 1a 9c 3c 42 8e d5 bd 1e a5 a0 bd 18 49 6d 3d
       0.01905577 -0.10427524 -0.078439936 0.057931036
000030 f9 6b 37 3d f4 26 76 3c aa 42 56 3e 0d 32 9d bd
       0.044780705 0.015023936 0.20923868 -0.07675562
000040 f6 4a b7 bd 81 60 56 bd 3d 58 c7 3d 6f dc c3 3d
       -0.089498445 -0.052338127 0.09733627 0.09563529
000050 5b f3 b4 ba 1a 45 0c 3d c5 ad 80 bc 8d fd 29 be
       -0.0013805436 0.034245588 -0.01570786 -0.16600628
000060 61 5f 20 bd 48 f5 24 3d eb fd 72 3d c1 9d 58 bd
       -0.03915346 0.04027298 0.059324186 -0.05288482
000070 1e c5 c4 3d 60 f7 84 3d 04 80 0b bc 72 1a 52 3d
       0.096079096 0.064924955 -0.008514408 0.05129475
000080 62 09 36 bc da 03 9c bb 67 2e 0a bd 4c 2c 1b bd
       -0.0111106355 -0.0047612013 -0.03373566 -0.03788404
000090 68 57 84 3c 75 88 b4 bc 1e 6e f3 3b 13 14 cd bd
       0.01615496 -0.022037724 0.0074288985 -0.100135945
0000a0 6f e8 da 3d ba 3a 12 3b 93 17 a7 bd 80 89 f7 3c
       0.106888644 0.0022312836 -0.08158793 0.030216932
0000b0 24 b7 c8 bd f6 8d e7 3c 7f 74 97 3d a9 27 b5 bd
       -0.09800556 0.028265934 0.07395267 -0.08845455
0000c0 60 7f 13 3e 89 d1 ff 3d 5a 9a 18 3d 16 08 96 be
       0.14404058 0.124911375 0.037256576 -0.29303044
0000d0 7d 2b 03 3d f5 a2 b4 3d 8a 5f 82 bd ab ac ec bd
       0.032023896 0.08820144 -0.06365879 -0.11556371
0000e0 30 94 a3 3d bf d2 05 3e 41 bd 73 3d 12 c5 9e bc
       0.07987249 0.13068675 0.05950666 -0.01938108
0000f0 cf ac 83 bd 2d 0c fe bc 79 ec 14 3c 18 47 ea 3c
       -0.06429445 -0.031011665 0.009089583 0.028598353
000100 48 a1 b7 bc 68 74 da bd 05 33 41 3e 22 c3 11 be
       -0.022415772 -0.10666734 0.18867119 -0.14234594
000110 2a 0f 3e be 94 f1 cf ba df a1 42 3d f9 f4 8d 3d
       -0.18560472 -0.0015864843 0.047517654 0.069314905
000120 74 49 c9 bc e9 eb c6 3d c7 a8 a0 3d 87 37 f2 bc
       -0.024571158 0.09712965 0.07844692 -0.029567493
000130 ca 70 ab 3d 90 bf c9 bd 84 51 e4 bc 2d 8f 11 bd
       0.08371122 -0.09850991 -0.0278709 -0.035536934
000140 c3 74 86 bd b7 7e 42 bc 1c dd 9f 3d 23 62 cb 3d
       -0.06565239 -0.0118710315 0.07805845 0.099308275
000150 3c f1 44 bd e2 5d 60 bd 9d 8b d8 ba 17 a0 35 3d
       -0.04808162 -0.054777034 -0.00165211 0.044342127
000160 10 11 c9 3c 85 68 fc bd 91 f7 91 be 68 41 53 be
       0.024544269 -0.12324623 -0.2850919 -0.20630419
000170 39 81 bd bd 22 62 54 bc 04 66 b8 bd 93 99 96 3c
       -0.09253163 -0.01296285 -0.09003833 0.018383777
000180 bf da 34 bd 37 f3 00 3e cd 47 17 3e 0e e0 07 be
       -0.044153925 0.12592779 0.14773484 -0.13269064
000190 62 fc a7 bd 92 d3 69 3d 57 62 f5 3d 71 15 52 3d
       -0.08202435 0.057086535 0.119816475 0.05128998
0001a0 b1 6d 9b bc d4 3b b6 bb 87 d3 7a 3d 83 99 05 3e
       -0.018973203 -0.0055613313 0.061236884 0.13046841
0001b0 c4 bd 03 3e d1 20 c6 bc 7d cf 47 3e aa 81 8f 3d
       0.12865359 -0.02418557 0.19512744 0.07007153
0001c0 e3 f6 38 bd 03 94 33 be d4 fc aa bd 12 20 8f bd
       -0.045157325 -0.1753693 -0.083490044 -0.06988539
0001d0 a2 1e b7 bc ca b6 8a bd 57 08 08 be 5f f8 85 bb
       -0.022353474 -0.067731455 -0.13284431 -0.004088446
0001e0 20 17 70 bc 28 af a7 3d 3e ce a2 bd c3 82 8d 3d
       -0.014653951 0.08187705 -0.07949494 0.069097064
0001f0 53 07 79 bc 48 ff d0 3b fc 23 91 3d 1a 60 de 3b
       -0.0151995 0.006378088 0.070869416 0.0067863585
000200 64 c6 29 be 6d bf e0 bb 35 d9 99 3d 7b ea b8 3d
       -0.16579586 -0.006858757 0.07512132 0.090290986
000210 89 02 2d bb 63 c6 8c bd f9 50 48 bc b7 de 3e bd
       -0.0026399216 -0.06873777 -0.012226337 -0.046599116
000220 00 18 dc bd 5f 77 a5 bd 97 34 8f 3d 15 d9 a3 3d
       -0.10746765 -0.08079409 0.069924526 0.080003895
000230 f5 37 5b bd d8 22 50 3d 8a 13 12 bd 4a c7 7b bd
       -0.05352016 0.05081448 -0.035663165 -0.061469354
000240 34 1f 93 bd fc 90 44 bd 98 19 fe 3d 1e e6 13 be
       -0.07183686 -0.04798983 0.12407225 -0.14443251
000250 a4 f1 12 3d 3e 80 fa 3d ef 78 10 be a8 c3 22 bd
       0.035874978 0.122314915 -0.14108633 -0.039737374
000260 86 90 d8 bc 09 86 b4 3d ed b4 27 bc 86 62 5e 3d
       -0.026436102 0.08814628 -0.010236007 0.054293178
000270 54 bd 25 3d 21 8a a8 bc 1d 3e 18 be 4a d2 04 bc
       0.04046376 -0.020573677 -0.14867444 -0.008106777
000280 b7 e1 69 3c 69 17 2f be 00 45 ee 3c 66 1d c7 3d
       0.014275006 -0.17098774 0.029085636 0.09722404
000290 a6 f1 aa 3d cc ad cf bd b5 5c c7 3d 22 85 68 bd
       0.08346872 -0.10140571 0.09734479 -0.05676759
0002a0 db 79 0b 3e e3 c8 d4 3c b1 0a dd 3d e3 10 be b9
       0.13620703 0.025974697 0.10793055 -0.00036252206
0002b0 1c 70 0f 3d 5c 24 7a 3d 63 6d 4b 3d 85 fb 1d 3d
       0.035019025 0.06106983 0.049664866 0.038569946
0002c0 e9 04 1e 3d 6e b8 f0 bc 60 4c 1d 3d d5 41 9a bd
       0.0385789 -0.029384818 0.038402915 -0.07532088
0002d0 82 b7 b0 bd 8e f2 28 3d da 5b 8d 3d 9a ad 11 3d
       -0.08628751 0.041246943 0.06902285 0.03556595
0002e0 6c 94 e3 3d ee f6 d9 3c 95 71 9f bd 06 86 d9 3d
       0.111122936 0.026607003 -0.07785336 0.10621266
0002f0 3c d6 ec 3d d7 84 cf 3d 5e ae 0d be c9 e4 90 bd
       0.115642995 0.10132759 -0.13836047 -0.07074887
000300 16 cf 55 be 29 4d d0 3d 80 22 fe 3d 32 a0 7b bc
       -0.20879778 0.10170967 0.12408924 -0.015358018
000310 63 57 d1 bc 04 e2 1b 3e 36 fb 93 bd 2a 5a f2 bd
       -0.025554365 0.15222937 -0.07225649 -0.11833604
000320 ec 3d 9d 3d 7c 89 59 be d4 f3 f1 3d d1 22 1b 3d
       0.07677826 -0.21243852 0.11814085 0.037875
000330 fe 59 cc bd d4 21 0c bd 9f 52 e6 bc 00 15 60 be
       -0.09978102 -0.03421195 -0.028115569 -0.21883011
000340 91 12 79 3d 5c 6a 2b bd 11 9f ac 3d 3d 2d e3 3d
       0.060808722 -0.04184948 0.08428777 0.11092613
000350 09 52 70 3d a0 18 4f 3d 85 0a 0c 3e 8d 89 2c 3d
       0.058671985 0.050560594 0.13675888 0.042123366
000360 d1 1a 40 bd 1d 07 cb bd 9e 19 25 3d 8d 34 9a 3d
       -0.046900574 -0.09913466 0.040307634 0.075295545
000370 91 5a 45 3d e8 e2 09 be ab c6 8f 3d f5 ee 8a bd
       0.048182074 -0.13465464 0.07020315 -0.06783859
000380 4b dc fa 3d 63 5b 97 bd a1 19 e5 3d de bd 16 bd
       0.12249049 -0.073904775 0.11186529 -0.036802165
000390 65 3e 14 3d 9c 9b 30 be 0d 2b 68 3c 40 52 9b bd
       0.036192317 -0.1724686 0.01417042 -0.07584047
0003a0 93 1b 1e bd cb 57 15 3d ca 34 97 bd 61 fe d2 3d
       -0.038600516 0.03646068 -0.073831156 0.10302425
0003b0 a4 e5 49 bd 1a d9 05 be ab 2a 32 be 50 01 93 3d
       -0.049291268 -0.13071099 -0.17399089 0.07177985
0003c0 12 bb 47 bd c9 07 56 3c 02 42 1a bd 2f 18 1d be
       -0.04876239 0.01306338 -0.037660606 -0.15341257
0003d0 83 d3 f8 3b d9 cb 2c 3e 89 f8 0e 3d 37 05 bd 3c
       0.0075935735 0.16874637 0.03490499 0.023073776
0003e0 a6 3a c5 3d 71 38 c4 3d 0f e2 22 3d 01 5d 5e bd
       0.09630327 0.09581078 0.039766368 -0.054287914
0003f0 38 7b 47 3d 28 7b a0 3d ee 5d 38 bd 9b db b0 3d
       0.048701495 0.0783599 -0.045011453 0.086356364

output_mlp.0.bias f4 [128]
000000 b9 8b c2 bd 76 f1 6b 3c 9c 46 48 be 04 ac 2f be
       -0.09499306 0.0144008305 -0.19558185 -0.17155463
000010 74 e5 ea bd 93 1f 21 be f8 ca 32 be 73 b0 d1 bd
       -0.11469546 -0.15734701 -0.17460239 -0.10238733
000020 11 48 05 3f 21 39 97 be 63 fe 5d bf 0b fc 2a be
       0.5206309 -0.29535773 -0.8671629 -0.1669771
000030 95 59 2e be 1c ef 2a be 1f 5d 23 be e8 b2 ab bd
       -0.1702636 -0.16692775 -0.15953492 -0.08383733
000040 a1 b4 d2 3e ff a1 17 be ff 8a db bd 86 14 a5 bd
       0.41153434 -0.1480789 -0.10719871 -0.08060555
000050 da 16 76 3e 83 32 15 be ce c2 04 be 54 59 01 be
       0.24032155 -0.1457005 -0.12964937 -0.12631732
000060 9e 3f 8e 3e 96 19 73 be a8 6b 8e be 8a f0 eb bc
       0.2778291 -0.23740229 -0.2781651 -0.028801221
000070 7e ce 83 3e f5 99 f5 be 04 81 7c 3d 81 e7 66 3d
       0.2574348 -0.47969022 0.061646476 0.056373123
000080 d3 9f 64 be ab 6f 14 be 65 e8 6b be 58 7f e0 be
       -0.22326593 -0.14495723 -0.2303787 -0.43847156
000090 7c e1 14 be 92 c4 27 be c5 8c d8 bd 4b 48 dc bd
       -0.1453914 -0.1638358 -0.10573725 -0.10755976
0000a0 84 93 28 3e cf 0d 60 be 35 4e c4 be 1f fb 60 be
       0.16462523 -0.21880268 -0.38340917 -0.21970795
0000b0 0d 57 86 bd b8 75 03 be 89 63 05 bf ad 3f 9c bd
       -0.06559572 -0.12837875 -0.52105004 -0.07629333
0000c0 11 cc 91 bd 10 29 02 be 71 ee ef bd 24 c0 0e 3b
       -0.07119001 -0.12710977 -0.11715401 0.0021782005
0000d0 9e 54 e1 bd 49 c5 2f be 22 ee 14 be 0d 4e e5 3d
       -0.110024676 -0.17165102 -0.14543965 0.11196528
0000e0 46 cf 22 3e c9 c6 d4 bd 1b cd d6 be 12 e4 b2 bd
       0.15899381 -0.10389478 -0.41953358 -0.08734907
0000f0 d5 a2 94 be 62 ef 57 bd 45 36 ca 3d a9 ba 03 be
       -0.2903048 -0.052718528 0.09873632 -0.12864174
000100 dd 47 46 bf 11 f2 a9 3d 35 76 91 3e f0 55 f5 bd
       -0.77453405 0.08298124 0.28410497 -0.11979282
000110 b9 64 8e be f9 a9 da be 87 85 02 bf 1f 71 9d 3e
       -0.2781122 -0.42707804 -0.50984997 0.30750367
000120 32 ae 8a bd c5 d4 0d be 5c da b5 be 4d 60 94 be
       -0.06771506 -0.13850696 -0.35518157 -0.28979722
000130 ab d0 29 be 4c fc f7 bd dc 17 8c bd 4e 46 9a 3d
       -0.16583507 -0.12108669 -0.06840488 0.07532941
000140 39 a2 d2 bd 10 96 10 bd a9 43 07 3e 25 ae 36 bf
       -0.10284848 -0.03529936 0.13209404 -0.71359473
000150 e8 60 f4 bb 04 eb ae bd 55 75 29 3e 91 9e 07 be
       -0.007457841 -0.085409194 0.16548665 -0.13244082
000160 ed d6 9a 3f 11 45 b6 bd ef 9c f5 bc 2b 7d 1a bf
       1.209684 -0.08899892 -0.029982058 -0.6034724
000170 35 84 fa be 7f 06 77 bd 64 d3 d1 3e f6 00 b9 be
       -0.4892899 -0.06030893 0.4098159 -0.36133546
000180 82 05 2d be 16 c5 c2 bd 6b 0b 95 bd 89 a5 3e 3e
       -0.16896632 -0.095102474 -0.072775684 0.18617834
000190 eb 2f ae bd 07 b7 c5 be 06 4d b0 bd e4 33 59 bf
       -0.085052334 -0.386162 -0.08608441 -0.84844804
0001a0 50 9a 1a be e3 6d 2c be bc 19 83 be b4 72 bb bd
       -0.15097928 -0.16838793 -0.2560557 -0.09152737
0001b0 01 63 eb bd 6e 1c 2c be 26 62 61 be 11 dc 37 bf
       -0.11493493 -0.1680772 -0.22010097 -0.7182017
0001c0 df e0 72 be a8 27 65 3d b4 9b ee bd d0 64 be bd
       -0.23718594 0.055946022 -0.11650792 -0.09296572
0001d0 31 3e 97 3e 8a 29 be bd 76 16 c2 be 4d c3 21 be
       0.29539636 -0.09285267 -0.3790776 -0.15797158
0001e0 56 dc 30 be 7c 97 c2 bd b2 46 b9 3d 07 ae 17 bf
       -0.17271551 -0.095015496 0.09046687 -0.5924992
0001f0 d2 bb 26 be 7d 01 8d 3d c3 f8 fb bd 20 3e a8 3e
       -0.16282585 0.068850495 -0.12303307 0.32859898

output_mlp.2.weight f4 [9, 128]
000000 f5 2f 92 3e 7c ed e0 be 95 62 ab 3e 2e d8 72 3f
       0.28552213 -0.43931186 0.3347365 0.94861114
000010 87 62 b8 3f 97 89 22 3d 5c 18 37 3f cf 7e 20 bc
       1.4405068 0.039681997 0.71521544 -0.0097958585
000020 0e 74 d7 be 12 1b c5 bf c6 3f b6 bf 83 53 72 be
       -0.4208073 -1.5398886 -1.4238212 -0.2366467
000030 38 45 b7 3f 4a 99 05 40 c6 18 3d 3f 08 49 07 3f
       1.4317999 2.087481 0.73865926 0.5284581
000040 d4 34 bb be b2 88 06 3e 7f 4d c9 3c 81 cb ad bc
       -0.36563742 0.13138083 0.024573086 -0.021215202
000050 c3 47 b7 bf 31 6c 4d 3a a0 57 f8 bd b1 7d 97 3e
       -1.4318775 0.0007836251 -0.12126088 0.29588082
000060 df f6 c3 bf 50 78 df 3e fb 17 89 3e 73 9d 1b bf
       -1.5309714 0.4364648 0.26776108 -0.60787123
000070 66 e7 55 bf c6 1d 38 bf 57 77 43 c0 5d 6f 3c bf
       -0.8355621 -0.7192043 -3.054159 -0.73607427
000080 11 64 36 3f c6 c4 56 40 ac 0f 11 3f 70 b5 01 40
       0.7124644 3.35576 0.5666454 2.026699
000090 11 8c 90 3f e7 a5 03 3f 23 64 f9 3e a9 4c 51 3e
       1.1292745 0.5142502 0.4870921 0.204394
0000a0 ff 24 01 bf 5e ae 84 3e 66 f8 30 3f 59 30 79 3f
       -0.50447077 0.25914282 0.69129026 0.973394
0000b0 45 de 36 3e ed a4 19 3f bf a8 17 c0 11 53 cf 3d
       0.17858227 0.6001728 -2.3696744 0.101232655
0000c0 ab e1 12 3e a2 9b be 3e ed 80 c7 3e e1 b0 7e 3d
       0.14343898 0.37228113 0.3896555 0.062180404
0000d0 a3 9f d4 3e 59 44 22 3f e2 6d 9b 3e 5e 91 9a bf
       0.41528043 0.6338554 0.3035727 -1.2075613
0000e0 fe 7b 17 3e 63 23 97 3f f8 24 0e bf d0 e0 1b 3e
       0.14793393 1.1807674 -0.5552516 0.15222478
0000f0 46 9e 1f c1 40 24 44 3e a2 f1 11 c0 ed 29 84 3e
       -9.976141 0.19154453 -2.280373 0.25813237
000100 80 47 03 c0 d1 80 36 c0 f9 86 da be 7b a6 37 c0
       -2.051239 -2.8516123 -0.426811 -2.8695362
000110 bc 43 67 3f 5a 61 b5 bf 88 07 95 bf 9d c2 f0 bf
       0.9033773 -1.4170334 -1.1642923 -1.8809391
000120 4e d3 32 3e 81 04 21 3d 02 8b 1b 3e f0 a9 c3 3e
       0.17463419 0.039310936 0.15189746 0.3821559
000130 d7 22 03 3f 1b ac 9d 3d 62 35 17 3e 15 60 92 be
       0.51225036 0.07698842 0.14766458 -0.2858893
000140 cf 6e a8 3f 93 72 c5 3e 60 2e dd bf 84 b9 28 3f
       1.3158816 0.38563976 -1.7279778 0.65908074
000150 29 38 c4 3e a3 a3 27 3e fa 71 45 bf 98 b9 b6 3f
       0.38324097 0.16371016 -0.7712704 1.4275389
000160 b8 31 4b 3e 31 f5 8d 3e fc e0 95 bd 38 8c 08 3d
       0.19843185 0.2772613 -0.07318303 0.033336848
000170 12 2a 14 bd 9c 7a 14 3e f0 89 c6 bd 0b 40 00 3f
       -0.036172934 0.14499897 -0.09694278 0.5009772
000180 d1 e4 5c 3e fe 8a 18 bf 05 1d a8 be 2a a2 e5 3d
       0.21571662 -0.59587085 -0.3283464 0.11212571
000190 78 74 05 3e 16 94 58 3e 00 c2 df 3d 74 75 d9 3d
       0.1303271 0.2115024 0.109256744 0.106181055
0001a0 66 40 bf 3d 91 ad 33 40 32 6a df 3d 71 61 21 3e
       0.09338455 2.8074687 0.10908927 0.15759827
0001b0 6f f2 56 3e 54 5e 9b 3d 37 da 39 3f 2a b0 92 3f
       0.20990919 0.07586351 0.72598594 1.1460011
0001c0 48 4b 14 3f 49 a9 dd be c6 78 6e 3e ad 40 48 3e
       0.5792737 -0.43293217 0.23288259 0.19555922
0001d0 a8 0e c3 bf 71 b1 33 3e 02 de 0b 3c 5d 0d 61 c0
       -1.5238848 0.17548157 0.0085368175 -3.5164406
0001e0 86 d5 c5 3d 71 3d 91 3e 00 e8 4c c0 19 e3 9e 3e
       0.09659867 0.2836719 -3.2016602 0.31032637
0001f0 c1 87 0e 3e d6 03 c5 bd 56 74 73 3e d8 bf 3a bf
       0.13918974 -0.09619872 0.23774847 -0.7294898
000200 50 95 af be d4 c4 09 bf 48 33 69 bd 2e f2 c2 3f
       -0.34293604 -0.5381596 -0.05693367 1.5230157
000210 90 e8 ce 3f 74 fc 44 3e a7 e7 3d 3e 73 e0 f0 bd
       1.6164722 0.19236928 0.185454 -0.1176156
000220 91 91 61 3f 22 ef b1 bf 1b 51 76 3e b9 57 0a be
       0.8811274 -1.3901103 0.24054377 -0.13510026
000230 de fd 9e bf 77 e2 c8 bf 2c d0 67 be d8 2c 68 3e
       -1.2421224 -1.5694112 -0.22638005 0.22673357
000240 90 cb a0 bd da 85 ac 3d 95 c6 0e be e2 ef b5 bd
       -0.078513265 0.08423968 -0.1394294 -0.08883645
000250 39 53 f0 3f dc 0b cd bd 8e cf 1b be 96 b0 3c 3e
       1.8775398 -0.100120276 -0.15215895 0.18426737
000260 12 4e b1 bf 58 d8 39 3e 3b 6f 91 3e 7e 98 12 3f
       -1.385195 0.18148935 0.28405175 0.57263935
000270 0e b3 92 3e 86 b4 8b bf e5 9b bf 3f 79 0f a1 bf
       0.28652233 -1.0914466 1.496945 -1.2582847
000280 76 89 3c 3e ca 31 69 c0 0f 4a 6a be 47 46 5c 40
       0.18411812 -3.643664 -0.22879814 3.4417894
000290 77 e9 25 c0 c4 12 43 3e 7d f9 fd 3d d2 43 37 3d
       -2.5923746 0.19050127 0.12401102 0.044742413
0002a0 f1 0b e9 3e c6 9f 99 3a 5d 4c d5 3e cc 48 5c bf
       0.45516923 0.001172059 0.41659823 -0.8604858
0002b0 41 95 bf 3d b9 c2 1c 3e 6a 4f e6 be 68 9c 05 3e
       0.0935464 0.15308656 -0.44982463 0.13047945
0002c0 70 c8 eb 3d b2 58 23 3e a4 98 c4 3d 7c 56 2e 3f
       0.1151284 0.15951803 0.095994264 0.68100715
0002d0 56 74 3b 3e 1d dd 6e 3e 5c ae 36 3e 7c a6 7b 3e
       0.18306097 0.23326536 0.1783995 0.24575227
0002e0 08 52 b6 3d 51 8a e9 bf 11 ad 8f bf 2f 37 79 3e
       0.08902365 -1.8245336 -1.1224691 0.24337457
0002f0 af f7 03 bf 3a f7 cc 3b 2b a9 00 c0 15 5a 13 3e
       -0.5154981 0.0062550576 -2.0103252 0.14389832
000300 cf a3 84 bf 14 ef 42 40 01 76 69 3e 63 6f 14 c0
       -1.036249 3.0458422 0.22798921 -2.3192985
000310 18 8e 8e bf 18 ae c4 bc 6f f0 3e bf 19 b5 f4 bf
       -1.1137114 -0.024008796 -0.7458562 -1.9117767
000320 7e 76 dc 3d d9 1f 56 3e 61 98 2e 3f f6 2e 16 3d
       0.10764788 0.20910586 0.6820126 0.03666588
000330 27 ae 52 3e c7 68 a2 3d 7b 4b c7 3d 75 31 b1 3d
       0.20574246 0.07930141 0.09731194 0.08652011
000340 49 85 54 bf 91 72 14 3f a4 82 b3 3f 2d e4 42 3f
       -0.83015877 0.57987314 1.4024243 0.7612942
000350 54 99 c8 3e 9a 09 2f be 0f 69 00 bf 2a 75 65 bf
       0.3917948 -0.17093506 -0.50160307 -0.89631903
000360 ce 86 9e 3e cd 9e b5 3d 54 b1 0f 3d 6c c5 a8 3d
       0.30962223 0.088681795 0.035081223 0.0824078
000370 77 81 4c be 64 16 f2 3d 1f 18 d7 bc c1 bc 13 3f
       -0.19971262 0.11820677 -0.026256619 0.5770989
000380 94 b6 32 3e ff 50 31 be ab c7 a3 3d 24 0b a0 3e
       0.1745246 -0.17316054 0.07997068 0.312585
000390 6e b9 53 3e 23 21 e2 3d 7d de 50 3e f3 96 3d 3f
       0.20676205 0.110414766 0.20397373 0.74058455
0003a0 f9 ec 68 3d e4 f9 0b c0 76 32 26 3e df 48 d6 3d
       0.05686662 -2.187127 0.16230187 0.10463118
0003b0 e1 10 82 3e 35 e4 eb 3e 58 b7 af 3f df fe 7b 3f
       0.25403503 0.46072546 1.3727827 0.9843578
0003c0 d4 6a 47 3f 23 73 ba be 57 4e b8 3d 36 48 7a 3e
       0.7789738 -0.36415967 0.08999317 0.24441609
0003d0 1b 1f c3 c0 81 e9 e2 3d 17 d4 64 be 32 5e f1 be
       -6.097547 0.110796936 -0.22346531 -0.47142178
0003e0 f5 70 5b 3e 11 69 54 3e 35 7a 1b 40 57 e9 af 3e
       0.21429808 0.20743205 2.429334 0.34357712
0003f0 fa 0f 50 3e ba 6e 4e 3d fa 3e b3 be 21 dd 1b bc
       0.20318595 0.050398566 -0.35008985 -0.00951317

output_mlp.2.bias f4 [9]
000000 fd 73 59 bf 3d 57 01 3f 4a 61 44 be 09 65 1d 3d
       -0.8494261 0.5052374 -0.19177738 0.038426433
000010 1e d4 40 3f 45 c8 5d be 1d 39 1d be 7f b8 d7 be
       0.75323665 -0.21658428 -0.15353818 -0.42132947
000020 19 1d a0 bf
       -1.250888
