log/segmentation/pn/laptop/full/pn_40.pth (torch, 337359 bytes, 8 tensors)

local_mlp.0.weight f4 [64, 3]
00000000: 3aea e33d 44e5 b8be 72eb 053f 6886 063e
00000010: bff7 a9be 70a8 583e 468f a73f d0f6 bc3e
00000020: 3207 03bf 8a92 9f3c 3ab3 dd3c 6575 9bbf
00000030: 24de 1dbf a0ac 883e ae7f 173e 97ea 8ebe
00000040: 7029 24bd 372b a6bf 0aa6 a73e d5e7 29bf
00000050: d9d9 183d fb2a 603c 795a 7d3c dc3f d23c
00000060: 6d78 1abd 3b2a 943e 5fb8 9e3e 50c5 cfbe
00000070: d8f7 d4be ae8c 8fbf 1ff5 ba3b 91f2 bd3a
00000080: af94 d83a 4b23 9a3d 8fa2 8bbe d954 963e
00000090: 3c93 c23d 5a71 d2be f35e 283f 4837 1a3e
000000a0: c9ec ccbe bb83 203e 5ade fbbe 5cef 263f
000000b0: 164b 5ebf 31ce 3a3c b742 4f3c 10a3 5f3c
000000c0: 7a1c 8fbf 8caf 35be e8e8 573e 6937 c3bf
000000d0: aab8 613e 3cf7 2d3e 3af7 813e 3305 fa3d
000000e0: eb71 96bf 7e5c e23e f3a7 5cbf 8627 7cbd
000000f0: de02 893e 775a f2be 59ad 093e 8bb7 423e
00000100: db5f dfbe 335d 473e e0f6 a83c ef67 853c
00000110: d523 113d cef8 8f3c 49d9 873c 9a6d 2a3d
00000120: 329f 373d bea7 803d 3cbf 153e 3278 173c
00000130: c3cf c1be 73dc 023f 3f7a bebf 5efd 063b
00000140: c1b9 7a3e affb ebbd 7c42 f3be d183 823e
00000150: e605 19be 515d 2b3f 52a5 183f 86e9 473d
00000160: 2e6c a23d 64ef a13e 00ef 9e3f f543 e5be
00000170: 1e59 3ebe 5c19 a4bf bfc4 d33d c110 513e
00000180: 7719 6b3d 0f4a 11bf 9d4a 1a3f 4ef4 0e3d
00000190: ee06 b13f 1965 a83e f21c 7ebd fe4a bd3d
000001a0: 1159 f43e a1f7 5c3e 485a a7be b278 243e
000001b0: 21ae 943f 530c 5dbf 2bb2 49be e875 15bc
000001c0: 41a7 7e3e 74d3 e23e 930a 27be c84c 323d
000001d0: edb2 a6bf 95fe bbbb 4764 4d3e bf02 c33e
000001e0: b2d1 29bd 5f8f 6ec0 b766 fb3d 8692 0f3f
000001f0: 9b33 88be 1920 23bd a954 d23c 9122 72be
00000200: 7113 583e 0a6a dc3e f61f bebd acff 6cbc
00000210: 8d6b dbb9 1cb2 c93b 6308 5f3c 3484 9bbd
00000220: b849 82bb ea12 1e3d dd31 bebd 4505 853d
00000230: ab96 35bb d18a bbbd 8029 c33e a8eb 053f
00000240: 50fc 08be 2a74 3d3f 9208 003f 3f1d 1c3b
00000250: ad8e b5be 718d 583e ad0b 15be 4da6 483f
00000260: f292 c83e b27a d63d c716 d83f 3a92 923e
00000270: bab7 293d a784 d53d 0fb2 033e 3248 443f
00000280: cf39 873e ae6e f1bd d8f8 fc3e a6c9 87bf
00000290: 7240 87bd 9116 53be 4068 dc3d aa19 b2bf
000002a0: 0fab de3e 51f5 f5bc 04d0 bfbc 1433 1fbf
000002b0: 6440 bd3d dfd4 193e 683d 773b 24bc 873b
000002c0: 322f 773c 00e4 d5be 935a df3f c965 603d
000002d0: 3ab0 e6be 9547 97be a749 ad3e 75a3 9d3d
000002e0: af4e 013c 3818 ca3e b361 b03d e0ee 24bd
000002f0: 98d6 cd3d 4f75 b6bf 614a 623e 8e9e 773e
0.111286595 -0.36112416 0.52312386 0.1313721 -0.33196828 0.21158004 1.3090599 0.36907053
-0.51182854 0.019479055 0.027063001 -1.2145201 -0.61667085 0.26694202 0.147948 -0.27913353
-0.04007858 -1.2981938 0.32743865 -0.6636937 0.03731713 0.013682122 0.015463465 0.025665216
-0.037712503 0.2893847 0.3100004 -0.40580225 -0.4159534 -1.1214807 0.0057054902 0.0014491846
0.0016523803 0.07526263 -0.2727246 0.2936161 0.09500739 -0.41102105 0.6576988 0.1506015
-0.40024403 0.15675251 -0.49193078 0.65208983 -0.8683332 0.011401699 0.012650183 0.013649717
-1.1180565 -0.17742747 0.2108494 -1.5251285 0.220431 0.16988844 0.2538393 0.12208023
-1.1753515 0.4421119 -0.8619377 -0.06156113 0.2676 -0.47334644 0.13445033 0.19015329
-0.4362782 0.19469146 0.020625532 0.016284911 0.035434563 0.017574694 0.016583102 0.04160843
0.044829555 0.06281994 0.14623731 0.009244965 -0.37853822 0.5111763 -1.4881057 0.0020597796
0.24484922 -0.11522614 -0.4751166 0.25491193 -0.14943656 0.66939265 0.5962726 0.04880669
0.0793079 0.31627953 1.2416687 -0.4477841 -0.18588683 -1.2820239 0.10340261 0.20416547
0.057397332 -0.5675363 0.602701 0.034900956 1.383024 0.3288963 -0.062039323 0.09242819
0.47724202 0.21578838 -0.32686067 0.16061667 1.161564 -0.8634693 -0.19696872 -0.009122349
0.2486849 0.4430195 -0.16312627 0.043530256 -1.3023354 -0.0057371357 0.20057784 0.38088033
-0.041459747 -3.7275007 0.12275451 0.5608295 -0.26601872 -0.039825533 0.025675135 -0.23645999
0.21101166 0.4304965 -0.0928344 -0.014465254 -0.00041851067 0.0061552655 0.013612839 -0.07593575
-0.003976073 0.038592257 -0.092868544 0.06495146 -0.0027708213 -0.091573365 0.381176 0.5231271
-0.133775 0.7400538 0.5001308 0.0023821143 -0.35460415 0.21147706 -0.14555235 0.78378755
0.3917461 0.10472621 1.6881951 0.28627187 0.04143498 0.10425692 0.12860893 0.7667266
0.26411292 -0.117886886 0.49408603 -1.0608413 -0.06604089 -0.20614077 0.107620716 -1.3914082
0.43489882 -0.030024203 -0.02341462 -0.62187314 0.09240797 0.1502261 0.003772581 0.004142301
0.015086936 -0.41775513 1.7449516 0.05478457 -0.45056325 -0.295468 0.33845255 0.076971926
0.007892295 0.39471602 0.08612385 -0.04026687 0.10050696 -1.425455 0.22098686 0.24181578

local_mlp.0.bias f4 [64]
00000000: 89f8 32bf e6ad d1be 26e8 bc3e 237c 9c3f
00000010: f485 0a3e 96b7 c63f d144 e5be 77e7 33bd
00000020: 951d cdbe 692b b93f 82f0 ac3b 103c eabe
00000030: c087 4cbf c441 b3be 63be 763f 9405 f7bc
00000040: f21d e13d 35a0 5f3e 1da0 8b3f 664a c8be
00000050: 68e5 d4be 295c d4be a4d1 86bd 1637 94bd
00000060: ac11 7ebe 92d2 20bf 25f1 143e 0fee b9be
00000070: 6b53 29bf ed3a f2be 5c66 bfbe 283b 293e
00000080: b3cb 37bf e094 91be bb4d 0cbf fb8f d7be
00000090: 21f6 e4be 04dd 0ebf fe3b b63f 3935 ffbe
000000a0: a597 15be 5f50 c9be af97 c4be 9bb2 6fbe
000000b0: f0dc 19bc e307 5ebc 9273 6a3d 73a3 12bf
000000c0: 0826 dabe 0ccd c8be 899d c4be f769 5dbe
000000d0: a344 63be 123e 1cbe 4849 f7be 1733 c53f
000000e0: c637 79be c870 063e 6e17 98bc 3dbd 043e
000000f0: 8f28 acbe 7ea8 16bf 4406 61be f285 573e
-0.69910485 -0.40952986 0.36895865 1.2225384 0.13527662 1.5524776 -0.44779065 -0.043921914
-0.40061632 1.4466373 0.005277694 -0.4574895 -0.7989464 -0.35011113 0.9638426 -0.030154027
0.1099204 0.21838458 1.0908238 -0.39119262 -0.41581273 -0.41476563 -0.065829545 -0.07237069
-0.24811429 -0.62821305 0.14545114 -0.36314437 -0.6614291 -0.47310582 -0.37382782 0.16526473
-0.71795195 -0.28433895 -0.5480611 -0.42102036 -0.4471903 -0.55805993 1.4237058 -0.49845293
-0.14608629 -0.3931913 -0.38396975 -0.23407976 -0.0093910545 -0.013551685 0.057239123 -0.57280654
-0.4260714 -0.39218938 -0.3840144 -0.21622454 -0.22194152 -0.15258053 -0.48298097 1.5406216
-0.24337682 0.1312896 -0.01856586 0.12962814 -0.33624694 -0.5885085 -0.21975046 0.2104719

local_mlp.2.weight f4 [256, 64]
00000000: f2c5 2ebd bf0c 8abd 5378 913e b319 1bbb
00000010: d127 163d e43d 17be ab09 b33e 3466 843c
00000020: 8272 45ba 58fc 5fbe 3591 163e 6ec0 a8bc
00000030: 9746 88bd 4075 cbbd 571f b7bd a7c5 953d
00000040: db1a b93d e715 18be dcf8 be3d 964b ad3e
00000050: 0e09 25bc ff15 aabd 2db7 663c 5ce3 323b
00000060: 5b70 f73c 46d1 82bd 8928 8cbb 58d4 2fbd
00000070: 4dc1 693d 7c6c 8d3d ada0 0d3f e1ea bcbc
00000080: 70fc f8bd ee6e 8c3d 5a8c 1cbd 126c d33d
00000090: d353 da3e d0ac 26bd dc1a f2bd e0ab 7ebc
000000a0: 9015 8fbf 47b0 173f f975 a63c 3d71 9e3e
000000b0: e881 393d 1d9b 563d debc 0f3e 96ae 32bd
000000c0: f828 c9bd b5a0 3f3c 40f5 843d 2499 013d
000000d0: 9423 4b3d 1d34 fe3e 344c 883e be35 32be
000000e0: aadd df3e c692 a43d fce4 52bc 4cc8 43be
000000f0: 8abf a63d d4d4 513e 2dce 82bc 8d40 c8bc
00000100: b911 90be c522 9bbc e775 25bf a153 97be
00000110: 2a14 64be dd01 a3be 2b30 123e 8dff e8bd
00000120: b28a 2f3b 963d 4fbe 5cd4 f0bc 463a cdbd
00000130: f19a a4be d641 9fbd 92a3 0b3f ceec 7bbd
00000140: 4578 25bf 9926 f5be 2fe3 f6be 551e 2b3d
00000150: af2c 1d3b 80e0 b2bd 6cb2 08be 9d3c bebd
00000160: 974a 99bd 2ee3 8dbe 5ff6 34bf 681b e2be
00000170: 8e8a 283e 6a83 d0bd c4f4 d1be 6258 10bf
00000180: c1ce aebe 4c70 4e3e c4a7 1bbe 815a a53c
00000190: c483 59be 28e3 bebb dcea 92be 9093 74bc
000001a0: fdaf 743e cb73 97bd d91d 0fbe 3078 a9be
000001b0: f0ac 31be b1bf 48be 32ae 46bd fcd0 163d
000001c0: ae89 313d 5e91 3bbe 8b5a 4a3e c729 193e
000001d0: 0e62 b2bb 401a 2ebf fc47 ad3d a2c8 3bbe
000001e0: 82f9 c0be 0539 9abe 7d71 27be 8cb3 883e
000001f0: b55b 1abf 2736 cfbd dbc9 43bb c3ba 00bf
00000200: c100 12be 3314 9cbd 2de7 27be a989 d1be
00000210: c72e febc f234 c2be ee9f b0bd ce4b 70bd
00000220: ee13 cabd b795 a7be ee9c 5bbd 262e 01be
00000230: 0d99 1abe 8b23 dbbd 7d09 e0be 927e 24bd
00000240: cb14 163e 8b8e 3a3e 39aa f7be 6198 9fbb
00000250: 4eac fabd 06f8 3bbe 6d8c b93c c818 363b
00000260: 69f6 88bc 1592 0abe bbfd 043e ca33 e73d
00000270: afe8 a1bc 1b17 d23c 3396 2a3e fe9f 013e
00000280: dcb5 11be bc9a 24be 1b2f 85bd 253e b7bd
00000290: d59a b43d 8727 0bbe 0a96 bbbe 39dd 04be
000002a0: 751a 6abe 4a43 0c3e 5990 333e c6b2 683e
000002b0: c0e0 c23d cd3b a6bd bb03 25be 7edb 47be
000002c0: a3e8 0abe 0761 033e a48b c2bd 5e50 16be
000002d0: e4b6 32bc 030a 883d 093b 11be 62fb f5be
000002e0: ff76 863e fb9a 57bc 28df 523d fa98 33bd
000002f0: 7bf7 653e 38ee 053d 66f8 bb3d 6f1f e33c
00000300: 663b d7bd f52a f23b 1f1c e0bd f5e1 67be
00000310: c3e2 2fbc c0aa 8bbe b439 ea3c 2dfb c5bd
00000320: b517 23bc d144 75be e988 0dbd eccc 46bd
00000330: 0cfd c4bd 38ef 4b3c 925c cdbe 4480 afbd
00000340: 6fd8 443a acab 6c3d 4ac4 8fbe 945f ba3c
00000350: f8d2 75bc 66f3 8ebd e922 4bbd 9418 36bd
00000360: de89 183c 59b3 75bd f1e3 95bc 49c9 3e3d
00000370: ed63 62bd 3237 573c 725c 4e3d 510f 093d
00000380: 1876 07be 8a6a 2cbe 1dfa 2abc 11f4 c13d
00000390: c17c b8bc b871 61bb d8d7 88be d0a9 2a3c
000003a0: 28b3 20be 68d2 a13d bcb9 f23d c58d ed3d
000003b0: 72da ddbd 2412 3dbd 0f2e 80bd bdec 76bd
000003c0: 5683 f1bd 24b6 cb3d 81a8 a8bd 28e2 30be
000003d0: 958f 033d d7f1 1cbd 9f55 41bd 81da adbe
000003e0: e283 d83d b483 c4bd 11e8 b8bd 5108 fe3d
000003f0: dd2e de3d 41ad ed3d ba1f 133e 7e60 75bd
-0.042669244 -0.067407124 0.28412113 -0.002366644 0.036659066 -0.14769703 0.34968314 0.016162015
-0.00075320166 -0.21873605 0.1470383 -0.02059957 -0.06654089 -0.09934473 -0.089415245 0.0731309
0.090383254 -0.14852105 0.0932481 0.3384673 -0.01007296 -0.08304977 0.014081758 0.0027296161
0.030204942 -0.06387572 -0.004277293 -0.042927116 0.05706911 0.069054574 0.55323297 -0.023061218
-0.12157524 0.06857096 -0.038219787 0.10323347 0.42642078 -0.04069215 -0.11821529 -0.015543908
-1.1178455 0.5925335 0.020319926 0.3094577 0.045289904 0.05239402 0.14036891 -0.04362353
-0.09822267 0.01169603 0.0649209 0.031640187 0.049594477 0.49649134 0.26620638 -0.17403314
0.43723804 0.08035807 -0.012871977 -0.19119376 0.08142002 0.20491344 -0.015967453 -0.024444843
-0.2813852 -0.018937478 -0.6463303 -0.2955599 -0.22273317 -0.3183736 0.14276187 -0.113768674
0.002678555 -0.20238337 -0.029398136 -0.100208804 -0.3214946 -0.07776229 0.54546463 -0.06150513
-0.6463664 -0.4788101 -0.48220202 0.041776974 0.0023982932 -0.08734226 -0.13349313 -0.09288905
-0.0748493 -0.27712387 -0.7068843 -0.44161534 0.16459104 -0.10181315 -0.41007054 -0.5638486
-0.34142116 0.20160025 -0.15200716 0.020184757 -0.21241671 -0.005825419 -0.28694808 -0.01492776
0.23895259 -0.07395133 -0.1397623 -0.33099508 -0.17351127 -0.19604374 -0.04850597 0.036820397
0.043344192 -0.18317172 0.19761102 0.14957343 -0.005443818 -0.68008804 0.084609956 -0.18338254
-0.3769036 -0.30121627 -0.16351886 0.26699483 -0.60296184 -0.101177506 -0.0029874954 -0.50284976
-0.142581 -0.0762104 -0.1639678 -0.4092534 -0.031028165 -0.3793102 -0.08624254 -0.058666043
-0.098670825 -0.3273141 -0.053616457 -0.1261526 -0.15097447 -0.10700139 -0.4375724 -0.04015977
0.1465637 0.18218438 -0.48372057 -0.00487046 -0.12239896 -0.18356332 0.022649968 0.0027785767
-0.01671906 -0.13532288 0.12987415 0.11289175 -0.019764272 0.025645783 0.16658859 0.12658688
-0.1422953 -0.16074651 -0.06503125 -0.089474 0.08818594 -0.13589297 -0.36637908 -0.12975015
-0.22861655 0.13697544 0.17535533 0.22724447 0.09515524 -0.08116875 -0.16114704 -0.19517323
-0.13565306 0.12829982 -0.094992906 -0.14679095 -0.010907862 0.066425346 -0.14182676 -0.48043352
0.26262662 -0.013159509 0.05148235 -0.04384706 0.22457688 0.032697886 0.091782376 0.02772495
-0.10509376 0.007390375 -0.10942864 -0.2264479 -0.010735217 -0.2727871 0.028591968 -0.096670486
-0.009954383 -0.23952033 -0.034554396 -0.048535272 -0.09618577 0.012447171 -0.40109688 -0.085693866
0.0007509058 0.057780907 -0.28079444 0.022750653 -0.015003912 -0.06980018 -0.04959384 -0.044457033
0.009310214 -0.059985492 -0.018297167 0.04657868 -0.055271078 0.013135718 0.05038113 0.033461872
-0.13228643 -0.16837516 -0.010435608 0.0947038 -0.022520425 -0.0034400057 -0.26727176 0.010416463
-0.15693343 0.0790146 0.11851832 0.11599306 -0.10832681 -0.04615988 -0.06258785 -0.060284365
-0.117926285 0.0994685 -0.082352646 -0.17273772 0.032119352 -0.038316574 -0.047200795 -0.33955768
0.1057203 -0.09595433 -0.09028638 0.1240393 0.10848782 0.11605311 0.14367571 -0.059906475

local_mlp.2.bias f4 [256]
00000000: 5125 aabe 8e95 8cbe b4ae 6fbd c3d5 a7bd
00000010: e447 4cbe 6712 0cbf 9c28 afbd 6fda e8bd
00000020: 856d 613c a393 c6bd 75ad 8fbd ba93 a1be
00000030: 014a 43be 927d a6be 57d0 273e 39b6 51be
00000040: 4f16 1bbe d49e 903d 4773 543e 93ae cdbe
00000050: fb30 9c3b e1e7 e7bd c7d8 86be 4489 69bd
00000060: af67 ccbd 3a95 f5be cefb b6bd 1fb2 1e3d
00000070: 124c 1ebe 0511 a1be 4d62 bf3c 64aa e7be
00000080: dbc4 9ebe 9d59 4ebe 75b4 14be f269 1ebd
00000090: 749b 1cbe f746 6abe 657e aabe e2d8 cabd
000000a0: dabc 3abe dab6 74be 6624 5cbe a7a1 cbbd
000000b0: c656 6fbe bf63 d1bd 3895 273e 3d62 1dbe
000000c0: c488 69be 091c e7be bc66 383d 00a0 78bc
000000d0: 910e 7abe 96d8 d5be 4859 0cbe 8c36 3bbd
000000e0: 566e f8be 850b 043e 6f21 54be 64d6 023d
000000f0: 4e73 1ebe 16a2 6fbe 6663 e9be acbc 35be
00000100: aab4 78be f3a1 e6bd b58e ff3d 4dff 5cbd
00000110: c587 48bd 1188 a63d 2897 953d 11c3 263e
00000120: 2d89 edbd bafe a1be 9064 21be ebcd 4ebe
00000130: 342c 3ebe 8258 1cbe 70c5 e6be 33a8 28be
00000140: b4dd 87bd 1962 06be 0963 09bf 4368 3dbe
00000150: 9348 40be 1eab 1abe 6280 50be 64f8 35be
00000160: e068 11be 8744 2cbd 49f2 03bd 257f 03bd
00000170: fb11 25be 86e8 96be 2d88 02be 4657 02bd
00000180: d70b c4be 7f75 49be 8301 e8be 4d2e 8ebe
00000190: c0f1 42be ce62 35be cb3b fcbe d59c 6fbe
000001a0: e272 3f3e f840 ad3d aeee 79bd ef90 97be
000001b0: 648b dbbe 6a6b b3bd 6a10 143e eef0 50be
000001c0: 8d1b 0ebf 166c a4be 2eda 95be 5ec9 b23d
000001d0: 3eb4 9fbe f960 0bbe a959 00be 3b62 97bd
000001e0: 9da2 72be ef8e 77be 42b7 1d3d 332c b4be
000001f0: a783 a2be f44d 34be b86c 97be 5830 39be
00000200: 6e15 43bd a91c 1c3d 3e9e 00be 8e94 3cbe
00000210: 2f9b 763c 3bd0 93bd e1bf 96be a0f9 2abe
00000220: 4503 60be ad5d 72be f33c 69be b7b2 f6bd
00000230: 87f5 e33b 4c3d 1fbe 8283 093d 1675 cd3c
00000240: 4f0d 94be fa8d 823d 75ec d6be 77e6 28be
00000250: cb6a 80be 1d25 623e 53f4 72be 0e4f 42be
00000260: 396a 3ebe 620e 3fbe c00b 0d3d 1ed6 a8bd
00000270: 4153 8bbe 817b 8bbc 6d04 dabd 5cbf d13d
00000280: dbaf 20be afa1 76bd 00dc 82be b8ac aebe
00000290: 8a68 3dbe 3989 30be a92b 0fbf 013d 64be
000002a0: 6612 d6be 90dc 69be e043 fabd 7448 733c
000002b0: 4183 7abe d4ce 95bd 6943 a5bd f311 59be
000002c0: d13f 57be a78a 0f3c 8389 173e 4220 b6bd
000002d0: 1646 3dbe c9bf 6cbc aaaf f0bc 4dbe 3abd
000002e0: 460d 9fbe c40d 54be 4b04 35be 5b04 02be
000002f0: ec7c a4be 7b49 dbbe f507 88be b989 42bd
00000300: daeb 62be 9df9 75be f468 19be bd73 31be
00000310: 7bfb 43be bd8c 543e 523f d8be 6abe 5bbd
00000320: 7550 01bf e616 92be 9940 a5bd 62d2 c8be
00000330: 58ce 96bd 7e77 a83d 900e ebbe 4006 55bd
00000340: a30e 163e 77d2 f8be 801d f9bd 9a12 57be
00000350: 167a c7bd 9576 93bd 625c 84be 41e8 08bf
00000360: 657f 84bd ec9a 31be 5950 08bf 1213 17be
00000370: 1bd2 ec3d 1c5b f7bd 9046 58be a3eb 9ebe
00000380: 736f 3fbe 4486 fdbd e452 85be df11 7f3d
00000390: aca2 9fbd b68e 9ebe c236 063e b4f0 a4be
000003a0: e8a6 cfbd b3ed 4abe a2dd 92bd 1452 34be
000003b0: 481a 0ebd a1fe 65be 08e5 30bd d9c4 02bf
000003c0: fefc e43d e4f6 83bd 5e43 1dbe 2ed7 8bbd
000003d0: 91a0 f4be 7184 333e fd9a 1bbe 27eb 20be
000003e0: f379 b5be 1ae2 6bbe 09d4 b0bd 8cdc 4fbe
000003f0: 137a 1c3e 43a4 30bd 9e6b ce3d bcbd 79be
-0.33231595 -0.2745785 -0.05851622 -0.08195069 -0.19949299 -0.5471558 -0.085526675 -0.11369788
0.013759022 -0.09696128 -0.07015506 -0.3155802 -0.19071199 -0.32517678 0.16388069 -0.20479669
-0.15145229 0.07061544 0.207471 -0.40172252 0.004766581 -0.11323524 -0.26337263 -0.057015672
-0.099807136 -0.47965413 -0.08934747 0.03874409 -0.15458706 -0.31458297 0.023362303 -0.45247185
-0.31009564 -0.20151372 -0.14521964 -0.038675256 -0.15293676 -0.22878633 -0.33299556 -0.09904648
-0.18236104 -0.23897877 -0.2149826 -0.09942942 -0.23372945 -0.10224103 0.16365516 -0.15369506
-0.22806078 -0.45138577 0.04501985 -0.015174866 -0.24419619 -0.41766804 -0.13705933 -0.045706317
-0.4852168 0.1289502 -0.20715879 0.03194274 -0.15473673 -0.23401675 -0.45583647 -0.17747754
-0.24287668 -0.11261358 0.12478391 -0.05395441 -0.048957605 0.08131421 0.073042214 0.1628535
-0.1159843 -0.31639653 -0.15761018 -0.20195739 -0.1857155 -0.15268138 -0.45072508 -0.16470413
-0.066340834 -0.13123359 -0.5366674 -0.18496804 -0.18777685 -0.15104339 -0.20361474 -0.17770535
-0.14200163 -0.04205754 -0.032213483 -0.032103676 -0.1612014 -0.29474276 -0.1274726 -0.03182151
-0.38290283 -0.19673727 -0.45313653 -0.277697 -0.19037533 -0.17713472 -0.49264368 -0.2339967
0.18696168 0.084596574 -0.06101864 -0.29602763 -0.42879784 -0.08760722 0.14459386 -0.20404407
-0.5551079 -0.32113713 -0.2926802 0.08729814 -0.311922 -0.13611211 -0.12534203 -0.07391783
-0.23694845 -0.24175619 0.038504846 -0.3518997 -0.31741068 -0.17607862 -0.29575133 -0.18084848
-0.04762786 0.03811327 -0.12560365 -0.18416044 0.015051647 -0.07217451 -0.29443267 -0.16696787
-0.21876247 -0.23668547 -0.22777157 -0.12045806 0.0069567594 -0.15550727 0.03357268 0.025080245
-0.28916404 0.06374736 -0.41977277 -0.16494165 -0.25081477 0.2208447 -0.23726015 -0.1897547
-0.18595208 -0.1865783 0.034435034 -0.082439646 -0.27211955 -0.017026665 -0.106453754 0.10241577
-0.15692084 -0.060212787 -0.25558472 -0.3411615 -0.1849691 -0.17239846 -0.55925995 -0.22288896
-0.41810912 -0.22838044 -0.122199774 0.014848817 -0.24464132 -0.0731484 -0.08069498 -0.21198253
-0.21020438 0.008761085 0.1479855 -0.088928714 -0.18483767 -0.014450022 -0.029380638 -0.04559164
-0.31064814 -0.20708376 -0.17677419 -0.12696974 -0.32126558 -0.428295 -0.2656857 -0.047494624
-0.22160283 -0.24021001 -0.14981443 -0.17329307 -0.19138901 0.20756812 -0.4223581 -0.05364839
-0.5051339 -0.28533095 -0.08068962 -0.3922301 -0.07363576 0.08225916 -0.45909548 -0.052007914
0.14654021 -0.48598072 -0.1216383 -0.2100319 -0.09740083 -0.07200352 -0.25851732 -0.5347939
-0.06469611 -0.17344254 -0.532476 -0.14753368 0.11563512 -0.120779246 -0.21120667 -0.31039152
-0.18694858 -0.12379125 -0.26039803 0.062272903 -0.07794699 -0.30968255 0.13106826 -0.32214892
-0.10139257 -0.19817238 -0.07171179 -0.17609435 -0.034693033 -0.22460414 -0.04318717 -0.51081616
0.11181067 -0.06443575 -0.1535773 -0.06828152 -0.47778752 0.17530991 -0.15195842 -0.15714704
-0.35444602 -0.2303547 -0.086341925 -0.20298976 0.15280943 -0.043125402 0.1007912 -0.24388784

output_mlp.0.weight f4 [128, 512]
00000000: 4f3d 893d b0d8 703d 56be 6cbe 4b57 26bd
00000010: fb54 443d febd a23d 9bb5 89bc ce8c 06be
00000020: 7543 0bbc e3b1 05be 1394 c3bd 5f46 043d
00000030: c7e9 853d 3a49 1b3c 2036 623e 79d5 c9bd
00000040: 3034 f4bd 98a3 0fbd 693f e83d 5e8a 9e3d
00000050: 09be 83bc c30d c63b d1c7 1cbd 53e1 35be
00000060: 4bf8 7fbd 5901 833c 2c2d 023d 5d26 76bd
00000070: 630f 9b3d c1d7 273d f959 ebbb f882 0c3d
00000080: fc0d 97bc 63fb f9bc d8c2 2bbd 2554 70bd
00000090: aaf1 11bc 86b0 fabc 6e93 b3bc 553f 00be
000000a0: 317b d23d 681b f3bb d5de 99bd 9cd2 2a3c
000000b0: 5c3b debd 613a e639 c63b b53d 1aec e9bd
000000c0: 0c95 e13d ea0a e53d d5f6 aa3c 7459 a2be
000000d0: 6129 4c3d f2ae 8b3d 763a b5bd 310a 0cbe
000000e0: dd0e 5e3d ab62 1d3e 655c 3f3d fcdb 9cbc
000000f0: 34de b3bd bc72 4fbd fcb0 01bc 7e8c e33b
00000100: 4b35 3abd a2ba 06be 148e 423e b738 1dbe
00000110: 50df 46be f40c cdba c662 c93c 72b2 9f3d
00000120: 5af8 46bd cc1a ae3d 4c99 4f3d 94e5 58bd
00000130: d97e 883d 4797 01be f81e 21bd 6d73 76bd
00000140: 884e a8bd 0504 20bd b258 5e3d 4358 9b3d
00000150: 6a3c 90bd c3e3 82bd 8b84 cdbc 7703 8b3c
00000160: bec4 4ebb 7191 17be 93b8 95be 5710 56be
00000170: dce8 debd dd0e 1cbd e2f8 f2bd 9bd6 fcbb
00000180: c883 62bd 706f fa3d 1655 043e a11d 23be
00000190: af11 e1bd 3c54 843d e7e4 c63d 61b2 fa3c
000001a0: 28de 32b9 fedb 12bc 0ff0 093d 4a40 053e
000001b0: 1f7b dd3d 940f 3abd 40dc 463e 1fb3 1c3d
000001c0: a0db 89bd 006f 4abe 5ae4 e0bd 24b8 91bd
000001d0: c323 fcbc 6832 bebd 2643 21be d0ca bdbc
000001e0: bba5 cabc f3f7 673d 090d b8bd cc8e 763d
000001f0: 1abc a5bc d424 5dbc 50f4 3d3d 5623 9b3c
00000200: 0906 35be cd1a 7ebc 8ef7 423d a7f0 6f3d
00000210: 2b8f 87bc f77e c3bd 0e1b 13bd 5e62 95bd
00000220: c777 04be 2527 d0bd 2ca5 563d 30c8 553d
00000230: 0c31 86bd 808e dc3c 1c0e 0cbd 9835 70bd
00000240: 15ab b1bd 3108 42bd f1ac e13d 8ddc 19be
00000250: 34a1 523c 0719 0d3e 4c46 2bbe d91c 0ebd
00000260: aad2 75bd 529e 703d 0d67 2cbc ce7b 693d
00000270: 2c6d 093d e761 2dbd c273 31be ca8e edbb
00000280: b90d 21bb 04c8 33be 6436 b73b c21e a23d
00000290: 9501 7b3d c5b9 e4bd 6f2a 903d 1e3f 86bd
000002a0: d4fe ed3d 79c3 c13c 2359 c93d c8f7 b9bc
000002b0: 275e 383c 7723 0c3d 14c8 c13c 50c8 833c
000002c0: 082c 963c 4165 44bd f41a 623d ff28 cabd
000002d0: 18d1 abbd cece 7d3c c39e 973d 0032 053d
000002e0: 7a8c d23d 17d4 03bc 5fe3 babd 927b d43d
000002f0: 5daf d13d 6fa2 9d3d 31c5 24be 3380 8fbd
00000300: c76e 73be d864 aa3d a27e cc3d 841f 21bd
00000310: 7be1 e9bc ad33 1d3e 99cd c4bd 5ee2 07be
00000320: 2d4d 503d c454 70be d2fb c53d 41f1 b33c
00000330: 24a1 edbd 91cf 04bd 7ffa 32bd fd3e 67be
00000340: 5a21 453d a7f0 61bd 1478 963d 2fe8 b33d
00000350: 99be 1a3d ca0e c33c 846e fc3d 9a33 163d
00000360: 05ac 40bd 1107 c2bd c1e0 153d 13dc 453d
00000370: dc7b 7a3d e9fd 21be 0b9f 8b3d 876a acbd
00000380: f753 e13d 2ca6 d0bd 88d4 df3d 70d3 55bd
00000390: ce0f 313c ae8a 4dbe 1443 e33c 3ec8 cdbd
000003a0: 5d17 84bd decb 4b3d aa01 bbbd 483f d33d
000003b0: 96e6 96bd 1369 18be ac3b 35be 3471 423d
000003c0: f652 edbc fc31 5bbc 5b08 84bd cd47 29be
000003d0: f5d2 9ebc 4984 323e 240d 503c c636 02bb
000003e0: 33fc c13d 1b3a a03d 131b 523c ab8f 93bd
000003f0: 0977 803d c4c3 9c3d 1f1e e6bc f5f8 bf3d
0.06701147 0.0588004 -0.23119482 -0.040610593 0.047932606 0.079463944 -0.016810229 -0.1313965
-0.00849997 -0.1305614 -0.09549727 0.032293674 0.0653873 0.009477908 0.2209096 -0.0985517
-0.119240165 -0.035068125 0.113402195 0.07741235 -0.016081827 0.006044121 -0.038276497 -0.17761736
-0.06249265 0.015991854 0.03178136 -0.06009518 0.07571294 0.040977243 -0.0071823564 0.03430459
-0.018439285 -0.030515378 -0.041933864 -0.058673996 -0.008907715 -0.030601751 -0.021920886 -0.12524159
0.10277403 -0.0074190386 -0.07513205 0.01042619 -0.10851166 0.00043912514 0.088492915 -0.11421986
0.110147566 0.11183722 0.020869652 -0.31708872 0.04984415 0.068204775 -0.08849041 -0.13675763
0.054213393 0.1536967 0.046718974 -0.019147865 -0.08782616 -0.05064653 -0.0079157315 0.006944238
-0.04546098 -0.13157132 0.18999511 -0.15353666 -0.19421124 -0.0015644119 0.024583232 0.077977076
-0.04857669 0.08501205 0.050683305 -0.052953318 0.06664819 -0.12655364 -0.039336175 -0.060168672
-0.08218104 -0.039066333 0.054283805 0.07585194 -0.07042773 -0.06391098 -0.025087615 0.016969426
-0.0031550373 -0.14801575 -0.2924238 -0.2090467 -0.10884258 -0.038100112 -0.11863877 -0.0077160127
-0.055301458 0.12228286 0.12923083 -0.15929271 -0.10989701 0.06461379 0.097116284 0.030602636
-0.00017058162 -0.008963583 0.033676203 0.13012806 0.10814499 -0.045425013 0.19419956 0.03825676
-0.06731343 -0.19768906 -0.109810546 -0.071152 -0.030778771 -0.09286958 -0.15748271 -0.023167998
-0.02473723 0.056632947 -0.08986861 0.060194775 -0.020231295 -0.01349755 0.046375573 0.018937748
-0.17678083 -0.0155093195 0.047599368 0.058579113 -0.01654776 -0.09545701 -0.035914473 -0.07294153
-0.12936316 -0.10163716 0.052403614 0.052192867 -0.06552324 0.026923418 -0.034193143 -0.05864486
-0.086752094 -0.047371093 0.11019314 -0.1502554 0.012855817 0.13779078 -0.16726035 -0.03469548
-0.060015358 0.058744736 -0.010522616 0.057002835 0.03355138 -0.042329695 -0.17329314 -0.007249688
-0.002457483 -0.17556769 0.0055912007 0.07916023 0.061280806 -0.11168245 0.070393436 -0.065550074
0.1162087 0.023652779 0.098314546 -0.02270116 0.011252916 0.03421351 0.023654975 0.016086727
0.018331543 -0.047948126 0.055201486 -0.09871101 -0.08389491 0.015491201 0.07403328 0.032518387
0.102807 -0.008046172 -0.09125399 0.10375132 0.10238526 0.076969974 -0.16090848 -0.07006874
-0.23772727 0.08320016 0.09985091 -0.039336696 -0.0285499 0.15351744 -0.09609527 -0.13269946
0.05085485 -0.23469836 0.096671715 0.021965625 -0.11603001 -0.032424513 -0.043695923 -0.22582622
0.04812751 -0.055161145 0.07347122 0.0878452 0.037779424 0.023810763 0.12325767 0.036670305
-0.04703905 -0.09474004 0.036591295 0.048305582 0.061153278 -0.15819515 0.068174444 -0.08418756
0.11002343 -0.10187945 0.10929209 -0.052203596 0.010806991 -0.20072433 0.027741946 -0.10047959
-0.06449769 0.04975497 -0.09131177 0.10314804 -0.073681995 -0.14883833 -0.17698544 0.04747124
-0.028970223 -0.013378616 -0.06446906 -0.16531296 -0.019387702 0.17433275 0.0126984455 -0.0019869073
0.09471931 0.07823583 0.012823838 -0.07205137 0.06272704 0.07654527 -0.028090535 0.09373657

output_mlp.0.bias f4 [128]
00000000: 37c1 8abd d5dc 89bd 5ebf dabd e1a7 dabd
00000010: 9bdc 82bd aff1 08be 6c27 1bbe 6fe9 aabd
00000020: 39b9 a83e 0fa0 95be 80a1 febe 4693 d9bd
00000030: 5174 c1bd 4f96 98bd 94fb 9bbd a769 45bd
00000040: 8e23 8b3e 1061 f9bd adc0 a6bd 142d 48bd
00000050: a69d a93d c7e7 a7bd 08d5 c1bd ac48 f5bd
00000060: 738a 333e 5dfc 5dbe 1515 77be 76e4 05be
00000070: 4bd2 c93d f83f b5be f40d 1e3e c48b 973b
00000080: f4d8 57be db3f e9bd 21a8 b5bd 432c 85be
00000090: 030b 4dbd 9c52 1cbe fddc 2dbd 1d5a babd
000000a0: 052a 573e 7cb7 93bd 93af 39be e030 c2bd
000000b0: 9ee9 87bd 7b40 dfbd 1042 cdbe f444 24bd
000000c0: 23d4 91bd cd2b d2bd 7d94 87bd c95a 09bd
000000d0: ba97 9dbd 1c96 29be 551a 0bbe 1178 7fbb
000000e0: 666a 043e 9df2 dfba c4ae 99be 0be4 b2bd
000000f0: 2d8c 4ebe 8ed5 84bc 6894 dc3d 2baa 96bd
00000100: ce90 14bf e481 8dbd 3828 5a3e 1f7c 85bd
00000110: 794d 08be 02ad 8dbe d8ea 99be 05a5 313e
00000120: 6aeb 78bd 663e d8bd ebce f4bd f556 85be
00000130: e7f3 21be da43 d4bd 5517 41bd 69f4 b1bb
00000140: f1da 7fbd 8613 ff3d a31d 123d 17ca 08bf
00000150: c469 6abd da69 a2bd 749d b53d 5d09 babd
00000160: 2bf9 003f 233a 80bd bbcb c8ba 90d8 d4be
00000170: 70d7 b0be 8da1 22bd 9552 8c3e 5865 44be
00000180: c9e2 8fbd 8d08 22be 9800 8abd 3e51 933e
00000190: 0f30 aebd 1235 49be 4ac5 92bd 53d9 d8be
000001a0: b5be e3bd 97b1 b0bd bc78 83be b465 b9bd
000001b0: 8d82 d4bd 0fdc 43be e856 6fbe 0f4b 08bf
000001c0: fa47 16be eb01 da3c 9287 adbd d064 bebd
000001d0: 6433 243e a586 81bd eeab 3cbe 982e 82be
000001e0: 7c26 febd 1d15 9cbd 324c 04be 9c55 b0be
000001f0: 5e65 13be 614e 13be bc22 c6bc 5753 5d3e
-0.06775134 -0.067315735 -0.10681032 -0.106765516 -0.063897334 -0.13373445 -0.15151757 -0.08345305
0.32953814 -0.29223678 -0.4973259 -0.10623793 -0.09446014 -0.07450544 -0.07616344 -0.04819646
0.27175564 -0.12176716 -0.08142219 -0.048871115 0.08282022 -0.08198505 -0.094644606 -0.11976752
0.17533283 -0.216783 -0.24129136 -0.13075432 0.09854563 -0.35400367 0.1543501 0.0046248157
-0.21078855 -0.113891326 -0.08869959 -0.26010332 -0.05005933 -0.15265888 -0.04244708 -0.09099219
0.21012123 -0.07212731 -0.18133382 -0.094819784 -0.06636356 -0.109009705 -0.40089464 -0.04010482
-0.0712054 -0.102622606 -0.06620119 -0.033533845 -0.07694955 -0.16561168 -0.13584264 -0.0038981477
0.12931213 -0.0017085854 -0.30016148 -0.08734902 -0.2017066 -0.016215112 0.10770494 -0.07356676
-0.58033454 -0.0690954 0.21304405 -0.06517815 -0.13310803 -0.27671057 -0.30061984 0.17348106
-0.060771383 -0.105587766 -0.11953529 -0.26042905 -0.15815698 -0.10364504 -0.04714139 -0.0054307473
-0.06246466 0.12454896 0.035672795 -0.53433365 -0.057229772 -0.07930346 0.088679224 -0.09083817
0.503802 -0.06261089 -0.0015319505 -0.41571474 -0.34539366 -0.039704848 0.27406755 -0.19179285
-0.07025678 -0.15823574 -0.067383945 0.2877292 -0.0850526 -0.19649151 -0.07166536 -0.42353305
-0.11120359 -0.086276226 -0.2567805 -0.090526015 -0.10376463 -0.19126914 -0.23372996 -0.5323953
-0.14675894 0.026612243 -0.084731236 -0.09296572 0.16035229 -0.063245095 -0.18424961 -0.25426173
-0.12409684 -0.076212145 -0.12919691 -0.34440315 -0.14394137 -0.14385368 -0.024186485 0.21613823

output_mlp.2.weight f4 [9, 128]
00000000: 708f 563e e8c7 373e db91 18be 5207 a23e
00000010: a7c5 553f 7619 2b3d 4c18 373f 68ec 94bc
00000020: 1461 67bc 8c48 b1bf 7dd2 14bf d9c6 3dbe
00000030: 4bca ae3f 5896 ea3f 2368 863f dea6 043f
00000040: f221 cfbe b288 063e 51c8 00be e7ae cbbd
00000050: 7785 a53c f9e6 c8bd 0fa2 fcbd 48fd 963e
00000060: b9a0 ddbe 5078 df3e 8117 893e 4df2 a8be
00000070: 1a3d 22bf 49f6 14c0 7ccc f0bf 91ee 33bc
00000080: 1164 363f 783f 6b3f 2bf2 8e3f ff36 d3be
00000090: 12cc af3f e7a5 033f 414d 653f 0f9c f13d
000000a0: 2734 59bf 28ae 723f efcc de3e 34e7 743f
000000b0: addd 363e dced 123f d916 acbe 753f e73d
000000c0: abe1 123e 9820 a53e 271c ab3e a6ac 243c
000000d0: 8852 d03e 5944 223f 256c 9b3e b7e6 22bf
000000e0: e101 69be 702b f23f 0a4e 19bf d0e0 1b3e
000000f0: 2bdd a8c0 6bbf 3f3e 9f1f 8dbf 242d 7b3e
00000100: 3566 9ebf ad40 33bf 073c d2be 3d58 1dc0
00000110: a83b 4e3e 0949 2fbf 8df2 63bf 6b32 40bf
00000120: cbe7 193e 897d 143d 6586 9d3d 080b cd3e
00000130: 641e 033f 6d27 983d 6499 0d3e 4a91 b83d
00000140: f25f 983f 999c 313e fd1b 7bbf 5842 63bd
00000150: e780 ba3e 093d 203e 2a00 adbe a28c 1340
00000160: 389d f43d 2835 653e dc3c 88bd 8353 0d3e
00000170: 0792 9ebd 5db5 0c3e 6bea e63d 74ac d33e
00000180: 2930 6c3e 2014 b3be 69c4 e93d 383e 373e
00000190: 7874 053e ef7a bc3d 24b2 df3d 2149 b03d
000001a0: 937a c93d 74d2 d23f e036 63bd 1944 213e
000001b0: cadf 563e 9a53 6cbd 500d df3e 108b 5fbd
000001c0: aba4 dd3d c19e bfbe dc78 6e3e ad40 483e
000001d0: 002e 1cbf 548d 273e f3dd 0b3c f651 5bc0
000001e0: a7fc 893d 26e3 823e 68c9 32bf 4b21 463e
000001f0: 2df4 0d3e 83df 86bd 1a2e ec3e da41 c6be
00000200: 9dd7 90be 93d2 393e 2cc4 35be f78e b03e
00000210: 187b 953f a03e 823e 99b9 553e 25a9 ecbd
00000220: 011a 453f a41b 3cbf d180 e83e 1b8d 51be
00000230: 1715 9bbf f282 c5bf d339 18bf 6413 2a3e
00000240: 23f6 79bd 2abb ac3d e1d4 18be 5dfc 1fbe
00000250: b504 613e e362 8cbd 3fea 22be 4ee1 143e
00000260: 6a25 fabe 58d8 393e 3c31 8e3e 1d69 b83e
00000270: 72e8 13bd 8321 bcbe 34c7 a73e 649e 19bf
00000280: 7689 3c3e abb4 2cbf c1a3 3abf 27ff 4abe
00000290: 41c9 dabf c412 433e a3f6 cbbe 7029 8e3d
000002a0: 4599 e23e 0d9d 22bf 0394 cfbc 7d59 3ebf
000002b0: a08c bf3d 74b0 1a3e ef61 8b3e e935 143e
000002c0: 70c8 eb3d 203e 443e 0613 233e 0c30 b63e
000002d0: ad79 553e 5a51 6e3e 7194 363e 501b e3bc
000002e0: fb04 713e 3714 00c0 4664 9ebe 2f37 793e
000002f0: ce6e f33f 0ca5 1b3d a0e7 97bf 2e43 363e
00000300: 931f 72bf a596 683f b486 9fbc 4df3 e9bf
00000310: 6427 28be 1881 973d ba9e fcbe 2086 a4bf
00000320: c857 f23d fce5 713e 4b0c da3d c5f3 3f3c
00000330: 4087 523e cf57 873d 004b c73d 9500 093d
00000340: e4fa 40bf ddaa 263f 80ca 373f bc60 823f
00000350: 9191 113e 8bad 20be 8cb9 95be 32bd f1bf
00000360: 4e14 f13d 57e9 0e3e c48d 103d d4ef 7a3e
00000370: d9df f03d 960d f23d 9a25 303e 89d1 eb3e
00000380: be10 743e e222 b3bc 44dc 5b3e f3d5 b83e
00000390: 6eb9 533e b16b 31bb c1e5 503e 45f7 13bf
000003a0: fea7 593d a458 bfbf 7f3e ba3d 309c d53d
000003b0: 8a50 803e bcdb 963e 04c6 5f3e 4205 de3f
000003c0: 1469 013f 3ade bfbe 0a4b b83d 3648 7a3e
000003d0: 3db8 67c0 5272 0c3e 1815 65be 424e 03c0
000003e0: 9c2c 283e 505b 543e 1d85 bf3e 0caf d13e
000003f0: 0b25 493e d569 7a3e e7b3 d6be 47ec 2abd
0.20953155 0.17947352 -0.1489939 0.3164621 0.8350472 0.04177233 0.7152145 -0.018179134
-0.014122266 -1.3850265 -0.5813368 -0.18532886 1.3655485 1.8327131 1.050053 0.5181712
-0.40455586 0.13138083 -0.12576415 -0.09945469 0.020205243 -0.098096795 -0.12335598 0.29490113
-0.43286684 0.4364648 0.26775745 -0.3299736 -0.63374484 -2.327532 -1.8812404 -0.010982172
0.7124644 0.9189372 1.1167654 -0.41252896 1.3734152 0.5142502 0.89571005 0.11797344
-0.84845203 0.9479699 0.43515727 0.9566529 0.17858 0.57394195 -0.3361118 0.112914
0.14343898 0.3225143 0.33419916 0.010050928 0.40687966 0.6338554 0.30355945 -0.6363329
-0.22754623 1.8919506 -0.59884703 0.15222478 -5.276998 0.18725364 -1.1025275 0.24528939
-1.2374941 -0.7002056 -0.41061422 -2.4585106 0.20139945 -0.6847082 -0.8904198 -0.7507693
0.15029828 0.036252532 0.07691649 0.4004748 0.5121825 0.07429395 0.13828045 0.09012087
1.190428 0.17344894 -0.9808958 -0.055483192 0.3642647 0.15648283 -0.33789188 2.3054585
0.119440496 0.22383559 -0.06652233 0.13801388 -0.07742696 0.1374106 0.112751804 0.4134251
0.23065247 -0.34976292 0.114144154 0.17894828 0.1303271 0.09203135 0.109226495 0.08607698
0.09837832 1.6470475 -0.055472255 0.15748633 0.20983806 -0.057696916 0.43564844 -0.05457598
0.108224235 -0.37425807 0.23288292 0.19555922 -0.6100769 0.16362506 0.008536804 -3.4268775
0.06737643 0.25563926 -0.6983857 0.19348638 0.13862677 -0.065856 0.46128923 -0.38722116
-0.282895 0.18146734 -0.17750615 0.34484074 1.167819 0.25438404 0.20871581 -0.11555699
0.76992804 -0.73479676 0.4541078 -0.20463984 -1.2115811 -1.5430586 -0.5946323 0.1660896
-0.06102575 0.08434136 -0.14924957 -0.15623613 0.21974452 -0.06854799 -0.1590967 0.14539072
-0.4885667 0.18148935 0.27771938 0.36017695 -0.03611035 -0.36744317 0.32769167 -0.6000731
0.18411812 -0.6746318 -0.7290612 -0.19823895 -1.7092668 0.19050127 -0.39836606 0.06941497
0.4425756 -0.6352089 -0.025339132 -0.743553 0.09352994 0.15106374 0.27223155 0.1447369
0.1151284 0.19164324 0.15925226 0.35583532 0.20847197 0.2327322 0.17830063 -0.027722985
0.23537056 -2.0012338 -0.30935878 0.24337457 1.901819 0.037999198 -1.1867561 0.17799065
-0.9457943 0.90854865 -0.019473411 -1.8277375 -0.16421276 0.073976696 -0.4933985 -1.2853432
0.11833149 0.23622888 0.10646876 0.011715834 0.20559406 0.06608545 0.09731102 0.03344782
-0.7538283 0.65104467 0.71793365 1.0185771 0.14215685 -0.15691201 -0.29243124 -1.8885863
0.11771451 0.139562 0.03529145 0.2450555 0.117614456 0.118189976 0.17201844 0.460583
0.23834512 -0.02186722 0.21470743 0.3610073 0.20676205 -0.0027072246 0.20400144 -0.5779918
0.053138725 -1.4948926 0.090939514 0.10430181 0.25061446 0.2946452 0.2185288 1.7345355
0.5055096 -0.37474233 0.089986876 0.24441609 -3.62062 0.13715485 -0.22371328 -2.0516515
0.16423267 0.20737958 0.37406245 0.40953863 0.19643037 0.24454434 -0.4193413 -0.041729238

output_mlp.2.bias f4 [9]
00000000: 5ab7 d8be 1a97 4d3c ffe5 3ebe ea38 383e
00000010: f9e8 e23e 29ac 46be b353 4dbe aae8 28be
00000020: fe69 39bf
-0.42327386 0.012548232 -0.18642424 0.17990461 0.4431837 -0.19401611 -0.2005146 -0.16495004
-0.72427356
