log/segmentation/pn/laptop/full/pn_60.pth (torch, 337359 bytes, 8 tensors)

local_mlp.0.weight f4 [64, 3]
00000000: 9ade 083e 8c0c d0be 86d3 0d3f bd9e f43d
00000010: 4cc8 35be 79e9 533e 3d02 ca3f 9fa6 1f3f
00000020: ef14 17bf a34c e53d 09d5 af3d ada0 c3bf
00000030: cd51 3bbf 3a97 d93e f65b 9b3d 754e bdbe
00000040: 2bb9 b9bd 5130 c2bf c918 ac3e b945 1fbf
00000050: b3e7 cf3c f828 023c 0290 fd3b eb66 b339
00000060: 2b3e ed3c c0af 9a3d be0e 833e a91a 1dbf
00000070: dbe5 30bf 2236 97bf 923f 183b f302 9d3b
00000080: b1b8 0b3b da2d d63d b79e 3bbe 5c1c 8f3e
00000090: 7b2d ef3d f1d3 eebe febd 313f e062 e73d
000000a0: 16ac 29be a3be 1a3e 0019 0bbf aefa 463f
000000b0: a637 78bf 89a9 073c 7e92 6bba 7d1a b239
000000c0: 07fa b6bf e19e e4be be8a 823e cbfd 17c0
000000d0: c120 d53e 4e81 283e 76b7 cb3e 59d5 543e
000000e0: ff2d bbbf 973c 0e3f a914 8ebf 3c7c 63be
000000f0: 6282 433e 7eef 69be 561e 2e3e 3f71 283e
00000100: 16d4 73be 8df9 493e 6930 1f3c ad62 393b
00000110: 0a74 5d3b 82ac ff3b c14a 9d3b 3e40 dd3a
00000120: ffa0 ae3b e29b 84ba 2c2c 403c ed5b 213d
00000130: b766 c3be f788 053f 530f 05c0 1bba a8bd
00000140: 1a45 883e a63c fdbd 5c7f 0ebf d389 843e
00000150: 9dc0 20be ddfa 1e3f b467 253f 56bc 883d
00000160: 54e3 e53b b12d 963e 109c b63f b0cb 14bf
00000170: b205 e0bd 9050 c9bf bd8b 153e aa0f 573e
00000180: 962f a73d a02f 22bf fe63 1e3f 999a 953d
00000190: 33ac c83f 5d1f ae3e 32e4 27bd e90a ab3d
000001a0: 23dc f73e f86a 143e fd94 0dbe 04c4 413e
000001b0: 1260 ae3f 7286 a5bf 5ed5 5bbe 316c 883c
000001c0: c702 2d3e 210e e53e 0a13 17be a174 ab3d
000001d0: 2465 c8bf c544 e73c 3155 d33d 01c1 bb3e
000001e0: 799d 62bb 172b 8bc0 f56f 943d 9c29 f03e
000001f0: 627d 64be 8368 ac3c 763e b73c e7d8 30be
00000200: 3cc6 553e f83d 233e 05f9 34bd cc57 9c3d
00000210: 8e48 033b a56c 2a3c 7ee7 493b db53 52ba
00000220: bbbf 4d3c 2d48 81ba f4bb 023c d54b 0a3c
00000230: e98a 8fbb 7ca8 99bd 0c3a a53e 87d3 093f
00000240: efd0 2ebe 32d2 333f 118d fe3e 1c6f 5abc
00000250: 3b49 a4be 1a17 633e 088e 21be 3876 193f
00000260: c7bf c43e 9794 583e 3c9d 0f40 6a36 8d3e
00000270: 6d4d bd3b 7ff7 e939 9300 c13b 6df8 633f
00000280: c324 e43e e0a0 3dbe e62f 303f c711 bbbf
00000290: e008 91be 3942 46be 487f 333e d84b d3bf
000002a0: 54a3 773e 120f 8dbb d72d 7d3d 8a1b 2dbf
000002b0: 2b96 3d3e 3210 873d 1260 833b 8924 443b
000002c0: 6aa0 fd3a 1079 3fbf 77a0 0f40 d0f5 373d
000002d0: 3b5f 32bf 641c 0fbf 8a69 c43e 9070 ca3d
000002e0: b6ab f6bc 4db6 d33e 5d02 febb 0947 f4bb
000002f0: a4e2 263c b2e6 e5bf 0d19 c03e c642 7c3e
0.13366166 -0.40634573 0.55400884 0.119443394 -0.17752188 0.20694532 1.5781933 0.6236362
-0.5901632 0.11196258 0.08585555 -1.5283409 -0.73171693 0.4249819 0.075858995 -0.3697392
-0.09068521 -1.5170995 0.3361266 -0.62215763 0.025379037 0.007944338 0.0077381143 0.0003421822
0.028960308 0.07553053 0.25597185 -0.61368805 -0.6910073 -1.1813395 0.002323125 0.0047916113
0.0021319801 0.10457964 -0.18322264 0.27951324 0.116785966 -0.46646073 0.6943053 0.11298156
-0.16569552 0.15111785 -0.5433502 0.77726257 -0.9695991 0.008280166 -0.00089863676 0.0003397054
-1.4295052 -0.44652465 0.25496477 -2.3748653 0.41626552 0.16455576 0.39788407 0.2078451
-1.4623412 0.555612 -1.1100055 -0.2221536 0.19092706 -0.22845265 0.1700376 0.1644945
-0.23811373 0.19724102 0.009716132 0.0028287575 0.0033791088 0.007802547 0.004800171 0.0016880108
0.005329251 -0.0010117257 0.011729281 0.039394308 -0.38164303 0.52162117 -2.0790603 -0.08238622
0.2661522 -0.123650834 -0.55663085 0.25886402 -0.15698476 0.62101537 0.64611363 0.06676547
0.007015625 0.29331735 1.4266376 -0.581233 -0.10938586 -1.5727711 0.14604087 0.21002069
0.08163373 -0.6335392 0.61871326 0.07304878 1.5677551 0.34008303 -0.04098911 0.0835169
0.48410138 0.1449393 -0.13826366 0.1892243 1.3623068 -1.2931654 -0.21468112 0.016653152
0.1689559 0.44737342 -0.14753357 0.083718546 -1.5655866 0.028231034 0.10318983 0.36670688
-0.0034578724 -4.34901 0.072479166 0.46906745 -0.22313455 0.021045929 0.02236865 -0.17270242
0.20876402 0.15941608 -0.044182796 0.076339334 0.002003226 0.010401879 0.0030808146 -0.00080233597
0.012557919 -0.0009863429 0.007979382 0.008440931 -0.004380573 -0.07502839 0.3227085 0.5383839
-0.1707189 0.7024261 0.49717 -0.013332155 -0.3208712 0.22176781 -0.15776837 0.5994601
0.38427565 0.21150433 2.2439718 0.27580577 0.005777052 0.00044625622 0.005889961 0.8905094
0.44559297 -0.185184 0.6882309 -1.46148 -0.28327084 -0.193612 0.17529023 -1.6507521
0.24183398 -0.004304775 0.061811294 -0.67620146 0.18514316 0.06594886 0.004009255 0.0029929003
0.0019350175 -0.747941 2.244169 0.04491216 -0.6967656 -0.55902696 0.3836177 0.09884751
-0.030111175 0.41350022 -0.0077517466 -0.007454757 0.010185871 -1.7961028 0.37519112 0.24634847

local_mlp.0.bias f4 [64]
00000000: e91f 46bf 6751 c8be 3f9b bd3e 26ec bd3f
00000010: 0586 9a3e b480 fb3f 6512 d7be 0616 edbb
00000020: c56a c1be e471 dc3f 1b98 5db8 5b6e f2be
00000030: a145 60bf 6f22 9cbe cb65 953f 1db3 50bb
00000040: 69c6 493e 242c da3e 723f a93f 3785 b0be
00000050: dd50 c2be 7468 cbbe 16ae ccbb e5ac f2bb
00000060: abec 6dbc af08 33bf a3ed 4f3e d109 ccbe
00000070: e431 37bf 096a edbe 4263 d7be a768 a63e
00000080: 05d0 4cbf 23f7 9cbe 70f7 18bf e684 c5be
00000090: 5df8 0dbf d3d6 18bf 76a7 db3f 5493 04bf
000000a0: da3a cdbd 1b61 ccbe 8b54 bebe 1015 4ebe
000000b0: cc0f f7bb 65a2 f9ba 2fc4 a43b b25a 20bf
000000c0: 8b70 ebbe 72eb cebe 7a8a cabe 1335 68be
000000d0: 39c6 b8bb 7c79 55be 0215 d9be f766 e93f
000000e0: bc79 72be b448 833e 1569 e1bb e85d 8b3e
000000f0: 5bcd d7be 7aeb 22bf cc15 82bc 29c4 c13e
-0.7739244 -0.39124605 0.37032506 1.4837692 0.30180374 1.9648652 -0.4200622 -0.0072352914
-0.3777677 1.7222257 -5.2832165e-05 -0.4734982 -0.87606245 -0.3049502 1.167169 -0.003184504
0.19704594 0.42611802 1.3222487 -0.34476635 -0.3795232 -0.3972813 -0.0062463386 -0.0074058645
-0.014521758 -0.69935125 0.20305495 -0.3985124 -0.715605 -0.4636996 -0.42067915 0.32501718
-0.8000491 -0.306573 -0.5975256 -0.38577956 -0.554571 -0.59702796 1.716048 -0.51787305
-0.10020991 -0.39917836 -0.37173876 -0.20125222 -0.007539725 -0.001904559 0.0050282697 -0.6263839
-0.459843 -0.40414006 -0.39558774 -0.22676496 -0.0056388644 -0.20847124 -0.4239884 1.8234547
-0.2367925 0.25641406 -0.006878982 0.27220082 -0.4214886 -0.6364056 -0.015879534 0.3784497

local_mlp.2.weight f4 [256, 64]
00000000: b816 e2bd 2735 93be 0db1 d93e b07a c9bd
00000010: b359 493e 0300 dbbe cd34 86bd 0664 c43d
00000020: bfc3 513d aa41 d4be 031e 1a3d c2db 22be
00000030: 51c9 e2bd 502a cabe 9b4f 7bbd 9c39 003e
00000040: ba7b 423f bd1f b73e 657a 8b3e 97a9 98be
00000050: c448 bbbe 0b25 b2be 3fdb a33d 9f49 963d
00000060: 76f1 bfbc 4283 cabd 96a4 123f 00e1 98bd
00000070: 9fcf b63c 222a 913d e0e9 103f 118e 043f
00000080: 7df4 35be 9516 923e ecc3 efbc 6d11 48be
00000090: 2519 d4bc 1b1c 80bc 572f 94be 9630 1e3c
000000a0: efe6 9fbf 5649 ef3e 8e74 f2bd 5f47 1f3e
000000b0: 7318 e53c f7ce 8c3d bb51 093e 39b1 19bd
000000c0: 3ebb aabd da70 e3bd 45c8 973d 07dc b73e
000000d0: 37df f43c 7619 4f3f e3bf e7be 65b7 afbe
000000e0: c6a8 d43e 5996 a63e cb5b b63c 5c34 eabe
000000f0: 41e3 de3e b5e6 1c3e e484 2ebe 145c 013f
00000100: 66e9 b6be 9020 b8bc 1af3 36bf 7bf5 f8be
00000110: 55be 80be 8746 1cbf 06a2 393e efd7 e0bd
00000120: 2aee fabc d829 17bf 96de 8dbb f371 fbbd
00000130: b0bd d7be 2e2d 91bd 11fe 523f 7b8a 9dbd
00000140: ae1e 80bf 5f61 60bf 1dfc 2ebf c3ec 963d
00000150: 07a9 123c cd6c bbbd a9ba fdbd 1413 acbd
00000160: ca94 21be a06a b8be 1d54 8abf f24b edbe
00000170: e086 af3d d9d8 1cbe f857 22bf cbb3 72bf
00000180: 51a9 dbbe 8709 643e 2bc8 85be 378a 2c3d
00000190: 94d8 a3be 63e1 ddbd 2bad ffbe 9e91 c9bd
000001a0: 5467 a63e 19d9 5fbd 520f ebbd dfee dfbd
000001b0: f31d debd 743e 23bd 6e5e 003d 33ab 50bd
000001c0: 0cfe fe3b bb11 2cbe 66be 3f3e bd00 493e
000001d0: 4590 12be f3d8 2ebf ecf2 0d3e 438b d4be
000001e0: 90e2 2bbe 97e1 cebe 203b 14be 5e58 bc3e
000001f0: 0630 2cbf 7cd9 22be a36d e43c 8315 6dbf
00000200: 15b0 9abd 1a42 4d3d ae63 1fbe dc55 15bd
00000210: c784 33be 907f 27be c515 bfbd c850 d7bd
00000220: 5ba4 68bd d415 adbe d7d4 99bc b203 8dba
00000230: 3fe3 c8bd 4091 853c b30f ddbe 8f04 1ebc
00000240: 99ac c93d a9e3 7d3c 9a51 9ebc 555c a5bd
00000250: d77f 90bd 3ebe 97bd 2bea aabb add5 3ebd
00000260: df76 1dbe 8cd0 7cbd 7826 d33c 5281 683e
00000270: bfad 433d e697 af3d 282e da3d e983 673c
00000280: adf8 a8bd cf9e c6bd 55c1 20bc 7027 98bc
00000290: 16c6 9ebd 220b 99bd fde0 39bd f32e 90bd
000002a0: 0ebf 12be 0767 093e e728 6e3e 4b0e 603e
000002b0: 2ded d7bc b6ee 3fbe 8645 0ebe 45a3 07be
000002c0: 5d47 d2bd a9e5 673e f2a7 f7bc 2be1 acbd
000002d0: 2e29 33be d4a2 023e 2d58 7fbe 1212 f4bd
000002e0: 01fe 933e 730f 16be 05e1 923b f820 52bd
000002f0: 52d1 ae3e 5b7d f53d c439 4bbd bb4c b0bd
00000300: faae ebbd f81f d63d cc74 e5bd 494c 5ebe
00000310: 730a 2dbe 05c3 bfbe b5c4 713d 05f1 1fbe
00000320: eb12 28bc 6798 f8be 6b33 60bb a466 e83c
00000330: 315c 04be 5578 fb3d c742 bbbe 2cd6 85bd
00000340: 6a16 2fbe 4967 febd caa8 80be 71be 8abc
00000350: a7bd 443d 8983 4b3d 563e cebd 11cd 1cbe
00000360: 7053 3fbe 7a31 7fbd 4132 2dbe 7724 9a3d
00000370: c31c fabd 117b a83b 90d1 b9bc d8be 2bbe
00000380: c119 18be 06a6 77be 4eea 1abd 410b 103e
00000390: e01d 11be c7a3 b4bc c427 94be c629 773b
000003a0: e840 a7be 4e1f 9c3d 7018 0a3e 4011 d23c
000003b0: 1552 61be d25e 70bd 950d c5bc 98d0 c6bd
000003c0: 11b9 34be 00cc 113e b743 fabd 0672 8dbe
000003d0: 0efb 24be 74a5 44bd 3185 00be c62f b7be
000003e0: 281b 593d ae5a 71be 1ed2 13be 2bc5 da3b
000003f0: fccf c63d 0da3 d13d 366d b9bd 5d61 8abe
-0.110394895 -0.2875149 0.42517892 -0.09837854 0.19663124 -0.42773446 -0.0655304 0.095893905
0.05121207 -0.41456348 0.037626278 -0.15904143 -0.11073554 -0.39485407 -0.061355215 0.12521976
0.7597004 0.35766402 0.27241817 -0.29816887 -0.36578953 -0.34793887 0.08000802 0.07338261
-0.023430567 -0.09888317 0.5728239 -0.0746479 0.022315798 0.07088114 0.56606865 0.51779276
-0.17769046 0.28532854 -0.029268228 -0.19537897 -0.025890896 -0.015638402 -0.28942367 0.0096551385
-1.249235 0.46735638 -0.11838637 0.1555457 0.02796576 0.06875413 0.13410084 -0.03752253
-0.08336495 -0.11105509 0.07411245 0.35910055 0.029891593 0.80898225 -0.45263585 -0.34319606
0.41535014 0.3253658 0.022260567 -0.45743072 0.43532756 0.15322383 -0.17042881 0.50531125
-0.35724944 -0.022476465 -0.71464694 -0.48624787 -0.25145212 -0.61045116 0.18128213 -0.10978686
-0.030631144 -0.59048223 -0.004329513 -0.122775935 -0.42136908 -0.070886955 0.82418925 -0.07692429
-1.0009363 -0.87648576 -0.68353444 0.073693775 0.008951432 -0.091516115 -0.12389118 -0.08402076
-0.15779415 -0.36018848 -1.0806919 -0.46347004 0.08570647 -0.15317096 -0.6341548 -0.9480559
-0.42902616 0.2226926 -0.2612928 0.042124 -0.32001173 -0.10834005 -0.49936804 -0.098422274
0.32500708 -0.0546504 -0.114775315 -0.10934233 -0.10845556 -0.03985448 0.031340055 -0.05094452
0.0077817496 -0.16803639 0.18724975 0.19629188 -0.14312847 -0.6829979 0.13862199 -0.41512498
-0.16785645 -0.40406486 -0.1447568 0.3678617 -0.6726078 -0.15903276 0.02788431 -0.9261095
-0.07553116 0.050111867 -0.15565369 -0.036458835 -0.1753112 -0.16357255 -0.09330324 -0.10513455
-0.056797367 -0.33805716 -0.018778248 -0.0010758548 -0.09808969 0.016304612 -0.4317604 -0.009644642
0.098473735 0.015496173 -0.01932602 -0.080742516 -0.070556335 -0.07409333 -0.0052159033 -0.046590496
-0.15377377 -0.061722323 0.02577518 0.22705582 0.04777312 0.08573894 0.10653335 0.014130571
-0.08250556 -0.09698259 -0.009811719 -0.018573493 -0.07752626 -0.074728265 -0.04538058 -0.07040205
-0.14330694 0.13418208 0.2325779 0.21880452 -0.026358211 -0.18743405 -0.13893709 -0.13245876
-0.10267518 0.22646202 -0.03023145 -0.08441385 -0.17496178 0.12757427 -0.2493598 -0.11917509
0.28904727 -0.14654331 0.004482391 -0.051300973 0.34144074 0.119868 -0.049615636 -0.08608385
-0.115079835 0.10455316 -0.11203918 -0.21708788 -0.16898517 -0.37453476 0.059025485 -0.15619285
-0.010258417 -0.48553774 -0.0034210335 0.028369255 -0.12925793 0.12278811 -0.36574385 -0.06534991
-0.17098394 -0.12422044 -0.25128776 -0.016936513 0.04803243 0.04968599 -0.100704834 -0.15312602
-0.18684173 -0.062303044 -0.16913702 0.07526486 -0.12212517 0.005141624 -0.022682935 -0.1677202
-0.14853574 -0.24184427 -0.037821107 0.14066793 -0.14171553 -0.022050751 -0.2893659 0.0037714108
-0.32666707 0.076231584 0.13485885 0.025642991 -0.22003968 -0.058684178 -0.024054328 -0.09707755
-0.17648722 0.14237976 -0.12219947 -0.27626055 -0.16111395 -0.04800935 -0.12550808 -0.35778636
0.053004414 -0.23569748 -0.14435622 0.0066763363 0.097076386 0.102361776 -0.090540335 -0.27027407

local_mlp.2.bias f4 [256]
00000000: eb9e e4be 0f2e debe b280 54bd 4b6a 12be
00000010: 0436 85be 66d7 2fbf 065e a7bd 878d 05be
00000020: ceb4 21bb f7ec b5bd 3f9f f7bd 1f5a bbbe
00000030: 18fc 92be c681 d4be 8801 b03d 2ccd 9bbe
00000040: 5a62 53be 4dc0 12bd 4180 063e cbf9 e6be
00000050: 005b 213c c856 21be 4b78 afbe 5789 dfbc
00000060: 821b 7ebe 3da0 14bf fa0e 0dbe caad 54bd
00000070: 4894 41be e59c b7be da0e ea3c 72ae 20bf
00000080: 1bce d0be c5eb 4dbe 9136 8bbe 20a3 28bd
00000090: 1ec7 fabd cdf8 c9be 9a72 f2be 6ade 20be
000000a0: da06 4bbe 6318 cfbe 3169 81be dea8 02be
000000b0: 04e2 d2be 6168 f8bd c0f8 ec3d 823e 06be
000000c0: daee 97be 4088 29bf 61b2 943d ccef e7bc
000000d0: 362f a7be a3b8 10bf 132b 12be 019f d8bd
000000e0: 7dc1 15bf 6091 9f3d b8b4 52be 388e 4f3d
000000f0: b22c 3dbe 5e6b 4ebe 3f95 13bf cbea 7abe
00000100: bab3 6abe 5c01 e4bd e0fa 093d 99a9 e7bc
00000110: 1c19 06be 1bf0 723d ec77 4e3d 0244 fdbc
00000120: 709a cfbd bc74 c0be e2e6 51be b7c8 8ebe
00000130: bfc7 7dbe 4b78 4dbe 1b85 24bf a78d d7bd
00000140: cd1b 50be 716b 37be ea4e 0cbf 746c 62be
00000150: 9308 4dbe acf7 a6be 6eff 85be c52b 69be
00000160: f9f0 49be 5db5 da3c 950d 39bd e6ca 0fbd
00000170: 6198 3fbe f0d9 9abe c054 64be 3c13 10bc
00000180: 5980 21bf bbb3 89be 8522 16bf e9c6 9ebe
00000190: 1778 5ebe 56f0 96be 7ce0 22bf 34ce 6dbe
000001a0: 4ffb 223e e15b b63d 3e42 1dbd c988 9cbe
000001b0: d95b 0cbf 17ec 0bbe 3038 8e3d 625a 97be
000001c0: 99f4 32bf 4268 f4be 5b00 ecbe 4a99 b63d
000001d0: ca1c d2be b1cf 24be e6c3 27be c913 00be
000001e0: ef32 95be 364b a3be 768b 44bd 44a9 00bf
000001f0: e4d0 d4be 29bc 66be 4501 cdbe 9cff 8ebe
00000200: 6b91 03bd 6b7e ec3c 2ea1 30be a775 8fbe
00000210: c8fa 183d 6af5 6cbd ee62 98be ee27 edbd
00000220: bd09 a3be 2af7 59be 24dd babe deb4 19be
00000230: 7b9d 5bbd 2bda 3fbe e523 923c 3182 1a3d
00000240: 4977 c4be fbd2 8a3d 10c8 0bbf bbe1 50be
00000250: 5c5c 98be 3c78 183e 69a4 94be 27d9 80be
00000260: f9f7 8cbe 0ce6 81be a8c1 5a3d f3f9 2abe
00000270: f3ed c8be 8810 2cbc b10b 85bd 5199 c93d
00000280: 7f24 6dbe 3866 60bd 7301 98be 21ee f0be
00000290: d225 63be 09ee 8ebe e75d 29bf 927f 97be
000002a0: 9e54 0cbf d174 e2be cfee 52be 9289 b7bd
000002b0: c8f7 65be 709d a3bd 614a fdbd f338 61be
000002c0: a698 50be fa0b 083d 419e fc3d 4233 d3bd
000002d0: de71 87be 1c22 75bd d750 abbd aa00 41bd
000002e0: c835 9cbe f24e 83be 80b9 6cbe af46 04be
000002f0: e287 c3be 40ed 14bf 0b00 afbe 7b8e 77bd
00000300: dbf4 cfbe b464 7bbe 8878 25be db69 80be
00000310: c9bb 87be e693 6d3e f26f 23bf e09f 7cbe
00000320: 6b71 1abf 7f53 d3be f785 ffbd b671 c2be
00000330: 601d 99bd a9fb c63d 16fd 12bf 50c7 cbbd
00000340: 74cb 113e b4d4 29bf 9c17 78be c851 84be
00000350: f18f e1bd fbe8 70bd b12d d4be e3e5 4fbf
00000360: 682e e6bd 0642 61be c472 4cbf 70c8 61be
00000370: 309e ad3d 5444 b7bd ac7c 8cbe 5af7 c2be
00000380: d77a 19be 1d2f 4dbe f928 dbbe 6394 6a3c
00000390: 7eff 98bd c8db 12bf bbe4 c53d 9d88 f8be
000003a0: 51c1 3bbe d61b 83be aaa4 80be e773 61be
000003b0: 9e5d 50bd 30e0 99be bf81 53bd df9d 24bf
000003c0: 7e53 343d 4cf9 b6bd a25c b2bd 6506 19bd
000003d0: 4c1d 14bf 1dee 923d f8bb 74be 8bde 16be
000003e0: 47d1 cfbe 4c5d 71be b339 d8bd 70a6 91be
000003f0: 02c7 fa3d 3300 e0bd b68f cfba 34e4 b6be
-0.44652495 -0.43394515 -0.051880546 -0.1429836 -0.26017773 -0.68688047 -0.081722304 -0.1304227
-0.0024674418 -0.08883088 -0.12090921 -0.36592194 -0.28707957 -0.4150526 0.08594042 -0.3042997
-0.20642987 -0.035827924 0.13134862 -0.45112452 0.009848356 -0.1575576 -0.34271464 -0.027287168
-0.24815181 -0.58057004 -0.13775244 -0.05192355 -0.18904221 -0.3586189 0.028571535 -0.6276618
-0.40782246 -0.2010947 -0.27190068 -0.041171193 -0.1224501 -0.39447632 -0.4735306 -0.15709844
-0.19826832 -0.40448293 -0.25275567 -0.1275973 -0.4118806 -0.12129284 0.11570883 -0.13109782
-0.29674417 -0.66223526 0.072605856 -0.028312586 -0.32653207 -0.56531733 -0.14274244 -0.105772026
-0.58498365 0.077914 -0.20576751 0.05067274 -0.18474081 -0.20158145 -0.57649606 -0.24503629
-0.22920123 -0.11133072 0.03368652 -0.028279113 -0.13095516 0.059311014 0.050407335 -0.030916218
-0.101368785 -0.3758906 -0.20498231 -0.27887508 -0.24783228 -0.2006542 -0.642656 -0.10525065
-0.20323105 -0.1791208 -0.54807913 -0.22111684 -0.20022802 -0.32610834 -0.2617144 -0.22770603
-0.1972083 0.026697809 -0.04517897 -0.03510561 -0.18710472 -0.30244398 -0.22297955 -0.008793648
-0.6308647 -0.26894936 -0.5864642 -0.3101113 -0.21725498 -0.29480237 -0.63623786 -0.23223191
0.15916179 0.08904243 -0.03839325 -0.3057311 -0.5482765 -0.1366428 0.06944311 -0.29561144
-0.69904476 -0.47735792 -0.4609402 0.08915956 -0.4103759 -0.16094853 -0.16383323 -0.12507547
-0.29140422 -0.3189332 -0.047984563 -0.5025828 -0.4156562 -0.22532715 -0.4004003 -0.2792939
-0.032121103 0.028868875 -0.17248985 -0.2801945 0.03734854 -0.057851233 -0.29762977 -0.115798816
-0.31843367 -0.21285692 -0.36496842 -0.15010402 -0.053616982 -0.18735568 0.017839381 0.037721816
-0.38372257 0.067785226 -0.54602146 -0.2039861 -0.29757965 0.14889616 -0.29031685 -0.25165674
-0.27532938 -0.25370824 0.05340734 -0.1669691 -0.3924404 -0.010501988 -0.064963706 0.09843696
-0.23158453 -0.054784983 -0.29688606 -0.47056678 -0.22182396 -0.2791598 -0.6615891 -0.29589516
-0.54816616 -0.4422975 -0.20598911 -0.08961786 -0.22457802 -0.07989013 -0.12367702 -0.2199438
-0.20370731 0.033214547 0.12334872 -0.10312511 -0.2645406 -0.059846982 -0.08365028 -0.047119774
-0.30509782 -0.25646168 -0.23117638 -0.12917589 -0.38189608 -0.58174515 -0.3417972 -0.060438614
-0.40616497 -0.24550134 -0.1615926 -0.2508076 -0.26510456 0.2320095 -0.6384269 -0.24670362
-0.6032931 -0.4127464 -0.12476724 -0.3797738 -0.07476306 0.09715969 -0.5741743 -0.09950125
0.14237767 -0.66340184 -0.24227756 -0.25843644 -0.11013783 -0.058815937 -0.4144111 -0.81210154
-0.1123932 -0.21997842 -0.7986262 -0.22049117 0.084774375 -0.089485794 -0.27438867 -0.3807934
-0.14988266 -0.20037504 -0.42804697 0.014317605 -0.07470606 -0.5736661 0.096627675 -0.48541728
-0.18335463 -0.25607175 -0.2512563 -0.2201687 -0.05087053 -0.30053854 -0.051637407 -0.6430339
0.044024937 -0.08934268 -0.087090746 -0.037359614 -0.57857203 0.07174323 -0.2389983 -0.14733331
-0.40589353 -0.23570746 -0.1055788 -0.28447294 0.12244989 -0.10937538 -0.0015835676 -0.3572098

output_mlp.0.weight f4 [128, 512]
00000000: dfac 843d 70c7 9f3d 6165 62be 0ab5 b4bc
00000010: b8b5 4c3d 50d0 d63d 73ef e73b eddd e3bd
00000020: c895 803c c31a dabd d2c7 a6bd 9c0e 6b3d
00000030: 3926 423d 2ec2 3c3c 225b 563e 85d2 9dbd
00000040: ad5c c0bd f2ed 59bd 8460 c33d fbe3 c73d
00000050: 5354 3dbb 252a 053d 5b72 88bc 7187 2abe
00000060: eb63 35bd 7ccf 1f3d a855 6c3d 0e0f 68bd
00000070: 2862 c33d 11dc 843d cfff 32bc e80e 4e3d
00000080: 5ebc 79bc 0257 f3bb 1bc4 0abd ff62 25bd
00000090: 54eb 6e3c 0914 b6bc e658 ce3b c627 d6bd
000000a0: e188 d83d 506e 4b3b f731 a9bd 8611 f13c
000000b0: 840f c9bd bc70 d43c ca17 973d 1836 babd
000000c0: e070 103e cb03 fd3d 7aea 143d 0950 96be
000000d0: 0385 043d 3825 b43d 1b61 82bd 91a5 f3bd
000000e0: 3701 a13d d0b8 063e 3e24 6c3d b8c9 aebc
000000f0: 2647 87bd e6ff fcbc e40d 033c ae36 e63c
00000100: cc26 bcbc 81a3 e0bd b42a 403e 64d3 12be
00000110: c84f 40be f2ad 8fbb 7099 363d 7371 893d
00000120: 4f13 d5bc fe3c c33d be80 9d3d 1d71 03bd
00000130: 8f23 a43d f01f d3bd ccef e3bc bc24 18bd
00000140: e5ed 8bbd e50b 47bc 608d 9c3d 13c2 c53d
00000150: f119 46bd 3ec0 61bd 9f41 40bb f75c 2a3d
00000160: 047b bd3c ec5e 01be dc56 92be 5dce 53be
00000170: 1184 bebd 7b55 5bbc fc00 c1bd 7769 8c3c
00000180: 6bf7 39bd e0fb ff3d 248a 163e acf9 09be
00000190: d3e2 aabd c2c4 6d3d 12e6 f13d aafe 513d
000001a0: 2867 afbc cdb5 e7bb ddae 743d 26ea 053e
000001b0: bf76 033e dd83 d0bc 24c3 443e ca61 8b3d
000001c0: c36d 40bd 74f6 34be 6d3c b0bd d764 94bd
000001d0: 8c36 dabc 73fe 8ebd a2dc 0abe 9bd2 cbbb
000001e0: 2254 70bc 6db0 a63d e1de a9bd b325 8b3d
000001f0: 6218 8abc 8e3b c83b 611a 903d a619 e63b
00000200: ac8b 2abe bbaf 08bc 34fb 953d 6915 b53d
00000210: 5f61 91bb 1006 93bd b3c1 47bc 435e 43bd
00000220: cc48 dfbd f3ac a6bd 61c9 8d3d 0cc6 a03d
00000230: b2ce 69bd dffc 4d3d 3c57 1bbd f0bb 81bd
00000240: 1ae9 91bd 306d 4ebd 507c fd3d 647c 15be
00000250: 34c9 113d a6da f63d bca9 12be 0039 26bd
00000260: f335 00bd 2c09 b13d b89f 5dbc a5f3 583d
00000270: 13dd 293d 4a7c babc 7afe 19be 6374 21bc
00000280: f461 5e3c fbff 2fbe 68fd ec3c 8fb4 c53d
00000290: be7f aa3d 9918 d0bd 258f bd3d 5e8f 7cbd
000002a0: ce13 0b3e b71f cc3c 12a7 db3d 4319 abbb
000002b0: 86f3 0e3d eac1 6e3d e74b 483d 1728 1e3d
000002c0: c187 233d 7b73 00bd b9fa 183d 8330 9cbd
000002d0: 9a8e b7bd 8b81 1d3d d8a2 8c3d dcfb 0d3d
000002e0: 9d68 dc3d 839e ad3c 95c0 a8bd f598 d63d
000002f0: 00e4 eb3d 5c4e cf3d 1096 0ebe 2043 8fbd
00000300: 6a27 5abe 3faa cd3d 88b7 fb3d 6ce9 a4bc
00000310: 1c1e eabc 33fe 1c3e 5244 97bd 6756 f8bd
00000320: bb5c 983d 61d3 5abe b1ee ee3d 28af 183d
00000330: 9607 cfbd 531d 12bd f311 eebc 4e09 62be
00000340: 8aa3 653d 430e 2dbd 0ad4 aa3d c496 e23d
00000350: eda1 6d3d eb50 4a3d bb2c 0c3e e523 2b3d
00000360: 5873 41bd 8a37 d7bd 0630 203d 5c7e 983d
00000370: ffd3 423d 2166 0bbe 6da4 8c3d b336 87bd
00000380: 02b4 f73d de87 9fbd 2765 e83d 94f2 16bd
00000390: 3477 083d beb9 33be a834 4c3c 4879 9ebd
000003a0: b609 2bbd 73e7 133d b6de 9cbd e0b9 cf3d
000003b0: edc2 55bd 9a0b 07be a35d 34be 3a40 903d
000003c0: 2593 48bd 6afc 3d3c 2466 22bd 5ed0 1dbe
000003d0: 5f24 c13b 8c38 293e 4852 0f3d feda ba3c
000003e0: a5e9 bc3d a313 c23d 6b4c 1c3d d56d 5fbd
000003f0: fe16 453d a473 9f3d 9cd3 3cbd 046f b53d
0.06478285 0.078017116 -0.22108985 -0.022058982 0.049977988 0.10488951 0.007078105 -0.11126313
0.015696421 -0.10649636 -0.081435814 0.05738698 0.047399733 0.011520905 0.20933202 -0.07706169
-0.093926765 -0.053205438 0.09539893 0.09760281 -0.0028889372 0.032510895 -0.016656091 -0.1665323
-0.044284742 0.039016232 0.057698876 -0.056654982 0.09540206 0.06487287 -0.010925247 0.050307184
-0.015242664 -0.0074261436 -0.033878427 -0.040377613 0.014582474 -0.02222635 0.0062972186 -0.10456805
0.105729826 0.0031041093 -0.08261483 0.029427301 -0.098174125 0.025932662 0.07377584 -0.09092349
0.14105558 0.12354239 0.036356427 -0.29357937 0.032353412 0.087961614 -0.06366178 -0.11896814
0.0786156 0.13156438 0.05765175 -0.021336421 -0.06605367 -0.03088374 0.007998917 0.028102245
-0.022967719 -0.10968686 0.1876629 -0.14338452 -0.18780434 -0.0043847496 0.044579923 0.06711092
-0.026010184 0.09533118 0.07690571 -0.032090295 0.08014595 -0.10308826 -0.027824305 -0.037144408
-0.06832484 -0.012148832 0.07644153 0.09656157 -0.048364583 -0.055114977 -0.0029335988 0.041592564
0.023129947 -0.12633866 -0.28581893 -0.2068419 -0.093025334 -0.013387079 -0.09424016 0.017140133
-0.04540197 0.12499213 0.14701134 -0.13474149 -0.083440445 0.05804897 0.118114606 0.051268257
-0.021411493 -0.007071233 0.059737075 0.13077602 0.12838267 -0.025453502 0.19215065 0.06805761
-0.046979677 -0.1767214 -0.08605275 -0.07245796 -0.026637338 -0.06982126 -0.13560727 -0.0062201745
-0.014668496 0.08139119 -0.08294464 0.067943 -0.01685733 0.006110615 0.070362814 0.0070221005
-0.16654843 -0.008342679 0.07323304 0.08841974 -0.0044366564 -0.07178891 -0.012192178 -0.047697317
-0.10902557 -0.08138456 0.069231756 0.078502744 -0.057081886 0.050289985 -0.03792499 -0.06334674
-0.07124539 -0.050397098 0.12377226 -0.14598233 0.035592273 0.12053423 -0.14322561 -0.040581703
-0.03130145 0.086443275 -0.013526849 0.052966733 0.0414706 -0.022764344 -0.15038481 -0.009854409
0.0135731585 -0.17187493 0.028929427 0.096535794 0.08325146 -0.10160942 0.09255818 -0.061660163
0.13581774 0.024917467 0.107252255 -0.0052215173 0.03490021 0.0582904 0.04890051 0.03861245
0.039924387 -0.03136013 0.037348483 -0.076264404 -0.08962746 0.03845362 0.068669975 0.03466402
0.10762141 0.021193748 -0.08239857 0.10478393 0.11518097 0.10122368 -0.13924432 -0.06995225
-0.21304098 0.100422375 0.12290865 -0.020130835 -0.02857881 0.15331344 -0.07386078 -0.12125855
0.07439562 -0.21369697 0.116666205 0.037276417 -0.10108869 -0.035672497 -0.029061293 -0.22073862
0.056064166 -0.04224993 0.083412245 0.110639125 0.058015753 0.049393576 0.13688938 0.04178228
-0.04722914 -0.1050864 0.0391083 0.07445976 0.047565456 -0.13613178 0.06867299 -0.0660223
0.12094881 -0.077895865 0.11347418 -0.036852434 0.033316806 -0.17551324 0.012463726 -0.07737976
-0.041757308 0.0361094 -0.07659666 0.10142875 -0.05218785 -0.1318802 -0.17613845 0.070435
-0.048968453 0.011595825 -0.03964819 -0.15411517 0.0058942284 0.16525477 0.03499058 0.022809502
0.09224252 0.09476402 0.038158815 -0.054548103 0.04811763 0.077857286 -0.046100244 0.08859065

output_mlp.0.bias f4 [128]
00000000: 5b3f bfbd bd5a e5bd 7756 e7bd 89e0 2cbe
00000010: 927c d6bd 66a5 17be 7642 33be 3106 cfbd
00000020: 9aca db3e d4d8 a4be 2a9a 25bf 1eb8 f0bd
00000030: fa07 02be 80b3 06be 6de6 f1bd 1ac6 abbd
00000040: 7f7b a93e ffa1 17be a3c6 b4bd f6e5 85bd
00000050: a240 f93d 8332 15be d088 fcbd a5bb e7bd
00000060: 5f7b 5b3e 9619 73be 9de8 8bbe 3421 a7bd
00000070: 3af5 2e3e 202e c9be 383a 053e 1693 953b
00000080: 1da0 64be 9bf5 1cbe 566b 16be b59c a8be
00000090: 35d3 93bd 92c4 27be ad4a 54bd 4b48 dcbd
000000a0: 73fd 5b3e be38 06be 3101 98be bc09 02be
000000b0: 4587 86bd 7ba6 04be 9c73 edbe ad3f 9cbd
000000c0: d2cc 91bd 3529 02be b52c 9abd c7ed 78bc
000000d0: 9e54 e1bd 49c5 2fbe 5101 15be 6b80 193d
000000e0: 2c09 1f3e fcf8 79bd 6b4b c7be 12e4 b2bd
000000f0: 6bd9 50be e3bf 58bd 1bb1 c33d f62b babd
00000100: 3e68 2ebf 0e2c 743c 391e 8a3e df35 87bd
00000110: d5f3 7abe d61b 97be c72e c5be 9613 5d3e
00000120: b7ae 8abd 24d6 0dbe 75ac 07be fb33 94be
00000130: fdea 29be 44ac eebd dc17 8cbd b8c1 913c
00000140: 13ab b4bd ecfd 843d 61c9 753d ede9 1bbf
00000150: df59 2abd e591 abbd 2bbb f53d 3df6 d4bd
00000160: a5db 553f 880a 95bd 209d f5bc 9171 febe
00000170: 35a1 e6be c206 77bd b98b aa3e c9e1 90be
00000180: ed6f 0ebe 501d 23be 861a 73bd 5964 8a3e
00000190: 0f30 aebd ac77 95be 064d b0bd 003d 0abf
000001a0: 509a 1abe a600 e7bd 6f5e 85be 4d20 bbbd
000001b0: 8763 ebbd c0a4 37be f50d 4ebe 7b95 16bf
000001c0: ad4b 3cbe f3aa d73c b49b eebd d064 bebd
000001d0: 23ed 813e 1f66 83bd 8f79 acbe e18c 68be
000001e0: 4791 0dbe 7c97 c2bd 5b58 d0bc 0442 f3be
000001f0: 592e 12be 2b77 4fbd 9fc3 6dbd 5379 6e3e
-0.09338256 -0.111989476 -0.11295789 -0.16882528 -0.10472979 -0.14809188 -0.17505822 -0.10108603
0.4292801 -0.32196677 -0.6468836 -0.117538676 -0.12698355 -0.13154411 -0.11811528 -0.08387394
0.33102033 -0.1480789 -0.088269494 -0.06538002 0.12170531 -0.1457005 -0.123307824 -0.11315087
0.21433781 -0.23740229 -0.27325907 -0.0816063 0.17085734 -0.39293003 0.1301049 0.004564653
-0.22326703 -0.15328066 -0.14689383 -0.32932058 -0.07218019 -0.1638358 -0.05182903 -0.10755976
0.21483402 -0.13107583 -0.2968841 -0.12699026 -0.06568769 -0.12954132 -0.46377265 -0.07629333
-0.071191445 -0.12711032 -0.075280584 -0.015193409 -0.110024676 -0.17165102 -0.14551283 0.037475985
0.15530843 -0.061028466 -0.38924727 -0.08734907 -0.20395438 -0.052917372 0.095552646 -0.09090416
-0.6812781 0.014903082 0.26976183 -0.06602072 -0.24507077 -0.29513425 -0.3851225 0.21589503
-0.067716055 -0.1385122 -0.13249381 -0.28945908 -0.16593547 -0.11653951 -0.06840488 0.017792568
-0.08821692 0.06493744 0.060006503 -0.6090382 -0.041589614 -0.083774365 0.1199859 -0.10398529
0.83538276 -0.07277399 -0.02998215 -0.4969602 -0.45044866 -0.06030918 0.33309725 -0.2829726
-0.13909884 -0.1592915 -0.059351467 0.27029684 -0.0850526 -0.29192865 -0.08608441 -0.5399933
-0.15097928 -0.112794206 -0.2604861 -0.0913702 -0.11493593 -0.17933941 -0.20122512 -0.5882184
-0.18388243 0.026326632 -0.11650792 -0.09296572 0.25376233 -0.064159624 -0.33686492 -0.22709991
-0.1382495 -0.095015496 -0.025432756 -0.47511303 -0.14275493 -0.050650757 -0.058047887 0.23288469

output_mlp.2.weight f4 [9, 128]
00000000: 62bd 923e 5549 c1be 10fd 29be 5db3 223f
00000010: ff5a b73f 1b6c 1a3d 5c18 373f f3d2 40bc
00000020: 73d5 24be e9cf acbf 0c0f 34bf a049 45be
00000030: 9b7e cd3f 836b e13f a9a8 5b3f 0849 073f
00000040: 3f84 c6be b288 063e 2817 18bb 5271 f1bc
00000050: 8062 2bbe 316c 4d3a e85d f8bd 5cfd 963e
00000060: 6581 36bf 5078 df3e fb17 893e 47fa 09bf
00000070: 55e2 42bf a859 21c0 c83e 37c0 23cd 9abe
00000080: 1164 363f 98a8 ea3f dba7 473f 9e48 dfbe
00000090: baf8 c73f e7a5 033f fd21 3b3f a94c 513e
000000a0: 2839 41bf 7619 173f 8b1d 2a3f 80ec 403f
000000b0: 45de 363e eda4 193f ef7b 9dbf 1153 cf3d
000000c0: abe1 123e a29b be3e dafd c53e 09b1 823e
000000d0: a39f d43e 5944 223f e26d 9b3e ba52 72bf
000000e0: 70ae ecbc 8e5a d13f a20a 1abf d0e0 1b3e
000000f0: 8499 f7c0 4024 443e ef1b e1bf cc9b 833e
00000100: 7680 bbbf 3d3e d3bf 9152 dfbe e3a9 22c0
00000110: abf1 ea3e 7eaa 81bf b076 a4bf 1e9a cebf
00000120: 4ed3 323e 8104 213d 1dbd 543e 9f46 c43e
00000130: d722 033f 06ef 9c3d 6235 173e a856 f23c
00000140: a0ee a33f ae5b 293e 718a b6bf 9964 fa3e
00000150: 2633 d53e a429 293e ad9d 39bf 1508 e13f
00000160: 4078 903d 27f5 8d3e fce0 95bd c746 de3d
00000170: 4e04 dabd 9c7a 143e d710 233d f1d2 d63e
00000180: 9020 5c3e 971d febe acea 883d e69e 143e
00000190: 7874 053e dae6 8b3d 00c2 df3d 6e64 96be
000001a0: 6640 bf3d f4b2 1940 b4af 653d 6161 213e
000001b0: 6ff2 563e 5acf a6bb a8fe a33e 9cf5 f53e
000001c0: 26b3 a53e a80c a2be c678 6e3e ad40 483e
000001d0: d47e 51bf df29 2f3e 02de 0b3c af4e 53c0
000001e0: d682 dd3d 713d 913e 1bc9 e1bf 1ef4 943e
000001f0: 5687 0e3e 26db 71be cdec 783e c30b b4be
00000200: 5e9d afbe ebf3 8fbe 3342 afbd b821 833f
00000210: 2b48 b53f c355 4e3e e1b2 3d3e e09f f1bd
00000220: b191 613f 0258 6fbf da35 b33d 7399 43be
00000230: c5a3 b6bf 9153 b0bf 2a71 c4be d82c 683e
00000240: be91 42bd da85 ac3d 94fa 30be 4792 1cbe
00000250: 0571 de3e dc0b cdbd 691d 23be 59e1 143e
00000260: a8d1 87bf 58d8 393e c538 8e3e 93ff 2e3f
00000270: 3680 0f3e bf7f d5be 8975 6e3f 48d9 31bf
00000280: 7689 3c3e 7720 cebf 7818 e2be 6879 2340
00000290: b4f1 10c0 c412 433e eae4 18be d243 373d
000002a0: e36b d13e 06b4 aabe 1282 a83d 2008 1bbf
000002b0: 9c8c bf3d a3fc 1a3e 4f30 bd3e 689c 053e
000002c0: 70c8 eb3d 9858 233e a5d3 063e db1c 0b3f
000002d0: 5674 3b3e 1ddd 6e3e bd91 363e 0375 043e
000002e0: 0c14 473e e05d fdbf 78bb 6ebf 2f37 793e
000002f0: 6667 9d3f 05cf cc3b 9168 c7bf 4d6b 2e3e
00000300: 4a6b 7ebf 66dc eb3f 29e4 973d 4aed 09c0
00000310: c214 10bf 1781 18bd 7182 abbe dce3 ccbf
00000320: 7e76 dc3d d91f 563e c2a6 ca3e 1275 0e3d
00000330: f588 523e cf57 873d 7b4b c73d 3ecc 87bd
00000340: 674c 55bf cf12 223f 8986 943f e85b 683f
00000350: cb43 813e 52fe 2dbe 7537 dfbe 8b65 9bbf
00000360: f922 653e 2e9e b53d 54b1 0f3d 5466 523e
00000370: 9050 1cbe 6416 f23d 7983 d23d c531 083f
00000380: 817a 343e 5c8d 06be 48a5 2c3e f557 b33e
00000390: 6eb9 533e 5f9f 963d 7dde 503e bbff d93e
000003a0: f9ec 683d c2df 04c0 de09 893d 4ba4 d53d
000003b0: c710 823e 48ee c03e 9dc9 8e3f 7b94 af3f
000003c0: 1f29 303f 2944 e6be 574e b83d 3648 7a3e
000003d0: 8210 b8c0 7441 0c3e 17d4 64be a1cd e4bf
000003e0: 1231 eb3d 1169 543e d04d 9c3f c22b c93e
000003f0: 6187 493e 6c5f 623e 6e9b 9ebe 6c38 b23b
0.28660113 -0.3775126 -0.16600442 0.63554937 1.4324645 0.037700754 0.71521544 -0.011769044
-0.1609705 -1.3500949 -0.7033546 -0.19266367 1.6054262 1.7610935 0.8580423 0.5284581
-0.3877277 0.13138083 -0.0023207162 -0.02947298 -0.16736794 0.0007836251 -0.12127286 0.29490173
-0.7129119 0.4364648 0.26776108 -0.5389752 -0.76126605 -2.5210972 -2.8632069 -0.30234632
0.7124644 1.8332701 0.779905 -0.4361009 1.562278 0.5142502 0.73098737 0.204394
-0.7547784 0.59023225 0.6645133 0.7536087 0.17858227 0.6001728 -1.2303447 0.101232655
0.14343898 0.37228113 0.38670236 0.25525692 0.41528043 0.6338554 0.3035727 -0.9465748
-0.028891772 1.635576 -0.60172474 0.15222478 -7.7374897 0.19154453 -1.758665 0.257048
-1.4648578 -1.6503369 -0.4361768 -2.541619 0.45887503 -1.0130155 -1.284872 -1.6140783
0.17463419 0.039310936 0.20775266 0.3833513 0.51225036 0.076627776 0.14766458 0.029582337
1.2807198 0.1653888 -1.4260999 0.48904875 0.41640586 0.16519791 -0.7250622 1.7580591
0.07054186 0.277261 -0.07318303 0.108533435 -0.10645352 0.14499897 0.03981098 0.4195781
0.21496797 -0.4963195 0.06685385 0.1451374 0.1303271 0.06831141 0.109256744 -0.29373497
0.09338455 2.4015474 0.056075767 0.15759803 0.20990919 -0.005090636 0.32030225 0.48038948
0.32363242 -0.3165028 0.23288259 0.19555922 -0.8183415 0.17105816 0.0085368175 -3.3016775
0.108159706 0.2836719 -1.7639498 0.29092497 0.13918814 -0.23618755 0.24309082 -0.35165223
-0.3429975 -0.28115782 -0.085575484 1.0244665 1.4162649 0.20149903 0.18525268 -0.11798072
0.8811293 -0.93493664 0.08750506 -0.19101505 -1.4268728 -1.3775502 -0.38367587 0.22673357
-0.04750227 0.08423968 -0.17283088 -0.15290175 0.43445602 -0.100120276 -0.15929188 0.14539088
-1.0610857 0.18148935 0.27777687 0.68358725 0.14013752 -0.41699025 0.93148094 -0.6947217
0.18411812 -1.6103657 -0.44159293 2.554285 -2.2647524 0.19050127 -0.14931074 0.044742413
0.40902624 -0.33340472 0.08227934 -0.6055927 0.09352991 0.15135436 0.3695092 0.13047945
0.1151284 0.15951765 0.13166673 0.54340905 0.18306097 0.23326536 0.17829032 0.12935261
0.19441241 -1.9794273 -0.93254805 0.24337457 1.229718 0.0062502646 -1.5578786 0.1703312
-0.9938246 1.8426635 0.07416565 -2.155108 -0.56281674 -0.037232485 -0.33497956 -1.6007037
0.10764788 0.20910586 0.3958035 0.034779616 0.20560057 0.06608545 0.09731194 -0.06630753
-0.83319706 0.6330995 1.1603557 0.9076524 0.25247034 -0.16991547 -0.43596998 -1.2140363
0.22376622 0.08868061 0.035081223 0.20546848 -0.15265107 0.11820677 0.10278983 0.5320094
0.17624857 -0.13139862 0.16859925 0.35028043 0.20676205 0.073546164 0.20397373 0.4257792
0.05686662 -2.076157 0.06691335 0.10431727 0.25403425 0.37681794 1.1155277 1.3717188
0.68812746 -0.44973877 0.08999317 0.24441609 -5.752015 0.13696843 -0.22346531 -1.7875253
0.11483969 0.20743205 1.2211246 0.39291197 0.19680549 0.22106713 -0.30977958 0.005438855

output_mlp.2.bias f4 [9]
00000000: 3f5b 11bf 1945 133e 57ed 3fbe 6871 c23d
00000010: 7a41 103f 0654 47be e979 5ebe 52fe 61be
00000020: 7681 7abf
-0.56779855 0.14381827 -0.18742882 0.09494287 0.5634991 -0.19465646 -0.21726193 -0.22069672
-0.9785379
