log/segmentation/pn/bucket/weighted-3/pn_0.pth (torch, 337359 bytes, 8 tensors)

local_mlp.0.weight f4 [64, 3]
0.18879762 0.010668415 0.023253622 -0.13490938 0.08400515 0.07661198 -0.13946705 0.08421464
0.028703125 -0.13238008 0.07922361 0.009786511 -0.11431819 0.070747234 0.045889013 -0.13247097
0.08049915 -0.004888065 0.13056162 -0.5767603 -0.035277873 -0.12743779 0.07919182 0.047886327
-0.14225751 0.08421161 0.05749006 0.2015589 -0.26824105 -0.057617888 0.24496102 0.012588601
-0.010233684 -0.17154537 0.1031911 0.027394272 -0.13291186 0.082370475 0.062466633 -0.12765084
0.059988655 0.011781816 -0.13900517 0.078478195 -0.002129864 0.1471524 -0.16814202 -0.018594269
-0.124633074 0.07101434 0.0067135342 -0.12252364 0.012871655 -0.02149665 -0.13281225 0.08039532
0.013414433 -0.12972794 0.08140199 0.009435003 0.22146946 1.3788692 -0.067949824 0.15925969
-0.061832942 0.02546441 0.15656608 -0.08167327 0.06807251 0.16521549 0.056830607 0.009267136
0.17098507 0.17692725 0.034419816 0.14841099 -0.6224532 -0.04584259 -0.14406438 0.08523724
0.08801596 -0.14220813 0.09009473 0.037956886 0.16671292 -0.04843312 0.03732435 -0.14758392
0.0898772 0.038399193 -0.11192974 0.06678151 0.07120579 0.18204693 0.11693437 -0.03395662
-0.1285425 0.080034874 0.035293322 -0.14204757 0.0830279 0.07734325 0.15321648 -0.022909347
0.009639449 0.17866102 0.2621299 0.0023882561 -0.13714203 0.083943054 0.061506018 -0.1398664
0.06722363 -0.01987317 0.13895746 -0.16529882 0.005995254 -0.124372885 0.061402235 -0.008828808
0.17617911 0.10738055 -0.023957098 -0.14061838 0.080543 -0.011900189 0.16435432 -0.14414002
-0.003098214 0.16430658 -0.04671835 -0.011532349 -0.11457065 0.065078706 0.050257858 -0.13993032
0.08578803 0.071421556 0.12418765 -0.14381191 -0.01366139 0.17058834 -0.007168365 -0.020671787
0.22060305 0.06038589 0.034561235 -0.1260889 0.05338632 -0.017522538 -0.12685204 0.08087083
0.09700457 -0.13371322 0.08328511 0.029966356 -0.1380069 0.08605221 0.04345401 -0.12453866
0.07801101 0.049528904 0.1782159 0.33022022 0.018346755 -0.11446782 0.06741933 0.041446224
0.18162774 0.017701335 -0.033950478 0.14081167 -0.26887906 -0.010982589 0.16823247 -0.022318872
0.099139206 -0.12517966 0.078436136 0.05728388 -0.1299694 0.072921015 -0.014809458 0.13703348
-0.24344318 -0.0008322482 0.14773966 -0.20666672 0.033458497 -0.13493003 -1.618005 -0.054627564
00000000: 2a54 413e 93ca 2e3c 617e be3c af25 0abe
00000010: e40a ac3d bee6 9c3d 73d0 0ebe ba78 ac3d
00000020: d122 eb3c a58e 07be fd3f a23d 9a57 203c
00000030: a81f eabd ede3 903d 1ef6 3b3d 78a6 07be
00000040: bddc a43d 102c a0bb f2b1 053e 90a6 13bf
00000050: 887f 10bd 0d7f 02be 522f a23d 7424 443d
00000060: f4ab 11be 2377 ac3d b27a 6b3d 7565 4e3e
00000070: e456 89be bc00 6cbd 10d7 7a3e 6b40 4e3c
00000080: 2fab 27bc 97a9 2fbe db55 d33d f469 e03c
00000090: 0c1a 08be dab1 a83d 03dd 7f3d e7b6 02be
000000a0: aab6 753d 8508 413c 5f57 0ebe 2db9 a03d
000000b0: 3095 0bbb 1eaf 163e 6c2d 2cbe 0253 98bc
000000c0: a03f ffbd f76f 913d 35fd db3b aded fabd
000000d0: a2e3 523c be19 b0bc efff 07be 4da6 a43d
000000e0: 36c8 5b3c 67d7 04be 16b6 a63d 4595 1a3c
000000f0: e4c8 623e c97e b03f 4729 8bbd f914 233e
00000100: 8a44 7dbd bd9a d03c dc52 203e 5144 a7bd
00000110: 9a69 8b3d 402e 293e 36c7 683d 30d5 173c
00000120: b616 2f3e 6b2c 353e cbfb 0c3d 0df9 173e
00000130: 1859 1fbf 71c5 3bbd 9d85 13be dd90 ae3d
00000140: b641 b43d 029f 11be 9683 b83d ae78 1b3d
00000150: cbb6 2a3e cf61 46bd 6be1 183d 3d20 17be
00000160: 8a11 b83d 7948 1d3d 6b3b e5bd bfc4 883d
00000170: 57d4 913d 836a 3a3e 497b ef3d 1916 0bbd
00000180: a5a0 03be 53e9 a33d bb8f 103d eb74 11be
00000190: 880a aa3d 2366 9e3d c8e4 1c3e 62ac bbbc
000001a0: c8ee 1d3c eaf2 363e e435 863e 4a84 1c3b
000001b0: f66e 0cbe 56ea ab3d bced 7b3d 2339 0fbe
000001c0: 8bac 893d 0fcd a2bc dd4a 0e3e 1844 29be
000001d0: d673 c43b 36b7 febd e980 7b3d b4a6 10bc
000001e0: 4c68 343e 55ea db3d ad41 c4bc 44fe 0fbe
000001f0: baf3 a43d 03f9 42bc 804c 283e 7199 13be
00000200: 680b 4bbb fc3f 283e be5b 3fbd 2df2 3cbc
00000210: 04a4 eabd fc47 853d 2fdb 4d3d e549 0fbe
00000220: a2b1 af3d 7745 923d 1856 fe3d 6e43 13be
00000230: 06d4 5fbc b6ae 2e3e 9be4 eabb e157 a9bc
00000240: c4e5 613e 3257 773d 1590 0d3d 731d 01be
00000250: 9dab 5a3d 6d8b 8fbc 80e5 01be 9b9f a53d
00000260: 55aa c63d 1eec 08be 6291 aa3d 017c f53c
00000270: ae51 0dbe 243c b03d d5fc 313d 200e ffbd
00000280: 3dc4 9f3d d2de 4a3d 3b7e 363e a012 a93e
00000290: ef4b 963c 1b6e eabd 2513 8a3d 84c3 293d
000002a0: 9ffc 393e 6402 913c a80f 0bbd ef30 103e
000002b0: 84aa 89be 51f0 33bc 2245 2c3e 11d6 b6bc
000002c0: 7f09 cb3d 192f 00be 20a3 a03d 80a2 6a3d
000002d0: b316 05be 9d57 953d 5ea3 72bc 8152 0c3e
000002e0: 2b49 79be 3b2b 5aba 1149 173e 71a0 53be
000002f0: c70b 093d 192b 0abe ca1a cfbf 27c1 5fbd

local_mlp.0.bias f4 [64]
0.03256017 0.010895886 0.0065415674 0.0075489497 -0.004103163 0.013325097 0.059213012 -0.0010772432
0.009902178 0.08767652 0.05890817 0.02198577 0.00900624 0.0020121643 0.013824567 0.044596095
0.005943097 0.015967784 0.006512748 0.007912602 0.089917354 0.027238121 0.0149684865 0.027165798
0.017124878 0.073300846 0.01685383 0.007623705 0.026214281 0.014785474 -0.022678984 0.051564846
0.002605398 0.016556015 0.029612286 0.026042528 0.0071532805 0.024245314 0.029391807 0.012396619
0.04570966 0.014795376 0.040712807 0.042167325 -0.012370706 0.010610463 0.035635024 0.047414567
0.036580488 0.018056436 0.01070236 0.004670763 0.006329179 -0.000947194 0.018792534 -0.008912537
0.055994812 0.037581973 0.021599136 0.0011300972 0.017748697 0.03133666 0.020943424 0.026125005
00000000: d05d 053d a984 323c a55a d63b 2e5d f73b
00000010: d373 86bb 8251 5a3c 5889 723d 4932 8dba
00000020: bf3c 223c bf8f b33d b149 713d 801b b43c
00000030: e98e 133c 84de 033b 7080 623c 65aa 363d
00000040: 50be c23b dfce 823c e468 d53b dca3 013c
00000050: 9726 b83d 7b22 df3c 623e 753c cf8a de3c
00000060: 7949 8c3c c11e 963d 0b11 8a3c 46d0 f93b
00000070: 55bf d63c c63e 723c 47c9 b9bc a935 533d
00000080: 53bf 2a3b 7ba0 873c 7795 f23c 2457 d53c
00000090: 1166 ea3b 1c9e c63c 16c7 f03c 301b 4b3c
000000a0: 0d3a 3b3d 4e68 723c 79c2 263d a5b7 2c3d
000000b0: 80ae 4abc 82d7 2d3c 08f6 113d c735 423d
000000c0: 6cd5 153d 17eb 933c f458 2f3c 330d 993b
000000d0: 0065 cf3b 1d4d 78ba cdf2 993c e405 12bc
000000e0: d15a 653d 8eef 193d acf0 b03c c51f 943a
000000f0: b765 913c df5a 003d 8b91 ab3c 1b04 d63c

local_mlp.2.weight f4 [256, 64]
-0.12256689 0.10911865 0.072215974 0.03351371 0.05722052 0.021979384 -0.16138327 0.094796956
0.09402093 -0.15702918 -0.114411354 0.06972178 0.07951678 0.03111813 0.037148636 -0.11031454
0.032327518 0.039593644 0.01588384 0.025199942 -0.19870754 -0.055233497 -0.07357603 -0.037752904
-0.04719817 -0.12224123 0.07730312 0.09066255 -0.006725123 0.10364168 0.08307057 -0.08094395
0.033679005 0.12409074 -0.07988007 -0.10355592 0.07632871 0.053605538 -0.13125177 0.03674749
-0.08672015 0.05435923 -0.08645961 -0.11309927 0.08422809 0.09612973 -0.12924604 -0.11686822
-0.065038905 0.013905988 0.0970465 0.0938012 0.09539748 0.071553215 -0.06790672 0.08102933
-0.07906631 -0.12202176 -0.025693921 0.0643809 0.042576563 -0.0832596 -0.0681437 0.05133544
-0.06632182 0.09345204 0.045170337 0.045926657 0.05325579 0.020354502 -0.21448149 0.08128184
0.09373439 -0.12311018 -0.101360485 0.030400926 0.07598255 -0.01326181 0.033688176 -0.108295135
0.049978446 0.009410258 -0.00055556797 0.008326546 -0.4082186 -0.042405274 -0.020438451 -0.0351866
-0.04274648 -0.17228264 0.1056709 0.09966782 -0.044122677 0.03632947 0.080626234 -0.064454466
0.048367936 0.080143005 -0.020480882 -0.069260344 0.057938978 0.016073313 -0.06323074 0.011567124
-0.060802598 0.0066615343 -0.1373081 -0.07464671 0.02329241 0.09891355 -0.0784396 -0.069819205
-0.06329059 0.0035601226 0.12846844 0.044486757 0.051564094 0.06747672 -0.076175295 0.05698938
-0.14129391 -0.07874404 0.014631784 0.09364419 -0.022956789 -0.12755238 -0.0571875 -0.0817246
0.16835558 -0.10499061 -0.04364243 -0.071834914 -0.057443373 -0.13029532 0.012598502 -0.09913957
-0.1174765 0.123079956 0.1628221 -0.09945153 -0.09066874 -0.104212984 -0.10888262 0.115237504
-0.08524316 -0.062067863 -0.084013 -0.11509193 -0.0803582 0.12320728 0.09916783 0.15835743
0.14046971 0.0030850258 -0.100568205 -0.087533996 0.14085905 -0.09842197 -0.06064435 0.12524618
-0.09395623 -0.11282842 0.12944824 0.105180316 -0.08838219 -0.09368154 0.08559111 -0.10432174
0.08914223 -0.113272525 0.12584065 0.13332878 -0.05040661 -0.11944975 0.02816731 0.13282603
0.1294963 -0.04817946 -0.11489925 -0.095040776 -0.07869582 -0.04560708 0.07680113 -0.08130501
0.1561575 0.092036426 0.09330419 -0.0752891 -0.10746346 0.071355894 0.10320636 -0.46795374
-0.08234837 0.10912545 0.019874291 0.05097681 0.07771023 0.009985155 -0.1798537 0.054869626
0.05851335 -0.12836175 -0.13084674 0.033242136 0.09344284 0.029706197 -0.04435992 -0.071127914
0.017939255 -0.03266092 0.003096276 0.038007624 -0.30124843 -0.04973906 -0.02469914 -0.02438393
-0.056197084 -0.1716115 0.103833884 0.07370213 -0.065886796 0.070724286 0.044163052 -0.12994601
0.023125427 0.10517058 -0.06677453 -0.070707 0.08616932 -0.025112392 -0.07560054 -0.01521487
-0.108342394 0.021571731 -0.08669346 -0.035578497 0.02371538 0.10516395 -0.09698956 -0.05853165
-0.118720986 -0.025925564 0.11806325 0.015481412 0.05815495 0.07764482 -0.15454596 0.031195533
-0.09621628 -0.09816291 -0.012661602 0.043300252 -0.008029739 -0.10155951 -0.044271473 -0.041407663
00000000: 5a04 fbbd 9979 df3d f8e5 933d ac45 093d
00000010: 1060 6a3d 1c0e b43c a841 25be e824 c23d
00000020: 0c8e c03d 42cc 20be 8050 eabd 4bca 8e3d
00000030: b2d9 a23d 73eb fe3c 2b29 183d 97ec e1bd
00000040: dc69 043d f22c 223d d41e 823c 1c70 ce3c
00000050: fd79 4bbe 853c 62bd 08af 96bd caa2 1abd
00000060: de52 41bd 9c59 fabd 1951 9e3d 49ad b93d
00000070: 6c5e dcbb 1742 d43d e720 aa3d f1c5 a5bd
00000080: fff2 093d 4923 fe3d 2a98 a3bd 2015 d4bd
00000090: 3a52 9c3d 7b91 5b3d dd66 06be 8984 163d
000000a0: 569a b1bd c9a7 5e3d bc11 b1bd 97a0 e7bd
000000b0: c77f ac3d aadf c43d 1359 04be 9b58 efbd
000000c0: 1e33 85bd f1d5 633c 51c0 c63d d81a c03d
000000d0: c15f c33d 7e8a 923d ae12 8bbd b5f2 a53d
000000e0: 84ed a1bd 8be6 f9bd 0f7c d2bc 22da 833d
000000f0: c364 2e3d 0284 aabd ed8e 8bbd 1c45 523d
00000100: bcd3 87bd c863 bf3d 8804 393d 971d 3c3d
00000110: be22 5a3d 7cbe a63c 09a1 5bbe 1877 a63d
00000120: d1f7 bf3d 3121 fcbd 1696 cfbd 5d0b f93c
00000130: bd9c 9b3d 1048 59bc 9dfc 093d d7c9 ddbd
00000140: 33b6 4c3d 7c2d 1a3c 89a3 11ba 116c 083c
00000150: 0702 d1be 27b1 2dbd 8a6e a7bc d31f 10bd
00000160: ef16 2fbd dc6a 30be fc69 d83d a41e cc3d
00000170: fbb9 34bd 36ce 143d 5e1f a53d b400 84bd
00000180: 751d 463d 0422 a43d 86c7 a7bc 5ed8 8dbd
00000190: 6c51 6d3d 2eac 833c 1e7f 81bd 0984 3d3c
000001a0: 250c 79bd 0049 da3b 7f9a 0cbe 60e0 98bd
000001b0: b9cf be3c 3093 ca3d f1a4 a0bd 5ffd 8ebd
000001c0: 7f9e 81bd f250 693b 3b8d 033e bf37 363d
000001d0: df34 533d 3c31 8a3d cb01 9cbd b26d 693d
000001e0: 5aaf 10be 8e44 a1bd 26ba 6f3c 86c8 bf3d
000001f0: e00f bcbc 179d 02be 713d 6abd 3a5f a7bd
00000200: 6865 2c3e 5105 d7bd 68c2 32bd 2f1e 93bd
00000210: be49 6bbd 236c 05be f369 4e3c b009 cbbd
00000220: 8597 f0bd 5811 fc3d d6ba 263e 3ead cbbd
00000230: 88b0 b9bd 9e6d d5bd dafd debd a401 ec3d
00000240: f793 aebd df3a 7ebd 020f acbd 51b5 ebbd
00000250: d792 a4bd 1954 fc3d 8118 cb3d 7328 223e
00000260: 4bd7 0f3e 252e 4a3b b4f6 cdbd 0645 b3bd
00000270: 5b3d 103e 7591 c9bd 3666 78bd 8940 003e
00000280: 206c c0bd 9612 e7bd 148e 043e c768 d73d
00000290: b901 b5bd 1bdc bfbd 644a af3d a3a6 d5bd
000002a0: 3490 b63d 6dfb e7bd 5fdc 003e 5787 083e
000002b0: 2977 4ebd 12a2 f4bd 21bf e63c 8c03 083e
000002c0: ae9a 043e d357 45bd 4c50 ebbd bda4 c2bd
000002d0: 462b a1bd 7dce 3abd e949 9d3d 3e83 a6bd
000002e0: c0e7 1f3e 987d bc3d 4416 bf3d 2c31 9abd
000002f0: cd15 dcbd 0a23 923d db5d d33d a297 efbe
00000300: 43a6 a8bd 2a7d df3d 69cf a23c 0fcd 503d
00000310: 8b26 9f3d c798 233c 912b 38be f9be 603d
00000320: b2ab 6f3d 4371 03be b0fc 05be e828 083d
00000330: f65e bf3d 695a f33c bfb2 35bd 83ab 91bd
00000340: 58f5 923c 75c7 05bd e4ea 4a3b e2ad 1b3d
00000350: 3c3d 9abe 2fbb 4bbd da55 cabc cfc0 c7bc
00000360: ea2e 66bd edba 2fbe dca6 d43d 24f1 963d
00000370: a8ef 86bd e5d7 903d 51e4 343d 9110 05be
00000380: 8971 bd3c ac63 d73d 16c1 88bd d5ce 90bd
00000390: 8a79 b03d 81b8 cdbc 75d4 9abd ca47 79bc
000003a0: 9ee2 ddbd 33b7 b03c 578c b1bd c2ba 11bd
000003b0: c246 c23c 3260 d73d 76a2 c6bd e2be 6fbd
000003c0: fd23 f3bd d961 d4bc 25cb f13d c0a5 7d3c
000003d0: e333 6e3d 3f04 9f3d 4c41 1ebe c68d ff3c
000003e0: 0a0d c5bd a309 c9bd 9c72 4fbc 9b5b 313d
000003f0: 2b8f 03bc 6ffe cfbd 0156 35bd 159b 29bd

local_mlp.2.bias f4 [256]
-0.013919645 -0.02058636 0.030131843 -0.018071448 -0.02293197 -0.021565113 -0.020862183 -0.02256793
0.03497498 0.03461873 -0.021656364 0.02985298 0.020907063 0.02962939 -0.021309856 -0.01849456
-0.01429016 0.0248983 0.02617194 0.02136596 0.030794445 -0.020602886 0.034026615 -0.023141716
0.02206167 0.028714063 -0.024207285 -0.021354552 0.021073416 0.03541287 -0.0121115735 0.029628526
-0.019888017 0.032712344 -0.012765066 -0.03005312 0.03272051 0.029772162 0.025977073 0.031548623
-0.024548786 0.029957786 0.031408034 -0.0017715992 0.033307023 0.026918795 -0.020857181 0.016767992
0.028852377 0.03304921 -0.012588119 -0.018765656 0.028914008 -0.034617405 -0.018042985 0.023658501
0.029370843 -0.018913167 -0.015984511 0.031825926 0.029539702 0.040571418 0.03156686 0.02614582
-0.013916115 -0.045373686 -0.01851726 -0.024632823 -0.019364256 0.030991951 -0.024162792 -0.0070995237
-0.02422101 0.023704642 -0.015613259 -0.015830956 0.024518933 -0.023769531 -0.026829045 0.032482352
-0.017197609 -0.01566727 -0.021956982 -0.021686107 0.033111304 0.033283047 0.03412679 0.02785287
-0.018155906 0.027445875 0.008276922 -0.01946473 -0.02220811 -0.02357712 0.03202696 0.030229418
0.02308788 0.023484135 -0.019510144 -0.025122615 -0.008348164 -0.027650759 -0.018609738 -0.020304523
-0.016694667 -0.024561632 -0.021750508 0.035586823 0.030815504 -0.013361157 0.045393288 0.027765697
0.029517043 -0.023138242 -0.020231418 0.027048185 0.02616917 -0.01910015 -0.023892708 -0.016598277
0.028789928 0.032438856 -0.019567003 -0.025253179 -0.017035067 -0.0097373 -0.042368367 -0.010210867
-0.06221799 0.028179647 -0.022764334 -0.019157575 0.031536117 -0.020787762 0.03291113 -0.017426744
0.02505135 0.032765552 -0.012218713 0.033561274 -0.0168745 0.027488315 -0.020489076 -0.020520922
-0.022767082 -0.023683814 -0.023284247 0.031458743 0.030763233 -0.0249486 -0.018305779 0.0252331
-0.018038634 0.035262566 0.033642165 0.02845166 -0.014387476 0.022373535 -0.017842533 -0.012695808
-0.018822372 0.03722449 -0.018957086 -0.02202985 0.034583777 0.032759715 0.03075517 -0.025893582
0.02960665 0.025717346 -0.026432492 -0.017593665 -0.022952516 -0.027479978 -0.0034145806 0.029846005
-0.019696329 -0.022357479 -0.02078991 0.03790512 -0.030241018 0.023204377 0.025998011 0.01573006
0.031468634 -0.025382575 -0.003472384 0.030127278 0.030231869 0.02660334 0.033977862 0.024741897
0.067984946 0.0328961 0.031619642 0.026634175 0.034398124 -0.023737865 0.030121632 -0.017507445
0.033773895 -0.020667788 0.028604573 -0.019052777 -0.022597466 -0.020981416 0.03489834 0.0264679
0.032162037 -0.019244008 -0.01671605 0.027565846 0.03258314 -0.021391314 0.02211953 -0.024565235
0.030822909 -0.022388034 0.031376388 -0.024713429 -0.030463573 -0.023740482 -0.0203927 -0.008552549
-0.028856615 -0.025098125 -0.017593572 -0.021391425 0.02683239 -0.019602027 -0.023675894 0.027633654
0.031054107 0.033086937 0.021417318 0.030988092 0.026299946 0.02964225 0.03097533 -0.019564275
0.027550962 0.028671786 -0.023992581 0.025610955 0.032637857 0.026781661 0.030639261 0.009038567
0.009845338 -0.020445986 0.03220167 0.027711408 0.0255528 -0.0171781 0.034271237 -0.02138522
00000000: 390f 64bc baa4 a8bc 0ed7 f63c 930a 94bc
00000010: d4db bbbc 52a9 b0bc 2be7 aabc 61e0 b8bc
00000020: ed41 0f3d 5fcc 0d3d b068 b1bc 3d8e f43c
00000030: 4a45 ab3c 56b9 f23c 0292 aebc e781 97bc
00000040: 4621 6abc 85f7 cb3c 8966 d63c aa07 af3c
00000050: a244 fc3c 62c7 a8bc 7e5f 0b3d b293 bdbc
00000060: adba b43c c139 eb3c 5b4e c6bc beef aebc
00000070: 28a2 ac3c 160d 113d 9f6f 46bc 86b7 f23c
00000080: 32ec a2bc 61fd 053d 9124 51bc f631 f6bc
00000090: f105 063d c0e4 f33c dfcd d43c 2139 013d
000000a0: 891a c9bc 086a f53c b6a5 003d 0135 e8ba
000000b0: f26c 083d ce84 dc3c aedc aabc 075d 893c
000000c0: d25b ec3c 9c5e 073d 663e 4ebc 6fba 99bc
000000d0: 12dd ec3c fbca 0dbd e2ce 93bc 79cf c13c
000000e0: 1f9b f03c c9ef 9abc f3f1 82bc e75b 023d
000000f0: 3ffd f13c 372e 263d 404c 013d c22f d63c
00000100: 6b00 64bc c2d9 39bd 82b1 97bc c6ca c9bc
00000110: caa1 9ebc d5e2 fd3c 0cf1 c5bc 1fa3 e8bb
00000120: 246b c6bc 3d30 c23c c1ce 7fbc ecaf 81bc
00000130: eedb c83c 52b8 c2bc 96c8 dbbc 370c 053d
00000140: 00e2 8cbc a658 80bc 21df b3bc 10a7 b1bc
00000150: b89f 073d ce53 083d 88c8 0b3d b42b e43c
00000160: b2bb 94bc 2cd6 e03c ed9b 073c 7f74 9fbc
00000170: c8ed b5bc ce24 c1bc b42e 033d afa3 f73c
00000180: cb22 bd3c cd61 c03c bdd3 9fbc f1cd cdbc
00000190: bdc6 08bc d883 e2bc 7373 98bc ac55 a6bc
000001a0: 41c3 88bc 7a35 c9bc 1f2e b2bc 7dc3 113d
000001b0: cc70 fc3c c1e8 5abc 50ee 393d e374 e33c
000001c0: bacd f13c 698c bdbc 5cbc a5bc 2894 dd3c
000001d0: ba60 d63c eb77 9cbc a4ba c3bc 1cf9 87bc
000001e0: dbd8 eb3c 9bde 043d fb4a a0bc c1df cebc
000001f0: 208d 8bbc 3289 1fbc 748a 2dbd 7b4b 27bc
00000200: 4bd8 7ebd 01d9 e63c 457c babc 59f0 9cbc
00000210: 042c 013d 194b aabc d2cd 063d 88c2 8ebc
00000220: 7d38 cd3c 2c35 063d ff30 48bc 8c77 093d
00000230: 643c 8abc 2d2f e13c b5d8 a7bc 7e1b a8bc
00000240: 0882 babc 8f04 c2bc 9bbe bebc e2da 003d
00000250: 2d03 fc3c 0261 ccbc 00f6 95bc a5b5 ce3c
00000260: c2c5 93bc 7b6f 103d 5ecc 093d 7513 e93c
00000270: 73b9 6bbc b448 b73c 812a 92bc 1402 50bc
00000280: 6031 9abc b578 183d e44b 9bbc f277 b4bc
00000290: b8a7 0d3d 0d2f 063d 44f2 fb3c c71e d4bc
000002a0: a589 f23c 2fad d23c f488 d8bc 9720 90bc
000002b0: ea06 bcbc b11d e1bc 28c7 5fbb 9c7f f43c
000002c0: 325a a1bc 0827 b7bc 9a4f aabc 6642 1b3d
000002d0: 03bc f7bc 1b17 be3c c8f9 d43c 54dc 803c
000002e0: 41e5 003d 1eef cfbc f090 63bb 7bcd f63c
000002f0: d3a8 f73c 3fef d93c 5f2c 0b3d 85af ca3c
00000300: b13b 8b3d 10be 063d 9983 013d ea2f da3c
00000310: 0ce5 0c3d e975 c2bc a4c1 f63c c66b 8fbc
00000320: 7f56 0a3d 7e4f a9bc 2354 ea3c 9214 9cbc
00000330: 521e b9bc 38e1 abbc 90f1 0e3d 36d3 d83c
00000340: 57bc 033d 9ca5 9dbc 19f0 88bc c5d1 e13c
00000350: e675 053d d63c afbc 0434 b53c 083d c9bc
00000360: 5380 fc3c 1c67 b7bc 8784 003d d173 cabc
00000370: be8e f9bc 667b c2bc 970e a7bc fe1f 0cbc
00000380: b564 ecbc 959a cdbc 6520 90bc 123d afbc
00000390: 9acf db3c 6e94 a0bc f3f3 c1bc f95f e23c
000003a0: 2f65 fe3c 2b86 073d 5f73 af3c bdda fd3c
000003b0: fc72 d73c 4ed4 f23c fabf fd3c 4245 a0bc
000003c0: 8eb2 e13c 18e1 ea3c 178c c4bc 11ce d13c
000003d0: 46af 053d 3765 db3c 30ff fa3c 7f16 143c
000003e0: 574e 213c 577e a7bc e6e5 033d 0903 e33c
000003f0: 1b54 d13c 16b9 8cbc ff5f 0c3d 0f30 afbc

output_mlp.0.weight f4 [128, 512]
0.14357725 0.16363207 -0.07635885 0.22724417 0.21770515 0.15920551 0.1969899 0.23970595
-0.12759934 -0.10140888 0.15847036 -0.10036869 0.03957308 0.15487617 0.20820028 0.1392908
0.13356513 0.059865966 0.1159462 0.18800852 -0.18029846 0.16823325 -0.082863346 0.22990102
-0.14142908 -0.08037184 0.20950705 0.22910076 0.006713122 -0.18595617 0.18512526 -0.08706545
0.28883216 -0.12550953 0.1146789 0.31433564 -0.05209498 -0.13126914 -0.11891827 -0.098678
0.20410912 0.06107752 -0.021187007 0.259428 -0.08045146 -0.059414167 0.22985795 0.15172276
-0.028502772 -0.07524482 0.11451388 0.17588165 -0.0964941 0.38730875 -0.0005192436 0.12264713
-0.12553695 0.23742709 0.13553177 -0.11462301 -0.053522952 0.42861795 0.021698855 -0.107290685
0.16593978 -0.4584567 0.2375677 0.21463446 0.09557005 -0.027395714 0.29122823 -0.10234994
0.18457323 0.13401872 0.22404663 0.26167023 -0.054195154 0.16983134 0.09120344 -0.042294994
0.21465687 0.19866358 -0.06291366 0.2860787 -0.09400034 -0.11772073 -0.1162285 -0.011385627
0.15127832 -0.07915497 0.15561572 0.18350406 0.2330745 0.24161722 -0.033513546 -0.09386411
0.052732673 -0.062539265 0.16833027 0.17712055 0.11981804 0.24547918 0.16305381 0.30799425
0.24201499 0.26694006 0.21526398 -0.16260727 0.38077095 0.2804508 0.33849123 -0.009704885
0.001039768 0.28550458 0.21658204 -0.13324344 -0.14923032 0.16904564 0.22160242 0.15130521
-0.14363474 -0.104442224 0.2709657 0.24972674 0.096564665 0.24451429 -0.38672936 0.13593456
-0.4640709 -0.13853846 0.26321703 0.20148014 -0.08141137 0.16851212 -0.08507898 0.21000014
0.13326441 -0.051532835 0.20136122 -0.026906269 0.23660007 -0.09654451 0.18311498 0.22570868
0.1349672 0.18716072 0.26379874 -0.037897933 -0.04356236 0.29191455 0.2449526 -0.16971377
0.24301712 -0.17146415 -0.005535987 -0.027523732 0.24159278 -0.14411733 0.25687778 0.23897526
0.20900871 0.39830405 0.20346135 0.20920333 -0.12871385 -0.1640818 -0.057329286 0.21552338
-0.008034718 -0.007343097 0.22259529 0.26671556 0.16264811 0.27236483 0.17148955 -0.089392684
0.17148045 0.09331754 0.1770795 0.4079591 0.23238832 -0.05838302 -0.063178174 -0.1977799
-0.07369142 0.16776247 0.22185597 -0.10356926 -0.0139973005 -0.08871806 -0.1698806 -0.05953247
0.55910903 -0.11387621 -0.086371385 0.033334035 -0.12216655 0.21048951 -0.07880476 0.16969205
-0.15243836 0.20642993 0.06400556 0.18655568 0.21382166 0.21955468 -0.06765494 -0.017796872
-0.023978282 0.22947414 0.27124318 -0.07217911 0.326786 0.29696748 0.06435699 0.20023142
-0.1873333 0.20111997 -0.0627718 0.16764365 0.228589 -0.12133433 0.14581543 0.12516999
-0.3051538 0.14855672 0.095064566 0.2163443 -0.13815193 0.27393088 0.18211655 -0.1381945
-0.116879426 -0.13884063 -0.03182845 -0.055237018 -0.092769995 0.0176331 -0.046014268 0.222983
-0.13311155 -0.099998385 0.17716719 -0.07190326 -0.023400439 0.20512126 -0.19916177 0.14744723
-0.10827513 0.23577893 -0.035459813 -0.01711805 0.09817698 0.2136731 -0.14276777 0.2087222
00000000: ea05 133e 2a8f 273e 0762 9cbd b2b2 683e
00000010: 19ee 5e3e c506 233e b8b7 493e 7a75 753e
00000020: 67a9 02be 75af cfbd 0e46 223e 1a8e cdbd
00000030: 6217 223d dc97 1e3e 7432 553e 3fa2 0e3e
00000040: 4cc5 083e 0436 753d 3475 ed3d 4e85 403e
00000050: 29a0 38be 5645 2c3e 42b4 a9bd 2c6b 6b3e
00000060: c9d2 10be fe99 a4bd 0489 563e 6499 6a3e
00000070: c0f9 db3b 4b6b 3ebe 7a91 3d3e 5f4f b2bd
00000080: cfe1 933e 9285 00be c5dc ea3d 9af0 a03e
00000090: 8c61 55bd 6b6b 06be 6c8b f3bd b117 cabd
000000a0: fb01 513e 6c2c 7a3d 6090 adbc bfd3 843e
000000b0: bcc3 a4bd 455c 73bd e25f 6b3e 365d 1b3e
000000c0: a57e e9bc f519 9abd 4186 ea3d 521a 343e
000000d0: b39e c5bd 554d c63e d91d 08ba 6b2e fb3d
000000e0: c28c 00be 1620 733e d7c8 0a3e 78bf eabd
000000f0: e23a 5bbd d073 db3e ccc1 b13c 38bb dbbd
00000100: 1eec 293e d6ba eabe f244 733e 23c9 5b3e
00000110: 3bba c33d fa6c e0bc de1b 953e d89c d1bd
00000120: c400 3d3e 343c 093e 7b6c 653e a4f9 853e
00000130: bdfb 5dbd 44e8 2d3e dfc8 ba3d 843d 2dbd
00000140: 03cf 5b3e 776e 4b3e e1d8 80bd e878 923e
00000150: 4083 c0bd 9117 f1bd 3509 eebd c88a 3abc
00000160: b4e8 1a3e 001c a2bd ba59 1f3e 7de8 3b3e
00000170: 15ab 6e3e 816a 773e 8045 09bd d43b c0bd
00000180: 37fe 573d 9614 80bd c55e 2c3e 175f 353e
00000190: 2963 f53d e55e 7b3e 94f7 263e 6cb1 9d3e
000001a0: c7d2 773e 5eac 883e 296e 5c3e 8582 26be
000001b0: 69f4 c23e 3f97 8f3e b94e ad3e 3d01 1fbc
000001c0: d348 883a a82d 923e afc7 5d3e f870 08be
000001d0: d5cf 18be 4d1a 2d3e bfeb 623e c1ef 1a3e
000001e0: fc14 13be cee5 d5bd 04bc 8a3e 5eb8 7f3e
000001f0: b2c3 c53d f461 7a3e 6401 c6be 6e32 0b3e
00000200: b39a edbe 07dd 0dbe 62c4 863e cf50 4e3e
00000210: 01bb a6bd 718e 2c3e e33d aebd 470a 573e
00000220: 7776 083e 1814 53bd a331 4e3e 896a dcbc
00000230: 4a47 723e 21b9 c5bd 7e82 3b3e 2d20 673e
00000240: d734 0a3e 0fa7 3f3e a110 873e dd3a 1bbd
00000250: 726e 32bd d375 953e dbd4 7a3e 72c9 2dbe
00000260: 7bd9 783e 4c94 2fbe 3a67 b5bb 7379 e1bc
00000270: 1964 773e 7e93 13be 7c85 833e eeb5 743e
00000280: 6106 563e 82ee cb3e 2c58 503e 6639 563e
00000290: 90cd 03be 0f05 28be 1dd2 6abd 29b2 5c3e
000002a0: 0da4 03bc 5d9e f0bb 05f0 633e f18e 883e
000002b0: 3a8d 263e 6773 8b3e f59a 2f3e 8313 b7bd
000002c0: 9298 2f3e 441d bf3d 5454 353e 04e0 d03e
000002d0: 34f7 6d3e 0923 6fbd 8f63 81bd d086 4abe
000002e0: 87eb 96bd edc9 2b3e 362e 633e 1f1c d4bd
000002f0: ef54 65bc d0b1 b5bd 2ef5 2dbe 52d8 73bd
00000300: c521 0f3f ee37 e9bd 7be3 b0bd 4589 083d
00000310: 7532 fabd 908a 573e 6464 a1bd c1c3 2d3e
00000320: cd18 1cbe 5e62 533e 5915 833d 7408 3f3e
00000330: 11f4 5a3e f1d2 603e ac8e 8abd bfca 91bc
00000340: 1a6e c4bc 45fb 6a3e 63e0 8a3e a4d2 93bd
00000350: 7f50 a73e 1f0c 983e 99cd 833d 7709 4d3e
00000360: 4dd4 3fbe 65f2 4d3e 808e 80bd c7aa 2b3e
00000370: 3c13 6a3e 227e f8bd a450 153e 902c 003e
00000380: 1e3d 9cbe 411f 183e 36b1 c23d 5c89 5d3e
00000390: b377 0dbe ab40 8c3e c37c 3a3e dc82 0dbe
000003a0: 7b5e efbd 3d2c 0ebe 8c5e 02bd 3640 62bd
000003b0: 32fe bdbd 4a73 903c 7579 3cbd a855 643e
000003c0: 654e 08be f4cb ccbd 516b 353e 0442 93bd
000003d0: 47b2 bfbc 4f0b 523e 10f1 4bbe 68fc 163e
000003e0: 5abf ddbd 0870 713e 4f3e 11bd 273b 8cbc
000003f0: 0311 c93d 1fcd 5a3e b731 12be 46bb 553e

output_mlp.0.bias f4 [128]
-0.020503292 0.03282594 -0.015688224 -0.014757904 0.031753886 -0.016185204 -0.035354804 -0.030364938
0.010259726 0.032130867 0.033862427 -0.028615015 -0.020925578 0.055685937 0.031134784 0.0066611506
-0.028755473 -0.017747125 -0.021800654 0.049405366 -0.016759012 0.049453206 0.03908744 0.021615228
-0.029749902 0.010999253 0.07561085 0.032596495 -0.01697071 0.058018584 0.020318892 -0.035062823
0.021756813 0.04676314 -0.02303203 -0.014055446 0.011537445 0.023690298 -0.019911136 -0.019280478
0.042138893 0.03138569 0.020576864 -0.00010552441 -0.020200832 -0.017465059 0.046207637 -0.019472143
0.053167656 -0.016425345 0.045488805 -0.017042398 -0.03534885 0.025926348 0.043323245 -0.031312536
-0.017133985 -0.03631749 -0.018031595 0.030173557 -0.019569911 -0.018853754 -0.035377547 0.054028183
-0.011835316 0.059098672 -0.015497791 0.02327955 -0.033712648 -0.020060396 -0.018653985 -0.033441026
-0.021911858 -0.012832102 -0.027108504 0.044521976 0.027065735 0.05890786 -0.01941866 0.029192692
0.018966988 0.04073796 0.045570426 -0.03607603 0.043856446 -0.031322755 0.031976096 -0.019570014
0.04640688 0.058180284 -0.015532525 0.0026776644 0.026525822 0.05617072 -0.023539878 -0.034245417
0.05039969 0.044611704 -0.011489943 -0.018875066 0.022042347 -0.03479017 -0.0100979125 -0.029410427
0.020517172 -0.019213071 0.05954512 0.06271622 -0.03199054 0.030029245 0.056747124 0.04771624
-0.024223257 -0.021115026 0.019567082 -0.11931328 0.052425984 -0.016238151 0.04723079 -0.019811422
-0.016053747 -0.018115612 -0.018411573 -0.017747872 -0.011998548 -0.021023612 0.029643217 -0.011649071
00000000: 85f6 a7bc 7e74 063d 9784 80bc 23cb 71bc
00000010: 5d10 023d d596 84bc 33d0 10bd e4bf f8bc
00000020: 6918 283c a89b 033d 54b3 0a3d 096a eabc
00000030: 1e6c abbc f016 643d 600e ff3c c845 da3b
00000040: 9990 ebbc 6b62 91bc 4997 b2bc 485d 4a3d
00000050: 324a 89bc 728f 4a3d 271a 203d 6b12 b13c
00000060: 11b6 f3bc 3636 343c dcd9 9a3d e783 053d
00000070: 2906 8bbc e5a4 6d3d ce73 a63c 099e 0fbd
00000080: 583b b23c b58a 3f3d abad bcbc d048 66bc
00000090: 8d07 3d3c 2812 c23c ae1c a3bc 18f2 9dbc
000000a0: d599 2c3d 488e 003d d090 a83c fc4c ddb8
000000b0: 377c a5bc e212 8fbc 3844 3d3d 0b84 9fbc
000000c0: 54c6 593d 728e 86bc 7852 3a3d 809c 8bbc
000000d0: f5c9 10bd 7e63 d43c b773 313d 9341 00bd
000000e0: 925c 8cbc a6c1 14bd ffb6 93bc 892e f73c
000000f0: 1451 a0bc 3073 9abc 0ce8 10bd a84c 5d3d
00000100: eae8 41bc 7311 723d 72ea 7dbc c1b4 be3c
00000110: 4616 0abd b355 a4bc 3ed0 98bc 75f9 08bd
00000120: 7f80 b3bc bd3d 52bc a712 debc ad5c 363d
00000130: f6b8 dd3c 5e49 713d e213 9fbc 8325 ef3c
00000140: a860 9b3c d9dc 263d 0ea8 3a3d 76c4 13bd
00000150: d1a2 333d 4a4c 00bd 5ef9 023d 4b51 a0bc
00000160: 2415 3e3d 734e 6e3d 227c 7ebc c17b 2f3b
00000170: ae4c d93c 4513 663d b4d6 c0bc ec44 0cbd
00000180: e86f 4e3d c3ba 363d 5040 3cbc e29f 9abc
00000190: 2792 b43c 2380 0ebd b771 25bc 23ee f0bc
000001a0: a113 a83c bb64 9dbc 95e5 733d 5d71 803d
000001b0: 8308 03bd e4ff f53c ac6f 683d 1b72 433d
000001c0: da6f c6bc 6bf9 acbc 254b a03c 855a f4bd
000001d0: a1bc 563d df05 85bc 1375 413d 904b a2bc
000001e0: 2683 83bc 3167 94bc ded3 96bc fc63 91bc
000001f0: 8f95 44bc b639 acbc 55d6 f23c bfdb 3ebc

output_mlp.2.weight f4 [9, 128]
0.37068915 0.01885146 0.3323542 0.36126596 0.05980671 0.33843464 0.6927451 0.6863267
0.10998224 0.05672696 0.05510926 0.6288754 0.43010285 0.029466856 0.046477173 0.07378038
0.517956 0.36110342 0.41875786 0.014439633 0.34415552 0.0290802 0.06924003 0.058251362
0.42569262 0.06795679 0.012491747 0.03426797 0.3442924 0.0040091304 0.0501315 0.7581091
0.075243264 0.038254395 0.49893415 0.34828603 0.07201463 0.028164545 0.3851063 0.36670205
0.0558984 0.049334846 0.058057632 0.11310128 0.38851473 0.34841502 0.045382604 0.38486212
0.029244877 0.34580794 0.042656515 0.35848173 0.70990294 0.062373377 0.039337836 0.6960315
0.33154958 0.80151194 0.36940598 0.013052295 0.37079898 0.34545752 0.7679644 0.017516805
0.34232572 0.025737302 0.34632885 0.049618725 0.64677596 0.37121058 0.36044168 0.7182019
0.452516 0.34015837 0.55389124 0.03758898 0.042012498 0.022789342 0.36702648 0.05957501
0.0495014 0.026828336 0.033707354 0.674362 0.056461122 0.6253078 0.08010891 0.426295
0.043120198 0.0065172757 0.378479 0.07235275 0.06013106 0.019419406 0.49089363 0.69209194
0.01998425 0.062657475 0.3423311 0.42604953 0.060207393 0.7440137 0.37115392 0.25466183
0.06244484 0.44306064 0.009100971 0.018524112 0.7543192 0.045056477 0.022254476 0.02848258
0.5548473 0.4277092 0.05404614 1.2415944 0.019816883 0.34414595 0.036262788 0.39314714
0.34114966 0.35234746 0.35400555 0.3411633 0.3409752 0.4274607 0.07495334 0.34906173
0.016718643 -0.027052179 0.0492591 -0.0035132784 0.0056490717 0.009903434 0.016514264 -0.0007131215
0.020018538 -0.0033463787 -0.0023051056 0.032357745 0.00052589434 -0.036587756 0.0031401063 -0.015133367
0.018604675 0.023528488 0.0007218251 -0.019710403 0.020910827 -0.045746222 -0.03566867 -0.0048701568
0.0017779896 -0.014953088 -0.02853509 0.0033268281 0.015772685 -0.011909024 -0.010841724 -0.0029610337
-0.04444198 -0.036844198 0.002869223 -0.0042314953 0.008932199 -0.0071785427 -0.0147817135 -0.06447679
-0.017311044 0.021712067 -0.039135214 0.0154749425 0.04462633 0.029099742 -0.012764977 0.018757049
-0.03681214 -0.020414913 -0.05937466 -0.025018144 -0.013501934 -0.017985735 -0.04326658 0.0005694076
0.0002654615 -0.0052131927 0.006860715 0.0044864444 0.007971235 0.0056392327 0.010934728 -0.02806801
0.024120832 -0.023390552 0.009827714 0.0061449567 -0.013562177 -0.012861024 2.698725e-05 0.0050824955
0.046351176 0.0062298765 0.014897249 -0.013420398 -0.0075134905 -0.010189401 -0.020302808 0.02684965
-0.029577866 -0.0065535693 -0.029995224 0.008841233 -0.019480221 -0.019894537 -0.045005232 0.019704098
-0.020726096 -0.06256807 0.019046526 0.0145482775 0.0019772656 -0.051499255 -0.0019138383 -3.0422672e-05
-0.005487364 -0.055691417 0.014220763 0.039211378 0.010021018 -0.0037436953 0.057529412 -0.00503947
0.005880413 0.02339105 -0.05646605 -0.09520009 -0.032946102 -0.07779987 -0.0764395 -0.02851854
-0.00961788 0.009386229 0.007683082 0.016021462 -0.0176893 0.0252474 -0.03419512 -0.0017446778
-0.03414805 0.008354533 0.034555934 0.010205509 -0.0072269887 -0.028908826 -0.010210144 0.0011315726
00000000: f8ca bd3e 616e 9a3c 542a aa3e daf7 b83e
00000010: e1f7 743d 4e47 ad3e be57 313f 1bb3 2f3f
00000020: 5e3e e13d 875a 683d 3fba 613d fafd 203f
00000030: 7136 dc3e 7a64 f13c d95e 3e3d 2b1a 973d
00000040: c498 043f 8ce2 b83e 6e67 d63e 3694 6c3c
00000050: 2735 b03e 9939 ee3c b8cd 8d3d fb98 6e3d
00000060: 62f4 d93e ee2c 8b3d 2faa 4c3c 925c 0c3d
00000070: 1847 b03e 065f 833b b056 4d3d 7013 423f
00000080: 2419 9a3d a4b0 1c3d 4c74 ff3e 8c52 b23e
00000090: 687c 933d 55b9 e63c a72c c53e 5fc0 bb3e
000000a0: b8f5 643d 5613 4a3d d7cd 6d3d a5a1 e73d
000000b0: 67eb c63e 7463 b23e 1ce3 393d a60c c53e
000000c0: f492 ef3c bd0d b13e 99b8 2e3d eb8a b73e
000000d0: 33bc 353f 3a7b 7f3d b620 213d 1f2f 323f
000000e0: dec0 a93e e32f 4d3f c822 bd3e 4bd9 553c
000000f0: 5dd9 bd3e cfdf b03e 5199 443f 677f 8f3c
00000100: 5145 af3e 09d7 d23c 0452 b13e 013d 4b3d
00000110: 1c93 253f 500f be3e d08b b83e 14dc 373f
00000120: 2db0 e73e 3d29 ae3e d1cb 0d3f e7f6 193d
00000130: 4c15 2c3d b7b0 ba3c e5ea bb3e ed04 743d
00000140: fbc1 4a3d 19c7 db3c b910 0a3d fda2 2c3f
00000150: c743 673d 2c14 203f 2410 a43d 5743 da3e
00000160: ce9e 303d df8e d53b 00c8 c13e ae2d 943d
00000170: fd4b 763d 7215 9f3c 6956 fb3e f02c 313f
00000180: 03b6 a33c 9052 803d 0646 af3e 2a23 da3e
00000190: 079c 763d af77 3e3f e307 be3e 0963 823e
000001a0: 29c6 7f3d d8d8 e23e 3d1c 153c e1bf 973c
000001b0: 101b 413f 248d 383d 054f b63c 4d54 e93c
000001c0: 790a 0e3f b3fc da3e 7c5f 5d3d 91ec 9e3f
000001d0: 0457 a23c e633 b03e 4a88 143d 954a c93e
000001e0: 2bab ae3e e366 b43e 3740 b53e f5ac ae3e
000001f0: 4d94 ae3e 21dc da3e 2381 993d 38b8 b23e
00000200: 89f5 883c 889c ddbc e9c3 493d 083f 66bb
00000210: d91b b93b 0342 223c ec48 873c c6f0 3aba
00000220: ebfd a33c eb4e 5bbb 4111 17bb 8e89 043d
00000230: 2cdc 093a 0bdd 15bd 3eca 4d3b f1f1 77bc
00000240: d568 983c d1be c03c dd38 3d3a b677 a1bc
00000250: 2f4d ab3c 6460 3bbd 5019 12bd d695 9fbb
00000260: 6e0b e93a ccfd 74bc 6cc2 e9bc ea06 5a3b
00000270: b835 813c 111e 43bc 7da1 31bc e70d 42bb
00000280: cb08 36bd f1e9 16bd 9309 3c3b 5ba8 8abb
00000290: 5c58 123c fb39 ebbb 002f 72bc 680c 84bd
000002a0: e4cf 8dbc 81dd b13c 3f4c 20bd 9d8a 7d3c
000002b0: 19ca 363d 9562 ee3c 3224 51bc 62a8 993c
000002c0: 54c8 16bd 2d3d a7bc d832 73bd daf2 ccbc
000002d0: 3737 5dbc d256 93bc 4c38 31bd 4c44 153a
000002e0: a42d 8b39 6ed3 aabb d9cf e03b 0603 933b
000002f0: c899 023c 50c9 b83b 9327 333c e2ee e5bc
00000300: 0d99 c53c 8b9d bfbc 6c04 213c a25b c93b
00000310: e533 5ebc 0bb7 52bc ae62 e237 108b a63b
00000320: bbda 3d3d fe23 cc3b 9713 743c 3be1 5bbc
00000330: ba33 f6bb 72f1 26bc 1352 a6bc ccf3 db3c
00000340: 484d f2bc 53bf d6bb 8bb8 f5bc d2da 103c
00000350: fc94 9fbc def9 a2bc 6857 38bd 7d6a a13c
00000360: c6c9 a9bc b023 80bd 7607 9c3c e65b 6e3c
00000370: 0395 013b e2f0 52bd c2d9 faba 3134 ffb7
00000380: 58cf b3bb af1c 64bd 34fe 683c 1c9c 203d
00000390: 322f 243c c958 75bb f6a3 6b3d 2322 a5bb
000003a0: 7bb0 c03b 969e bf3c f248 67bd 44f8 c2bd
000003b0: 7ef2 06bd 8a55 9fbd 508c 9cbd b79f e9bc
000003c0: 5094 1dbc b3c8 193c 5dc2 fb3b 713f 833c
000003d0: 27e9 90bc a3d3 ce3c 2f10 0cbd acad e4ba
000003e0: d3de 0bbd 74e1 083c 868a 0d3d 0235 273c
000003f0: 60d0 ecbb 34d2 ecbc 7348 27bc 4751 943a

output_mlp.2.bias f4 [9]
0.021872723 -0.0025482133 -0.030507011 -0.00327088 -0.03321206 -0.030902304 -0.031220334 -0.030807782
0.046152223
00000000: 6d2e b33c edff 26bb d7e9 f9bc 435c 56bb
00000010: 5e09 08bd d426 fdbc c9c1 ffbc 9a60 fcbc
00000020: 1d0a 3d3d
