log/segmentation/pn/bucket/weighted-3/pn_10.pth (torch, 337359 bytes, 8 tensors)

local_mlp.0.weight f4 [64, 3]
0	0x3e8bd193	0.2730833
1	0x3da454f6	0.080240175
2	0x3d76e3ee	0.060275964
3	0xbe8f4387	-0.27981207
4	0x3de9257a	0.11384101
5	0x3e3448a7	0.1760584
6	0xbecec470	-0.40384245
7	0x3e5d17c9	0.21591105
8	0xbd15dce7	-0.036587622
9	0xbe1c0b9d	-0.15238805
10	0x3e27eff4	0.16400129
11	0xbe08c5a9	-0.13356651
12	0xbeaca48f	-0.33719298
13	0x3e0f7830	0.14010692
14	0x3dc6a587	0.096995406
15	0xbdd47737	-0.10374301
16	0x3e58ab0e	0.21159002
17	0xbe137cfb	-0.14403145
18	0x3e38cf84	0.18047911
19	0xbf1de7be	-0.61681736
20	0xbe099278	-0.1343478
21	0xbeb51ebd	-0.35375014
22	0x3e482cd4	0.1954835
23	0x3db33c42	0.08751728
24	0xbee1f810	-0.4413457
25	0x3e054663	0.13015132
26	0x3e0c8e6e	0.13726208
27	0x3ea21ebf	0.31664082
28	0xbe78c0de	-0.24292323
29	0xbe25d3c2	-0.1619406
30	0x3eb88fdd	0.3604726
31	0x3cd3716c	0.02581092
32	0xbd7675d3	-0.06017096
33	0xbf1720f1	-0.5903464
34	0x3e9fa80b	0.31182894
35	0xbc430fcf	-0.0119056245
36	0xbeaf0bce	-0.34188694
37	0x3df67935	0.12034837
38	0x3e2527d4	0.16128474
39	0xbe81770e	-0.25286144
40	0x3e1e9891	0.15487887
41	0xbd90e769	-0.07075388
42	0xbe3538c6	-0.17697439
43	0x3e48bbbc	0.19602865
44	0xbe07e0b3	-0.1326931
45	0x3e36ee37	0.17864309
46	0xbdd7ca6a	-0.10536654
47	0xbdac1af2	-0.08403577
48	0xbdfb1192	-0.12259211
49	0x3e3a8f8c	0.18218821
50	0xbdf30d92	-0.11867823
51	0xbe9b7ed6	-0.30370206
52	0xbde937a1	-0.113875635
53	0xbdec7ea5	-0.11547593
54	0xbe09017b	-0.13379471
55	0x3e1860a3	0.14880614
56	0xbe0ea41d	-0.13929792
57	0xbd0dec8f	-0.034649428
58	0x3e5cf196	0.21576533
59	0xbe204cbc	-0.15654272
60	0x3e7e58e1	0.24838592
61	0x3ff14472	1.8849013
62	0xbe10d8ae	-0.14145157
63	0x3e77d4d8	0.24202287
64	0x3d0a8975	0.033822495
65	0x3ddfde76	0.10931103
66	0x3ea9ac47	0.3313925
67	0xbd01dbfd	-0.031703938
68	0x3e991312	0.29897362
69	0x3e943052	0.28943115
70	0x3e076f00	0.13225937
71	0x3d7bdff7	0.061492886
72	0x3e8ff50b	0.2811664
73	0x3e658f4a	0.22417942
74	0x3ddcccec	0.10781273
75	0x3e69fb9c	0.22849888
76	0xbf2c07bc	-0.671993
77	0xbe1a4ad2	-0.15067604
78	0xbe87bc05	-0.26510635
79	0x3dfd33e6	0.123634145
80	0x3e36fd65	0.178701
81	0xbedbb3e0	-0.4291067
82	0x3e8d870e	0.276421
83	0x3c402b86	0.011729127
84	0x3e8cc2e8	0.27492452
85	0x3c72fe62	0.014831157
86	0x3e15857c	0.14601701
87	0xbf109242	-0.5647317
88	0x3e5a752f	0.21333764
89	0x3d0eff0b	0.034911197
90	0xbde4c9bc	-0.1117129
91	0x3e148c1c	0.14506572
92	0x3e89813f	0.2685642
93	0x3ed7acf8	0.42124152
94	0x3d94b677	0.07261365
95	0xbe22caaf	-0.1589763
96	0xbeaa7e84	-0.3329965
97	0x3e6bb686	0.23018846
98	0xbc04f761	-0.00811562
99	0xbe9cc91f	-0.30622193
100	0x3de4fd63	0.11181142
101	0x3e2c7064	0.16839749
102	0x3e70ccc5	0.23515613
103	0x3d23f7c7	0.04003122
104	0x3da31a49	0.07963998
105	0x3eabf3c7	0.33584425
106	0x3ea0eade	0.3142919
107	0xbd936b9a	-0.07198258
108	0xbeb954cf	-0.36197516
109	0x3e043b37	0.12913214
110	0x3e257d17	0.16160999
111	0xbe2f339c	-0.17109531
112	0x3e019bb6	0.12657055
113	0xbe129c8b	-0.14317529
114	0x3e091b97	0.13389431
115	0xbd35f0b8	-0.04441902
116	0x3ca218e3	0.019787258
117	0xbe3c24cc	-0.18373412
118	0x3d950910	0.07277119
119	0xbe0eea8f	-0.13956665
120	0x3eca81ae	0.39552063
121	0x3d8c782d	0.06858859
122	0xbe090e42	-0.13384345
123	0xbe17061f	-0.14748429
124	0x3e1e6b13	0.15470533
125	0xbe1f0f8f	-0.15533279
126	0x3e6336d7	0.22188888
127	0xbd75aaec	-0.059977457
128	0xbd0cd6da	-0.034384586
129	0x3e8ee5e7	0.27909777
130	0x3c889f86	0.01667763
131	0xbd797e6e	-0.06091159
132	0xbea38c92	-0.31943184
133	0x3df4791c	0.11937162
134	0x3e05dd64	0.13072735
135	0xbe8ea103	-0.27857217
136	0x3e11b560	0.14229345
137	0x3e3b63e9	0.18299831
138	0x3dc5ce47	0.09658485
139	0xbdda93ba	-0.10672708
140	0xbd2c5ed7	-0.042082634
141	0x3e9fac09	0.3118594
142	0x3ccf8090	0.025329858
143	0xbdce5925	-0.10075597
144	0x3e8fcf95	0.2808806
145	0x3db93b20	0.0904448
146	0x3d8148be	0.063127026
147	0xbd9b80f9	-0.07592959
148	0x3dd2bdb3	0.102900885
149	0xbe20e30b	-0.1571161
150	0xbe2e6628	-0.17031157
151	0x3e02ad28	0.12761366
152	0x3e4bbba8	0.19895804
153	0xbe9da230	-0.30787802
154	0x3e7765da	0.24159947
155	0xbd2aeb14	-0.041728094
156	0xbf0562ec	-0.5210407
157	0x3e39807f	0.18115424
158	0x3d8e7620	0.06956124
159	0xbec293d0	-0.38003397
160	0x3e0a3992	0.13498524
161	0x3dee5d79	0.11638922
162	0x3e93067a	0.2871588
163	0x3edabe77	0.42723438
164	0xbd07d8d9	-0.033165786
165	0xbe740524	-0.23830086
166	0x3d9e57ef	0.07731616
167	0x3c311870	0.010809049
168	0x3eb5c670	0.35502958
169	0x3c0c8c7e	0.008578418
170	0xbe0b0bc9	-0.13578714
171	0x3e0293aa	0.12751642
172	0xbe5e443d	-0.21705718
173	0xbd96d21c	-0.07364294
174	0x3ead727a	0.338764
175	0x3c80b00c	0.015708946
176	0x3ea04b68	0.3130753
177	0xbea7144f	-0.32632682
178	0x3df508c5	0.11964563
179	0x3e28d4a1	0.16487361
180	0xbdd50852	-0.104019776
181	0x3e34a5eb	0.17641418
182	0xbe183a4d	-0.1486599
183	0x3ddd31c9	0.108005114
184	0xbe1de1dc	-0.1541819
185	0xbd45b011	-0.048263613
186	0x3e3b8ae6	0.18314704
187	0xbdea3bbb	-0.11437174
188	0x3d94c5f4	0.07264319
189	0xbdbb3eff	-0.09142875
190	0xc0324b97	-2.7858636
191	0xbe0f823d	-0.14014526

local_mlp.0.bias f4 [64]
0	0xbe21eeaf	-0.15813707
1	0xbd88f0ee	-0.06686579
2	0x3dd1cac9	0.10243756
3	0x3e9cadc8	0.30601335
4	0xbdcf5a5f	-0.10124659
5	0x3ea02fcd	0.3128647
6	0x3e2dda85	0.1697789
7	0xbdaae2d0	-0.08344042
8	0xbd6b1be8	-0.05739966
9	0x3e39453e	0.1809282
10	0x3cc0cad6	0.02353422
11	0x3d9a4d37	0.07534259
12	0xbd96572a	-0.07340844
13	0x3e27a092	0.16369846
14	0x3e9a7ca4	0.30173218
15	0x3db35812	0.087570325
16	0x3e87ef75	0.2654988
17	0x3ebdc80f	0.37066695
18	0x3ea2b6fe	0.31780237
19	0x3ea35345	0.31899467
20	0x3e16f326	0.14741191
21	0xbe576db0	-0.21037936
22	0xbe49a8e2	-0.1969333
23	0xbe2a31ca	-0.16620556
24	0xbe3d6880	-0.18496895
25	0x3e3fc0dd	0.18725915
26	0xbd778180	-0.060426235
27	0x3c031272	0.008000003
28	0xbe4abf87	-0.19799624
29	0xbbc82b26	-0.0061086593
30	0xbe00875a	-0.12551633
31	0x3df46161	0.11932636
32	0x3d0c5b68	0.03426686
33	0xbd79d506	-0.06099417
34	0xbe433ae6	-0.19065437
35	0xbd6b2a24	-0.057413235
36	0xbd9240fb	-0.071413
37	0x3eb15ad8	0.3463962
38	0xbde303ed	-0.11084733
39	0x3eac2dc7	0.33628675
40	0x3db61a7f	0.088917725
41	0x3ebe2a04	0.3714143
42	0xbc9ceb84	-0.019155271
43	0x3cc758fc	0.024334423
44	0xbdf9a1a4	-0.12189034
45	0xbd709fda	-0.058746196
46	0x39e9fa65	0.00044627782
47	0x3dcc445a	0.099739745
48	0xbe122d07	-0.14274989
49	0x3eb41881	0.35174945
50	0xbdabf78d	-0.08396826
51	0x3dc56bf7	0.09639733
52	0xbd3b9068	-0.045792013
53	0xbdb25d8b	-0.08709248
54	0xbdbd27d5	-0.09236113
55	0x3cc483d5	0.023988644
56	0x3e215698	0.15755689
57	0x3d38765f	0.045034762
58	0xbe3662d8	-0.17811143
59	0xbdb295c4	-0.08719972
60	0x3eaa6ec1	0.33287624
61	0xb91ee08c	-0.00015151704
62	0xbe2fcf22	-0.17168859
63	0x3e07264e	0.13198206

local_mlp.2.weight f4 [256, 64]
0	0xbdb322ae	-0.08746849
1	0xbc558907	-0.013033158
2	0x3e2b3017	0.16717564
3	0x3e331fe8	0.1749264
4	0x3d8072af	0.06271874
5	0x3e40c7d7	0.18826233
6	0xbe83fe08	-0.25779748
7	0x3dbc93ea	0.092079
8	0x3ccb6212	0.024827037
9	0xbe53aedf	-0.20672177
10	0xbdb48823	-0.088150285
11	0x3e31a647	0.17348586
12	0xbc2e59b9	-0.010641509
13	0x3e28681f	0.16445969
14	0x3e491444	0.19636637
15	0xbe1a3069	-0.1505753
16	0x3e3a7733	0.18209533
17	0x3e1c4d47	0.15263854
18	0x3e1aef40	0.15130329
19	0x3e36de57	0.17858253
20	0x3e045f37	0.12926947
21	0xbda205d0	-0.07911265
22	0xbe723d27	-0.2365614
23	0x3d13bdfa	0.036069848
24	0xbc9517f8	-0.018199906
25	0xbe521f92	-0.20519856
26	0xbd58d6a8	-0.052939087
27	0x3e266c06	0.16252145
28	0xbd945691	-0.07243074
29	0x3e1e5f93	0.15466146
30	0xbd3a841f	-0.045536157
31	0x3db7e0e1	0.08978439
32	0x3dd99c1e	0.1062548
33	0x3a8f6ad2	0.0010941869
34	0xbd98faf9	-0.07469744
35	0x3d944d67	0.07241326
36	0xbc2c9b74	-0.01053511
37	0x3e5fc123	0.2185102
38	0xbe136390	-0.14393449
39	0x3e41e363	0.18934397
40	0x3cbf4753	0.02334944
41	0x3e597d48	0.21239197
42	0xbdce5e5d	-0.10076592
43	0xbdaec36e	-0.08533369
44	0x3d876a03	0.06612017
45	0xbc8b2333	-0.016984558
46	0xbe244282	-0.16040996
47	0xbdb10e6a	-0.086453274
48	0xbccd7262	-0.025078956
49	0x3e33ac79	0.17546262
50	0xbd39e8f0	-0.045388162
51	0x3e3e0532	0.1855667
52	0x3de9f278	0.114232
53	0x3d216205	0.03940012
54	0x3d872540	0.06598902
55	0x3df69d9c	0.1204178
56	0xbcd44324	-0.025910921
57	0xbe4f0341	-0.20216085
58	0xbe3c4b8b	-0.18388192
59	0xbca60cdf	-0.02026981
60	0x3e575b30	0.21030879
61	0xbe12792d	-0.14304037
62	0xbe0f6359	-0.14002742
63	0x3e812738	0.25225234
64	0xbe05d4e0	-0.13069487
65	0x3e1176b5	0.1420544
66	0x3de2efb3	0.11080875
67	0x3e45832e	0.19288322
68	0x3db89ee8	0.09014684
69	0x3e3739c0	0.17893124
70	0xbdee4e89	-0.11636073
71	0x3dfbaf82	0.12289335
72	0x3e1a661d	0.15078016
73	0xbdd56746	-0.104200885
74	0xbe43ce22	-0.19121602
75	0x3dad3c24	0.084587365
76	0x3e069740	0.13143635
77	0x3ddaf15c	0.10690567
78	0x3e3dda8e	0.18540403
79	0xbda48dce	-0.080348596
80	0x3e4347cf	0.19070362
81	0x3eac886c	0.33697832
82	0x3e11685c	0.14199966
83	0x3e21a463	0.15785365
84	0xbf18a280	-0.59622955
85	0xbdb79c14	-0.089653164
86	0xbd819419	-0.063270755
87	0xbe125219	-0.1428913
88	0xbdceeacf	-0.1010338
89	0xbdb536bb	-0.0884833
90	0x3e1be604	0.15224463
91	0x3e0bd6c8	0.13656151
92	0xbddf402b	-0.10900911
93	0x3da9dad8	0.08293694
94	0x3e085a93	0.13315801
95	0xbe760a6f	-0.24027418
96	0x3db8c1db	0.0902135
97	0x3e07aa8a	0.13248649
98	0xbd99cd2b	-0.07509836
99	0xbe55a00a	-0.20861831
100	0x3ded2ac9	0.11580426
101	0x3e551e9d	0.2081246
102	0xbd289e99	-0.041166876
103	0x3e503c8d	0.20335598
104	0xbe511968	-0.20419848
105	0x3e3df3bb	0.18550007
106	0xbe12522a	-0.14289156
107	0xbdf41f25	-0.11920003
108	0x3da4afca	0.080413416
109	0x3e1b7eb1	0.15185048
110	0xbd0637cf	-0.032768067
111	0xbe0caef8	-0.1373862
112	0xbdf83b4a	-0.121206835
113	0x3e460cf6	0.19340882
114	0x3e29f57a	0.16597548
115	0x3ddde7e8	0.10835248
116	0x3dc09aa6	0.09404497
117	0x3df0b961	0.11754108
118	0xbe3925f8	-0.1808089
119	0x3d9deaca	0.07710798
120	0xbe7995ba	-0.24373522
121	0xbc877ae9	-0.0165381
122	0xbcdfa60f	-0.027300863
123	0x3e1bef3f	0.15227984
124	0x3e1ece74	0.15508443
125	0xbd8b932e	-0.06815182
126	0xbd1d703b	-0.03843711
127	0xbd68877e	-0.05676984
128	0x3d38d503	0.04512502
129	0xbe286246	-0.16443738
130	0xbdd8bd4e	-0.10582982
131	0xbe0713b7	-0.13191114
132	0xbe1350dc	-0.14386314
133	0xbe66459a	-0.22487488
134	0x3caf63e3	0.021409934
135	0xbe4844d3	-0.19557504
136	0xbe452156	-0.19250998
137	0x3e4bd604	0.19905859
138	0x3def4b5d	0.11684296
139	0xbe664618	-0.22487676
140	0xbe2230d6	-0.15838942
141	0xbe1e2c06	-0.15446481
142	0xbe4a35a6	-0.19747028
143	0x3debfb36	0.11522524
144	0xbe1b5957	-0.15170799
145	0x3ce27a3a	0.027646173
146	0xbe09524c	-0.134103
147	0xbe488e5b	-0.19585554
148	0xbef02e9f	-0.4691057
149	0xbcb258c6	-0.021770846
150	0xbdca99d0	-0.09892619
151	0x3c82ac79	0.015951382
152	0xbd0e2cbc	-0.03471063
153	0x3b4beaf9	0.0031115396
154	0xbe2252ce	-0.158519
155	0xbe471434	-0.194413
156	0xbc81bab2	-0.015836094
157	0xbe50d445	-0.20393474
158	0xbe1f9094	-0.15582496
159	0x3df8cc62	0.12148358
160	0xbe2a2ec8	-0.16619408
161	0xbe2df0e2	-0.16986421
162	0xbc1d1337	-0.009587101
163	0xbb7a4d36	-0.0038192994
164	0xbe2228d1	-0.15835883
165	0xbe2ab2cd	-0.1666977
166	0x3d26ec15	0.04075249
167	0xbe1491c3	-0.14508729
168	0x3d7e9288	0.06215146
169	0xbe439072	-0.1909807
170	0x3daaafde	0.08334325
171	0x3daebc8a	0.08532055
172	0xbe11c009	-0.14233412
173	0xbe3b1721	-0.18270542
174	0xbab81aaf	-0.0014046038
175	0x3de867ad	0.113478996
176	0x3b8955d2	0.004191139
177	0xbdd69b97	-0.10478895
178	0xbe34b789	-0.17648138
179	0xbe1ffd24	-0.15623909
180	0xbe34488f	-0.17605804
181	0xbe07fd80	-0.13280296
182	0xbd6b339b	-0.05742226
183	0xbdbd1ca2	-0.09233977
184	0x3e3c081f	0.18362473
185	0x3dbc6a1d	0.09199927
186	0xbdc46c83	-0.095910095
187	0xbe15dc85	-0.14634903
188	0xbe46f2b5	-0.19428523
189	0x3d4f37dd	0.050590385
190	0x3c9fd29b	0.019509604
191	0xbf8d3363	-1.1031307
192	0xbd980fdd	-0.07424901
193	0x3e118af9	0.1421317
194	0x3da73313	0.081640385
195	0x3e1ecc57	0.15507637
196	0x3de1f182	0.11032392
197	0x3e04b1e8	0.12958491
198	0xbe019dbf	-0.12657832
199	0x3dbac994	0.09120479
200	0x3dce80d0	0.10083163
201	0xbdddd860	-0.10832286
202	0xbe1f0c2a	-0.15531984
203	0x3dab8246	0.08374457
204	0x3e095e9a	0.13414994
205	0x3e0848cf	0.13309024
206	0x3d90f2c4	0.07077554
207	0xbd37b83e	-0.04485344
208	0x3df6b54c	0.120462984
209	0x3e78d4d8	0.24299943
210	0x3dcb13e3	0.099159025
211	0x3e12363e	0.14278504
212	0xbed3da69	-0.4137757
213	0xbdafe085	-0.085877456
214	0xbdcf615b	-0.10125991
215	0xbcb2c790	-0.021823674
216	0xbe10b64b	-0.14132039
217	0xbe01fc0d	-0.12693806
218	0x3e0a43a6	0.13502368
219	0x3de65ba5	0.112479486
220	0xbe1b986a	-0.1519486
221	0x3de809ff	0.113300316
222	0x3d998edb	0.07497951
223	0xbe71efc9	-0.23626627
224	0x3d8d529a	0.069005206
225	0x3e118160	0.14209509
226	0xbd9575c9	-0.07297856
227	0xbe2cafe7	-0.16863976
228	0x3e02fb09	0.12791075
229	0x3df5d8ba	0.12004228
230	0xbc65b64a	-0.014020512
231	0x3dfa3bdf	0.12218451
232	0xbe41126d	-0.18854685
233	0x3e19f878	0.1503619
234	0xbd80408f	-0.062623136
235	0xbcc80080	-0.0244143
236	0x3d8fb4a8	0.07016879
237	0x3e107bd1	0.14109732
238	0xbd15193b	-0.036401015
239	0xbd8dc627	-0.0692256
240	0xbe0f17e1	-0.13973953
241	0x3de0ba66	0.10973053
242	0x3e104b82	0.14091304
243	0x3d98d30e	0.074621305
244	0x3db84483	0.089974426
245	0x3dee4086	0.116334006
246	0xbe7a08ed	-0.24417467
247	0x3d883680	0.0665102
248	0xbe083054	-0.13299686
249	0xbd75492d	-0.05988424
250	0xbdb9b63b	-0.09067961
251	0x3dae8972	0.08522309
252	0x3e03174d	0.12801857
253	0xbd45d6b0	-0.048300445
254	0xbcbe9f5e	-0.023269352
255	0xbd844d1f	-0.06460022

local_mlp.2.bias f4 [256]
0	0xbdf11d95	-0.117732204
1	0x3cbb3bb6	0.02285562
2	0x3cb25bd3	0.0217723
3	0x3bfff352	0.0078109885
4	0xbd87fac0	-0.06639624
5	0xba8de0a3	-0.0010824393
6	0xbe11d427	-0.14241086
7	0xbe30f3c0	-0.17280483
8	0xbda966b1	-0.0827154
9	0x3d870739	0.065931745
10	0xbe19772c	-0.14986867
11	0x3e215f1d	0.15758939
12	0xbddcdb4e	-0.107840165
13	0xbe4b6f3c	-0.19866651
14	0x3d546bca	0.05186061
15	0xbdd807da	-0.105483726
16	0xbd81ece7	-0.06344014
17	0xbe532db9	-0.2062291
18	0xbda40788	-0.08009249
19	0xbe3d618a	-0.1849424
20	0xbdc087cb	-0.094009005
21	0xbdf264d3	-0.11835637
22	0xbc028907	-0.00796724
23	0x3dc07100	0.09396553
24	0xbcf22053	-0.029556429
25	0x3bf73543	0.007544191
26	0x3c7a73da	0.01528641
27	0x3d41ec6c	0.04734461
28	0xbe9de47d	-0.30838385
29	0xbe02817a	-0.12744704
30	0xbdfe87dd	-0.124282576
31	0x3c8387d7	0.016055984
32	0xbcd3d89c	-0.025860123
33	0xbdd5c483	-0.10437872
34	0xbdf855f8	-0.12125772
35	0xbdff936c	-0.1247929
36	0x3d873065	0.066010274
37	0xbdfcb77c	-0.12339684
38	0x3cde72d5	0.027154366
39	0xbdc7d2bd	-0.09756992
40	0xbd0f3d4e	-0.034970574
41	0xbe95ca28	-0.29255795
42	0xbe19ae1b	-0.15007822
43	0xb9f92c93	-0.0004752619
44	0xbb0cdefe	-0.0021495218
45	0x3b0120f8	0.0019703489
46	0xbc410028	-0.011779822
47	0xbe337641	-0.17525579
48	0xbe1b5a23	-0.15171103
49	0x3d144fbe	0.03620886
50	0xbdfcf91e	-0.12352203
51	0xbe208ea3	-0.15679412
52	0xbd07b6f7	-0.033133473
53	0xbe14c73e	-0.1452913
54	0xbdb4faaa	-0.08836873
55	0xbe1ea365	-0.15492018
56	0x3d041868	0.032249838
57	0x3d0e2ad4	0.034708813
58	0xbdb1cb6c	-0.08681378
59	0xbc6fdca3	-0.014640006
60	0x3df7b278	0.12094587
61	0xbcd3c8b8	-0.025852546
62	0xbdf8cec1	-0.1214881
63	0xbdc7787b	-0.09739777
64	0xbd98e2f8	-0.07465166
65	0xbe0eb677	-0.13936792
66	0x3dc3ef66	0.09567146
67	0x3b665709	0.0035147092
68	0xbd5c0505	-0.053715724
69	0x3c6fd483	0.014638069
70	0xbddd0e58	-0.107937515
71	0xbe270f93	-0.16314535
72	0x3c4af61a	0.012387777
73	0xbe23a086	-0.15979204
74	0xbcdb73e5	-0.026788661
75	0x3c4f840b	0.012665759
76	0xbdb258d1	-0.08708347
77	0xbdec8638	-0.11549038
78	0xbd9dbd97	-0.07702177
79	0xbbf1a36b	-0.0073742173
80	0x3a150748	0.0005684984
81	0x3c4dd78c	0.012563597
82	0xbd60385e	-0.054741256
83	0xbe3ab0a3	-0.18231444
84	0xbd3edac2	-0.046595342
85	0x3d15bd4a	0.036557473
86	0xbdcbf5bf	-0.09958982
87	0xbe39c802	-0.18142703
88	0xbd850184	-0.0649443
89	0xbca921a5	-0.020645926
90	0xbd5f4d19	-0.054516885
91	0xbce456ce	-0.027873423
92	0x3c7100f9	0.014709705
93	0x3c81231e	0.015763815
94	0x3d0cd0f2	0.034378953
95	0xbd409249	-0.04701451
96	0xbe65c8c3	-0.22439866
97	0xbe88bf61	-0.2670851
98	0xbdec2e43	-0.11532261
99	0x3dd7b63d	0.10532806
100	0xbda2953a	-0.07938619
101	0x3c7f9be8	0.015601136
102	0xbdf9e11d	-0.1220114
103	0xbddc0eb7	-0.10744994
104	0xb97bcd70	-0.00024013757
105	0xbe0865c9	-0.13320078
106	0xbe87cfaa	-0.26525623
107	0x3ce6ca8d	0.028172756
108	0xbd93e8ae	-0.072221145
109	0xbd9cc982	-0.07655622
110	0xbd8f5c43	-0.070000194
111	0xbe9d791d	-0.30756465
112	0xbe1a3b77	-0.15061747
113	0xbd7d0e0d	-0.061780978
114	0xbdec2c20	-0.11531854
115	0x3d798ffa	0.060928322
116	0xbd80cabe	-0.0628867
117	0xbdf05e2a	-0.1173671
118	0x3c23aea6	0.00999037
119	0xbd8acb53	-0.06777062
120	0x3c481f23	0.012214455
121	0x3c39477c	0.011308547
122	0xbd7ddd7f	-0.061978813
123	0xbdbfe463	-0.09369733
124	0xbd632909	-0.055459056
125	0x3b934c7e	0.0044952026
126	0xbd9dbab1	-0.07701624
127	0xbddd7ee4	-0.10815218
128	0xbdbbec30	-0.091759086
129	0xbb8c4bc7	-0.0042814943
130	0xbd8976b0	-0.06712091
131	0xbdc08b3d	-0.094015576
132	0xbdd9a96f	-0.1062802
133	0x3d344c4e	0.044018082
134	0x3cf575e6	0.029963445
135	0xbdf2c03c	-0.11853072
136	0xbe38184d	-0.1797802
137	0x3ce8e86a	0.028431136
138	0xbe031c8c	-0.12803859
139	0xbc62fc77	-0.013854138
140	0x3cffb1b4	0.031212665
141	0x3dd6a523	0.10480716
142	0xbdec3f4e	-0.11535512
143	0xbb2043fa	-0.002445458
144	0xbdf1e1dd	-0.11810658
145	0x3c0da172	0.008644449
146	0x3c8ad282	0.016946081
147	0x3d8bd8ff	0.06828498
148	0x3d1baf4b	0.03800897
149	0xbe84125e	-0.25795263
150	0x3c954eaa	0.018225987
151	0xbb7d58d2	-0.0038657677
152	0x3cf89dc4	0.030348666
153	0xbdec12ce	-0.11527024
154	0xbe154930	-0.145787
155	0xbe217379	-0.15766706
156	0x3d3ee476	0.046604596
157	0xbcce0dad	-0.025153005
158	0xbcfe49e8	-0.0310411
159	0x3d0fa1b3	0.035066318
160	0xbbc02c84	-0.0058646817
161	0xbcf4e42a	-0.029893953
162	0xbdff8349	-0.124762125
163	0xbdd18c43	-0.10231831
164	0xbcba9703	-0.022777086
165	0xbe1e3bb8	-0.15452468
166	0x3dacccf9	0.08437533
167	0x3b969f3d	0.0045966194
168	0xbcd02407	-0.025407804
169	0xbd39be7f	-0.045347687
170	0x3be94ade	0.0071195206
171	0xbd79ae05	-0.060956974
172	0xbda17674	-0.07883921
173	0xbe40ac0d	-0.18815632
174	0xbde34d49	-0.11098725
175	0xb933a331	-0.00017131564
176	0xbda025d3	-0.078197144
177	0xbe13fda0	-0.14452219
178	0xbd530721	-0.05152047
179	0xbd529436	-0.051410876
180	0xbe4901c5	-0.19629581
181	0x3d807bd6	0.0627362
182	0xbe2b1dad	-0.16710539
183	0x3d2402b6	0.040041648
184	0xbdd5921d	-0.104282595
185	0x3e302036	0.17199787
186	0xbdad081d	-0.08448813
187	0x3d4e989a	0.0504385
188	0xbdcd20ab	-0.100159965
189	0x3c685649	0.014180728
190	0xbbe595f9	-0.0070064035
191	0xbde7dcac	-0.11321387
192	0x3d1d8ccc	0.038464352
193	0x3cfd4875	0.03091834
194	0xbc0575aa	-0.008145729
195	0xbe08ff3e	-0.13378617
196	0xbdb080e4	-0.08618334
197	0x3d284c72	0.04108853
198	0x3d0ea6df	0.03482711
199	0xbe04f632	-0.12984541
200	0x3c37ea4f	0.011225297
201	0x3cc6b8b2	0.024257991
202	0xbde4c37d	-0.11170099
203	0xbdbb3641	-0.091412075
204	0x39a6d4c8	0.00031820522
205	0x3bfa957e	0.0076472154
206	0x3d16ce7c	0.036818013
207	0xbe8c3dd4	-0.2739092
208	0xbdb76ab9	-0.089559026
209	0xbde4f2fe	-0.111791596
210	0x3c7cf180	0.015438437
211	0xbe14bc1f	-0.14524888
212	0xbd87a0ae	-0.06622444
213	0xbe82fdd0	-0.2558427
214	0xbe1d1fdd	-0.15344186
215	0x385b623c	5.2305157e-05
216	0xbdae75b4	-0.08518544
217	0x3ce9d904	0.028545864
218	0x3d7c9acf	0.061671074
219	0xbd8b86da	-0.0681283
220	0xbe49ab9d	-0.19694372
221	0xbd88f543	-0.06687405
222	0xbe18249e	-0.14857718
223	0xbde94cfc	-0.11391637
224	0xbdf9f952	-0.12205757
225	0xbdb11ac4	-0.08647683
226	0xbda7a552	-0.08185829
227	0x3d144eba	0.036207892
228	0xbd60e161	-0.054902438
229	0xbe6024a0	-0.21888971
230	0x3c809b14	0.015698947
231	0xbbdc6a96	-0.006726573
232	0xbd535a0c	-0.051599547
233	0x3c327289	0.010891565
234	0xbe84f34e	-0.25966877
235	0xbda79c00	-0.081840515
236	0xbd137b03	-0.036005985
237	0xbe1bfdcd	-0.15233536
238	0xbe186384	-0.14881712
239	0x3c2cb3f9	0.010540956
240	0x3c821411	0.015878709
241	0xbd45f322	-0.048327573
242	0xbbd7a08d	-0.0065804184
243	0x3ce257f2	0.027629826
244	0x3d361f99	0.044463728
245	0xbe34efcb	-0.17669599
246	0xbda5fe77	-0.08105176
247	0xbda6aba3	-0.08138206
248	0xbe8bcedf	-0.27306268
249	0x3d5213e0	0.051288486
250	0x3d915db0	0.070979476
251	0xbdfba4f1	-0.122873195
252	0xbe35d55b	-0.1775717
253	0x3d4217cc	0.047385976
254	0xbe102ab5	-0.14078791
255	0x3cf18581	0.029482605

output_mlp.0.weight f4 [128, 512]
0	0x3e23fb79	0.16013898
1	0x3e863225	0.26210132
2	0x3ccffe8c	0.025389932
3	0x3ea872bc	0.32900035
4	0xbdc073e8	-0.09397107
5	0x3e99e366	0.30056304
6	0x3e10bdce	0.14134905
7	0xbe13d26d	-0.1443574
8	0x3d0ee7fb	0.034889203
9	0x3d237ef5	0.039915998
10	0x3e52e767	0.20596085
11	0x3d928e51	0.07156051
12	0xbdea3758	-0.11436337
13	0xbb85e048	-0.0040855743
14	0x3e9ed94a	0.31025153
15	0x3e35ac6c	0.17741555
16	0xbca90b03	-0.020635134
17	0xbdbdc6a3	-0.092664026
18	0xbdf595fb	-0.11991497
19	0x3b8a2981	0.0042163734
20	0xbb2e7e91	-0.0026625732
21	0x3e3d3828	0.18478453
22	0x3d1315fc	0.035909638
23	0x3e801bb9	0.2502115
24	0xbc718e39	-0.014743381
25	0x3d5e34f0	0.054249704
26	0x3e5cc2a5	0.21558626
27	0x3eb4b91a	0.3529747
28	0xbe3298ca	-0.17441097
29	0xbc545f9e	-0.01296225
30	0x3da6252b	0.08112558
31	0xbb68ea46	-0.0035540028
32	0x3dc6650b	0.09687241
33	0x3d31fac2	0.043452032
34	0x3e4ba503	0.19887166
35	0xbe28bdb3	-0.16478615
36	0x3da79489	0.08182628
37	0x3d075c3b	0.033046942
38	0xbd08b566	-0.03337612
39	0x3d820289	0.0634814
40	0xbab1a73b	-0.0013553867
41	0xbe122b87	-0.14274417
42	0xbd96ba5c	-0.07359764
43	0x3ec1b128	0.37830472
44	0x3d75aaf9	0.059977505
45	0x3d906d69	0.07052118
46	0x3e01aca5	0.12663515
47	0x3afd650e	0.0019332485
48	0xbe69abda	-0.22819462
49	0x3d6c6b28	0.05771938
50	0x3e2404d9	0.16017474
51	0x3e26620a	0.16248336
52	0x3b93117f	0.0044881697
53	0x3d6c74fc	0.057728752
54	0x3d3ecaf2	0.046580262
55	0xbca7723e	-0.020440217
56	0x3c2ad97d	0.01042783
57	0x3ea3c0c1	0.31982997
58	0x3e3d1415	0.18464692
59	0x3d96e2f3	0.07367506
60	0x3de54a62	0.11195828
61	0x3e74b873	0.23898487
62	0xbe46708c	-0.1937887
63	0x3d1c21c0	0.038118124
64	0x3d1c0ab4	0.038096145
65	0xbea1e72d	-0.31621686
66	0x3ebb7346	0.36611384
67	0x3eaf45d1	0.34232953
68	0xbcaaf45e	-0.020868476
69	0x3e019f35	0.12658389
70	0xbe224221	-0.15845539
71	0xbe0351f6	-0.12824234
72	0x3e943b82	0.2895165
73	0xbb9b381b	-0.004736913
74	0x3e584d3a	0.2112321
75	0x3ebe4041	0.37158397
76	0xbd3f4b52	-0.04670269
77	0x3e55caec	0.2087819
78	0xbd7d7931	-0.061883155
79	0x3da6b16f	0.081393115
80	0x3e9b19fd	0.30293265
81	0x3e84a7d5	0.25909296
82	0xbc3e39a6	-0.011610424
83	0xbe3b9ce7	-0.18321572
84	0x3d68d012	0.056839056
85	0x3cbbd675	0.02292941
86	0x3d2ea179	0.04263446
87	0xbd2b5b3f	-0.041835066
88	0xbe03011e	-0.12793395
89	0x3c942375	0.018083313
90	0x3d70d563	0.05879725
91	0xbd8dcc5a	-0.069237426
92	0x3e26d566	0.16292343
93	0x3eb54e3c	0.3541125
94	0x3daeebf9	0.08541102
95	0x3d8aa2f1	0.0676936
96	0xbe0de4aa	-0.1385676
97	0xbe2f4dbc	-0.17119497
98	0x3d8867d4	0.06660429
99	0x3ec310e8	0.38098836
100	0x3e34d64f	0.17659877
101	0x3e3f1ffc	0.18664545
102	0x3e38dc32	0.18052748
103	0xbe2a4aeb	-0.16630141
104	0x3e9b96c6	0.30388469
105	0xbe4a0a51	-0.19730498
106	0xbe26a5ea	-0.16274229
107	0xb9773b4f	-0.0002357785
108	0x3e375130	0.17902064
109	0x3db78796	0.08961408
110	0x3e056098	0.13025129
111	0xbe59171d	-0.21200223
112	0xbd773537	-0.060353484
113	0xbe3ccd59	-0.18437709
114	0x3d1d22bc	0.038363203
115	0x3ae7a5a6	0.0017673268
116	0x3cf6645b	0.03007715
117	0xbb14605c	-0.0022640442
118	0x3e9fda30	0.3122115
119	0x3cc5b2d2	0.02413312
120	0x3c57006f	0.013122662
121	0x3d00a66b	0.03140871
122	0xbcbd44b4	-0.02310405
123	0xbdadba55	-0.08482806
124	0xbc007edc	-0.007842746
125	0x3ea971ec	0.33094728
126	0xbe97521e	-0.29554838
127	0x3e101d1c	0.14073604
128	0xbe94e06c	-0.2907747
129	0xbb4c7e5f	-0.0031203253
130	0xbe062534	-0.1310013
131	0xbd185bd4	-0.03719695
132	0x3d938668	0.0720337
133	0x3e7af0df	0.24505948
134	0x3d317f44	0.04333426
135	0xbd267c5e	-0.04064595
136	0xbd06407a	-0.032776333
137	0xbd814eb6	-0.06313841
138	0x3d620c38	0.055187434
139	0x3d8b20d0	0.06793368
140	0x3ebfca44	0.37459004
141	0xbb77af28	-0.003779361
142	0x3e089595	0.13338311
143	0x3ea52eb7	0.32262203
144	0x3e3d55df	0.18489788
145	0x3ead2c40	0.33822823
146	0x3e0f52dc	0.13996452
147	0x3daef997	0.08543699
148	0x3db1e34b	0.08685931
149	0xbdf9a61d	-0.12189887
150	0x3e2ace5d	0.16680284
151	0xbc7c2525	-0.015389715
152	0x3ea35d17	0.3190696
153	0x3bff0aa8	0.0077832527
154	0xbce88cf0	-0.028387517
155	0xbdb1f31e	-0.08688949
156	0x3ed5ce4c	0.41758955
157	0xbc244841	-0.010026992
158	0x3e5c73ba	0.21528521
159	0x3e8b71d1	0.27235273
160	0x3e899a4c	0.26875532
161	0x3e45117f	0.19244955
162	0xbd0a1e89	-0.033720527
163	0xbd983557	-0.07432049
164	0x3d0ecaf1	0.03486151
165	0x3d073b71	0.033015672
166	0x3d70592a	0.058678783
167	0x3e9af225	0.30262867
168	0x3d84f588	0.06492144
169	0x3d731b07	0.059351947
170	0x3de6a20b	0.11261376
171	0x3d186c86	0.03721287
172	0x3b950938	0.004548218
173	0xbe0f6de2	-0.1400676
174	0x3d05e19e	0.03268587
175	0x3c73d308	0.014881857
176	0xbd9b7634	-0.07590905
177	0x3e17a0d6	0.14807448
178	0xbdd6b578	-0.10483831
179	0x3e5f6784	0.21816832
180	0xbe717bdd	-0.23582406
181	0x3d3dc1f2	0.04632754
182	0xbde41dad	-0.11138473
183	0xbd10623c	-0.035249934
184	0xbd917d97	-0.071040325
185	0x3ea61420	0.3243723
186	0xbc63c6f9	-0.013902419
187	0xbc28a880	-0.01029408
188	0xbe02737e	-0.1273937
189	0x3d4794f7	0.04872605
190	0xbcb86fa4	-0.022514172
191	0xbdbf302f	-0.09335362
192	0x3ebd6833	0.3699356
193	0x3d0a67fe	0.03379058
194	0x3c6de1ee	0.014519198
195	0xbe2159fe	-0.15756986
196	0x3cc7ce2b	0.0243903
197	0x3e20adb7	0.15691267
198	0x3d9cd190	0.076571584
199	0x3dd07261	0.10178066
200	0x3c267965	0.010160779
201	0x3e23ba30	0.15988994
202	0xbe03649a	-0.12831345
203	0x3e590adc	0.21195549
204	0x3c6ff7d5	0.01464649
205	0x3e84b2d7	0.25917694
206	0x3d883933	0.06651535
207	0xbe2b0e6f	-0.16704725
208	0xbe36d0c6	-0.17853078
209	0xbd1b8177	-0.037965264
210	0x3eafd468	0.3434174
211	0xbd6ab7d9	-0.057304237
212	0x3e068e11	0.13140132
213	0xbdeb20e5	-0.114808835
214	0xbd8f922c	-0.07010302
215	0x3eabf979	0.3358877
216	0x3d06e140	0.03292966
217	0x3ea4f755	0.3221995
218	0x3d535e46	0.051603578
219	0x3d349db8	0.044095725
220	0xbe166ec2	-0.14690688
221	0xbd5a83f6	-0.053348504
222	0x3e003f59	0.12524165
223	0x3e344b94	0.17606956
224	0xbe360efa	-0.1777915
225	0xbdb9187a	-0.09037872
226	0x3e341649	0.17586626
227	0x3e80de0e	0.25169414
228	0x3b87ebfc	0.0041480046
229	0xbe665944	-0.2249499
230	0x3e578a0e	0.21048757
231	0x3c8d86e1	0.01727623
232	0x3d4dc01a	0.05023203
233	0xbc479c08	-0.012183197
234	0xbe35b1e5	-0.17743643
235	0x3da01ef4	0.07818404
236	0x3d300271	0.04297108
237	0xbe82a849	-0.25519016
238	0xbe7df2d6	-0.24799666
239	0x3e8c8e8e	0.2745251
240	0x3adec53e	0.0016996039
241	0x3d37688d	0.04477744
242	0x3e9392ef	0.2882304
243	0x3d2ec522	0.04266847
244	0x3dc4817f	0.09595012
245	0x3ccfeba5	0.025380919
246	0xb95641f1	-0.00020433195
247	0x3e421e55	0.18956883
248	0xbe83a370	-0.2571063
249	0x3e9bce98	0.30431056
250	0x3db45139	0.088045545
251	0xbe5fcb46	-0.21854886
252	0xbd8de42c	-0.06928286
253	0x3eaa0ca9	0.33212784
254	0x3ceebdb0	0.029143184
255	0x3ea4d419	0.32193068

output_mlp.0.bias f4 [128]
0	0x3d624c82	0.055248745
1	0x3b090828	0.0020909403
2	0x3d867b85	0.06566528
3	0x3d5f6ff7	0.054550137
4	0x3d5689f3	0.052377652
5	0x3d689501	0.056782726
6	0xbdb7417b	-0.08948036
7	0xbda09ef0	-0.07842815
8	0x3d8b57bb	0.06803843
9	0xbcd3f1db	-0.025872162
10	0xbccdeef0	-0.025138348
11	0xbd35ab01	-0.044352535
12	0x3d2eacc3	0.042645227
13	0x3e6beab7	0.23038755
14	0x3d97b897	0.074082546
15	0xbdc76fc9	-0.09738118
16	0xbd2a5d1f	-0.041592713
17	0x3d8aaa6e	0.06770788
18	0x3d808da2	0.06277014
19	0x3e6c1872	0.230562
20	0x3d4f388d	0.05059104
21	0xbc85556e	-0.016276088
22	0xbbb69db4	-0.005572999
23	0xbde5efd6	-0.11227386
24	0x3d5506b3	0.052008342
25	0xbdf31758	-0.11869687
26	0x3e6d8293	0.23194341
27	0xbd418a9b	-0.047251325
28	0x3d6456e3	0.055746924
29	0x3e351e08	0.17687237
30	0x3cf0bb90	0.029386312
31	0xbdbd6b5c	-0.09248993
32	0x3d9aa132	0.07550277
33	0x3e44af0c	0.192074
34	0xbd5a0728	-0.05322948
35	0x3d71439e	0.058902375
36	0xbbca9d9d	-0.0061833397
37	0x3e5a5c18	0.21324193
38	0x3d882062	0.066468015
39	0x3d899ff7	0.06719964
40	0x3dc62b98	0.096762836
41	0x3e0350d8	0.12823808
42	0xbd25a183	-0.040437233
43	0xbd989d2e	-0.07451855
44	0x3d69f49b	0.05711804
45	0x3d5085ca	0.05090884
46	0x3dba083d	0.090836026
47	0x3d61e42b	0.05514924
48	0x3e8323a3	0.25613126
49	0x3de771d6	0.11301009
50	0x3d5c4049	0.053772245
51	0x3d72eea0	0.0593096
52	0xbdb07847	-0.08616691
53	0x3d768c87	0.06019261
54	0x3ddf222b	0.10895189
55	0x3d058cb7	0.0326049
56	0x3d856954	0.0651423
57	0xbdb44cb5	-0.08803693
58	0x3d86f70a	0.06590088
59	0xbe3cc64d	-0.1843502
60	0x3d8c8e84	0.0686312
61	0x3d71ac1d	0.05900203
62	0xbdd55c3b	-0.10417982
63	0x3e8e42f5	0.2778546
64	0x3d241975	0.04006334
65	0x3e38471f	0.1799588
66	0x3d828f40	0.06374979
67	0x3e40aa47	0.18814956
68	0xbd8d513c	-0.0690026
69	0x3d83e25a	0.064396575
70	0x3d81d7b5	0.06339971
71	0xbdbb7d97	-0.09154814
72	0x3d8b1bab	0.067923866
73	0x3d8ba820	0.06819177
74	0xbd711165	-0.05885448
75	0x3e065f86	0.13122377
76	0x3d220d8b	0.039563697
77	0x3e93b188	0.28846383
78	0x3d7ccf8e	0.061721377
79	0x3d8ef87a	0.06980987
80	0xbe180de4	-0.14849049
81	0x3c99cf91	0.018775733
82	0x3cedc692	0.02902535
83	0xbd8ee1b4	-0.06976643
84	0x3e3b2018	0.18273962
85	0xbd7084bd	-0.05872034
86	0x3d54e945	0.051980276
87	0x3d934487	0.07190805
88	0x3d3d4ed7	0.046217766
89	0x3e710bef	0.23539709
90	0x3d95cafa	0.07314105
91	0xbdc79d00	-0.09746742
92	0x3d97b0d5	0.07406775
93	0x3d909caa	0.07061131
94	0xbd4e5552	-0.050374337
95	0xbd8ef839	-0.069809385
96	0x3e9deae3	0.30843267
97	0x3d655405	0.05598833
98	0x3d82f12e	0.063936576
99	0x3d378620	0.044805646
100	0x3ccc5fe5	0.02494807
101	0xbdbf3302	-0.09335901
102	0xbd67c07a	-0.056580044
103	0x3d3762e4	0.044772044
104	0x3d649393	0.0558048
105	0x3d8c0d4b	0.06838473
106	0x3ca100d7	0.01965372
107	0x3e50b584	0.20381743
108	0xbdc8644e	-0.097847566
109	0x3d962d87	0.073329024
110	0x3e806c1c	0.2508248
111	0x3e1fb459	0.15596141
112	0xbd26f922	-0.040764935
113	0x3d303cfc	0.04302691
114	0xbddb6d07	-0.10714155
115	0xbd805280	-0.062657356
116	0xbd01421a	-0.03155718
117	0x3d9139d9	0.07091112
118	0x3e0b3771	0.13595368
119	0x3d8e6bae	0.06954132
120	0x3d7520bc	0.05984567
121	0x3d8d95a5	0.06913308
122	0x3d5adcf0	0.05343336
123	0x3d2e9cf2	0.042630143
124	0x3d32b30e	0.04362779
125	0x3d6fbf0a	0.0585318
126	0x3d151946	0.036401056
127	0xbc18de25	-0.009330307

output_mlp.2.weight f4 [9, 128]
0	0x3ee2efca	0.4432357
1	0x3ddc201f	0.10748314
2	0x3ed676b3	0.41887435
3	0x3edbcd8e	0.42930263
4	0xbd4a0016	-0.04931649
5	0x3f03dccb	0.5150878
6	0x3fb1a6b8	1.3879004
7	0x3fad8523	1.3556255
8	0x3cdd18df	0.026989399
9	0xbc64ad3d	-0.013957319
10	0x3d5a41a1	0.053285245
11	0x3fa44066	1.2832153
12	0x3f18c301	0.5967255
13	0x3df22029	0.1182254
14	0xbd534a62	-0.05158461
15	0x3dc168f3	0.094438456
16	0x3fafbcfe	1.3729551
17	0x3eef1dca	0.46702415
18	0x3f0b3ffb	0.543945
19	0xbe9c704d	-0.3055443
20	0x3ef3c09b	0.47607884
21	0xbe321f3c	-0.17394727
22	0x3da03d55	0.07824198
23	0x3f36e156	0.71437585
24	0x3f32ee05	0.6989444
25	0x3dba5797	0.09098738
26	0xbf3fc62b	-0.74911755
27	0x3ef33437	0.47500774
28	0x3ed025b1	0.40653756
29	0xbfad8765	-1.3556944
30	0xbd80fa18	-0.062977016
31	0x3fb10d13	1.3832115
32	0xbc0bec8d	-0.008540285
33	0xbd6363c4	-0.055515066
34	0x3f87c16c	1.0605903
35	0x3ecfeca4	0.4061023
36	0xbd9764c8	-0.073922694
37	0x3eec4852	0.46148926
38	0x3ef00d7f	0.46885297
39	0x3edd76e3	0.43254766
40	0xbcf5d750	-0.030009896
41	0x3d118b01	0.035532955
42	0x3d220019	0.039550874
43	0x3d8df524	0.069315225
44	0x3ee97886	0.45599765
45	0x3ed94f6b	0.42443404
46	0xbd71a985	-0.058999557
47	0x3ee44a31	0.44587854
48	0xbf386a62	-0.7203733
49	0xbed8d130	-0.42347097
50	0xbd09c9ee	-0.03363984
51	0x3ed7c5ed	0.42143193
52	0x3fb00546	1.3751609
53	0x3e3710f0	0.17877555
54	0xbd13bfdb	-0.03607164
55	0x3f97e525	1.1866804
56	0x3ed85527	0.42252466
57	0x3fb58b47	1.4183129
58	0x3ee81910	0.4533162
59	0xbfad42b5	-1.3535982
60	0x3ef2c52e	0.4741606
61	0x3f055ec9	0.52097756
62	0x3fb92261	1.4463617
63	0xbe5174e6	-0.2045475
64	0x3eb26fce	0.34850925
65	0xbeb39413	-0.3507391
66	0x3ecb6a15	0.39729372
67	0x3eee41eb	0.46534666
68	0x3fae07df	1.3596152
69	0x3ef4fe4e	0.4785027
70	0x3ee680dd	0.4502019
71	0x3fb527a8	1.4152727
72	0x3f1b312b	0.606219
73	0x3ed8285d	0.42218295
74	0x3fa4d15e	1.2876394
75	0xbd0b82c9	-0.034060273
76	0xbd5c063d	-0.053716887
77	0xbf9264e3	-1.1437038
78	0x3ee8141a	0.45327836
79	0xbcdaae7b	-0.026694527
80	0x3de5351a	0.11191769
81	0xbdb472b7	-0.088109426
82	0xbdb8f14d	-0.090303995
83	0x3faf24fc	1.3683162
84	0xbf6623cc	-0.8989837
85	0x3f8ef372	1.1168044
86	0xbbe21fdb	-0.00690077
87	0x3f08ae06	0.5339054
88	0x3c6b6322	0.014366897
89	0x3e2c1621	0.16805317
90	0x3ef0b9e5	0.47016826
91	0x3d1301d9	0.035890434
92	0x3d24c77e	0.040229313
93	0xbed30b07	-0.4121935
94	0x3f91d3dd	1.139278
95	0x3faeac5f	1.3646353
96	0xbf0bc147	-0.5459179
97	0xbda2483f	-0.07923936
98	0x3c9ef9f7	0.019406302
99	0x3f1295cd	0.5725983
100	0x3b883ebc	0.004157869
101	0x3fb3338f	1.400011
102	0xbea7ab83	-0.3274804
103	0x3ee1f9bd	0.44135848
104	0xbcee2418	-0.029069945
105	0x3f0e3df3	0.55563277
106	0xbfe19c35	-1.7625796
107	0xbeb8f2ce	-0.36122745
108	0x3fb54e6e	1.416456
109	0xbdb948a6	-0.0904706
110	0xbd86bd8a	-0.065791205
111	0xbd8798a1	-0.066209085
112	0x3f95a190	1.168993
113	0x3f195225	0.5989097
114	0x3f81b53c	1.0133433
115	0x3fc50161	1.5391046
116	0xbfec73bb	-1.8472818
117	0x3ecc2a4f	0.3987603
118	0xbf8bb5e5	-1.0914885
119	0x3f0003ec	0.50005984
120	0x3ec915cc	0.39274442
121	0x3ed22725	0.4104549
122	0x3edc68c0	0.43048668
123	0x3ec9f0f4	0.39441645
124	0x3ecc9a3d	0.39961424
125	0x3f00eb5b	0.50359124
126	0x3e977a62	0.29585558
127	0x3f26ff56	0.6523336
128	0x3ccccbd1	0.024999531
129	0xbcb4f542	-0.022089604
130	0x3d6ca6c3	0.057776224
131	0x3b9efd66	0.004851985
132	0xbd4a3ad0	-0.049372494
133	0x3c94deb6	0.018172603
134	0x3cc36113	0.02385
135	0x3bdcf7f2	0.0067434246
136	0xbd08c682	-0.033392437
137	0xbd2f8a8e	-0.042856745
138	0xbcef20c1	-0.029190423
139	0x3d2303b3	0.03979845
140	0x3c0da902	0.008646252
141	0xbdc20ed4	-0.094754845
142	0xbd6451f3	-0.055742215
143	0xbd17f44b	-0.03709821
144	0x3cd22258	0.025651142
145	0x3d01ce03	0.03169061
146	0x3c114eb5	0.008868863
147	0xbda0b635	-0.07847253
148	0x3cf0da0c	0.029400848
149	0xbdceb2d0	-0.100926995
150	0xbd537c7c	-0.05163239
151	0xbc59f108	-0.013302095
152	0x3c190b47	0.009341068
153	0xbcaebcd6	-0.021330278
154	0xbde1f45d	-0.11032937
155	0x3b7c71f3	0.0038520067
156	0x3cc4dc5e	0.02403086
157	0xbd1cfc23	-0.038326394
158	0xbd791355	-0.060809452
159	0x3b9681dc	0.004593117
160	0xbdb763a3	-0.08954551
161	0xbdb816c1	-0.08988715
162	0x3c2c8403	0.010529521
163	0x3b8c290b	0.0042773536
164	0xbd94f9a6	-0.07274179
165	0xbd963596	-0.073344395
166	0xbbd76b6d	-0.0065740854
167	0xbd65bf4a	-0.05609063
168	0xbd916863	-0.07099988
169	0xbd117c8b	-0.035519164
170	0xbd4a2021	-0.049347047
171	0xbc0ea7b3	-0.008706975
172	0x3d58ec52	0.052959748
173	0x3d19cb97	0.037547674
174	0xbc042e12	-0.008067625
175	0x3cdc2f2f	0.026877968
176	0xbdb87d4d	-0.09008274
177	0xbc43b0e2	-0.011944028
178	0xbdb30755	-0.08741633
179	0xbc888db1	-0.016669126
180	0xbbc5c78f	-0.006035752
181	0xbce25359	-0.027627634
182	0xbda1984a	-0.07890375
183	0x3c024fcd	0.007953596
184	0x3c11f7fc	0.008909222
185	0x3b1aed5a	0.0023640008
186	0x3c7948d9	0.015215122
187	0x3c242ce1	0.010020466
188	0x3c8582d8	0.016297743
189	0x3c640819	0.013917946
190	0x3c975c43	0.018476611
191	0xbd5f3d83	-0.05450202
192	0x3d0628e3	0.032753836
193	0xbd6e2803	-0.058143627
194	0x3c9609b9	0.018315183
195	0xbd3b6977	-0.045754876
196	0xbbce75c7	-0.0063006612
197	0xbb931022	-0.004488007
198	0x3c0b9db1	0.008521483
199	0x3c4c32e5	0.012463306
200	0x3d5fb1e2	0.054613
201	0x3c71ab72	0.014750348
202	0x3cb5c937	0.022190673
203	0xbd396864	-0.04526557
204	0xbd8aadae	-0.06771408
205	0xbd9d3fd7	-0.07678192
206	0xbc44399e	-0.011976628
207	0xbcd8cae9	-0.026463943
208	0xbcec7e25	-0.028868744
209	0xbd49dcf8	-0.049282998
210	0xbd2e3f18	-0.04254064
211	0x3c83e339	0.01609956
212	0xbd8c2bfa	-0.06844325
213	0xbc4f03b3	-0.012635159
214	0xbdc76d73	-0.09737673
215	0x3ce4b5cf	0.027918724
216	0xbd11eab4	-0.03562422
217	0xbdf7c699	-0.12098426
218	0x3cddb803	0.027065283
219	0xbc096424	-0.008385692
220	0xbc683705	-0.014173274
221	0xbd6cbaa5	-0.057795186
222	0x3bbc144c	0.0057397243
223	0x3bed3fd2	0.007240274
224	0xbd1ea9b5	-0.038736064
225	0xbdc150cd	-0.0943924
226	0x3cb6f829	0.022335129
227	0x3d418de7	0.04725447
228	0xbd1b2bb3	-0.03788347
229	0x3b6f7f32	0.003654432
230	0x3d9323c3	0.071845554
231	0x3b109f4a	0.00220676
232	0xbd3e52e0	-0.046465755
233	0x3d00fc02	0.031490333
234	0xbdafa5f9	-0.08576579
235	0xbe273719	-0.16329612
236	0xbcd0885e	-0.02545565
237	0xbe119f94	-0.1422103
238	0xbe05d8de	-0.1307101
239	0xbd68c1ab	-0.05682532
240	0xbb017546	-0.0019753738
241	0x3c8f4eee	0.017493691
242	0xbb90be77	-0.0044172364
243	0x3c3d167f	0.011541008
244	0xbcb49098	-0.022041604
245	0x3d09d606	0.033651374
246	0xbd4eec80	-0.050518513
247	0x3bd33a50	0.0064461604
248	0xbcd22b59	-0.025655435
249	0x3c89b528	0.016810015
250	0x3d302811	0.04300696
251	0x3c98ce62	0.018653098
252	0x3ac3e796	0.0014946337
253	0xbca97090	-0.020683557
254	0xbca139be	-0.019680854
255	0x3c1a4400	0.0094156265

output_mlp.2.bias f4 [9]
0	0xbe2f1d41	-0.17101003
1	0xbd188d0e	-0.037243895
2	0xbd2ba478	-0.041904896
3	0x3d7ececd	0.06220894
4	0x3d913992	0.07091059
5	0xbd1c0bd8	-0.038097233
6	0xbd27701e	-0.040878408
7	0x3d154ca7	0.036450054
8	0x3e197db3	0.14989357
