log/segmentation/pn/bucket/weighted-3/pn_20.pth (torch, 337359 bytes, 8 tensors)

local_mlp.0.weight f4 [64, 3]
00000000: bd9b af3e bb05 813d 17d8 b73d 316f ccbe
00000010: 0ab5 603d b396 823e 9cf9 23bf afc8 d43d
00000020: 5498 f0bb c327 c4bd 11af 113e b2b6 47be
00000030: e111 1fbf e0a1 8b3d 86a8 113e 8521 63bc
00000040: 1aad 8f3e f0cf 2dbe 2e40 443e 5317 07bf
00000050: 1bef 3cbe 5c71 1bbf da70 343e edc1 0b3e
00000060: a0d6 6cbf 9f05 2bbb 8ac0 4a3e a9f1 ce3e
00000070: 9dc8 73be 8c46 75be b494 003f 338b 353d
00000080: c39b e0bd 9685 a1bf c4f8 aa3e 4e69 2d3d
00000090: 7715 11bf 17bb b13c a1d9 7f3e 26fc 26be
000000a0: 3033 8c3d 3dd3 fdbd 0ec7 c5bd b605 4c3e
000000b0: 2978 39be 3700 433e 371f 08be 9482 41be
000000c0: b6c4 fbbc 598e 883e ee8f 1fbe e5c8 d5be
000000d0: d4dd a5be cd8f 23be dc5e ccbd 3e55 d03d
000000e0: a718 51be d9ed 463d a694 973e 137d 2fbe
000000f0: c9a8 923e 747c 1c40 b701 97bd 17fa a93e
00000100: 0105 a2bd 672b 333e ff86 a93e b9a6 e0bd
00000110: 73b2 a63e ce62 b13e 2f78 343e 1fd5 a83d
00000120: 4ac8 933e 0a2c c43e 791d 2d3e 9b5d 8d3e
00000130: 864b 17bf 6e36 58be 31d8 b3be 65d7 173e
00000140: 3831 743e 3605 48bf abf9 af3e 2e23 3d3d
00000150: 66ff a83e 8a27 c9bd cc74 313e f4e7 9abf
00000160: a27c 1c3e e5ba 9f3d e7ca 21be 2577 583e
00000170: 8bea b93e d8fe 103f 3675 1bbd 6886 66be
00000180: 2775 debe e605 743e 44c3 503d 0461 e3be
00000190: 5679 343d 6589 7a3e f4b8 a03e d366 bcbd
000001a0: d910 153e 3033 e23e cc9a af3e b719 a1bd
000001b0: 22cc 1dbf 3030 0b3d c991 7c3e 7d1f 31be
000001c0: b7f7 01bb e051 5abe 90d8 623e 6e06 a0be
000001d0: 6e85 cc3d 0d4c 6ebe d790 febd 2b7a 5cbe
000001e0: f5f9 083f 6218 f0bc ecb8 48be d116 11be
000001f0: ba40 8b3d 2757 5abe ab75 ab3e e1e6 37be
00000200: f100 c9bd 3021 c23e 4963 e439 39ce 0bbe
00000210: 58c0 1ebf a6a0 6b3b 235c 3c3e cfb2 c8be
00000220: e82f 3a3e 1ca3 843e 040d 963c 72fe 93bd
00000230: 61c3 c6bd 73c7 d53e 3397 683d f205 27be
00000240: 197d ac3e ab3f f53d c055 a93d 197a cabd
00000250: 98e1 253d 98c1 5fbe e80e 76be 33f6 443e
00000260: 48fa 743e 71c7 91be 5180 613e fba9 aebb
00000270: 9b93 8ebf a802 bc3d 9726 e03d 686c 4abf
00000280: 2840 963b 21e5 1f3e c453 aa3e fb84 1c3f
00000290: b8f1 2fbc dd4b 12bc 6fca f83c ee85 873c
000002a0: 15c4 fa3e 8054 1a3d d80f 38be 46d1 193e
000002b0: 3335 5dbe cb27 01be 003d a63e f581 1abd
000002c0: 775a ae3e 0214 09bf 7e69 113d a5a2 843e
000002d0: 9f42 82bd 10e9 3b3e 16f9 48be 3c66 c73d
000002e0: dcd2 27be 450a a7bd fda2 c93e cafb 03bf
000002f0: 8c67 273e 00a5 77bd 1725 45c0 aadf cfbd
0.34298506 0.06299921 0.08976763 -0.39928582 0.054860152 0.255056 -0.6405275 0.1038984
-0.0073423777 -0.095778964 0.14226939 -0.19503286 -0.62136656 0.068179846 0.14224443 -0.013862972
0.28061754 -0.16973853 0.19165108 -0.52769965 -0.18450586 -0.6071985 0.17621174 0.13648196
-0.9251499 -0.002609588 0.1980001 0.40418747 -0.23806997 -0.23952693 0.502269 0.044322204
-0.10967209 -1.2618892 0.33392918 0.042336755 -0.5667338 0.021695657 0.24985363 -0.16307124
0.06845701 -0.12393806 -0.09657107 0.19924054 -0.18112244 0.1904305 -0.13293158 -0.18897468
-0.030733448 0.26671103 -0.15582249 -0.41754833 -0.32395804 -0.15972824 -0.099790305 0.10172509
-0.2041956 0.048566673 0.29605597 -0.17137556 0.28644398 2.445096 -0.07373374 0.33198616
-0.07911111 0.17497025 0.33110806 -0.109693 0.3255802 0.34645694 0.17623971 0.082437746
0.28863746 0.3831485 0.16905774 0.27610478 -0.59099615 -0.21114513 -0.35125878 0.1482826
0.238469 -0.7813295 0.3437017 0.046176128 0.33007354 -0.098219946 0.1732971 -1.2102036
0.15281919 0.07799319 -0.15800057 0.211392 0.36311755 0.5663886 -0.037953578 -0.2251221
-0.43448755 0.23830375 0.05096747 -0.44409955 0.044061027 0.24466474 0.31391108 -0.091993
0.14557208 0.44179678 0.34297788 -0.07866233 -0.61639607 0.033981502 0.24664988 -0.17297168
-0.0019831487 -0.21320295 0.22152925 -0.31254905 0.09986387 -0.23271199 -0.1242997 -0.21530978
0.53506404 -0.029308502 -0.19601792 -0.1416886 0.06799455 -0.21322308 0.3348821 -0.17959167
-0.09814633 0.37915945 0.00043561522 -0.13652886 -0.62012243 0.0035953908 0.18394522 -0.3919892
0.18182337 0.25905693 0.018316753 -0.07226266 -0.09705234 0.4175373 0.05678482 -0.16310862
0.33689192 0.11975034 0.08268309 -0.098865695 0.040498346 -0.21851194 -0.24029124 0.19234543
0.239236 -0.28472474 0.22021605 -0.005330322 -1.1138796 0.09180194 0.109448604 -0.79071665
0.0045852847 0.1561475 0.33267033 0.6114041 -0.010738783 -0.00892922 0.030369965 0.016543355
0.48977724 0.03767824 -0.17974794 0.15021238 -0.21602325 -0.12612836 0.32468414 -0.037721593
0.34053394 -0.53546154 0.035500996 0.25905338 -0.06360363 0.18350625 -0.19626269 0.097362965
-0.1638903 -0.08156256 0.39382163 -0.51556075 0.16348094 -0.06046009 -3.0803888 -0.101500824

local_mlp.0.bias f4 [64]
00000000: ca12 86be 8a88 30be ffc5 ec3d c848 d73e
00000010: 5ef0 13be 9f01 d63e 2b2a 5f3e f8c9 efbd
00000020: 4469 dfbd aa5c 7e3e c22b 253d 987b 9a3d
00000030: d8d1 13be 2869 8d3e 8099 d23e cdd9 5a3e
00000040: 2f6c bc3e c386 f53e 5587 de3e fce1 d73e
00000050: 2e48 3e3e 15ce b2be 6e5a 91be beea 82be
00000060: 6be5 5fbe f070 673e 07cd 23be 9e77 90bc
00000070: 359c a9be 7d4e cbbc d29c 56be 023a 113e
00000080: 004f 4d3d 047a 1bbe 0a36 a4be abba b4bd
00000090: c316 0bbe 307c f23e ba3b 8ebe 3a6a f73e
000000a0: 5628 da3d 14d7 f83e da65 8bbb f0fc 373d
000000b0: f5e6 36be f5f3 1ebe 0d25 133e 36c6 153e
000000c0: a8aa 6ebe 5cbc ec3e a815 4cbe d236 113e
000000d0: 1976 9cbd 0f07 11be 4cc4 e9bd b6a5 9dbc
000000e0: 28fc 643e 5f8c f23d 03d1 81be c22f 22be
000000f0: dadf e03e 6714 8d3d 5119 b7be 4676 193e
-0.2618621 -0.17239586 0.11561202 0.42047715 -0.14447162 0.41798112 0.2179343 -0.11708444
-0.1090875 0.24840036 0.040324934 0.07543105 -0.14435518 0.2761929 0.41132736 0.21372147
0.36801288 0.47954378 0.43462625 0.421646 0.18582222 -0.34922853 -0.28389305 -0.2556972
-0.2186486 0.22601676 -0.1599618 -0.017635163 -0.3312699 -0.0248177 -0.2095826 0.14182284
0.05012417 -0.15183264 -0.3207248 -0.088246666 -0.13582902 0.47360373 -0.27779943 0.48323232
0.10652225 0.48601592 -0.004254085 0.044918954 -0.1786154 -0.1552275 0.14369603 0.14626393
-0.23307288 0.46237457 -0.19930136 0.14181069 -0.07639713 -0.14162849 -0.11414394 -0.019244056
0.22361815 0.1184318 -0.25354776 -0.1583853 0.43920785 0.06888657 -0.35761502 0.14986524

local_mlp.2.weight f4 [256, 64]
00000000: ab55 433e df85 cf3c 6f66 8e3d 0cf7 533c
00000010: 2f13 e13d 129b c73d fe52 acbe 3aaa 293e
00000020: ca11 5ebc 607d 78be 171a 233d f03c 3c3e
00000030: d4a7 80bb 13fa 6fbd 311d 813d 9541 3cbe
00000040: b876 b43d 6dc3 d2be 46ea 12bd e699 cf3d
00000050: b437 7c3e 3055 1a3e f22d 36be 4ecc 953e
00000060: 3855 073e 8dab 8abe 7352 553c ce60 5d3e
00000070: 133e e23d a1ff 493e 08c0 e23b e6e2 0f3e
00000080: af1c bc3d 0177 ee3c 4911 1b3e 712b 9f3e
00000090: 7394 95bb 52c4 6cbd ae37 3ebd b383 97be
000000a0: f11a b13d dd78 353c 36f6 1fbd 16ee 72bc
000000b0: 7b4a cd3d a034 203d 592a 4fbe fa88 b4bc
000000c0: f069 583e 1b56 61bd 6545 543d dee5 e33d
000000d0: b979 213e 7586 5f3d 34cd 6f3e 3c29 8c3d
000000e0: 5ea8 a23b d38e 55be ac57 02be 0a47 feb9
000000f0: 8a2a a23d 3779 0abe 9587 81bd bc1f cc3e
00000100: ac1d 28bc 757f e93d 98bd 183e da24 6f3e
00000110: 88ae a73d c579 6f3e 0f7e 11be 8ef9 fb3d
00000120: 2e89 013e 3180 d1bd 8ec6 dfbd 7b57 8b3d
00000130: a724 ec3d a656 0c3e 999e 713e 8d49 63bd
00000140: 2cb9 6f3e 7a37 943e d1a1 313e cb1f 5d3e
00000150: 4814 d9be 1894 1bbd de41 a3bd 4f01 c13c
00000160: a01d 8e3b ffa0 e7bd 0b92 fe3d 504b 0d3e
00000170: 522b bdbd e945 673d 6c7c d83d 8dfa dfbd
00000180: 23b8 0d3e f4ef e13d 0532 d63b dc23 60bd
00000190: ca21 cf3d 9f9e 653e 1114 8cba 48a7 453e
000001a0: 6bff 96bd 2384 583e 6cb1 b0bd ff3a ddbc
000001b0: 9545 783d e2eb 023e 0c2a 10bd 93ad 6bbd
000001c0: ab35 cfbc f550 523e bd5a 003e bd53 273e
000001d0: 47ac 783d bb2a c13d c5e6 163c df92 033d
000001e0: 8951 3cbe 44da 66bc 586b 25bd 9748 0b3e
000001f0: 6898 4b3e 2f36 6cbd acb7 21bd dad2 15be
00000200: 6236 6c3d 2e7e eabd d119 81bd e38e 05be
00000210: 1e8e cebd d9c6 65be 9ddb 5dbd d039 27be
00000220: 17bc e6bd addf 193e b958 ed3d 16f7 49be
00000230: c940 c4bd a698 00be f4dd 3dbe 7635 8d3d
00000240: 9074 2abe 284a b73d 2bfb 11be a6dc 43be
00000250: 5727 debe 4656 59bc 6ff1 cebd 41ac 223d
00000260: c8f7 3abc 36d9 9ebd 37cb e2bd f888 38be
00000270: 7359 abbb 9114 20be 8afd 20be c8e2 083e
00000280: 351e 11be 6d3a e7bd 8bed 65bb 9eef 8d3d
00000290: 7da0 c0bd bd3a 19be fd23 2d3c 1968 f4bd
000002a0: 1194 963d bb33 39be 6e00 6f3d 5f07 ae3d
000002b0: 838b b9bd f443 13be 13c5 c8bd 545c df3d
000002c0: 6c99 3c3c ca65 09be afbe 12be 5ceb 07be
000002d0: f0b6 f6bd dc69 97bd 8d4d ca3c fd94 3cbd
000002e0: fce0 353e 6e07 fd3b 7841 c9bd 2d5b b4bd
000002f0: 19f6 4dbe 9ed2 0bbd 897b 18bb ddf4 97bf
00000300: aa57 e43d e2a1 ea3d fc12 d63d a228 0c3e
00000310: 293e cb3d 1699 f93d b885 8fbd 0a2b a43d
00000320: fffb 9f3d c607 3dbd 54cb 8ebc 8541 893d
00000330: d225 ed3d 78d4 f13d 8bd7 6a3d 0462 2e3c
00000340: 33fe c73d cd45 393e 43b5 9b3d 971a 0f3e
00000350: 1533 9dbe 50e6 2e3d c8b7 bfbd bc12 473e
00000360: ba62 30bd bdf4 8bbd f4ca d73d 88f2 d03d
00000370: f341 a5bd ebe8 c03d ab5b 513d 5d3e a0bd
00000380: c96e be3d 114e f33d 1d63 e03d efbc 0bbd
00000390: e51c e13d dd03 c13d 9083 b23d ead9 a53d
000003a0: c8cf f7bc 3b1e 063e b927 023d 85af c73d
000003b0: f304 523d 9098 e83d d875 16bc d414 693d
000003c0: 028f d0ba 0b9b a13d 7c78 d03d e66a bf3d
000003d0: 01cd 7b3d 275f bf3d e187 bebd 62d6 ce3c
000003e0: 21c5 a7bc e710 27bc eebb acbd 3067 8a3d
000003f0: 0d23 ea3d b89c b4bb 967b c23d 65cf 9abd
0.19075648 0.02533239 0.069531314 0.0129373185 0.10989987 0.09746374 -0.33657068 0.16568843
-0.013554046 -0.24266577 0.039819803 0.18382621 -0.0039262567 -0.0585881 0.06304396 -0.18384393
0.08811706 -0.41164723 -0.03586795 0.10136776 0.24630624 0.15071559 -0.17790964 0.29257435
0.13216102 -0.27084008 0.013020146 0.2161896 0.11046996 0.19726421 0.0069198646 0.14051399
0.091851585 0.02910948 0.15143313 0.3108783 -0.0045648157 -0.057804413 -0.04643982 -0.29592666
0.08647717 0.011076179 -0.039053164 -0.014827272 0.10023972 0.039112687 -0.20230998 -0.022037972
0.21134162 -0.055013757 0.051823992 0.11127828 0.1576909 0.054571588 0.23418123 0.06843802
0.0049639186 -0.20855264 -0.12728757 -0.00048499583 0.0791827 -0.13522802 -0.06324688 0.3986796
-0.010260981 0.114012636 0.14916074 0.23353902 0.08187586 0.23386295 -0.14208244 0.12303458
0.12649986 -0.10229529 -0.10926543 0.06803795 0.115304284 0.13704929 0.23595656 -0.055490065
0.23410481 0.28948575 0.17346884 0.2159416 -0.42398286 -0.03798303 -0.079715475 0.023560194
0.0043370277 -0.113100044 0.12430199 0.1379826 -0.09236778 0.056463156 0.105706066 -0.10936461
0.13839774 0.110320956 0.0065367245 -0.0547217 0.101138666 0.2242379 -0.0010687133 0.19302094
-0.07372936 0.21144156 -0.086275905 -0.02700567 0.060613234 0.12785295 -0.03519635 -0.05753858
-0.025294146 0.20538695 0.12534614 0.16340537 0.06071117 0.09431978 0.009210293 0.03212249
-0.18390478 -0.0140901245 -0.040385574 0.1360191 0.19882357 -0.05766886 -0.039481804 -0.14631215
0.05766905 -0.11449848 -0.06303752 -0.13042788 -0.100857005 -0.22439136 -0.054164518 -0.16330647
-0.11266344 0.15026732 0.11589188 -0.19723162 -0.09582669 -0.12558231 -0.185417 0.068949625
-0.16646028 0.08949691 -0.14255969 -0.1912714 -0.4338939 -0.013265198 -0.101046436 0.039715055
-0.011411615 -0.077562734 -0.110739164 -0.18021 -0.005229169 -0.15632845 -0.15721717 0.1336776
-0.1417168 -0.11290441 -0.0035084214 0.06930469 -0.09405611 -0.14963813 0.010567662 -0.119339176
0.0735246 -0.1808614 0.05835002 0.084975 -0.09059813 -0.14381391 -0.09803214 0.10906282
0.011511188 -0.13417736 -0.14330553 -0.13273376 -0.12046611 -0.07393238 0.024695182 -0.046040524
0.17761606 0.007721833 -0.0982694 -0.08806453 -0.2011341 -0.034136407 -0.0023266992 -1.1871601
0.11149533 0.11456658 0.1045284 0.13687375 0.099239655 0.12187402 -0.07007927 0.080160215
0.07811736 -0.04614999 -0.017430939 0.0670195 0.11579479 0.11808103 0.057334464 0.010643486
0.097652815 0.18093033 0.07602932 0.13974987 -0.30703035 0.042700112 -0.09361225 0.1944074
-0.043062903 -0.068337895 0.10536757 0.10202509 -0.080692194 0.094194256 0.051112812 -0.07824395
0.09298474 0.11880124 0.10956404 -0.034115728 0.10991839 0.09424565 0.087165 0.080982044
-0.030250445 0.1309747 0.031776164 0.097502746 0.05127425 0.11357224 -0.00918337 0.05690463
-0.001591176 0.078909 0.101792306 0.09346561 0.061474804 0.09344321 -0.093032606 0.02524871
-0.02047974 -0.010196901 -0.08434282 0.06757963 0.11432467 -0.0055118464 0.094962284 -0.075590886

local_mlp.2.bias f4 [256]
00000000: 729c 73be 93d6 633d bb45 263d 069a 113d
00000010: f185 6bbe 447b ed3c 9611 7abe 84cf 5bbe
00000020: a719 06be b937 9e3c e23d 9cbe 898e 7f3e
00000030: 3fe8 99bd 4b1d 7fbe b6d6 c23d 9baa 32be
00000040: 7ffe 1bbe 14e2 8dbe a11f 85bd 2fd1 78be
00000050: 75eb 2cbe 630c 63be 337b 29bd 6f93 243e
00000060: 3df2 a0bd ad75 b33c fe05 733d fdb7 8f3d
00000070: 8ff1 d2be 4cd7 59be 6b57 7fbe 5b1d 3a3d
00000080: 3178 2e3d 525c 47be 9ec5 88be a132 c3bd
00000090: cf71 7e3d a22d 58be 6696 003d 53a0 38be
000000a0: f425 bc3c ded3 c6be fb9b 5cbe f56d c53c
000000b0: 2e53 aeba 6906 7c3c 255b 223d ec10 61be
000000c0: ab19 08be 597a 6d3d 14fc 5ebe 28d1 8cbe
000000d0: 4fb6 87bd ee7d 51be de86 35be 2267 49be
000000e0: 7790 673d 3182 ad3d 08fa 0ebe 93ee 013d
000000f0: ca2a 423e 5f5b 24bd 2c01 f6bd 5b83 21be
00000100: 2182 15be c468 49be 4781 1b3e 480e 383d
00000110: 4d43 12be d342 94bd af70 a7bd ddc4 68be
00000120: 344a 6a3d 4ee2 4fbe 07ef 7d3c 6f42 4b3d
00000130: 64a9 11be ed30 63be 9d1d 21be 18f2 07bd
00000140: a288 0e3c 7f24 143d 04d9 e6bd 785e 77be
00000150: 801d c3bd 95cf 483d 7f0b 36be 2279 4abe
00000160: f5cd 49be 5b13 2dbd ce50 06be 87b3 08be
00000170: 40a5 a83d e365 483d 5143 753d ed0d d2bd
00000180: 7a9f 91be 244d c7be 23af 56be e7b9 ec3d
00000190: 7708 15be 7b35 9d3d 66f0 50be 5fbb b5bd
000001a0: b009 db3c 1a2b e0bd 015d b6be 4319 df3d
000001b0: a324 f7bd eb4b cbbc 82f6 e6bd c0d4 d4be
000001c0: 5294 3ebe 4436 eebc ce93 5ebe ba2f ae3d
000001d0: dbcc 3dbe ad6b 71be 6b41 153d 7448 4fbe
000001e0: a0ce d6bb 3037 a13c 580d 73bd e18f 9ebd
000001f0: 79d0 14be 77db e23c fec2 2ebe 332f 2abe
00000200: 1a0f 01be 9819 f8bc a222 0cbd 31b3 30be
00000210: d22e 58be e2c8 b63d 997b 713d 027c 5dbe
00000220: ea80 6cbe 826f 933d 8cda 76be 1cd6 2abc
00000230: cbc9 a13d 9118 363e 503f 50be 9345 ab3c
00000240: dda2 44be 2850 343d 9d49 b73d b896 f13d
00000250: 1996 713d 7f60 b6be c572 ac3d c648 2ebd
00000260: 7190 8a3d 89b3 73be 8bb4 18be bb07 40be
00000270: 8932 d43d 44ac 7fbd 4b0b 49bb eb8d 973d
00000280: da6f e13c 2894 4dbd 9a66 61be a46d 53be
00000290: 9e06 debd f381 7ebe fe7d 233e ee62 203d
000002a0: 8b14 04bd dfef 17bd e75d 963d 8b11 6d3c
000002b0: 85e2 36be 21fa 67be f94e 5bbe 1245 b0bb
000002c0: c310 0abe cb2f 99be 5799 5bbe 27d1 bcbd
000002d0: 1798 7abe 8fb2 ef3d 038a 67be 2ca5 783d
000002e0: ef1b 8abe f823 6d3e 315b 45be 1a21 b23d
000002f0: 8048 d8bd f1ec 7d3c 00f7 2abd 21e0 1abe
00000300: 51e7 87bc 30ef 373c 53eb 363b df44 0bbe
00000310: ce36 2cbe a907 d23d 1541 943d b846 5ebe
00000320: f30e adbc 3e48 b63d 0ee0 0cbe e70b 37be
00000330: f745 923d c191 093d a7d8 173d 1d66 c4be
00000340: 2c94 95bd 2b3c 82be 0d91 393d 1684 17be
00000350: c2d2 97bd 1d9a afbe c1ae 55be b666 f33c
00000360: d6d1 64be adbe 793d 0975 e83d c9c4 3abe
00000370: 23cf 9ebe 28d9 1bbe c72a 71be 305d 74be
00000380: e3bc 28be af4e 33be c732 10be 66b7 a03d
00000390: b074 e5bd c331 97be 54a2 473d 8110 44bd
000003a0: 1eb4 b8bd 98a4 00bc 3216 b9be c556 24be
000003b0: ef40 d3bd ba82 f7bd 8dae e5bd 0eda 383d
000003c0: 93a0 c73c ccc3 babd 3fd3 c3b9 de1d 5e3d
000003d0: c783 8c3d 19a7 67be db25 11be b5b3 1ebe
000003e0: fccf c0be 8990 ca3d 8854 943d 46f6 87bd
000003f0: 00fb 67be 34c3 993d 7f76 62be 599b 933d
-0.23790148 0.055624556 0.040593844 0.03554728 -0.23000313 0.028989442 -0.24420771 -0.2146588
-0.13095723 0.01931368 -0.30515963 0.24956717 -0.075150006 -0.24913518 0.09513609 -0.17447893
-0.15233801 -0.27711546 -0.06500173 -0.24298547 -0.16886695 -0.22172694 -0.041377258 0.16071866
-0.07858703 0.021906698 0.059331886 0.07017515 -0.4119992 -0.21273535 -0.24935691 0.04543815
0.042595092 -0.19468811 -0.2671327 -0.09531141 0.062120255 -0.21111158 0.03139343 -0.18029909
0.022967316 -0.38833517 -0.21543877 0.024100283 -0.0013299936 0.015382388 0.039637703 -0.21979111
-0.13291042 0.057978008 -0.21775848 -0.27503324 -0.066265695 -0.20458195 -0.17727229 -0.19668248
0.056534257 0.08472098 -0.13962567 0.031721663 0.18961635 -0.0401262 -0.12011942 -0.15772764
-0.14600421 -0.19668871 0.15186034 0.044935495 -0.14283486 -0.07239308 -0.081757896 -0.22731347
0.057199672 -0.20301172 0.015498883 0.049623903 -0.14224774 -0.22186632 -0.15733953 -0.033189863
0.008699568 0.036167618 -0.11271861 -0.2415713 -0.09527111 0.04902609 -0.17777823 -0.19772771
-0.19707473 -0.042254787 -0.13116762 -0.13349734 0.08234644 0.04892529 0.05987865 -0.102565624
-0.28441983 -0.3892604 -0.20965247 0.115588956 -0.1455401 0.07676216 -0.20404205 -0.08873629
0.026738018 -0.10945721 -0.3561783 0.1089349 -0.12067535 -0.024816474 -0.112774864 -0.41568565
-0.18611267 -0.02907861 -0.2173607 0.08505197 -0.18535177 -0.23576231 0.03643934 -0.20242482
-0.0065553933 0.019679636 -0.059338897 -0.077422865 -0.14532651 0.02769254 -0.17066571 -0.16619568
-0.12603417 -0.030285642 -0.034212716 -0.17255856 -0.2111161 0.08925034 0.058955763 -0.21629336
-0.23096052 0.07199003 -0.24106807 -0.010427024 0.07899817 0.17782809 -0.20336652 0.020907199
-0.19202752 0.044021755 0.089495875 0.117963254 0.058981035 -0.35620496 0.08420328 -0.04254987
0.06765831 -0.23798956 -0.14912622 -0.18752949 0.10361201 -0.062420145 -0.0030676897 0.074001156
0.027519155 -0.05019012 -0.22011796 -0.20647293 -0.10841106 -0.24854259 0.15966031 0.039156847
-0.032246154 -0.037093993 0.07342129 0.014469515 -0.17859848 -0.2265401 -0.21416844 -0.0053793276
-0.13482957 -0.29919276 -0.21445213 -0.0921958 -0.2447208 0.11703979 -0.22611241 0.060704395
-0.26974437 0.23158252 -0.19273068 0.0869772 -0.10560703 0.015498386 -0.041739464 -0.15124561
-0.016589792 0.01122646 0.002791126 -0.13600491 -0.16817781 0.10255367 0.07238976 -0.21706665
-0.021125292 0.08900498 -0.13757345 -0.17875634 0.07142251 0.033586267 0.03707185 -0.38359156
-0.07303652 -0.2543653 0.045304347 -0.1479648 -0.07413246 -0.34297267 -0.20867445 0.029712062
-0.22345671 0.06097286 0.11350448 -0.1823913 -0.31017408 -0.15219557 -0.23551475 -0.23863673
-0.16478305 -0.17510484 -0.1408187 0.078474805 -0.11203897 -0.29530153 0.048738793 -0.0478673
-0.090187296 -0.007851742 -0.36149746 -0.16048725 -0.103151195 -0.12085481 -0.112149335 0.04512983
0.02436856 -0.091193765 -0.0003735069 0.054227702 0.06861072 -0.22622336 -0.14174597 -0.1549824
-0.3765868 0.09890849 0.072426856 -0.0663877 -0.22654343 0.07507935 -0.22115515 0.072073646

output_mlp.0.weight f4 [128, 512]
00000000: 6d47 233e d8a8 373e c8c7 c93a a3c2 623e
00000010: 43a5 87bd ef07 5c3e f601 f53d 3756 22be
00000020: 1fcd 1c3d aa20 743d c399 783e e7cb 8dbd
00000030: 37ba bdbd 476c edbb 86c4 5b3e 3b63 313e
00000040: ced9 e3bc ea77 93bd aa27 15be 3516 05bc
00000050: f9f3 363c 3d68 2b3e cf0c 283c 0bd8 0f3e
00000060: d877 4fbd 69d8 d53c 77a0 bb3d 940b 1b3e
00000070: be14 1dbe fdc7 8d3b d4ea 173d d675 abbd
00000080: 19af d33c f380 593d 18bf 793e b990 46be
00000090: e144 9d3d f0ca 443d ee93 d6bd 22b6 9e3d
000000a0: 8edc 29bd 4208 e6bd 5de3 88bd 6935 8e3e
000000b0: 024c 3e3d 27ae 233d f236 0c3d 9ee7 47bc
000000c0: 820a 45be 9b2f df3c 4f53 383e b77d 5c3e
000000d0: 7384 9abc 34c2 a03c 7163 163c 4bd0 1bbc
000000e0: 03d1 8abd e48a 7f3e c549 373e a3d0 543d
000000f0: 9967 89ba 95eb 213e ace3 2cbe 5b4f 453d
00000100: 6d33 e73c d5fb 9abe b36c 803e 4f00 843e
00000110: 221c aabc da06 e53d 25d8 01be f9b7 f2bd
00000120: 369c 443e c44d 7dbb 3989 fa3d 7771 793e
00000130: ec4e b9bc c092 583e 6d75 75bd 384c 9f3d
00000140: 88c0 1f3e e73d 393e 340a 3fbd 2a12 0bbe
00000150: ac88 6f3d 3679 22bd 940d 513d f244 21bd
00000160: e589 0bbe 1ed0 97bc 8234 fc3c bc8d 44be
00000170: 1251 823d 94d3 883e c8c5 9b3d d247 a43d
00000180: de79 00be 48b7 07be c612 803d 1c10 593e
00000190: 6dd5 2f3e 0a87 da3d 4293 483e 3680 3ebe
000001a0: 7c2b 633e a480 72be 1403 f6bd 26bb cdbd
000001b0: 3d8f fe3d e2d5 263d 5bee d43d f164 35be
000001c0: 14b8 6fbd c36a 70be 3e16 d43c 25f9 f0bd
000001d0: 165d 043d 69f4 cfbc b6e0 5b3e 9edb 503b
000001e0: 86c9 6abd bfad 0c3c 7ac3 ccbc 59ca a4bd
000001f0: dc83 1bbc efb1 833e 4f9b 9fbe c73a 063e
00000200: 71b5 4ebe 1c32 2fbd fa73 4fbe 2737 94bc
00000210: 4ee8 b63d fd74 353e 3cb7 ecbc 488f 5cbd
00000220: cb42 43bd 979c dabd 2a2a 933d be50 8a3d
00000230: 9ff0 903e 3b4f 22be e266 013e f610 383e
00000240: 8685 3f3e 848c 5e3e 2672 a83d c287 333c
00000250: aeea 643d 2ef0 9cbd ea1a c33d accf 52bd
00000260: 168d 7c3e 93cd 123d 5fe2 f2bc f8e2 acbd
00000270: 3989 a13e 636c efbc bf29 dd3c 7a5d 433e
00000280: ae9e 4d3e 3701 ef3d 1a0f 52bc d0f2 82bd
00000290: 2fc1 b33c de7a 5a3d 3ecd c3bc b6aa 603e
000002a0: 18d5 853d 07fa 633d 11dd 3a3d 63fc 6abd
000002b0: d92b 39bc cece 13be 2ce8 0b3d 4b43 bc3c
000002c0: 93fa 73bd bf94 423e 6a42 41be f367 1b3e
000002d0: 9dae 5dbe c7ec 11bc bf93 adbd 9315 1dbe
000002e0: 09fc 97bc 0297 5b3e 44e6 08bb ba21 aebd
000002f0: 514f c3bd c549 cd3b 911b 78bd f6d5 cabd
00000300: d695 6a3e c1eb 56bd 1548 773c ba4f 27be
00000310: 49ee 113d be0a 713d 2952 1e3c d03d ec3d
00000320: 8f2b 41bd 27f7 cd3d 6682 11be f315 403e
00000330: b736 25bd 8f7e e73d ff61 903d ae93 02be
00000340: d93a 49be 1870 a7bc 7b5d 5d3e 5a4e 56bd
00000350: 7114 9a3d 955c 98bd f378 8bbd 090b 6c3e
00000360: 78c4 513d 2cf6 723e f4b2 023a 5d59 543c
00000370: 940b 14be 2d04 96bd 28f2 0b3e 5195 333e
00000380: 0763 24be 816b edbd bd27 3b3e d24a 213e
00000390: af13 533b 7dab 4abe 7b37 6e3d b117 35bc
000003a0: 9708 333d 2410 11bd 02c3 17be 92a9 ab3d
000003b0: 8fba 2a3d b10a 69be 43ea 59be 9980 1f3e
000003c0: 1953 21bd f3f9 283d 6e59 343e b356 0c3c
000003d0: c90e 8d3d 5051 8e3c 5881 5f3c 1648 4a3e
000003e0: 500f 5ebe 71a3 633e 0634 ac3d 5c21 43be
000003f0: 50ee 61bd f58c 113e 1e21 463d 57f4 743e
0.15945216 0.17935503 0.0015394622 0.2214456 -0.06623318 0.21487401 0.11963265 -0.15853201
0.038281556 0.059601463 0.24277405 -0.06923657 -0.09264033 -0.0072455737 0.21461686 0.1732301
-0.027813818 -0.07200606 -0.14565912 -0.00812297 0.011166566 0.16738982 0.01025696 0.14047258
-0.0506514 0.026104169 0.091614656 0.15141135 -0.15339944 0.004326819 0.037089184 -0.08372085
0.025840329 0.05310149 0.24389303 -0.19391145 0.07679153 0.0480451 -0.10477434 0.07749583
-0.041470103 -0.11232044 -0.06683991 0.27775124 0.046459205 0.039961006 0.034232087 -0.012201218
-0.1924229 0.02724438 0.1800053 0.21532331 -0.018861985 0.019623853 0.009178982 -0.00951011
-0.06778147 0.24955326 0.17899235 0.051956784 -0.0010483145 0.15812524 -0.16883725 0.048171382
0.028222764 -0.30270258 0.2508293 0.25781485 -0.020765368 0.111829475 -0.12680109 -0.11851496
0.19200215 -0.0038651088 0.122332044 0.2435969 -0.02262064 0.2114973 -0.05992644 0.077782094
0.15600789 0.1809002 -0.04664059 -0.13581148 0.05847995 -0.039666377 0.05103834 -0.039372392
-0.13626821 -0.018531855 0.030786756 -0.19194692 0.06363119 0.2672392 0.07606083 0.08021511
-0.12546489 -0.1325351 0.06253581 0.21197551 0.17171259 0.10670288 0.19587424 -0.18603596
0.22184557 -0.23681885 -0.12012306 -0.10045461 0.12429664 0.04073132 0.10397025 -0.17714287
-0.05852516 -0.23478226 0.025889512 -0.117662705 0.032315336 -0.025385099 0.21472439 0.0031869183
-0.057321094 0.008586346 -0.024995554 -0.08046407 -0.009491887 0.2572169 -0.3117318 0.1310836
-0.20186402 -0.042772397 -0.20259085 -0.018092705 0.08931027 0.17720409 -0.028895967 -0.05384758
-0.04767112 -0.106743984 0.071857765 0.067536816 0.2830858 -0.15850537 0.12636903 0.1797522
0.18703279 0.2173329 0.08224897 0.01095766 0.05588787 -0.07662998 0.09526618 -0.051467583
0.24663195 0.035840582 -0.029648958 -0.08441728 0.31550005 -0.029226488 0.026997445 0.19078627
0.20080063 0.116701536 -0.012820983 -0.06393969 0.021942703 0.05333983 -0.023901578 0.21940121
0.06534785 0.055658367 0.04562098 -0.0573696 -0.011301958 -0.14434358 0.034156963 0.022981307
-0.059565138 0.19002055 -0.18872991 0.15176372 -0.21648641 -0.00890655 -0.08475446 -0.15340261
-0.018552797 0.21444324 -0.0020889202 -0.085025266 -0.09536613 0.0062648975 -0.060573164 -0.09904091
0.2290872 -0.052470926 0.015092869 -0.16339007 0.035627637 0.058848135 0.009663143 0.11535227
-0.04716068 0.10056906 -0.142099 0.18758373 -0.040335383 0.11303436 0.07049941 -0.12751648
-0.19651355 -0.020439193 0.21617691 -0.052320816 0.0752343 -0.074395336 -0.068101786 0.23051085
0.051212758 0.2372672 0.00049857725 0.012960759 -0.14457542 -0.07325015 0.13666594 0.17537428
-0.16053401 -0.1159277 0.18276878 0.15751198 0.0032207777 -0.1979198 0.05815838 -0.011053012
0.043709364 -0.035415784 -0.14820483 0.08381952 0.041681822 -0.22757985 -0.2128077 0.155764
-0.03938589 0.041253995 0.1761224 0.008565593 0.06887586 0.017372757 0.013641678 0.19754061
-0.21685529 0.22230317 0.0840836 -0.19055694 -0.055158913 0.14213927 0.048371427 0.23921333

output_mlp.0.bias f4 [128]
00000000: 8155 563c 42d3 14bd f44e a13d 7668 0c3d
00000010: 82f8 9c3c 5d5c 2ebd a140 b7bd 8a5c a0bd
00000020: 5ef6 a83d 2c3b efbd e933 503c f755 91bd
00000030: 3fe3 373c 60e5 573e 9f8b 4a3d 8be5 e2bd
00000040: 3cb0 9bbd 2556 843d 08cd f93c fdc1 8e3e
00000050: 7100 223d 8ed9 10bd 2cbe 57bd ec6f f1bd
00000060: d4eb 3a3c 90f0 18be 3c8a 913e c053 b0bd
00000070: 55ce c53d 0e28 443e 3286 bfbc 8576 bcbd
00000080: 20fe 1e3e 0284 1b3e bb3a 65bd d17b 9b3c
00000090: cb51 50bd 6f45 9d3e 702c a43d 9085 3b3d
000000a0: 53cf 0b3e 499c 1c3e 4ee4 56bc 7e70 58bd
000000b0: f8e7 e83c 7b43 213d dbea e63d 29f8 bc3c
000000c0: 8112 a53e db2d 383e f02e 053e 8461 2c3d
000000d0: 5778 b0bd 5188 993d 6f17 183e 7dd9 4cbc
000000e0: fcf2 8c3d af75 e2bd d900 b23d 059b c7be
000000f0: fb2b bb3c cf05 5f3d e898 e1bd c3f0 aa3e
00000100: ade7 033d 47dd 323e 6a7f 263d 1cfe 713e
00000110: f55f 9dbd b052 a43d 7817 a93d 447d bbbd
00000120: 8327 333c e569 a33d 681e 95bd 3edd 673e
00000130: 0c96 2c3c 3634 b43e c1f6 7e3d e54a 283e
00000140: e564 2bbe e49c d7bc eb53 f1bc a5f3 9abd
00000150: 6237 533e 5c9a 6dbd 8d21 413d 3040 673d
00000160: c9b4 9f3d 747c a63e cb6a 9d3d a5ff 0abe
00000170: 7276 823d 0dc1 6e3d bd56 4ebd 1705 88bd
00000180: 0c72 ad3e ae34 143c 2558 71bd 6504 b33c
00000190: d255 693d bf27 bfbd a04c afbd de08 903d
000001a0: 102d 6f3d c118 fd3c b717 91bd e46e 7e3e
000001b0: 1c6b d1bd 086a a93c 3763 9b3e 941f 1b3e
000001c0: 1564 26bd ed7b 3e3c 02ef 70be d14c bd3c
000001d0: 82e1 28bd 4f67 4f3d 1d90 083e ea54 633d
000001e0: 2f84 193d e94e 033d 56ec 183d 457d 2abc
000001f0: 933e fe3c f295 013d d5c3 843d ea6b 353d
0.013081909 -0.036334284 0.07876387 0.03427931 0.019161467 -0.042568553 -0.08947874 -0.078301504
0.08250116 -0.11681208 0.012707689 -0.070964746 0.011223613 0.21083593 0.04944956 -0.11078938
-0.076019734 0.06461743 0.030493274 0.27882376 0.039551202 -0.035363726 -0.052671596 -0.117889255
0.011408765 -0.14935517 0.28425777 -0.08609724 0.09658495 0.19155905 -0.023379419 -0.09202293
0.15526628 0.15187076 -0.055964213 0.018979939 -0.050859254 0.30717036 0.08016288 0.045781672
0.13653307 0.15293993 -0.0131159555 -0.052841656 0.028430924 0.039370995 0.11275264 0.02306755
0.3224068 0.17986242 0.13006186 0.042085186 -0.08616703 0.074967034 0.14852689 -0.012503025
0.06882283 -0.110576026 0.08691568 -0.38985458 0.02284812 0.0544489 -0.11015493 0.33386812
0.032203365 0.17467223 0.040648855 0.23632091 -0.07684318 0.08023584 0.082564294 -0.09154752
0.010934713 0.07979182 -0.0728119 0.22642991 0.010533821 0.35196084 0.06224704 0.1643482
-0.16737707 -0.026319928 -0.02945896 -0.07566003 0.20626596 -0.058008537 0.047151137 0.0564577
0.07798154 0.32516825 0.07686385 -0.13574083 0.06370248 0.058289576 -0.05037569 -0.06641596
0.33876073 0.009045763 -0.05892195 0.021852681 0.05696661 -0.09333753 -0.08559537 0.07032941
0.058392584 0.030895593 -0.07084601 0.24846989 -0.102255076 0.020680442 0.30349132 0.15148765
-0.04062279 0.011626226 -0.23528674 0.023107918 -0.041230686 0.050635632 0.13336225 0.055500902
0.037479576 0.032057676 0.037334763 -0.010405843 0.031035697 0.03163714 0.064826645 0.044292368

output_mlp.2.weight f4 [9, 128]
00000000: 3ae7 5f40 1ebb e03d d637 23bf b37e ca3f
00000010: 5141 40bd f4d0 c23f b8a6 b13f 2f85 ad3f
00000020: 7a90 0f3d 1ecd 183f b04e cdbd d411 a53f
00000030: 2af0 183f 71c5 f83e eb15 9fba 81c9 a83e
00000040: 63d5 af3f cdb3 f6bd 2fba 993e dd65 75be
00000050: 14c6 283f e275 52be 6915 b63e 71a8 c83f
00000060: 6e39 3e3f 5302 6e3e d2dc 80c0 9083 743f
00000070: 2aeb c33f 5c9d 0bc0 7900 8dbc 190d b13f
00000080: a52f 973b be3e 243f 96b4 8b3f 8e28 0a40
00000090: 1def d1bc 823b a13f ed1b 62bf 6df9 fa3e
000000a0: 32b8 bebb f77f 963e 3265 953d 7fb7 903d
000000b0: c37e 2b40 1763 8140 0046 a1be 46d5 483f
000000c0: 1160 4ebf d011 8fbd 9999 cabd ce6b 8440
000000d0: 4605 b03f 124a 113e f7c0 5abd 754b b93f
000000e0: f88d 92bf 0b6f b73f 1293 05bf a2d5 b1bf
000000f0: 2c34 023f 0371 0f3f 2e23 b93f e973 abbf
00000100: 2cbe f13f 85cb 73be ae15 fe3f cad3 b73e
00000110: b6a2 ae3f 7825 283f ec43 99be a827 b53f
00000120: e00e 1f3f b85e 663e f2c7 a53f 30f1 5abd
00000130: 0044 bfbd 233c 3dc0 3940 1ebe a47c e8bc
00000140: b3a7 b93e 5b4f b1bd 3462 69bd d8c7 af3f
00000150: cc27 13c0 80f3 8e3f c77c 93bc f562 273f
00000160: 4803 ea3c 9a4d 1b3f 04f8 b7bd 5492 093e
00000170: 0341 823e cfa0 1ebf ddd3 913f d4ae ae3f
00000180: 23af 36bf c9fd b23d 3eea 693f 0ab5 123f
00000190: 2182 113d 8f33 b33f 4759 263d bd4f bfbf
000001a0: 2cf5 b7bc 83db 103f 059c e1bf a46d 88be
000001b0: 5744 b63f ca8e e6bd c0aa a8be 98b5 503f
000001c0: 65a3 953f 596f 193f 4551 6f3f 9510 c03f
000001d0: bf22 05c0 06fe e53e 48a5 8fbf 3ce7 1c3f
000001e0: 0de8 e83e 7558 e93e bbaa 2240 233c 243f
000001f0: d5d4 0940 4df5 e63f 14ca 9a3e b2f8 b53e
00000200: ca84 cc3c 28d4 b4bc 8b91 6d3d e233 a03b
00000210: 862c 4abd d509 933c 1361 c33c f2f7 dc3b
00000220: 37e2 81bd 8f5e 3dbd 57e3 eebc c303 233d
00000230: a4aa 0d3c c3ca e6bd 9e83 80bd c4ce 34bd
00000240: 7222 d23c 087a 023d df0b 153c 2dd9 a2bd
00000250: a9fa f03c d0b2 cebd 7c5e 53bd cf6b 3fbc
00000260: 5c9f 193c 81d4 c8bc 98db e3bd 35a2 0d3c
00000270: 7a48 c53c 19a2 31bd e7e5 80bd dc81 963b
00000280: 8fb2 dabd ebf0 e4bd 0983 2c3c 3333 8d3b
00000290: ce86 a0bd 1e6a a4bd 6d65 cfbb 3767 65bd
000002a0: f0ef 99bd b178 60bd 99a4 55bd 2807 22bc
000002b0: 0ff9 583d 099f 193d 032a bfbc 8a52 dc3c
000002c0: 06ca d8bd 2361 43bc e570 b5bd 38e8 88bc
000002d0: 8fc7 c5bb a5b3 e2bc a074 a7bd 5988 023c
000002e0: a500 163c d5f1 1a3b aafb 7c3c a0bf 233c
000002f0: 31f5 853c d8eb 643c 595c 973c 42d8 afbd
00000300: c02d 063d c06c 77bd 2191 963c 803a 55bd
00000310: c375 cebb 617d 8ebb c297 0f3c e532 4c3c
00000320: c669 5f3d 116f 753c adc9 b53c e469 53bd
00000330: 0be5 86bd b015 bcbd 03b6 40bc b824 05bd
00000340: 0910 22bd baa5 4dbd 6109 2ebd 5fe3 833c
00000350: 2445 8cbd b303 4fbc d621 c8bd 4434 e63c
00000360: fc75 38bd 134d 06be 19ea df3c 05f2 73bc
00000370: abce e3bc 5814 8ebd 4c14 bc3b d23f ed3b
00000380: 2d9c 85bd a907 c2bd 6cec b63c 088e 413d
00000390: d3d8 4dbd 327f 6f3b 5554 893d 6289 1c3b
000003a0: 29a5 65bd 7136 013d e2a5 afbd 4b3f 37be
000003b0: 7588 d0bc c7cd 0fbe b862 1abe 7114 85bd
000003c0: 4675 01bb 864f 8f3c cfdd 9dbb a933 873b
000003d0: 3dd9 b3bc 2507 0a3d 39b6 4fbd 822f d63b
000003e0: 70b5 d1bc c92f 8a3c 6f4a 303d 70e8 983c
000003f0: d185 c43a 8db6 a8bc 7d26 b2bc a7ff 1a3c
3.498488 0.1097319 -0.63757074 1.5819916 -0.04693729 1.5220017 1.3879004 1.355627
0.035049893 0.59687984 -0.10024774 1.2896066 0.5974146 0.48588136 -0.0012137269 0.32966235
1.3736995 -0.12046013 0.3002486 -0.23964639 0.65927243 -0.20552781 0.3556321 1.5676404
0.7430638 0.23243074 -4.0269556 0.9551325 1.5306141 -2.1814795 -0.01721214 1.3832122
0.004613834 0.64158237 1.0914485 2.1587253 -0.025626713 1.2596285 -0.8832386 0.49018422
-0.0058202976 0.29394504 0.07294692 0.07066249 2.679612 4.043346 -0.31498718 0.7845043
-0.80615336 -0.06985819 -0.09892578 4.1381598 1.3751609 0.14188412 -0.053406682 1.4476153
-1.1449575 1.4330763 -0.52177536 -1.389332 0.5086086 0.5603182 1.4463861 -1.3394748
1.8886161 -0.23808105 1.9850366 0.3590377 1.3643405 0.6568217 -0.29934633 1.4152727
0.6213207 0.2249707 1.2951643 -0.05345267 -0.09339142 -2.9567955 -0.15454186 -0.028379746
0.36260757 -0.08657714 -0.05697842 1.3732862 -2.299304 1.116806 -0.018003834 0.6538537
0.028566018 0.60665286 -0.08982852 0.13434726 0.25440225 -0.61964124 1.139278 1.3647103
-0.7136099 0.08739812 0.9137305 0.57307494 0.03552449 1.400011 0.040612485 -1.4946209
-0.022455774 0.5658495 -1.7625738 -0.2664615 1.4239606 -0.112577036 -0.32942772 0.8152709
1.1690489 0.5993553 0.9348338 1.500506 -2.0802457 0.44920367 -1.1222315 0.61290336
0.4548954 0.455753 2.5416706 0.6415426 2.1536152 1.804361 0.30232298 0.35541302
0.024965663 -0.02207382 0.05800013 0.0048889974 -0.049358867 0.017949024 0.02385 0.0067434246
-0.06341975 -0.046232756 -0.029161138 0.03979851 0.008646641 -0.112691425 -0.06275104 -0.0441425
0.02565119 0.03185466 0.009097069 -0.07951579 0.0294164 -0.100926995 -0.05160378 -0.011683418
0.009376373 -0.024515392 -0.111258686 0.00864463 0.024082411 -0.04336748 -0.062938504 0.004593117
-0.106785886 -0.11178764 0.010529288 0.004309082 -0.07838212 -0.08028053 -0.0063292296 -0.056006636
-0.075164676 -0.0548026 -0.052158926 -0.0098894015 0.052971896 0.037505183 -0.023335462 0.026894826
-0.10585408 -0.011925015 -0.088594235 -0.016712293 -0.006035752 -0.027673552 -0.08176541 0.007967078
0.009155427 0.0023642678 0.015440861 0.009994417 0.016352268 0.013972245 0.018476652 -0.0858617
0.032758474 -0.060406446 0.01837975 -0.052057743 -0.0063006594 -0.0043484424 0.008764209 0.012463306
0.054544233 0.014980094 0.022190893 -0.051614657 -0.06586655 -0.09183824 -0.011762145 -0.03250572
-0.039566074 -0.050206877 -0.042489413 0.01609963 -0.06849125 -0.012635159 -0.09772079 0.028101094
-0.045034394 -0.13115339 0.027333306 -0.014889245 -0.027808508 -0.06937474 0.0057397243 0.007240274
-0.06523929 -0.09474117 0.022329532 0.047254592 -0.050255608 0.003654432 0.06705538 0.0023885597
-0.056065712 0.03154606 -0.085765615 -0.17895238 -0.025455693 -0.14043342 -0.1507672 -0.064980395
-0.0019753738 0.017493974 -0.0048177014 0.0041260314 -0.021954173 0.03369822 -0.05071089 0.006536425
-0.025599211 0.016868489 0.043039735 0.018665522 0.0014993494 -0.02059486 -0.021746868 0.009460366

output_mlp.2.bias f4 [9]
00000000: 8821 13be 7996 26bd f747 31bd 8e61 8f3d
00000010: 244b 453e d12a d6b9 0ea7 2ebd 35fa d8bd
00000020: c284 793e
-0.1436826 -0.040670846 -0.04328152 0.07001029 0.19266945 -0.0004084916 -0.042639785 -0.10594598
0.2436705
