log/segmentation/pn/bucket/weighted-3/pn_30.pth (torch, 337359 bytes, 8 tensors)

local_mlp.0.weight f4 [64, 3]
000000 3d c3 a1 3e 39 5c 1b 3d ed fe d8 3d 10 05 cd be
       0.31594267 0.037929747 0.10595498 -0.40042925
000010 95 c4 b1 3d 09 2a 91 3e ea 04 49 bf c4 60 88 bc
       0.08680073 0.28352383 -0.78523123 -0.016647704
000020 b7 65 c9 bc 63 96 d6 bd f5 11 05 3e 6c f0 65 be
       -0.024584634 -0.10477903 0.12995131 -0.22454995
000030 67 80 41 bf 08 2b f5 3c be 1b 1e 3e 75 27 5a bd
       -0.7558655 0.029927745 0.1544027 -0.053260285
000040 10 ed 9e 3e aa 14 42 be fe dc 55 3e ff 12 f4 be
       0.3104024 -0.18953195 0.20885083 -0.47670743
000050 fc 5a 55 be fc 2d 32 bf 46 97 3c 3e 27 e3 29 3e
       -0.20835489 -0.69601417 0.18417081 0.16590558
000060 c3 e4 a6 bf aa 30 87 bd a4 bf 66 3e 3e 30 df 3e
       -1.3038563 -0.06601079 0.22534043 0.43591493
000070 3e 57 8a be b7 4e 91 be b4 aa 06 3f 8a f0 d0 3c
       -0.27019686 -0.28380367 0.5260422 0.025505323
000080 d2 e5 0a be 83 a0 f6 bf 99 62 a8 3e 5e 98 fe 3d
       -0.13564232 -1.9267734 0.32887724 0.124314055
000090 59 41 22 bf 94 d2 9d 3c aa b1 97 3e 9f 25 81 bd
       -0.6338096 0.01926545 0.29627734 -0.06306004
0000a0 64 7d 42 3d d7 ef 2f be 1f 2d e1 bd df 10 50 3e
       0.047482863 -0.17181335 -0.10994934 0.20318936
0000b0 1b a0 55 be 8f c0 77 3d 18 af e3 bd a5 1c 74 be
       -0.20861857 0.060486373 -0.11117381 -0.23839052
0000c0 5f 55 77 bd 05 22 98 3e b5 88 31 be 89 d1 22 bf
       -0.06038415 0.29713455 -0.17337306 -0.63600975
0000d0 4f 41 e5 be e8 82 43 be 58 70 ea bd a7 df 9d 3d
       -0.4477639 -0.19092906 -0.11447209 0.07708674
0000e0 ae 30 6f be 09 d5 15 3c 4e 26 ab 3e 4a d8 3e be
       -0.23358414 0.00914503 0.33427662 -0.18637195
0000f0 22 2c c3 3e 32 a6 2f 40 bc 19 5b bd 44 5b b2 3e
       0.38119608 2.7445188 -0.05349134 0.34835255
000100 ba e3 28 be 1d 4f 3f 3e 6c cb 81 3e 3f ae 0d be
       -0.16493121 0.18682523 0.2535051 -0.13836001
000110 ec 1c 87 3e 6d 36 a0 3e 82 c1 38 3e 81 16 c6 3d
       0.26389253 0.31291524 0.18042567 0.09672261
000120 11 23 5e 3e 81 67 fc 3e ac e7 38 3e a1 64 a9 3e
       0.21693064 0.49297717 0.18057126 0.33084586
000130 f3 09 18 bf 59 49 76 be 32 12 b3 be 99 0b 5b 3e
       -0.5939018 -0.24051417 -0.3497482 0.21391143
000140 f7 0a 86 3e 1d 80 8d bf ee 2f c7 3e 31 13 11 3d
       0.2618024 -1.1054722 0.38903755 0.035418693
000150 2a c6 a9 3e db 2f 34 be 74 8e 3a 3e 0c 2e df bf
       0.33159 -0.1759638 0.18218404 -1.7435927
000160 58 d4 97 3d 42 91 fb 3d 74 55 98 be c9 e9 8b 3e
       0.07413548 0.12283565 -0.29752696 0.273268
000170 c7 b3 a5 3e d9 7c 20 3f 7d 31 e8 bd bb 07 83 be
       0.32363722 0.626905 -0.11337564 -0.25591835
000180 aa d9 a7 be 81 57 84 3e b8 0c 69 3d 52 4a e8 be
       -0.32783252 0.2584801 0.056896895 -0.45369202
000190 5c 5f 90 3d dc e1 8e 3e 6d 15 a6 3e a4 d4 2b be
       0.07049438 0.27906692 0.32438222 -0.16780335
0001a0 39 62 25 3e 4e b5 f5 3e 96 f4 cb 3e d8 1e ab bd
       0.1615075 0.47989887 0.39835042 -0.08355492
0001b0 d6 46 37 bf a4 86 f6 3c 6f 62 97 3e 73 bf 4e be
       -0.7159246 0.030093499 0.29567286 -0.2019022
0001c0 4d dd 23 bd ea 9b 78 be 35 5e 6b 3e c2 2a c2 be
       -0.04000597 -0.24278226 0.22985156 -0.37923247
0001d0 cf 34 05 3e 41 de a0 be 03 4e 3b be 8c 86 76 be
       0.13008426 -0.31419566 -0.18291478 -0.24074763
0001e0 f0 2d 17 3f 1e 48 b9 bd 76 c9 61 be 90 c5 2a be
       0.5905447 -0.090469584 -0.22049507 -0.16676927
0001f0 7d b8 29 3d f5 05 79 be a0 b7 99 3e e3 c8 47 be
       0.041435707 -0.24318679 0.30022907 -0.19510226
000200 39 d4 02 be e7 6d b6 3e 74 f8 b2 bc 7f c9 1e be
       -0.12776269 0.35630724 -0.021846987 -0.15506552
000210 da 3c 42 bf 39 7f 3c bd 5f fc 4b 3e 95 ed dc be
       -0.758741 -0.046019766 0.1992049 -0.4315001
000220 01 54 8d 3e 44 2e 95 3e d9 cc 48 bc 77 e2 7f 39
       0.27603152 0.2913686 -0.012255871 0.0002440306
000230 86 fa b7 bd ad aa cd 3e fb 40 5b 3d e4 91 40 be
       -0.089833304 0.40169278 0.053528767 -0.18805653
000240 33 4f 90 3e a1 05 cf 3d 0e 83 be 3d 15 e6 fb bd
       0.28185424 0.101084955 0.093023404 -0.12299744
000250 8b 71 56 3c 09 1f 7e be a6 4f 80 be 54 44 79 3e
       0.013088594 -0.24816526 -0.25060767 0.24342471
000260 6e 8b 80 3e ed 1e cc bd f4 4f 1a 3e 81 33 4f bd
       0.25106376 -0.09966836 0.15069562 -0.050586227
000270 a9 64 c9 bf 7e d6 d7 3c 05 fb 06 3e 8b 36 87 bf
       -1.5733844 0.026347395 0.13181694 -1.056352
000280 05 60 5f bd 9b 16 21 3e 17 ab b4 3e 15 54 37 3f
       -0.05453493 0.1573128 0.3528678 0.71612674
000290 98 03 b8 b9 5f 78 5b ba d9 4c 42 3b 8f 12 32 ba
       -0.00035097892 -0.00083721237 0.0029647856 -0.00067929266
0002a0 a8 47 f5 3e 46 57 1a 3d 21 ad 50 be eb 1c c9 3c
       0.47906232 0.037680887 -0.20378543 0.024549922
0002b0 28 c3 6f bd 67 da 02 be d6 b3 60 3e 67 91 6b bd
       -0.058535725 -0.12778626 0.21943602 -0.057511713
0002c0 13 09 8c 3e 89 f3 16 bf 57 7e 27 3d 41 90 9c 3e
       0.27350673 -0.58965355 0.04089197 0.30578807
0002d0 b8 c0 b8 bd 96 b9 34 3e f8 04 67 be 18 4a 03 bc
       -0.09021133 0.1764892 -0.22560489 -0.008013271
0002e0 0a c9 d7 3a 82 cb 1a bd 6c 42 05 3f e8 17 32 bf
       0.0016463113 -0.037791736 0.52054477 -0.6956773
0002f0 5c c2 36 3e 70 b4 9c bd 56 55 52 c0 72 d6 9d bd
       0.1784758 -0.07651603 -3.2864585 -0.07706918

local_mlp.0.bias f4 [64]
000000 9e f2 93 be bd 90 50 be cc 2e 3a 3e a9 41 ea 3e
       -0.2889604 -0.20367713 0.18181914 0.4575322
000010 d4 b6 1c be 33 0e e2 3e 3c ac 79 3e 50 34 cb bd
       -0.15304118 0.44151458 0.24382108 -0.09922087
000020 cf b3 e9 bd bd 28 98 3e 8d 58 7b 3d ae d3 53 3e
       -0.11411249 0.2971858 0.061363745 0.20686218
000030 be a4 22 be 9d e0 a1 3e 58 9c e4 3e 3e 24 b2 3e
       -0.15883157 0.3161668 0.4465053 0.34793276
000040 2f 45 cb 3e 6f 26 0a 3f 0b 99 f2 3e 1e 09 e3 3e
       0.3970122 0.53964895 0.47382388 0.44342893
000050 1e 9f 4b 3e d3 6c d1 be d2 80 c0 be d4 d1 91 be
       0.19884917 -0.4090334 -0.37598282 -0.284804
000060 08 67 81 be 88 a2 7f 3e 0a d5 38 be f9 aa 3b 3c
       -0.2527392 0.24964345 -0.18050018 0.011454337
000070 75 72 c8 be 23 b7 dc 3c 75 de 8c be d3 71 3a 3e
       -0.39149824 0.026942795 -0.2751347 0.18207483
000080 ec a1 b8 3d 9e f5 32 be 4f e2 c0 be 20 2c dd bd
       0.09015259 -0.17476508 -0.3767266 -0.10799432
000090 94 68 14 be 9d cd 05 3f 82 e4 b7 be 7a 9d 0c 3f
       -0.14493018 0.52266866 -0.35916525 0.5492779
0000a0 85 d4 15 3e fd de 05 3f 1b 91 5a 3d b8 c4 da 3d
       0.14631851 0.5229338 0.05336104 0.106820524
0000b0 68 fe 4f be d4 60 2d be 62 50 19 3e bb b2 34 3e
       -0.20311892 -0.16931468 0.1497207 0.17646305
0000c0 c6 d6 82 be 5c 28 00 3f 38 79 63 be 5a ac 1b 3e
       -0.25554484 0.50061584 -0.2221421 0.15202466
0000d0 0d 77 7c bd 2f 66 2c be f2 16 1a be f0 55 df ba
       -0.061636973 -0.16835855 -0.15047815 -0.0017039161
0000e0 16 cf 75 3e 88 db 46 3e 6e 11 ae be 99 bb 33 be
       0.24004778 0.19419682 -0.33997673 -0.17552032
0000f0 72 b2 ee 3e 05 07 74 3d 86 9b e6 be 25 50 13 3e
       0.46620518 0.059577007 -0.4504053 0.14386041

local_mlp.2.weight f4 [256, 64]
000000 e0 51 c0 bc 8d 3a 3d 3d bd 23 32 be 07 d2 13 be
       -0.023476541 0.046198417 -0.17396446 -0.14435588
000010 21 66 4e 3c 1f 1e 33 3d 61 d2 0d bf aa d7 dd 3d
       0.012597592 0.043729898 -0.5539914 0.1083215
000020 1b bb ed be 7b 12 34 bf 10 bd df be 6c a6 11 bf
       -0.46431813 -0.703407 -0.4369893 -0.56894565
000030 d9 49 0c be 68 bd 46 be 4a d2 11 bd 86 c3 dd be
       -0.13700046 -0.1940819 -0.035600938 -0.43313235
000040 d2 92 2d 3d 4b b4 71 bf c0 bc 80 be 08 7e 41 3d
       0.042376347 -0.9441573 -0.25144005 0.047239333
000050 ef 81 dc 3e bd 32 32 be f9 23 9a be 01 9f 62 3e
       0.4306788 -0.17402168 -0.3010557 0.22130968
000060 f6 88 4e 3e e8 12 fe be f7 9a cf 3d 0c 9b 47 3d
       0.20169434 -0.496238 0.10136979 0.04873185
000070 81 34 34 be 47 ae 9c be 4a 3a ba 3d bd 42 03 bf
       -0.17598154 -0.30601713 0.09093149 -0.5127371
000080 24 e3 c1 3d b6 5a 89 3c 44 e8 26 be 70 20 46 3e
       0.09467152 0.016766887 -0.1629954 0.19348311
000090 a3 57 3e be 7a 8f fb be 7e 38 44 be 6a 38 75 bf
       -0.18588118 -0.491329 -0.19162175 -0.95789206
0000a0 f4 66 0d bf 1d 81 7d be e5 b3 89 be 01 3b fb be
       -0.5523522 -0.24756284 -0.2689506 -0.49068454
0000b0 6f a0 0e bd e8 6f f9 3d 24 c4 de be 7b 26 f8 be
       -0.03482097 0.121795475 -0.43509018 -0.48466858
0000c0 fb 60 c8 3d 3e c2 bd be 68 c4 3f 3e 0e 9c ec 3d
       0.097841226 -0.37062258 0.18727267 0.115532026
0000d0 2a 17 80 be b4 aa 2a be 41 d1 a7 3e 95 dd 21 3e
       -0.25017673 -0.1666668 0.32776836 0.15807183
0000e0 7f 48 c0 be 12 a3 c3 be c9 75 53 be 8f d2 ae bd
       -0.3755531 -0.3821035 -0.206504 -0.085362546
0000f0 c4 fc 1e bd e6 00 8c be 1f 0a d8 be a3 7d 2b 3f
       -0.038815275 -0.27344435 -0.42195222 0.6698858
000100 a2 93 1c 3d 27 0c 9d 3d af 3d 1b 3e 18 e7 7d 3e
       0.03822673 0.076683335 0.15160249 0.24795187
000110 18 33 81 3d fb e6 83 3e 5f b2 b2 bd fc fe e4 3d
       0.063085735 0.25762162 -0.08725428 0.11181447
000120 4b e7 ec 3d cd a7 90 bc b7 ef 51 bc 81 9f f8 3d
       0.11567553 -0.017658139 -0.0128135 0.12139798
000130 a9 ec b6 3d 23 e6 e6 3d ad 71 81 3e 8b 4a be bc
       0.08931858 0.11274364 0.2528204 -0.023228904
000140 76 46 80 3e fb 2b 89 3e fa f0 3d 3e 55 ba 7c 3e
       0.25053757 0.26791367 0.18548957 0.24680455
000150 70 e7 b6 be 10 3a d4 3b 01 0b af bd 4c d3 a1 3d
       -0.35723448 0.006476648 -0.08547021 0.0790163
000160 08 d1 03 3d 5b c6 58 bd 7a f2 aa 3d 34 05 1d 3e
       0.03218177 -0.05292354 0.0834703 0.15334016
000170 4f f0 45 bd 17 23 bd 3d 6a 87 6f 3d de f0 09 bb
       -0.04832488 0.092352085 0.05847875 -0.002104811
000180 2a 9e d5 3d 5f 84 9f 3d 32 c5 40 3d 46 89 48 3d
       0.10430558 0.0778892 0.04706306 0.04895904
000190 22 da 9e 3d 47 da 66 3e 3f 8e 47 3c 85 42 37 3e
       0.07756449 0.22544204 0.01217991 0.17896469
0001a0 65 d0 e4 3c c2 e3 62 3e 21 6a 6d bd c3 4b d5 3c
       0.027931402 0.22157195 -0.05796254 0.026037103
0001b0 47 bc f7 3c c9 e0 b9 3d 68 36 d5 bc 3e 77 0c 3d
       0.030241145 0.090760775 -0.02602692 0.034293406
0001c0 14 c7 03 3d 4c d6 5a 3e c7 72 91 3d 7d 57 fc 3d
       0.032172278 0.2137081 0.0710197 0.123213746
0001d0 13 74 a4 3d 5a 8b 9f 3d 51 38 01 3e ab 6a 99 3b
       0.08029952 0.07790251 0.12619139 0.0046819053
0001e0 72 1d a9 bd e9 cc 57 3c fc 85 47 bd 1a 07 df 3d
       -0.082575694 0.013171413 -0.04871176 0.108900264
0001f0 bd b0 5e 3e 48 b4 20 bd e9 7c 51 bc a4 c3 39 be
       0.21747108 -0.03923443 -0.012786129 -0.18141037
000200 93 24 8b 3d f0 c0 0f be aa d7 af bc 7d 30 3b be
       0.06794085 -0.14038444 -0.021465141 -0.18280216
000210 e3 41 80 bd 9e 2b 8b be 12 bc 81 bd 7c af 08 be
       -0.06262567 -0.27181715 -0.063347 -0.13348192
000220 be f8 2f bd 3b 66 19 3e cd d9 04 3e 96 72 20 be
       -0.04296183 0.14980404 0.1297371 -0.15668711
000230 b6 8a ae bd 1d 25 b8 bd e6 64 71 be dc 9d 9b 3d
       -0.08522551 -0.08991454 -0.23573646 0.07598469
000240 68 75 59 be 43 68 ec 3d 07 b9 51 be 0e b4 67 be
       -0.21236193 0.11543324 -0.20480739 -0.22627279
000250 15 c9 c1 be a8 97 18 bd 82 39 13 be f9 79 7e 3d
       -0.37848726 -0.037254006 -0.14377406 0.06212804
000260 24 df b4 bc 33 48 a6 bd a8 c4 17 be b1 da 1b be
       -0.022079058 -0.0811924 -0.14821112 -0.15220143
000270 ca e2 d6 bc 28 1a db bd 11 8f 71 be ff 32 14 3e
       -0.026231188 -0.10698348 -0.23589732 0.14472578
000280 1c 0f 19 be a7 3d 02 be 6d d8 c5 bc e4 4f e1 3d
       -0.1494717 -0.12718831 -0.024151051 0.11001566
000290 66 dd 97 bd 7c 19 46 be 50 98 f1 bc 76 ef 08 be
       -0.07415275 -0.19345659 -0.029491574 -0.13372597
0002a0 9d 99 ae 3d f7 6f 83 be b2 e4 73 3d ed 4c d9 3d
       0.08525393 -0.2567136 0.059544273 0.106103756
0002b0 8f 1f 4f bd f5 eb 3d be 0b b6 b6 bd 30 d2 00 3e
       -0.050567206 -0.18547042 -0.08921441 0.1258018
0002c0 4c ff b4 3c 4d e8 5f be 49 67 41 be ad 8d da bd
       0.022094391 -0.2186596 -0.18887056 -0.10671554
0002d0 44 4b 82 bd 9d 08 93 bc 1c 62 67 3d 9d 8c 12 bd
       -0.06362012 -0.017948443 0.05649005 -0.03577863
0002e0 a5 c5 3c 3e f5 16 d6 bc bd e2 11 be a6 50 af bd
       0.1843477 -0.026133994 -0.1424665 -0.08560304
0002f0 24 9e 8a be f7 b6 48 bd 0a 9c 2c bd 99 51 89 bf
       -0.27073777 -0.049002614 -0.042140998 -1.0728027
000300 b9 48 4b 3e 40 b9 b1 3d 00 c2 ec 3d 4a 2a 06 3e
       0.1985196 0.08677912 0.1156044 0.1310207
000310 de d1 b7 3d 44 a6 04 3e 45 61 b9 bc 3e 7f 99 3d
       0.08975576 0.1295405 -0.02262939 0.07494973
000320 8c 80 a3 3d 24 0a 14 3d 62 fe c1 3d 9b b3 1c 3e
       0.07983503 0.036142483 0.09472348 0.15302889
000330 bf 16 c1 3d 06 10 85 3d ee 5f 60 3d 2a 9e ca 3c
       0.094281666 0.06497197 0.054778986 0.024733622
000340 ea a9 cb 3d cc 52 1f 3e e9 1b 8a 3d ff 74 1f 3e
       0.09944518 0.15558928 0.06743605 0.15571974
000350 fc 6b 3c be 68 41 1a 3e 35 a4 7a bd 3e 5e 91 3e
       -0.18400568 0.15064013 -0.061191756 0.28392214
000360 80 5e cc 3c 54 3e 35 bc 85 41 96 3d 76 37 18 3e
       0.024947405 -0.011062223 0.073367156 0.14864907
000370 c2 27 de 3c e8 23 34 3e 3f 31 9f 3c 58 22 fb 3c
       0.027118567 0.17591822 0.019432662 0.030656025
000380 94 88 5b 3d 03 81 bf 3d a3 03 52 3e 43 07 98 3d
       0.053597048 0.09350779 0.205092 0.0742326
000390 0b 0b b8 3d 92 28 a3 3d 8b ba 0f 3e 3e 62 6e 3d
       0.08986481 0.079667225 0.14036004 0.05819916
0003a0 a5 d7 9a 3d 52 b6 fa 3d f9 cc 84 3d 26 27 22 3e
       0.07560662 0.12241806 0.06484408 0.15835246
0003b0 68 0b f4 3c 63 16 ab 3d 3b ac dd bc 19 52 20 3e
       0.029790595 0.08353879 -0.027059665 0.15656318
0003c0 7e 77 b4 3d 8b ea 8b 3d 85 83 7b 3d a7 a7 02 3d
       0.08811854 0.06831845 0.061404724 0.031898167
0003d0 78 48 fb 3d 2e f4 c0 3d db 7d 0e 3d ee 21 e4 3b
       0.12269682 0.094215736 0.034787994 0.0069620525
0003e0 35 c4 d9 3d b3 15 d4 3a b8 43 81 bd db 00 39 3d
       0.10633127 0.0016180783 -0.063117445 0.04516683
0003f0 5e dd e7 3d 45 89 0e bd 60 a9 34 3e 3c 30 9d bd
       0.11321519 -0.03479888 0.17642736 -0.076752156

local_mlp.2.bias f4 [256]
000000 79 0a bc be e2 51 b6 3d 78 bd 62 3c 77 e6 59 3d
       -0.3672674 0.08902337 0.013839118 0.053198304
000010 d9 ae 83 be a2 6c 49 3d 14 d2 9e be 25 57 8d be
       -0.25719336 0.049175866 -0.31019652 -0.27605549
000020 2c 8d 38 be 7c 80 f2 bc d9 a3 d7 be e3 ab 86 3e
       -0.18022603 -0.029602282 -0.42117193 0.26303014
000030 41 ca 97 bc ab ec 84 be 2c e4 ef 3d 1b 61 6a be
       -0.01852906 -0.25961813 0.11713442 -0.22888605
000040 88 7d 68 be 45 39 a1 be 29 79 99 bd 6c a7 85 be
       -0.22704136 -0.31489006 -0.074938126 -0.26104295
000050 bc 19 5e be 87 2f 97 be 29 7f aa bd 2b 11 41 3e
       -0.21689504 -0.29528448 -0.08325035 0.18854205
000060 2d d6 ed bd 1e 87 a1 3b 0d fe b2 3d 0b 6d 5b 3d
       -0.116131164 0.0049294373 0.087398626 0.05357079
000070 06 80 ed be df 83 80 be ac c7 9f be 5c 0e 2e 3d
       -0.46386737 -0.2510061 -0.31207025 0.042494163
000080 9a 63 fc 3d ee 8f 87 be d7 cd dc be 70 05 78 bd
       0.12323685 -0.26476997 -0.43125793 -0.06055206
000090 f4 9b 92 3c 11 89 86 be 1a 41 ec 3b 3e 01 78 be
       0.01789663 -0.26276448 0.007209909 -0.24219224
0000a0 eb 46 e8 3d 96 f7 e1 be 00 af 7a be 00 90 9c 3c
       0.113416515 -0.44134206 -0.2448082 0.019111633
0000b0 c8 d0 85 bc 6e 66 e4 3c a8 6b d9 3d 2e d3 65 be
       -0.016334906 0.027880874 0.10616237 -0.2244384
0000c0 8a b4 cd bd b0 d3 5e 3d 0d 8a 64 be f7 1d c5 be
       -0.10044201 0.0544011 -0.22318287 -0.38499424
0000d0 24 15 e2 bd 41 0a 7f be 7a 63 84 be 16 48 6c be
       -0.110391885 -0.24906255 -0.25857145 -0.23074374
0000e0 c2 0a 90 3d ed 74 ef 3d a9 8c 38 be 9c 4b b4 bc
       0.07033302 0.11692224 -0.18022408 -0.02200871
0000f0 0c ab 3f 3e b4 2c 99 bd e1 96 1d be 3f 96 5c be
       0.18717593 -0.074792296 -0.15389587 -0.2154169
000100 00 b0 43 be 5f 7b 6a be 47 7e 21 3e 87 7c 9e 3d
       -0.19110107 -0.22898625 0.15770827 0.077385955
000110 f5 b0 4f be 55 7a 3b be f6 e5 48 bd 50 d3 84 be
       -0.20282348 -0.18308385 -0.049047433 -0.2594247
000120 83 7f bc 3d f6 1b 67 be ee d6 96 3c 39 a2 51 3d
       0.092040084 -0.2256926 0.018413033 0.0511801
000130 f4 ed 44 be bc 3f 8d be 8d 3c 5f be 27 53 8f bd
       -0.19231397 -0.27587688 -0.21800442 -0.06998282
000140 0b e2 85 bc c9 e5 60 3d fa 72 34 be cc 6f 89 be
       -0.016343137 0.05490664 -0.17621985 -0.26843107
000150 30 72 1e be 49 25 67 3d 69 87 67 be 5a e2 40 be
       -0.15473247 0.056432042 -0.22610249 -0.18836346
000160 89 a0 9c be 4c 1d aa bd 2f f9 1e be 8c 32 41 be
       -0.3059123 -0.08306369 -0.15524743 -0.18866938
000170 0a 8f 11 3e c4 67 9e 3d af 72 9a 3c 4f b0 01 be
       0.14214721 0.077346355 0.018853514 -0.12664913
000180 a7 9d 98 be 2d e1 e7 be 73 f7 88 be 3b 59 ba 3d
       -0.2980778 -0.45288983 -0.2675129 0.090990506
000190 ad 6f 48 be c6 55 08 3e e0 eb 53 be aa 63 c5 bd
       -0.19573851 0.1331397 -0.20695448 -0.0963815
0001a0 23 cd 4e 3d 9f 3b e8 bd 46 74 ca be 25 b5 02 3e
       0.050488602 -0.11339497 -0.39541835 0.12764414
0001b0 12 e8 22 be 9f 45 80 3d 64 a9 0c be 13 e5 f1 be
       -0.1590884 0.06263279 -0.13736492 -0.47245082
0001c0 36 b2 30 be e9 48 07 bd d7 cd 8e be 03 01 62 3d
       -0.17255482 -0.033028517 -0.27891418 0.055176746
0001d0 59 b0 73 be d7 20 9a be ef 8e 64 3d ec db 8f be
       -0.2379774 -0.3010318 0.055800375 -0.28097475
0001e0 f6 df e2 bc 36 c9 20 bc e3 30 75 bd 74 a9 e0 bc
       -0.027694684 -0.009813597 -0.059861075 -0.027424552
0001f0 05 8c 51 be ce 43 41 3d 19 6d 80 be 78 b6 50 be
       -0.2046357 0.047183804 -0.25083235 -0.20382106
000200 f4 f2 3d be 23 bd 46 bd 32 cc b5 bc 91 b7 58 be
       -0.1854971 -0.04852022 -0.022192094 -0.21163775
000210 6f 45 90 be 77 76 f5 3d 5c d0 87 3d ed 20 8d be
       -0.28177974 0.11985486 0.06631538 -0.27564183
000220 00 69 77 be 93 44 87 3d 10 62 9e be 14 6d 1f bd
       -0.24161148 0.06604876 -0.3093419 -0.038922384
000230 d1 cc d9 3d 14 75 23 3e 88 3b 83 be 5c b7 3f 3d
       0.10634769 0.1596263 -0.25631356 0.046805725
000240 3b 80 81 be da eb 8a 3d 73 8c 22 3e 08 15 a1 3d
       -0.25293145 0.06783266 0.1587389 0.078653395
000250 88 af 54 3d ef f7 c5 be f3 c0 0c 3e da 5a 85 bd
       0.051925212 -0.3866572 0.1374548 -0.06511469
000260 15 63 cc 3d 1b e5 9d be a7 9e 17 be 14 0a 2e be
       0.09979836 -0.30838856 -0.14806615 -0.16996032
000270 fb 22 07 3e ef d4 d6 bd b3 ae 8f 3c 69 45 d3 3d
       0.13196938 -0.104898326 0.017539358 0.10315973
000280 35 44 72 3d 44 95 a1 bd d2 d2 8a be 04 8c 84 be
       0.05914708 -0.07889798 -0.27113968 -0.25888073
000290 d0 d0 11 be 0e f2 9b be a5 6b 08 3e 08 54 a2 3d
       -0.14239812 -0.3045811 0.13322313 0.07926184
0002a0 c5 da 02 be ad d1 b6 bd dd e8 10 3e 44 82 b4 3d
       -0.12778766 -0.08926711 0.1415133 0.08813909
0002b0 93 88 7a be 80 e4 83 be b6 4e 92 be 96 ff 95 bc
       -0.24466161 -0.2576027 -0.28575677 -0.01831035
0002c0 ed af 17 be d1 d2 d5 be 28 67 86 be 55 e7 0d be
       -0.14813204 -0.41762403 -0.26250577 -0.13857777
0002d0 83 d3 80 be e4 4f 90 3d 24 d5 7b be 3f 47 3e 3d
       -0.2516137 0.07046488 -0.24593025 0.046454664
0002e0 50 0d d1 be 67 21 6f 3e f4 c7 84 be 36 0d dc 3d
       -0.4083047 0.23352586 -0.25933802 0.10744707
0002f0 8f 04 27 be 89 d7 84 3c e2 46 98 bd a3 28 2c be
       -0.16310333 0.016216056 -0.07435395 -0.16812377
000300 bf 38 50 bd 88 43 56 bc d7 54 0f bd e7 7d 16 be
       -0.050835367 -0.013077624 -0.03499302 -0.14696465
000310 05 64 62 be 4b 34 21 3e 55 6c 2d 3d 60 21 8e be
       -0.22108467 0.15742604 0.04233964 -0.27759838
000320 76 d1 2e bd 97 1b 0e 3e b3 fd 33 be fb 77 55 be
       -0.042680226 0.13877712 -0.17577247 -0.2084655
000330 c5 0a 11 3e 8f 36 2e 3c e6 46 e2 bc b4 3f e5 be
       0.14164265 0.010633125 -0.027621698 -0.44775164
000340 78 33 ae bd b6 0b b7 be b0 bc 20 3d 41 5f 0c be
       -0.08505911 -0.35751122 0.039242446 -0.13708211
000350 91 b2 c4 bd 3c c5 be be 1f 7d 66 be 21 72 45 3d
       -0.09604371 -0.37259853 -0.22508667 0.048204545
000360 c7 ed 94 be dd cf a0 3d 0c 3b ba 3d 51 69 8b be
       -0.2908766 0.07852147 0.090932935 -0.27228788
000370 c9 1b cc be a5 51 81 be fd f8 99 be 0d f1 96 be
       -0.39864948 -0.25257602 -0.30072775 -0.29480782
000380 1e 0c 43 be 5c 95 74 be 02 d6 36 be 96 e7 d1 3d
       -0.19047591 -0.23885101 -0.17855075 0.1024925
000390 33 67 4d be fc 20 b4 be cb 65 3b bc 27 6a a8 bd
       -0.20058899 -0.35181415 -0.011437844 -0.08223372
0003a0 dd ff 02 be 34 e9 33 bd d4 61 d6 be 0d f5 7f be
       -0.12792917 -0.04392357 -0.41871512 -0.24995823
0003b0 35 dc 42 be 42 01 c4 bd d2 27 e3 bd 30 da a4 3d
       -0.19029315 -0.095705524 -0.110915795 0.080494285
0003c0 59 20 6b 3c b5 a4 23 be 15 02 e3 3c aa fa cf 3c
       0.014350974 -0.159808 0.027710954 0.02538808
0003d0 0a 2a 5c 3d 8a 19 6a be fc 2e 2f be 0e e8 3e be
       0.05375103 -0.22861305 -0.17107767 -0.1864321
0003e0 8e 1d e2 be c1 52 09 3e 30 16 f0 3c 61 2d 4e bc
       -0.44163173 0.13410474 0.029307455 -0.012584061
0003f0 ca 96 79 be 27 d8 92 3d c8 5d 86 be 81 21 cd 3d
       -0.24373928 0.07170134 -0.26243424 0.10016156

output_mlp.0.weight f4 [128, 512]
000000 6b f9 53 3e 21 c6 66 3e f9 d4 b0 3b ba 49 84 3e
       0.20700614 0.22536518 0.005396482 0.258375
000010 b4 f3 be bd 7e 0f 87 3e a8 5c d3 3d 2a a8 1e be
       -0.093238264 0.26379007 0.10320407 -0.15493837
000020 22 42 52 3d 91 99 db 3d 94 65 a3 3e dc d8 da bd
       0.0513326 0.1072265 0.31913435 -0.10685894
000030 08 da a5 bd 49 3d 05 bc f7 a1 81 3e 1e 6a 69 3e
       -0.08098227 -0.008132287 0.25318882 0.22794387
000040 70 58 54 bd 24 d4 6b bd a2 40 31 be d0 fa 4b bc
       -0.051842153 -0.05757536 -0.17309812 -0.012449935
000050 d2 3c f6 3c d4 ce 20 3e f1 e8 51 3c b5 22 29 3e
       0.030058298 0.15703899 0.012811885 0.16517146
000060 ba 65 8d bd d0 f5 a9 3c 7c 4f f5 3d 35 dd f4 3d
       -0.069041684 0.020747095 0.11978051 0.119562544
000070 45 7d 1b be fc c7 c5 3c 2b 50 d7 bc 25 01 0f be
       -0.15184505 0.024143212 -0.026283344 -0.1396528
000080 80 7e 8f 3d 40 17 7f 3d 54 0c 8d 3e 47 de 33 be
       0.0700655 0.062278032 0.27548468 -0.17565261
000090 4a 16 99 3d 57 1d 83 3d 1b 61 09 be 8d 87 b3 3d
       0.074749544 0.064020805 -0.13415949 0.08766089
0000a0 4a c8 8a 3b 74 82 cf bd 84 56 a3 bd b1 ea 9d 3e
       0.004235302 -0.10132304 -0.07975486 0.30843118
0000b0 0b d3 4d 3d 00 ad 09 3d 68 b6 f9 3d cc d1 be bc
       0.050250094 0.03361225 0.12192994 -0.023293398
0000c0 61 ca 3c be 10 43 98 3c a6 fe 79 3e ec 02 92 3e
       -0.18436576 0.018586665 0.24413547 0.28517854
0000d0 9a 36 cd bc 3f aa c9 bc 16 55 de bc 50 b7 f9 3b
       -0.02505045 -0.024617312 -0.027140182 0.0076207295
0000e0 b5 86 b2 bd b1 54 8f 3e 14 d6 87 3e b5 0a 80 3d
       -0.087170996 0.27994302 0.26530516 0.06252042
0000f0 0e 62 fe bc ed c4 0b 3e b0 0b 39 be d0 85 74 3d
       -0.031052615 0.1364934 -0.18070865 0.059697926
000100 dc 85 86 3d c5 20 6e be 72 2e 8e 3e 52 83 96 3e
       0.065685004 -0.23254688 0.2776981 0.29397064
000110 b0 78 84 3c 2b 6c d8 3d d7 c2 ff bd 46 f0 0a be
       0.01617083 0.105675064 -0.124883346 -0.1356822
000120 68 50 74 3e 3a b4 40 3c c4 51 a2 3d c1 68 8e 3e
       0.23858798 0.011761719 0.07925752 0.27814296
000130 69 20 8d ba 1c 61 93 3e 37 9c 2c bd 15 5c 9e 3d
       -0.0010767105 0.28785026 -0.042141166 0.07732407
000140 33 e5 28 3e b3 53 58 3e 04 9d e4 bc ac b2 16 be
       0.16493683 0.21125679 -0.027906902 -0.14716595
000150 c4 ed 89 3d 15 de 55 bd 08 ab 80 3d 45 65 3b bc
       0.06734803 -0.052213747 0.062826216 -0.011437719
000160 e6 2f 64 bd 3c a1 18 bd 5d c3 80 3d 60 6d 3b be
       -0.055709742 -0.03726314 0.062872626 -0.18303442
000170 ec 73 e5 3d 1f ca 98 3e 9d f5 81 3d 72 cd a5 3d
       0.11203751 0.29841706 0.06345675 0.08095826
000180 d2 4f 0b be d1 17 ea bd 51 d3 de 3d c7 cb 3c 3e
       -0.13604668 -0.11430324 0.10880149 0.1843711
000190 8a b7 77 3e 0c 5b 16 3e c5 a4 84 3e 69 21 41 be
       0.24191108 0.14683169 0.2590696 -0.18860401
0001a0 a6 31 8d 3e a9 ae 7f be 95 5d cc bd 19 90 24 be
       0.2757694 -0.24968971 -0.09978787 -0.16070594
0001b0 a4 41 d6 3d 67 3d d6 3d b2 d3 ba 3d 7e 05 2f be
       0.10461739 0.1046093 0.09122409 -0.17091939
0001c0 ba 6c 14 bd e1 5d 7c be 01 2c 8b 3c 35 58 24 be
       -0.036236502 -0.24645187 0.016988756 -0.16049273
0001d0 38 78 22 3d 98 b2 27 bc a3 4a 89 3e 97 e5 c1 3c
       0.03966543 -0.010235451 0.26814756 0.023669047
0001e0 7b c0 9e bd 1e 13 0e 3c 64 5c 81 bc 4b 7e 89 bd
       -0.077515565 0.00867155 -0.015791126 -0.067135416
0001f0 6c e1 08 3d be a9 9e 3e 70 6d 94 be 94 29 fc 3d
       0.033418104 0.30988878 -0.28989744 0.12312618
000200 6b c6 17 be f1 c2 3f bd c5 8b 59 be c7 eb c2 3c
       -0.14821784 -0.04681677 -0.21244724 0.023794068
000210 a4 f4 ca 3d d1 65 55 3e 93 ea 37 bd 47 74 a2 bd
       0.09909943 0.20839621 -0.04490144 -0.079323344
000220 c5 31 71 bd 08 ab 36 be 75 76 f4 3d 07 46 64 3d
       -0.058885355 -0.1783868 0.119366564 0.055730846
000230 c2 e6 a1 3e 77 6b 3f be 32 3f 45 3e 79 1b 13 3e
       0.31621367 -0.18693338 0.19262388 0.14365949
000240 51 8d 82 3e 52 34 84 3e 9a 36 0c 3e 1d dc 57 bc
       0.2549844 0.25821167 0.13692704 -0.013175038
000250 29 26 3d 3d ed 39 81 bd 11 b8 1c 3e 3b 4f 52 bd
       0.04617897 -0.063098766 0.15304591 -0.05134509
000260 5d d1 91 3e be 67 6e 3d ab 74 bc bc f5 bc 78 bd
       0.28480044 0.058204405 -0.02300485 -0.06072708
000270 83 73 b3 3e 77 9c ca bc 8e f4 5a 3d ed c9 76 3e
       0.35049066 -0.024732811 0.05345588 0.24100466
000280 9d f0 7d 3e 61 59 b6 3d 95 cf 06 3d 20 53 d1 3c
       0.24798818 0.089037664 0.03291281 0.025552332
000290 82 06 d0 3c 07 65 81 3d 12 fb 9a bd 57 9b 88 3e
       0.025393728 0.063180976 -0.07567419 0.26681015
0002a0 d4 cd 8b 3d 19 b5 3c 3d 49 c1 e6 3d 53 44 85 3b
       0.06826368 0.046071146 0.11267335 0.004066983
0002b0 ba f0 81 3b 0a 2c 22 be a3 7f 99 3d 38 68 05 3d
       0.0039654644 -0.15837112 0.07495048 0.032570094
0002c0 01 08 c4 bc 0a 31 8a 3e 4a e2 61 be 16 de 03 3e
       -0.023929598 0.2699054 -0.22058979 0.12877688
0002d0 9b 86 57 be f7 cb a5 bc 18 4f a0 bd 3b 78 5a be
       -0.21047442 -0.02023886 -0.07827586 -0.21334927
0002e0 b6 9c 87 bb dc 81 6f 3e d9 d0 98 3d 9e 2c d5 bd
       -0.0041385544 0.23389381 0.074617095 -0.10408901
0002f0 4f 1b bb bd f1 24 14 3a 64 dd 8b bd f3 3f 04 be
       -0.09136068 0.00056512567 -0.06829336 -0.1291502
000300 4b d1 4a 3e 3c 2e a0 bd 16 6e 01 3c 4d 8a 32 be
       0.19806401 -0.078213185 0.007899782 -0.1743557
000310 25 1e 37 3d 27 bf dc 3d 9c 96 ac bb c2 da 5e 3e
       0.044706482 0.10778647 -0.0052669775 0.21763137
000320 47 05 6d bd 7a 02 0d 3e 85 c1 1c be 8f 93 55 3e
       -0.05786636 0.13770476 -0.15308197 0.2085707
000330 e4 e9 24 3b 00 18 34 3e 9c e0 6c 3d b9 98 de bd
       0.0025163824 0.1758728 0.05783139 -0.10868973
000340 6b c1 53 be 34 71 ec 3c 50 a1 6c 3e 05 49 1f bd
       -0.20679252 0.028862573 0.23108411 -0.038887996
000350 52 c5 80 3d 63 ac 51 bd 04 3b 67 bd 3f e9 91 3e
       0.06287636 -0.05118979 -0.056452766 0.28498265
000360 a9 21 7a 3d 0d 29 82 3e 53 54 26 bd ef d3 46 bc
       0.061067257 0.25421944 -0.04060776 -0.01213549
000370 fc fa 49 be a3 ba 9b bd 47 e1 42 3e 14 de 82 3e
       -0.19724649 -0.076039575 0.19031249 0.25560057
000380 67 f6 07 be 3b 1a 17 be 9a b2 89 3e a0 4c 3a 3e
       -0.13277589 -0.147561 0.26894075 0.18193293
000390 d3 57 d6 3b e1 95 37 be 22 57 2f 3d 9c 22 2f bc
       0.006541231 -0.17928268 0.042807706 -0.010689404
0003a0 77 f4 66 3d 2c cb 05 bd 0a 91 11 be d3 7f b6 3d
       0.056385484 -0.032664463 -0.14215484 0.08911099
0003b0 03 d7 32 3d c8 3b 65 be 2e d6 50 be 9e 6c 5b 3e
       0.043662082 -0.22386086 -0.20394203 0.21428153
0003c0 05 08 3d bd 3d 42 4d 3d 6e 72 73 3e 90 d5 1d 3b
       -0.046150226 0.050111998 0.2377412 0.0024083592
0003d0 fe e3 8f 3d 56 d4 6c 3c 94 67 12 3d f0 88 80 3e
       0.07025908 0.014454922 0.03574331 0.25104475
0003e0 93 70 54 be 19 59 81 3e 03 dd ad 3d 49 8d 38 be
       -0.20746069 0.2526329 0.0848942 -0.18022646
0003f0 3f 64 20 bd 5c 96 8a 3d 8d ec 87 3d cb 6d 88 3e
       -0.039158102 0.0676696 0.06636915 0.26646265

output_mlp.0.bias f4 [128]
000000 93 47 a7 bb 65 c9 14 bd 38 b4 5a 3d 8a 8d 85 3d
       -0.005104968 -0.036324877 0.053394526 0.06521137
000010 09 6d 16 3c d5 4c 7d bd a1 40 b7 bd 8a 5c a0 bd
       0.009181269 -0.06184085 -0.08947874 -0.078301504
000020 62 cf f4 3d dd 16 26 be 9a 32 1c 3d f7 55 91 bd
       0.11953618 -0.16219659 0.038134195 -0.070964746
000030 3f e3 37 3c 63 fc 70 3e 44 89 47 3c 6e af fd bd
       0.011223613 0.23533778 0.012178723 -0.12386976
000040 3c b0 9b bd dd fe 94 3d b2 0f 3c 3d 31 ac a0 3e
       -0.076019734 0.07275174 0.045913406 0.31381372
000050 71 00 22 3d a4 80 0f bd 77 ab 97 bd 00 00 24 be
       0.039551202 -0.03503479 -0.07405751 -0.16015625
000060 79 c0 ef bc b9 ea 2a be 5b 04 a2 3e bc b5 02 be
       -0.029266583 -0.16691102 0.31643948 -0.12764639
000070 9a 57 d1 3d d3 05 56 3e 80 1d ab bd 85 76 bc bd
       0.10221787 0.2090066 -0.08355236 -0.09202293
000080 45 64 39 3e 3a fd fb 3d 37 f9 64 bd 9b fe 95 3b
       0.18104656 0.123041585 -0.055901732 0.0045774705
000090 f4 96 e3 bd 33 77 bc 3e a5 ea d1 3d 28 50 b9 3c
       -0.111127764 0.36809692 0.10249833 0.02262123
0000a0 7c 0f 36 3e 7b df 3b 3e 45 f0 e0 bc 9d a5 a0 bc
       0.17779344 0.1834697 -0.02745832 -0.01961022
0000b0 0e 12 7b 3c 7a bd 27 3b 9f 27 04 3e 9f 51 41 3c
       0.015324129 0.0025595115 0.12905739 0.011799245
0000c0 06 39 c9 3e 21 c6 59 3e 35 c8 2f 3e 93 b2 1b 3d
       0.39301318 0.21266986 0.17166217 0.0380121
0000d0 57 78 b0 bd e1 5e 85 3d 11 c6 2b 3e 97 9e 75 bc
       -0.08616703 0.06512237 0.16774775 -0.014991424
0000e0 8e 60 53 3d af 75 e2 bd 43 01 a7 3d e9 80 d1 be
       0.051605754 -0.110576026 0.081545375 -0.40918663
0000f0 80 70 b5 3c 21 ce 1d 3d e8 98 e1 bd 07 df ac 3e
       0.02214837 0.038526658 -0.11015493 0.33763906
000100 04 22 12 3c c1 79 12 3e 6c b5 bd 3c 7f 3e 8b 3e
       0.008919243 0.14304258 0.023157798 0.27196118
000110 dc 5f 9d bd 33 13 8e 3d b5 ef 52 3d 44 7d bb bd
       -0.07684299 0.06937256 0.051498134 -0.09154752
000120 c6 ed bc bc 41 e2 80 3d 68 1e 95 bd df de 97 3e
       -0.023062598 0.062931545 -0.0728119 0.29662225
000130 7b f1 9c 3c 0b 06 c5 3e 4a da 6e 3d 87 96 69 3e
       0.019158116 0.38481173 0.058313645 0.22811328
000140 3e 62 42 be b6 05 10 bd 70 3c 4f bd 65 f3 9a bd
       -0.18982789 -0.035161696 -0.050594747 -0.07565955
000150 00 29 73 3e 5c 9a 6d bd 2f 27 33 3d 48 41 75 3d
       0.23746109 -0.058008537 0.04373854 0.05987671
000160 65 c2 c4 3d bf 5c c0 3e 0c 39 99 3d 58 47 2d be
       0.0960739 0.3757076 0.07481584 -0.16921747
000170 83 7e 26 39 97 63 83 3d bd 56 4e bd 17 05 88 bd
       0.00015878123 0.0641548 -0.05037569 -0.06641596
000180 ba ba b7 3e 67 f9 1d bd f4 63 24 be ac 04 b3 3c
       0.3588465 -0.038567927 -0.16053754 0.021852814
000190 6b 60 bc 3d bf 27 bf bd f4 e4 01 be e9 a1 2d 3d
       0.09198078 -0.09333753 -0.12684995 0.042390738
0001a0 11 3f b0 3d e9 75 b2 3c 94 27 b7 bd 94 3f 6e 3e
       0.08605779 0.02178474 -0.08943096 0.2326644
0001b0 1c 6b d1 bd 37 46 86 3b 0b 0e b6 3e 46 80 0d 3e
       -0.102255076 0.0040977257 0.3555759 0.13818464
0001c0 15 64 26 bd ed 7b 3e 3c d4 c9 97 be df 3b 7c 3d
       -0.04062279 0.011626226 -0.2964617 0.061580535
0001d0 3e 83 7b bd 3b 2f 00 3d 86 1b 06 3e b7 bf 87 3d
       -0.06140446 0.031295042 0.13096437 0.066283636
0001e0 ba 84 19 3d bc de 07 3d dd 0f 4f ba 82 56 68 3a
       0.037480094 0.0331714 -0.0007898787 0.00088629883
0001f0 57 2a a7 3c f2 8a 96 3c 25 b0 b0 3d cd 18 c1 3d
       0.020405931 0.018376801 0.08627347 0.094285585

output_mlp.2.weight f4 [9, 128]
000000 bf d8 87 40 1e bb e0 3d 6d cd 52 bf d0 f5 f0 3f
       4.2452083 0.1097319 -0.82344705 1.8825016
000010 cd 1e b8 bd fc 93 18 40 b8 a6 b1 3f 2f 85 ad 3f
       -0.0899025 2.3840322 1.3879004 1.355627
000020 0c 23 1b 3d 03 de 65 3f b1 89 1e be d4 11 a5 3f
       0.03787522 0.8979189 -0.15482213 1.2896066
000030 2a f0 18 3f 33 c4 62 3f 6b fb dc 3c 03 c3 b3 3e
       0.5974146 0.88580626 0.026975354 0.3510972
000040 63 d5 af 3f 26 90 c9 be fe ac b3 3e 03 54 aa be
       1.3736995 -0.3936779 0.3509292 -0.3326722
000050 14 c6 28 3f c6 af 52 be fe 77 0f 3f 5e 09 aa 3f
       0.65927243 -0.20574865 0.5604247 1.3284109
000060 36 50 40 3f d9 87 7a 3e 6d 60 9c c0 88 78 80 3f
       0.7512239 0.24465884 -4.8867707 1.0036783
000070 3f 02 b7 3f 02 43 29 c0 ed e0 6f 3d 19 0d b1 3f
       1.429756 -2.6447148 0.058564115 1.3832122
000080 f2 67 fd 3c 7f 99 4b 3f 96 b4 8b 3f b1 eb 0d 40
       0.030933354 0.7953109 1.0914485 2.2175105
000090 8c 95 65 3c 12 f9 b4 3f 64 37 06 c0 9c 3e fb 3e
       0.014012706 1.413851 -2.0971308 0.49071205
0000a0 33 c8 c0 3c 73 3d 07 be 2c 02 23 bd 74 9a ee 3d
       0.023532962 -0.13207035 -0.039796993 0.11650553
0000b0 6c 09 2c 40 2f b2 ac 40 41 c8 c8 be 46 d5 48 3f
       2.688075 5.396751 -0.39215282 0.7845043
0000c0 89 87 4b bf 45 3f ac 3e fe d4 e0 bd 47 41 b1 40
       -0.79503685 0.3364202 -0.10978125 5.5392184
0000d0 46 05 b0 3f 05 d1 8f 3d 13 31 ae bd 30 51 b9 3f
       1.3751609 0.07022289 -0.08505454 1.4477901
0000e0 ac cb de bf 0b 6f b7 3f 00 92 17 bf 83 b9 76 bf
       -1.7405906 1.4330763 -0.59207153 -0.9637682
0000f0 2c 34 02 3f 03 71 0f 3f 2e 23 b9 3f 75 f9 c5 bf
       0.5086086 0.5603182 1.4463861 -1.5466753
000100 76 48 a7 3f a6 ef 90 3e 51 3e c3 3f 98 05 39 be
       1.3068988 0.28307837 1.5253392 -0.1806854
000110 b6 a2 ae 3f 99 f1 64 3f b8 8e 92 be a8 27 b5 3f
       1.3643405 0.8943115 -0.2862451 1.4152727
000120 e0 0e 1f 3f 38 4d 6a 3e f2 c7 a5 3f e0 83 2c bd
       0.6213207 0.22881019 1.2951643 -0.042117953
000130 78 fb e9 bd 4b cc 71 c0 52 65 11 be d3 bb 5b bc
       -0.11424917 -3.778094 -0.14198807 -0.01341148
000140 3b 09 c8 3e f4 f7 c5 bd f6 7c a2 bd d8 c7 af 3f
       0.39069542 -0.09666434 -0.07933991 1.3732862
000150 85 b9 41 c0 80 f3 8e 3f 16 1a e0 3c f1 1c 32 3f
       -3.0269482 1.116806 0.027356189 0.6957541
000160 fa 7c 54 bf 02 9d 13 3f cf f7 06 be 93 f8 1a 3e
       -0.830032 0.5766145 -0.13180469 0.15133886
000170 ea af 92 3e 23 88 38 bf dd d3 91 3f d4 ae ae 3f
       0.28649837 -0.7208273 1.139278 1.3647103
000180 56 9d 3f bf 62 f2 62 3e 3d 3e e7 3f 0a b5 12 3f
       -0.7484945 0.22162774 1.8065869 0.57307494
000190 8e 41 c7 3d 8f 33 b3 3f 48 57 f8 bc 22 b3 e9 bf
       0.097293004 1.400011 -0.030315056 -1.8257792
0001a0 5c 2f b5 3c 25 5e 11 3f 05 9c e1 bf 28 39 4f be
       0.02211731 0.5678428 -1.7625738 -0.20236647
0001b0 57 44 b6 3f 14 26 91 bd 8f 30 0b bf be 04 92 3f
       1.4239606 -0.07087341 -0.5437097 1.1407697
0001c0 65 a3 95 3f 59 6f 19 3f 36 21 2b 3f d5 3c ba 3f
       1.1690489 0.5993553 0.6684755 1.4549814
0001d0 81 f4 00 c0 1d c7 25 3f f8 4c 96 bf 09 30 23 3f
       -2.0149233 0.6475695 -1.1742239 0.6374517
0001e0 0d e8 e8 3e 75 58 e9 3e 46 6f 2b 40 b6 33 2c 3f
       0.4548954 0.455753 2.6786666 0.67266405
0001f0 2b 67 47 40 81 af 9f 3f 82 d5 97 3e af 6d 99 3e
       3.1156719 1.2475435 0.2965508 0.29966494
000200 09 16 cd 3c 28 d4 b4 bc 2f 94 6d 3d f4 42 a0 3b
       0.025034921 -0.02207382 0.058002647 0.004890794
000210 83 2c 4a bd e2 10 93 3c 13 61 c3 3c f2 f7 dc 3b
       -0.049358856 0.017952386 0.02385 0.0067434246
000220 d6 a6 a1 bd fe 6d 3f bd 00 dc ee bc c3 03 23 3d
       -0.078931496 -0.046735756 -0.029157639 0.03979851
000230 a4 aa 0d 3c f6 66 f0 bd 0f f2 85 bd 59 c8 37 bd
       0.008646641 -0.11738388 -0.0654031 -0.0448688
000240 72 22 d2 3c 97 80 02 3d df 0b 15 3c 72 24 a3 bd
       0.02565119 0.031860914 0.009097069 -0.07965936
000250 a9 fa f0 3c d0 b2 ce bd bd 51 53 bd 79 49 a8 bc
       0.0294164 -0.100926995 -0.051591624 -0.020542847
000260 f5 a7 19 3c eb 87 d4 bc c1 a2 e5 bd 9e a4 2b 3b
       0.009378423 -0.025943717 -0.112126835 0.0026190649
000270 4e 50 c5 3c d0 c2 41 bd 20 0d 86 bd dc 81 96 3b
       0.024086144 -0.04730493 -0.06545472 0.004593117
000280 44 37 e6 bd 43 a1 05 be 09 83 2c 3c 33 33 8d 3b
       -0.1124101 -0.13049798 0.010529288 0.004309082
000290 6c 04 b6 bd c2 77 a6 bd cd 40 cf bb 37 67 65 bd
       -0.08887562 -0.08128311 -0.0063248635 -0.056006636
0002a0 93 a5 ae bd dc 7b 9f bd de dc 57 bd 7d 36 6d bc
       -0.085276745 -0.07787296 -0.05270087 -0.014478323
0002b0 30 fa 58 3d c6 c8 19 3d c1 b4 17 bd 8a 52 dc 3c
       0.052972972 0.037544988 -0.037037615 0.026894826
0002c0 0b e8 e7 bd b5 54 43 bc 56 81 b6 bd a6 11 88 bc
       -0.113235556 -0.011922051 -0.089113876 -0.016609978
0002d0 8f c7 c5 bb fb fb e2 bc 5a e1 a9 bd 59 88 02 3c
       -0.006035752 -0.027708044 -0.082949355 0.007967078
0002e0 33 08 16 3c d5 f1 1a 3b 7f 00 7d 3c c3 bf 23 3c
       0.009157228 0.0023642678 0.015442013 0.00999445
0002f0 31 f5 85 3c d8 eb 64 3c 59 5c 97 3c ca 88 e2 bd
       0.016352268 0.013972245 0.018476652 -0.11061247
000300 0b 2e 06 3d 3b 0a 79 bd 30 a4 96 3c 27 22 5e bd
       0.032758754 -0.060800772 0.018388838 -0.05423179
000310 c3 75 ce bb d1 60 8e bb db 97 0f 3c e5 32 4c 3c
       -0.0063006594 -0.0043450375 0.0087642325 0.012463306
000320 4b 64 5f 3d 19 6f 75 3c ad c9 b5 3c 4f 1d 77 bd
       0.054539006 0.014980101 0.022190893 -0.060330685
000330 f6 97 90 bd 20 63 e0 bd d6 b2 40 bc ce 5b 30 bd
       -0.07060234 -0.109564066 -0.011761388 -0.0430563
000340 bf f8 26 bd 2d 3c 51 bd d8 01 2e bd 5f e3 83 3c
       -0.040764567 -0.05108278 -0.042482227 0.01609963
000350 23 70 98 bd b3 03 4f bc c0 f9 c7 bd 93 34 e6 3c
       -0.074432634 -0.012635159 -0.09764433 0.028101241
000360 08 ee 3b bd c5 76 10 be 27 f5 df 3c 34 1b 80 bc
       -0.0458813 -0.14107807 0.027338577 -0.015637971
000370 bd 25 15 bd 92 bf 94 bd 4c 14 bc 3b d2 3f ed 3b
       -0.036412943 -0.07263102 0.0057397243 0.007240274
000380 c0 ce a2 bd 9f 1a c4 bd 6c ec b6 3c 08 8e 41 3d
       -0.07949591 -0.0957539 0.022329532 0.047254592
000390 33 50 55 bd 32 7f 6f 3b 52 86 88 3d 6d a3 1c 3b
       -0.052078437 0.003654432 0.066662446 0.002390112
0003a0 bd d5 89 bd 71 36 01 3d e2 a5 af bd d6 66 48 be
       -0.067302205 0.03154606 -0.085765615 -0.19570479
0003b0 75 88 d0 bc 9c 37 15 be 41 ad 2e be d2 e5 98 bd
       -0.025455693 -0.14571995 -0.17058279 -0.0746571
0003c0 46 75 01 bb 86 4f 8f 3c 1d c8 ac bb 32 73 45 ba
       -0.0019753738 0.017493974 -0.005272879 -0.0007532119
0003d0 5d a2 b4 bc 25 07 0a 3d 51 fc 4f bd bc 2f d6 3b
       -0.022050077 0.03369822 -0.050777737 0.006536452
0003e0 70 b5 d1 bc c9 2f 8a 3c 98 71 30 3d 70 e8 98 3c
       -0.025599211 0.016868489 0.04307708 0.018665522
0003f0 24 21 cf 3a a2 a6 a8 bc a3 fe c6 bc dc 6b 1b 3c
       0.0015802723 -0.02058727 -0.024291342 0.009486165

output_mlp.2.bias f4 [9]
000000 1d 48 1a be 56 6d 2d bd 23 75 36 bd da 8d f0 3d
       -0.15066572 -0.0423406 -0.044545304 0.11745806
000010 1c 65 5e 3e b7 94 36 3a b0 f7 33 bd 77 f9 27 be
       0.21718258 0.0006964909 -0.043937385 -0.16403757
000020 85 ab 8f 3e
       0.28060547
