log/segmentation/pn/bucket/weighted-3/pn_40.pth (torch, 337359 bytes, 8 tensors)

local_mlp.0.weight f4 [64, 3]
000000 48 ed 70 3e 59 55 61 3c 67 26 0c 3e 73 88 be be
       0.23528016 0.013753259 0.13686524 -0.37213477
000010 17 e7 e3 3d 4e 0a 98 3e 00 35 78 bf e1 fb 6c be
       0.11128061 0.29695362 -0.9695587 -0.23142959
000020 bf 57 b9 bd 60 64 f8 bd 28 3e 02 3e 56 db 80 be
       -0.09049939 -0.1212852 0.12719023 -0.2516734
000030 cd cd 50 bf 1b 85 e3 bc 6d 85 35 3e f7 7c ff bd
       -0.8156403 -0.02777343 0.17726679 -0.12475007
000040 f9 09 9f 3e 40 86 57 be ef ac 62 3e 05 65 d9 be
       0.31062296 -0.21047306 0.22136281 -0.42459884
000050 55 a3 6f be 9b d5 2e bf 5a 4f 7f 3e b9 5d 4b 3e
       -0.2340215 -0.68294686 0.24932614 0.19859971
000060 75 62 d0 bf 52 06 54 be 76 ae 87 3e 63 3f f1 3e
       -1.6280047 -0.20705536 0.2650029 0.47118673
000070 27 15 9c be e8 08 a6 be eb e2 0a 3f f2 3f 2b 3c
       -0.30484888 -0.3242867 0.542525 0.0104522575
000080 59 dd 12 be 08 46 1a c0 f8 80 cd 3e ac e2 2d 3e
       -0.1434225 -2.4105244 0.40137458 0.16981
000090 61 eb 28 bf e2 0a 66 3c 32 8b ad 3e 7c e5 45 bd
       -0.6598416 0.014040681 0.3389526 -0.048314556
0000a0 ae 55 20 3d 96 fd 46 be 5a 2e 0e be 10 b5 4f 3e
       0.03914421 -0.19432673 -0.13884869 0.20283914
0000b0 e2 97 71 be a4 8c 53 3c 6c f0 b2 bd 22 78 8d be
       -0.23593095 0.012911949 -0.08737263 -0.27630717
0000c0 bc 9a fa bd d8 27 95 3e 08 f1 44 be 9a 78 86 bf
       -0.122365445 0.2913196 -0.19232571 -1.0505555
0000d0 ed 29 22 bf 1a df 5d be 66 aa 04 be 47 98 9b 3d
       -0.63345224 -0.21667138 -0.12955627 0.07597404
0000e0 a0 c0 84 be 98 a5 ac bd 81 da ad 3e 44 93 56 be
       -0.2592821 -0.08430022 0.33955768 -0.20954615
0000f0 ee 40 f8 3e b7 6f 38 40 ea fd 06 bd 63 05 ae 3e
       0.48487037 2.8818185 -0.032956995 0.33988485
000100 9f 37 53 be d6 98 5c 3e 53 7d 4f 3e 26 55 17 be
       -0.20626687 0.21542677 0.20262651 -0.14778575
000110 6c c0 7f 3e 72 3d 75 3e 2d 85 19 3e 3e b9 03 3e
       0.24975747 0.23949221 0.14992209 0.12863633
000120 9e 9a 33 3e 62 ef 0a 3f 5d 43 51 3e cc d2 c8 3e
       0.1753945 0.5427152 0.20435853 0.39223325
000130 14 63 22 bf 6c ec 91 be 23 8a af be 1d fb 84 3e
       -0.6343243 -0.28500688 -0.34285077 0.25972834
000140 5a f2 8a 3e 1d a0 b0 bf 7a 45 ff 3e d2 bf 82 3b
       0.27138025 -1.3798863 0.49857694 0.003990152
000150 a8 62 a5 3e 57 2f 5d be 3f ae 56 3e 87 92 07 c0
       0.3230183 -0.2160009 0.20964907 -2.1183183
000160 52 54 95 bd 81 19 1a 3e 56 9d b9 be 63 79 a6 3e
       -0.072914734 0.15048791 -0.3625285 0.32514486
000170 7f 26 ae 3e 70 c5 2e 3f 0d b7 16 be 63 3c 91 be
       0.34013745 0.68270016 -0.14718266 -0.28366384
000180 2d 78 2a be 96 6b 3d 3e ff ec 96 3c 0f 9e de be
       -0.16647406 0.18498072 0.018423555 -0.43479964
000190 3e cb c7 3d 9c 9e 97 3e 32 7d 9a 3e 91 19 4b be
       0.09755562 0.29613197 0.3017364 -0.19833972
0001a0 30 cd 43 3e 12 96 f9 3e ab 77 e9 3e 2a 48 97 bd
       0.19121242 0.48747307 0.45599112 -0.07386811
0001b0 a9 94 43 bf 93 34 ab 3c 53 0a b2 3e 16 4e 5d be
       -0.7639871 0.020899093 0.34773502 -0.21611819
0001c0 2e d9 d7 bc 1c ae 88 be 10 a2 4e 3e ee cf ca be
       -0.026348677 -0.26695335 0.2017901 -0.39611763
0001d0 ac 83 2f 3e 54 a4 be be dd 03 39 be d7 04 85 be
       0.17140073 -0.37234747 -0.1806788 -0.25980255
0001e0 c6 57 21 3f 33 0e e3 bd 12 be 75 be 25 c0 37 be
       0.63024557 -0.11086693 -0.23998287 -0.17944391
0001f0 0f 5b 4e 3d c8 4c 89 be 2a 88 43 3e bb a4 f9 bd
       0.05037981 -0.26816392 0.19094911 -0.12189623
000200 12 f2 05 be 33 0f 87 3e 77 1b 84 bc 31 88 2a be
       -0.13080624 0.26378784 -0.016126378 -0.16653515
000210 35 44 5b bf 37 08 e3 bd 2d 59 63 3e 03 82 fd be
       -0.8565095 -0.11085551 0.22201987 -0.49513254
000220 be cf c1 3e ae 5e a2 3e 08 1b 08 3b 77 1b 9c 3b
       0.37853807 0.3171286 0.0020768065 0.0047640163
000230 2a e1 31 bd ee b8 bc 3e 76 ae 25 3d 9b 71 52 be
       -0.043427624 0.3685984 0.040449582 -0.2055115
000240 69 7c 3d 3e fd 62 6e 3d 49 68 f6 3d b2 26 08 be
       0.1850449 0.05819987 0.120316096 -0.13296011
000250 a4 b0 a9 3c b8 2a 8b be db 02 79 be 6d 5d 85 3e
       0.020714112 -0.2718103 -0.24317496 0.2604784
000260 82 a5 84 3e 82 35 13 bc 9b fa bf 3b 34 ac 12 bd
       0.25907522 -0.008984925 0.005858732 -0.035808757
000270 2b 93 f1 bf d1 30 b8 bd 4d 64 1a 3e 29 52 a3 bf
       -1.8873037 -0.08993686 0.15077324 -1.2759448
000280 41 c8 09 be c0 2d 22 3e 5c 55 c4 3e 77 65 3f 3f
       -0.13455297 0.15837765 0.38346374 0.747642
000290 4a cc 95 3c 96 76 13 bc 8c d2 50 3b 89 c8 cf ba
       0.01828589 -0.009000441 0.0031863777 -0.0015852611
0002a0 4a 3f eb 3e 3c da dd 3c 72 d1 65 be f2 76 ec 3a
       0.45946723 0.027081601 -0.22443178 0.001804082
0002b0 77 02 e5 3b 11 e8 d6 bd cb 93 15 3e 10 72 94 bd
       0.006988819 -0.10493482 0.1460716 -0.07248318
0002c0 b7 81 76 3e 71 a2 1c bf 8b e2 4c 3d 38 b1 b0 3e
       0.2407292 -0.61185366 0.050020736 0.34510207
0002d0 81 38 ec bd 24 c3 2f 3e d0 4f 80 be 61 2b 2b 3c
       -0.11534215 0.17164284 -0.25060892 0.010447354
0002e0 f6 a5 32 3a 48 25 07 bc cc 9b 15 3f 71 ae 52 bf
       0.0006814891 -0.008248635 0.5844085 -0.82297426
0002f0 bd cb 66 3e d4 dc 5c bd d4 32 5c c0 4f 14 6e bd
       0.22538657 -0.053921536 -3.4406023 -0.058124837

local_mlp.0.bias f4 [64]
000000 1e 52 a0 be e8 a1 7e be 77 1e 97 3e 55 6f ff 3e
       -0.3131265 -0.2486645 0.2951543 0.49889627
000010 59 d4 18 be 74 4c ef 3e 93 fd 92 3e 35 5f a9 bd
       -0.14924754 0.46738017 0.28709087 -0.082701124
000020 93 7f d0 bd cb 22 b8 3e 88 5b c1 3d 84 93 ab 3e
       -0.10180583 0.35964045 0.09441286 0.33510983
000030 57 bb 3c be 44 e5 b2 3e f6 c9 f8 3e 25 dc e1 3e
       -0.1843084 0.3494054 0.48591584 0.4411327
000040 d2 4a db 3e 5c b1 24 3f 09 b3 04 3f 85 7a eb 3e
       0.4283052 0.6433313 0.51835686 0.45991912
000050 6c 78 53 3e 0d 4e eb be 34 46 e7 be b5 9b a0 be
       0.20651406 -0.45957986 -0.45170748 -0.31368795
000060 ff 61 a1 be 3b 4e 8e 3e dd 91 5e be c5 4d 92 3d
       -0.31520078 0.2779406 -0.2173533 0.071437396
000070 7e 19 e4 be 28 44 91 3d d7 da a0 be 12 30 76 3e
       -0.445507 0.07093078 -0.31416962 0.24041775
000080 b5 e8 a8 3d ce c8 5a be 91 d9 d9 be 8c ca f3 bd
       0.0824751 -0.21365663 -0.42548802 -0.11903867
000090 b5 c4 25 be ce d9 13 3f 55 2e dc be 25 42 20 3f
       -0.16188319 0.5775422 -0.430041 0.6260093
0000a0 0e 83 4b 3e 47 6d 11 3f a6 74 eb 3d e4 57 27 3e
       0.19874212 0.5680737 0.11496858 0.16342121
0000b0 2d 74 64 be 0d d0 4a be 0a 5d 8c 3d e2 90 64 3e
       -0.22309943 -0.19805928 0.06853683 0.22320893
0000c0 d7 fa 89 be d2 a3 0b 3f 11 eb 84 be 5e a3 80 3d
       -0.26949188 0.54546845 -0.2596059 0.0628116
0000d0 b6 f0 33 bd 4a 3b 44 be dd 74 5e be a0 d3 8a bb
       -0.04393073 -0.19163242 -0.21724267 -0.0042366534
0000e0 66 9c 86 3e 1c 87 33 3e 5e 46 d6 be c3 da 51 be
       0.26291198 0.17532009 -0.4185056 -0.20493607
0000f0 90 74 00 3f 1d e4 4b 3c 3d 0a 06 bf cc 0f 02 3e
       0.5017786 0.012444523 -0.5235937 0.12701339

local_mlp.2.weight f4 [256, 64]
000000 10 8a 3f be a5 e9 02 3a 60 18 52 be c4 a7 7d be
       -0.1870501 0.0004993922 -0.20517111 -0.24771029
000010 53 93 2b 3d ad fa 9a bc 61 a5 19 bf 7a 46 1a 3e
       0.041888546 -0.01891836 -0.60017973 0.15065947
000020 34 69 12 bf b5 36 51 bf e3 b3 1c bf af 70 6c bf
       -0.5719178 -0.817241 -0.61211985 -0.9235944
000030 3f d3 6a be 2f a9 81 be bc 56 ee bd fc 3c fc be
       -0.22932146 -0.2532439 -0.11637637 -0.49265277
000040 55 d9 90 bc 33 47 87 bf 3d 8c c2 be 25 04 6f bc
       -0.017681757 -1.0568603 -0.37997618 -0.0145883905
000050 c4 27 e9 3e 60 28 f4 be c9 43 01 bf 0f d0 1b 3e
       0.4553815 -0.47687054 -0.50494057 0.15216087
000060 b4 a8 34 3e 15 0e 09 bf 14 05 b0 3d 4c 11 03 3d
       0.1764248 -0.5353711 0.085947186 0.031998917
000070 ce ee eb be 89 94 eb be 37 06 c0 3d ac d8 3c bf
       -0.4608063 -0.4601176 0.093761854 -0.73768115
000080 43 c5 86 3d da a3 0e bd 10 37 d0 be b4 c4 03 3e
       0.065805934 -0.03482423 -0.4066701 0.12868005
000090 4b f8 93 be 37 bc 33 bf 3e eb 8b be c1 76 98 bf
       -0.2890037 -0.7020907 -0.27327913 -1.1911241
0000a0 19 17 46 bf b9 dc cc be 24 fa 90 be 2c 88 11 bf
       -0.77378994 -0.40012148 -0.28315842 -0.56848407
0000b0 71 9d c1 bc c9 ef e6 3d a1 d5 ec be 70 85 20 bf
       -0.023634644 0.11276204 -0.46256736 -0.6270361
0000c0 56 88 e0 bb 9d b2 08 bf 01 55 34 3e ff 55 00 3d
       -0.00685219 -0.5339754 0.17610551 0.031332012
0000d0 0e 06 b1 be 38 9e 34 be c6 7d a0 3e 9c 60 b7 3d
       -0.34574932 -0.1763848 0.31345958 0.08953974
0000e0 a3 96 09 bf 14 a2 d3 be 00 eb b0 be 22 0d 29 be
       -0.5374548 -0.41334593 -0.3455429 -0.16508916
0000f0 6e c7 07 be a7 05 6b be 16 5b 30 bf 74 1d 49 3f
       -0.1325967 -0.22951375 -0.68888986 0.78560567
000100 9c 51 90 3d 41 a4 01 3d 89 7a e7 3d e0 9b 5f 3e
       0.07046816 0.031650785 0.113026686 0.21836805
000110 05 5a fc 3c b4 22 7a 3e 55 55 59 bd 9e 50 92 3d
       0.030804643 0.244273 -0.053059895 0.07144283
000120 4c 94 bb 3d ad 81 f5 3c 0e 15 35 3d 3b f6 15 3e
       0.09159145 0.02996906 0.044209532 0.1464471
000130 31 36 45 3d 41 fd a3 3d 5d e3 68 3e 0b a3 3f bd
       0.048147384 0.08007289 0.22742982 -0.04678635
000140 30 a9 6d 3e b8 28 68 3e a3 9e 1e 3e e4 8b 78 3e
       0.23209071 0.22671783 0.15490203 0.24272114
000150 cc e3 93 be a2 6a 3f 3d 81 47 94 bd 72 9e ed 3d
       -0.28884733 0.046732552 -0.07240201 0.11602487
000160 4e 04 b3 3d 74 ce 93 bc 28 57 28 3d 35 c4 21 3e
       0.087410554 -0.01804278 0.041098744 0.15797503
000170 d5 06 16 bc b3 47 e9 3d cb 12 84 3c af d9 76 3d
       -0.009156902 0.11390629 0.016122242 0.060266193
000180 b7 19 73 3d e2 6e 08 3d f1 64 a6 3d 78 63 01 3e
       0.059350695 0.03330887 0.08124722 0.126356
000190 03 c9 1a 3d 79 c5 42 3e e5 6d d8 3c ef 07 0b 3e
       0.037789356 0.19020642 0.02641959 0.13577245
0001a0 91 8d ad 3d f4 17 46 3e c5 44 37 bd eb 1b 1e 3d
       0.08474267 0.19345075 -0.044743318 0.038600843
0001b0 3c f1 2d bc 40 61 5a 3d d6 4b 5f bd 38 32 94 3d
       -0.010616597 0.0533154 -0.054515682 0.07236141
0001c0 10 82 92 3d 8a c7 3b 3e a4 a5 07 3d af 85 77 3d
       0.07153714 0.18337837 0.03311695 0.060430225
0001d0 15 07 ba 3d d9 df 5d 3d 23 35 4c 3e 43 c5 34 bc
       0.09083382 0.054168556 0.19942145 -0.011033359
0001e0 8f 7b 50 bc d8 94 57 bb bc b7 2d bd bf 96 8d 3d
       -0.012724771 -0.0032895114 -0.04241155 0.06913518
0001f0 81 e3 45 3e 5e d4 e5 bb f6 4d 56 3c 5a 75 54 be
       0.19325067 -0.0070138415 0.013080111 -0.20747891
000200 2c e9 9a 3d a9 0a 23 be 92 c2 b4 3c 3b 6e 48 be
       0.07564005 -0.15922035 0.022065435 -0.195733
000210 ce 99 06 bd 42 58 98 be c4 08 88 bd c3 2d f3 bd
       -0.032861523 -0.29754835 -0.06642297 -0.11873963
000220 a7 75 1b 3d d9 9f 14 3e 2d cc 0e 3e 3c 2c f6 bd
       0.037954 0.14514102 0.13945074 -0.12020156
000230 fb 13 a5 bd 84 a9 51 bd cb a1 7e be b1 8b 95 3d
       -0.080604516 -0.051187053 -0.24866407 0.07302035
000240 05 40 68 be b8 82 28 3e 34 5b 62 be 2d 61 81 be
       -0.22680672 0.16456115 -0.22105104 -0.25269452
000250 c0 00 b1 be 66 5d 32 bd b1 7f 1c be 63 7b 9f 3d
       -0.34570885 -0.043546103 -0.15283085 0.07787206
000260 9b 83 28 bc ad 2a b1 bd c1 ad 2b be 7d 68 16 be
       -0.010285283 -0.08650718 -0.167655 -0.14688297
000270 30 a0 f2 bc 8b af 50 bd 5f 4f 85 be e7 34 14 3e
       -0.029617399 -0.05094866 -0.26037118 0.14473306
000280 e6 82 03 be 1b 5d 11 be d3 ed de bc 43 d4 0a 3e
       -0.12842903 -0.14195673 -0.027213013 0.13557534
000290 ed bb 7b bd 60 d4 5b be 50 ee dd bc 40 fb 0b be
       -0.061458517 -0.21467733 -0.027091175 -0.13670063
0002a0 8a 01 b4 3d 15 73 92 be 5c 1f 9e 3d 12 14 ef 3d
       0.08789356 -0.28603426 0.07720825 0.1167375
0002b0 65 1b 85 bc 4e fa 55 be 4e 6d af bd aa e5 09 3e
       -0.016248414 -0.20896265 -0.0856577 0.13466516
0002c0 5f 44 f4 3c 29 61 7c be 3b db 46 be 05 e6 93 3d
       0.029817758 -0.24646439 -0.19419567 0.07221607
0002d0 97 78 0d bc 1e 86 09 3d 51 a2 a7 3d 6d 3c 4e bd
       -0.008634708 0.03357517 0.08185256 -0.050350595
0002e0 f3 00 3e 3e 48 96 17 bd ee a7 1b be 4d 38 b2 bd
       0.1855505 -0.037008554 -0.15200779 -0.08702145
0002f0 40 58 95 be 97 05 7f bd 06 4e 76 bd 79 69 75 bf
       -0.29168892 -0.06226119 -0.060133003 -0.95864064
000300 25 e9 3d 3e 10 b5 7f 3d 95 14 01 3e db 92 1c 3e
       0.18545969 0.062428534 0.12605508 0.15290396
000310 ae 75 8a 3d 9d ca 12 3e 2d 7d 2f bd c2 36 06 3d
       0.06760727 0.14335103 -0.042843986 0.032767065
000320 13 66 e8 3c 7f f7 04 bc a0 0b 84 3d 08 7b e7 3d
       0.028368985 -0.008115648 0.0644753 0.11302763
000330 08 09 86 3d 54 b9 93 3d 0e 4a 9b 3d 6d 83 78 3c
       0.06544691 0.07213083 0.07582484 0.015168053
000340 e2 cf e4 3d 3c 36 4b 3e 9f 20 b6 3d 08 c6 26 3e
       0.11172463 0.19844908 0.08892941 0.1628648
000350 04 be e4 bd 8c ce 38 3e a8 17 d4 bc e9 38 88 3e
       -0.11169055 0.18047541 -0.025890186 0.2660592
000360 09 c2 15 3d c7 9d 61 bd 94 b6 25 3d ec 68 0e 3e
       0.036562 -0.05508211 0.040457323 0.13907212
000370 e6 1b 6f 3d 24 7b 18 3e 75 87 31 bc f3 7a c2 bb
       0.058376215 0.14890724 -0.010835518 -0.005935067
000380 f0 e5 5f 3c 41 f9 87 3d 9f 63 63 3e cb a3 a8 3d
       0.013665661 0.06639338 0.22205971 0.08234366
000390 54 e0 66 3d 8d c3 d3 3d 2f ba 27 3e fd 88 af 3d
       0.05636628 0.10340033 0.16379617 0.0857105
0003a0 00 1c 1c 3d ad f0 15 3e 9b 64 21 3c 28 66 bf 3d
       0.03811264 0.14642592 0.009850646 0.09345657
0003b0 a3 36 3d 3b ed 41 40 3d 4f 40 4a bc fc 0f ef 3d
       0.0028871677 0.04693787 -0.012344434 0.11672971
0003c0 63 6a 94 3d 4d 09 bd 3d 59 c7 10 3d db fe 40 bd
       0.07246854 0.092302896 0.035346363 -0.04711805
0003d0 32 f5 c1 3d a7 04 89 3d 83 80 73 3d b8 03 05 bd
       0.094705954 0.066903405 0.05944873 -0.03247425
0003e0 e2 98 a9 3d 8b 2c 84 bb ce 67 f7 bc 17 db 8b 3c
       0.08281113 -0.0040336302 -0.030200865 0.017072244
0003f0 27 c3 0a 3e 1b 4a 53 3b eb 7c 3b 3e f3 3a b6 bd
       0.13551007 0.0032240215 0.18309371 -0.088979624

local_mlp.2.bias f4 [256]
000000 d6 c3 f2 be b3 f9 f2 3d 78 2b 1a b9 d7 25 31 3d
       -0.47415036 0.118640326 -0.00014702778 0.043248978
000010 33 1b a2 be 3a 69 83 3d 57 7c a4 be f2 31 9f be
       -0.31661376 0.06416555 -0.32126114 -0.31092793
000020 85 8a 6f be 99 5e 99 bd bb 1b fb be 4d cf 90 3e
       -0.23392685 -0.07488746 -0.49044594 0.28283158
000030 02 06 ab 3c 0e b2 78 be 9e 5d 12 3e 86 77 92 be
       0.020876888 -0.24286672 0.14293525 -0.28606814
000040 80 80 9c be b8 08 ad be 6a d7 ab bd 9b 96 7a be
       -0.30566788 -0.33795714 -0.08390696 -0.24471514
000050 80 12 86 be 94 7e b4 be 3c aa aa bd 0f bf 50 3e
       -0.2618599 -0.3525282 -0.08333251 0.20385383
000060 40 88 f2 bd 30 3f 25 3d ab e0 d9 3d b3 32 89 3d
       -0.11842394 0.040343463 0.10638555 0.06699123
000070 fc 0b f7 be 35 29 90 be 23 fe a6 be e4 f7 27 3d
       -0.4825133 -0.28156438 -0.32615766 0.04100789
000080 aa 1e 34 3e 0e a8 a7 be ff 27 11 bf de 0f 0d bc
       0.17589822 -0.32745403 -0.56701654 -0.00860974
000090 93 6b 0e bd 46 e9 9d be a7 70 c1 3c f1 da 9d be
       -0.03477056 -0.30842036 0.023613287 -0.30831102
0000a0 0e 05 32 3e 11 e1 f3 be d0 d4 70 be 12 66 5d 3c
       0.1738474 -0.4763265 -0.23518682 0.013513105
0000b0 fd 32 c1 bc 86 74 86 bd b2 6d 0e 3e 37 aa 4c be
       -0.023583883 -0.06565194 0.13909033 -0.19986807
0000c0 bc 06 ee bd 60 7c 3b bc 60 88 5e be 7a 23 e3 be
       -0.11622378 -0.0114432275 -0.2173171 -0.44363004
0000d0 7d 18 ed bd ec 31 97 be ae 62 a9 be 50 e1 82 be
       -0.115769364 -0.29530275 -0.330831 -0.25562525
0000e0 01 35 08 3e b8 3a 08 3e 35 5a 6d be 9c 0e 7a bd
       0.1330147 0.1330365 -0.23178943 -0.06104909
0000f0 f6 f1 3f 3e 2a 09 53 bd b0 80 56 be 33 d2 8d be
       0.18744645 -0.05152241 -0.20947528 -0.27699432
000100 bd a7 82 be f9 79 81 be 0d f7 2a 3e c8 d9 d5 3d
       -0.255186 -0.2528837 0.16695805 0.10441929
000110 01 45 87 be da e0 89 be 57 04 84 bd 6d e0 85 be
       -0.26419833 -0.2692936 -0.0644614 -0.26147786
000120 d9 c0 e4 3d 6a ea 63 be e1 65 c7 bc dc f7 59 3d
       0.11169595 -0.2225739 -0.024340572 0.053214893
000130 30 86 6d be b0 b4 a5 be ac 57 8f be de 21 cd bd
       -0.2319572 -0.32364416 -0.27996576 -0.10016225
000140 0a 00 83 bd f5 95 12 3d 2b 82 7a be 12 75 a2 be
       -0.06396492 0.03578754 -0.24463718 -0.31729943
000150 09 10 57 be 06 67 ea 3d bf 7b 8d be 7f a4 4f be
       -0.2100221 0.114454314 -0.27633473 -0.20277594
000160 1c db cd be bd bb be bd 01 9a 5e be 2b 01 64 be
       -0.4020623 -0.09313152 -0.21738435 -0.2226607
000170 9f e9 3e 3e 71 bd be 3d 09 47 f0 bc 57 46 26 be
       0.18643807 0.09313477 -0.029330747 -0.1623777
000180 20 03 98 be fc ac 02 bf 32 38 a9 be 9c 7c 8f 3d
       -0.29689884 -0.51045203 -0.33050686 0.07006189
000190 b5 77 7f be b7 93 2c 3e b8 ad 3f be 1b 14 a6 bd
       -0.24948008 0.16853224 -0.18718612 -0.081093036
0001a0 08 89 67 3d fe f5 00 be 36 60 ce be 30 7b 0f 3e
       0.056527168 -0.12593839 -0.40307778 0.14011836
0001b0 10 ee 19 be 6e 05 ea 3d 38 04 e3 bd d6 34 00 bf
       -0.1503222 0.11426817 -0.11084789 -0.5008062
0001c0 05 a0 35 be f8 db ad bc 7e a6 ac be 9e 62 4a 3d
       -0.17736824 -0.021223053 -0.33720773 0.049410455
0001d0 c3 4b 83 be fa 72 b4 be f7 cd 8f 3d 3a 89 af be
       -0.2564374 -0.3524397 0.070217066 -0.34284383
0001e0 15 1a 2d bc 88 2b 82 ba 05 43 b0 bd a9 38 19 bc
       -0.0105653005 -0.0009931186 -0.08606533 -0.009351888
0001f0 4b 08 88 be 4c 00 69 3d 53 1a 91 be a4 8e 84 be
       -0.26568827 0.05688505 -0.28340396 -0.25890076
000200 b2 56 6e be fc 24 b8 bc d3 ff 48 3b 93 fd 8b be
       -0.23275259 -0.022478573 0.0030670061 -0.273419
000210 55 0c b9 be 40 09 09 3e 15 8d f7 3d 86 70 a8 be
       -0.3614222 0.13382435 0.12087456 -0.3289835
000220 75 ef 5c be 78 b3 85 3d 4c af ca be f9 da 87 bd
       -0.2157572 0.065283716 -0.39586866 -0.066335626
000230 fc 75 f3 3d bc 9b 61 3e 42 41 96 be ac 63 4b 3d
       0.11887738 0.22032064 -0.29346663 0.0496556
000240 6f e5 9e be 26 24 a5 3d bb 38 59 3e 76 ea 54 3d
       -0.3103442 0.080635354 0.21213047 0.051981412
000250 f4 0e c3 bb 25 d3 c0 be 86 a0 3f 3e a8 19 59 bd
       -0.0059527103 -0.3766109 0.18713579 -0.053002983
000260 2b d7 03 3e 5b 30 c1 be 74 c8 4c be e4 8f 25 be
       0.12875049 -0.37732205 -0.19998342 -0.16168171
000270 ea c8 0e 3e 90 15 ce bd 37 21 ed 3c 63 75 f4 3d
       0.1394383 -0.100627065 0.028946502 0.11936452
000280 a2 77 aa 3d 64 bb 67 bd 73 1d b6 be 29 30 a0 be
       0.083235994 -0.056575194 -0.35569343 -0.31286743
000290 cd fb 16 be 78 93 b4 be 95 f4 c0 3d a1 98 e8 3d
       -0.14744492 -0.3526876 0.0942165 0.11357237
0002a0 2b 03 5d be 71 2f df bd ed 64 42 3e ad 99 12 3e
       -0.2158324 -0.108977206 0.18983813 0.14316435
0002b0 68 07 9b be 37 85 96 be 4c ba c5 be 2c 8b 02 bc
       -0.30279088 -0.2939851 -0.38618696 -0.0079677515
0002c0 eb a2 28 be 01 f3 f5 be 95 f6 94 be c6 43 08 be
       -0.16468398 -0.4803696 -0.29094377 -0.13307104
0002d0 c8 5a 7b be 85 af 4c 3d 5f d3 84 be 5a 7a 24 3d
       -0.24546349 0.049972076 -0.25942513 0.040155746
0002e0 3e ab 0a bf f2 29 76 3e da 21 aa be c7 35 4f 3e
       -0.54167545 0.24039438 -0.33228952 0.20235358
0002f0 54 ae 76 be 0a 70 93 3d 04 a7 89 bd b8 bc 26 be
       -0.24089938 0.07199104 -0.06721309 -0.16282928
000300 0e ae 57 bd 09 26 30 ba 26 c4 97 bd f2 50 10 be
       -0.052656226 -0.0006719535 -0.07410459 -0.14093378
000310 84 76 92 be 89 17 42 3e a8 74 f8 3c 38 67 aa be
       -0.28606045 0.1895429 0.030329064 -0.33281875
000320 5e 1c f0 bc a6 b3 32 3e 9d a8 4f be 1b 5f 3c be
       -0.029310402 0.17451343 -0.20279165 -0.18395655
000330 ee 98 3a 3e ae 4f 87 bc 7f 3e 05 be b3 01 fc be
       0.182224 -0.016517486 -0.13012122 -0.49220046
000340 31 58 ad bd 06 bf e8 be b0 8a 7c bc a4 18 c2 bd
       -0.08464087 -0.4545824 -0.015413925 -0.09477356
000350 e4 ef 35 bd cf 82 bb be 92 0e 6a be 5f f2 83 3d
       -0.04441823 -0.36623237 -0.2285712 0.06442713
000360 06 33 aa be eb 39 b5 3d 65 5b cb 3c 7f 5c bc be
       -0.33242053 0.088489376 0.024823854 -0.3678932
000370 c9 78 00 bf e4 91 a2 be 1f f0 bb be 82 4a ad be
       -0.50184304 -0.3175193 -0.36706635 -0.33845907
000380 18 5d 6b be 87 e0 97 be f4 ba 5d be 6a 85 d1 3d
       -0.22984731 -0.29663488 -0.21653348 0.10230525
000390 f4 aa 91 be c1 fb d9 be 95 57 e9 bd 4d de ac bd
       -0.2845074 -0.42574885 -0.11393658 -0.08440838
0003a0 9a 89 28 be 15 0e 11 bd 28 76 e3 be 8c c4 ae be
       -0.16458741 -0.03541382 -0.44426084 -0.34134328
0003b0 3b c0 82 be e9 d0 e4 bd 36 e3 13 be ac 33 bd 3d
       -0.25537285 -0.11172659 -0.14442143 0.09238371
0003c0 82 19 75 3d f4 52 62 be 6f 6f 0f 3d 97 30 97 bc
       0.05983878 -0.22101957 0.03501838 -0.018455787
0003d0 e5 b4 5a 3d 85 55 45 be 28 c7 50 be d4 f2 5f be
       0.05339517 -0.19270904 -0.20388472 -0.21869975
0003e0 7f c3 f3 be 70 9f 21 3e aa 9e 15 3b 93 cb de 3c
       -0.4761009 0.15783477 0.0022830167 0.027196681
0003f0 da 24 84 be d6 6a c5 3d a1 83 99 be 0e c8 e3 3d
       -0.25809366 0.09639518 -0.29983237 0.11122142

output_mlp.0.weight f4 [128, 512]
000000 1c 19 c9 3e 3d 92 98 3e bb a5 f6 3c a7 a2 95 3e
       0.3927697 0.2979907 0.030108323 0.29225656
000010 14 b8 02 be ed 29 9e 3e 5c 87 e6 3d f3 36 d7 bd
       -0.12765533 0.30891362 0.112562865 -0.105085276
000020 e7 57 b7 3d 85 6c 5c 3e 78 12 17 3f 5c a1 2e be
       0.08952313 0.21525772 0.59012556 -0.17053741
000030 89 62 69 bd 27 92 80 3c 42 93 8a 3e a8 5e d5 3e
       -0.056978736 0.01569469 0.27065474 0.4167378
000040 d8 48 84 bd 3f 4b 46 bb ff 63 3b be 7c 04 68 3b
       -0.06459206 -0.0030257253 -0.18299864 0.0035403064
000050 08 69 b2 3d 1e d2 99 3e 29 b5 0b 3d 1b 92 f6 3d
       0.08711439 0.3004312 0.034108315 0.12039586
000060 92 47 8f bd 4a f6 ac 3c 70 28 07 3e ae fd 14 3e
       -0.06996073 0.021113534 0.1319902 0.14549896
000070 7f 73 07 be f0 98 c1 3d 8a 1e b5 bd bc d4 4b be
       -0.13227652 0.09452999 -0.088437155 -0.1990537
000080 da 7a 9f 3d 3f 3f cb 3d d5 76 ba 3e fa e7 29 be
       0.07787104 0.099241726 0.36418787 -0.16592398
000090 ed c2 34 3e ef 25 07 3e 5b d5 1c be d7 dc 15 3e
       0.17652483 0.13198064 -0.15315764 0.14635025
0000a0 ce e6 eb 3c 30 de 86 bd d8 43 a2 bd 1d 92 c2 3e
       0.02879658 -0.06585348 -0.079230964 0.380021
0000b0 77 76 a4 3d 05 f4 d7 3c f2 0d 27 3e fb 10 6b bc
       0.08030408 0.026361475 0.16313913 -0.01434731
0000c0 06 2b 29 be 3d 98 3e 3c 7b 07 c2 3e a6 b3 1f 3f
       -0.16520318 0.011632976 0.37896332 0.62383497
0000d0 ca a8 89 bc f5 7f 69 bd 38 f9 22 bd 3f c1 a4 3d
       -0.016804118 -0.057006795 -0.039788455 0.08044671
0000e0 8c a2 bd bd 3e 05 b8 3e b4 fa 5d 3f 77 0c 29 3e
       -0.09259519 0.359415 0.8671067 0.16508661
0000f0 41 24 1f bd c5 b1 f8 3d 2d 93 3a be 0f c0 e6 3d
       -0.038852934 0.12143282 -0.18220206 0.11267101
000100 de d8 f5 3d ac 14 cc bd 9b 0c 93 3e 7f a9 c0 3e
       0.12004255 -0.0996488 0.28720555 0.37629315
000110 b1 18 57 3d 8f e1 5a 3e 30 32 2e be 97 23 16 be
       0.052513782 0.21375106 -0.17011333 -0.14662014
000120 d3 af 89 3e c6 a4 93 3d 97 66 7c 3d 69 52 92 3e
       0.26891956 0.072091624 0.061621275 0.285785
000130 ba ff 3f 3d 94 ac 21 3f ac a1 91 bc 32 0b da 3d
       0.04687474 0.6315396 -0.017777286 0.106466666
000140 dc 0a 60 3e 4d 75 79 3e 97 20 01 3e f2 86 2d be
       0.21879143 0.24361153 0.12610088 -0.16946009
000150 a1 27 dc 3d 54 7a 47 bd 75 2a f9 3d e8 9b 0e 3e
       0.10749746 -0.048700646 0.12166301 0.13926661
000160 10 1f e2 3d e9 1b 35 bd 2f b2 ce 3d 79 55 01 be
       0.11041081 -0.04421607 0.100925796 -0.12630261
000170 c0 56 f1 3d 7c 34 a2 3e 30 e0 10 3e 36 46 e4 3d
       0.117841244 0.31680667 0.1414802 0.11146204
000180 9c 43 0c be 5c 8f 3f bd 31 77 2d 3e 20 9e 0c 3e
       -0.13697666 -0.046767578 0.16939999 0.13732195
000190 cc b8 2d 3f da b7 0d 3e 28 0d a9 3e 78 06 3f be
       0.678601 0.13839665 0.3301785 -0.18654811
0001a0 55 3d a2 3e 0d 3e 8a be 85 d8 48 bd a2 5c 45 be
       0.31687418 -0.27000466 -0.049034614 -0.19273618
0001b0 82 a2 c6 3d 38 27 1d 3e f7 8d b4 3d 06 c4 1a be
       0.09698965 0.15346992 0.0881614 -0.1511384
0001c0 fd 6a bf 3d f9 df 82 be 2e e7 ba 3c 98 ea 3b be
       0.09346578 -0.25561503 0.022815313 -0.18351209
0001d0 94 c0 a0 3d 10 39 99 3c b4 b1 92 3e b5 aa 75 3d
       0.07849231 0.018703967 0.28651202 0.059977252
0001e0 84 7a 9c bd bb 5f 8d 3c 7a a6 85 bc 81 bc 99 bd
       -0.076405555 0.017257562 -0.016314734 -0.075066574
0001f0 cb 82 a5 3d d9 d7 b8 3e 87 ac 1f be 96 67 2b 3e
       0.080815874 0.3610218 -0.15593158 0.16738734
000200 e4 19 d1 bd 9d 11 0c bd f4 11 58 be 40 90 9a 3d
       -0.10210016 -0.034196485 -0.21100599 0.07547045
000210 07 44 13 3e 42 f1 83 3e 49 9c 25 bd 3d 4f bc bd
       0.14381419 0.25770003 -0.04043225 -0.09194801
000220 4e 9c 5c bd da 9e 74 be d6 b7 4a 3e 23 92 2d 3e
       -0.05386 -0.23888722 0.1979669 0.16950278
000230 05 c6 d1 3e 23 33 68 be cd 04 45 3f b2 0d 0c 3e
       0.4097139 -0.22675757 0.7696045 0.136771
000240 18 73 eb 3e 68 01 96 3e 83 82 3e 3e d0 43 69 3b
       0.45986247 0.29297948 0.18604474 0.0035593398
000250 63 b7 1c 3d 98 db cf bc bd e5 2c 3e 20 2f d5 bc
       0.03826083 -0.025373265 0.16884513 -0.026023448
000260 63 37 af 3e 03 fc 27 3e ac 45 ee 3d 2b 4c 83 3d
       0.34221944 0.16404729 0.116343826 0.06411012
000270 9d 58 e8 3e 7d 2a 26 bc c6 98 34 3e 91 1c 7e 3e
       0.45380107 -0.010141966 0.17636403 0.24815585
000280 da 6b a7 3e c6 16 8b 3d 1a bd e9 3d 6d 87 40 3e
       0.32699472 0.06791453 0.114130214 0.18801661
000290 cb 75 6a 3d a2 58 db 3d 43 c1 f0 bd 3d 5f ad 3e
       0.057241242 0.10710265 -0.11755612 0.33861724
0002a0 ec 51 2b 3e 5d bf 22 3e 87 d9 12 3e c0 3e 68 3d
       0.1673047 0.15893312 0.14340793 0.056700468
0002b0 51 2c a7 3c 5a 8f 39 be 31 b3 33 3e 5c aa 26 3e
       0.020406874 -0.1812109 0.17548825 0.16275924
0002c0 09 b7 2e bd 42 b1 03 3f 57 21 79 be ea 89 e9 3d
       -0.042655025 0.5144235 -0.24329124 0.11403258
0002d0 34 a6 40 be 2d c8 f6 bc b3 8e 7f bd ff 35 82 be
       -0.18813401 -0.030124748 -0.062391948 -0.2543182
0002e0 80 3a 09 3d 20 26 9b 3e 1f f1 89 3e 0f fc ed bd
       0.033503056 0.30302525 0.26941773 -0.11620342
0002f0 c5 83 ab bd 37 16 85 3b de 30 5f bd 21 7d 1a be
       -0.083747424 0.004061486 -0.054489963 -0.15086795
000300 9b 4c 30 3e db 0a af bd 5e 36 15 3e 86 47 1d be
       0.17216723 -0.085469924 0.1457152 -0.15359315
000310 12 49 bb 3d 7c 1b ef 3d 97 fb ea 3b 69 0f 3e 3f
       0.091447964 0.11675164 0.007171105 0.74242264
000320 5d dc 35 bd 2e 9f c8 3d 01 26 f3 bd cc 1a 9e 3e
       -0.044399608 0.09795986 -0.11872483 0.3087982
000330 ee 5d b3 bb b2 85 d2 3e e2 36 0c 3e 44 c8 8c bd
       -0.005473844 0.41117626 0.13692811 -0.06874135
000340 94 7a 3e be 79 27 8c 3d 16 41 91 3e 54 5a 80 3c
       -0.18601447 0.06843466 0.2836997 0.015668072
000350 00 82 6c 3d ad ee 27 3c ae 30 39 3c b9 1b aa 3e
       0.057741165 0.010249776 0.01130311 0.33224276
000360 40 70 d0 3d 66 0f 81 3e cf c2 0d be d0 88 cb bc
       0.1017766 0.2520706 -0.13843845 -0.02484551
000370 ca 76 74 be e6 76 09 3c dc 4e 02 3f 64 35 10 3f
       -0.2387344 0.008390164 0.5090158 0.5633147
000380 94 44 db bd 4c 8e 27 be cc 2e 56 3f e3 b8 2a 3e
       -0.107064396 -0.16362876 0.83665156 0.16672091
000390 7d dc a9 3c 05 74 1e be a7 47 a6 3d 5a 11 57 3c
       0.02073502 -0.15473945 0.08119135 0.0131266955
0003a0 f3 07 d5 3d b8 6b d2 bc b8 47 f1 bd 8a 42 c3 3d
       0.10401907 -0.02568613 -0.117812574 0.09534176
0003b0 33 a3 7d 3d 4e b0 55 be 9e a2 31 be 84 8d 8b 3e
       0.061923217 -0.20868036 -0.1734719 0.27256405
0003c0 dd 17 34 bd 18 d8 a8 3d 20 2d 94 3e 45 02 7b bb
       -0.04396807 0.082443416 0.28940678 -0.0038300913
0003d0 71 b8 b3 3d 24 9f f5 3c b9 6e ec 3d 32 f3 1e 3f
       0.08775414 0.02998311 0.11544556 0.62089837
0003e0 7f 5c 3a be 57 db 83 3e 6b 3d 51 3e 72 a7 1b be
       -0.18199347 0.2575328 0.20433585 -0.15200594
0003f0 fb 6f fa 3c cd 82 8d 3d 18 24 15 3e 5b 0f ab 3e
       0.030570975 0.06909714 0.1456455 0.33410153

output_mlp.0.bias f4 [128]
000000 cf 69 a6 bd ae e7 14 bd 5a 89 47 3d 3c 11 17 3d
       -0.0812565 -0.03635376 0.048714973 0.03688167
000010 7f 0f 29 3b 15 56 47 bd a1 40 b7 bd 8a 5c a0 bd
       0.002579659 -0.04866608 -0.08947874 -0.078301504
000020 17 07 18 3e ae bb 48 be 7e a0 5b 3d f7 55 91 bd
       0.14846455 -0.19602844 0.053619854 -0.070964746
000030 3f e3 37 3c ce c0 80 3e a3 15 6e bb 04 9d 07 be
       0.011223613 0.25147098 -0.0036328814 -0.1324349
000040 3c b0 9b bd a1 b0 76 3d d6 9b 3e 3c 30 dc b1 3e
       -0.076019734 0.06022704 0.011633834 0.34738302
000050 71 00 22 3d 88 7a 0f bd 69 a3 e4 bd 00 40 5a be
       0.039551202 -0.035028964 -0.111639805 -0.21313477
000060 fb 51 39 bd 57 8f 36 be 0f 05 ac 3e 87 15 29 be
       -0.0452442 -0.17828117 0.3359761 -0.16512118
000070 94 05 02 3e 5a c5 66 3e ee b1 0d be 85 76 bc bd
       0.1269744 0.22536221 -0.13837406 -0.09202293
000080 04 ea 33 3e c3 45 d6 3d 37 f9 64 bd ef 40 fc bc
       0.17569739 0.10462525 -0.055901732 -0.030792682
000090 35 cc 2f be b8 0e da 3e 5b 17 e2 3d d0 8c bd 3c
       -0.17167743 0.42589355 0.11039611 0.023138434
0000a0 b4 4b 3f 3e 45 0f 45 3e 98 48 b8 bd 4c fc 15 bb
       0.18681222 0.19244106 -0.08998221 -0.0022885976
0000b0 e1 b8 44 3d d8 d0 6c bc 6f 01 0d 3e ae 09 1a 3c
       0.048027877 -0.014454089 0.13770078 0.009401722
0000c0 4e 0a e0 3e 48 91 83 3e 43 d6 4a 3e 5f b3 59 3c
       0.43757862 0.25696778 0.19808297 0.013287394
0000d0 57 78 b0 bd db 21 4c 3d 18 b7 58 3e 43 9e 75 bc
       -0.08616703 0.049836975 0.21163595 -0.014991346
0000e0 d5 d0 44 3d af 75 e2 bd b0 9a 8f 3d 7b 0c de be
       0.04805072 -0.110576026 0.07011926 -0.43368897
0000f0 f2 94 b5 3c b9 28 1f 3d e8 98 e1 bd 30 24 b0 3e
       0.02216575 0.038857196 -0.11015493 0.3440261
000100 49 90 79 bb ec a6 fe 3d 8a 29 4d bc a7 84 9c 3e
       -0.0038080385 0.124341816 -0.012522111 0.30569956
000110 dc 5f 9d bd c4 05 86 3d 9c 0c 27 3d 44 7d bb bd
       -0.07684299 0.065440685 0.04078351 -0.09154752
000120 71 66 ac bd ff c2 9f 3d 68 1e 95 bd 7b b2 ad 3e
       -0.08417977 0.078008644 -0.0728119 0.33925232
000130 09 99 07 3d 0e 11 cd 3e f6 53 98 3d b0 e3 8c 3e
       0.03310493 0.40052074 0.07437889 0.27517462
000140 80 e7 55 be 6b 3f 85 bd 0f b7 6c bd 65 f3 9a bd
       -0.20889091 -0.06506237 -0.057791766 -0.07565955
000150 81 b9 80 3e 5c 9a 6d bd 45 88 50 3d 9d 4e bf 3d
       0.25141528 -0.058008537 0.050911207 0.09341166
000160 75 1c 94 3d 1c a0 d6 3e 4e 36 99 3d c0 3c 3e be
       0.0723199 0.4191903 0.07481061 -0.18577862
000170 6d 3e 27 bd 75 79 9d 3d bd 56 4e bd 17 05 88 bd
       -0.04083102 0.07689182 -0.05037569 -0.06641596
000180 e4 86 bb 3e 78 13 94 bd 95 e2 7d be ac 04 b3 3c
       0.3662635 -0.07230276 -0.24793465 0.021852814
000190 bc 70 b9 3d bf 27 bf bd e1 10 14 be 7d 27 2e 3d
       0.090547055 -0.09333753 -0.14459564 0.042518128
0001a0 0d 12 ce 3d 17 e3 b2 3c 21 e3 c1 bd bd df 6e 3e
       0.10062037 0.0218368 -0.094671495 0.23327537
0001b0 1c 6b d1 bd b9 a7 e2 bc 34 11 c7 3e ca f5 f8 3d
       -0.102255076 -0.027667867 0.38880312 0.121562555
0001c0 15 64 26 bd ed 7b 3e 3c cb 41 a9 be 8f ac db 3d
       -0.04062279 0.011626226 -0.3305801 0.10726272
0001d0 e5 02 a0 bd 48 62 c6 3c 59 be 04 3e b8 83 25 3d
       -0.07813052 0.024216786 0.12963237 0.04040882
0001e0 ba 84 19 3d 25 df 07 3d 22 30 91 bc e6 f1 de bc
       0.037480094 0.03317179 -0.017723147 -0.027214956
0001f0 81 a5 08 bb 97 a2 91 bc 59 82 cd 3d 30 aa 1a 3e
       -0.00208506 -0.017777724 0.100346275 0.15103984

output_mlp.2.weight f4 [9, 128]
000000 1c 0f 99 40 d2 ba e0 3d 4f b9 52 bf a0 3c 0d 40
       4.7830944 0.10973133 -0.8231401 2.2068253
000010 6d 2e 09 be f3 2d 0b 40 b8 a6 b1 3f 2f 85 ad 3f
       -0.13396616 2.1746795 1.3879004 1.355627
000020 e1 d0 0f 3d 08 46 0c 3f df 3e 13 be d4 11 a5 3f
       0.03511131 0.5479436 -0.14379452 1.2896066
000030 2a f0 18 3f a0 a7 4c 3f dd d6 30 3d 80 35 ba 3e
       0.5974146 0.79943275 0.04317366 0.36368942
000040 63 d5 af 3f d9 6d d2 be 02 6a d2 3e d0 8a 92 be
       1.3736995 -0.41099432 0.41096503 -0.2862153
000050 14 c6 28 3f 71 b0 52 be b1 ca 5b 3f 6a 9c 99 3f
       0.65927243 -0.2057512 0.8585616 1.2000859
000060 36 50 40 3f c8 59 7b 3e 2d e9 a7 c0 d4 98 70 3f
       0.7512239 0.24545968 -5.247214 0.939832
000070 e8 78 cf 3f 85 62 3d c0 d2 df 9b 3d 19 0d b1 3f
       1.6208773 -2.9591382 0.0761105 1.3832122
000080 ff 34 7a 3d a5 99 4d 3f 96 b4 8b 3f 3b b0 13 40
       0.061085697 0.8031257 1.0914485 2.3076313
000090 26 dd d1 3c 37 5c b8 3f 6c 42 52 c0 9c 3e fb 3e
       0.025618147 1.4403142 -3.285304 0.49071205
0000a0 2b 21 25 3d 23 db eb be 41 f3 b1 3e 99 5d 3e 3e
       0.040314835 -0.46065626 0.347559 0.18590392
0000b0 ce 74 2c 40 0f 9f af 40 6a 2e 3c bf 46 d5 48 3f
       2.6946292 5.4881663 -0.7350832 0.7845043
0000c0 b6 9c 48 bf bf 89 3b 3f b4 4f b6 bd c1 24 cf 40
       -0.7836412 0.7325706 -0.08901921 6.4732366
0000d0 46 05 b0 3f 91 08 cc 3d ec cc 3a be 30 51 b9 3f
       1.3751609 0.099625714 -0.18242234 1.4477901
0000e0 38 75 e6 bf 0b 6f b7 3f d1 71 17 bf 56 cc 5d bf
       -1.8004522 1.4330763 -0.59158045 -0.86639917
0000f0 2c 34 02 3f 03 71 0f 3f 2e 23 b9 3f db 03 d6 bf
       0.5086086 0.5603182 1.4463861 -1.6719927
000100 bb 50 be 3f e2 d9 1c 3f c9 78 98 3f 07 97 c5 be
       1.4868387 0.6126996 1.1911861 -0.38591787
000110 b6 a2 ae 3f ee db 8a 3f c6 ae 91 be a8 27 b5 3f
       1.3643405 1.0848367 -0.28453654 1.4152727
000120 d0 8f 14 3f 31 d9 69 3e f2 c7 a5 3f b9 20 d3 bc
       0.5803194 0.22836758 1.2951643 -0.02577244
000130 fd 55 0c be 1a 05 8b c0 5d 66 11 be 67 b9 a4 3b
       -0.13704677 -4.3443727 -0.14199205 0.0050269845
000140 45 1a c9 3e 97 e9 20 be 8e 21 c8 bd d8 c7 af 3f
       0.39277855 -0.15714107 -0.09772025 1.3732862
000150 71 2a 4a c0 80 f3 8e 3f 32 3a a6 3e 1e b6 33 3f
       -3.1588404 1.116806 0.32466274 0.70199764
000160 fc 24 b3 bf 60 f8 19 3f 5c c8 95 be 25 64 3d 3e
       -1.3995662 0.60144615 -0.29254425 0.18495233
000170 63 5b cd 3e 07 dc 3e bf dd d3 91 3f d4 ae ae 3f
       0.40108785 -0.74554485 1.139278 1.3647103
000180 15 15 47 bf c3 d6 ae 3e 84 8b 13 40 0a b5 12 3f
       -0.77766544 0.34148225 2.3053904 0.57307494
000190 d6 32 c2 bd 8f 33 b3 3f 2a 22 72 bf 22 b3 e9 bf
       -0.094823524 1.400011 -0.9458338 -1.8257792
0001a0 3d ec 93 3d 25 5e 11 3f 05 9c e1 bf 81 fe c2 be
       0.07222793 0.5678428 -1.7625738 -0.38084796
0001b0 57 44 b6 3f 78 25 31 bd d2 16 08 bf 3b 97 a4 3f
       1.4239606 -0.043248624 -0.5315982 1.2858652
0001c0 65 a3 95 3f 59 6f 19 3f e9 1a 05 3f 29 17 b5 3f
       1.1690489 0.5993553 0.51994187 1.4147693
0001d0 03 3d f8 bf 02 f2 24 3f 69 20 9f bf f8 2f 23 3f
       -1.9393619 0.64431775 -1.2431766 0.6374507
0001e0 0d e8 e8 3e 75 58 e9 3e 43 db 2b 40 74 33 2c 3f
       0.4548954 0.455753 2.6852577 0.6726601
0001f0 39 84 5c 40 1e b3 38 3f 68 39 99 3e 96 12 1b 3e
       3.4455702 0.7214831 0.2992661 0.15143809
000200 17 16 cd 3c 28 d4 b4 bc 2f 94 6d 3d 22 44 a0 3b
       0.025034947 -0.02207382 0.058002647 0.0048909346
000210 09 2c 4a bd 86 12 93 3c 13 61 c3 3c f2 f7 dc 3b
       -0.0493584 0.017953169 0.02385 0.0067434246
000220 56 68 af bd d2 f5 3f bd 71 df ee bc c3 03 23 3d
       -0.085648224 -0.046865292 -0.02915928 0.03979851
000230 a4 aa 0d 3c 7c a2 f1 bd bf f9 88 bd d5 79 38 bd
       0.008646641 -0.117985696 -0.0668826 -0.045038063
000240 72 22 d2 3c ba 80 02 3d df 0b 15 3c cd 45 a3 bd
       0.02565119 0.031861044 0.009097069 -0.07972298
000250 a9 fa f0 3c d0 b2 ce bd 7f 53 53 bd c7 f3 bd bc
       0.0294164 -0.100926995 -0.0515933 -0.023187531
000260 f5 a7 19 3c e3 ca d6 bc d5 aa e6 bd 7b d5 98 38
       0.009378423 -0.02621979 -0.112630524 7.287689e-05
000270 94 50 c5 3c 0d 1f 4b bd 34 8d 86 bd dc 81 96 3b
       0.024086274 -0.04959016 -0.06569901 0.004593117
000280 9d ca eb bd b8 4b 0d be 09 83 2c 3c 33 33 8d 3b
       -0.11513255 -0.13798416 0.010529288 0.004309082
000290 f8 ef b8 bd 9d db a6 bd b6 3c cf bb 37 67 65 bd
       -0.090301454 -0.08147357 -0.006324376 -0.056006636
0002a0 51 14 b7 bd d9 b0 b3 bd ae 54 59 bd de 43 81 bc
       -0.08939422 -0.087739654 -0.053059272 -0.015779432
0002b0 33 fa 58 3d c6 c8 19 3d 6a 8d 29 bd 8a 52 dc 3c
       0.052972984 0.037544988 -0.04139463 0.026894826
0002c0 30 f8 f3 bd 8f 54 43 bc 5d 29 b7 bd 5f f5 87 bc
       -0.119125724 -0.011922016 -0.08943436 -0.016596494
0002d0 8f c7 c5 bb 19 3b e3 bc f1 d8 a9 bd 59 88 02 3c
       -0.006035752 -0.02773814 -0.082933314 0.007967078
0002e0 81 08 16 3c d5 f1 1a 3b 7f 00 7d 3c eb bf 23 3c
       0.009157301 0.0023642678 0.015442013 0.009994487
0002f0 31 f5 85 3c d8 eb 64 3c 59 5c 97 3c 5d 1c fc bd
       0.016352268 0.013972245 0.018476652 -0.12310097
000300 0b 2e 06 3d b8 3c 79 bd 0c a6 96 3c 37 8a 63 bd
       0.032758754 -0.06084892 0.018389724 -0.055551734
000310 c3 75 ce bb 19 4b 8e bb 49 98 0f 3c e5 32 4c 3c
       -0.0063006594 -0.0043424484 0.008764335 0.012463306
000320 7f 65 5f 3d 19 6f 75 3c ad c9 b5 3c df fe 80 bd
       0.054540154 0.014980101 0.022190893 -0.06298613
000330 0b c4 91 bd 9b 6a ee bd d6 b2 40 bc 5b 93 46 bd
       -0.0711747 -0.11641427 -0.011761388 -0.048480373
000340 35 83 28 bd 06 a3 51 bd f5 0c 2e bd 5f e3 83 3c
       -0.041140754 -0.051180862 -0.042492826 0.01609963
000350 bf f9 9b bd b3 03 4f bc 4e f4 c7 bd 52 35 e6 3c
       -0.07615995 -0.012635159 -0.09763394 0.028101597
000360 af ef 3d bd 6f 7d 13 be d3 f5 df 3c 35 67 80 bc
       -0.04637116 -0.14403318 0.027338898 -0.015674213
000370 80 d4 21 bd 84 4d 9a bd 4c 14 bc 3b d2 3f ed 3b
       -0.039509296 -0.07534316 0.0057397243 0.007240274
000380 3e a6 b1 bd 23 73 c5 bd 6c ec b6 3c 08 8e 41 3d
       -0.08674286 -0.09641101 0.022329532 0.047254592
000390 e3 0a 59 bd 32 7f 6f 3b a7 85 88 3d 6d a3 1c 3b
       -0.052988898 0.003654432 0.06666117 0.002390112
0003a0 13 45 93 bd 71 36 01 3d e2 a5 af bd c4 89 4f be
       -0.07190909 0.03154606 -0.085765615 -0.20267397
0003b0 75 88 d0 bc 29 42 16 be 08 72 37 be 5d 07 9f bd
       -0.025455693 -0.14673676 -0.17914593 -0.07765076
0003c0 46 75 01 bb 86 4f 8f 3c c8 e1 ac bb b5 99 a3 bb
       -0.0019753738 0.017493974 -0.0052759387 -0.0049926885
0003d0 4b 89 b5 bc 25 07 0a 3d ab fe 4f bd f8 2f d6 3b
       -0.022160193 0.03369822 -0.05077998 0.00653648
0003e0 70 b5 d1 bc c9 2f 8a 3c 98 71 30 3d 70 e8 98 3c
       -0.025599211 0.016868489 0.04307708 0.018665522
0003f0 ac 8b cf 3a 47 a1 a8 bc fe be de bc ee d0 1b 3c
       0.0015834472 -0.020584716 -0.027190682 0.009510262

output_mlp.2.bias f4 [9]
000000 2d 05 2c be d5 5b 30 bd 24 7f 39 bd be 60 26 3e
       -0.1679885 -0.043056328 -0.045287266 0.16247842
000010 10 93 6f 3e a4 be 9c 3c b1 0c 37 bd d0 2b 59 be
       0.23395944 0.019133873 -0.044689838 -0.2120812
000020 59 7d c3 3e
       0.3818157
